src/flatland/flat_game/results/ourmethod_reg9/rep_learner.pth (torch_old, 312910 bytes, 33 tensors)

representations f4 [6]
0.0026184062 -0.002558171 -1.2570728 -0.0011508302 0.0016002037 -0.0029890984
00000000: 9199 2b3b fda6 27bb c3e7 a0bf 74d7 96ba
00000010: edbd d13a c0e4 43bb

representations f4 [6]
0.0031683426 -0.0065351767 1.2550586 0.00574998 -0.0053639193 0.0023277912
00000000: f8a3 4f3b 0925 d6bb c3a5 a03f 546a bc3b
00000010: d1c3 afbb db8d 183b

representations f4 [6]
-0.00443268 0.0008386644 0.00031183322 -1.2798618 -0.0065724174 -0.00790975
00000000: 0440 91bb d1d9 5b3a 8c7d a339 83d2 a3bf
00000010: 6f5d d7bb e597 01bc

representations f4 [6]
-0.0017678969 0.00012054143 -0.001975434 1.2664561 -0.0039675124 -0.00929312
00000000: c7b8 e7ba 30cb fc38 4876 01bb 3c1b a23f
00000010: e801 82bb 2c42 18bc

fc1.weight f4 [64, 4]
-0.31915465 -0.22273429 -0.48892784 -0.29686126 -2.084988 -1.0908175 -1.0246308 0.7838966
1.30875 0.20744969 -1.07532 0.64298415 -1.8496063 -0.26018512 1.4223974 0.86308664
0.42132458 -1.4759977 -0.833507 -1.2944766 -0.1389817 0.4144896 0.5453855 -1.2556891
1.4407918 1.3133371 -1.918585 2.4958203 -2.4839184 -0.13381103 0.13666566 1.9491967
-0.05227235 -0.5229777 -0.16747715 0.12401691 -1.0566506 2.4420033 -0.30869517 -0.7263452
-0.49286586 -1.1980637 0.5360533 -0.3803101 0.26042795 -0.07446275 0.05179722 -0.048097372
0.663275 -1.7363034 0.08145959 0.24992117 -0.05351457 -0.009342536 0.15540129 -0.2796402
-0.4800836 1.1767286 -0.8158761 2.2901685 0.605874 1.8657511 -1.0249115 -0.55521303
1.3018407 2.1192727 -0.7983161 0.8497723 2.46776 -1.0137033 0.38216218 -0.025938464
-1.215366 -0.8166511 -1.7421051 0.022705244 1.5865616 1.1012837 2.1866808 -0.111751944
0.5626091 -1.5896807 -0.41961685 0.8611409 -1.4650658 -1.7201376 -0.76817816 -1.0686051
0.71788824 -1.8033099 1.8528516 -1.6906619 0.38995376 -1.2612711 0.06147078 -0.091844834
-2.5360763 -1.641862 -0.7692775 -0.0534335 -0.8148891 1.0052507 1.9771981 -0.87012446
0.8222291 -0.98288536 0.36775786 -0.03485844 -1.517781 -1.1488345 1.6205194 -0.8462251
-1.275838 0.5154709 1.5022976 -0.533318 1.3771466 0.6696401 -1.2700827 -0.30996022
-2.3332684 0.5494844 -2.7553546 -0.49454004 1.2080493 3.1378152 -0.18415286 -0.46820992
1.2127678 0.852143 2.1507883 3.7238247 1.5291426 1.3871737 -0.5901972 2.8220706
3.0219164 1.6011688 -2.135946 -0.43296015 0.00978366 -0.4589824 2.3674002 -0.0210403
0.19358148 -0.2720436 0.14436767 -0.03688745 0.013477709 -1.5032636 0.64428383 0.73237133
1.9209511 -0.81812507 -0.5598452 -0.48914143 0.7622253 -0.5131601 -2.0857944 3.370695
-0.74980265 2.3006377 0.17979564 -0.28193772 -0.04045575 -0.5138978 -1.1554211 0.7909364
1.2305154 1.7028381 1.1727538 0.9046407 2.2455008 -0.4810644 0.26211545 2.407858
-2.7488062 -0.40096372 0.42867178 0.038150016 0.5428886 1.3486592 -1.3872254 -1.6837021
1.8645043 -0.26602066 1.3205147 -1.3456149 0.115008466 -0.4677305 -1.0681859 -1.9009744
0.14344937 -1.6375132 0.6588974 2.8832784 0.035494342 2.5728786 -2.2916033 -0.038557414
0.33025673 -1.0982217 -0.6105764 -1.0521675 1.296392 -1.1048032 -1.1689625 -1.6542203
0.3719864 0.29419282 -1.5259426 -1.4918239 -2.2255783 0.76391083 1.2460295 1.1589954
-1.7418591 1.792821 -0.094240025 1.1739223 1.1942272 0.80120146 0.07863202 -0.4844256
-0.27759436 1.7946104 0.21146142 -1.1527046 -0.28963885 -0.19778451 -0.1960477 -0.17126562
0.17402494 -0.6160938 2.7106879 -0.21522272 0.31300265 4.1248493 -0.4489043 0.96575844
0.15330139 -1.3068373 0.2434477 -0.06247758 -0.049831595 0.54659253 -0.6718947 -1.2833306
-1.3449193 -1.0937366 -1.1511972 2.147761 1.0585324 -2.030965 -0.20529063 0.01035078
00000000: 3d68 a3be 7514 64be c054 fabe 33fe 97be
00000010: 7270 05c0 e89f 8bbf 1a27 83bf 73ad 483f
00000020: 1f85 a73f b16d 543e 16a4 89bf 9c9a 243f
00000030: e6bf ecbf fc36 85be 1e11 b63f 3ff3 5c3f
00000040: dbb7 d73e 7eed bcbf b760 55bf 69b1 a5bf
00000050: 3851 0ebe fb37 d43e 629e 0b3f 6cba a0bf
00000060: de6b b83f 6e1b a83f 3194 f5bf 85bb 1f40
00000070: 85f8 1ec0 c205 09be 15f2 0b3e 477f f93f
00000080: 881b 56bd dee1 05bf 217f 2bbe 94fc fd3d
00000090: 5440 87bf c849 1c40 4b0d 9ebe c2f1 39bf
000000a0: ea58 fcbe 275a 99bf ca3a 093f 01b8 c2be
000000b0: d056 853e ed7f 98bd 5229 543d c001 45bd
000000c0: 64cc 293f 313f debf 49d4 a63d 56eb 7f3e
000000d0: 1832 5bbd 7011 19bc 8421 1f3e 002d 8fbe
000000e0: 85cd f5be 0b9f 963f 42dd 50bf 1f92 1240
000000f0: 8f1a 1b3f efd0 ee3f 4d30 83bf 7122 0ebf
00000100: b7a2 a63f 2aa2 0740 725e 4cbf ad8a 593f
00000110: c8ef 1d40 08c1 81bf c3aa c33e e77c d4bc
00000120: 1d91 9bbf 0c10 51bf 4dfd debf 5900 ba3c
00000130: 7314 cb3f ddf6 8c3f 94f2 0b40 34de e4bd
00000140: 2607 103f a87a cbbf 05d8 d6be bb73 5c3f
00000150: 4787 bbbf 782d dcbf 53a7 44bf 0dc8 88bf
00000160: 86c7 373f dcd2 e6bf 3e2a ed3f 9c67 d8bf
00000170: 05a8 c73e 5571 a1bf c9c8 7b3d 2519 bcbd
00000180: 134f 22c0 8928 d2bf 5fef 44bf 16dd 5abd
00000190: 929c 50bf 0eac 803f d414 fd3f 7ac0 5ebf
000001a0: 9b7d 523f 609e 7bbf c24a bc3e b9c7 0ebd
000001b0: a646 c2bf 020d 93bf 2e6d cf3f 35a2 58bf
000001c0: a94e a3bf e7f5 033f 4a4b c03f 8787 08bf
000001d0: 5746 b03f 896d 2b3f 1292 a2bf 1bb3 9ebe
000001e0: 4554 15c0 02ab 0c3f bb57 30c0 5a34 fdbe
000001f0: 5ca1 9a3f f7d1 4840 9192 3cbe 36b9 efbe
00000200: fa3b 9b3f 0b26 5a3f 84a6 0940 2553 6e40
00000210: f2ba c33f e88e b13f 2a17 17bf ce9c 3440
00000220: 1467 4140 19f3 cc3f 57b3 08c0 f4ac ddbe
00000230: a54b 203c beff eabe 7c83 1740 b55c acbc
00000240: 393a 463e 4c49 8bbe 1ed5 133e 4b17 17bd
00000250: 9cd1 5c3c f16a c0bf c9ef 243f b07c 3b3f
00000260: bae1 f53f a570 51bf 0452 0fbf bf70 fabe
00000270: 3221 433f 765e 03bf a87d 05c0 78b9 5740
00000280: 11f3 3fbf a63d 1340 591c 383e 245a 90be
00000290: eeb4 25bd ce8e 03bf d7e4 93bf cf7a 4a3f
000002a0: 8781 9d3f 99f6 d93f cc1c 963f 8896 673f
000002b0: 49b6 0f40 134e f6be ff33 863e 581a 1a40
000002c0: 71ec 2fc0 1e4b cdbe de7a db3e 3143 1c3d
000002d0: bffa 0a3f dda0 ac3f 9a90 b1bf 8d83 d7bf
000002e0: 14a8 ee3f dc33 88be a006 a93f 1c3d acbf
000002f0: 8f89 eb3d 5f7a efbe 51ba 88bf 2153 f3bf
00000300: 64e4 123e 089a d1bf 80ad 283f a287 3840
00000310: 8462 113d 0baa 2440 a1a9 12c0 61ee 1dbd
00000320: 6917 a93e 8792 8cbf bc4e 1cbf 6dad 86bf
00000330: 2cf0 a53f 316a 8dbf 90a0 95bf 7ebd d3bf
00000340: 0075 be3e 71a0 963e 1652 c3bf 16f4 bebf
00000350: e06f 0ec0 a98f 433f e57d 9f3f f659 943f
00000360: 3df5 debf 297b e53f ea00 c1bd 1643 963f
00000370: 70dc 983f 8a1b 4d3f d309 a13d a206 f8be
00000380: d920 8ebe cbb5 e53f 5889 583e d38b 93bf
00000390: 8b4b 94be 0688 4abe bac0 48be 4160 2fbe
000003a0: 9833 323e 53b8 1dbf e97b 2d40 5863 5cbe
000003b0: e241 a03e c4fe 8340 c9d6 e5be f23b 773f
000003c0: 0afb 1c3e 7246 a7bf 5b4a 793e 7ee8 7fbd
000003d0: 371c 4cbd 7ded 0b3f 4b01 2cbf 2d44 a4bf
000003e0: 5126 acbf 90ff 8bbf 6e5a 93bf eb74 0940
000003f0: fd7d 873f 55fb 01c0 b537 52be 5196 293c

fc1.bias f4 [64]
0.30837834 -0.14833616 0.76692575 0.2436374 0.30774972 0.3631379 -1.2434971 -0.90812826
0.37014404 0.079240344 0.4118991 -0.40492988 0.77493423 -0.43602636 -0.29129708 0.23675042
0.16880526 0.6302947 0.6056597 0.25414717 0.2835344 0.8227528 0.5396123 0.3616521
-0.021286637 0.011790054 0.5505473 0.27236784 0.43468142 0.47312492 0.36312944 -0.083727546
-1.5650768 -0.41763464 0.445416 0.39788702 -0.48819017 0.5715072 0.6567938 -0.3874285
0.4473398 0.49798733 -0.34909818 -0.21404146 0.091328785 -0.069662884 0.7692155 0.09689943
-0.03907183 0.52138466 0.28145313 0.67459255 0.6470998 -1.3735405 -0.16629599 0.553145
0.46068603 -0.48193735 0.3053123 -0.4523595 0.36748666 0.45966962 -0.117522895 0.8022848
00000000: c4e3 9d3e 6fe5 17be 3f55 443f 157c 793e
00000010: 5f91 9d3e 36ed b93e ea2a 9fbf 187b 68bf
00000020: 8583 bd3e c348 a23d 70e4 d23e f852 cfbe
00000030: 1762 463f d93e dfbe e424 95be b46e 723e
00000040: 49db 2c3e fe5a 213f 840c 1b3f 941f 823e
00000050: 6c2b 913e ed9f 523f 0824 0a3f 772a b93e
00000060: 5061 aebc 122b 413c abf0 0c3f cc73 8b3e
00000070: 908e de3e 6e3d f23e 1aec b93e 5979 abbd
00000080: 7054 c8bf 35d4 d5be 910d e43e d9b7 cb3e
00000090: 10f4 f9be 4c4e 123f a323 283f 075d c6be
000000a0: b909 e53e 32f8 fe3e ffbc b2be af2d 5bbe
000000b0: 960a bb3d 6aab 8ebd 4feb 443f 3573 c63d
000000c0: c909 20bd 7779 053f a01a 903e 19b2 2c3f
000000d0: 55a8 253f 2dd0 afbf 7f49 2abe e99a 0d3f
000000e0: 0adf eb3e 7ec0 f6be e551 9c3e aa9b e7be
000000f0: 3627 bc3e d159 eb3e d8af f0bd 8962 4d3f

fc2.weight f4 [180, 64]
-0.014312942 0.036773074 -0.15191422 -0.055604745 0.016271286 -0.040032197 -0.0052396236 -0.09601424
0.0029409712 -0.0654716 -0.11654968 -0.02342783 -0.0073094955 0.050499156 -0.0014608651 0.009319502
-0.1622075 0.024904812 0.073576935 0.06548028 -0.040742856 0.1094515 -0.10277861 -0.07616984
0.07369754 -0.018118992 0.064387 0.018708915 0.09232101 0.02402512 -0.07883023 -0.07065427
-0.119943485 -0.13591552 0.03929794 -0.1068185 0.113628194 -0.1516235 0.002758273 -0.010251881
-0.0961053 -0.085384615 -0.04299608 -0.07162291 -0.025173409 -0.11471449 -0.020668656 -0.07224476
-0.008330226 0.019506756 -0.12377974 -0.044888325 -0.07826041 0.053130426 -0.050249204 -0.13369244
-0.013424505 -0.08510795 0.041224524 0.11519067 -0.03419583 -0.095080085 -0.02967006 -0.081300154
0.009807464 1.0494419 0.11232074 0.10023568 0.22441764 -0.0023675244 -1.2177768 -1.1086076
0.21944715 -0.37212995 0.004769047 -0.09902693 -0.3237905 0.13754006 1.2055035 -0.21852466
0.27076733 -0.18852289 0.0607475 0.65680623 0.41758633 0.103761174 -0.43958956 -0.4696443
0.06350513 0.45052347 0.35561654 -0.5135518 0.13840288 0.2559719 -0.24326235 0.23233025
0.8338535 0.27411622 -2.37819 0.6732627 -0.035070613 0.30803424 -0.045976654 -0.83548945
0.3090681 0.03144968 0.85392 -0.3929308 -0.26561454 0.1500563 0.8442983 -0.43593705
1.294751 -0.65592456 0.15791331 0.23013212 0.9004079 -1.689434 0.075766765 0.46423057
0.27323276 0.1440359 0.22434284 0.19529726 -0.111604944 0.5953123 0.22658168 -1.121063
0.7693364 -1.6818644 0.8894339 0.17526928 0.6789181 0.44106287 -0.12055451 -1.1784939
0.48998228 0.62274426 0.104948364 -0.014861911 1.1476777 0.033157907 0.93294775 0.44167382
0.9989034 1.1018468 0.28508928 0.35369298 1.2147624 -0.2993876 1.3877021 0.8933881
-0.46585947 0.26818913 0.6341533 0.12776774 0.36777973 0.52024674 1.5982207 -0.23993221
-0.257378 0.8698172 -0.3946409 0.8511058 0.020074334 0.8307652 1.1516961 1.3752695
-0.019439673 0.85953224 -0.31511363 1.6135885 -0.34439898 0.9895263 0.910981 0.19770946
1.373918 0.68304527 0.40602294 1.0621223 1.3583865 0.045531735 0.239433 0.5557666
0.053674757 0.29853544 1.4869125 0.7157335 0.69233435 0.82410455 1.3027728 1.092523
-0.1174261 0.05453697 -0.18540984 -0.03798766 -0.023000076 0.00027641654 0.036870062 -0.08307076
-0.20462649 -0.00043906804 -0.12048802 -0.07819502 -0.08297525 0.07568756 -0.12254849 -0.0981022
-0.091267265 -0.1251655 -0.16481237 -0.1861047 -0.11042147 -0.07595512 -0.011860788 -0.02480882
0.040095523 -0.11158146 -0.13090886 -0.061553568 -0.14530936 0.016399937 -0.0052437186 0.007547694
-0.19887695 0.036790874 -0.07060088 -0.07580044 0.053142354 -0.16603526 0.072235376 -0.13396764
0.018461728 0.0113681955 -0.03336864 0.042689547 0.015041834 -0.011494294 -0.09865084 0.013356864
-0.15351279 -0.049835633 -0.090127826 -0.10961431 -0.17297998 -0.03555157 -0.00055581453 -0.08007072
-0.016600084 -0.06985594 -0.113759205 0.004681508 -0.033452913 0.0090001905 -0.12042585 -0.029752418
00000000: d480 6abc 5d9f 163d 678f 1bbe cdc1 63bd
00000010: 5c4b 853c cdf8 23bd 26b1 abbb 1da3 c4bd
00000020: 4fbd 403b f915 86bd 99b1 eebd b8eb bfbc
00000030: 7e84 efbb 34d8 4e3d 807a bfba d3b0 183c
00000040: b919 26be 2d05 cc3c 81af 963d 861a 863d
00000050: fbe1 26bd 1c28 e03d 987d d2bd effe 9bbd
00000060: bcee 963d 486e 94bc 55dd 833d 7043 993c
00000070: cc12 bd3d 54d0 c43c be71 a1bd 30b3 90bd
00000080: eea4 f5bd 702d 0bbe e0f6 203d a8c3 dabd
00000090: e6b5 e83d 3143 1bbe 24c4 343b 81f7 27bc
000000a0: dbd2 c4bd 21de aebd a81c 30bd 08af 92bd
000000b0: 7738 cebc 6eef eabd 5051 a9bc 10f5 93bd
000000c0: 807b 08bc a2cc 9f3c 3b80 fdbd d2dc 37bd
000000d0: fe46 a0bd 4a9f 593d 1cd2 4dbd ace6 08be
000000e0: 74f2 5bbc 144d aebd 0cdb 283d 16e9 eb3d
000000f0: ed10 0cbd 59b9 c2bd a00e f3bc b280 a6bd
00000100: 7caf 203c 1d54 863f 6b08 e63d 5d48 cd3d
00000110: bdcd 653e 7828 1bbb 1ce0 9bbf dbe6 8dbf
00000120: c1b6 603e d187 bebe aa45 9c3b a2ce cabd
00000130: dec7 a5be 4dd7 0c3e f04d 9a3f eec4 5fbe
00000140: 04a2 8a3e 250c 41be 5fd2 783d 7424 283f
00000150: e0cd d53e bd80 d43d e211 e1be 3875 f0be
00000160: fa0e 823d 03ab e63e 5f13 b63e 2178 03bf
00000170: 7cb9 0d3e c00e 833e c419 79be fbe7 6d3e
00000180: 6c77 553f f658 8c3e 4434 18c0 f25a 2c3f
00000190: 34a6 0fbd aab6 9d3e 0452 3cbd a3e2 55bf
000001a0: 2d3e 9e3e 61d1 003d 809a 5a3f 3a2e c9be
000001b0: a1fe 87be 5ca8 193e ef23 583f 2433 dfbe
000001c0: 67ba a53f acea 27bf 07b4 213e c1a7 6b3e
000001d0: 2281 663f 603f d8bf 9b2b 9b3d a1af ed3e
000001e0: 2ae5 8b3e 267e 133e 21ba 653e 01fc 473e
000001f0: 2291 e4bd 6366 183f 0705 683e fe7e 8fbf
00000200: 3bf3 443f 5547 d7bf f1b1 633f ca79 333e
00000210: 94cd 2d3f fed2 e13e 48e5 f6bd e3d8 96bf
00000220: f5de fa3e 2b6c 1f3f 2bef d63d 5f7f 73bc
00000230: 1ae7 923f 96d0 073d aad5 6e3f 1223 e23e
00000240: 22b8 7f3f 5109 8d3f 39f7 913e 3f17 b53e
00000250: 567d 9b3f 5549 99be 39a0 b13f 15b5 643f
00000260: 2285 eebe 1650 893e df57 223f 8cd5 023e
00000270: a04d bc3e e42e 053f 7f92 cc3f cab0 75be
00000280: 0dc7 83be 57ac 5e3f 5f0e cabe 12e2 593f
00000290: ee72 a43c 07ad 543f c76a 933f d508 b03f
000002a0: f33f 9fbc 4e0a 5c3f 9356 a1be 118a ce3f
000002b0: 1055 b0be 9851 7d3f 0d36 693f 5974 4a3e
000002c0: 8cdc af3f 0edc 2e3f 3de2 cf3e a0f3 873f
000002d0: 9cdf ad3f 7c7f 3a3d ed2d 753e b846 0e3f
000002e0: 10da 5b3d a3d9 983e 2653 be3f 503a 373f
000002f0: d33c 313f 84f8 523f 42c1 a63f cbd7 8b3f
00000300: 187d f0bd 2862 5f3d 14dc 3dbe f398 1bbd
00000310: a86a bcbc 00ec 9039 1005 173d 0121 aabd
00000320: 9b89 51be b732 e6b9 6cc2 f6bd b624 a0bd
00000330: eeee a9bd 1402 9b3d b4fa fabd cee9 c8bd
00000340: 55ea babd 632b 00be 93c4 28be 3b92 3ebe
00000350: a724 e2bd 5c8e 9bbd c053 42bc de3b cbbc
00000360: 343b 243d d284 e4bd f90c 06be 981f 7cbd
00000370: facb 14be 2959 863c 80d3 abbb a552 f73b
00000380: 66a6 4bbe 07b2 163d 3297 90bd 433d 9bbd
00000390: ccab 593d 2605 2abe 24f0 933d d02e 09be
000003a0: 0d3d 973c ab41 3a3c 8ead 08bd 3cdb 2e3d
000003b0: 0672 763c 9052 3cbc 7409 cabd c0d6 5a3c
000003c0: 7532 1dbe 7320 4cbd f094 b8bd 787d e0bd
000003d0: aa21 31be 869e 11bd 15b4 11ba 1efc a3bd
000003e0: e6fc 87bc a210 8fbd 96fa e8bd 5667 993b
000003f0: ec05 09bd 8975 133c d4a1 f6bd 58bb f3bc

fc2.bias f4 [180]
-0.09454439 0.14820659 0.506682 -0.16995734 0.36684513 0.2555379 -0.01829052 -0.12852381
0.005764321 -0.07606808 -0.042470545 0.1924438 -0.06520077 0.035695657 -0.0763002 -0.14870565
-0.140387 -0.067870066 0.04732242 -0.03969298 0.34772974 0.0083605815 -0.0346589 -0.06541648
-0.13011712 -0.022667127 -0.08281376 -0.13622758 -0.10286254 0.20184003 -0.12619628 0.12684467
-0.23878261 -0.08525146 0.012509422 0.14714609 -0.16558369 -0.006559218 0.47010663 0.08789011
0.46600974 0.20297384 -0.06899408 0.032930758 -0.020677473 -0.0517291 0.03933517 -0.09788507
0.19273308 -0.13900179 -0.1809104 -0.04365828 -0.2178813 0.043019604 0.066176705 -0.14303403
0.0042032045 -0.1041165 -0.069905706 -0.054048553 0.3757706 -0.04504309 -0.14535497 -0.024140444
-0.13970882 -0.09379273 0.22569291 0.25291893 -0.12152635 0.14607288 -0.1671169 -0.17371802
-0.028690426 0.4064026 0.0801126 0.5034104 0.24723229 0.0016009645 0.1788977 -0.15488847
-0.11725353 -0.053834938 -0.13144505 -0.1472639 0.1800192 -0.13612995 -0.0472416 -0.05633593
-0.109441146 -0.07227446 -0.12642974 -0.18066388 -0.12680475 -0.031689722 -0.17522144 -0.14267057
0.44894037 -0.03647036 -0.16446263 -0.117228255 -0.12272921 -0.14378968 0.35540295 -0.06860503
-0.17660666 -0.051168226 0.052356184 0.20411362 -0.100748815 -0.10227641 -0.042431436 -0.06616773
0.090561256 0.02641772 -0.17579503 -0.19423968 -0.13641672 -0.07681147 -0.10514531 0.08178144
0.018859837 0.011267386 -0.042183638 -0.021439686 -0.11030187 -0.041597687 -0.031582672 -0.005341195
-0.0013170248 -0.0045798123 -0.12718877 0.3636889 0.0677172 -0.018280938 -0.08915962 -0.033189062
-0.11373663 0.27122596 0.39786583 0.14516252 0.35647416 0.0013020705 0.55139065 0.05447731
0.45627794 -0.15346557 0.10201864 -0.10600297 0.0353158 0.32094657 0.3133868 -0.046703175
-0.005505067 -0.26352015 -0.095976576 -0.063562214 -0.21403672 -0.1126857 -0.05398198 -0.013452961
-0.0468229 0.41512677 -0.14389136 -0.1187937 -0.07683193 -0.12976107 -0.1534168 0.40628976
0.3313342 -0.03853342 -0.06561194 -0.1776967 -0.10416481 0.21613525 0.20979539 0.21625891
0.39270788 0.30717885 0.3194624 0.40891466
00000000: 7da0 c1bd 78c3 173e e9b5 013f 4c09 2ebe
00000010: 20d3 bb3e ddd5 823e 00d6 95bc bf9b 03be
00000020: a1e2 bc3b 95c9 9bbd 98f5 2dbd fd0f 453e
00000030: fb87 85bd 9c35 123d 4743 9cbd 4b46 18be
00000040: 9cc1 0fbe 76ff 8abd 27d5 413d 1b95 22bd
00000050: a209 b23e d2fa 083c 7ef6 0dbd 13f9 85bd
00000060: 6c3d 05be 69b0 b9bc 439a a9bd 3e7f 0bbe
00000070: 98a9 d2bd 27af 4e3e 9939 01be 92e3 013e
00000080: 6e83 74be 5198 aebd 52f4 4c3c 77ad 163e
00000090: c58e 29be b5ee d6bb d1b1 f03e bbff b33d
000000a0: d498 ee3e 60d8 4f3e c54c 8dbd 67e2 063d
000000b0: ce63 a9bc e5e1 53bd ea1d 213d f877 c8bd
000000c0: d25b 453e 7c56 0ebe 9340 39be 06d3 32bd
000000d0: 471c 5fbe 5335 303d a787 873d 8377 12be
000000e0: 09bb 893b 083b d5bd b92a 8fbd 0462 5dbd
000000f0: 0165 c03e 1a7f 38bd efd7 14be 2ec2 c5bc
00000100: d40f 0fbe 6716 c0bd 0b1c 673e 977e 813e
00000110: cfe2 f8bd 2194 153e b120 2bbe 23e3 31be
00000120: 2f08 ebbc 0014 d03e 1312 a43d 81df 003f
00000130: 762a 7d3e 74d7 d13a f530 373e 159b 1ebe
00000140: 9e22 f0bd 0682 5cbd 8899 06be 59cc 16be
00000150: f456 383e a665 0bbe 6880 41bd 81c0 66bd
00000160: ae22 e0bd a204 94bd cc76 01be f4ff 38be
00000170: 1bd9 01be 15cd 01bd 406d 33be 3c18 12be
00000180: 83db e53e f261 15bd e468 28be 5e15 f0bd
00000190: 7459 fbbd 9a3d 13be 60f7 b53e cb80 8cbd
000001a0: 60d8 34be c695 51bd 7073 563d 2903 513e
000001b0: 6555 cebd 4b76 d1bd 96cc 2dbd f282 87bd
000001c0: 2e78 b93d f969 d83c 9d03 34be c4e6 46be
000001d0: d3b0 0bbe 554f 9dbd 6d56 d7bd 077d a73d
000001e0: f27f 9a3c d89a 383c c0c8 2cbd 48a2 afbc
000001f0: f2e5 e1bd 5662 2abd d55c 01bd 3105 afbb
00000200: 05a0 acba 4012 96bb c63d 02be 6e35 ba3e
00000210: 51af 8a3d e8c1 95bc 5299 b6bd 41f1 07bd
00000220: c0ee e8bd 21de 8a3e 12b5 cb3e 7ca5 143e
00000230: c883 b63e 3caa aa3a f027 0d3f 9a23 5f3d
00000240: 439d e93e 1426 1dbe 26ef d03d 1618 d9bd
00000250: 4da7 103d 1c53 a43e 3c74 a03e d44b 3fbd
00000260: d963 b4bb 1dec 86be 5e8f c4bd e82c 82bd
00000270: 712c 5bbe c3c7 e6bd 351c 5dbd cf69 5cbc
00000280: 5fc9 3fbd 7f8b d43e 4258 13be 1d4a f3bd
00000290: 0f5a 9dbd 16e0 04be 4b19 1dbe 3605 d03e
000002a0: a3a4 a93e 38d5 1dbd 8e5f 86bd 20f6 35be
000002b0: 5c54 d5bd 8f52 5d3e 9ad4 563e fa72 5d3e
000002c0: 0211 c93e 8c46 9d3e 9390 a33e 435d d13e

conv.weight f4 [5, 1, 34, 34]
0.16748081 0.29694587 0.041802034 -0.057764716 0.076867774 0.023332192 0.12860645 -0.030825384
-0.19413117 -0.2515916 -0.61803335 -0.37964284 -0.4780766 -0.52684987 -0.7621662 -0.8289863
-0.9326588 -1.2407413 -0.8565355 -0.9727731 -1.4579405 -1.4147725 -1.4900136 -1.5829928
-1.2963717 -1.0959378 -1.1206585 -0.96321756 -0.9517878 -0.93598694 -0.9537603 -0.9153111
-0.8982197 -0.81110066 0.26445505 0.24241774 0.05208699 0.13633159 0.097671315 0.03455429
0.05269585 -0.07265302 -0.12271497 -0.33545575 -0.24329907 -0.3095514 -0.2813884 -0.59725654
-0.7147567 -0.92231613 -1.0716201 -1.0198137 -0.73621565 -0.96535456 -1.5175251 -1.5210813
-1.5654864 -1.3870345 -1.2023617 -1.0182714 -1.0995098 -0.9538935 -0.8623068 -0.8866404
-0.9824954 -0.9531502 -0.8275638 -0.789549 0.26086137 0.3899894 0.5203173 0.5172659
0.13270451 0.11725967 0.09209196 0.041089393 -0.25971165 -0.28626946 -0.1468203 -0.24283071
-0.45779437 -0.41937202 -0.710737 -1.0861458 -0.9624775 -1.0491375 -1.1443721 -1.0148654
-1.4776179 -1.6337842 -1.549028 -1.5635651 -1.2067498 -1.3182755 -1.1568769 -0.9891666
-1.0049738 -0.9051936 -1.0715783 -1.0150545 -0.78146863 -0.7952771 0.4047309 0.4891974
0.62731725 0.7018262 0.25217187 0.16503896 0.119010344 0.15702762 -0.047260143 -0.33876482
0.063774385 -0.20171995 -0.5127522 -0.39176574 -0.4647705 -0.9354297 -0.92732453 -0.8563855
-0.9969504 -0.82041544 -1.5420032 -1.5490032 -1.6580142 -1.5107841 -1.2662847 -1.3580232
-1.2490327 -1.2949078 -1.1600232 -0.97264415 -1.0752496 -1.147435 -0.84968376 -0.85248804
0.7937507 0.48575193 0.5640055 0.5875834 0.3209464 0.33233073 0.36796466 0.32379574
0.18752606 -0.003759699 -0.11173999 -0.010329068 0.022429261 -0.03393387 -0.33879158 -0.35641962
-0.3799811 -0.40232825 -0.42024076 -0.3310542 -0.60539776 -0.74674344 -0.94532406 -1.1066402
-1.134191 -1.1698859 -0.9886624 -1.0135038 -1.2349075 -1.1455296 -0.8891399 -0.76719266
-0.7423581 -0.6861255 0.6044619 0.5227222 0.52675647 0.45469338 0.37156835 0.3954831
0.30016017 0.29323405 0.09389089 -0.07764432 -0.012403593 0.115195565 0.0009094478 -0.021561524
-0.3462736 -0.36463067 -0.37204868 -0.38671675 -0.37828392 -0.37896147 -0.6518018 -0.9570667
-1.0713313 -1.0726997 -0.9267531 -1.0639482 -1.1373152 -1.4119415 -1.2682159 -1.217163
-0.885613 -0.8204721 -0.7447842 -0.847355 0.5547253 0.6107081 0.56168747 0.5009118
0.6304569 0.45211697 0.4893691 0.42045036 0.10069548 -0.074238405 0.020879645 0.04546419
0.027454942 0.018833796 -0.28370997 -0.32125944 -0.3752747 -0.4171033 -0.4041145 -0.38456172
-0.5442597 -0.8038825 -1.0405017 -1.0983353 -0.98068035 -1.1199518 -1.1628753 -1.1322088
-1.2329721 -1.2746845 -0.799406 -0.90945107 -0.87463576 -0.9064309 0.51061624 0.7647937
0.71855074 0.5936422 0.79368293 0.52047884 0.53300464 0.26634824 0.2472589 0.091150776
0.69766474 0.06279773 0.03742948 -0.11688055 -0.3015752 -0.3086104 -0.35408622 -0.32660142
00000000: 1780 2b3e 4a09 983e 9c38 2b3d b29a 6cbd
00000010: da6c 9d3d 2723 bf3c 69b1 033e 8485 fcbc
00000020: 52ca 46be 9dd0 80be 6f37 1ebf 8c60 c2be
00000030: 75c6 f4be a2df 06bf 531d 43bf 7238 54bf
00000040: bac2 6ebf 9cd0 9ebf e945 5bbf a807 79bf
00000050: cb9d babf 4417 b5bf c4b8 bebf 829f cabf
00000060: 82ef a5bf b147 8cbf bd71 8fbf 6d95 76bf
00000070: 5ea8 73bf d79c 6fbf a329 74bf d451 6abf
00000080: baf1 65bf 4ba4 4fbf a766 873e 5b3c 783e
00000090: 2b59 553d 829a 0b3e e607 c83d cd88 0d3d
000000a0: 9bd7 573d 1bcb 94bd fc51 fbbd dbc0 abbe
000000b0: 6423 79be 857d 9ebe 2412 90be cee5 18bf
000000c0: 4cfa 36bf e91c 6cbf d92a 89bf 4189 82bf
000000d0: a178 3cbf 7a21 77bf 433e c2bf cbb2 c2bf
000000e0: dc61 c8bf 598a b1bf fde6 99bf b856 82bf
000000f0: bdbc 8cbf 5d32 74bf 23c0 5cbf defa 62bf
00000100: d284 7bbf a701 74bf 39db 53bf e21f 4abf
00000110: 9f8f 853e b1ac c73e 8433 053f 8a6b 043f
00000120: b1e3 073e d625 f03d b69a bc3d 5a4d 283d
00000130: edf8 84be e991 92be 1058 16be 9da8 78be
00000140: 0664 eabe eeb7 d6be dcf2 35bf d306 8bbf
00000150: ed64 76bf 234a 86bf c97a 92bf 1ce7 81bf
00000160: 9522 bdbf d71f d1bf 8d46 c6bf e722 c8bf
00000170: c776 9abf 40bd a8bf 8b14 94bf 063a 7dbf
00000180: fba2 80bf c5ba 67bf 7a29 89bf 4eed 81bf
00000190: 540e 48bf 4897 4bbf e338 cf3e 1578 fa3e
000001a0: dd97 203f e2aa 333f ac1c 813e f9ff 283e
000001b0: b2bb f33d d9cb 203e da93 41bd 9572 adbe
000001c0: 259c 823d ad8f 4ebe ba43 03bf 8595 c8be
000001d0: 66f6 edbe 5278 6fbf 2465 6dbf 153c 5bbf
000001e0: 2438 7fbf bf06 52bf 5c60 c5bf bd45 c6bf
000001f0: cf39 d4bf 6061 c1bf 9e15 a2bf b4d3 adbf
00000200: 4ee0 9fbf 8abf a5bf a47b 94bf 35ff 78bf
00000210: c7a1 89bf 26df 92bf e084 59bf a83c 5abf
00000220: 3f33 4b3f 7ab4 f83e aa62 103f de6b 163f
00000230: 1653 a43e 4127 aa3e dd65 bc3e 8ec8 a53e
00000240: d506 403e 4865 76bb f0d7 e4bd 403b 29bc
00000250: 92bd b73c 3efe 0abd 1776 adbe a27c b6be
00000260: e28c c2be f8fd cdbe cc29 d7be f07f a9be
00000270: 59fb 1abf 942a 3fbf c200 72bf 63a6 8dbf
00000280: 2c2d 91bf d2be 95bf fb18 7dbf 7eba 81bf
00000290: 7311 9ebf b7a0 92bf ac9e 63bf bd66 44bf
000002a0: 2e0b 3ebf eca5 2fbf 04be 1a3f 1fd1 053f
000002b0: 83d9 063f 92cd e83e 353e be3e c37c ca3e
000002c0: 98ae 993e c622 963e de49 c03d fc03 9fbd
000002d0: 7138 4bbc a7eb eb3d 0268 6e3a cba1 b0bc
000002e0: c64a b1be dfb0 babe 2a7d bebe bdff c5be
000002f0: 6eae c1be 3d07 c2be 7cdc 26bf 5302 75bf
00000300: 6221 89bf 394e 89bf b13f 6dbf 742f 88bf
00000310: 8b93 91bf 80ba b4bf e654 a2bf ffcb 9bbf
00000320: 89b7 62bf 760a 52bf 2daa 3ebf 42ec 58bf
00000330: 7a02 0e3f 5e57 1c3f c0ca 0f3f c13b 003f
00000340: a065 213f e07b e73e 968e fa3e 4545 d73e
00000350: 6f39 ce3d 4e0a 98bd ca0b ab3c a938 3a3d
00000360: 30e9 e03c 5549 9a3c 6f42 91be 1e7c a4be
00000370: 0124 c0be 908e d5be 19e8 cebe 46e5 c4be
00000380: 9b54 0bbf 3ecb 4dbf 292f 85bf 4096 8cbf
00000390: de0d 7bbf 955a 8fbf 19d9 94bf 38ec 90bf
000003a0: 08d2 9dbf dd28 a3bf dfa5 4cbf c9d1 68bf
000003b0: 21e8 5fbf db0b 68bf bfb7 023f 85c9 433f
000003c0: f1f2 373f eff8 173f ce2e 4b3f 1a3e 053f
000003d0: fe72 083f cc5e 883e 7031 7d3e 42ad ba3d
000003e0: 289a 323f 199c 803d a84f 193d 125f efbd
000003f0: 1168 9abe 2f02 9ebe ca4a b5be 4d38 a7be

conv.weight f4 [5, 1, 10, 10]
0.0732307 0.14143535 0.0986072 0.0703386 0.20179193 0.14425683 0.38530257 0.14950198
0.11479632 0.019690769 0.09628926 0.04263743 0.11191556 0.11422467 0.061345246 0.31388375
0.3472903 0.2550034 0.21348333 0.24173826 0.06185091 0.014624482 0.07562458 0.04848499
0.22302076 0.2592026 0.3603799 0.13932163 0.16903195 0.27504063 0.14351231 0.030540416
0.077093326 0.20017566 0.3388203 0.3278792 0.2631962 0.2590588 0.19536552 0.23739757
0.16607483 -0.0014950061 0.047577847 0.15214884 0.29452792 0.19891599 0.086130686 0.11759691
0.19857714 0.19896126 0.17546226 0.005254424 0.14651282 0.12909877 0.1445117 0.19873099
0.12856089 0.28496578 0.084060326 0.2727907 0.054190166 0.116026565 0.12018694 0.10825856
0.2812827 0.22194688 0.11209016 0.18625942 0.13616902 0.25559363 0.16568576 0.12540627
0.12526228 0.06771521 0.029106107 0.050134566 0.20669037 0.11495011 0.08447827 0.13035607
0.042626884 0.08788257 -0.015491847 0.03968675 0.08958103 0.05815412 0.15362333 0.07962416
0.12521547 0.1592572 0.120684445 0.019018434 -0.06548804 -0.05236914 -0.062341765 0.037246406
0.14230178 0.08652226 0.16718523 0.17124037 0.0035566923 -0.07220187 -0.20614497 -0.109046444
0.020642398 -0.054953035 -0.02502313 -0.14841916 -0.1148712 -0.049234547 -0.062455975 -0.0667503
-0.07679261 -0.1299841 -0.05851982 -0.13389893 -0.10547763 -0.0034972331 -0.030329367 -0.17567906
-0.103924096 -0.04557935 -0.09101055 -0.03387101 -0.12636578 -0.021912176 -0.14486104 -0.06591043
-0.057641935 0.006418267 -0.048803534 -0.13891722 -0.10964882 -0.017723368 -0.06741487 -0.08384968
0.06439758 -0.0664829 -0.104241274 -0.0145071875 -0.030991936 -0.027531091 -0.019638546 -0.018646643
-0.03339304 -0.05241866 -0.015485182 -0.08051077 -0.060171712 -0.14587815 -0.1194054 -0.0961089
-0.081262395 -0.05144335 -0.0504825 -0.012857161 -0.015750885 -0.06523001 -0.03869734 -0.062169153
-0.1679662 -0.042434275 -0.03729844 -0.02270583 -0.047340203 -0.049571313 0.017200112 -0.0771601
0.035232965 -0.14193553 -0.009981271 -0.03867319 -0.026735105 -0.046309568 -0.044682026 -0.032930076
-0.09647426 -0.11969605 -0.068865836 -0.09454028 -0.09026277 0.022363463 -0.121928945 -0.051025026
-0.082695544 -0.14082591 0.011080786 -0.049994424 -0.08375899 -0.048578564 0.019346617 -0.024883866
-0.10722981 -0.11152376 0.0016721159 -0.12896091 -0.12967274 -0.12020277 0.009890161 0.018240105
-0.018584643 0.04077412 0.0889477 0.00037721777 0.12564424 0.016246982 -0.2548439 -0.054774553
-0.20136465 -0.14611885 -0.0017536539 0.065309316 -0.08234073 -0.00078506285 -0.0052319495 0.12039017
-0.043443214 -0.17395987 -0.11118288 -0.06889161 0.042718682 0.04469643 0.06331052 0.051524136
-0.0091444785 0.04844868 -0.051014062 -0.20909336 -0.016650373 -0.11893049 0.02332027 -0.021301044
-0.00427938 0.018685674 -0.018463144 -0.066635 0.05498614 -0.12580034 -0.016244961 -0.0928159
0.013639862 0.08850474 0.106004044 0.07830321 -0.088569954 0.0718258 -0.026689911 -0.16580832
-0.069081835 -0.09421537 -0.034628354 0.06052304 -0.07137398 -0.014313849 -0.091963924 -0.14040914
00000000: faf9 953d 6ed4 103e 92f2 c93d af0d 903d
00000010: 8ba2 4e3e 10b8 133e 6146 c53e 0c17 193e
00000020: 551a eb3d 894e a13c 4e33 c53d 96a4 2e3d
00000030: fc33 e53d a0ee e93d 2745 7b3d 5fb5 a03e
00000040: 09d0 b13e ce8f 823e 609b 5a3e 3c8a 773e
00000050: 6157 7d3d 869b 6f3c 0fe1 9a3d 3298 463d
00000060: 8e5f 643e 34b6 843e b783 b83e 54aa 0e3e
00000070: b616 2d3e 20d2 8c3e e4f4 123e e52f fa3c
00000080: 1be3 9d3d d9fa 4c3e db79 ad3e c8df a73e
00000090: a7c1 863e 5ba3 843e e60d 483e 5918 733e
000000a0: 850f 2a3e 15f4 c3ba fde0 423d e8cc 1b3e
000000b0: 5dcc 963e a2b0 4b3e 4965 b03d a6d6 f03d
000000c0: ce57 4b3e 80bc 4b3e 61ac 333e 4e2d ac3b
000000d0: 7507 163e 7832 043e e0fa 133e 2380 4b3e
000000e0: 77a5 033e 09e7 913e d227 ac3d 39ab 8b3e
000000f0: 82f6 5d3d 569f ed3d 9224 f63d aab6 dd3d
00000100: 4904 903e 0b46 633e 878f e53d caba 3e3e
00000110: e46f 0b3e 2bdd 823e 87a9 293e 806a 003e
00000120: c144 003e 46ae 8a3d ee6f ee3c e759 4d3d
00000130: a4a6 533e f76a eb3d f102 ad3d 107c 053e
00000140: 8799 2e3d c7fb b33d 84d1 7dbc 938e 223d
00000150: 4276 b73d 0433 6e3d 6f4f 1d3e fe11 a33d
00000160: 7c38 003e 5214 233e 6829 f73d 8ccc 9b3c
00000170: 981e 86bd 0681 56bd 145a 7fbd b08f 183d
00000180: 8fb7 113e 9532 b13d 9b32 2b3e a359 2f3e
00000190: 6517 693b 93de 93bd ab17 53be be53 dfbd
000001a0: 3f1a a93c 6f16 61bd 4ffd ccbc 31fb 17be
000001b0: 9741 ebbd 2aaa 49bd d6d1 7fbd 62b4 88bd
000001c0: 7245 9dbd 8d1a 05be 7bb2 6fbd cd1c 09be
000001d0: a804 d8bd d631 65bb 4b75 f8bc 36e5 33be
000001e0: 28d6 d4bd 6ab1 3abd bd63 babd 54bc 0abd
000001f0: 0866 01be 2a81 b3bc 7456 14be 0cfc 86bd
00000200: f319 6cbd 5350 d23b 37e6 47bd 5140 0ebe
00000210: 8f8f e0bd 9930 91bc cf10 8abd 62b9 abbd
00000220: e1e2 833d 3028 88bd 737c d5bd 8eaf 6dbc
00000230: cde2 fdbc e288 e1bc 04e1 a0bc d8c0 98bc
00000240: 24c7 08bd f3b4 56bd 90b5 7dbc d5e2 a4bd
00000250: 9d76 76bd 1561 15be d18a f4bd bed4 c4bd
00000260: e66c a6bd 43b6 52bd bdc6 4ebd d8a6 52bc
00000270: 0008 81bc 5097 85bd 1a81 1ebd 15a5 7ebd
00000280: 55ff 2bbe 90cf 2dbd 40c6 18bd 9401 babc
00000290: cde7 41bd 4a0b 4bbd 40e7 8c3c 1d06 9ebd
000002a0: 7150 103d 8c57 11be 7c88 23bc c767 1ebd
000002b0: 9403 dbbc 1aaf 3dbd 8004 37bd b0e1 06bd
000002c0: 4c94 c5bd 3423 f5bd 8809 8dbd 569e c1bd
000002d0: b0db b8bd 9533 b73c e2b5 f9bd 9eff 50bd
000002e0: 485c a9bd ab34 10be 2f8c 353c f4c6 4cbd
000002f0: d589 abbd 51fa 46bd cc7c 9e3c 40d9 cbbc
00000300: 4d9b dbbd 9266 e4bd e62a db3a 540e 04be
00000310: eec8 04be df2c f6bd 580a 223c 466c 953c
00000320: d23e 98bc c302 273d 362a b63d 50c5 c539
00000330: e2a8 003e 6418 853c e67a 82be 485b 60bd
00000340: 8932 4ebe 2ea0 15be dcda e5ba e4c0 853d
00000350: 42a2 a8bd adcc 4dba c670 abbb 1f8f f63d
00000360: 83f1 31bd 8922 32be dab3 e3bd 0b17 8dbd
00000370: c9f9 2e3d 9b13 373d f2a8 813d f90a 533d
00000380: b9d2 15bc 2072 463d 1ff4 50bd 921c 56be
00000390: 5d66 88bc d491 f3bd 270a bf3c 877f aebc
000003a0: 0b3a 8cbb b312 993c 0540 97bc ee77 88bd
000003b0: 2639 613d ced1 00be 2714 85bc 4316 bebd
000003c0: ba79 5f3c f941 b53d a618 d93d 6f5d a03d
000003d0: 2a64 b5bd 6819 933d cda4 dabc a8c9 29be
000003e0: c77a 8dbd fdf3 c0bd 76d6 0dbd 02e7 773d
000003f0: 852c 92bd a284 6abc 9557 bcbd 6ac7 0fbe

conv.bias f4 [5]
-0.12646773 -0.108486615 -0.15334187 -0.20473765 -0.063298054
00000000: c280 01be 3b2e debd a705 1dbe bfa6 51be
00000010: 69a2 81bd

fc1.weight f4 [64, 180]
-0.038814995 0.0033919215 0.01353877 0.06814095 -0.068004094 0.030506968 -0.0742618 -0.04203919
-0.043155786 -0.058580425 0.027307145 -0.062648885 0.017578445 -0.0988629 -0.046540663 -0.06895344
0.0527372 0.074167036 0.03660395 -0.0042165155 -0.124920115 -0.014626299 0.0030093016 -0.024116483
0.07118667 -0.10697853 -0.1400742 -0.11783153 -0.014799114 -0.023580845 -0.034834053 -0.06316614
-0.0021148622 -0.0049822405 0.046660893 -0.036979526 0.056357272 -0.033451185 -0.052782957 0.019987993
0.05475364 -0.060302883 -0.022510555 0.064364366 -0.13807039 0.06617109 0.037412018 0.025872186
0.057802908 -0.08008503 -0.04527854 0.06632603 -0.11370144 -0.04953612 -0.011547469 -0.058476754
0.01241675 0.050358266 -0.023684489 0.017822145 0.06417344 -0.060587812 0.011106769 -0.0011371637
-0.09813583 0.004725507 -0.07258763 -0.062202718 0.06696645 0.01717382 -0.0020430908 -0.017396502
-0.06798919 0.03520686 0.030422546 -0.049244158 0.011438943 0.029530004 -0.057881445 0.01513081
-0.004640839 -0.028069895 -0.04642077 0.06762507 -0.04682455 -0.048122775 -0.0754773 -0.04018601
-0.044567976 0.03081093 0.014190875 -0.032954343 -0.040772106 -0.12205196 -0.03360889 -0.011874087
-0.04812911 -0.13178165 -0.05997429 -0.030329825 -0.056294113 -0.054227304 -0.034527626 -0.059505887
0.015791342 -0.010018662 -0.07334872 0.04933305 0.052842192 -0.05317799 -0.009189233 -0.06213878
-0.012174182 -0.025030766 0.024281062 -0.045932338 -0.10909611 0.06785319 -0.035486724 0.039933845
-0.008361898 -0.09487788 0.0410214 -0.07425005 0.016110055 -0.050227225 0.046305366 -0.12259803
-0.12665537 -0.10090695 0.022019872 -0.010236099 -0.05515477 -0.12086771 -0.14829159 -0.06777494
0.0014397949 0.05117672 -0.023781497 -0.033552494 0.015372492 -0.0053551868 0.019539274 0.0076296777
0.026573427 -0.02036653 0.03453014 -0.010081619 0.031416036 0.041108407 0.0014400631 0.008364052
-0.01838004 -0.0037880389 0.005573757 0.051449455 -0.06886133 -0.03993214 -0.06763186 0.12689438
-0.03086986 -0.019993953 0.052100204 -0.004054047 0.06585934 -0.046613343 0.049044333 -0.051749572
0.056118198 -0.111218795 -0.04289591 -0.01766618 -0.024990771 -0.041359816 0.022909336 0.023931801
0.0710726 -0.067982264 -0.04605483 0.021958746 0.07223273 0.0731476 0.014255695 0.0398195
-0.01946729 0.059946023 0.052601226 0.051550128 -0.127173 -0.06401092 -0.007734567 0.074180625
-0.007636167 -0.10713027 -0.07072844 -0.06242215 -0.008566424 -0.06753045 0.032924272 -0.065184295
-0.13492943 -0.07847313 -0.055402555 0.0014920607 -0.04917129 -0.12703016 -0.07646078 -0.0095877545
-0.06885256 -0.009711474 -0.057181813 -0.004842624 -0.055593826 0.058778353 0.007011093 -0.059246104
0.0033404678 -0.07106045 0.022562549 0.038144454 -0.063385695 -0.09730614 0.036114022 0.058449946
0.00031103467 0.04892338 0.06026172 -0.061460096 0.013284504 -0.08025796 0.017692424 -0.019122887
-0.053711582 -0.074956186 -0.029962048 0.008715487 -0.018770032 -0.05040746 -0.118554614 -0.07664073
0.02852761 -0.09864494 -0.05288632 0.0071918773 -0.09994507 -0.008778059 -0.07264972 -0.07028801
-0.0076144338 0.03805825 -0.033451673 0.0052402182 -0.06809289 -0.07287348 0.06775575 -0.008317925
00000000: 79fc 1ebd 004b 5e3b b8d1 5d3c 7b8d 8b3d
00000010: bb45 8bbd c0e9 f93c 9216 98bd 4931 2cbd
00000020: 1fc4 30bd 07f2 6fbd 3cb3 df3c 0f4e 80bd
00000030: ac00 903c a278 cabd 6ca1 3ebd 7637 8dbd
00000040: f602 583d e3e4 973d 06ee 153d b22a 8abb
00000050: 1ed6 ffbd 25a3 6fbc b437 453b ee8f c5bc
00000060: 51ca 913d 8f17 dbbd 9c6f 0fbe a851 f1bd
00000070: fc77 72bc 9e2c c1bc 27ae 0ebd 405d 81bd
00000080: 8099 0abb 1042 a3bb 7e1f 3f3d d877 17bd
00000090: e2d6 663d 1c04 09bd f132 58bd dcbd a33c
000000a0: 5a45 603d 2800 77bd 0e68 b8bc 77d1 833d
000000b0: 5362 0dbe b584 873d 583d 193d e8f1 d33c
000000c0: bec2 6c3d 9f03 a4bd fe75 39bd f1d5 873d
000000d0: 4ddc e8bd 63e6 4abd 9831 3dbc 5285 6fbd
000000e0: a06f 4b3c 7844 4e3d f905 c2bc bfff 913c
000000f0: 5d6d 833d ed2a 78bd 2af9 353c e20c 95ba
00000100: 70fb c8bd 6dd8 9a3b d3a8 94bd 47c8 7ebd
00000110: b525 893d 1cb0 8c3c 60e5 05bb 1c83 8ebc
00000120: eb3d 8bbd 1235 103d b438 f93c 3eb4 49bd
00000130: 686a 3b3c e8e8 f13c 1815 6dbd 38e7 773c
00000140: 2e12 98bb d6f2 e5bc b523 3ebd 037f 8a3d
00000150: 19cb 3fbd 631c 45bd d893 9abd 169a 24bd
00000160: e98c 36bd 3467 fc3c d880 683c 22fb 06bd
00000170: a700 27bd 61f6 f9bd 7aa9 09bd 888b 42bc
00000180: 0823 45bd c5f1 06be 9aa7 75bd 4176 f8bc
00000190: a894 66bd 731d 5ebd d76c 0dbd 72bc 73bd
000001a0: d85c 813c 5025 24bc db37 96bd 7411 4a3d
000001b0: 0e71 583d 2ad1 59bd 708e 16bc 3c85 7ebd
000001c0: 3876 47bc 520d cdbc 14e9 c63c 8c23 3cbd
000001d0: c86d dfbd 9df6 8a3d 875a 11bd ac91 233d
000001e0: 5800 09bc 554f c2bd 0e06 283d 6910 98bd
000001f0: 3cf9 833c 10bb 4dbd b2aa 3d3d ad14 fbbd
00000200: f2b1 01be 4ea8 cebd 0563 b43c 50b5 27bc
00000210: f8e9 61bd 7d89 f7bd c0d9 17be 96cd 8abd
00000220: 80b7 bc3a ae9e 513d 6ad1 c2bc 576e 09bd
00000230: e8dc 7b3c 907a afbb d410 a03c 6002 fa3b
00000240: 84b0 d93c b6d7 a6bc 7a6f 0d3d 602d 25bc
00000250: 1aae 003d 4a61 283d 80c0 bc3a 6009 093c
00000260: bd91 96bc bf40 78bb 10a4 b63b aabc 523d
00000270: 2b07 8dbd e28f 23bd 9382 8abd 9af0 013e
00000280: cae2 fcbc 5cca a3bc 0667 553d d0d7 84bb
00000290: 43e1 863d a2ed 3ebd b6e2 483d 5cf7 53bd
000002a0: 32dc 653d aec6 e3bd 9fb3 2fbd aab8 90bc
000002b0: 72b9 ccbc e968 29bd 5cac bb3c a00c c43c
000002c0: 838e 913d 493a 8bbd fda3 3cbd d4e2 b33c
000002d0: c1ee 933d 69ce 953d b890 693c c619 233d
000002e0: de79 9fbc f689 753d 6274 573d 3a26 533d
000002f0: a439 02be 2818 83bd 4072 fdbb 03ec 973d
00000300: d038 fabb 1d67 dbbd 13da 90bd 5eae 7fbd
00000310: 305a 0cbc 684d 8abd 9adb 063d 587f 85bd
00000320: f12a 0abe 85b6 a0bd caed 62bd 4091 c33a
00000330: d667 49bd 3214 02be 7897 9cbd f515 1dbc
00000340: 9202 8dbd e01c 1fbc 7a37 6abd e0ae 9ebb
00000350: 5ab6 63bd 92c1 703d 50bd e53b 0bac 72bd
00000360: c0eb 5a3b 2488 91bd 18d5 b83c 5c3d 1c3d
00000370: 5cd0 81bd 7148 c7bd 4cec 133d 3669 6f3d
00000380: 5e12 a339 e263 483d fed4 763d 95bd 7bbd
00000390: 40a7 593c 495e a4bd b4ef 903c 9aa7 9cbc
000003a0: ad00 5cbd a182 99bd f872 f5bc 67cb 0e3c
000003b0: 9cc3 99bc 0e78 4ebd c3cc f2bd d1f5 9cbd
000003c0: bcb2 e93c 5c06 cabd 539f 58bd d7a9 eb3b
000003d0: 00b0 ccbd d9d1 0fbc 60c9 94bd 29f3 8fbd
000003e0: 8082 f9bb f8e2 1b3d 9f04 09bd 23b6 ab3b
000003f0: 4974 8bbd b13e 95bd 87c3 8a3d e847 08bc

fc1.bias f4 [64]
-0.0025566977 -0.04833532 0.11943306 -0.008352127 0.00413467 -0.07231506 -0.016752936 -0.013156419
-0.0552861 -0.035427477 -0.012220163 0.017261209 -0.097183086 -0.0146030905 0.05288639 -0.001448698
-0.01867396 -0.0652318 -0.072377995 -0.030602254 -0.03872486 0.055026315 -0.018865887 0.24721654
0.0020292317 -0.036539774 -0.04398859 0.005909164 -0.030585052 -0.008822687 -0.11573824 -0.05576904
0.098824024 -0.036654845 0.25304028 0.039571136 -0.08108327 -0.010280422 -0.06942514 -0.07310647
-0.111946024 0.006632842 -0.061797343 -0.04393655 -0.111194216 -0.005675238 -0.068689115 -0.1090695
0.030940622 -0.1398017 -0.10263761 -0.039052516 -0.0649706 0.034378454 0.001144031 -0.017783895
-0.058666915 0.20757243 -0.074548386 -0.042876013 0.11928016 0.029343838 -0.015401678 -0.022409357
00000000: 458e 27bb 42fb 45bd 5299 f43d 5cd7 08bc
00000010: 207c 873b eb19 94bd 743d 89bc 058e 57bc
00000020: ad73 62bd 671c 11bd 1437 48bc 6167 8d3c
00000030: ed07 c7bd cd41 6fbc 669f 583d 3de2 bdba
00000040: 22fa 98bc 4098 85bd ea3a 94bd 94b1 fabc
00000050: f59d 1ebd 4663 613d a28c 9abc 5526 7d3e
00000060: dcfc 043b bbaa 15bd 612d 34bd a9a1 c13b
00000070: 818d fabc 088d 10bc 2c08 edbd 146e 64bd
00000080: 4064 ca3d 6423 16bd 7f8e 813e 5815 223d
00000090: fc0e a6bd 376f 28bc c52e 8ebd d8b8 95bd
000000a0: f543 e5bd 5058 d93b 361f 7dbd d0f6 33bd
000000b0: cbb9 e3bd 59f7 b9bb e1ac 8cbd d45f dfbd
000000c0: 3077 fd3c 2d28 0fbe ab33 d2bd 88f5 1fbd
000000d0: 4e0f 85bd 6cd0 0c3d 4ff3 953a 88af 91bc
000000e0: b84c 70bd de8d 543e d3ac 98bd c29e 2fbd
000000f0: 2849 f43d 7d62 f03c 5257 7cbc d493 b7bc

fc2.weight f4 [4, 64]
0.0011130314 -0.0035294648 0.14380024 -0.06342257 0.09466293 -0.0791821 0.10899012 0.049603388
-0.07880071 0.07004173 -0.08068186 0.123743616 -0.017149242 0.08288752 0.12015504 0.102631874
-0.09330381 -0.022553883 -0.0036418664 0.03653662 -0.100529276 0.10369013 0.029297728 0.18214966
0.01691721 -0.041153066 -0.018352123 -0.067561 0.019230353 -0.10865003 -0.06633219 0.0497375
0.1597639 0.0103517175 0.16888525 0.013634369 0.06007955 -0.0348038 0.093065634 -0.008241255
0.031092653 -0.12240951 0.07876401 0.0050418484 -0.041500144 -0.06749424 -0.011881873 0.11701761
0.036910906 0.20357494 0.013899076 0.09017736 0.062342808 -0.021053236 -0.016943669 -0.05392219
-0.08326972 0.15037546 -0.07053114 -0.021874769 0.16015041 0.0060552317 0.037473466 0.10110563
0.084275216 0.12998496 -0.45773476 -0.05153956 -0.0570674 0.018733978 -0.013762042 0.14968379
0.011123389 -0.058806196 -0.07521774 0.14261557 -0.06950562 -0.045139056 0.20607473 -0.04514303
0.20546475 -0.02891373 0.06469031 0.01643394 0.020232936 -0.32998267 -0.09319125 -0.5797539
0.010474124 -0.010119604 0.0017616764 -0.055048466 0.06324495 -0.08281371 -0.016362049 -0.016646478
-0.5085279 -0.107391834 -0.5377098 0.058499515 0.020499423 -0.027524902 0.074335575 -0.07064848
0.0047180504 -0.052069128 0.14785789 -0.055236347 0.04666666 0.1479703 -0.020452246 -0.0174069
-0.11751126 0.050333753 0.059421305 -0.04804352 0.14227177 0.015064739 0.02909232 0.059972778
0.14182033 -0.47873914 0.08718481 -0.034922242 -0.510156 0.16897982 -0.0009722551 0.02906289
0.08487277 0.048828784 -0.23921148 0.0397946 0.0578555 -0.048116907 0.120742545 0.05081808
-0.082203 0.10095529 0.09000489 -0.17736791 0.02746536 0.049572304 -0.031860963 -0.083209425
0.034582127 -0.06793617 0.089162156 0.09588197 -0.078237675 -0.17244266 -0.048721764 -0.30293196
-0.017293066 0.020449903 -0.11566723 0.16884972 -0.07855549 -0.054086357 0.045131925 -0.055352762
-0.2657822 -0.12207988 -0.2810128 -0.027798772 0.018497733 -0.00071660423 -0.028566942 0.05332189
0.039347086 0.08303043 -0.089861475 -0.114162244 -0.16541572 0.042218145 -0.09248088 -0.10210023
-0.06141154 0.022393024 -0.09329768 -0.022155762 -0.080796584 -0.07123802 -0.056706887 0.039316267
-0.10626457 -0.2501981 -0.046735257 0.052419573 -0.2666027 0.0675672 0.0929609 -0.053157236
0.00094767904 0.053911846 -0.48718008 0.04967991 -0.052670702 0.08233577 0.06699383 0.04985196
0.1237559 -0.12404695 -0.040089756 0.078823626 0.061835304 -0.003688745 0.0232464 -0.036652017
0.046976414 -0.14194497 0.047434174 -0.04158473 -0.043639313 -0.35136652 -0.099242084 -0.6172747
-0.18734933 -0.092730135 -0.09044962 -0.035811298 -0.16173835 0.07449782 0.012139399 -0.064717695
-0.5413086 0.06835425 -0.57237464 -0.121086165 -0.008961382 -0.1338698 0.0826543 -0.13674504
0.05827604 0.038385287 -0.020697933 -0.06012111 0.07774846 -0.054713167 0.049494773 0.14562292
-0.12507905 -0.13026021 -0.031493675 -0.09627725 0.021188509 -0.13766813 -0.03909715 -0.03042543
0.056843013 -0.5094476 -0.010187167 0.05024997 -0.5429305 -0.057459537 -0.1398208 -0.04051865
00000000: 23e3 913a 984e 67bb 5f40 133e b1e3 81bd
00000010: a3de c13d 3a2a a2bd 3636 df3d ec2c 4b3d
00000020: 4462 a1bd 0a72 8f3d 883c a5bd 4b6d fd3d
00000030: 917c 8cbc efc0 a93d d813 f63d a930 d23d
00000040: 1116 bfbd ecc2 b8bc 61ac 6ebb 6ca7 153d
00000050: 4be2 cdbd 7e5b d43d ca01 f03c 7185 3a3e
00000060: f695 8a3c 1e90 28bd 3157 96bc 6c5d 8abd
00000070: f988 9d3c e883 debd 2cd9 87bd 8cb9 4b3d
00000080: 2699 233e 409a 293c 41f0 2c3e b062 5f3c
00000090: f915 763d 6e8e 0ebd 3299 be3d 5406 07bc
000000a0: 05b6 fe3c d6b1 fabd 064f a13d 1736 a53b
000000b0: 0efc 29bd 6c3a 8abd 30ac 42bc eea6 ef3d
000000c0: e42f 173d f375 503e f3b8 633c e8ae b83d
000000d0: 2c5b 7f3d d677 acbc 73cd 8abc 84dd 5cbd
000000e0: 5189 aabd 06fc 193e a172 90bd b732 b3bc
000000f0: 78fe 233e f76a c63b c77d 193d 7810 cf3d
00000100: 7c98 ac3d c71a 053e 365c eabe 251b 53bd
00000110: 82bf 69bd 0078 993c 307a 61bc b546 193e
00000120: e03e 363c c4de 70bd c20b 9abd d109 123e
00000130: f658 8ebd bbe3 38bd 4105 533e e6e7 38bd
00000140: 5a65 523e 7ddc ecbc 5a7c 843d 78a0 863c
00000150: 8bbf a53c 7df3 a8be 0edb bebd c06a 14bf
00000160: a99b 2b3c b2cc 25bc 0de8 e63a 807a 61bd
00000170: 9186 813d 3c9a a9bd b409 86bc 325e 88bc
00000180: e22e 02bf 40f0 dbbd 59a7 09bf 309d 6f3d
00000190: 68ee a73c e77b e1bc 403d 983d 26b0 90bd
000001a0: e099 9a3b 7046 55bd 0f68 173e 823f 62bd
000001b0: 8a25 3f3d 8785 173e 788b a7bc ea98 8ebc
000001c0: bea9 f0bd c42a 4e3d c163 733d 48c9 44bd
000001d0: b1af 113e 18d2 763c 0453 ee3c 04a6 753d
000001e0: 5939 113e 4c1d f5be f38d b23d a00a 0fbd
000001f0: 9599 02bf 0c09 2d3e efde 7eba 4c15 ee3c
00000200: c6d1 ad3d b100 483d dbf3 74be aaff 223d
00000210: e4f9 6c3d 3c16 45bd de47 f73d 9e26 503d
00000220: 0c5a a8bd a6c1 ce3d 7c54 b83d ef9f 35be
00000230: 09ff e03c 540c 4b3d a480 02bd b469 aabd
00000240: fda5 0d3d 1e22 8bbd a69a b63d c45d c43d
00000250: 133b a0bd cf94 30be 7990 47bd e619 9bbe
00000260: 30aa 8dbc 8e86 a73c f1e2 ecbd f1e6 2c3e
00000270: b3e1 a0bd a889 5dbd 41dc 383d 94b9 62bd
00000280: 9b14 88be 0405 fabd e9e0 8fbe 40ba e3bc
00000290: 8f88 973c 7fda 3bba 3805 eabc 0e68 5a3d
000002a0: 692a 213d dc0b aa3d 4b09 b8bd e5cd e9bd
000002b0: bd62 29be efec 2c3d 9e66 bdbd ed19 d1bd
000002c0: ab8a 7bbd 9371 b73c db12 bfbd 0080 b5bc
000002d0: ae78 a5bd 3de5 91bd 7b45 68bd 180a 213d
000002e0: 3da1 d9bd f719 80be 786d 3fbd e8b5 563d
000002f0: 2680 88be ac60 8a3d 4962 be3d 67bb 59bd
00000300: aa6d 783a abd2 5c3d ab6f f9be 297d 4b3d
00000310: 3cbd 57bd a89f a83d 1034 893d 9231 4c3d
00000320: bc73 fd3d 540c febd 2835 24bd 486e a13d
00000330: 0447 7d3d dfbe 71bb 3c6f be3c 6d20 16bd
00000340: 576a 403d 065a 11be 564a 423d c054 2abd
00000350: 23bf 32bd 50e6 b3be 6f3f cbbd b705 1ebf
00000360: 81d8 3fbe 4ce9 bdbd a63d b9bd deae 12bd
00000370: bd9e 25be 5092 983d 54e4 463c b68a 84bd
00000380: 3393 0abf 50fd 8b3d 2587 12bf 06fc f7bd
00000390: c3d2 12bc 2a15 09be a846 a93d e406 0cbe
000003a0: dbb2 6e3d e439 1d3d b68e a9bc 8e41 76bd
000003b0: 963a 9f3d ea1a 60bd 08bb 4a3d 2d1e 153e
000003c0: b914 00be ef62 05be 83ff 00bd 022d c5bd
000003d0: 8693 ad3c e0f8 0cbe 5524 20bd c03e f9bc
000003e0: 38d4 683d 286b 02bf 13e8 26bc ead2 4d3d
000003f0: 7efd 0abf b15a 6bbd 2f2d 0fbe e2f6 25bd

fc2.bias f4 [4]
0.121417545 -0.3521485 -0.19381857 -0.39774615
00000000: c3a9 f83d cf4c b4be 6078 46be 62a5 cbbe
