src/flatland/flat_game/results/ourmethod_noreg4/rep_learner.pth (torch_old, 312918 bytes, 33 tensors)

representations f4 [6]
00000000: 87d8 293f 72dd 0e3f 6563 013f e013 283f
00000010: bee2 82bd 87f9 0ebf
0.6634602 0.5580665 0.5054229 0.65655327 -0.06390904 -0.558495

representations f4 [6]
00000000: ab3a d4be 71e3 5dbf 594d d73d 8d17 b8bd
00000010: a7de c23e c236 233f
-0.4145101 -0.86675173 0.105128 -0.08988867 0.38060495 0.6375543

representations f4 [6]
00000000: 7a18 33bf fa0a bb3e 21a5 52bc 432d c6bd
00000010: d1d6 60bf 0879 063f
-0.69959223 0.36531812 -0.012856753 -0.09676602 -0.87827784 0.5252843

representations f4 [6]
00000000: a735 043f 6d9c 86bd e499 1bbf 8d97 06bf
00000010: e26c 143f a678 20bf
0.51644367 -0.065728046 -0.60781693 -0.52575 0.5797864 -0.62684095

fc1.weight f4 [64, 4]
00000000: 1b80 37bf 42d9 98bf cf7e 0140 aee9 623f
00000010: 892e c23e a212 4ebf 1eae 0f40 6341 9fbf
00000020: cf82 2e3f 77fe c8bf 0e2b d9be 5520 89be
00000030: 923f b73f 613e b23d aabf c8bd 572b 093f
00000040: bfca f9bd 6749 65bd 840c 863e e572 c43f
00000050: 1492 d33e a9fd 0b40 754b 35bf 001d 6f3f
00000060: 0ac5 273e b937 2b3d e147 9dbe 5707 7d3e
00000070: 7f4c 083e 1c94 76be 0a9a f23e 7c05 ba3e
00000080: 2a8a 4640 4041 1740 9217 913d abcd 09bf
00000090: 912f 0d40 7339 aabe 1274 24c0 1af5 ab3f
000000a0: a081 da3c aca2 2cbe 5ca2 973e 3041 a0bd
000000b0: 7f3e 52bf 59e7 e33b b711 8bbf 4bcc 7b3f
000000c0: 5f43 3440 b82b 04bf f9c6 dfbf f388 98bf
000000d0: 18b9 ccbf 7993 bcbf 0c96 203e 37e5 24bf
000000e0: fa20 27bf ec5d 853f 1e29 bcbf 4c5e 04c0
000000f0: 209b 72bf f688 bebe dc0a 14bf 3fec 023f
00000100: fb73 0ac0 6476 88bf 9bf6 a63f 5345 5a3e
00000110: 3931 dfbf a2d0 f13e 0005 ad3f 5543 0f3f
00000120: b13f 2ebf f31c 0a40 7f63 8c3f f1a8 933f
00000130: 3a3c 6a3f 67da e73f c6d8 2fbf adc0 52be
00000140: 45b4 e73f 1430 5e3f 5c3a 0840 295e ecbf
00000150: dc3e 5dbf 1422 1cbc 8287 f93f ed1a 1a3f
00000160: af17 e9be e296 a6bd bb8b 3f3f 4a8f 553f
00000170: db52 eb3c 5efc f5bf b7b9 b3bf 8dee 533f
00000180: 9ec1 553e ee42 653f 1787 9f3e 2866 e23f
00000190: 1545 45be 5100 1540 59ef 383f 903b e3bf
000001a0: 4271 2a40 41a8 8fbf 722b 9d3f 523d 9d3f
000001b0: c35b 2840 404a 91be 0d54 843f c025 22bf
000001c0: 472d 7b40 ee0b 7c3f 88d0 c93f add2 e23f
000001d0: 1fd0 51bf bfc0 edbf ad1d 80bf 7eb8 1fc0
000001e0: 5675 23bd 404f 2f40 72aa 93bf 4e87 d0bf
000001f0: 204a 3f3d 0a8d a3be 887b 8a3d accf 98be
00000200: ee20 e03f 3f52 04bd a1ac afbf 0fc7 783f
00000210: 4abe 9bbd 8fe7 5d3e 1758 843d 8be6 1d3f
00000220: 7b2b a8bf bbbc 3240 6a4d cdbf 98d4 2f3e
00000230: 6192 2ebd 1cb6 2dc0 97eb 0f3e 1712 37be
00000240: 6ba7 69bf 15ab 8dbf a763 d93e fc64 cb3e
00000250: b830 18c0 fea0 a1bf 3f26 8e3d 95ed edbf
00000260: a61b 44bd 31ef e5bf 4519 5ac0 2f4b 613f
00000270: 4e10 a33f 6b77 663f 4c7f aabf 1e65 1940
00000280: 5e76 603f 87af 4bbf b6d2 e93f 3c1b 07be
00000290: 74b9 f7bf eb4a 2340 a6e0 533f a1c6 06c0
000002a0: 40d0 813d b8f9 b13e f431 6b3e 343c 3b3e
000002b0: e94c 7a3f dbd3 16bf af56 9cbe 7175 3d3f
000002c0: 0114 a63f 8b8a 06be c854 d4be 2cf1 0440
000002d0: 1c4d 2abf 240c ec3e 9935 043f 92dc 64be
000002e0: eaa7 7a3f 735c 41bf f18a f13f ed1e ba3f
000002f0: 19f7 e3be 74ba 2040 395d 72bf 8853 d73f
00000300: 7392 46c0 dac2 4e3f 511f 8bbe ddc4 c73f
00000310: 5dbd 5abf 0dc2 e73f cd17 76bf 6b48 1f3e
00000320: 0641 fe3f 1fa5 aabf df15 a63f 6909 e3bf
00000330: 8ae6 3a3e d75b 16be 7979 673f a1e9 40c0
00000340: 53b1 03bf 4c20 9a3e 070e 8bbf 698f 96bf
00000350: 4f5e dabe d657 74bd 639b 053f 99b0 51bd
00000360: d090 ee3e e14d 2c3f 5d12 a6bf 4b7c 993d
00000370: db6e 83bf d09d aa3e 8581 dc3f 9386 fb3f
00000380: e157 6ebf df46 883f fcbf e03e c4a9 1d3f
00000390: dff6 f8be dab8 953c cefe 863f b3dd 1d3f
000003a0: b5e8 b3be 3eb5 10be 3350 303f d4d1 3b3f
000003b0: c192 1abc 5639 5abe 1ed5 abbc 8db6 f33d
000003c0: 0084 9b3b 6212 a5be ec3c 6f3e 481f 91bd
000003d0: d085 a1bd c87e 693e 5892 a0be 0cb9 2bbe
000003e0: 1e07 a4bf 9fdf 423f 519d 663f 6865 d6be
000003f0: 9468 d83f aad0 63bf 98bb 893f 5b74 d7bf
-0.7167985 -1.1941302 2.0233648 0.88637817 0.37926129 -0.8049718 2.2450023 -1.244183
0.6816835 -1.5702657 -0.4241566 -0.2678248 1.4316275 0.08703304 -0.09802182 0.53581756
-0.12196874 -0.055978205 0.26181424 1.5347563 0.41322386 2.1873572 -0.70818263 0.93403625
0.16383758 0.04180119 -0.30718902 0.24709831 0.13310431 -0.24079937 0.47383147 0.3633231
3.1021829 2.3633575 0.07084574 -0.5382945 2.2060282 -0.33246955 -2.5695844 1.3434174
0.026673138 -0.1685893 0.29616058 -0.078249335 -0.8212661 0.006955069 -1.0864781 0.983586
2.816612 -0.5162921 -1.7482597 -1.1916794 -1.5993986 -1.4732505 0.15682238 -0.64412254
-0.65284693 1.0419288 -1.4700048 -2.0682554 -0.9476795 -0.37213868 -0.5782907 0.5114173
-2.163329 -1.066113 1.3044008 0.21315508 -1.7436897 0.47229487 1.3517151 0.55962116
-0.68065935 2.158017 1.0967864 1.1535932 0.9149815 1.8113526 -0.68690145 -0.20581312
1.8101889 0.8679211 2.128562 -1.8466235 -0.8642404 -0.009529609 1.9494479 0.60197335
-0.45525882 -0.08134247 0.74822587 0.83421767 0.028726032 -1.9217641 -1.4041051 0.82785875
0.2087464 0.8955525 0.31157753 1.7687426 -0.19264634 2.3281443 0.72240216 -1.7752552
2.6631627 -1.1223222 1.2278883 1.2284338 2.6306007 -0.2837696 1.033815 -0.6333885
3.9246385 0.98455703 1.5766764 1.7720543 -0.8195819 -1.8574446 -1.0009056 -2.4956355
-0.039906822 2.739212 -1.1536391 -1.6291292 0.04670155 -0.31943542 0.06761843 -0.2984594
1.7510049 -0.032305 -1.3724557 0.9717874 -0.07604654 0.21670364 0.06462114 0.61679906
-1.3138269 2.7927692 -1.603925 0.17170942 -0.042620067 -2.71424 0.14054714 -0.17877994
-0.91271085 -1.1067835 0.4245884 0.39725482 -2.3779736 -1.2627256 0.069408886 -1.8588129
-0.04787793 -1.796362 -3.4077923 0.88005346 1.2739351 0.9002597 -1.3320098 2.3967967
0.87680614 -0.7956471 1.8267429 -0.13193983 -1.9353471 2.5514476 0.8276466 -2.1058733
0.06338549 0.34760833 0.22968274 0.18284684 0.97773606 -0.58917016 -0.30534884 0.74007326
1.2974855 -0.13138787 -0.41470933 2.07722 -0.6652391 0.46103013 0.51644284 -0.22349766
0.97912467 -0.7553169 1.8870527 1.4540688 -0.44524458 2.5113802 -0.94673496 1.6822367
-3.1026886 0.8076607 -0.2717233 1.5606953 -0.85445195 1.8106095 -0.9613007 0.15554969
1.9863594 -1.3331641 1.2975425 -1.7737247 0.18252006 -0.14683472 0.9041973 -3.0142596
-0.5144245 0.30102766 -1.0863656 -1.1762515 -0.42650077 -0.05965408 0.52190226 -0.051193807
0.46594858 0.67306334 -1.2974354 0.0749441 -1.0268205 0.33323526 1.7227026 1.9650444
-0.9310284 1.0646628 0.43896472 0.61587167 -0.48625848 0.01827662 1.054651 0.6166641
-0.3513848 -0.14131638 0.68872374 0.7336705 -0.009434403 -0.21310934 -0.020975646 0.11900053
0.0047459602 -0.32240587 0.23363084 -0.070860445 -0.07886851 0.2280227 -0.3136165 -0.16769809
-1.2814672 0.7612247 0.90083796 -0.41874242 1.6906915 -0.8899027 1.0760374 -1.6832384

fc1.bias f4 [64]
00000000: 4aa2 203f a352 e43e 702e 1a3f d161 193f
00000010: 54b4 513e 7424 b9bc f45d 13bf e0d5 b53e
00000020: e777 b7be 553e 45be 6648 b6be cfaa 0c3f
00000030: fdc4 913e eaff 403f bd7d 153e 6adf 153f
00000040: a433 263f 69f4 2f3f 7ff7 5f3e 9e2e 3d3e
00000050: 9017 ef3d 994e 653f e550 893e 2013 2a3f
00000060: 4fb4 bb3e 6836 c63d c520 473f a5b5 77be
00000070: 9081 8c3e 3840 183e 489c 81bf 742e e2be
00000080: db89 823e 51ad 843e f82a eb3e 8fbb e53e
00000090: da6e 0e3f 9f25 da3e b81b f23d bae7 2b3b
000000a0: 32c8 d73e cad8 fdbe 8802 ffbe 1e2a e23e
000000b0: 2a02 293f 1a18 b43e eb4a e03e 7e38 3ebe
000000c0: 8ad8 843f a6e2 883e e2dc 9e3e 34df dd3e
000000d0: 7152 b93e 3040 083f 81da 553e dd70 133f
000000e0: 4afa e33e bfc3 e83e cdc8 473e f54c 333e
000000f0: 844e e6be 94eb f5be 2482 2b3f 6d14 543d
0.62747633 0.44594297 0.6022711 0.5991488 0.20478946 -0.02260039 -0.57565236 0.35514736
-0.35833666 -0.19262059 -0.3560211 0.54948133 0.28470603 0.75390494 0.14598747 0.5854403
0.6492255 0.68732315 0.21871756 0.18474814 0.11674416 0.89573056 0.2681953 0.6643543
0.36661002 0.09678346 0.7778438 -0.24190386 0.27442598 0.14868248 -1.0125818 -0.44176066
0.254958 0.2591348 0.4593122 0.44869658 0.55637896 0.42606828 0.11821693 0.002623065
0.42144924 -0.4957946 -0.4980662 0.44172758 0.6601893 0.35174638 0.43807158 -0.18576238
1.0378582 0.2673542 0.31027895 0.43334353 0.3619571 0.5322294 0.20884134 0.5759409
0.44526893 0.45461842 0.19510193 0.17509826 -0.44981778 -0.48031294 0.66995454 0.051777292

fc2.weight f4 [180, 64]
00000000: f6a8 ed3e a9e8 523e 1c3a 993e a440 663e
00000010: aba6 233e ae95 f0bd 4fde c13d e782 513e
00000020: 7588 1cbf 0b8e 40bd a8eb 00bd b740 f23c
00000030: 5da9 7b3d 2d6e 703e c4c9 b03e 0204 043f
00000040: 78c5 e63e c173 e0bd becc db3e 3d43 8ebe
00000050: 58e4 b33f 9d40 853e fea3 ad3e e571 a73e
00000060: 49c4 4c3f bd18 abbe 6a57 223f a94c 243f
00000070: c480 903f 86cf b53f 0010 49be 460d 883d
00000080: fd00 403e f013 a83e b122 d03d e3a6 b93e
00000090: 7b3e bc3e 58ce 153f 4868 403e 72f3 873e
000000a0: 48c5 973e c764 18bf cc3d 323d f65b e43e
000000b0: 0b0c 323f c5ab 353d 1110 18be 8ad3 6f3e
000000c0: 1640 5c3f 4f44 f03b d63a 173f 15db 523f
000000d0: 69cb b53e d861 9d3e 60c7 1e3e 5d16 853d
000000e0: 6005 163f 1b09 e43d cdeb ab3e 607c 553e
000000f0: 8630 b13d 9ef6 94bd a101 8e3e b2a5 1f3f
00000100: 1f7d 0f3e 7279 26bf 2e9d 043e 81e3 ab3e
00000110: ed08 e43d 1a24 58be bfc1 f53c 8792 243e
00000120: b736 12bf 6335 efbd faff 97bd 2dac 0b3e
00000130: 9746 493d f1a3 aabe de51 a53d 3f14 f3bd
00000140: 7707 66bd 6a1a 1a3f 994d c73e 8033 b1be
00000150: c02c b1be 4aea 923e 7181 4c3e ec83 5d3d
00000160: 632d c73e aaae 1fbf 53c6 bf3e c6d4 f03d
00000170: 38b3 0940 24cc 0b40 e11a e9bd 54fc 223d
00000180: b838 d13e 76ae 283e 71ee a7be 18f3 833e
00000190: 26ac 173e a331 a53e a041 32bf 9cc8 343e
000001a0: 8e93 053e e2ec fa3e 8ea1 b83d be20 343e
000001b0: 5990 ae3e 2028 a43e 6fc3 84be 6194 7e3e
000001c0: bdba 463d 087d 1dbe 273e 053f b676 843d
000001d0: dad7 953b 315b 243e 94eb 11be e055 d23e
000001e0: 191a ae3e dd41 1b3e 4e11 003e 1d33 383d
000001f0: 8006 27bc e499 7f3d 52db 153e ac91 1b3f
00000200: 3a33 dc3b 16d3 2c3c 8aaa 00be 72d3 1dbe
00000210: 25f6 a7bc 9c6d 2cbd 9495 62bd f660 c7ba
00000220: 608f 693d eec6 dbbd 9a96 f33d 4f3e 53be
00000230: 3e49 e9bc 92c6 70bd 53a9 b8bc acff 37be
00000240: a5f9 fbbd 42b7 1fbe 539d d9bd e498 d63c
00000250: 6594 b63d 2888 2ebe 068a 893b dc77 3bbe
00000260: ae08 03be 382a 043d 4a87 6939 7881 ac3d
00000270: 5da1 c4bd 10d8 9c3d 775f 8d3d e82d 12bd
00000280: 0c9c 1dbe bcde 77bd a1ea 4cbe 8219 74bd
00000290: 9ff0 62bd 5f29 afbc f943 1abd ae30 63bd
000002a0: 5586 14be cec7 b4bd e86a 9bbd 1492 b83c
000002b0: e793 0fbe 6111 e8bd 2e98 a3bc be71 cc39
000002c0: cb2b fcbd 4af3 3dbe 1790 023e fc92 cf3b
000002d0: 71a3 d03d 70a5 a63c 30ea 2ebe 0249 2cbe
000002e0: 34d6 23be 47c5 5abd f5e1 f0bd 6a4a 903d
000002f0: e06d ffbd f403 32bd 7a9b cbbd 7ab5 783d
00000300: b03d 513d e93e 21be d1f9 33be 55f5 5abe
00000310: 5f7f 3abe b8ce 36bd c885 c73d 48f6 05be
00000320: cdbe cbbd 4092 50bc 0c3a 0ebd dfda a2bd
00000330: 396e 6f3d fad7 e23d 686e f33c 4783 18ba
00000340: 9795 02be b429 393d aa54 563d 04a8 633d
00000350: 0687 473d 9cd8 fd3b ac30 083c 8ec7 d6bd
00000360: 7575 3bbe 9e25 bcbd d59c 68bd 9165 2bbd
00000370: f5a7 0cbe e8ff b3bd 0c16 02bd ec36 1fbd
00000380: 3707 cbbd d5a1 43be 704a 333d 76a9 2fbe
00000390: d415 2dbe 2adb abbd 46ba 80bd 9a95 0f3d
000003a0: 614c e03c 64af 823d 3477 1b3d 6508 1bbe
000003b0: 24b8 81bd de00 5d3d 33ac 943c fcf3 593d
000003c0: 4dd8 adbd 4c95 51bd 6774 fbbd e81a d9bd
000003d0: ae8f 93bd 437f c5bd 606c ccbc 45c8 65bc
000003e0: 7c1a 00be 93e1 733d 3811 18be 7623 01be
000003f0: c0b1 423c 48d1 9b3d dca2 45bd f646 0bbe
0.4641797 0.20596565 0.29927146 0.22485596 0.15981548 -0.11747299 0.0946623 0.20460092
-0.61145717 -0.047010463 -0.03147474 0.029571874 0.061440814 0.23479529 0.34528935 0.51568615
0.45072532 -0.10959578 0.42929643 -0.27785674 1.405406 0.2602586 0.3391418 0.32704082
0.7998701 -0.3341731 0.63414633 0.64179474 1.1289296 1.4203956 -0.1963501 0.06643157
0.18750377 0.3282771 0.10162867 0.36260137 0.3676642 0.5851798 0.1878978 0.26552922
0.296427 -0.59528774 0.043515965 0.4460141 0.69549626 0.044353265 -0.14849879 0.2342054
0.8603529 0.007332362 0.5907415 0.8236554 0.35506752 0.3073871 0.15505743 0.06498406
0.5860195 0.11134549 0.3357834 0.20848227 0.08651833 -0.07273601 0.27735618 0.62362206
0.14012574 -0.6502906 0.12950584 0.3357201 0.11134515 -0.21107522 0.029999612 0.16071521
-0.5711474 -0.116801046 -0.074218705 0.13639899 0.049139585 -0.33328202 0.080722556 -0.11869096
-0.056159463 0.60196555 0.3892639 -0.34609604 -0.34604454 0.28694373 0.19971253 0.05408089
0.38901815 -0.6237589 0.37455997 0.11759333 2.1515636 2.1843348 -0.1138208 0.03979142
0.40863585 0.16472802 -0.32799104 0.25771403 0.14811763 0.32264432 -0.69631386 0.17654651
0.13044569 0.49008852 0.09015189 0.17590615 0.34094504 0.32061863 -0.25930354 0.2486129
0.04851793 -0.15379727 0.5204796 0.06467955 0.0045728507 0.16050412 -0.14250022 0.41081142
0.34004286 0.15161844 0.12506601 0.04497062 -0.010194421 0.06240262 0.14634445 0.6076915
0.006719974 0.010548374 -0.12565055 -0.15412691 -0.020503113 -0.04209672 -0.05531843 -0.0015211392
0.0570215 -0.10731302 0.11893959 -0.20629238 -0.028477307 -0.05878312 -0.022541678 -0.17968625
-0.12303475 -0.15597251 -0.1062571 0.02619595 0.08915023 -0.17044127 0.004197362 -0.18307441
-0.1279628 0.032266825 0.0002227101 0.08423132 -0.0960109 0.07658398 0.06902974 -0.03568831
-0.15391558 -0.06051515 -0.20011379 -0.05959464 -0.055405255 -0.021382032 -0.03766248 -0.055466346
-0.14504369 -0.08827172 -0.0758875 0.022530593 -0.14021264 -0.1133144 -0.019970026 0.00038994657
-0.1231304 -0.18549839 0.12750278 0.0063346606 0.10187424 0.020342559 -0.17081523 -0.16824725
-0.15999681 -0.053410795 -0.11761848 0.07045443 -0.12472129 -0.0434608 -0.09941764 0.060719945
0.05108422 -0.15746655 -0.17575766 -0.21382649 -0.1821265 -0.044630736 0.097423136 -0.1308223
-0.09948502 -0.012730181 -0.034723327 -0.079519026 0.058454726 0.110763505 0.029715732 -0.00058179017
-0.12752376 0.045205787 0.052326836 0.055580154 0.048712753 0.007746769 0.0083123855 -0.10487281
-0.18306525 -0.091868624 -0.05679019 -0.04184491 -0.13735946 -0.087890446 -0.031759307 -0.038870737
-0.099134855 -0.19104703 0.04377216 -0.17154488 -0.16902858 -0.083914116 -0.06285529 0.03505478
0.02738017 0.06381109 0.037955478 -0.15139921 -0.0633395 0.053955905 0.018148517 0.053211197
-0.08488522 -0.05116777 -0.12278061 -0.10600835 -0.07205139 -0.09643414 -0.024954021 -0.014024799
-0.12510103 0.059541296 -0.14850318 -0.12611184 0.011883199 0.076082766 -0.048251018 -0.13601288

fc2.bias f4 [180]
00000000: 6457 ab3e b222 023e ddb1 34be 918c 08be
00000010: a879 463e fcdd 703e fc7a 903e 2dd2 6dbe
00000020: 0b59 c2bd e61d 16be c063 15bb 7aed 683e
00000030: a2fe 7b3a 1670 5ebe db11 04be c21b a7bc
00000040: e41e b9bd c681 1f3e ae41 fdbc a845 2cbe
00000050: 5433 6cbd 0f57 b0bd 6fee 10be dbfd 943b
00000060: 54dc a2bd b1eb f8bd d6fa 863c 71a4 8dbb
00000070: 877e 26be 6d7a f43d c465 a03e 7ddc 343e
00000080: f59e 723c 201e a93e 664b fdbd 9ed3 c43e
00000090: 4d77 bd3e 0508 663e cd9b 86bc f69e 173f
000000a0: f37f bf3d c742 353e caea f23e e58b 073d
000000b0: b1d3 893c 5683 bebd dbd9 12bd c148 873e
000000c0: 0f1d ce3e 179e 45be 3f19 55bd 8d24 5cbe
000000d0: c595 ec3c 5588 58bd 5c39 a13e f681 ed3c
000000e0: 715a d4bc 7608 71be e0f1 abbd b652 bfbd
000000f0: 5858 bf3e 943d 18be 55f4 54be ceec 2abe
00000100: 3897 45be c5a8 2ebd 1403 8cbd 3e71 323c
00000110: 267c 4d3d 393b 84bd dfc1 513e 0043 3e3e
00000120: fda1 f33e 2055 b13e 1823 453f df61 cebc
00000130: dc02 bfbd 4d68 bcbd 11f3 6c3e ad56 063d
00000140: b4c6 7ebd bb88 24bd 2e9e 7f3e d1e0 39be
00000150: c904 a6bc 8a31 2ebe 03a2 6abd e35f 4abe
00000160: b306 513c b1cb 53bc e1ce e4bd 2ed9 17bc
00000170: aa98 20be 8158 c4bc e553 74bd 56c2 8b3b
00000180: 619c 30be dcf3 88bd a8dc 0bbd 5904 12be
00000190: b1ec 173d d05e 703e 9afd c83e f5da 6bbc
000001a0: e72b d5bd 773a 8abd 9cc3 8bbd 1975 3ebd
000001b0: e0f6 963c d626 083e 4075 813d 7db1 3c3d
000001c0: 0002 c03d ccf0 883e 1ba9 d53e 97b3 38be
000001d0: 1010 22be 1220 12be 514a b5bd f0ff 603e
000001e0: 3362 033f 5698 03be a580 31be 01ea 0b3b
000001f0: 1c6a dabd 37a3 773e 3365 8a3e 95f1 2fbe
00000200: 19a6 07be fc9d 84bd e834 27be 1fa8 a53d
00000210: 67ac 963e 1f49 02be 1355 5bbe 0e78 63bd
00000220: b160 6d3d 859c 363e d102 d43e 744b f53e
00000230: d047 af3c fa94 ab3e 62ec ae3e 0161 e03e
00000240: dfd8 b93e 6bdb bf3e 9b8f 313e 6d51 6b3e
00000250: 629c 403e 879f d93e 48f6 5fbe baea 1f3d
00000260: 17d1 3dbd 9bb9 14be 8594 1a3f 3704 9c3e
00000270: 1289 8a3d 0c7d 19be da52 b9bd 4dd5 1ebe
00000280: 5fde 21be 0e06 d53d dd66 843e 6054 beba
00000290: 3365 6dbe ee31 70bd 04da 0a3f 8ccc 313e
000002a0: 5038 443e b6ca 3abe 249b f3bd 721a a2bd
000002b0: 90d7 a8bd d1ec 833e b57b 5b3e 39a3 533e
000002c0: ff1a 1bbe 390c e8bc b52e 093f 9b8a 083e
0.3346511 0.12708548 -0.17645974 -0.13334872 0.19382346 0.2352218 0.2821883 -0.23224707
-0.0948964 -0.14659843 -0.0022795051 0.2274684 0.00096128334 -0.21722445 -0.12897436 -0.020398978
-0.09039095 0.15576848 -0.030915108 -0.16823447 -0.057666138 -0.08610355 -0.14153455 0.0045468635
-0.079521805 -0.121543296 0.01647703 -0.0043225815 -0.16259204 0.11937413 0.3132764 0.17662235
0.014808406 0.33030796 -0.12367897 0.384427 0.37005082 0.22463997 -0.016431713 0.5922693
0.09350576 0.17701255 0.47444755 0.0330924 0.016824575 -0.09302394 -0.035852294 0.26422694
0.40256545 -0.19298588 -0.05202603 -0.21498318 0.02888001 -0.05286439 0.31489074 0.028992634
-0.025922032 -0.23538384 -0.08395743 -0.09341948 0.37372088 -0.1486724 -0.2079633 -0.16691896
-0.19295967 -0.04264142 -0.068365246 0.010891257 0.050167225 -0.06456608 0.20484112 0.18580246
0.47584525 0.34635258 0.77006674 -0.025193153 -0.09326717 -0.09199581 0.23139597 0.032797504
-0.062201217 -0.04016946 0.24962685 -0.18152167 -0.020265954 -0.17011085 -0.057283413 -0.1976314
0.012757945 -0.012926982 -0.111722715 -0.009268088 -0.15683237 -0.023967983 -0.05965032 0.00426511
-0.17247154 -0.066871375 -0.03414598 -0.14259471 0.03709096 0.23473668 0.39255983 -0.014395465
-0.10408764 -0.067494325 -0.06824419 -0.04649839 0.018428266 0.13296065 0.06321192 0.046067704
0.093753815 0.26746213 0.4173058 -0.18037258 -0.1582644 -0.14270046 -0.08852065 0.21972632
0.51321715 -0.1285108 -0.1733423 0.0021349194 -0.1066477 0.24183355 0.27030334 -0.17182
-0.13246955 -0.06475446 -0.16328776 0.08088707 0.29428408 -0.12723206 -0.21419172 -0.055534415
0.05795354 0.17833145 0.414084 0.4790913 0.021396548 0.33512098 0.3416472 0.43824008
0.36298272 0.3747209 0.17339937 0.2298028 0.18809655 0.42504522 -0.21871293 0.039042212
-0.04634198 -0.14523928 0.6038287 0.30471966 0.06764425 -0.14989108 -0.09049006 -0.15511055
-0.15807484 0.104015455 0.25859728 -0.0014520995 -0.23183136 -0.058641367 0.54238915 0.17363185
0.19162107 -0.1824139 -0.11894825 -0.079152 -0.0824424 0.25766614 0.21433909 0.20667733
-0.15147017 -0.02832614 0.53586894 0.13334124

conv.weight f4 [5, 1, 34, 34]
00000000: 0726 553d 870a e6bd f300 d43d 0594 c03c
00000010: 3640 e23d 0b5a bf3d 36ee cb3d 6e6c 2c3d
00000020: 813a 6f3d 3f7b 7c3b 4fea 43be 2b72 d2be
00000030: 8b29 a2be 7c1d 84be 69b9 a2be 7063 68be
00000040: 5256 f2bd 71cd 67be 24f0 cf3c 986c a53c
00000050: 1759 283e 2c41 c83d b459 a63e 6928 7c3e
00000060: fd54 cc3e 78c7 983e 5b8e c63e 7182 ac3e
00000070: c0de 173f eaf2 153f 37bb f13e 8c21 033f
00000080: 31d0 193f e2c5 0d3f 7646 85bd 2ee8 ffbd
00000090: 68a2 88bd 9bc7 08be b64e 16bc df25 243d
000000a0: 533c 173e 6f6c bb3d d69b 69bd 3d54 a7bd
000000b0: e2ed 78be cf00 d2be 6a9e dcbe 20e1 e0be
000000c0: 1e14 c8be 0d71 f8be 44ae c9be 8108 cdbe
000000d0: 9a94 8e3d ae24 c13d 4a60 513e 61e1 1d3e
000000e0: cf9b 9b3c 52a8 763d 6be9 d13e b4e9 833e
000000f0: 0d6d a43e 9e18 c43e b0d5 b03e 51dc e13e
00000100: 288a e83e 5cda 003f 2956 d63e 2827 043f
00000110: 73ed 61be b14a b2bd c8c2 78bd 035e e8bd
00000120: 1cbf 86ba c35a 22be 7525 0ebe 2381 c1bd
00000130: 9a64 4dbd 35a3 85be 054d ccbe 9020 97be
00000140: 88f7 16bf 2e1b 1abf 158e f6be 9bd0 d9be
00000150: 9757 efbe a18c cfbe cd26 3ebe f56b 90be
00000160: 0edf 78bd 5549 873e d9a6 013e a7c1 fe3d
00000170: 1cb2 a53e 71d1 7e3e 588f 5c3e f1d2 8e3e
00000180: fa3c c33e bbf3 fe3e c1ee 073f 776e 1e3f
00000190: 0f62 073f 449b 023f 6ea1 12be c113 ecbd
000001a0: d020 5cbe b0a3 8ebe 1f6e 1dbe 7546 04be
000001b0: 3c70 f6bd 5d2f 5ebe a644 27be a7b5 a1be
000001c0: 719e 1fbf 95df 0ebf f9db 2fbf 0a06 34bf
000001d0: 2af8 3ebf aac5 24bf 9f8f 1dbf 68e8 20bf
000001e0: 9e44 d7be 007d a6be 6128 acbe 3c48 1abe
000001f0: 58d3 923c eeb7 23be 6269 1f3e a45f 5e3e
00000200: 1199 593e f0e6 713e 63d9 ae3e 4b86 e13e
00000210: c27d c83e f106 233f 9a37 123f 1994 1e3f
00000220: 86b5 5fbd 8ff5 ddbd b19a 30be abb5 31be
00000230: ada5 0bbe b4e0 38be d502 37be fa5a 3cbe
00000240: 6660 41be 590b b3be 16d6 2abf 8d04 22bf
00000250: 0036 3abf 3d18 38bf 88c8 21bf 803b 2bbf
00000260: 64ba 22bf 713b cdbe c3bb e0be 3f9f 41be
00000270: 5a92 bebe a7a2 84be 0c8d 5b3c 0e9d 87bd
00000280: af73 793e 760c 993e eac5 a63e d73b a83e
00000290: 94c6 c73e c7a3 e93e a7aa c43e a5c4 0f3f
000002a0: 7de6 183f 92c3 113f 1893 65be e58c 14be
000002b0: 0008 72be 5b6a b9be eb7f 35be 67f4 a3be
000002c0: 73ce c2be d0b9 8fbe bff0 afbe 125f c4be
000002d0: d1d6 13bf 8c0e 25bf 1726 89bf 7f64 85bf
000002e0: 07d7 3fbf b7e1 34bf 0608 2ebf 7045 d8be
000002f0: 0c39 c8be 2e09 f6be c33f 10bf 1c36 babe
00000300: 947f 00be c05c bbbd 6208 653e 40d8 383e
00000310: a3c6 263e 77bf 7c3e 0fa5 9f3e 07be c23e
00000320: de33 ed3e 374c 123f 9f3d bf3e bdb0 df3e
00000330: 96b3 43be a4f7 96be b37b d7be f5b3 fcbe
00000340: 2785 79be eb25 9ebe db4e b8be bc48 9ebe
00000350: 6230 debe fc6c d2be c4aa 5abf c5cd 87bf
00000360: 174f 9abf 7c35 82bf afdd 31bf 8513 51bf
00000370: cde7 25bf 4219 2ebf 7e3e 01bf a377 c4be
00000380: 2288 06be da44 f2bd 3654 253d 245d 8ebe
00000390: ed5f 8a3d e7ca 653b 91fe 493d 7852 143e
000003a0: 9764 d53e 6824 003f d4e2 9a3e 4d2f b43e
000003b0: ed76 d33e e17e d73e 3f1d 37be cf19 d1be
000003c0: 6d9c dbbe 9865 fdbe 674e d8be 4d93 bdbe
000003d0: 091f 93be f111 d8be 8656 e9be a492 e6be
000003e0: 4a17 7abf d098 5bbf 1a99 8bbf f393 92bf
000003f0: 2a89 66bf 0218 7fbf 85c3 6dbf 87a5 4ebf
0.05203822 -0.11232477 0.103517435 0.023508081 0.110474035 0.09343346 0.099575445 0.042095594
0.058405403 0.0038525609 -0.1913235 -0.41102728 -0.3167232 -0.25803745 -0.31782082 -0.22694182
-0.118328705 -0.22636963 0.025383063 0.020193383 0.16440235 0.097780555 0.32490313 0.2462479
0.3990859 0.29839683 0.38780484 0.3369327 0.59324265 0.5857378 0.47213146 0.51223063
0.600833 0.5538007 -0.0650758 -0.12495457 -0.066716015 -0.13357393 -0.00917404 0.04007518
0.14769106 0.091515414 -0.057033382 -0.08170364 -0.24309495 -0.41016242 -0.4308961 -0.43921757
-0.39077848 -0.4852375 -0.39390767 -0.4004555 0.06961937 0.09430824 0.20446888 0.15418006
0.018995194 0.060219117 0.40998396 0.2576424 0.3211445 0.3830003 0.3453803 0.441134
0.45417905 0.5033319 0.4186261 0.5162225 -0.22063236 -0.087056525 -0.060732633 -0.11346056
-0.0010280344 -0.15854935 -0.13881476 -0.09448459 -0.05014477 -0.2610108 -0.3990251 -0.2951703
-0.5897145 -0.6019772 -0.48155275 -0.42541966 -0.46746513 -0.4053698 -0.18569489 -0.28207365
-0.060759597 0.26423135 0.12661304 0.1243928 0.3236245 0.24884583 0.21539056 0.2789531
0.3813246 0.49795327 0.53098685 0.61887306 0.52884 0.51018167 -0.14319393 -0.11527205
-0.21496892 -0.2785926 -0.15374039 -0.12917502 -0.12033126 -0.21697755 -0.16334781 -0.31583902
-0.6235114 -0.5580991 -0.68695027 -0.70321715 -0.7459742 -0.6436411 -0.61547273 -0.62854624
-0.42044538 -0.32517242 -0.33624557 -0.15066618 0.017923042 -0.15988132 0.15567544 0.21716172
0.21249796 0.23623252 0.34150228 0.4404777 0.39158446 0.63682467 0.5711609 0.6194473
-0.054616474 -0.10837852 -0.1724651 -0.17354457 -0.13637419 -0.18054467 -0.17872174 -0.1839408
-0.1888443 -0.34969595 -0.6673292 -0.63288194 -0.7273865 -0.71911985 -0.6319661 -0.66887665
-0.6356566 -0.40084413 -0.4389325 -0.18908404 -0.37221032 -0.25905344 0.013400327 -0.06621753
0.24360536 0.2989232 0.3257287 0.32858154 0.3901869 0.45632765 0.38411447 0.5615943
0.597267 0.5693904 -0.22419393 -0.14506872 -0.23635864 -0.36213955 -0.17724578 -0.32022402
-0.38048133 -0.2807145 -0.34363362 -0.38353783 -0.5774966 -0.6447532 -1.0714749 -1.0421294
-0.7493748 -0.70656914 -0.6798099 -0.42240477 -0.39106023 -0.4805388 -0.5634729 -0.36369407
-0.12548667 -0.0914855 0.22366479 0.18051243 0.16286711 0.24682413 0.31180617 0.38035604
0.46328634 0.57147545 0.373517 0.43689528 -0.19111475 -0.2948581 -0.42086563 -0.49356046
-0.243672 -0.30888304 -0.35997662 -0.30914867 -0.43396288 -0.41098773 -0.8541682 -1.0609671
-1.2055386 -1.0172572 -0.6947889 -0.8167041 -0.64806825 -0.6800729 -0.5048598 -0.38372526
-0.13137868 -0.11829539 0.040363513 -0.27805436 0.06756578 0.0035063566 0.04931504 0.14484584
0.41678306 0.5005555 0.3025118 0.35192338 0.4130167 0.42088988 -0.1788225 -0.40840003
-0.4289278 -0.49491572 -0.42247316 -0.37026444 -0.28734615 -0.42201188 -0.45573825 -0.45033753
-0.97691786 -0.8578005 -1.0906098 -1.14514 -0.90053046 -0.9964601 -0.92876464 -0.80721325

conv.weight f4 [5, 1, 10, 10]
00000000: a90c 28be 90a3 d1bd bccc 06be 4e21 343c
00000010: e5a4 c7bd 4dbd b2bc 4fca 28bc dd58 edbc
00000020: d638 bbbd b30f 28be 4ebf f63a 6767 143d
00000030: caf1 02bd d3ac bdbd 7d1a aabd ec6e c7bc
00000040: 47a2 2ebe f54e 25be 5fdd 1fbe 53fd 9cbd
00000050: ccd9 83bd ee00 15be b5b0 2f3d 912c 09be
00000060: 652b 2ebd 4767 2dbe 3e37 0bbd 461b 07bd
00000070: 8aee 78bd 46a4 8dbd c598 91bd 34ed b83b
00000080: 456d 4dbd 12be 0cbe bc1d 1bbe 52ff 78bd
00000090: e88a 39bd e18a c1ba 6d8a c2bd bc78 02be
000000a0: 5873 11bd 7b42 e2bd a87f e6bd 1ed9 9fbd
000000b0: d391 1abe c2ca 6cbd ed07 febd f425 83bd
000000c0: e633 60bd b9cc 15be da5c 7c3b e1f2 893a
000000d0: 6657 5cbd c177 12be 5aa3 32be ffa1 2ebd
000000e0: 5302 463c 2b96 bc3b 583b 36be 2222 12be
000000f0: 82e5 f5bd b8e7 35bd 2e81 17be 3b4d fabc
00000100: 5ee6 24be 6d5d b7bd 67ca b0bd ccb2 27be
00000110: 4fce cfbc d8fe 79bd be83 acbd 461a c2bd
00000120: 5bf0 a5bd 54b8 27be 545d cbbd 9194 43bd
00000130: ce47 bcbc e4c1 ddbd 4a82 87bb 3870 fa3d
00000140: 0351 cfbb d598 6fbd 7857 44bd e545 eebd
00000150: 8adb 27be e867 b9bd d948 abbd 8590 a33d
00000160: 9cca 123d 8ecb 243e 0c04 173c 4852 75bd
00000170: 67a7 2dbd 40b0 16be 2b0e 473c 84f3 333d
00000180: 06c2 71bd 8c36 283c 532e a23d e875 df3d
00000190: 3fab a83e eb41 963e db35 4f3e da04 0c3e
000001a0: a7c1 cd3d 3cf9 153e 2a6b 253e 8467 653e
000001b0: fa15 803e aee4 1e3e 31ef 203e f604 463e
000001c0: 373f 883e ed40 6b3e c157 003e 1122 573e
000001d0: a5b3 953e 99e3 1b3e b497 8e3d 9585 883d
000001e0: 1387 303e 62af 8a3e 320e 5c3e 3336 ac3d
000001f0: a359 8c3e c2da 813e 49f3 203e a09a 8f3e
00000200: ed9e 493e 6de1 263e aebc 3c3e f02c 613e
00000210: e552 813e e933 9a3e 5e11 353e 5bb4 c33d
00000220: 749d 6e3e c16d 4b3e 7222 1a3e bd35 bc3d
00000230: 9270 853e 8683 923e e19b 4e3e 9d96 8e3e
00000240: 5072 463e 412e 243e 5f41 5e3e 6243 573e
00000250: 9240 e33d c204 7c3d bb94 693e 4837 aa3e
00000260: 08dd 343e 18d5 913e 4fd8 e13d f32c 763e
00000270: 4c38 213e 653b 283e f859 303e ac3c 593e
00000280: e864 843e feda 3f3e 332e 563e a52b 853e
00000290: 7a22 813e a9c2 dd3d e095 253e 46b2 0a3e
000002a0: 9761 c73d bd2f c43d 4347 1f3e 93e2 103e
000002b0: ef80 6b3e 0ff1 2a3e 6182 bf3d 7060 3a3e
000002c0: 2468 bc3d 924f 0b3e 3a17 d43d dc13 cb3d
000002d0: ff73 423e f88b 0d3e 55d7 4a3e 155d b03e
000002e0: 652d 373e 1780 8f3d 5e36 1c3e b5ec b23d
000002f0: 5d94 393e 6e6f 8c3d ca2d 6d3e a4ac 7e3e
00000300: 023f 813e aeb5 6a3e 7afd a03e 4d21 693e
00000310: d045 033e dda1 603e b4e5 9e3d 2d18 fc3d
00000320: a1eb 8a3d 5e77 243e 3f8d 063e 42ef 35bb
00000330: 6bb6 103e 327c 263e 378e ff3d 2543 a23d
00000340: b292 023e 3fca a93d e32f 173e ffd5 3c3e
00000350: 6f6a 223e e2bd 47be 5e12 a9bd f77f 19be
00000360: 9471 85bd f7c3 f03d a4eb 083d 85bb 403e
00000370: 34f8 633e 3f45 e7bc 4cb9 25be 459a f1bd
00000380: 40bc afbd 39bd 14bd 2bef 08be 9d5f 04be
00000390: 8df0 0bbd 377d 1c3e b041 613e 9e93 97bd
000003a0: c4c9 1ebe 8354 90bc aa70 25be be4b f1bd
000003b0: d7a3 0bbe 7bcb 9abd 9209 19be 0b53 8ebd
000003c0: 2a94 e53b b578 dfbd 55d4 f4bd 92a7 b2bd
000003d0: d4eb adbd 61e5 d3bd cd63 bcbd d384 82bd
000003e0: 197e 46be c84c 13be 3f55 e4bd c3ff 34be
000003f0: 4244 853c 184a 25be 7f93 94bd 7a19 2e3d
-0.1641108 -0.10236275 -0.13164037 0.010994269 -0.09748248 -0.021818781 -0.01030214 -0.028973037
-0.091417 -0.16412239 0.0018825324 0.036231425 -0.03196887 -0.09261479 -0.083058335 -0.024344884
-0.17054091 -0.16143401 -0.1561179 -0.07665505 -0.06438026 -0.14551136 0.04289313 -0.13395907
-0.042521853 -0.16933928 -0.03398823 -0.032984994 -0.060774364 -0.06916098 -0.071092166 0.005643511
-0.050153036 -0.13744381 -0.15148062 -0.060790367 -0.045298487 -0.0014766121 -0.09499059 -0.12741369
-0.03551039 -0.110478364 -0.11254817 -0.07805084 -0.1509469 -0.057810552 -0.124038555 -0.06403723
-0.054736994 -0.14628877 0.0038507492 0.0010524654 -0.053794287 -0.14303495 -0.17445126 -0.04263496
0.012085515 0.005755206 -0.17796075 -0.14270833 -0.12006666 -0.044410437 -0.14795372 -0.030554404
-0.16103503 -0.089533664 -0.08632355 -0.163768 -0.02536693 -0.061034054 -0.08423565 -0.094776675
-0.08102485 -0.1637891 -0.0992991 -0.047749106 -0.022983458 -0.10827997 -0.0041354047 0.12228435
-0.006326796 -0.05849536 -0.04793498 -0.11634425 -0.16392341 -0.09053022 -0.08363504 0.07986549
0.035837755 0.16093275 0.009217273 -0.059892923 -0.042395975 -0.14715672 0.012149374 0.043933406
-0.059022926 0.010266911 0.07918992 0.10911161 0.3294315 0.29347166 0.20235388 0.13673726
0.10046702 0.14645857 0.16154161 0.2240277 0.25016767 0.15516922 0.15716244 0.1933783
0.2661073 0.22973986 0.12533475 0.21009089 0.2923862 0.1522354 0.06962529 0.06666104
0.17239027 0.2708693 0.2148979 0.08408775 0.27412137 0.2536221 0.15717806 0.28047657
0.19689532 0.1629693 0.1843135 0.21989799 0.25258556 0.3011773 0.17682406 0.095558845
0.23302251 0.19866087 0.15052202 0.09189937 0.26062447 0.2861597 0.2017665 0.27849284
0.19379544 0.1603327 0.21704625 0.21021798 0.110963 0.061527975 0.22810642 0.332453
0.17662442 0.2848289 0.11027586 0.24040584 0.15744132 0.16428907 0.1722182 0.2121455
0.25858235 0.18735883 0.20916061 0.2600986 0.25221616 0.10828144 0.16170454 0.13544568
0.09735411 0.09579418 0.15554528 0.14148931 0.22998403 0.16693519 0.0935104 0.1820085
0.09199551 0.13604572 0.103559926 0.09915897 0.18989561 0.13822925 0.19808705 0.34446016
0.1788841 0.07006853 0.15255114 0.087365545 0.18123002 0.06857191 0.23161998 0.24870545
0.25243384 0.22920868 0.31443387 0.2276661 0.128196 0.21936746 0.07758656 0.12309299
0.06783224 0.1606116 0.13139819 -0.0027761017 0.14132087 0.16258314 0.12478297 0.07922963
0.12751272 0.082905285 0.14764361 0.18441008 0.15860914 -0.19506028 -0.082554564 -0.14990221
-0.06515804 0.11756127 0.03342785 0.18821533 0.2226265 -0.028231261 -0.16183966 -0.11797003
-0.08580828 -0.03631327 -0.13372485 -0.12927099 -0.034164954 0.1528214 0.21997714 -0.074012026
-0.15506655 -0.017618423 -0.16156259 -0.11782025 -0.13636719 -0.07558342 -0.14945057 -0.06949433
0.007006188 -0.10911695 -0.119545616 -0.08723368 -0.08492246 -0.10346485 -0.09198723 -0.063729905
-0.1938404 -0.14384758 -0.11149072 -0.1767569 0.0162679 -0.16141546 -0.07254695 0.042504765

conv.bias f4 [5]
00000000: 81a9 03be 6092 abbc 1259 353e e594 c2bd
00000010: 0fca 2dbe
-0.1285763 -0.02094382 0.17709759 -0.09501056 -0.1697161

fc1.weight f4 [64, 180]
00000000: 9cff 4a3d fd27 86bd 78d0 f63c 9022 113d
00000010: 486e e4bc 1af7 5dbd 505e 76bc 293a 70bd
00000020: bcf5 173c ac5c b7bd 6605 5e3d e528 8e3d
00000030: 0087 0ebb b3ae e9bd 097b 27bd 8a4e efbc
00000040: 481d a1bd 64e7 b2bc b281 773d 9fca e63a
00000050: 36dc 19bc fa6a 703b 5d2c 04bd 7a22 793d
00000060: 665a bdbc 33f2 55bd e54c 08be 3380 a8bd
00000070: fd5e 02bd c8a0 823c 2336 943d 4ec7 603d
00000080: 5c04 7dbd 2011 233b f4fb 8bbc 666d 4abd
00000090: e2de 9fbc 4834 d9bc 4cf6 be3c 6eeb 6abd
000000a0: 62ef 83bd 0c32 d63c 3e72 1c3d 1c5d 39bd
000000b0: 279b 833c bfc8 53bd 0fb0 10bd f26d 47bd
000000c0: 8eae cdbc fc79 d3bd 95d9 9cbd 9c13 2abc
000000d0: 1117 ac3a f695 8cbc 701e 70bc 95a7 e7bd
000000e0: a9d3 d7bd 22f8 6fbd e0d6 e8bd 16b1 773d
000000f0: 0a0d cdbc 8ee8 e5bd fb64 f4bd f592 e0bb
00000100: 4bd0 693c f011 05bc 8991 15bd 7e37 69bd
00000110: 8ba4 913d 32d9 763d 9098 9ebb ad09 24bd
00000120: e9b3 05be af4b 03bd cc1b 5ebd 35a7 06be
00000130: f841 c2bd bad0 0ebd f7e6 c8bd c57c f9bd
00000140: 42fe 9fbc d367 29bd 3518 703a 0a19 d4bd
00000150: 393b d0bd 1823 e4bd f026 3b3d 900d fabb
00000160: c9d4 07be 8086 03be 8f4b 1fbd 482b 47bd
00000170: 8225 6b3d 3064 0b3d 2dad f3bd 5444 79bd
00000180: 4135 a3bd 66af cabd 17e6 2bbc 9bf8 07be
00000190: 1b3b 293c 7c66 b1bd b5f3 73bd b851 cfbd
000001a0: d90c 02be e2dc 06be b561 5dbc a458 56bd
000001b0: cad2 2dbd a8ce 71bd 378f 853d ee59 7d3d
000001c0: 32e8 623d a017 3d3b 2da5 5dbd 8e53 09bd
000001d0: 4c7a 1f3d bb1a e4bd a438 96bc 2ee3 013d
000001e0: 8aa4 79bd 5633 3abd 279b 7a3c 9381 07bb
000001f0: 455f abbc 5254 8cbd 20a9 ca3c 72a9 1dbd
00000200: d2c7 59bd 90e3 6dbd 3044 e0bc 80d8 553a
00000210: c071 35bb 56eb dcbd 2ff4 923b 81bc ea3b
00000220: c538 89bd 0039 6ebb 98c7 4ebd f40a 63bd
00000230: e014 22bc 7b9f 933d 3804 313c 6096 a93c
00000240: d242 563d c613 6abd c6fe 243d 90fd 71bc
00000250: 1392 8c3d 44bc 99bc b4aa b33c bc84 4fbc
00000260: f44f a0bd 4a90 6abc 3860 ffbc cc94 233d
00000270: 4a0a 23bd acaf 183c 51a6 6ebd 004c 95bc
00000280: 002d 833b 8a31 663d 587b 0cbc f430 23bc
00000290: 20df d1bd e1ae 023c a497 31bd 0147 81bd
000002a0: 3c4e 36bd e12c 41bc 37ad f2bd cd35 263b
000002b0: e626 02be 154a 90bd d91d 44bd 83e0 8b3d
000002c0: 7889 83bc eea5 fcbc 6005 98bb 9851 83bd
000002d0: 72b9 7abd 2ef4 2cbd 6425 003d 28af 89bd
000002e0: f4fe 1e3d 2a15 663d b081 f6bb 60b3 413c
000002f0: 4ffc bcbc a11a 55bd 5e3f 8abd a71f 843d
00000300: 100d 533c f395 75bd 8e5f bcbd d527 01be
00000310: 10d3 f1bd 91da 973d 9096 ccbc 67f5 f1bd
00000320: a727 99bd 5ae5 37bc 10e4 203b c2e4 4abd
00000330: 00df f43b eebb dcbd 73c2 41bb 0642 b9bc
00000340: 98a5 b33c 36e0 573d 6036 e13b 383e ce3c
00000350: 66a0 103d 409d aebb 213e 15bd 4f27 96bd
00000360: 2696 98bd 9e74 263d d0dc 74bd 0881 273d
00000370: a076 89bb b651 46bd 7753 8c3d 20b9 ce3b
00000380: 13be fabd 08de cfbd 48f7 63bc 0fe7 1cbd
00000390: 9028 033c ad36 a2bd 3665 92bd 3bd5 153c
000003a0: 0198 6bbd 9b04 19bd 1ec8 1e3d 2c20 a8bd
000003b0: 71dd c5bc ed73 afbd 79d1 a7bd a6de 3b3d
000003c0: bb11 953d 4774 d9bd 167e 8abd 9247 9cbc
000003d0: 46e1 7fbc 9617 56bd 4009 a23a 1ce6 a73c
000003e0: 5414 6fbd 49ab 893d 5842 353d 2c64 953c
000003f0: 5762 64bd 8875 8ebd a1bb f2bc 24a3 9fbd
0.049560174 -0.06550596 0.030128703 0.035433352 -0.027884617 -0.054190733 -0.015037134 -0.058649216
0.009274896 -0.08953223 0.054204367 0.06941394 -0.0021747947 -0.11410274 -0.04088882 -0.029212255
-0.07866913 -0.021838851 0.06042642 0.0017607993 -0.009390881 0.0036684857 -0.03226887 0.060823895
-0.023114394 -0.052232932 -0.13310583 -0.08227577 -0.03182887 0.015945807 0.07236888 0.05487757
-0.061771736 0.0024882033 -0.017087914 -0.049420737 -0.019515458 -0.026514187 0.023310803 -0.05735343
-0.06442143 0.026146911 0.038194887 -0.04525481 0.016065193 -0.05170512 -0.035324153 -0.048688836
-0.025107648 -0.10326001 -0.07658688 -0.010380652 0.0013129433 -0.01716135 -0.014655694 -0.113112606
-0.10538418 -0.058586247 -0.11369109 0.060471617 -0.025030632 -0.11225997 -0.11933323 -0.006853456
0.014270852 -0.008121952 -0.036515746 -0.056937687 0.07111462 0.060265727 -0.004839964 -0.04004829
-0.13056912 -0.0320546 -0.054225728 -0.13149722 -0.09485239 -0.034867026 -0.09809678 -0.12182001
-0.01953042 -0.04135878 0.00091588806 -0.10356338 -0.10167546 -0.11139506 0.04569143 -0.0076310113
-0.13264765 -0.12844276 -0.038890418 -0.04862526 0.057408817 0.034031093 -0.11898265 -0.06085618
-0.07969142 -0.09896736 -0.010491869 -0.13278429 0.010329033 -0.086621255 -0.05955859 -0.101230085
-0.12700213 -0.13170198 -0.013512065 -0.052330628 -0.042437352 -0.059034973 0.06521457 0.06185334
0.05539722 0.0028853193 -0.054112602 -0.03352695 0.03893499 -0.11137911 -0.018337555 0.031710796
-0.060947932 -0.045459114 0.01529578 -0.0020676597 -0.020919451 -0.0685202 0.024738848 -0.038491674
-0.05316908 -0.05807835 -0.027376264 0.0008157566 -0.0027686208 -0.10787074 0.0044846754 0.0071635847
-0.06700281 -0.0036349893 -0.050483316 -0.055430368 -0.009892672 0.07208153 0.0108042285 0.020701587
0.05230982 -0.057147764 0.040282033 -0.014769927 0.06863799 -0.01876653 0.021931984 -0.012665924
-0.0782775 -0.014316628 -0.03117381 0.039936826 -0.039804734 0.009319227 -0.05826408 -0.018224716
0.004003167 0.056199588 -0.008574329 -0.009960402 -0.10247636 0.007976265 -0.043357506 -0.06312371
-0.044508204 -0.011790485 -0.11849444 0.0025361658 -0.12710151 -0.0704538 -0.047880027 0.068299316
-0.016056761 -0.03084084 -0.0046393126 -0.06412047 -0.06121201 -0.042225055 0.03128566 -0.067228615
0.03881736 0.056172527 -0.007522784 0.0118225515 -0.023069529 -0.05202735 -0.067503676 0.0645135
0.012881532 -0.059957456 -0.09197913 -0.12612851 -0.11807835 0.07414735 -0.024974138 -0.11814385
-0.07478266 -0.011224115 0.0024549998 -0.049534567 0.0074728727 -0.10778032 -0.0029565364 -0.02261449
0.021929547 0.05270406 0.006872937 0.025176153 0.035309218 -0.0053288043 -0.036436204 -0.07331716
-0.074505135 0.04063856 -0.059780896 0.04089454 -0.0041950494 -0.04841777 0.06851857 0.0063086897
-0.12243285 -0.10149771 -0.013913937 -0.038306292 0.008005276 -0.07920585 -0.07148211 0.009145076
-0.05751801 -0.037357908 0.038765065 -0.08209261 -0.024153443 -0.08567033 -0.081942506 0.04586663
0.072787724 -0.10617881 -0.0676233 -0.019077096 -0.015617674 -0.052268587 0.0012362376 0.020495467
-0.058368996 0.06722123 0.044252723 0.018236242 -0.055757847 -0.06956011 -0.029630484 -0.077947885

fc1.bias f4 [64]
00000000: 3f3b f8bd 0c2b 04bd b1bf 44bd f144 463d
00000010: 8dc6 8b3d cc18 123e f65c b1bd ea36 23bd
00000020: 5f92 abbd 4ef8 84bd b2a8 70bd e31e 6cbd
00000030: 971f e4bd b926 c2bd e79d d63d 05c8 fa3c
00000040: 9966 a93d d8eb 20bc d017 02bd bc78 ab3d
00000050: 569f 783d 996b e0bd b57a c8bc b467 7fbd
00000060: c960 cebd 2859 29bd 03cf d93b eb22 26bd
00000070: b76b 083d bdef 82bc 2ef5 fe3d 19a5 553e
00000080: 9cca 9abb 841e ffbd 3593 acbc 272e e03d
00000090: 7c55 80bd 479e d0bc bb6b bdbc 0082 563d
000000a0: 675f 26bd 3074 84bd 9c12 1fbd 3863 40bc
000000b0: c83a 78bd 02e3 d13b 2292 a1ba 3da7 263e
000000c0: 5820 5e3e bf87 f0bc b3f5 dbbd 3ade eabd
000000d0: 7ceb a8bd e83b 2c3d a124 23bd b11c 56bd
000000e0: 208f 5fbd 4ccf c6bc b343 803a f673 9dbd
000000f0: 07bc 4d3d dc56 62bd 735a cebd f473 8bbc
-0.12120675 -0.032267615 -0.048034374 0.04840559 0.0682498 0.14267272 -0.08660309 -0.039847292
-0.083775274 -0.06492673 -0.05875463 -0.057646643 -0.11138838 -0.09480042 0.10479336 0.030612955
0.08271522 -0.0098218545 -0.03176099 0.08372638 0.06069883 -0.109580226 -0.024472574 -0.06235476
-0.10077054 -0.04134479 0.006646992 -0.040560644 0.03330585 -0.015983457 0.12449108 0.20863761
-0.00472386 -0.12456992 -0.021066288 0.10946303 -0.06266305 -0.025466098 -0.023122659 0.05237007
-0.040618327 -0.064674735 -0.038836107 -0.011742406 -0.060602933 0.0064052353 -0.0012326876 0.16274734
0.21692026 -0.029361604 -0.10740223 -0.114681676 -0.0824804 0.04204932 -0.039829854 -0.052273456
-0.054579854 -0.024268769 0.0009785801 -0.076881334 0.050228145 -0.055258617 -0.100758456 -0.017023064

fc2.weight f4 [4, 64]
00000000: cb07 4e3d a64c a4bd aeb1 2abc 4556 27bc
00000010: 8ec9 a2bd 8360 4dbe 75e3 4d3d 95ed 433c
00000020: 1b94 f4bc 0bd4 c5bc a0b8 a23b 4325 703d
00000030: 336b 903b a7a4 ba3c 02d0 5dbe 189d 20be
00000040: 0f17 e5bd 0946 69ba 8b6f 963b 00cd 3fbe
00000050: 6c50 50be 6a4f f73c 351f 7fbc e0f9 0c3b
00000060: 48be 30bd 08f8 8a3c be18 abbc 874f 413d
00000070: a2a5 3fbe 962f 2dbd 015f 57be 6831 69be
00000080: 74d3 09be 4faa 7ebd 3c74 83bc 62b1 4fbd
00000090: 4694 e13d 32eb 193c c627 5fbd 9bef 27bd
000000a0: 6b95 37bd 5de3 6a3d c6f1 c83d 1c9a e3bd
000000b0: 7c37 513d 087f 16be b1e3 7fbd 82f5 50be
000000c0: 9042 69be ffd4 e8bc 436b 0a3c b599 553d
000000d0: 901b 7ebd a047 61bc 2ce8 2fbd 2e71 9bbd
000000e0: 8cc5 70bd 8ae3 0dbd 8a92 30be 8991 c4bc
000000f0: e8d5 b6bc 40ce 533b e4c8 74bd 16c4 38bd
00000100: 30e5 153c 5fbc ce3c 4188 1bbc e4cc b03d
00000110: 54d7 efbd 6d4e 91bc 9cb7 a0bd 3505 25bd
00000120: 3a69 063d 56d1 95bd a884 103d 72a4 9c3c
00000130: b2ff 263d 8658 133e e468 9dbc 852f 62bc
00000140: be49 4ebe 26f7 c4bd d06e 033b 8dc5 87bc
00000150: 825c 93bc fde1 7dbd 3b8b 3ebd d142 383d
00000160: 70de 523b a8f5 aabd 337c ba3b 3e67 1c3e
00000170: 0f9d 87bc 61b7 21bc 849a 98bc 4a77 a5bc
00000180: 2a85 4f3d b691 85bd 3c29 0fbe 3ca3 8cbd
00000190: 68fb 1a3d 6d56 873b 8b20 7f3d 6c76 ccbd
000001a0: e718 14bd 6e44 48bd d4fa d33d 433c 8abc
000001b0: 50b6 453d 534a 8b3d 7e84 803d ff0b 94bc
000001c0: 526b a5bc e4f4 b1bd 0937 a6bd 3ea5 10be
000001d0: ab54 d7ba fc66 a23d 067e 01be 04a4 a03d
000001e0: cc31 e5bd 616b 42bc e694 f93c 0d91 ec3d
000001f0: b318 a03c ecb1 bfbd 331c 113e a5c6 92bd
00000200: 0a6f a73d c818 c539 4f43 97bc d1c8 0c3d
00000210: f2b5 bdbd d8b2 e03e 5bc9 2fbd 72e8 97b9
00000220: fb1c 3bbc 5d69 b33d a04b be3c dd8c 1d3e
00000230: 3ad0 0fbd 4fb7 1d3d 04a3 f23e 6cbd af3e
00000240: 9c51 06bd b666 a9bd f77e 053e 49d6 d13e
00000250: c7e9 e33e 7efe b23b 8fc8 3fbd ecfd 973d
00000260: 290b 1abd 7851 a2bc 8b4b 9839 819a c0bc
00000270: ffac d13e bba5 60bc a59d eb3e ac15 ff3e
00000280: a6b4 473c ea2e be3d a6e0 d03c 6c20 e63c
00000290: 2acf d7bd f37f 30be da8f c23b 7e09 4fbd
000002a0: 1f17 0c3d 06b3 9ebd 8063 6b3b 5f84 41bd
000002b0: 848f e7bd 0df3 54bd 7f07 01bd 159a e43e
000002c0: eb2a ff3e 3dac 11bd c599 8dbd 5627 66bc
000002d0: 28db 48bb d866 973c 49e2 663b fd44 80bd
000002e0: a058 27bd 3e40 a33c cae9 51bd b7a3 8e3d
000002f0: e8d8 a23d 0a62 b33d 5896 753d 3915 80bb
00000300: c0db babc 910a adbd 0f80 243d 79ec e33d
00000310: 300c 8b3c 273c f83e d51e 283e 6377 3a3e
00000320: d01b 143e 1394 193e 9488 01bd 298e e63c
00000330: 0c7f 153e 21b7 963c b5fa 053f 4715 c23e
00000340: 1031 db3c 727a ff3d ac96 fe3c d2cb e73e
00000350: d5ca fb3e 41bb 3fbe 79f4 14be ac59 1a3e
00000360: a05a ae3d 46c5 e2bd b78b f83d 11ff 18bd
00000370: 78a1 e73e 0a07 963d 6c20 023f fad8 0c3f
00000380: 0d62 55bd c03d 38bd 3029 ecbd ead0 473e
00000390: d8c4 28bd 4ae0 003e b807 a5bc 8ead 333e
000003a0: b2a5 863d 1428 973a c08f 033c 55d5 bebd
000003b0: 38f1 f1bd 5841 96bd 7235 cf3d 1182 fc3e
000003c0: ede7 0c3f 0c4b b4bd 69f0 7a3d 88a4 10bd
000003d0: 6621 803c 1422 1dbd 144b 483d 2e82 75bd
000003e0: b0db 92bc 034d 333e 8dea fdbb 8e9f 9dbc
000003f0: 15e2 4f3e d04d 513c 2852 7abd 1b4f ee3d
0.0503004 -0.08022432 -0.010418339 -0.010213439 -0.079486 -0.20056348 0.050265748 0.011958499
-0.029855778 -0.024148962 0.0049658567 0.058629286 0.0044073104 0.02278359 -0.2166138 -0.15684927
-0.11186039 -0.00088986807 0.0045909337 -0.18730545 -0.20343179 0.030189235 -0.015571405 0.0021511242
-0.043150216 0.016963974 -0.020885821 0.047194984 -0.18715528 -0.04228171 -0.21032335 -0.22772753
-0.13459569 -0.062174138 -0.016046636 -0.050706275 0.11014609 0.009394454 -0.05448129 -0.04099999
-0.04482023 0.057345737 0.098117396 -0.111133784 0.051078305 -0.14696896 -0.062473003 -0.20406154
-0.22779298 -0.028421877 0.008448425 0.05214854 -0.062038004 -0.013749987 -0.042946026 -0.07589947
-0.058782145 -0.034640826 -0.172434 -0.023995178 -0.022318795 0.003231898 -0.059761897 -0.045108877
0.009148881 0.025236307 -0.009492935 0.0863283 -0.117109925 -0.017737592 -0.07847521 -0.04028817
0.032815196 -0.07315318 0.03528276 0.019121382 0.040771194 0.14389238 -0.019215055 -0.013805275
-0.20145318 -0.09617452 0.0020055063 -0.016573692 -0.017988447 -0.061983097 -0.0465195 0.044985596
0.003217604 -0.083476365 0.005691075 0.15273759 -0.016554384 -0.009870381 -0.018628366 -0.020198483
0.050664105 -0.06521933 -0.13980573 -0.06867072 0.037837416 0.004130176 0.062286895 -0.09983525
-0.03615656 -0.048893385 0.10350576 -0.016874438 0.04826957 0.068012856 0.06275271 -0.018072126
-0.020192776 -0.08689287 -0.08115966 -0.14125535 -0.0016428431 0.07929799 -0.1264573 0.078437835
-0.111911386 -0.011866421 0.030466508 0.11551104 0.019543028 -0.09360108 0.14170913 -0.07166795
0.08175476 0.00037593232 -0.018464712 0.0343712 -0.09263219 0.43886447 -0.042916637 -0.0002897415
-0.011420484 0.08760331 0.02322942 0.15385766 -0.03511069 0.038504895 0.47389996 0.34324205
-0.032792673 -0.08271544 0.13036714 0.409838 0.44514295 0.0054624667 -0.046822127 0.07421479
-0.0376083 -0.019814238 0.00029047983 -0.023511173 0.40952298 -0.013711388 0.4601871 0.49821222
0.012189066 0.09286292 0.025497746 0.028091632 -0.1053756 -0.17236309 0.0059375586 -0.05054616
0.034201737 -0.0774899 0.003591746 -0.04724538 -0.1130667 -0.051989604 -0.03150129 0.44648805
0.4983743 -0.03556465 -0.06914095 -0.014047464 -0.0030648205 0.018481657 0.0035230091 -0.062631585
-0.040856004 0.019928094 -0.05124835 0.0696482 0.07951528 0.08758934 0.059957832 -0.00390878
-0.022809863 -0.08449281 0.04016119 0.11129088 0.016973585 0.48483393 0.16418011 0.18209605
0.14463735 0.14997892 -0.03162439 0.02814396 0.14599246 0.01839787 0.52335674 0.37906858
0.026756793 0.124745265 0.031077705 0.4527269 0.49178186 -0.18723775 -0.14546384 0.1507327
0.08513379 -0.11072783 0.121360235 -0.037352625 0.45240378 0.07325561 0.5083072 0.5501858
-0.05209546 -0.044980764 -0.115312934 0.19513288 -0.04120335 0.1258556 -0.020145282 0.17546675
0.065745726 0.001153233 0.008029878 -0.093180336 -0.11813587 -0.07336682 0.10117616 0.49317983
0.5504139 -0.088033766 0.06126443 -0.03531316 0.015640926 -0.038362578 0.048899725 -0.059938602
-0.01792702 0.17509846 -0.007748908 -0.01924112 0.20301087 0.0127749 -0.061113507 0.11636182

fc2.bias f4 [4]
00000000: 9d28 fabd 60b8 453b aa06 943e 3000 bd3e
-0.122147776 0.003016971 0.28911334 0.36914206
