src/flatland/flat_game/results/ourmethod_noreg11/rep_learner.pth (torch_old, 312902 bytes, 33 tensors)

representations f4 [6]
000000 63 85 42 3f 46 c7 cb be 9e 22 aa be 0a ec 0d 3f
       0.7598478 -0.3980047 -0.33229536 0.5543829
000010 dd b1 fc 3e e8 6f 1f 3e
       0.4935445 0.15570033

representations f4 [6]
000000 7f f3 5e bf 2d 61 d6 bd e5 9f 36 be 12 d6 2e bf
       -0.87090296 -0.104677536 -0.17834432 -0.68295395
000010 18 8a 09 bf 58 20 85 3e
       -0.5372634 0.2600124

representations f4 [6]
000000 93 1a 1f 3e b0 d2 4d 3f 8b 64 4b be 8f 63 86 3e
       0.15537481 0.8039961 -0.19862573 0.26247832
000010 fe 2c d8 bd 9e 15 87 bf
       -0.105554566 -1.0553472

representations f4 [6]
000000 34 f9 53 3d 16 0e b3 be f1 2e 48 3f 20 3e 67 bd
       0.05175133 -0.34971684 0.78196627 -0.05645573
000010 b3 38 60 3e 18 d2 4c 3f
       0.21896629 0.8000808

fc1.weight f4 [64, 4]
000000 fd f3 d0 3f 98 6a 02 3f 96 d7 cc 3f 07 12 05 bf
       1.6324459 0.509439 1.6003292 -0.5198063
000010 2e 1f d6 3f 25 6a 62 3f 7f 26 8a 3f 62 2e e3 3e
       1.6728265 0.88443214 1.0792998 0.44371325
000020 5b ae b0 3f b3 3c 35 c0 1d 68 8a be 8c 2f 22 bf
       1.3803209 -2.8318298 -0.27032557 -0.633538
000030 4f b8 50 be 48 5e d9 3f 38 bd e8 3e 69 e5 f4 be
       -0.20382808 1.6981897 0.45456862 -0.47831276
000040 98 6f 9e 3f fe 94 7a 3f d2 89 89 be 8a 78 f4 3e
       1.2377806 0.97883594 -0.2686296 0.47748214
000050 c0 a7 ae 3f 3a f2 44 bf b7 42 4a bf ee 4c 34 bf
       1.3644943 -0.7693211 -0.7900805 -0.70429885
000060 bf e8 78 bf c3 bb 09 bf c0 81 ab be 6e 6c c1 bf
       -0.9723014 -0.53802127 -0.3349743 -1.5111215
000070 f8 86 d0 3e 9a 5f 8e 3f 0e a7 d2 be 7c 1c 91 be
       0.40727973 1.1122925 -0.41143078 -0.28342044
000080 96 87 78 3e 9c 93 56 3f b2 8a 8f 3d bf 8b 8d bd
       0.24270472 0.83818984 0.07008876 -0.0691142
000090 ce 55 0c 40 99 85 4a be 7b 10 63 bf fa 0b da 3f
       2.192737 -0.19777526 -0.8869702 1.7034905
0000a0 c4 3c 51 3f 1d 13 48 3f 9b 94 c9 3f 49 d7 1e c0
       0.81733346 0.78154165 1.5748476 -2.48189
0000b0 5a 63 51 3e 4b 8f 4f bd b2 d6 6f be 09 0c 34 3e
       0.20448056 -0.050673764 -0.23421744 0.17582716
0000c0 8e d8 15 c0 74 c0 11 bf f6 ce 0d c0 28 4a 9f bf
       -2.3413424 -0.56934285 -2.215757 -1.2444506
0000d0 14 65 38 3f 63 ef b7 3f bf 37 c0 bf 19 e0 07 40
       0.7202923 1.436993 -1.5017012 2.1230528
0000e0 40 6c c3 3f 55 d5 4c c0 fc 1c 7a be 52 85 17 bf
       1.526741 -3.2005208 -0.24425119 -0.59187806
0000f0 30 ff 13 bf 88 64 0e 3e 9a 52 00 bf 67 eb 27 40
       -0.5781126 0.13905537 -0.5012604 2.6237428
000100 b8 4e a9 bd ac af 28 be 70 d8 70 3e 08 64 d3 3d
       -0.082669675 -0.16473264 0.23520064 0.10321814
000110 8b ae 79 3e b2 43 23 3f 96 79 e6 3e 81 00 18 be
       0.24382989 0.6377517 0.45014638 -0.14843942
000120 d0 b3 ba bf e2 b6 7e bf 45 c7 98 3f 26 e1 26 be
       -1.4586124 -0.9949781 1.1935812 -0.16296825
000130 7f 3e 1d c0 f3 bd c6 3f 46 bc ac 3f f9 5b d2 3f
       -2.4569395 1.5526718 1.3494956 1.6434318
000140 b3 9e d3 3f ed 74 dd 3f 09 b3 da 3f 43 75 72 be
       1.6532806 1.7301308 1.7085887 -0.23677544
000150 08 70 81 be 2d 9d cd bd 54 11 42 be 77 3d 54 bf
       -0.25280786 -0.100397445 -0.18951923 -0.8290629
000160 84 b1 01 be 80 49 72 3d 78 a1 d8 3d 88 d1 9e 3d
       -0.12665373 0.059152126 0.10577673 0.07754809
000170 4b 81 1c 3f f8 b1 5f 3f 97 a8 66 3f 1e c4 43 bf
       0.61134785 0.87380934 0.90101 -0.76471126
000180 8c 0a 0b bf a2 dd 74 3f f5 c8 59 3f 3a 1d 36 3f
       -0.5431297 0.95650685 0.8507226 0.71138346
000190 17 71 33 3f 36 b7 06 c0 de 6f 15 c0 7d f1 82 3f
       0.70094436 -2.1049323 -2.3349528 1.0229946
0001a0 2a 69 12 40 d3 63 91 bf 80 80 11 3f 48 98 7e bd
       2.2876687 -1.1358589 0.568367 -0.062156945
0001b0 e3 d0 62 bf 3f c8 b5 3d 1d f1 87 be 68 7b 98 bf
       -0.88599986 0.088760845 -0.26551142 -1.1912661
0001c0 d0 32 38 3f 9d 79 75 3f 99 1e a3 3f cf 2e 0d 3f
       0.71952534 0.9588869 1.2743713 0.5514955
0001d0 3b de c2 be b9 53 f2 bf 9f ae ee bf c6 38 07 bf
       -0.38060173 -1.89318 -1.864704 -0.52821004
0001e0 74 4f 80 bf 52 85 63 3f af 3e 00 c0 4d cf 41 bf
       -1.0024247 0.88875306 -2.003826 -0.7570694
0001f0 92 88 61 bc 8c e2 46 be c6 55 aa 3e 6d ba 7f 3b
       -0.013765471 -0.19422358 0.33268565 0.003902103
000200 4f cd 36 bf 8d ae 19 c0 b5 6f f4 3f e6 33 b7 3e
       -0.71407026 -2.4012787 1.909659 0.35781783
000210 75 1e 10 3f f9 39 97 be d3 b3 7a 3d fc 5d 16 bf
       0.56296474 -0.29536417 0.06120665 -0.5873716
000220 81 17 85 bd 03 30 da 3d b6 69 fa bd 84 4c 2e 3b
       -0.06498624 0.10653689 -0.12227194 0.00265959
000230 b6 bc 28 c0 26 bf 12 3f 8a a2 be 3f f9 38 d3 3f
       -2.636518 0.5732292 1.4893353 1.6501762
000240 8e a9 af 3e f9 d5 e6 3d 63 6b 1c bf d6 42 8b bf
       0.34309047 0.11271281 -0.6110136 -1.0879772
000250 83 d7 b2 bf 15 75 11 c0 06 b9 73 3f d5 13 91 3f
       -1.3972019 -2.2727711 0.952042 1.1334177
000260 a8 96 d5 bf 5e 0b c1 3f 29 1f a3 3f 38 95 c9 bf
       -1.6686602 1.5081594 1.2743884 -1.5748663
000270 42 b9 27 3f eb 91 ae bf cb 8d b4 3f b9 29 03 c0
       0.65517056 -1.3638281 1.4105772 -2.0494215
000280 f8 04 8c 3f 11 12 e9 3c 1c 59 33 be a0 ae 93 bf
       1.0939016 0.028450998 -0.17514461 -1.1537666
000290 29 ff 14 c0 2d 92 f0 be 8b dd 95 3f c9 64 55 bf
       -2.3280737 -0.46986523 1.1708235 -0.8335691
0002a0 95 a2 e8 3f 71 fb 08 bf 3a eb 32 c0 5a 4d 8c 3f
       1.8174616 -0.5350867 -2.795607 1.0961106
0002b0 13 c8 08 bf 49 32 a6 3d 86 97 23 c0 ed 1c c1 3e
       -0.5343029 0.0811506 -2.5561233 0.3771738
0002c0 bd 20 cd bf de 4c ba 3d 77 ba 50 bf cc 3a 26 bf
       -1.6025616 0.090966925 -0.8153452 -0.64933467
0002d0 ac 81 85 bd f3 c2 4d 3f fe 69 2d 3f fe 3d ab be
       -0.065188736 0.80375594 0.67739856 -0.33445734
0002e0 57 22 50 3f 28 9a ef 3d fb 0e a4 be 51 36 b5 3f
       0.813024 0.11699325 -0.3204268 1.4157201
0002f0 14 19 8e bf f1 1f 81 3e 27 e0 1d bf bc 5c ce bf
       -1.1101403 0.25219682 -0.61670154 -1.612205
000300 bd 70 8b bf 47 08 55 be 61 ca 3b bf d6 18 3b bf
       -1.089378 -0.20803939 -0.7335568 -0.7308477
000310 a9 58 49 3f d1 29 34 3e f8 94 a5 3e 20 11 43 3f
       0.7865091 0.17594077 0.32340217 0.76198006
000320 00 dc b9 bb 38 af 07 3e 40 e6 46 3d e8 7b e1 bd
       -0.005671978 0.13250434 0.048559427 -0.11009961
000330 9c 0f 96 3f de 69 e7 3f 65 1e 7d bd 24 5a 4e bf
       1.1723514 1.8079183 -0.061796565 -0.80606294
000340 28 00 07 40 c3 77 1f c0 62 aa ed 3f ce 08 16 3f
       2.1093845 -2.4916847 1.8567622 0.58607185
000350 4c 10 24 3e e4 c1 19 3e 23 22 42 3e cb 44 8d be
       0.16021842 0.1501537 0.18958335 -0.27591547
000360 73 56 07 be 18 07 8c 3f 93 89 42 be e6 ba 5a bf
       -0.13216572 1.0939665 -0.18997793 -0.85441434
000370 f7 26 8a 3f 09 07 1a 3e 4c a6 42 3f 4b 25 19 40
       1.0793141 0.15041746 0.76035 2.3929012
000380 47 d3 98 3e 75 cb 1f 40 d6 db b8 3e 33 6a ec 3f
       0.29848692 2.496793 0.36105222 1.846991
000390 02 d1 98 3f 52 94 a6 3d e7 1f 11 3f 83 72 13 bf
       1.1938784 0.081337586 0.56689304 -0.57596606
0003a0 dd d1 04 40 08 e2 9f 3e 59 41 b6 bf 46 39 0e c0
       2.075309 0.31227136 -1.4238693 -2.2222457
0003b0 56 54 d1 be e8 5e 15 3e 33 5a 2f 40 13 17 87 3e
       -0.40884656 0.14586985 2.7398803 0.26384792
0003c0 52 c8 a3 bf 65 28 ff bf 93 71 64 bf 79 0e 1e 40
       -1.2795508 -1.9934202 -0.892358 2.4696333
0003d0 b7 82 03 c0 0f 93 4d 3f b7 2e 0b c0 d0 c5 c7 3f
       -2.0548532 0.8030252 -2.1747262 1.5607243
0003e0 7a 11 ae bf 4f e6 37 3f b8 f6 56 3e 49 f8 97 bf
       -1.3599083 0.718358 0.20992553 -1.1872646
0003f0 84 5c 03 be 73 87 06 40 ba bd ca 3d 9f eb bd 3f
       -0.1282826 2.1020172 0.09899469 1.4837531

fc1.bias f4 [64]
000000 2d 9d a8 3f ce 8f 79 3f dc d3 bd 3e 9d 65 34 3f
       1.3172966 0.97485054 0.37075698 0.7046755
000010 2e 99 c1 3e e8 46 62 3f 6f 19 aa 3d 3d b1 2b 3f
       0.3781218 0.88389444 0.08305632 0.6706732
000020 24 25 ee 3e 72 31 13 3f 6d d2 8f 3f 56 27 10 bf
       0.4651271 0.5749732 1.1236092 -0.5631002
000030 6a 5a 7b bf 5a a8 12 3f c6 a5 bb 3e 34 4f f4 be
       -0.98184836 0.57288134 0.36649913 -0.47716677
000040 f0 88 b4 be fb 6f ed 3e 69 12 6b be d7 d8 14 3f
       -0.35260725 0.46374497 -0.22956242 0.5814337
000050 dd 53 42 3f 9f 4d a9 bd 20 ef 87 be a6 9f ec 3e
       0.75909215 -0.08266758 -0.26549625 0.46215552
000060 9b 35 02 3f 22 bc af be 82 fa cb 3e c4 6f a4 3d
       0.50863045 -0.3432322 0.3983956 0.0802913
000070 95 60 69 3f 6b 7c a1 3e 78 ad 07 3e 66 34 8e 3e
       0.91163 0.31540236 0.13249767 0.27774352
000080 e3 87 79 3e a6 09 ec 3e 0e 5c 97 be b5 27 0f be
       0.24368243 0.4610111 -0.2956242 -0.13979991
000090 aa e8 de 3e 94 36 92 3e 70 d6 04 3f c8 3f 2f 3f
       0.43536884 0.28557265 0.51889706 0.684567
0000a0 f8 d0 12 3f 4f 5d fd be 38 bd 7d be f6 2d 27 3e
       0.5735011 -0.4948525 -0.24779212 0.16326126
0000b0 1c 65 c8 be 89 d7 08 3f 20 d5 0d 3f 3e d4 87 3d
       -0.3913964 0.5345388 0.5540333 0.06632279
0000c0 d7 a1 82 be 4b 12 32 3f 20 76 ce be 40 7e 0e 3f
       -0.255141 0.6955916 -0.40324497 0.5566139
0000d0 0e 75 9e 3e 7e fe 09 bf 23 67 de 3e 24 34 9a 3f
       0.3094868 -0.5390395 0.43438062 1.2047162
0000e0 e6 86 64 3f 68 7a 1b 3f 48 7e 86 3e 38 49 24 3f
       0.8926834 0.6073365 0.2626822 0.6417422
0000f0 1a 34 0b be 4d 0e 6a be d7 4f 30 be 8c ca 17 3f
       -0.13594094 -0.22857018 -0.17217956 0.59293437

fc2.weight f4 [180, 64]
000000 64 b1 6b bb d3 83 4d bd 65 b5 12 be f7 5c 32 be
       -0.0035963887 -0.050174545 -0.14327009 -0.17418276
000010 d0 8d 20 be f0 cb c0 3c 98 9e b9 bc d4 d9 a4 bd
       -0.15679097 0.023534745 -0.022658631 -0.0804936
000020 bb 66 f3 bd d6 bc 72 bd 04 57 98 bd a3 d3 50 bd
       -0.11884829 -0.05926212 -0.07438472 -0.050983083
000030 3f d2 76 ba 4f ba 1e be 19 51 da 3b df f7 27 bd
       -0.00094154844 -0.15500759 0.0066624996 -0.041007873
000040 20 8d 81 3b 43 bf 7c bd 40 07 fe bd 3c 1f 87 bd
       0.003953591 -0.06170584 -0.124037266 -0.06597754
000050 28 5b 84 3d 9f 65 a6 3c 60 f6 8a 3b f4 70 3f 3d
       0.06462699 0.020312129 0.004240796 0.04673858
000060 af 84 0a bd 0d bb 74 3c ef ac 0c bd df b8 5c bd
       -0.033817943 0.0149371745 -0.03434461 -0.053887244
000070 7a ee 36 be 0f 96 26 be 46 39 36 be 28 3a 14 be
       -0.17864409 -0.1626818 -0.17795286 -0.1447531
000080 9e 46 dd bd 9c 42 4d bd 88 94 19 bd 10 0c bb bd
       -0.10804485 -0.05011235 -0.037495166 -0.0913316
000090 d9 2d a2 bd 76 95 d4 bc 8c cc 1c 3d 52 a5 06 3c
       -0.07918901 -0.025950175 0.03828101 0.008218126
0000a0 f7 d1 8b bd c4 85 d1 3c b9 e4 17 3d 06 1c 28 3c
       -0.06827157 0.02557648 0.03708336 0.010260588
0000b0 7a a3 e9 3c b0 0c e1 bd a9 a3 3e bd ba 07 9a 3d
       0.028520335 -0.10988748 -0.046542797 0.07521005
0000c0 7a c6 ba bc dd 15 7d 3d 78 f0 8d bc c4 97 56 3d
       -0.02279972 0.06178843 -0.017326578 0.05239083
0000d0 65 ac 0a bc 54 61 bf bd 58 b8 2e be 95 b3 35 3d
       -0.008463954 -0.09344736 -0.17062509 0.044360716
0000e0 8e 23 c5 3c df 1f ec bd 35 f3 68 bd 39 f6 0d be
       0.024064805 -0.115295164 -0.056872565 -0.13863458
0000f0 2d f5 b5 bd 14 79 68 bd fb 86 26 bd 10 05 2e be
       -0.08884654 -0.056756094 -0.04065607 -0.16994119
000100 ae 62 f0 be ef 04 f8 bd c3 b1 9b 3d 78 51 ae 3e
       -0.46950287 -0.12110316 0.07602265 0.3404653
000110 67 00 d7 be bf 1f 35 3e 2e cf 59 be e5 21 e0 bd
       -0.41992494 0.17687891 -0.21270439 -0.10943965
000120 e0 57 ee bd 0d c2 23 3e 71 24 cf 3d f5 11 08 3e
       -0.116378546 0.15991993 0.101143725 0.132881
000130 64 06 29 3f 00 60 85 bf e8 3f 1d 3e 7a ec 8f 3e
       0.66025376 -1.0419922 0.1535641 0.28110105
000140 70 ac 1f 3c 76 35 ac bb 29 72 81 bf 19 6e e9 3d
       0.009745702 -0.0052553965 -1.0112964 0.113979526
000150 65 da 1d bf 4a ef b9 3d 9c 5c 7a 3d 55 79 db 3b
       -0.6166137 0.09078844 0.061123475 0.0066978135
000160 46 b1 1a bf b7 04 13 3e 14 9a d2 3e 6d 63 a6 bd
       -0.6042675 0.14357267 0.41133177 -0.08124433
000170 a8 80 1e be cb aa 87 3d 97 25 40 bf 03 f5 2b 3e
       -0.15478766 0.06624373 -0.7505736 0.16792683
000180 61 45 dc bd e3 68 d5 3d a1 17 ea 3d 57 65 de 3d
       -0.107554205 0.10420396 0.11430288 0.10859173
000190 20 c8 1f be 4a 19 51 be 60 73 9a 3f c6 49 34 bd
       -0.15603685 -0.20419803 1.206646 -0.04401567
0001a0 20 92 dd 3c 2c fe a8 bf 9f d3 de be 07 80 f8 bd
       0.027047217 -1.3202567 -0.4352083 -0.12133794
0001b0 f2 f6 c3 bd fa 8f 65 bb d3 8a 4d 3e e9 4f ac be
       -0.095685855 -0.0035028444 0.20072488 -0.33654717
0001c0 0c 6f 06 3e a1 2d 59 3d 0c 28 29 bd cb 02 12 bf
       0.13128299 0.05302203 -0.041297957 -0.5703551
0001d0 57 71 ec 3e fb da df 3d 0f 69 e5 3d d3 4b 83 3e
       0.4618022 0.10930439 0.11201679 0.25643787
0001e0 e9 cb e5 be ae 59 4f be a5 9a ac 3d 6a d5 9f be
       -0.44882134 -0.20249054 0.084279336 -0.3121751
0001f0 45 b7 85 3d c0 6b 14 3f 95 90 64 3d fa 6b a9 be
       0.065290965 0.57976913 0.055801947 -0.33090192
000200 4c 08 bb bd 61 2f a2 bd fe ef 35 3e 31 73 9d 3e
       -0.09132442 -0.07919193 0.17767331 0.30751947
000210 e3 bc 9b 3e 35 0d b5 3c 4d b2 d0 3e 78 0e 28 3e
       0.30417547 0.022101024 0.40761033 0.1641177
000220 62 d6 6e bd c2 fb 15 3e 1a 6b 26 be c5 57 65 bd
       -0.05830992 0.14646819 -0.16251794 -0.055991907
000230 db c5 b9 be a1 f1 ca 3d ff d3 7c be 36 b0 08 bf
       -0.36283764 0.09909368 -0.24690245 -0.53393877
000240 00 b3 09 bc d3 13 7e 3d 6b 4c 7d be b1 b4 05 3f
       -0.008404493 0.062030625 -0.24736182 0.5222884
000250 1f 35 82 be 56 69 1a be f8 7e e5 bc 21 65 37 3d
       -0.25431153 -0.15079245 -0.028014645 0.04477418
000260 11 c8 01 bf 7d f5 02 bf 2f 94 7d be 7a d4 ff bd
       -0.506959 -0.51155835 -0.24763559 -0.124916986
000270 27 a6 38 be 8f 2a b5 3e 94 34 80 3d d0 c2 1d 3d
       -0.18032132 0.35384032 0.062600285 0.038515866
000280 b2 bc 3a 3e 0d 6c fc bc 63 c6 7a 3c 83 bd 85 3e
       0.18236044 -0.030813241 0.015306088 0.26121148
000290 6e 60 69 3e 46 dd 01 bd 9f b1 57 be fe 8c e3 3d
       0.22790691 -0.031705163 -0.21063851 0.111108765
0002a0 da c6 e2 3d 8c 69 49 3e 94 b1 17 be ae 88 62 be
       0.11073084 0.19669169 -0.14813834 -0.22122452
0002b0 0a 8a d6 be 36 4e b1 3d b6 24 32 3e a4 14 8d 3d
       -0.4190219 0.08657496 0.17396817 0.068887025
0002c0 7c c4 b3 be 3e b6 3b bd 7c c0 09 3d 64 f8 97 3e
       -0.35110843 -0.045828097 0.033630833 0.29681695
0002d0 c4 ae d3 3e c0 51 0f 3e 23 fe 65 bd 08 55 20 bf
       0.41344273 0.13996029 -0.056150567 -0.6262975
0002e0 b7 41 aa 3e b3 90 75 bb ac ea 53 3e c3 25 8d 3e
       0.3325326 -0.003747028 0.20694989 0.27567872
0002f0 31 5f b2 bd 26 ef b6 3d 52 56 21 bf f7 5a d4 3d
       -0.087095626 0.08932333 -0.6302234 0.10368913
000300 58 ce 1d be 7e 82 85 3d ab 6d 5a be ac 8e f9 ba
       -0.15410745 0.0651903 -0.21330898 -0.0019039712
000310 92 c9 82 3d 75 53 db 3d 6d 7e e2 3c 66 91 8a 3d
       0.06386103 0.107092775 0.027648175 0.06766014
000320 fb 64 14 be 8a 7d 85 be 71 e4 03 3e b6 17 ff bd
       -0.14491646 -0.2607234 0.12880112 -0.124556944
000330 26 e8 a0 3b f0 50 88 bd 60 99 1e 3d 65 fc da bd
       0.0049104868 -0.066560626 0.03872049 -0.10692672
000340 9a 28 a1 bd 03 7f 0a 3e 5c de a6 3c 15 4e 80 be
       -0.07869072 0.13525014 0.020369701 -0.25059572
000350 d5 85 37 be 10 ae b5 3b 7c 22 a8 3d 8d 41 17 3d
       -0.17922147 0.0055444315 0.082097024 0.03692775
000360 8f 2f 8c bd e6 83 89 be 67 3f 00 bc 79 b7 b5 3d
       -0.068450086 -0.26858443 -0.007827616 0.08872885
000370 dc de 88 bd ac b0 b0 bd be 3e c5 bd 58 d0 fb bd
       -0.06683132 -0.086274475 -0.09631108 -0.12295598
000380 11 ea 09 be 17 42 78 3d f8 31 e0 bd 1b 89 90 be
       -0.13468195 0.060609903 -0.10947031 -0.28229603
000390 46 57 4b bd 94 cc bf bd ba 20 87 be ba 9f 67 3b
       -0.049643777 -0.09365192 -0.26392156 0.0035343007
0003a0 0e 82 9f 3d 89 7a 39 be 5e e5 36 bc d7 a1 ca bc
       0.07788478 -0.1811315 -0.011163084 -0.024735374
0003b0 a7 37 ce bc 12 c7 7c 3d dc f9 02 3d 29 60 87 bd
       -0.025173021 0.061713286 0.031976566 -0.06610138
0003c0 ec e7 bd 3d 85 d4 d1 3b 00 4b 4c 3b 09 5b 8a bd
       0.09272751 0.006403508 0.0031172633 -0.06755645
0003d0 94 0a 8e be ec 83 f5 bd 03 e3 23 bd b5 51 89 be
       -0.27742445 -0.11988053 -0.040011417 -0.2682015
0003e0 d6 87 ae bd db e9 d6 3d eb ed bd 3d 61 35 55 be
       -0.085220024 0.10493823 0.09273895 -0.20821144
0003f0 a7 75 13 be 90 e8 7e be 0b bb 8f 3d 7a ee 61 be
       -0.1440035 -0.24893403 0.070180975 -0.22063628

fc2.bias f4 [180]
000000 4b f6 0b 3d 13 96 40 3e cf d7 12 3e 9a ee c4 bd
       0.03417043 0.18807249 0.14340137 -0.09615822
000010 5b 53 77 3e d4 18 a3 bc 86 c5 1b 3f 7d d3 c3 bd
       0.24152891 -0.0199093 0.6084827 -0.095618226
000020 57 eb 5b 3f 92 cd 91 bd 40 f9 c6 bc ba 5b eb 3d
       0.85905975 -0.071192876 -0.024288774 0.11492105
000030 ec 5c 16 be ac d8 d6 bd 95 5f 22 bd 02 19 eb 3d
       -0.14683884 -0.10490546 -0.039641935 0.11479379
000040 6f 15 3d be 90 d0 99 bd d6 c9 9f bd 47 e6 d3 3c
       -0.18465208 -0.07510483 -0.07802169 0.02586664
000050 32 aa ee bd 31 de 23 be 0e 5b dc bd 1c 78 ae 3c
       -0.11653556 -0.16002728 -0.10759555 0.021297507
000060 8d d7 bd 3e f2 b0 07 be da cd 1e be 8e 85 09 be
       0.37078515 -0.13251093 -0.15508214 -0.13429853
000070 a9 ce 9f bd e7 43 a4 bc de 9b 2c be 6e 33 19 be
       -0.07803089 -0.02005191 -0.16856334 -0.14961025
000080 fe 1e ac bd 84 75 2d 3d a0 e9 c2 3d 18 43 a2 3e
       -0.08404349 0.0423484 0.09517217 0.31691813
000090 0b 9a 8a 3e 03 56 c8 3b 8b 63 c0 3e e8 41 de 3d
       0.2707065 0.006113769 0.37575945 0.10852414
0000a0 78 d2 e6 3d bc de ab 3e fd 03 19 3f 2a 06 02 be
       0.112706125 0.3356837 0.5977171 -0.12697664
0000b0 a4 22 69 bd bb 54 cb bd 57 dd 6b bd ff 8a d9 3e
       -0.0569178 -0.099282704 -0.057584133 0.42488858
0000c0 57 4a 1a be ae ac 12 3d fd ee 46 be 11 4b f1 bd
       -0.15067421 0.03580921 -0.19427104 -0.11781896
0000d0 d9 80 16 be 9a 35 e9 3c c6 1b 78 3d 47 2c fb be
       -0.14697589 0.028467942 0.06057336 -0.49057218
0000e0 5b 82 84 bc 03 58 cf bd ad 09 4a be bd e6 3d 3e
       -0.01617544 -0.10124209 -0.19730254 0.18545051
0000f0 5a d1 01 3e 7d 7d 49 bd 8f cd be be 08 8e ca 3e
       0.12677518 -0.04919194 -0.37266204 0.39561486
000100 b7 4b 90 3b 07 d7 3a 3e 39 96 80 bd 6c b6 02 be
       0.004403557 0.18246089 -0.06278653 -0.12764901
000110 97 f3 b3 bd 0e 80 ea bc cc 31 c4 bd c5 1e b3 3e
       -0.087866955 -0.028625514 -0.095798105 0.34984413
000120 6d f8 f8 3d 3b ff 09 bd f7 e5 bc bd 1c 73 31 bb
       0.121567585 -0.033690672 -0.0922355 -0.0027076667
000130 e2 fc 20 bc 58 5a a1 3c 26 e9 ae 3e 25 51 f2 bd
       -0.009825917 0.0196964 0.34162253 -0.11831883
000140 37 00 7f bb ce 3e e4 bd 31 81 0b be 90 27 59 3e
       -0.003891004 -0.111447915 -0.13623501 0.21206498
000150 b2 09 10 3f 3d a9 46 be 3a ba 6f 3a 65 ab e8 bd
       0.56264794 -0.19400497 0.00091448764 -0.11360816
000160 4b 44 12 be f7 9f a8 3d b9 ce 24 3e 56 7e 26 bc
       -0.14283864 0.08233636 0.16094483 -0.010161957
000170 ec 85 c6 bd db d9 15 be 94 93 ba bd 34 87 31 3d
       -0.09693512 -0.14633887 -0.091101795 0.04334183
000180 4f 73 e3 3e 17 c4 12 be b5 ff 20 bd 36 92 a2 bd
       0.4442391 -0.14332615 -0.03930636 -0.07938044
000190 c9 17 0a be 14 0d bb 3d 58 38 71 3e 2b 82 3b 3d
       -0.13485636 0.09133354 0.2355665 0.045778435
0001a0 ad cd ae 3e 31 3b c1 3e 6e a4 77 3e 15 eb cf 3e
       0.34141293 0.37740472 0.24183819 0.4060904
0001b0 f7 f3 9b 3e fa 40 78 3e 82 7c 8a 3e 35 82 15 3d
       0.30459568 0.24243537 0.27048117 0.03650113
0001c0 86 27 78 3e e7 aa 18 be 91 93 18 be 08 f1 c1 3d
       0.24233827 -0.14908944 -0.14900042 0.09469801
0001d0 22 90 f5 3c 92 db a8 bd 97 b0 9b 3e e8 dc 91 3e
       0.029975954 -0.08245005 0.30408165 0.2848885
0001e0 75 29 1f be 80 3e 37 be 71 51 d1 bd e0 69 8f bd
       -0.15543158 -0.17894936 -0.10220612 -0.07002616
0001f0 c3 1f 13 bd 18 0b 83 3e 87 be e8 bd 6e ee 88 bd
       -0.035918962 0.255944 -0.11364465 -0.06686102
000200 7c 4c e8 bd 87 d1 ec bd 85 74 6b be ef 48 2e 3e
       -0.11342713 -0.11563402 -0.22993667 0.1702001
000210 9c b5 07 be 39 85 7f 3c ca 6d 0f be 8e c6 2e be
       -0.13252872 0.015595728 -0.14006725 -0.1706793
000220 9e c3 b9 3c ec 79 2c be a2 95 0b bc 9f fb 10 be
       0.022676285 -0.16843385 -0.008519562 -0.14158486
000230 b5 e0 b0 3c 47 2c d2 bd db 96 01 bd 37 a6 38 3e
       0.021591524 -0.102623515 -0.031638008 0.18032156
000240 a8 57 a6 3e bd 8d f0 bd 5c 27 07 3e 0e 2a 40 3d
       0.3248875 -0.117457844 0.13198608 0.046915106
000250 af 73 2e 3e c2 cb f0 3d 3f e1 3c 3e 75 b7 d8 bd
       0.17036317 0.11757614 0.184453 -0.10581867
000260 23 4c c5 bc 3d 38 ae bd ee db d2 bd 6d fc 62 3e
       -0.024084156 -0.0850682 -0.102958545 0.22166605
000270 86 18 c1 bd 3a cb f2 bd 46 f7 13 be a5 5c dc bd
       -0.094285056 -0.11855169 -0.14449796 -0.10759858
000280 e1 d2 3f bd b1 c2 17 be f9 cf 3d 3e 09 66 3f be
       -0.04683197 -0.14820363 0.18536367 -0.18691267
000290 58 ae cb b9 23 d1 ee bd b5 65 8c bb 11 22 73 3e
       -0.00038849073 -0.116609834 -0.0042845854 0.23743464
0002a0 4e 94 43 3d a5 fd 17 be 7b 85 84 3c 14 86 da bb
       0.047748856 -0.14842851 0.01617693 -0.0066688154
0002b0 bf 4c 37 be 6f 35 90 bd d9 9d dd 3e d9 c8 98 3e
       -0.1790037 -0.07041442 0.4328449 0.29840735
0002c0 3e b2 ee 3e ff a2 f0 3e a1 ab da 3e 56 f5 b6 3e
       0.46620363 0.46999356 0.42709067 0.3573405

conv.weight f4 [5, 1, 34, 34]
000000 e1 cc 74 3e a6 a1 9a 3e 6e 2a 9f 3e 9b e2 af 3e
       0.2390628 0.30201453 0.3108706 0.34352574
000010 d9 f7 cb 3e 25 ca bc 3e 9d 79 ca 3e ea 4c 00 3f
       0.3983753 0.36872974 0.3954591 0.5011736
000020 d1 b7 e1 3e c6 f3 e0 3e ea 79 2c 3f 25 6d f4 3e
       0.44085553 0.43935984 0.67373526 0.4773952
000030 23 ad 15 3e d5 2b 42 3d ca 65 d7 3e 42 a7 13 3e
       0.14616828 0.047405083 0.42069846 0.14419273
000040 cb 9b 8f be 7c 79 2b be af 53 85 bf ec e8 bf bf
       -0.28048548 -0.16745561 -1.0416163 -1.4992957
000050 cb 5c 9e bf 25 a0 b0 bf 5d cf 80 bf dd e0 39 bf
       -1.2372068 -1.3798872 -1.0063282 -0.7260874
000060 59 9b 82 bf 9c 09 59 bf ce 9f 62 bf 60 96 61 bf
       -1.0203658 -0.8478029 -0.8852509 -0.8812008
000070 18 07 59 bf e6 29 d8 be db 3c 4e bf 42 3e 09 bf
       -0.8477645 -0.42219466 -0.8056161 -0.5361062
000080 8b c8 77 be c9 09 b4 be 37 05 3b 3e ba 9c a4 3e
       -0.24197595 -0.35163715 0.18263708 0.32150823
000090 56 47 ab 3e 1e 61 a3 3e a0 d9 b0 3e 7f 8a db 3e
       0.33452863 0.31910032 0.34541035 0.42879102
0000a0 9c 85 ed 3e df fb f9 3e 3b 06 ee 3e fa 61 ca 3e
       0.46390998 0.48824975 0.46489128 0.39527875
0000b0 a2 24 2d 3f 50 de e2 bc 24 20 f4 bd 19 fa 3d bd
       0.6763402 -0.027693897 -0.11920193 -0.04638109
0000c0 55 fa ef 3e 20 6d 1e be c4 e3 89 be f5 17 4f be
       0.46870676 -0.15471315 -0.26931584 -0.20223983
0000d0 55 49 52 bf 79 07 91 bf 26 03 be bf 39 1f 14 bf
       -0.82143146 -1.1330405 -1.4844711 -0.5786014
0000e0 94 d5 62 bf d9 8f 78 bf c0 04 67 bf d6 90 0b bf
       -0.88607144 -0.97094494 -0.9024162 -0.5451788
0000f0 a1 8d fe be 3d 53 82 bf 17 2f a1 bf 1e 26 23 bf
       -0.4971743 -1.0181652 -1.2592496 -0.6373004
000100 12 71 50 bf 82 9d 09 bf 60 92 b2 be 3e 5d 89 be
       -0.8142253 -0.5375596 -0.348773 -0.2682895
000110 8a 27 3d 3e b0 d1 63 3e a5 76 a9 3e 20 2f ad 3e
       0.18472114 0.22247958 0.3309833 0.33825016
000120 41 4b d1 3e 65 c8 e0 3e 97 36 ea 3e 32 46 d6 3e
       0.40877727 0.4390289 0.45744774 0.4185043
000130 0c 31 f7 3e 0a be c4 3e 5b 71 d6 3d 38 eb 82 3d
       0.48279607 0.38426238 0.104708396 0.06392521
000140 d4 be 85 3e bc d7 8a 3e 95 b7 08 3f c5 93 44 3d
       0.26122153 0.27117717 0.53405124 0.047992487
000150 43 68 02 be 41 70 4a be 80 31 98 bf 3f 3d b0 bf
       -0.12735085 -0.19769384 -1.1890106 -1.3768691
000160 b3 40 6d bf 30 23 39 bf 37 45 a4 bf 00 4f a9 bf
       -0.9267685 -0.72319317 -1.2833623 -1.3227234
000170 d9 2a 88 bf 59 03 9d bf 40 ec 78 bf b5 67 92 bf
       -1.0638076 -1.2266647 -0.9723549 -1.1437899
000180 ef dd 3b bf 34 cc 3f bf f6 60 5f bf bf 37 3a bf
       -0.7338552 -0.74920964 -0.87257326 -0.7274131
000190 5a ec af be ff 24 b5 be 0e e4 5c 3e 24 16 94 3e
       -0.3436001 -0.35379788 0.21571371 0.28923142
0001a0 04 d9 bf 3e bb ae bf 3e 66 50 e8 3e 71 b7 f1 3e
       0.37470257 0.37437996 0.4537384 0.47210267
0001b0 29 c0 ff 3e c7 05 fa 3e ab b3 e8 3e f6 28 9d 3e
       0.49951294 0.48832533 0.45449576 0.30695313
0001c0 58 44 d1 3d 9a 0e cf 3e 59 20 91 3e 41 82 55 3e
       0.10218114 0.40440828 0.28344992 0.20850469
0001d0 fe c5 bc 3e cf b5 af bd b7 fd 78 be 86 b3 26 bf
       0.36869806 -0.08579599 -0.24315535 -0.6511768
0001e0 40 e0 5b bf 6e 82 34 bf 66 c9 70 bf bf 00 5d bf
       -0.85889053 -0.7051152 -0.9405731 -0.86329263
0001f0 39 a8 d5 bf d2 4f 87 bf 68 4b 9e bf ac f6 55 bf
       -1.6691962 -1.0571234 -1.2366762 -0.83579516
000200 14 e4 3b bf f0 49 6f bf b1 3b 74 bf 78 c4 51 bf
       -0.73394895 -0.93472195 -0.9540358 -0.8194041
000210 a8 13 18 bf 90 ac 28 bf 05 69 94 be 07 bc 00 bf
       -0.59404993 -0.6588831 -0.28986374 -0.50286907
000220 7b c7 91 3e c8 b6 a0 3e 1e 9a b2 3e d1 be e2 3e
       0.28472504 0.3138945 0.34883207 0.44286206
000230 54 93 f2 3e cb 27 c8 3e 67 cc e4 3e 9b 5b ed 3e
       0.47378027 0.3909286 0.44687197 0.46358952
000240 06 47 f0 3e 06 56 d1 3e 8a 23 e8 3e 7d 81 e7 3e
       0.46929187 0.40885943 0.45339614 0.4521598
000250 f7 bd 5d 3e 74 50 ca 3d 98 40 ba 3e 87 0f 66 3e
       0.21654497 0.098786265 0.36377406 0.2246686
000260 38 53 6b 3d 49 c2 21 bf 9b 19 5b bf e1 4b 7c bf
       0.05745241 -0.6318708 -0.85585946 -0.9855328
000270 7c 64 9f bf 90 56 c8 bf 85 11 d7 bf fa 95 b3 bf
       -1.245254 -1.5651417 -1.6802222 -1.4030144
000280 0c 14 ce bf 89 92 8f bf d8 d0 aa bf 5b 09 63 bf
       -1.6099868 -1.1216594 -1.3344984 -0.8868615
000290 96 79 82 bf 6f a3 82 bf ba 92 7f bf 13 17 0f bf
       -1.0193355 -1.0206126 -0.9983326 -0.55894583
0002a0 52 ed 04 bf 50 dc 6f be df 65 82 3e 2c b2 ac 3e
       -0.5192462 -0.23423886 0.25468346 0.33729684
0002b0 a2 49 de 3e 3d c5 bc 3e 66 89 c2 3e 0c f2 10 3f
       0.43415552 0.3686923 0.37995452 0.56619334
0002c0 e0 46 08 3f c8 71 08 3f 77 97 f2 3e b4 00 bd 3e
       0.53233147 0.53298616 0.47381184 0.369146
0002d0 3f 6b c7 3e 9a 35 e0 3e ac 30 37 3d 72 f6 99 3d
       0.3894901 0.43790895 0.04472415 0.07517709
0002e0 ca 53 be 3e 53 ac 3a bc da 58 d4 bd 72 dc 30 bf
       0.371733 -0.011393624 -0.103685096 -0.6908637
0002f0 83 2e 52 bf c2 9b 5c bf 9a 35 a3 bf ec 17 bb bf
       -0.8210222 -0.8617517 -1.2750733 -1.4616675
000300 56 f6 08 c0 db 12 e1 bf c1 8c c0 bf c7 c0 93 bf
       -2.1400352 -1.7583879 -1.5042955 -1.1543206
000310 a5 9d a6 bf fd 9e c1 bf ef 78 90 bf 8f 2c 84 bf
       -1.3016859 -1.5126644 -1.1286906 -1.0326098
000320 ef 04 78 bf 22 5a 3d bf 94 02 15 bf 32 56 2b bf
       -0.9688253 -0.73965657 -0.5820706 -0.669284
000330 83 c7 81 3e 0a ae 8f 3e a4 3e c3 3e 5e a1 da 3e
       0.25347528 0.2806247 0.38133729 0.42701238
000340 b8 05 01 3f 5a c2 10 3f b8 91 0c 3f 92 51 2d 3f
       0.5039935 0.56546557 0.5490985 0.6770259
000350 87 c7 1b 3f 4f 1d d9 3e d7 3a 9f 3e a9 c0 83 3e
       0.6085133 0.42405173 0.3109958 0.25732926
000360 0f 64 1e 3e 35 aa cc be 62 95 2a 3d 1f 8b a5 3d
       0.15467857 -0.39973608 0.04164637 0.08083176
000370 34 cc ae bd 24 a3 34 bf 68 19 8e bf cd 4d 8a bf
       -0.085350424 -0.7056143 -1.1101503 -1.0804993
000380 35 ce de bf 1a b6 dc bf a6 eb e5 bf 6a 2e db bf
       -1.7406679 -1.7243073 -1.7962539 -1.712354
000390 00 a5 a4 bf ee 8c ce bf fb 52 97 bf 13 e8 a5 bf
       -1.2862854 -1.6136758 -1.1822199 -1.2961448
0003a0 fc 52 91 bf 60 59 9c bf 53 ed 88 bf b3 a8 8e bf
       -1.135345 -1.2214775 -1.0697426 -1.1145233
0003b0 e3 cd 37 bf 3c f0 1a bf fb 39 60 3e 99 01 a8 3e
       -0.71798533 -0.6052282 0.21897118 0.3281372
0003c0 54 7d bb 3e 18 8e c5 3e 18 ff 07 3f 73 d3 23 3f
       0.36619055 0.3858497 0.5312362 0.6399452
0003d0 83 22 27 3f ce d7 2b 3f b3 86 2f 3f a0 f3 09 3f
       0.65287036 0.67126167 0.6856491 0.5388737
0003e0 6a cf 0c 3f 77 36 bf 3d aa 5c d0 3c 22 c5 29 3e
       0.5500399 0.0933656 0.02543481 0.16579106
0003f0 79 56 c1 3e 69 06 57 bd 0e f2 e2 be 9d 67 4a bf
       0.37761286 -0.052496348 -0.44325298 -0.7906435

conv.weight f4 [5, 1, 10, 10]
000000 00 86 aa 3e b8 41 59 3e 23 ab 71 3e 08 17 68 3e
       0.3330536 0.21216476 0.2360044 0.22665036
000010 60 f5 82 3e 5e 59 99 3e 83 29 a0 3e c4 2e 6f 3e
       0.2557783 0.29950994 0.3128167 0.23357683
000020 59 40 82 3e 20 a2 8b 3e d6 cb 25 3e f5 17 8d 3e
       0.25439718 0.2727213 0.16191038 0.2755734
000030 56 09 a8 3e 88 de 49 3e a3 e3 1e 3e 2e e4 8e 3e
       0.32819623 0.19713795 0.15516524 0.27908462
000040 2f 22 76 3e 4d a6 64 3e da f1 b1 3e 74 f8 8b 3e
       0.24036478 0.22329064 0.3475483 0.27337992
000050 84 a4 73 3e 0d c3 58 3e bb 86 99 3e 81 27 7f 3e
       0.23793226 0.21168156 0.29985604 0.24917413
000060 b8 ff 9d 3e 17 e4 8a 3e 6c b2 87 3e ac a7 ae 3e
       0.3085916 0.27127144 0.26503313 0.34112298
000070 0c 1e ad 3e cc 2f b4 3e 06 57 37 3e fd e9 80 3e
       0.33811986 0.35192716 0.1790429 0.2517852
000080 d2 c2 8b 3e e9 50 87 3e e3 10 87 3e 8a 97 3c 3e
       0.27297074 0.26428917 0.2638007 0.18417183
000090 17 d8 a1 3e ec 1a 32 3e 40 f7 9e 3e 1b 1b 7b 3e
       0.31610176 0.17393082 0.31048012 0.24522059
0000a0 26 46 8d 3e d7 6a 6c 3e 81 f8 3c 3e dd 86 9f 3e
       0.27592582 0.23087631 0.18454172 0.3115758
0000b0 85 1c 67 3e fb 92 6c 3e 4e 16 85 3e dc fc 80 3e
       0.22569473 0.23102944 0.2599358 0.25192916
0000c0 f4 87 a2 3e e2 1d 67 3e e4 2c 63 3e 3b 50 7e 3e
       0.3174435 0.22569993 0.22185093 0.24835293
0000d0 37 cd 59 3e 56 ba a6 3e a9 46 bf 3e b6 41 4c 3e
       0.2126969 0.32564038 0.37358597 0.19946942
0000e0 a4 47 6f 3e 48 f9 78 3e 3f b1 a0 3e 97 72 a6 3e
       0.23367172 0.24313843 0.31385228 0.325093
0000f0 12 e5 1d 3e 84 f8 51 3e f6 e5 9f 3e 2e ce 21 3e
       0.15419415 0.20504957 0.31230134 0.15801308
000100 9f 79 8f 3e 20 a5 77 3e 02 cd 88 3e f1 03 c2 3e
       0.28022477 0.24184084 0.2671891 0.37893632
000110 55 fc ab 3e bc 7a 4f 3e 80 72 b6 3e 46 38 93 3e
       0.33590952 0.20261663 0.35634232 0.2875387
000120 1e 77 1f 3e 63 85 92 3e 90 db a8 3e 33 06 8f 3e
       0.15572783 0.2861739 0.32980013 0.27934417
000130 6c 23 84 3e ba eb a7 3e 02 3b ba 3e e6 50 88 3e
       0.25808275 0.32797033 0.36373144 0.2662422
000140 27 49 a4 3e 4c df a8 3e 69 d9 8e 3e be 28 bf 3e
       0.3208706 0.32982862 0.27900246 0.3733577
000150 f7 7c a3 3e 7f 9a d8 3e d9 2e 8b 3e 1c 25 7e 3e
       0.31931278 0.4230537 0.2718418 0.24818844
000160 d9 36 b3 3e c6 a0 5f 3e 37 60 57 3e b8 e8 d4 3d
       0.35002783 0.21838674 0.21032797 0.1039595
000170 15 40 9e 3e 55 ca a3 3e 92 37 d3 3e 40 32 a1 3e
       0.30908266 0.31990305 0.41253334 0.3148365
000180 58 64 78 3e 2b 9f ab 3e ea f4 d2 3e f6 f5 a9 3e
       0.24257028 0.33519873 0.4120248 0.33195466
000190 e5 43 55 bd 48 2f 05 be d1 80 11 be 71 e9 03 be
       -0.052066702 -0.13006318 -0.14209296 -0.1288202
0001a0 fb cc 9d bc a8 7b 2b 3c 83 64 1b be ce 08 a2 bd
       -0.019262781 0.010466494 -0.15175061 -0.079118356
0001b0 20 32 39 bd 3c d7 84 bd 96 eb 86 3c 58 ff 74 bd
       -0.04521382 -0.06486365 0.016469758 -0.059813827
0001c0 1c bb 7f bc c7 5a 83 bd 94 50 33 be ad 94 a1 bd
       -0.015608575 -0.06413799 -0.17511207 -0.07889686
0001d0 4c f6 a0 bd 1c d1 23 bd db bb ff bd 64 d3 47 be
       -0.078594774 -0.039994344 -0.124870025 -0.19514233
0001e0 38 30 4e bd 78 18 81 bd 54 62 30 be 1f ea 20 3c
       -0.050338954 -0.06303495 -0.17225009 0.009821444
0001f0 6c 35 1c be 94 1a d3 bd bc eb c0 bd b0 72 b7 bb
       -0.15254754 -0.10307804 -0.09419963 -0.0055983886
000200 e3 c2 30 bd 43 97 1d be 4f 3a d3 bd d5 ad 04 be
       -0.04315461 -0.15389733 -0.10313856 -0.12956937
000210 74 b5 9c 3b 49 24 7d bd 04 d2 54 bd 16 c0 b9 3c
       0.004782373 -0.061802182 -0.0519581 0.022674602
000220 62 c9 d2 bd 86 c6 16 bc c0 7f 1b be f2 4a 0c be
       -0.10292317 -0.009202605 -0.15185452 -0.13700464
000230 f6 06 27 bd 23 fe 5e 3d 22 55 de bd c0 fc 1f 3d
       -0.040778123 0.054441582 -0.108560815 0.0390594
000240 c8 17 bb bc 1c b8 c8 bc 0e e5 b0 bd 23 7a 90 bd
       -0.022838488 -0.024501853 -0.08637439 -0.07054546
000250 47 56 8d bc a3 af 0c be 77 f7 a4 3d c7 e0 a4 bc
       -0.017253054 -0.13738875 0.08055013 -0.020126713
000260 b4 d0 70 3c 68 ad 46 bd 64 18 af 3c 0c 54 56 bd
       0.014698196 -0.048505217 0.021373935 -0.052326247
000270 6e 99 ec bd c4 2f d0 bc 67 97 23 be ce c6 cb bd
       -0.11552702 -0.025413401 -0.15975724 -0.09950028
000280 ed df cc bc 5a 0f 17 bd 8a 4e 56 bb 3e aa d5 bd
       -0.02500912 -0.036879875 -0.0032700622 -0.10432862
000290 e0 d2 c7 3b b5 49 80 bd 03 8d 12 be d0 12 a7 3c
       0.0060981363 -0.062640585 -0.14311604 0.020394713
0002a0 8f 86 40 3a 72 a6 e2 bc 23 34 30 bd 36 73 99 bd
       0.00073442695 -0.027667258 -0.04301847 -0.07492678
0002b0 20 1c af bd 03 dc f2 bc cc d4 04 be a7 52 0c 3c
       -0.08550286 -0.029645925 -0.129718 0.008564628
0002c0 1d ba ab 3b aa 18 63 bd c4 c9 a0 bd 15 bf de bc
       0.0052406923 -0.055443443 -0.07850984 -0.027190724
0002d0 fb c0 6c 3c 68 42 bd bd 45 56 a5 bd aa 63 03 be
       0.014450307 -0.092411816 -0.08073095 -0.12830988
0002e0 ac 16 db b9 7b b5 d1 bc c4 bb b6 bd 81 98 b8 bc
       -0.00041787827 -0.025599232 -0.08922532 -0.022533657
0002f0 bf 8a aa bd 17 0f 43 be 0c 9b 0b be 6a b0 07 bd
       -0.08327245 -0.19048725 -0.13633364 -0.033127226
000300 b4 48 05 be 58 59 93 bd bf 82 07 be f9 8f 2d be
       -0.13016015 -0.07194775 -0.1323347 -0.16949452
000310 41 ba 40 bd 0f b2 12 b9 bd 51 37 be e8 bb 13 bd
       -0.047052626 -0.00013989977 -0.17902274 -0.036067873
000320 24 c9 4a 3d 42 fb f8 3d f7 1f 90 3b d6 87 08 bd
       0.04950823 0.121572986 0.0043983418 -0.03333267
000330 6c 4a 8c 3c 0f 9d 0b bd af 33 44 bd 14 38 bb 3c
       0.01712533 -0.03408533 -0.04790085 0.022853889
000340 8f d5 32 be e0 09 a1 bc 3e 8a 6e bd c3 e3 13 3d
       -0.17464279 -0.01965803 -0.058237307 0.036105882
000350 5f c0 f1 bd e1 c1 0f bd 43 96 24 3d 7d 74 38 bd
       -0.1180427 -0.035097007 0.040182363 -0.045032967
000360 ae c7 09 bd 7c cd 1f bd ba f5 26 be f6 a5 dc bc
       -0.033637695 -0.039014325 -0.16304675 -0.026934605
000370 0a 3d 88 3c 0d ff af bd 97 df 8f 3d 8a ef e9 bd
       0.016630668 -0.08593569 0.07025068 -0.114226416
000380 84 17 eb bd 9f 6f cb bc fa 2d f2 3a 9b 63 0b be
       -0.114790946 -0.024833499 0.0018476837 -0.13612215
000390 1b 78 4c be bc c2 4c bc 07 8c 81 bd 45 3d ed bd
       -0.19967692 -0.0124976 -0.06325536 -0.11583952
0003a0 d4 db 38 3d 07 7a 23 3d d1 25 dc 3d 1a 35 0d 3e
       0.04513152 0.039911296 0.107494004 0.13789788
0003b0 7f 19 19 bd 4e 38 a4 bd 37 da 06 be 52 0c f4 bd
       -0.03737783 -0.08018552 -0.1316918 -0.119164124
0003c0 dd 9f 59 bd f0 bb d9 bd 65 d9 cb b8 78 3a 77 39
       -0.053130973 -0.10631549 -9.720287e-05 0.00023577537
0003d0 91 b2 8b 3d 7d 6e 88 3d 9b 95 ce 3d d2 e7 d0 3d
       0.06821168 0.06661699 0.10087129 0.10200466
0003e0 89 9f 2b be 81 08 76 bd d1 d8 b7 3c 1d c9 bd bd
       -0.16760077 -0.060066704 0.022442253 -0.09266875
0003f0 c8 a9 b9 bc 5d 9c fc bc 45 87 fb bc fa 7a b1 3d
       -0.022663966 -0.030836279 -0.03070415 0.08666034

conv.bias f4 [5]
000000 21 a9 e7 3d 20 0e 89 3e 99 57 2f 3e 0e 52 90 bd
       0.11311556 0.2676859 0.1712326 -0.07046901
000010 06 13 4f bd
       -0.05055525

fc1.weight f4 [64, 180]
000000 3d 29 99 bd 3a 12 ae bd 52 66 fa bd b4 fd 21 bd
       -0.07478569 -0.0849957 -0.12226547 -0.03954859
000010 f6 62 a3 bd d0 70 45 bd 30 a3 d8 bd 58 5b a7 bc
       -0.0797786 -0.04820329 -0.105780005 -0.020429298
000020 53 e9 f0 bd 67 4f fd 3b 2a 3c 89 bd 9d e4 ac bc
       -0.11763253 0.0077304128 -0.067009285 -0.021105105
000030 91 f6 a7 bc 60 3e 43 bd 61 79 ff bd 53 90 cd bd
       -0.020503314 -0.047666907 -0.12474323 -0.10037293
000040 b6 93 53 3c 05 c8 bb bd 57 0f 3b bc bb 29 e3 bc
       0.012913635 -0.0916901 -0.0114172315 -0.02772986
000050 bd 9f 89 bd 44 9d 7c 3c ed 11 40 3c a2 2a 33 bd
       -0.06719921 0.015418354 0.011723024 -0.04374183
000060 d5 da ac bb d7 39 43 3c e2 b5 d8 bd b7 c4 45 3c
       -0.0052751102 0.011915646 -0.105815664 0.012070826
000070 5f a2 30 bd 93 94 b0 bc c2 2c f5 bd e4 04 97 bd
       -0.0431236 -0.02155522 -0.119714275 -0.0737398
000080 87 0a 7d 3c 8f 25 8f bd a2 da b9 bd 1d 0e fc bd
       0.015444404 -0.069895856 -0.09074904 -0.123073794
000090 a1 ef 88 bd 37 09 2b bd 08 4f 06 bd 66 c1 8e bc
       -0.066863306 -0.041756835 -0.032790214 -0.017426204
0000a0 e0 87 a9 bd 16 6f 63 bd 03 ee ae 3b 12 52 85 bd
       -0.08277869 -0.05552586 0.005338432 -0.06509794
0000b0 f0 98 53 3c 2d 3b cb bd 4b 1b ed bd 92 01 b9 bd
       0.012914881 -0.09923396 -0.11577471 -0.09033503
0000c0 7c 9f 7c bd fb 86 81 bd 28 67 f3 bd 9c 41 31 bd
       -0.061675534 -0.063245736 -0.1188491 -0.04327546
0000d0 cb 63 19 bc 59 1a 20 bd a0 00 da bd 93 e3 63 3c
       -0.009362171 -0.039087627 -0.106446505 0.013909238
0000e0 48 49 98 bd 63 e8 dd bd 05 0d 9e bd 2c 1e b7 bd
       -0.07435852 -0.1083534 -0.07717327 -0.08941302
0000f0 a6 b9 db bd d9 45 69 bd a4 c4 fe bd 3a ef 07 bb
       -0.10728769 -0.056951378 -0.1243985 -0.0020741955
000100 de e7 c1 bc 46 a4 91 bd f4 97 aa bd 7b e6 1a bd
       -0.023670133 -0.07111411 -0.08329764 -0.03781746
000110 e3 51 d8 bc 5a 2a 81 bc 61 41 83 bd b6 cd c8 ba
       -0.026406234 -0.015767265 -0.064089544 -0.0015320096
000120 16 93 66 bd 70 9e 86 bd da 90 04 be 59 e5 ff bd
       -0.056292616 -0.06573188 -0.12945881 -0.124949165
000130 b8 7d 96 bd c3 9f 4c bd da 73 80 bc d6 71 ba bd
       -0.07348198 -0.04995705 -0.015680242 -0.09103744
000140 9e 43 60 bd 3d 54 44 bd 9e 9a 44 bd 4d fe cb bc
       -0.054751985 -0.0479319 -0.047999017 -0.024901533
000150 ba b3 ef bd 6d f8 b8 bd 60 42 9f bd 5d 43 00 be
       -0.11704202 -0.090317585 -0.07776332 -0.12525697
000160 76 77 31 bd 7a 99 6f 3b 42 9b b6 bd 6b c7 ad bc
       -0.043326817 0.0036559985 -0.08916332 -0.021213254
000170 1e de bb bc 8b 9e 01 be e5 d2 65 bc f1 96 87 bd
       -0.022933062 -0.12658136 -0.014027332 -0.06620587
000180 d6 68 6a 3b 63 f7 c4 bd 76 91 36 bd 60 0d d7 bd
       0.0035768053 -0.09617498 -0.044572316 -0.10500598
000190 6a 32 45 3c de ae 2d 3a 5f 79 b5 bd 2a 0f 01 be
       0.012035945 0.00066254835 -0.0886104 -0.12603441
0001a0 41 da 51 3c f8 15 07 bd 10 c4 ab bd c4 9a 8f bd
       0.012808383 -0.032979935 -0.08387005 -0.07011941
0001b0 3a b7 ea bc 40 43 f4 3c de 2d e2 bc 0c 4e e5 3c
       -0.028651822 0.029817224 -0.027609762 0.027991317
0001c0 30 7e a7 bb 53 32 c0 3b ac 14 d3 3c 9d 4a 4e bc
       -0.0051114783 0.005865374 0.025766693 -0.012591031
0001d0 de 61 03 bd ba 57 6a bc ad 5b ae bd ff ca 57 3b
       -0.032075755 -0.014303142 -0.085135795 0.0032927392
0001e0 2a 55 08 bd 69 12 a1 bd 0e a0 cb bd fa a2 2e bd
       -0.033284344 -0.078648396 -0.099426374 -0.042635895
0001f0 09 38 99 bd a4 84 85 3c 9a bc 8d bd 81 d4 f1 3a
       -0.07481391 0.0162986 -0.069207385 0.0018450172
000200 c0 79 42 bb a9 ee 44 bd fb 99 8f bc 42 30 28 3b
       -0.002967462 -0.048079167 -0.017529478 0.002566353
000210 07 38 83 bd 52 61 85 3c e2 e7 47 bd f4 12 db bb
       -0.06407171 0.016281758 -0.048805125 -0.006685609
000220 16 f9 6e bd 0c 49 69 bd 4a b5 5b 3d dd cf 13 bd
       -0.058343016 -0.05695443 0.053639688 -0.036086906
000230 d0 51 54 bd fc 42 70 bd 16 f3 29 3d f9 30 cb 3b
       -0.051835835 -0.05865763 0.04149159 0.0062009064
000240 d4 28 f0 3c 70 e4 17 bc a3 49 91 3d 02 ef b0 bc
       0.029316343 -0.009270772 0.07094123 -0.021598343
000250 7b f6 84 bd c0 b7 9e ba 99 d5 8a bd 3e d1 54 3d
       -0.06492325 -0.0012109205 -0.06779022 0.05195736
000260 34 90 85 bc 4c 61 74 bd 9d 59 89 3d 61 cc 1f bd
       -0.016304113 -0.059663102 0.067065455 -0.03901327
000270 d3 20 85 3d 57 0e 80 bd 92 06 e1 bc ec 3f f8 bc
       0.06500401 -0.06252735 -0.027468953 -0.030303918
000280 3a 77 57 3d 60 85 8d 3c 00 0e fb 3a 65 37 04 bd
       0.052603938 0.017275512 0.0019153953 -0.03227939
000290 82 23 6f 3d 82 6b 23 3d 60 23 0f 3b 19 db 84 3d
       0.058383472 0.03989745 0.0021841154 0.06487102
0002a0 e4 27 0a 3d 7b 59 e0 bd 02 e0 36 bd 00 ee 7e bb
       0.03372945 -0.10954567 -0.044647224 -0.0038899183
0002b0 5d d0 86 bd a1 93 91 bd c8 ac 52 3c e2 40 7d bd
       -0.06582711 -0.07108236 0.012858577 -0.061829455
0002c0 f5 22 98 3d d0 50 26 3d a3 fa 8a 3d 40 78 20 bd
       0.074285425 0.040604413 0.067860864 -0.03917718
0002d0 fc 4d 52 bd 82 d9 15 3d d0 c4 12 3d 12 05 32 3d
       -0.051343903 0.036584385 0.035832226 0.043461867
0002e0 a0 be d1 3c 69 30 22 bd 4e 8c 70 3d d0 c4 e4 3b
       0.025603592 -0.03959695 0.058727555 0.0069814697
0002f0 3a 3a 5e 3d b3 94 09 bd 10 04 db bb ba d3 45 3d
       0.054254748 -0.033589076 -0.006683834 0.04829762
000300 c0 54 01 bd a8 e3 30 bd 90 7b 4f bc 30 98 a2 bb
       -0.031574965 -0.04318586 -0.012663737 -0.00496199
000310 5e 3b 65 3d 10 df 4e 3c 75 ae 20 bd 20 06 7d bc
       0.05596482 0.012626424 -0.039228875 -0.015443355
000320 58 48 1b bd e0 2d da bb 7e d7 28 bd dc 37 85 bd
       -0.03791079 -0.0066583008 -0.041221134 -0.06504795
000330 10 02 15 bd 80 89 aa bb 40 41 9d 3b 88 31 24 bd
       -0.03637892 -0.0052043796 0.004799038 -0.0400863
000340 90 f2 e3 3c 8e 87 05 bd 58 d0 5a bd ba 30 e5 bc
       0.027825624 -0.03259998 -0.05342135 -0.027977336
000350 30 b2 28 bc 20 82 4b 3b 72 40 7f 3d 13 a8 2a bd
       -0.010296389 0.0031052902 0.06231732 -0.041664194
000360 fa 3b 59 3d 6e 17 4e bd 56 f1 47 3d ee 89 9a bc
       0.053035714 -0.050315313 0.04881414 -0.018864598
000370 c6 db c7 bc 80 e3 31 bd 02 4a 4c 3d 24 b6 e9 bc
       -0.024396788 -0.04342985 0.049875267 -0.028529234
000380 5a 18 60 3d c0 c3 2f 3c 90 f3 46 3c 60 bd 45 bc
       0.054710723 0.010727823 0.012143031 -0.012069076
000390 d4 4d 25 bd 00 f8 15 bb 68 91 35 bc 82 9c 6e 3d
       -0.040357426 -0.0022883415 -0.011082031 0.058254726
0003a0 00 2c fb 38 98 87 cd bc 24 e8 96 bd b6 f5 77 3d
       0.00011976808 -0.02508907 -0.07368496 0.060537063
0003b0 c6 34 50 bd 6a 21 33 bd 56 80 53 bd db 43 13 bd
       -0.05083158 -0.043733038 -0.051636063 -0.035953384
0003c0 78 a4 97 bd 7e b3 e9 bc 92 2f ed bc 0e 65 53 bd
       -0.07404417 -0.028527971 -0.028953347 -0.051610045
0003d0 f9 0d 8e 3d 40 98 4c 3c 68 12 c8 bc 84 37 83 bd
       0.06936259 0.012487471 -0.02442284 -0.06407073
0003e0 a0 b9 1f 3c a0 77 93 3b 8f 2c 88 3d 64 dc ad 3c
       0.009748846 0.0045003444 0.06649124 0.021223255
0003f0 50 f2 14 3c 42 a4 87 bd 49 58 68 bd 5e 5e 2b 3d
       0.009090975 -0.066231266 -0.05672482 0.041838042

fc1.bias f4 [64]
000000 64 33 69 bd 12 43 5a bd dc 8e 60 3c ac 7f 01 3c
       -0.056933776 -0.05328662 0.013705935 0.0079039745
000010 39 52 28 3d 69 df 2d bd 60 90 87 bd a8 c6 22 bd
       0.04109404 -0.04244939 -0.06619334 -0.039740235
000020 64 91 e5 3c 14 3c 80 3e 76 6b f4 bc b9 66 e2 bd
       0.02802343 0.25045836 -0.029836398 -0.11054749
000030 e4 a2 d7 bd f3 82 98 bd a0 92 7d bc 60 ee f3 bb
       -0.10529116 -0.074468516 -0.015476853 -0.007444188
000040 70 a3 2a 3c 34 b0 b0 bd f2 79 24 bd 30 35 1a 3e
       0.010414943 -0.08627358 -0.04015536 0.15059352
000050 69 8a 4d bc a1 40 81 3c 75 5b 94 bd ea 60 1c bd
       -0.012545207 0.015777888 -0.072440065 -0.038178362
000060 09 e9 31 bd ac 03 d0 bd 25 fa 3e bd 09 13 0f bd
       -0.04343513 -0.1015695 -0.046625275 -0.034930263
000070 9c 20 9b bd 4e 94 a5 bd 64 4b 96 3d 38 b2 9c bc
       -0.07574579 -0.080849275 0.07338598 -0.01912795
000080 5d 4f ab bd b0 da 50 bc e2 7e 52 3b d8 7e 3d 3d
       -0.08364747 -0.012747452 0.0032119085 0.046263546
000090 af 6a cb bd 33 47 22 3d 68 fa 70 bd d5 e0 00 3e
       -0.09932458 0.039618682 -0.058832556 0.12585767
0000a0 5f 7a 23 bd d8 6f ea bd 16 25 fd bd 6e aa e4 bc
       -0.039911624 -0.11447114 -0.12360589 -0.027913298
0000b0 9b 86 53 bd b0 e0 c4 3b 0f e6 27 3e 2e 27 96 bd
       -0.05164204 0.00600823 0.16396354 -0.07331692
0000c0 a6 0f 68 3e 28 e3 fe bd a1 03 d0 3d 63 41 db bd
       0.2266222 -0.1244567 0.10156942 -0.10705831
0000d0 09 29 d6 3d 44 c8 35 3a 31 64 1c bd 90 1e 89 bc
       0.104570456 0.0006934444 -0.038181487 -0.016738206
0000e0 33 d4 23 be 3a 07 43 3d d1 ff 79 3e 9d 69 6c bd
       -0.15998916 0.047614314 0.24413992 -0.05771791
0000f0 c8 25 61 bd 36 24 98 bd b6 82 bb bd 21 3b c1 bd
       -0.05496767 -0.07428782 -0.091557905 -0.09435106
