src/flatland/flat_game/results/ourmethod_reg16/rep_learner.pth (torch_old, 312918 bytes, 33 tensors)

representations f4 [6]
0	0xbba54cec	-0.00504457
1	0x3fa32e87	1.2748574
2	0x3bb44826	0.005501765
3	0xb9bbef9c	-0.00035845942
4	0x3b974239	0.0046160487
5	0xbbbe9136	-0.0058156503

representations f4 [6]
0	0x3bd917e0	0.0066251606
1	0xbfa166cb	-1.2609495
2	0x3c2f96b6	0.010717085
3	0xb7ac0140	-2.050458e-05
4	0x3b463032	0.003024113
5	0xbb52ff8c	-0.0032195775

representations f4 [6]
0	0x3b36ee2e	0.0027912962
1	0xbaf5d073	-0.0018754139
2	0xba06f936	-0.00051488297
3	0xb7498d00	-1.2013363e-05
4	0xbfa30b85	-1.273789
5	0x3b0dd093	0.0021639213

representations f4 [6]
0	0xba39b0dc	-0.0007083544
1	0x39596298	0.00020731462
2	0xbbe63a93	-0.0070260256
3	0xbb310aa9	-0.002701441
4	0x3fa1fce1	1.2655298
5	0xbbce34cc	-0.006292915

fc1.weight f4 [64, 4]
0	0xbfdfea64	-1.7493405
1	0x3fa9a258	1.3252668
2	0x3ec39a77	0.38203785
3	0xbf4b4b9d	-0.7941225
4	0xbfd9343e	-1.6969068
5	0x3f1b6d07	0.6071324
6	0xbe90ed0f	-0.2830586
7	0xbfd5b366	-1.6695373
8	0x3ed0e063	0.40796193
9	0xbf167d99	-0.58785397
10	0x3ecd1f2e	0.4006285
11	0xbe7cd495	-0.24690469
12	0x3dd32de4	0.10311487
13	0x401eed03	2.483216
14	0xbcf51e24	-0.029921599
15	0x3fd6a488	1.6768961
16	0x3f69f59c	0.91390395
17	0xbf89d64b	-1.0768522
18	0x3f620926	0.8829521
19	0xbf7b5c84	-0.9818804
20	0xbfb62c2f	-1.4232234
21	0xbf19ed2d	-0.60127527
22	0x3f7c78b7	0.98621696
23	0xbec3a2ac	-0.38210046
24	0x3d88fc61	0.066887625
25	0xbf803109	-1.0014964
26	0xbd473052	-0.048630066
27	0xbee121e5	-0.43971172
28	0xbe7185b9	-0.23586167
29	0x3fc788c7	1.5588616
30	0xc00e273c	-2.2211447
31	0xbd1957c4	-0.037437215
32	0x3edfd92a	0.4372037
33	0x3f398a7e	0.7247695
34	0xbf8ce022	-1.10059
35	0xbf913f98	-1.1347532
36	0x3f7e9cd0	0.99458027
37	0x3fd53f3b	1.6659921
38	0x3e672eac	0.22576398
39	0xbf8ab684	-1.0836949
40	0x3bbc0b8b	0.0057386807
41	0xbe1d766a	-0.15377203
42	0x3e27548e	0.16340849
43	0x3ff871fb	1.9409784
44	0x40322634	2.7835817
45	0xbba1008c	-0.0049133953
46	0x3f3bed89	0.73409325
47	0xbd88c45b	-0.06678077
48	0xbc3f6041	-0.011680664
49	0x3de763d1	0.11298335
50	0x3e8c949d	0.27457133
51	0x3e8e20e2	0.27759463
52	0xbf363e83	-0.71189135
53	0xbefa9b5d	-0.48946658
54	0x3fa963c1	1.3233567
55	0xbf47bf43	-0.7802622
56	0x3d9e3f89	0.07726962
57	0x4085cafc	4.1810284
58	0xbe99c897	-0.3003585
59	0x3ea3c9fa	0.31990033
60	0xbed2e81e	-0.41192716
61	0xbf9e0aae	-1.2347009
62	0x3ddc3aec	0.10753426
63	0x4028b21f	2.6358716
64	0x3ff552ae	1.9165857
65	0xbf652846	-0.8951458
66	0xbfac2f72	-1.3451979
67	0x40155588	2.3333454
68	0xbf95eb4d	-1.1712433
69	0xbe68d6aa	-0.22738138
70	0x3f39a990	0.72524357
71	0xbea8de06	-0.3298189
72	0x3fb8a4e6	1.4425323
73	0xbf4f9188	-0.8108144
74	0x400ea82b	2.2290142
75	0x3fac637c	1.346786
76	0x3ef200d8	0.4726627
77	0xbfbd4895	-1.4787775
78	0x3ebe5057	0.3717067
79	0xbf7d2efb	-0.9889981
80	0x3f6c2939	0.922504
81	0xbdcd2971	-0.1001767
82	0x3f5d4924	0.8643973
83	0xbec812d9	-0.3907688
84	0x3f797bfb	0.97454804
85	0xbd427851	-0.047478024
86	0x3d5f9922	0.0545894
87	0xbdfd37f2	-0.12364186
88	0x3fbb4e25	1.4633223
89	0xbfaae085	-1.3349768
90	0xbf433e31	-0.7626677
91	0x3f682f21	0.90696913
92	0xbe6523b5	-0.22376902
93	0xbf7c0634	-0.98446965
94	0xbf866327	-1.0499009
95	0x3fb9dc50	1.4520359
96	0xbfbb2f74	-1.4623857
97	0x3f0da412	0.55328476
98	0xbfb64f69	-1.4242984
99	0x40001a94	2.0016222
100	0xbf676bda	-0.90398943
101	0xbf718867	-0.9434876
102	0xbe3da844	-0.1852122
103	0x3fba9226	1.4575851
104	0x3e9c4037	0.30517742
105	0xbf45dce3	-0.7729017
106	0x3fe5e3ed	1.7960182
107	0xbf5ab7d3	-0.85436743
108	0x3f090b5a	0.53532946
109	0x3de53721	0.11192156
110	0x3f1ccb24	0.6124747
111	0xbdce5de6	-0.100765035
112	0xbfe486ba	-1.7853615
113	0xbf56735e	-0.83769786
114	0xbe98727f	-0.29774854
115	0xbf56668e	-0.83750236
116	0x3fb0f27d	1.3824002
117	0x3f46a5fb	0.77597016
118	0xbda97d87	-0.082758956
119	0x3fe9822d	1.8242851
120	0x3f260ff7	0.6486811
121	0x3ff497e3	1.9108852
122	0x3fd11920	1.6335793
123	0xc01624a6	-2.3459868
124	0xbfe3d45e	-1.7799184
125	0x3ff459e4	1.9089932
126	0xbfb4e119	-1.4131194
127	0xbedfdfe0	-0.4372549
128	0x3ef1ed6b	0.47251448
129	0xbefa2415	-0.48855653
130	0x3d97e228	0.07416183
131	0x3f995395	1.1978632
132	0x3ef1b284	0.4720651
133	0x4014af25	2.32319
134	0xbd382135	-0.044953544
135	0xbfaa4e68	-1.3305178
136	0xc08b9be1	-4.362778
137	0xbe8ad796	-0.27117604
138	0x3fa971f2	1.3237898
139	0xbde7884c	-0.113052934
140	0x3e80e9d2	0.2517839
141	0xbde435c2	-0.11143066
142	0xbea77ad2	-0.32710892
143	0xbe4a71ed	-0.19770022
144	0xbf89975f	-1.074932
145	0x3fbcdc33	1.47547
146	0x3fcbcc38	1.5921698
147	0xbf8837f4	-1.0642076
148	0x3f8f3a6c	1.1189704
149	0x3ee9d096	0.4566695
150	0x3fa225ad	1.2667748
151	0x3fc93118	1.5718107
152	0xbfd08264	-1.6289792
153	0xbf9eb038	-1.2397528
154	0x3f415664	0.75522447
155	0xbfa17ba4	-1.2615857
156	0x3fa4379d	1.2829472
157	0xbfb72971	-1.4309522
158	0x3f38a830	0.72131634
159	0xbe925e8c	-0.2858776
160	0x3f368d8f	0.7130975
161	0xbee060eb	-0.43823943
162	0x3ebe8b26	0.37215537
163	0xbf941dae	-1.1571558
164	0x3e06b690	0.1315558
165	0x3fee6e95	1.8627497
166	0x3f8cc279	1.0996848
167	0xbe9a4855	-0.3013331
168	0xc020041a	-2.5002503
169	0xbc89469c	-0.016757302
170	0x3f7b7a8c	0.98233867
171	0xbd14866e	-0.036261015
172	0x3c020370	0.00793539
173	0x3e542d67	0.20720445
174	0x3e396126	0.18103465
175	0x3df01f3b	0.11724707
176	0x3f0dcd52	0.5539142
177	0xbf12163b	-0.5706517
178	0x3f636927	0.88832325
179	0xbe11f201	-0.14252473
180	0xbff9b7e6	-1.9509246
181	0xbdce7dba	-0.10082574
182	0x3f19077c	0.59777045
183	0x3ff1ea46	1.889962
184	0x3eb5865b	0.35454068
185	0xbd0b0727	-0.033942368
186	0xc0218aff	-2.5241086
187	0x3bb9975c	0.0056637954
188	0xbfa14779	-1.2599937
189	0xbfa23c8d	-1.2674729
190	0xbf82e014	-1.0224633
191	0xbe823c65	-0.25436702
192	0xc04bea6f	-3.1861837
193	0x3f3b7a47	0.73233455
194	0x3f41b10b	0.7566077
195	0xc002df66	-2.0448852
196	0x3ceccc45	0.028905997
197	0xbea5e5f4	-0.32402003
198	0xbb91ee16	-0.004453431
199	0xbf9f5426	-1.2447555
200	0x3fb84faf	1.4399318
201	0x3fe85b42	1.815285
202	0x3f74768c	0.9549339
203	0xbef9ad96	-0.48765248
204	0x3fd61e03	1.6727909
205	0xbf1c2215	-0.60989505
206	0xbfdedd45	-1.7411276
207	0xbfadb038	-1.3569403
208	0x3f9bae36	1.216254
209	0xbd04b434	-0.032398418
210	0xc033b107	-2.80768
211	0x3cf38f01	0.029731276
212	0xbec13173	-0.3773304
213	0xbfa65f02	-1.2997744
214	0x3fa8efd7	1.3198193
215	0x3f21b03f	0.63159555
216	0x3fa6fb3f	1.3045424
217	0x3ff6642a	1.9249318
218	0xbec9272a	-0.39287692
219	0xbf5de9a5	-0.8668464
220	0x3f923586	1.1422584
221	0xbddd4771	-0.10804642
222	0xc038de7e	-2.8885798
223	0xbe326962	-0.17423013
224	0xbf8a9873	-1.0827774
225	0xbf9c27d3	-1.2199653
226	0xbfa20ebd	-1.2660748
227	0x3f84dc83	1.0379795
228	0x3f663930	0.8993101
229	0x3fe9a06a	1.825208
230	0x3f084f7f	0.532463
231	0x3f477caf	0.7792463
232	0xbf80448e	-1.0020921
233	0x3f03b9ad	0.51455194
234	0x3fedbcbb	1.8573221
235	0x3fece3c6	1.8507011
236	0xbea5914b	-0.32337412
237	0xbf74254a	-0.953694
238	0xbfccc503	-1.5997623
239	0xbf013fd9	-0.5048805
240	0xc01c286b	-2.439967
241	0xbd95d90c	-0.07316789
242	0x3f6fdbbb	0.9369466
243	0xbf51891f	-0.81849855
244	0xbfbba6c2	-1.4660265
245	0x3b9791ec	0.0046255495
246	0xbfbd6643	-1.4796833
247	0xbec1a1d8	-0.3781879
248	0xbf33bf10	-0.70213413
249	0x3f8d7dd4	1.1054025
250	0xc03f367c	-2.9877005
251	0xbfcaa9eb	-1.5833105
252	0x3e937f9e	0.28808302
253	0x3d6fd448	0.058552057
254	0xbe103483	-0.14082532
255	0xbe2531ad	-0.16132231

fc1.bias f4 [64]
0	0x3e96d61a	0.29460222
1	0x3efca9f8	0.49348426
2	0x3e8d2a11	0.27571157
3	0x3e609933	0.21933441
4	0x3eabbb66	0.3354141
5	0x3ea19b0c	0.31563604
6	0x3f0fdb5d	0.56194097
7	0xbf43c63c	-0.76474357
8	0x3f364fff	0.71215814
9	0x3f06c65e	0.52646434
10	0xbe23d6e0	-0.15999937
11	0x3f2a0da8	0.6642709
12	0xbf07cdea	-0.53048575
13	0x3ed2c0a2	0.41162592
14	0xbf9f50f7	-1.2446584
15	0x3d6f907b	0.058487397
16	0xbec36ecd	-0.38170472
17	0x3eb99630	0.36247396
18	0x3ec4ff55	0.38476053
19	0x3f0c34d5	0.54768115
20	0x3ee1df61	0.44115737
21	0x3e2550f5	0.16144164
22	0x3ef62219	0.4807289
23	0xbe561c08	-0.2090913
24	0xbe172b2e	-0.14762565
25	0xbe570ef7	-0.21001802
26	0x3f6069b2	0.8766128
27	0x3eab47db	0.3345326
28	0x3e14981a	0.14511147
29	0x3e60691d	0.21915098
30	0xbdb1a735	-0.0867447
31	0xbf9128ed	-1.1340615
32	0xbd8371b1	-0.06418169
33	0x3e495b0a	0.19663635
34	0xbcafeda8	-0.021475628
35	0x3e338077	0.17529474
36	0xbe22a21e	-0.15882155
37	0x3eeb1f7d	0.4592246
38	0xbe8242a0	-0.25441456
39	0x3dd3ccb3	0.10341778
40	0x3ee34e4c	0.44395673
41	0x3d3629cd	0.044473458
42	0x3e7ba20f	0.24573539
43	0xbee67db7	-0.45017788
44	0x3e5fc6a3	0.21853118
45	0xbf2acd49	-0.6671949
46	0xbe4cd221	-0.20002033
47	0x3eadbaeb	0.3393167
48	0xbef8b189	-0.4857295
49	0x3e41d966	0.18930587
50	0x3f205861	0.62634856
51	0x3e17cc5d	0.14824052
52	0x3ea0dba6	0.31417578
53	0x3f01722e	0.5056485
54	0x3e49c3cd	0.19703598
55	0x3e4e98dd	0.201755
56	0x3d08f786	0.03343918
57	0xbd8a3f36	-0.06750338
58	0x3f2653c2	0.64971554
59	0x3e06fa5d	0.13181444
60	0xbe6bcc8e	-0.2302725
61	0x3e07e69c	0.13271564
62	0x3e27c0ba	0.16382113
63	0x3e826b9c	0.25472724

fc2.weight f4 [180, 64]
0	0x3e894648	0.26811433
1	0x3f24fb93	0.6444637
2	0x3e49db94	0.19712669
3	0x3d76a825	0.06021895
4	0x3e3f1c3c	0.18663114
5	0x3c8ea2f0	0.017411679
6	0xbe7403db	-0.23829596
7	0xbf77ba16	-0.9676832
8	0x3e20cee3	0.15703921
9	0x3e0e3dc9	0.13890757
10	0x3e999138	0.29993606
11	0xbdfd6ba0	-0.123740435
12	0x3d99de0a	0.07513054
13	0xbe846773	-0.25860175
14	0x3e8f4c18	0.27987742
15	0x3b8c21a4	0.004276471
16	0xbeb04bb3	-0.34432754
17	0x3eb444fb	0.35208878
18	0x3e0f3555	0.13985188
19	0xbd300e62	-0.042982467
20	0x3d0ff894	0.035149172
21	0x3e393910	0.18088174
22	0xbf3497a5	-0.7054389
23	0xbccb05b6	-0.024782997
24	0xbcd69658	-0.026194736
25	0x3e1d9f50	0.15392804
26	0xbfa10ac1	-1.2581407
27	0x3d93bf35	0.07214204
28	0x3f095b71	0.53655154
29	0xbdb462d3	-0.08807912
30	0xbef59641	-0.47966197
31	0x3eb1fbae	0.3476233
32	0x3d0f329e	0.03496038
33	0x3cc30668	0.023806766
34	0xbebe91b9	-0.37220553
35	0x3e63db93	0.2225173
36	0xbe8a521f	-0.27015778
37	0x3cd34971	0.025791856
38	0xbe6f235e	-0.23353335
39	0xbb303db3	-0.0026892244
40	0x3e1d3654	0.15352756
41	0xbc685be2	-0.014182063
42	0x3e846f2d	0.2586607
43	0x3d3624ee	0.044468813
44	0x3dd22696	0.10261266
45	0x3f45e27d	0.7729872
46	0x3d72abb4	0.05924578
47	0xbc262dc0	-0.010142744
48	0xbf646e9b	-0.8923127
49	0x3e58a1d1	0.21155478
50	0xbe85b1b5	-0.26112142
51	0x3f09b5ee	0.5379323
52	0xbe231083	-0.15924267
53	0x3db44497	0.08802145
54	0xbdced835	-0.10099832
55	0x3e1431ac	0.14472073
56	0x3e3a9640	0.18221378
57	0xbbbe9757	-0.005816381
58	0x3e4efa1d	0.20212598
59	0xba4a8356	-0.0007725259
60	0x3cb764f4	0.022387005
61	0x3eac182b	0.3361219
62	0xbc61dc64	-0.013785455
63	0x3dce4997	0.1007263
64	0x4014a2e7	2.3224428
65	0x3efec594	0.49760115
66	0x3f72fe5f	0.9491939
67	0xbe92f553	-0.28702793
68	0x3f8d4d38	1.103919
69	0x3e4ac840	0.19802952
70	0x3f89fab2	1.0779631
71	0xbe073b96	-0.13206324
72	0xbe1129f9	-0.14176168
73	0x3f39bbc5	0.7255214
74	0x3f3700ac	0.714854
75	0x400db000	2.2138672
76	0x3de56f05	0.11202816
77	0x3f888d5d	1.0668141
78	0x3ff1c5c8	1.8888483
79	0x3f979298	1.1841612
80	0x3e3a7380	0.18208122
81	0x3f0e530f	0.5559549
82	0x402da333	2.713086
83	0x3fa57428	1.2926073
84	0x3f929e6a	1.1454594
85	0x3f157148	0.5837598
86	0xbdc3692b	-0.095415436
87	0xbe6379e0	-0.2221446
88	0x3e51d03e	0.20489594
89	0x3fad66d9	1.3547012
90	0x3ff773dd	1.9332234
91	0x3f91954e	1.1373689
92	0xbf36be41	-0.71384054
93	0x3eb13271	0.34608796
94	0x3ff20099	1.8906432
95	0x40045bad	2.0680954
96	0x3f165e0c	0.58737254
97	0x3fa78e1b	1.3090242
98	0x40928cc6	4.5796843
99	0x3e12211c	0.14270443
100	0x3f1290fb	0.5725247
101	0x3f6f81db	0.9355752
102	0x3ef352a7	0.47523996
103	0x3f946b17	1.1595181
104	0x3f609cd3	0.87739295
105	0x3f360597	0.7110228
106	0x3f4bc22c	0.7959316
107	0x3da2137d	0.07913873
108	0x3f9fb3c8	1.247674
109	0x3f357f8d	0.7089775
110	0xbf126d0b	-0.57197636
111	0xbf640cf3	-0.8908226
112	0xbf3d7eb0	-0.74021435
113	0x3dcaf973	0.0991086
114	0x3fa72432	1.3057921
115	0x3f768a78	0.96305037
116	0xbf2e43a9	-0.6807199
117	0x4015b17d	2.338958
118	0x3f686dae	0.9079236
119	0xbeb64ce4	-0.35605538
120	0xbde816c7	-0.113324694
121	0x3e41c08c	0.18921107
122	0x3f9092a2	1.1294749
123	0xbeaced0b	-0.337746
124	0x3dcf01b3	0.10107746
125	0xbee2648f	-0.44217345
126	0xbfc5e130	-1.5459347
127	0x3e26544e	0.16243097
128	0x3cbfda17	0.023419423
129	0xbd761cf2	-0.0600862
130	0xbdf9937b	-0.12186333
131	0xbde9f6cc	-0.11424026
132	0xbe47b559	-0.19502772
133	0xbe1fd12e	-0.1560714
134	0xbdedebb5	-0.11617223
135	0xbde7e768	-0.11323434
136	0x3cd88e83	0.026435142
137	0x3d6b382c	0.057426617
138	0xbe2752c2	-0.16340163
139	0xbe120524	-0.14259773
140	0x3d78fd7a	0.06078861
141	0x3d888f01	0.06667901
142	0xbd7fdfc9	-0.062469278
143	0xbd24fe64	-0.04028167
144	0xbe3ec8c8	-0.1863128
145	0xbda324e1	-0.079660185
146	0xbe560aa0	-0.2090249
147	0xbe37ec8e	-0.17961332
148	0xbdfe0451	-0.12403167
149	0xbdf8513f	-0.121248715
150	0xbd7ea4b1	-0.06216878
151	0xbe29e278	-0.16590297
152	0x3befba90	0.007315941
153	0xbe3bae0f	-0.18328117
154	0xbe134071	-0.14380051
155	0xbe16a1e9	-0.14710201
156	0xbcdabaea	-0.026700456
157	0x3d08b3d1	0.03337461
158	0xbdc69770	-0.09696853
159	0xbdc8b83f	-0.09800767
160	0xbe030b3c	-0.12797254
161	0xbd2a0664	-0.04151
162	0xbc9beece	-0.01903477
163	0x3d595976	0.053063832
164	0xbb91e549	-0.0044523817
165	0xbe44f051	-0.19232298
166	0xbdaef296	-0.08542363
167	0xbe2846c5	-0.16433246
168	0xbe47cebc	-0.19512457
169	0x3d3b2dda	0.045698024
170	0xbdbeaf4c	-0.09310779
171	0x3da545ba	0.0806994
172	0xbe513d5f	-0.20433567
173	0x3dd1a1ee	0.10235964
174	0xbe4fca1e	-0.20291945
175	0xbe5916c5	-0.21200092
176	0x3d513231	0.051073257
177	0xbc8bfa40	-0.017087102
178	0xbdcbb524	-0.09946659
179	0xbe220032	-0.15820387
180	0xbe0b537c	-0.13606066
181	0xbdff3ca2	-0.12462737
182	0xbc38b6bb	-0.011274035
183	0xbe30d430	-0.17268443
184	0xbceaeca9	-0.028677301
185	0x3db9a21c	0.09064123
186	0xbe30afe2	-0.17254594
187	0xbd9eb947	-0.077501826
188	0xbda9587d	-0.08268831
189	0xbcd732a0	-0.026269257
190	0xbd8b25a8	-0.06794292
191	0xbe015d19	-0.1263317
192	0xbdc7e5bd	-0.09760616
193	0x3d9a517c	0.07535073
194	0x3d31c009	0.04339603
195	0xbd74a67b	-0.05972908
196	0xbd429af2	-0.04751105
197	0xbd6f8466	-0.058475874
198	0xbe2b5c56	-0.16734442
199	0x3d9ab138	0.07553333
200	0xbe1843c4	-0.148696
201	0xbd0a6440	-0.033787012
202	0xbcb84bab	-0.022497019
203	0x3bd37cc4	0.006454082
204	0xbcc75640	-0.02433312
205	0xbe045a96	-0.12925181
206	0xbc23fa00	-0.010008335
207	0xbd50a0fd	-0.05093478
208	0x3ca33a6e	0.019925322
209	0x3d43cc61	0.047802333
210	0xbe313e47	-0.17308913
211	0xbd63af66	-0.055587195
212	0x3cc8f9dd	0.024533207
213	0xbcb6e938	-0.022328004
214	0xbe01b04e	-0.12664911
215	0x3d91dfa2	0.07122733
216	0xbd2d5474	-0.04231687
217	0xbc032f81	-0.008006931
218	0xba980508	-0.0011598179
219	0xbde796a3	-0.113080285
220	0xbd02bd58	-0.031918854
221	0x3d11b338	0.035571307
222	0xbd0f11fc	-0.03492926
223	0xbdda62c4	-0.10663369
224	0xba8682e9	-0.0010262403
225	0xbc6b55e5	-0.014363741
226	0xbcf92838	-0.030414686
227	0x3d34971d	0.044089425
228	0xbd980b42	-0.07424022
229	0xbdaec61e	-0.085338816
230	0xbe1deac2	-0.15421584
231	0xbd9c0a14	-0.0761911
232	0x3d753886	0.059868358
233	0x3d4a288f	0.049355086
234	0xbe0dd233	-0.13849716
235	0x3df9a8ae	0.12190376
236	0xbde3ca1a	-0.11122532
237	0x3d8c2401	0.06842805
238	0xbd33de5b	-0.043913227
239	0xbd4fb6d9	-0.050711486
240	0x3d835672	0.064129725
241	0xbe11ec76	-0.14250359
242	0xbe1c08a6	-0.15237674
243	0x3d48cb64	0.049022093
244	0x3d66ac76	0.056316815
245	0xbd830d23	-0.0639899
246	0x3c12de33	0.008964109
247	0xbb035975	-0.0020042334
248	0xbc04c2bc	-0.008103069
249	0xbe24d78c	-0.1609785
250	0x3d54f228	0.05198875
251	0xbe0fe36a	-0.14051595
252	0xbc39a081	-0.011329771
253	0xbe05070c	-0.1299097
254	0xbe1d731b	-0.1537594
255	0x3b7e2abe	0.00387828

fc2.bias f4 [180]
0	0x3e73ea37	0.23819815
1	0x3e92ab23	0.28646192
2	0x3c59fd56	0.013305029
3	0xbe319b60	-0.17344427
4	0x3e6915c7	0.22762214
5	0xbe4e709b	-0.20160143
6	0xbe597ee8	-0.21239817
7	0x3d30f11b	0.043198686
8	0xbdb6027a	-0.08887191
9	0xbcb4ce47	-0.022071017
10	0xbbb2d1f7	-0.0054571587
11	0x3de2ea1f	0.11079811
12	0xbd73ebb1	-0.059550945
13	0xbd179839	-0.037010405
14	0xbdd7be77	-0.10534375
15	0xbcd0cbca	-0.0254878
16	0xbdafac56	-0.08577792
17	0xbceeb7a7	-0.029140307
18	0x3e39e11b	0.18152277
19	0xbd55a7c2	-0.05216194
20	0xbe09a583	-0.13442044
21	0xbdadc84b	-0.084854685
22	0xbd437cb1	-0.047726337
23	0x3ead9ae0	0.33907223
24	0x3e8d0b0c	0.2754749
25	0xbe0af682	-0.13570598
26	0xbda57cf6	-0.08080475
27	0xbe833b75	-0.256313
28	0xbe3d6c62	-0.18498376
29	0x3eed7d64	0.46384728
30	0x3e008032	0.12548903
31	0xbccc4ec1	-0.024939897
32	0xbe36ed21	-0.17863895
33	0xbde0e874	-0.10981837
34	0x3e8d03a3	0.27541837
35	0x3cd108e6	0.025516938
36	0x3e67aa0c	0.22623461
37	0x3ddadf68	0.106871426
38	0x3dfcbc89	0.12340648
39	0x3e9e0074	0.3085972
40	0x3e9a62b3	0.30153427
41	0x3ee6b5af	0.4506049
42	0x3e56acc1	0.20964338
43	0xbc8af692	-0.016963277
44	0xbd46b2f1	-0.048510496
45	0xbe378ccf	-0.17924808
46	0xbd31881d	-0.0433427
47	0x3e9fd137	0.31214306
48	0x3e3bfbad	0.18357725
49	0xbddb5acc	-0.107106775
50	0xbc60af1b	-0.013713623
51	0xbde9bc5b	-0.11412879
52	0x3e8083b3	0.2510048
53	0xbd647066	-0.055771254
54	0x3d5c90ae	0.053848915
55	0xbd8c0963	-0.06837728
56	0xbdd9a2d9	-0.10626764
57	0xbdb2ee03	-0.087368034
58	0xbd6809f7	-0.05665013
59	0x3e09fd19	0.13475455
60	0x3eb6dd3e	0.3571567
61	0x3d24fa91	0.04027802
62	0xbd427685	-0.04747631
63	0xbc968497	-0.01837377
64	0xbdb995f1	-0.09061802
65	0x3d98c56d	0.07459531
66	0x3d99b455	0.07505099
67	0xbe3b18a0	-0.18271112
68	0xbc833fb1	-0.016021581
69	0xbdcfceb8	-0.1014685
70	0x3d424213	0.047426295
71	0x3d95d6db	0.07316371
72	0x3e28ba53	0.16477327
73	0x3edbcaba	0.42928106
74	0x3b833802	0.0040044794
75	0x3d28a1ac	0.041169807
76	0x3e8972db	0.2684544
77	0xbe18b8bd	-0.14914222
78	0xbe962e20	-0.29332066
79	0xbe3d2969	-0.18472828
80	0xbe253f40	-0.16137409
81	0xbdb82d7e	-0.08993052
82	0x3d5809a9	0.052743588
83	0x3e8b7c02	0.27243048
84	0xbd784f19	-0.06062231
85	0xbda58e64	-0.080837995
86	0xbe4185be	-0.18898675
87	0x3c209269	0.009800532
88	0xbcce6e2e	-0.025199022
89	0x3dd6b02c	0.10482821
90	0x3ee523b6	0.44753808
91	0xbe050e37	-0.12993704
92	0xbde5c33e	-0.1121888
93	0x3c89c40e	0.016817119
94	0xbdc800e1	-0.09765793
95	0xbdfeeda2	-0.124476686
96	0x3e6a37f4	0.22872907
97	0xbc4da159	-0.012550675
98	0xbe2a6109	-0.16638578
99	0xbd7d2d26	-0.061810635
100	0xbe202c50	-0.15641904
101	0xbd9e49b3	-0.07728901
102	0x3f055a84	0.5209124
103	0x3e60df0b	0.21960084
104	0xbd8ec480	-0.06971073
105	0x3e8ffbfe	0.28121942
106	0x3ecb98c2	0.39764982
107	0x3ea92f58	0.33043933
108	0x3e2fd44f	0.17170833
109	0xbccaca7a	-0.024754751
110	0xbe364b88	-0.1780225
111	0x3cba72fb	0.022759905
112	0xbe07aa7f	-0.13248633
113	0xbe0de82b	-0.13858096
114	0x3dcf6789	0.1012717
115	0x3d1f74d5	0.03892978
116	0x3b840ebb	0.0040300763
117	0xbe03a80b	-0.12857072
118	0xbd66f736	-0.056388102
119	0x3e8a60f4	0.27027094
120	0x3ea79ebf	0.327383
121	0xbe2cdd8d	-0.1688139
122	0xbd88ec2e	-0.06685673
123	0xbe4557bf	-0.19271754
124	0xbb06742f	-0.0020516028
125	0x3e6c23ee	0.23060581
126	0x3e1be2f8	0.152233
127	0xbca48d88	-0.020087019
128	0x3cfaa33e	0.030595418
129	0xbd3db1cc	-0.04631214
130	0xbd8da1b2	-0.069156066
131	0x3ea91089	0.33020428
132	0x3e45b674	0.19307882
133	0x3df20617	0.11817568
134	0xbe352920	-0.17691469
135	0xbe117310	-0.14204049
136	0xbca160e7	-0.019699527
137	0x3e1c56b8	0.15267456
138	0x3e66530a	0.22492614
139	0xbd30b824	-0.04314436
140	0x3ed2c406	0.4116518
141	0x3e4a5761	0.19759895
142	0xbdf95b96	-0.12175672
143	0x3e1e6534	0.15468293
144	0x3f093c3f	0.53607553
145	0x3eaf1454	0.34195197
146	0x3e3db3f3	0.18525676
147	0x3e59bcc8	0.2126342
148	0x3ec0a72e	0.37627548
149	0x3e894967	0.26813814
150	0x3ebce112	0.36890465
151	0xbc81278e	-0.015765931
152	0xbde6e9db	-0.11275073
153	0xbd9f6755	-0.07783381
154	0xbe0ca514	-0.13734847
155	0x3e64a594	0.22328788
156	0x3ec4cfbc	0.3843974
157	0xbdc9ad8e	-0.09847556
158	0x3a0fa628	0.00054797763
159	0xbdd49843	-0.10380604
160	0x3f54660d	0.8296822
161	0xbdba90bf	-0.091096394
162	0x3e97c966	0.29645842
163	0xbe12b7d6	-0.1432794
164	0xbe2d7725	-0.16939981
165	0xbd161b38	-0.03664705
166	0xbd982293	-0.074284695
167	0xbc0e2d0f	-0.008677735
168	0x3f1b063a	0.60556376
169	0x3cbb6c6d	0.02287885
170	0xbc8c0435	-0.01709185
171	0xbc8b638a	-0.017015237
172	0xbde02192	-0.10943903
173	0x3e63c338	0.22242439
174	0x3e99bd4a	0.3002723
175	0x3de0c15c	0.109743804
176	0xbdda867c	-0.10670182
177	0xbdb2ac6b	-0.08724292
178	0xbe160f43	-0.1465426
179	0x3c1407fd	0.009035108

conv.weight f4 [5, 1, 34, 34]
0	0xbc87e448	-0.016588345
1	0xbdbbe856	-0.09175174
2	0xbd863690	-0.06553376
3	0xbdfc4efd	-0.12319753
4	0xbe44e51a	-0.1922802
5	0xbe2195b6	-0.15779766
6	0xbe0cbbf2	-0.1374357
7	0xbea647ea	-0.3247674
8	0xbea57368	-0.3231461
9	0xbee9d41a	-0.45669633
10	0xbf022852	-0.50842774
11	0xbf24e167	-0.64406437
12	0xbef21149	-0.47278813
13	0xbe5ae11b	-0.21374933
14	0xbe89f667	-0.26945803
15	0xbe1f7e2b	-0.15575473
16	0x3e40fd64	0.18846661
17	0x3e3a1c78	0.18174922
18	0x3efeca78	0.49763846
19	0x3f449f2e	0.7680539
20	0x3f041df7	0.5160822
21	0x3f02d71e	0.5110949
22	0x3f2ddaa9	0.67911774
23	0x3f37d4d2	0.71809113
24	0x3ee445b7	0.44584438
25	0x3e9f1a6d	0.3107485
26	0x3ea6bc48	0.32565522
27	0x3e9f8d8f	0.31162688
28	0x3e2d5fc8	0.16931069
29	0x3e4c788d	0.19967861
30	0x3e8f6500	0.28006744
31	0x3e645c86	0.2230092
32	0x3e1c45b4	0.15260965
33	0x3e05ef44	0.13079554
34	0xbcf4e594	-0.029894628
35	0xbdfb22b7	-0.12262481
36	0xbdf06610	-0.11738217
37	0xbdb7d09a	-0.089753345
38	0xbe313d87	-0.17308627
39	0xbe3606e6	-0.17776069
40	0xbe536234	-0.2064293
41	0xbe9447bd	-0.28960982
42	0xbf0bb1ae	-0.5456799
43	0xbf0a35f7	-0.53988594
44	0xbe8657b1	-0.26238778
45	0xbf2cb041	-0.6745644
46	0xbf16fd41	-0.58980185
47	0xbeb644bd	-0.35599318
48	0xbe964979	-0.2935293
49	0x3d2426ca	0.040076055
50	0x3dfd79c8	0.123767436
51	0x3e301408	0.17195141
52	0x3f179563	0.5921232
53	0x3f38cb95	0.7218564
54	0x3f15ed41	0.58565146
55	0x3f2120e7	0.6294083
56	0x3f863d6e	1.0487497
57	0x3f814c03	1.0101322
58	0x3efb9759	0.49138907
59	0x3e89ab39	0.26888445
60	0x3ec0ea01	0.3767853
61	0x3eb87933	0.36029968
62	0x3e63e611	0.22255732
63	0x3e5422f4	0.20716459
64	0x3e8b8668	0.2725098
65	0x3e4db446	0.200883
66	0x3dfffcd1	0.12499393
67	0x3d49efb1	0.049300853
68	0xbde7305b	-0.1128852
69	0xbe09ea0f	-0.13468193
70	0xbe15f10e	-0.14642736
71	0xbe0fed16	-0.14055285
72	0xbe4dd61d	-0.20101209
73	0xbeadb24a	-0.33925086
74	0xbeb27e8d	-0.34862176
75	0xbeebb815	-0.4603888
76	0xbf3a53c1	-0.7278405
77	0xbf2cf515	-0.67561466
78	0xbf285036	-0.6574739
79	0xbf39fc01	-0.7265015
80	0xbf29b5d9	-0.662931
81	0xbf2b8133	-0.6699402
82	0xbef48344	-0.47756398
83	0xbe133912	-0.1437724
84	0xbd265e13	-0.04061706
85	0x3de3b6b8	0.11118835
86	0x3f07150a	0.5276648
87	0x3f400f66	0.75023496
88	0x3f0ef363	0.5584013
89	0x3f4be93e	0.79652774
90	0x3f7b5581	0.98177344
91	0x3f81eac8	1.0149775
92	0x3f097878	0.53699446
93	0x3ecca347	0.3996832
94	0x3ec973c1	0.39346126
95	0x3ec32ba6	0.3811924
96	0x3e9ba934	0.3040253
97	0x3e931a73	0.28731117
98	0x3e9d347c	0.30704105
99	0x3e5d46ee	0.21609089
100	0x3e372a37	0.17887197
101	0x3e3e9667	0.18612061
102	0xbe2529a9	-0.16129173
103	0xbe4c7d68	-0.19969714
104	0xbe63fc63	-0.22264247
105	0xbe5efa92	-0.21775272
106	0xbe60559b	-0.21907656
107	0xbedfe029	-0.43725708
108	0xbed51f63	-0.4162551
109	0xbf166d42	-0.58760464
110	0xbf24f4ce	-0.6443604
111	0xbf2964cb	-0.6616942
112	0xbf49c46e	-0.7881535
113	0xbeb4916b	-0.35267195
114	0xbf072e9e	-0.5280551
115	0xbec5a72e	-0.3860411
116	0xbdef762a	-0.1169246
117	0xbe1508ac	-0.1455409
118	0xbc25bb2a	-0.010115424
119	0x3ec7bfe2	0.39013582
120	0x3f2244fb	0.63386506
121	0x3f288bf5	0.6583856
122	0x3f07c5ae	0.5303601
123	0x3f855a21	1.041813
124	0x3f6f3854	0.93445325
125	0x3f5c18c7	0.8597531
126	0x3f05950c	0.5218055
127	0x3f14535c	0.57939696
128	0x3efc18eb	0.4923776
129	0x3ee29356	0.44253033
130	0x3edc9ee3	0.4308997
131	0x3ea92ab8	0.33040404
132	0x3eabd4de	0.33560842
133	0x3ea497d4	0.32147086
134	0x3e441b83	0.1915112
135	0x3e45abb4	0.19303781
136	0xbe774791	-0.24148394
137	0xbe9d5cdc	-0.3073491
138	0xbea9061a	-0.33012468
139	0xbeeca8ac	-0.46222436
140	0xbeaae745	-0.3337957
141	0xbec6f419	-0.38858107
142	0xbed7a700	-0.42119598
143	0xbf336fd2	-0.700925
144	0xbf527635	-0.8221162
145	0xbf80f24e	-1.0073946
146	0xbf507c50	-0.81439686
147	0xbf4ae9f1	-0.79263216
148	0xbf520db8	-0.82052183
149	0xbf43bd33	-0.7646057
150	0xbe8c0da6	-0.27354163
151	0xbe622cdb	-0.22087424
152	0xbe345b48	-0.17612946
153	0x3ef0bf06	0.4702074
154	0x3f0606cc	0.5235412
155	0x3f02391a	0.5086838
156	0x3f32ea74	0.69889
157	0x3f72d7b1	0.9486037
158	0x3f881fb1	1.0634671
159	0x3f850fd6	1.0395458
160	0x3f1a15de	0.60189617
161	0x3f0e0b92	0.55486405
162	0x3efb05ff	0.49028012
163	0x3f06f53d	0.52717954
164	0x3f20dd70	0.62837887
165	0x3f115364	0.5676787
166	0x3ec1de57	0.37864944
167	0x3eb8dc20	0.36105442
168	0x3e6cfe00	0.23143768
169	0x3e903532	0.28165585
170	0xbe8bd29d	-0.27309123
171	0xbe9e0f8e	-0.30871242
172	0xbedc42ae	-0.43019623
173	0xbecc7529	-0.39933136
174	0xbea27108	-0.3172686
175	0xbf1d4524	-0.61433625
176	0xbf1cf53e	-0.6131171
177	0xbf4deda5	-0.8044074
178	0xbf615e6a	-0.8803469
179	0xbf7ac5ba	-0.97957957
180	0xbf70ad6b	-0.94014615
181	0xbf5fe7ad	-0.87462884
182	0xbf32e82f	-0.69885534
183	0xbf30dbe9	-0.69085556
184	0xbebd7ba8	-0.37008405
185	0xbe772c6e	-0.24138042
186	0xbe110874	-0.14163381
187	0x3eab8f5c	0.33507812
188	0x3ee65003	0.4498292
189	0x3f22c53b	0.635822
190	0x3f29f352	0.663869
191	0x3f72ad4f	0.947957
192	0x3f6b0863	0.9180967
193	0x3f81a75e	1.0129201
194	0x3f11ce9a	0.56955874
195	0x3f4b33da	0.79375994
196	0x3f44d532	0.7688781
197	0x3f1c788b	0.61121434
198	0x3f0cacd9	0.54951245
199	0x3eb8678f	0.3601651
200	0x3ee421e5	0.4455711
201	0x3ecb36de	0.39690298
202	0x3ec3d534	0.382486
203	0x3ecda773	0.40166816
204	0xbe8cccdf	-0.27500054
205	0xbeb7681f	-0.35821626
206	0xbedd3ab0	-0.43208838
207	0xbf070ad5	-0.52750903
208	0xbf07ace0	-0.5299816
209	0xbf0f8e10	-0.56076145
210	0xbf24454f	-0.64168257
211	0xbf606ee3	-0.876692
212	0xbf9abdb3	-1.2089142
213	0xbf82b053	-1.021006
214	0xbf8d6662	-1.104687
215	0xbf95f205	-1.1714483
216	0xbf81147b	-1.0084375
217	0xbf13593d	-0.5755804
218	0xbe62d6e2	-0.22152284
219	0xbe4ca8dc	-0.1998629
220	0xbe715b04	-0.23569876
221	0xbd516300	-0.051119804
222	0x3ed7ca12	0.42146355
223	0x3f258642	0.64657986
224	0x3f1d70d5	0.61500293
225	0x3f8b8882	1.0901034
226	0x3f8d5bd0	1.1043644
227	0x3f6b88c0	0.9200554
228	0x3f51a947	0.8189892
229	0x3f3fb326	0.74882734
230	0x3f2d74cb	0.67756337
231	0x3f1b024b	0.60550374
232	0x3f163e27	0.58688587
233	0x3ecf67e6	0.40508956
234	0x3f0d01b0	0.550807
235	0x3ecb37ba	0.39690953
236	0x3ec153c4	0.3775922
237	0x3ec7d400	0.3902893
238	0xbea3024a	-0.31837684
239	0xbef97075	-0.4871861
240	0xbf0f1c05	-0.5590213
241	0xbf224287	-0.6338276
242	0xbf01bb8c	-0.506768
243	0xbf160ee5	-0.5861648
244	0xbf49215f	-0.78566545
245	0xbf858fab	-1.0434469
246	0xbf979ef1	-1.184538
247	0xbf8909fc	-1.0706172
248	0xbf9e5451	-1.2369481
249	0xbf8f6bce	-1.1204774
250	0xbf524955	-0.82143146
251	0xbf499ab7	-0.787517
252	0xbf195b65	-0.5990508
253	0xbe0374b8	-0.12837493
254	0x3d80ee57	0.0629546
255	0x3cdd2569	0.026995378

conv.weight f4 [5, 1, 10, 10]
0	0xbe5a695b	-0.21329252
1	0xbd610426	-0.054935597
2	0xbd5fcea8	-0.054640442
3	0xbd3b72c8	-0.04576376
4	0x3d8e2ac4	0.06941751
5	0x3ca35a9d	0.019940669
6	0x3df6b9f0	0.120471835
7	0xbbaa11d0	-0.0051901117
8	0x3dcbe7c6	0.09956317
9	0x3d9d7d2a	0.07689889
10	0xbe4c09bc	-0.19925588
11	0xbe8d672d	-0.2761778
12	0xbddef6e9	-0.10886938
13	0xbcbcb0eb	-0.02303358
14	0x3e031b98	0.12803495
15	0x3d8b8122	0.068117395
16	0x3e0fc9d2	0.14041832
17	0x3de8faf1	0.11375988
18	0x3e0a3f73	0.13500766
19	0x3e145ec6	0.14489278
20	0xbdb73947	-0.08946472
21	0xbe01886c	-0.12649697
22	0xbd845b0e	-0.0646268
23	0xbdf71e31	-0.120663054
24	0x3cde1833	0.027111148
25	0xbae7e031	-0.0017690716
26	0x3c5099f4	0.012732018
27	0x3db32f7d	0.08749292
28	0x3e25405a	0.1613783
29	0x3bdec785	0.006798687
30	0xbd6786e7	-0.056525137
31	0xbe6e7cdf	-0.23289822
32	0xbde281b2	-0.11059894
33	0xbe07bba7	-0.13255177
34	0x3d010c34	0.03150578
35	0x3d28b281	0.04118586
36	0x3e365f0c	0.17809695
37	0x3d66df55	0.05636533
38	0x3e32c656	0.17458472
39	0x3e3b8939	0.18314065
40	0xbe038d8c	-0.12846965
41	0xbe6eeb4b	-0.23331945
42	0xbc8c298b	-0.017109653
43	0xbd9d96c2	-0.076947704
44	0x3ce3eca6	0.027822804
45	0x3dd6d08c	0.10488996
46	0x3dac7ade	0.084218726
47	0x3da6d489	0.081460066
48	0x3e339dd9	0.17540683
49	0x3e1ecc1a	0.15507546
50	0xbde08795	-0.1096336
51	0xbd9d7a16	-0.07689302
52	0xbded1b30	-0.11577451
53	0xbc7de937	-0.015497497
54	0xbdf2d31d	-0.11856673
55	0x3cf8ab4e	0.030355122
56	0x3dec68b0	0.11543405
57	0x3c850858	0.01623933
58	0x3dc65352	0.09683861
59	0x3e2ee454	0.17079288
60	0xbdae0a5f	-0.08498072
61	0xbe2c7a66	-0.16843566
62	0xbdb3b974	-0.08775607
63	0xbd167e00	-0.036741257
64	0xbd4739a4	-0.048638955
65	0x3ae790c7	0.0017667048
66	0x3cb9f454	0.022699513
67	0x3d96ca16	0.073627636
68	0x3e3c665b	0.1839842
69	0x3de76a25	0.11299542
70	0xbe25a879	-0.16177548
71	0xbe4b943c	-0.19880766
72	0xbdf36fd0	-0.11886561
73	0xbd87b08e	-0.06625472
74	0xbc8cc072	-0.017181609
75	0x3d0d3641	0.03447557
76	0x3dd30334	0.10303345
77	0x3e0ce974	0.1376093
78	0x3d2a09d6	0.041513287
79	0x3e1d5afb	0.15366738
80	0xbe401d27	-0.1876112
81	0xbd282953	-0.041055035
82	0xbe68808d	-0.22705288
83	0xbead1002	-0.33801275
84	0xbe127e33	-0.14305954
85	0xbd63d934	-0.055627063
86	0x3c4b0ac4	0.012392703
87	0x3d257344	0.04039313
88	0x3e2ca9d5	0.16861661
89	0x3db3aafa	0.087728456
90	0xbdbfca09	-0.09364707
91	0xbe86600b	-0.2624515
92	0xbde534c7	-0.11191707
93	0xbe49b1c0	-0.19696712
94	0xbe32d8af	-0.1746547
95	0xbd8a20ec	-0.067445606
96	0xbd37b2a4	-0.0448481
97	0x3d720c24	0.05909361
98	0x3dc78473	0.097420596
99	0x3e3528b1	0.17691304
100	0x3e4085d2	0.18801048
101	0x3e31e00a	0.1737062
102	0x3e379ae7	0.17930184
103	0x3e8a0867	0.26959535
104	0x3e091730	0.13387752
105	0x3e854625	0.2603008
106	0x3e628b27	0.22123395
107	0x3e7ec78d	0.2488081
108	0x3e5daa1d	0.21646924
109	0x3e87684b	0.26446757
110	0x3e2198ec	0.15780991
111	0x3d8141a1	0.06311346
112	0x3e9b03ca	0.30276328
113	0x3e301a90	0.17197633
114	0x3e80517a	0.25062162
115	0x3e7af55a	0.24507657
116	0x3e0ae8bb	0.13565342
117	0x3e6c0599	0.2304901
118	0x3e352f8d	0.1769392
119	0x3e821a23	0.25410566
120	0x3db04b62	0.08608128
121	0x3dcc2fcf	0.09970056
122	0x3e4be1ed	0.19910403
123	0x3e97ff05	0.29686752
124	0x3e70f09c	0.23529285
125	0x3e2e52b2	0.17023733
126	0x3e85366e	0.2601809
127	0x3d96e4f6	0.073678896
128	0x3e6454f9	0.2229804
129	0x3e644812	0.22293118
130	0x3e3bf3ee	0.1835477
131	0x3e15c062	0.1462417
132	0x3e6bb899	0.23019637
133	0x3e1e0cea	0.15434614
134	0x3e3a369a	0.18184891
135	0x3dd17fe6	0.10229473
136	0x3e329b8b	0.17442147
137	0x3e8ca1f7	0.2746732
138	0x3deebda7	0.11657267
139	0x3e400277	0.1875094
140	0xbcb8b2ad	-0.022546137
141	0xbbe2070a	-0.006897812
142	0x3ea578e3	0.32318792
143	0x3e2a1a8e	0.16611692
144	0x3dfa745a	0.122292235
145	0x3e9093a3	0.28237638
146	0x3e338721	0.17532016
147	0x3dff12cb	0.12454756
148	0x3d353d6c	0.04424803
149	0x3d003826	0.031303547
150	0x3d0b4123	0.033997666
151	0x3d19938a	0.03749422
152	0x3cda2700	0.026629925
153	0x3e8ee50c	0.27909124
154	0x3e15d183	0.14630704
155	0x3e0f91f4	0.1402052
156	0x3e1f8029	0.15576233
157	0xbc63cbab	-0.013903539
158	0x3c4b6067	0.012413121
159	0x3d853e3d	0.06506012
160	0x3de39ed9	0.11114282
161	0x3c2584a9	0.010102429
162	0x3d919ba3	0.071097635
163	0x3e337e5c	0.17528671
164	0x3dfa07d8	0.12208527
165	0x3d2fbc00	0.0429039
166	0x3df2b6f9	0.118513055
167	0x3ce1fbf1	0.027585955
168	0x3e044f6f	0.12920927
169	0x3d4f3aaf	0.050593074
170	0xbdb5dde2	-0.088802114
171	0x3d3a81e7	0.04553404
172	0x3da679e7	0.0812872
173	0x3daed997	0.08537596
174	0x3e3fec67	0.18742524
175	0x3de67375	0.112524904
176	0x3e5b20af	0.21399187
177	0x3d8f74af	0.070046775
178	0x3e0f091d	0.1396832
179	0x3d53b146	0.051682733
180	0x3dc27cd6	0.09496467
181	0x3c396fb5	0.011318137
182	0x3ca7d3c8	0.020486727
183	0x3d066298	0.03280887
184	0x3d028040	0.03186059
185	0x3e1f068b	0.1552984
186	0x3d9a0401	0.07520295
187	0x3cf29a03	0.029614454
188	0x3d55bb20	0.05218041
189	0x3e6449f6	0.22293839
190	0x3d95c719	0.073133655
191	0x3e42a407	0.19007884
192	0x3dce7c7e	0.10082339
193	0xbdc72484	-0.09723762
194	0xbd2a3e8c	-0.041563556
195	0x3e4dae7f	0.20086096
196	0x3e3f3909	0.18674101
197	0x3daa86cd	0.083264925
198	0x3e0c7cfb	0.13719551
199	0x3e62b6b7	0.22140013
200	0x3d830bd9	0.06398744
201	0x3e2bf136	0.16791233
202	0x3e4da5c6	0.20082769
203	0x3cae89df	0.021305976
204	0x3d924dfc	0.071437806
205	0x3d2afb75	0.041743714
206	0xbdf52f50	-0.11971915
207	0x3d516b1f	0.05112755
208	0xbe2c8217	-0.168465
209	0x3b88a9ae	0.004170618
210	0x3e4eecf0	0.20207572
211	0x3c894cb1	0.016760202
212	0x3dd71a64	0.105030805
213	0xbde9ee82	-0.11422445
214	0x3d13766b	0.036001604
215	0xbd8fbe29	-0.07018692
216	0xbda8b608	-0.08237845
217	0xbe10c90d	-0.14139195
218	0xbe5d720b	-0.21625535
219	0xbba3ab77	-0.0049948054
220	0xbe193540	-0.1496172
221	0x3b6de852	0.0036301804
222	0xbd8936df	-0.06699919
223	0xbb9a85f8	-0.0047156774
224	0xbd30ac69	-0.043133173
225	0xbd558d99	-0.05213699
226	0xbc2cc6c1	-0.0105454335
227	0xbdc62c00	-0.09676361
228	0xbcf8a3b7	-0.030351503
229	0xbcf3327c	-0.029687159
230	0xbd8652cb	-0.0655876
231	0xbdd14ab9	-0.1021933
232	0xbd069ba4	-0.032863274
233	0xbe01ba45	-0.12668712
234	0xbdbf6a0e	-0.093464
235	0xbd55b377	-0.052173104
236	0xbe037b44	-0.12839991
237	0x3cb51021	0.022102417
238	0xbd387648	-0.045034677
239	0xbdfa7d79	-0.12230963
240	0xbdad1b5b	-0.08452483
241	0xbe0f318b	-0.13983743
242	0xbc831ae1	-0.016004028
243	0xbd8da0e8	-0.06915456
244	0xbe123b7b	-0.14280502
245	0x3cd48f64	0.02594728
246	0xbcc98776	-0.024600726
247	0xbdeebd9e	-0.1165726
248	0xbe108fca	-0.14117351
249	0xbdb4348f	-0.08799087
250	0x3c1df654	0.009641249
251	0xbdeedec8	-0.11663586
252	0xbe0e55e7	-0.13899957
253	0xbdaf4061	-0.08557201
254	0xbd2ab39c	-0.041675195
255	0xbb526cbc	-0.0032108268

conv.bias f4 [5]
0	0xbc8627ed	-0.01637646
1	0x3e9d8084	0.30762112
2	0x3e5aa759	0.213529
3	0x3e2d085b	0.16897719
4	0x3e329eb7	0.17443357

fc1.weight f4 [64, 180]
0	0x3d8eb543	0.06968167
1	0x3d548886	0.05188801
2	0xbd45548d	-0.048176337
3	0xbd8d8734	-0.069105536
4	0x3d8fa61d	0.070141055
5	0x3d4ac496	0.049503885
6	0xbd272210	-0.04080397
7	0x3d49577a	0.04915569
8	0xbd82f505	-0.0639439
9	0x3d0f7f6e	0.035033636
10	0x3d1c8f56	0.038222633
11	0x3d0bd85c	0.034141883
12	0x3cd7c244	0.02633775
13	0xbe02b3e1	-0.12763931
14	0xbb788a60	-0.0037924275
15	0xbd215f05	-0.03939726
16	0xbc98f838	-0.018673047
17	0xbd16e587	-0.036839988
18	0xbb844990	-0.0040370896
19	0xbdb04c4f	-0.08608305
20	0xbd123450	-0.03569442
21	0x3d69725a	0.05699382
22	0xbbf92b84	-0.0076040644
23	0x3ae12d00	0.0017179549
24	0xbd0f052c	-0.03491704
25	0xbc939952	-0.018017445
26	0xbdb620bf	-0.088929646
27	0xbd84bd15	-0.06481377
28	0xbd185810	-0.037193358
29	0x3d06e914	0.032937124
30	0xbd85e033	-0.06536903
31	0x3ce2dd48	0.027693406
32	0xbb44cda0	-0.0030029789
33	0xbc28b5b0	-0.010297224
34	0x3d4aadd0	0.049482167
35	0xbd035357	-0.0320619
36	0xbd8d1e75	-0.06890575
37	0xbdef63af	-0.11688935
38	0xbd9a1283	-0.07523062
39	0xbe0c82fb	-0.1372184
40	0xbdcd755f	-0.100321524
41	0xbd49539d	-0.049152005
42	0xbe06418a	-0.13110939
43	0x3c1f7258	0.0097318515
44	0x3ba5a4e3	0.0050550564
45	0xbc4f1eef	-0.0126416525
46	0x3a6f95bd	0.0009139439
47	0xbd76a20e	-0.06021314
48	0xbdc094ab	-0.09403356
49	0x3a66cc52	0.000880425
50	0xbe030665	-0.12795408
51	0xbd3ff051	-0.046860043
52	0xbcda820c	-0.02667334
53	0xbcf138dc	-0.029446058
54	0xbd4cb393	-0.049975943
55	0x3bdf4f9d	0.0068149106
56	0x3bea37dd	0.0071477727
57	0xbd14e174	-0.03634782
58	0xbd560b6c	-0.052256986
59	0xbd5e3b06	-0.054255508
60	0xbde3f017	-0.11129778
61	0xbcb1cb21	-0.021703305
62	0xbd7f81ec	-0.062379763
63	0xbd8c3e14	-0.06847778
64	0xbc4c71ca	-0.012478301
65	0xbd0215f2	-0.03175921
66	0xbd92e1dd	-0.07171986
67	0xbd9ceac3	-0.07661965
68	0x3b96771e	0.0045918366
69	0xbdc3216f	-0.09527861
70	0x3b72eac2	0.0037066196
71	0xba3665c8	-0.00069579156
72	0xbd35212a	-0.04422108
73	0xbcff0c8e	-0.031133916
74	0xbc172cb8	-0.00922697
75	0xbd718785	-0.058967132
76	0x3b93aae0	0.004506454
77	0x3b9386c0	0.0045021474
78	0xbd0548bb	-0.032540064
79	0xbd50ba6e	-0.050959043
80	0xbc72f5f4	-0.014829148
81	0xbc4c57fc	-0.012472149
82	0xbd3d13ba	-0.04616139
83	0x3d859995	0.06523434
84	0xbd8ec505	-0.06971172
85	0xbc76886c	-0.015047174
86	0x3d6aad62	0.057294257
87	0xbd0d7854	-0.034538582
88	0x3d8a8447	0.06763511
89	0xbd509e87	-0.050932433
90	0x3d823333	0.06357422
91	0xbd354be7	-0.04426184
92	0xbc064d00	-0.008197069
93	0x3df89785	0.12138275
94	0x3cee3fce	0.029083159
95	0xbd07465e	-0.03302609
96	0xbcb97162	-0.022637073
97	0xbd02317b	-0.03178547
98	0x3de20421	0.11035944
99	0xbde159d6	-0.11003463
100	0xbd32d359	-0.043658588
101	0xbd973b99	-0.07384414
102	0xbd4734f4	-0.048634484
103	0xbd032d30	-0.032025516
104	0xbd36ae4a	-0.04459981
105	0xbce58b54	-0.028020538
106	0x3d8ff2dd	0.07028744
107	0xbca36494	-0.01994542
108	0x3cbfa61c	0.023394637
109	0xbd5a60ef	-0.0533151
110	0x3cd7ca94	0.026341714
111	0xbd8648f8	-0.065568864
112	0x3af28dc0	0.001850538
113	0xbd1e54b4	-0.038654998
114	0xbc3f2a00	-0.011667728
115	0x3d8b37c7	0.06797748
116	0xbd953ce3	-0.07287004
117	0xbd2cf00a	-0.042221107
118	0xbd4895dc	-0.048971042
119	0x3cc16da8	0.023611858
120	0x3d1df646	0.038564943
121	0x3c69b01c	0.014263179
122	0x3b6b5ec7	0.0035914646
123	0x3d1d9ee2	0.0384816
124	0xbd9921e0	-0.07477164
125	0x3ccb3de0	0.024809778
126	0x3cf5cf78	0.030006155
127	0x3bd06750	0.006359972
128	0x3c63d390	0.013905421
129	0x3c329078	0.010898702
130	0xbcb2b7c8	-0.02181615
131	0xbd346f40	-0.04405141
132	0xbd77ae0c	-0.06046872
133	0x3d8e92a9	0.06961567
134	0xbca0005a	-0.019531418
135	0xbd1a0f54	-0.037612274
136	0xbd916569	-0.070994206
137	0xbc0dc368	-0.0086525455
138	0x3d87dac7	0.06633525
139	0x3b943c90	0.004523821
140	0x3d8cb9b3	0.06871357
141	0xbd731435	-0.059345443
142	0xbd4db766	-0.05022373
143	0x3d81fd77	0.06347173
144	0xbcf35360	-0.029702842
145	0x3d2c3774	0.04204507
146	0x3ae75780	0.0017649978
147	0xbbf9e5c0	-0.0076262653
148	0x3cba3070	0.022728175
149	0xbbd78400	-0.006577015
150	0xbcb18892	-0.021671567
151	0xbc911f30	-0.017715067
152	0x3bf25750	0.0073956624
153	0xbe063cb0	-0.13109088
154	0xbd45dcb3	-0.04830618
155	0xbd94644c	-0.072456926
156	0xbd56bd9a	-0.052426912
157	0xbc912b3a	-0.017720807
158	0xbd519950	-0.0511716
159	0xbdb40700	-0.08790398
160	0xbe09a191	-0.13440539
161	0x3d128600	0.035772324
162	0xbd8bd4e3	-0.06827714
163	0x3bbd160f	0.005770452
164	0xbc9fe50e	-0.019518401
165	0x3ce6cc14	0.028173484
166	0xbd62f3df	-0.055408355
167	0x3b39c600	0.0028346777
168	0xbd9050e0	-0.07046676
169	0x3b039890	0.0020079948
170	0xbe02dfc8	-0.12780678
171	0x3d1322ef	0.035921987
172	0x3d3f7b32	0.046748348
173	0xbd1213eb	-0.035663527
174	0xbcac9936	-0.02106915
175	0x3d8e8f35	0.06960908
176	0xbbe56720	-0.007000819
177	0xbd16c7a4	-0.036811486
178	0xbd7249a6	-0.059152268
179	0xbd0d1861	-0.034447078
180	0xbd4d695e	-0.050149314
181	0x3d47f97a	0.048821904
182	0xbd446ab0	-0.047953308
183	0x3d3ac3a4	0.045596734
184	0x3c170748	0.009218045
185	0x3d407c62	0.04699362
186	0xbd301349	-0.04298714
187	0xbc8b1e1a	-0.016982127
188	0xbd053eeb	-0.032530706
189	0xbb16ba00	-0.0022999048
190	0xbd57823f	-0.052614447
191	0x3d84a9b3	0.0647768
192	0x3d936825	0.07197598
193	0xbc09fe92	-0.008422511
194	0xbded31b1	-0.115817435
195	0xbd90eebe	-0.070767865
196	0x3c507120	0.012722284
197	0x3d8f1145	0.06985716
198	0xbc9c42fa	-0.019074906
199	0xbdb2106d	-0.08694539
200	0xbd3a557e	-0.045491688
201	0xbd563386	-0.05229523
202	0x3d90c815	0.070694126
203	0xbd620746	-0.055182718
204	0x3d20d90e	0.0392695
205	0xbdfa7a73	-0.122303866
206	0xbcd38db6	-0.025824409
207	0x3d1a79a2	0.037713654
208	0x3d45bef8	0.048277825
209	0x3d1457b4	0.036216453
210	0xbd89f5af	-0.067363136
211	0x3d7a86ba	0.06116364
212	0xbca12060	-0.019668758
213	0xbd9047c3	-0.070449375
214	0xbc91ccb0	-0.017797798
215	0x3c83e4e8	0.016100362
216	0xbdb53937	-0.088488035
217	0xbc79a29e	-0.015236525
218	0xbda8954c	-0.08231601
219	0xbdfc6be4	-0.12325266
220	0xbde56b7e	-0.11202143
221	0xbdcfd4bd	-0.101479985
222	0xbddc49fd	-0.107563
223	0x3988c5ec	0.00026087405
224	0xbd2025d5	-0.03909858
225	0xbd9d3d9e	-0.07677768
226	0xbdae7e40	-0.08520174
227	0xbd6ab778	-0.057303876
228	0xbd6e7f2f	-0.05822676
229	0xbd093cae	-0.033505134
230	0xbda0c608	-0.078502715
231	0xbd8afd5b	-0.06786605
232	0xbd4a6b6b	-0.049418848
233	0xbab27ffd	-0.0013618466
234	0xbd1ab017	-0.03776559
235	0xbd93169b	-0.07182046
236	0xbdf85807	-0.12126165
237	0xbd475d6c	-0.04867308
238	0xbd83ce0a	-0.06435783
239	0xbbb4c994	-0.005517194
240	0xbc81ea6b	-0.01585885
241	0xbe048488	-0.12941182
242	0xbe064235	-0.13111193
243	0xbd8b37ab	-0.06797727
244	0xbcc9d996	-0.024639886
245	0xbd8c1a21	-0.06840921
246	0xbddcdd02	-0.107843414
247	0xbde17d1d	-0.110101916
248	0xbd1b1ecb	-0.037871163
249	0xbd6d8c34	-0.057995036
250	0x3c7e1079	0.015506857
251	0xbdbc7090	-0.09201157
252	0x3cf7b408	0.030237213
253	0xbc8735c6	-0.016505133
254	0xbd13413d	-0.035950888
255	0x3d44d7be	0.04805731

fc1.bias f4 [64]
0	0xbd5facac	-0.054608032
1	0xbe02aeb1	-0.12761952
2	0x3d437897	0.047722425
3	0xbdf182ce	-0.11792527
4	0xbc98e587	-0.018664135
5	0x3c8b6a85	0.017018566
6	0xbdb6a32d	-0.08917842
7	0xbcf4c10a	-0.029877204
8	0xbcf02000	-0.029312134
9	0xba883700	-0.0010392368
10	0xbd3fd116	-0.04683026
11	0xbda376d7	-0.07981651
12	0xbb9b15ee	-0.004732839
13	0x3d02293a	0.031777598
14	0x3c605200	0.013691425
15	0xbd077323	-0.033068787
16	0x3c699b9e	0.014258293
17	0x3e39e572	0.18153933
18	0xbdb86a16	-0.09004609
19	0xbdcb195b	-0.099169455
20	0xbdc75413	-0.09732833
21	0x3d83fbf6	0.06444542
22	0xbd8936cc	-0.06699905
23	0xbdd9a71c	-0.10627577
24	0xbcd48ace	-0.025945093
25	0xbcf5784c	-0.029964589
26	0xbde6de99	-0.11272926
27	0x3d1e8cd6	0.03870853
28	0xbd8dbca4	-0.06920746
29	0xbdc23db8	-0.09484428
30	0xbdbecb7e	-0.09316157
31	0xbd460ae1	-0.04835022
32	0xbd266eb6	-0.040632926
33	0xbd397b59	-0.04528365
34	0xbdd8411b	-0.10559293
35	0x3b902ee0	0.004400119
36	0xbd9084e0	-0.07056594
37	0xbda479c7	-0.0803104
38	0xbd3d9a74	-0.046289876
39	0xbd3cb144	-0.04606749
40	0xb9debc1e	-0.00042483298
41	0xbc71fc97	-0.014769695
42	0x3e4eec5c	0.20207351
43	0xbcff1782	-0.03113914
44	0xbd8ac72f	-0.067762725
45	0xbcfe9ad2	-0.031079683
46	0xbc601489	-0.013676771
47	0xbd0624f2	-0.032750078
48	0xbe003e00	-0.12523651
49	0xbc157b83	-0.009123686
50	0xbdd02d82	-0.1016493
51	0xbdee473b	-0.1163468
52	0xbdf1e8e3	-0.11811998
53	0x3d6cd1ae	0.057817154
54	0xbcf414fb	-0.02979516
55	0x3ca031a4	0.01955492
56	0xbccb9e8f	-0.02485588
57	0xbd4ffe8e	-0.05077987
58	0xbda14029	-0.07873566
59	0x3e387829	0.18014587
60	0x3d293f0c	0.04131989
61	0xbc47f496	-0.01220431
62	0xbd8e4772	-0.06947221
63	0x3c924f9d	0.017860228

fc2.weight f4 [4, 64]
0	0xbcfe99cb	-0.031079194
1	0xbdc580d0	-0.0964371
2	0x3cdb5d0b	0.026777765
3	0xbc182276	-0.00928556
4	0xbd4940a0	-0.049133897
5	0xbd73c37f	-0.05951261
6	0x3bf5feea	0.0075071948
7	0xbdfd7cd9	-0.123773284
8	0x3c434c90	0.011920109
9	0xbda38158	-0.07983655
10	0x3cf20d65	0.029547403
11	0x3e25d6b1	0.1619518
12	0xbd11b78f	-0.035575446
13	0x3d12f1a4	0.035874978
14	0xbd4f3ea8	-0.050596863
15	0x3b8efd83	0.004363717
16	0x3d8403e1	0.06446052
17	0x3ec295be	0.3800487
18	0xbda3fb43	-0.08006909
19	0x3c9afd57	0.01891963
20	0x3d7aa157	0.061189022
21	0xbc8f1b7d	-0.017469162
22	0x3db6968a	0.08915432
23	0xbd48e673	-0.0490479
24	0x3d95b44c	0.073097795
25	0x3d34d09c	0.044144258
26	0xbaced5a3	-0.0015780221
27	0x3de76b6a	0.112997845
28	0x3cc04670	0.023471087
29	0xbd0dd997	-0.034631338
30	0x3dbd160c	0.09232721
31	0x3d7102cb	0.058840554
32	0xbdd7b9be	-0.105334744
33	0x3c3d7fc9	0.011566111
34	0x3d19d34c	0.037555024
35	0xbdd715b2	-0.10502185
36	0xbdd8a95e	-0.10579179
37	0xbc36d4d1	-0.011159138
38	0x3c49ce52	0.012317257
39	0x3d274a34	0.04084225
40	0x3d2e7b9e	0.04259836
41	0xbc28ac11	-0.01029493
42	0x3eb9601f	0.36206147
43	0xbb93ea40	-0.0045140088
44	0x3cd00f10	0.025397807
45	0xba12dfb1	-0.00056027906
46	0xbd97fc7d	-0.07421205
47	0xbdf352bf	-0.11881017
48	0xbd0a5df5	-0.03378101
49	0x3dc7d968	0.09758264
50	0x3df9b3ff	0.12192535
51	0xbd114bfb	-0.03547285
52	0xbd8bbdb0	-0.068232894
53	0xbdd5d5b4	-0.10441151
54	0x3d5c9fcc	0.05386333
55	0x3ce92b38	0.028462991
56	0xbe2ca6b0	-0.16860461
57	0x3cffcb78	0.031224951
58	0xbbc64f49	-0.006051932
59	0x3eb0dc3d	0.34543028
60	0x3d808365	0.062750615
61	0xbc0591eb	-0.008152465
62	0x3d4b27d6	0.049598537
63	0x3d84b9a8	0.064807236
64	0xbd82a296	-0.06378667
65	0x3c5b968f	0.013402595
66	0xbe2f22e8	-0.1710316
67	0x3ca73666	0.020411681
68	0xbbee13c5	-0.0072655403
69	0xbd0d2713	-0.034461092
70	0x3dc77816	0.097397014
71	0xbb915dcb	-0.00443623
72	0xbbd44433	-0.0064778565
73	0x3db9a436	0.09064524
74	0xbd86393c	-0.06553885
75	0xbd02bbcd	-0.031917382
76	0x3e2d7eaf	0.16942857
77	0x3ca388c8	0.019962683
78	0xbdb8a53c	-0.09015891
79	0x3d7eec42	0.06223703
80	0x3d8885f2	0.06666173
81	0xbed8d800	-0.42352295
82	0xbd84170b	-0.064497076
83	0x3d8e5cdd	0.06951306
84	0xbd90c174	-0.07068148
85	0xbe41dd15	-0.18931992
86	0xbd07a6ac	-0.033117935
87	0xbc95c2fe	-0.018281456
88	0xbd6b4194	-0.057435587
89	0x3d7d2123	0.06179918
90	0x3c8a7d51	0.016905459
91	0xbd96783a	-0.0734715
92	0x3deb1e30	0.11480367
93	0xbcadbb69	-0.021207528
94	0xbd2c637c	-0.042087063
95	0xbb542a18	-0.0032373723
96	0xbcd1e2f0	-0.025620908
97	0xbd08ae94	-0.033369616
98	0xbd4d8119	-0.050171945
99	0x3cc62bc0	0.024190784
100	0x3c3f3a51	0.011671619
101	0xbaa24d4a	-0.0012382653
102	0xbce612f7	-0.028085215
103	0x3dc6c68e	0.0970584
104	0xbbb194ed	-0.0054193647
105	0x3cc2a56f	0.023760526
106	0xbecf05b2	-0.40434033
107	0xbdafead6	-0.08589713
108	0xbdd90e00	-0.105983734
109	0xbd818faf	-0.063262336
110	0x3dda078c	0.10645971
111	0x3d5835ba	0.052785613
112	0xbd861f1e	-0.06548904
113	0x3d883f1b	0.066526614
114	0x3ca7e548	0.020495072
115	0x3a5d5e81	0.0008444563
116	0xbdb5c70c	-0.08875856
117	0x3d906f8c	0.07052526
118	0xbb5b1e14	-0.0033434676
119	0xbde36ee2	-0.111051336
120	0x3b618157	0.0034409368
121	0x3b18cb00	0.0023314357
122	0x3dd7659c	0.10517427
123	0xbec54720	-0.38530827
124	0xbd03a348	-0.03213814
125	0xbd98e940	-0.07466364
126	0x3b35a69b	0.0027717713
127	0x3d584f18	0.052809805
128	0x3d0e9131	0.034806434
129	0x3d1e010a	0.03857521
130	0xbdd0f34f	-0.102026574
131	0xbdd90db6	-0.10598318
132	0x3d0229a5	0.031777997
133	0xbe212a88	-0.1573888
134	0xbb224032	-0.0024757502
135	0x3d70e356	0.058810554
136	0xbd628616	-0.055303656
137	0x3ba8e780	0.00515455
138	0xbcf8ce84	-0.030371912
139	0xbdd80fdf	-0.10549902
140	0xbcca3f63	-0.024688428
141	0x3dcca20a	0.09991844
142	0xbd442360	-0.0478853
143	0x3dfc6a56	0.123249695
144	0x3e06fe8f	0.13183044
145	0x3ecc565e	0.39909643
146	0x3c920729	0.01782568
147	0x3de9b32e	0.11411129
148	0xbd0d41bb	-0.034486514
149	0xbd822cbe	-0.0635619
150	0xbd7426a8	-0.059607178
151	0xbd35a311	-0.044344965
152	0x3daa1baa	0.08306058
153	0x3d86edc4	0.06588319
154	0xbdabb5e4	-0.08384302
155	0xbda89254	-0.08231035
156	0x3dbbf4e4	0.091775686
157	0x3dcd273d	0.1001725
158	0xbd3d4957	-0.04621252
159	0xbd8199c8	-0.063281596
160	0xbda7d15a	-0.081942275
161	0x3d387279	0.045031045
162	0xbd33bb85	-0.043880004
163	0x3b9cdda0	0.004787162
164	0xbd598d06	-0.053113006
165	0x3dbdbe66	0.09264831
166	0xbdcb18c3	-0.09916832
167	0x3db9fb10	0.090810895
168	0xbd8bd208	-0.0682717
169	0xbd4a698c	-0.049417064
170	0x3ec2b031	0.38025048
171	0xbd92d60c	-0.071697325
172	0xbcf8cca0	-0.03037101
173	0x3d362cea	0.044476427
174	0x3e2e1a87	0.17002307
175	0x3d24bf7a	0.04022167
176	0x3d7d86d3	0.061896157
177	0xbdbd61c8	-0.09247166
178	0x3d12592a	0.035729565
179	0xbda427da	-0.080154136
180	0xbc8ba1b9	-0.017044889
181	0x3de0926c	0.10965428
182	0xbe064b3c	-0.13114637
183	0x3dfdef0e	0.12399112
184	0xbd0c4815	-0.03424843
185	0xbd8cdc84	-0.068779975
186	0x3dc09354	0.094031006
187	0x3eb99738	0.36248183
188	0xbd8933fe	-0.0669937
189	0xbe5142eb	-0.20435683
190	0xbd330b80	-0.04371214
191	0xbd9f48d1	-0.077775605
192	0xbdd5f358	-0.10446805
193	0xbe17f4df	-0.14839505
194	0x3dc07bc8	0.093986094
195	0x3d8fff8b	0.07031163
196	0xbc8d2ae8	-0.017232373
197	0xbdfce194	-0.12347713
198	0xbdbb2818	-0.09138507
199	0x3d9a41cc	0.07532081
200	0xbdba5a29	-0.09099228
201	0xbd4adf64	-0.04952945
202	0x3d14e0b0	0.03634709
203	0x3cf62b46	0.030049931
204	0xbd3bf864	-0.04589118
205	0xbd017934	-0.03160973
206	0x3dbcbaf2	0.092153445
207	0x3d30ca74	0.043161824
208	0x3d5538bb	0.052056056
209	0xbeae067f	-0.3398933
210	0xbe37a81c	-0.17935222
211	0x3cb0c962	0.021580402
212	0x3d33201b	0.04373179
213	0xbdb5b0a7	-0.088715844
214	0xbdaf139a	-0.085486606
215	0xbd6d06cb	-0.057867806
216	0x3c8f6418	0.017503783
217	0xbc3de508	-0.01159025
218	0xbd1bf1c5	-0.038072366
219	0xbd290ef8	-0.04127404
220	0x3d94e08e	0.07269393
221	0xbd0cb429	-0.0343515
222	0xbdb6d966	-0.08928184
223	0xbe3e092c	-0.18558186
224	0xbdb4f1da	-0.08835192
225	0xbd46e647	-0.048559453
226	0xbd1b55b1	-0.03792352
227	0x3d98092a	0.07423623
228	0x3cc6bdce	0.024260428
229	0x3d6e05eb	0.058111113
230	0xbd0ca8cc	-0.034340665
231	0xbdd58af8	-0.10426897
232	0xbbe54b0d	-0.006997472
233	0xbdf04cf0	-0.11733425
234	0xbea61613	-0.32438716
235	0x3d571604	0.05251123
236	0x3dbd16a0	0.09232831
237	0x3c7cd3ee	0.015431387
238	0x3d44a4b4	0.048008636
239	0x3d168cf1	0.036755506
240	0x3c877484	0.016535051
241	0xbd231564	-0.03981532
242	0xbd3d5fb9	-0.046233866
243	0xbc27a9c3	-0.010233345
244	0xbe336ad8	-0.17521226
245	0xbcc5f248	-0.02416338
246	0xbdc98355	-0.09839503
247	0xbcea5930	-0.028606981
248	0x3cd62401	0.026140215
249	0xbda5a882	-0.08088781
250	0x3d0d324d	0.0344718
251	0xbe9e38e0	-0.30902767
252	0xbe1af278	-0.15131557
253	0xbd1b0832	-0.037849613
254	0xbcba987d	-0.02277779
255	0xbdca8e96	-0.09890477

fc2.bias f4 [4]
0	0x3e24a7dd	0.1607966
1	0xbe34d3c5	-0.17658909
2	0x3dcaf16a	0.09909327
3	0xbddaf291	-0.10690797
