src/flatland/flat_game/results/ourmethod_noreg1/rep_learner.pth (torch_old, 312910 bytes, 33 tensors)

representations f4 [6]
0	0x3f14c635	0.5811494
1	0xbe2f6a0f	-0.17130302
2	0xbe5bb064	-0.21454006
3	0xbf6d19e4	-0.9261763
4	0x3ee9e0f7	0.45679447
5	0xbf35b5be	-0.7098044

representations f4 [6]
0	0xbeae5f0d	-0.34056893
1	0x3ee9700d	0.455933
2	0xbe939579	-0.28824976
3	0x3f070039	0.52734715
4	0xbf4ad58d	-0.792321
5	0x3e63dc34	0.2225197

representations f4 [6]
0	0x3e2aec49	0.16691698
1	0xbf9ddd33	-1.233313
2	0xbee540fb	-0.4477614
3	0xbee741b0	-0.45167303
4	0x3f9d5fb6	1.2294834
5	0x3e23a709	0.15981688

representations f4 [6]
0	0xbe1ce5c1	-0.15322019
1	0x3f9c66d2	1.2218878
2	0x3ee62735	0.44951788
3	0x3ee0d47b	0.4391211
4	0xbf9c25b9	-1.2199012
5	0xbe1a9688	-0.15096486

fc1.weight f4 [64, 4]
0	0x3f0c9b31	0.54924303
1	0xbfe3d54b	-1.7799467
2	0x3e676510	0.22597146
3	0x3f43a4f6	0.76423585
4	0x3e8b28fa	0.271797
5	0x3f20424e	0.6260117
6	0xbf2d9fac	-0.67821765
7	0xc025a7b2	-2.5883603
8	0xbe3ebdd8	-0.18627107
9	0xbebc54d0	-0.36783457
10	0x3c9fffca	0.01953115
11	0xbfe4f190	-1.7886219
12	0xbfd84659	-1.6896468
13	0xbfbd065b	-1.4767565
14	0x40075a5e	2.1148906
15	0x3e243de9	0.16039242
16	0x3f7fab8c	0.99871135
17	0xbd80ee08	-0.06295401
18	0x3f7c8c9e	0.98652065
19	0xbfb09c57	-1.3797711
20	0x3f27e43e	0.65582645
21	0xbd9328f0	-0.071855426
22	0xbf801b1c	-1.0008273
23	0xbfe23ddd	-1.7675129
24	0xc010ec20	-2.264412
25	0xbe342bde	-0.17594859
26	0xbe6c2059	-0.23059215
27	0x3faa15d4	1.3287911
28	0x3fc0a66f	1.5050792
29	0xbf290873	-0.6602852
30	0x3ea14ac8	0.31502366
31	0x3fdd72d0	1.7300663
32	0x3e91e14b	0.28492197
33	0xc0255e58	-2.5838833
34	0xbf3dd118	-0.74147177
35	0x40085efb	2.1307971
36	0xbf88b519	-1.0680267
37	0x3df81290	0.121129155
38	0x3f559073	0.83423537
39	0xc00878f2	-2.132382
40	0x3fbd975c	1.4811816
41	0xbf765539	-0.9622379
42	0x3ec63b3e	0.38717073
43	0xbed1c6ad	-0.4097189
44	0x4006ca4c	2.1060972
45	0xc0083d5d	-2.1287453
46	0x3e81930c	0.253075
47	0xbfcf61db	-1.6201738
48	0x3fdcdde8	1.725522
49	0xbf377dbc	-0.7167623
50	0xbf6c5897	-0.9232268
51	0xbf0d0c1e	-0.55096614
52	0xc01161bb	-2.27159
53	0x403556b7	2.8334177
54	0xbeec2898	-0.4612472
55	0x3e25a955	0.16177876
56	0x400fdb74	2.2477694
57	0xbf362898	-0.7115569
58	0xbfb07a19	-1.3787261
59	0xbfe26584	-1.768723
60	0x3fd49064	1.6606565
61	0x3f4bc36e	0.7959508
62	0x3f56487b	0.83704346
63	0xbea16c3c	-0.3152789
64	0x3dd4073a	0.10352941
65	0xbf409234	-0.7522309
66	0x3f8af772	1.0856764
67	0x3e839171	0.256969
68	0xbec2645e	-0.379672
69	0xbd925105	-0.071443595
70	0xbe93a1a2	-0.28834254
71	0xbe64c56d	-0.22340937
72	0xbee1a2a8	-0.4406941
73	0xbfd2d268	-1.6470461
74	0xbe919c48	-0.28439546
75	0xbfaa6e8f	-1.331499
76	0xbe60a83a	-0.21939173
77	0x3fc38df4	1.5277696
78	0x402a3bae	2.6598926
79	0x3fdcae57	1.7240704
80	0xbf95f181	-1.1714326
81	0xbee2e668	-0.4431641
82	0x3eae4409	0.34036282
83	0xbfb80368	-1.437604
84	0xbdbde910	-0.09272969
85	0x3d511640	0.05104661
86	0xbdcd94f8	-0.10038179
87	0x3ea343aa	0.3188756
88	0xbfe5199e	-1.7898443
89	0x3fbc47b5	1.4709383
90	0x40095e14	2.146367
91	0x3f1c8711	0.61143595
92	0x3f99f6c6	1.2028434
93	0x3f7a9ab6	0.9789232
94	0xbf493bd1	-0.786069
95	0x3f143f4a	0.5790907
96	0xbf244349	-0.6416517
97	0x3fd1029c	1.6328921
98	0xbd7baa25	-0.06144156
99	0x40040d86	2.0633254
100	0x3f28dd12	0.65962327
101	0x3fa09458	1.2545271
102	0xc0157a95	-2.3356068
103	0xc00b646a	-2.1780038
104	0x3fd901cc	1.6953673
105	0x3fcc0404	1.5938725
106	0x3d87328d	0.06601439
107	0xbeb276eb	-0.34856352
108	0xbf4c6200	-0.79837036
109	0xbf52c49b	-0.82331246
110	0xbf190e36	-0.5978731
111	0xbf6d3425	-0.9265769
112	0x3f8793e6	1.059201
113	0xbfb882f6	-1.4414966
114	0x4022cf73	2.5439117
115	0x3fd6a3ca	1.6768734
116	0xbfbd0f4b	-1.4770292
117	0xbe054e45	-0.13018139
118	0x3f1e852b	0.6192195
119	0x3f59cb72	0.8507606
120	0xbf851a10	-1.0398579
121	0x40153fe8	2.3320255
122	0xbf2b01e2	-0.6679975
123	0xc01a589e	-2.4116588
124	0xbf672e55	-0.9030507
125	0xbdc6e4a0	-0.097115755
126	0x403f946c	2.993434
127	0x3f18fd87	0.5976185
128	0x3fc9b27a	1.5757592
129	0xbff8c8c6	-1.9436271
130	0x3fd9670c	1.6984572
131	0x3ffe0301	1.9844667
132	0xc02a8b3a	-2.6647477
133	0xbf111095	-0.5666593
134	0x3f9052b1	1.1275235
135	0x4007653f	2.1155546
136	0xbe296524	-0.16542488
137	0xbf1e89fb	-0.6192929
138	0xbf729118	-0.94752645
139	0x400e4dfc	2.2235098
140	0xbf4fe7e7	-0.8121323
141	0x405bb13c	3.4326925
142	0x3fc5a89c	1.544208
143	0x3dd9ac4a	0.10628565
144	0xbf011a3e	-0.5043067
145	0xbf8192b5	-1.0122896
146	0xbfe9c070	-1.8261852
147	0xbf149c92	-0.5805141
148	0xbebf8f2d	-0.37413922
149	0xbf979721	-1.1842996
150	0x400859b6	2.1304755
151	0x3ffa7d0d	1.9569412
152	0x3fcf527b	1.6197046
153	0xbf37a653	-0.71738166
154	0x3f4acddd	0.7922037
155	0x3ecf8dda	0.40537912
156	0x3fa235c4	1.2672658
157	0xbf3a0be2	-0.7267438
158	0xbe701a68	-0.23447573
159	0xc01ee0fd	-2.4824822
160	0x3f719680	0.9437027
161	0x3f6f7812	0.9354259
162	0xbf7c3ab0	-0.9852705
163	0x3f994a3a	1.1975777
164	0xc004881a	-2.070807
165	0x3fc57930	1.5427608
166	0xc00d3083	-2.206086
167	0xbeab866a	-0.33500987
168	0x3eabf293	0.33583507
169	0xbe380472	-0.17970446
170	0xbfee5dc2	-1.8622363
171	0xc03bbb66	-2.933313
172	0x3fb72bbf	1.4310225
173	0x3e197cf9	0.1498908
174	0x3f3201da	0.69534075
175	0xbd1ca8e2	-0.038246997
176	0xbebe5705	-0.37175766
177	0x3f5b81eb	0.85745114
178	0xbf1a3b39	-0.60246617
179	0x401eae7e	2.4794002
180	0xbee757ac	-0.45184076
181	0xbf2eca24	-0.6827719
182	0x3f444b3c	0.766773
183	0x40699edd	3.6503212
184	0x40349518	2.8216
185	0xbefc61bc	-0.49293315
186	0x3eb25d60	0.34836864
187	0xbf814721	-1.0099832
188	0xbfc6e6c8	-1.5539179
189	0xbf032493	-0.5122768
190	0x3f9a996f	1.2078074
191	0x3fe7ea70	1.811842
192	0x3e371140	0.17877674
193	0xbf3a596c	-0.72792697
194	0x3f312aff	0.6920623
195	0x3e7b286c	0.24527138
196	0x3f20451f	0.6260547
197	0xbfd83316	-1.689059
198	0x3f3f8bea	0.74822867
199	0x401f448e	2.4885592
200	0xbd46b785	-0.04851486
201	0x3ea14682	0.31499106
202	0xbf979d0b	-1.1844801
203	0xbf37bdc2	-0.7177392
204	0x3eca69e8	0.39533925
205	0xbf2b0b63	-0.6681425
206	0xbfce4cfc	-1.6117244
207	0x3fd83dfc	1.6893916
208	0xbf5c1e0e	-0.8598336
209	0x3f460490	0.7735071
210	0xbfa80052	-1.3125098
211	0x3f3ab065	0.72925407
212	0xc03ac647	-2.918352
213	0x3d39066c	0.04517214
214	0xbe02dbe7	-0.12779199
215	0xc0026080	-2.03714
216	0xbff44475	-1.9083391
217	0x40303eac	2.7538252
218	0xbf362540	-0.7115059
219	0xbf324eb7	-0.6965136
220	0xbfac95e3	-1.3483242
221	0xbf2c56f5	-0.67320186
222	0xbfb688a6	-1.4260452
223	0xbf752308	-0.9575658
224	0xc05ab2e7	-3.4171693
225	0x3fa8bc22	1.3182414
226	0xbfca60c5	-1.5810782
227	0x3eddaead	0.4329733
228	0x3f70ae81	0.9401627
229	0x3f5dba3d	0.866123
230	0xbfbc9a9e	-1.4734685
231	0x3f02faa3	0.5116369
232	0xc0544ef7	-3.3173196
233	0xbfdc13dc	-1.7193561
234	0x3fd0c21b	1.6309236
235	0xbfe04c47	-1.7523278
236	0xbf85d479	-1.0455467
237	0xbd803018	-0.06259173
238	0x3f5591e9	0.83425766
239	0xbff9768c	-1.9489303
240	0xbff7f5e6	-1.9371917
241	0xc007dfa8	-2.123026
242	0xc00cbf14	-2.1991625
243	0x3efd1d85	0.49436584
244	0xbe74d263	-0.23908381
245	0xbd5f356c	-0.054494306
246	0xbe182df2	-0.14861277
247	0xbe62631e	-0.22108123
248	0xbeb8035e	-0.3594007
249	0x3e326680	0.17421913
250	0x3fc57713	1.5426964
251	0xbe93e6db	-0.28887066
252	0x3fdae24d	1.7100312
253	0x3f240c14	0.6408093
254	0x3e7d08c1	0.2471037
255	0x3fd6d126	1.6782577

fc1.bias f4 [64]
0	0x3e822ac5	0.25423256
1	0xbe0a6d58	-0.13518274
2	0x3f0c2d29	0.5475641
3	0xbee05760	-0.43816662
4	0x3e75e517	0.24013172
5	0x3e9a0edd	0.30089465
6	0x3db777a7	0.08958369
7	0x3ec583a0	0.38576984
8	0xbf032fba	-0.512447
9	0x3f00a873	0.50257033
10	0x3ed60434	0.41800082
11	0x3c4dbbcc	0.012556981
12	0x3e7c57b7	0.24642836
13	0x3d2362cc	0.039889142
14	0xbf009a21	-0.5023518
15	0x3ee52605	0.4475557
16	0x3ed85220	0.42250156
17	0xbf098b28	-0.5372796
18	0x3dd9f291	0.10641969
19	0x3ece28f9	0.40265635
20	0x3e0a54a2	0.13508847
21	0xbec1f888	-0.37884927
22	0xbf6c8de4	-0.9240401
23	0x3ea5cc60	0.32382488
24	0x3ea1160c	0.31462133
25	0xbd894592	-0.067027226
26	0x3cd52755	0.026019732
27	0x3e10d9a3	0.14145522
28	0xbe21185b	-0.15731947
29	0xbe4279f8	-0.1899184
30	0xbe3c5eb8	-0.18395507
31	0x3e230d8e	0.1592314
32	0xbf94fea3	-1.1640209
33	0xbe43b6b5	-0.19112666
34	0x3e4ea8be	0.20181558
35	0xbcc3d21f	-0.023903904
36	0x3eff72e6	0.49892348
37	0xbe54e298	-0.20789564
38	0x3d956390	0.07294381
39	0x3d34a8f1	0.044106428
40	0x3f2efdf3	0.68356246
41	0x3d5450a8	0.051834732
42	0xbfb10a0f	-1.3831195
43	0x3eb93cdf	0.36179253
44	0xbf2f2560	-0.68416405
45	0x3cf28638	0.029605016
46	0xbd9dcafa	-0.0770473
47	0xbccb8394	-0.024843015
48	0x3eb6ce52	0.35704285
49	0xbd19eac6	-0.037577413
50	0x3ede111f	0.43372437
51	0x3f107774	0.5643227
52	0x3e0d40f9	0.13794316
53	0xbf86e3a0	-1.0538216
54	0xbd4bc92c	-0.0497524
55	0xbe053144	-0.13007075
56	0xbdf1c238	-0.118046224
57	0x3eb81853	0.35956058
58	0x3e8a7f6e	0.27050346
59	0x3ed17a92	0.40913826
60	0x3d448ab4	0.04798384
61	0xbefd6d70	-0.49497557
62	0x3e562d2f	0.20915674
63	0x3f01f1c6	0.5075954

fc2.weight f4 [180, 64]
0	0x3f05794d	0.52138215
1	0x3d31c449	0.043400083
2	0x3db471cc	0.088107675
3	0x3de60ee7	0.11233311
4	0x3de0147d	0.10941408
5	0xbe1359e5	-0.14389761
6	0x3f0b0684	0.5430682
7	0x3e497cc0	0.19676495
8	0xbeeb9b79	-0.46017054
9	0x3e2bba46	0.16770276
10	0x3e03024c	0.12793845
11	0xbe75ed57	-0.24016319
12	0x3d8a2b27	0.06746512
13	0x3e4a9bf2	0.19786051
14	0xbe898aac	-0.2686361
15	0xbf058211	-0.5215159
16	0x3d542a1b	0.051797967
17	0x3e0278ab	0.12741344
18	0x3eadaac1	0.33919337
19	0xbe156c29	-0.14592041
20	0x3e41aa9d	0.1891274
21	0xbcb93d20	-0.022612154
22	0x3e93d8b9	0.28876284
23	0x3ce945e9	0.028475719
24	0x3d15a812	0.036537237
25	0x3e5c20ed	0.21496935
26	0xbdaaf1e3	-0.083469175
27	0xbd8117f1	-0.063033946
28	0x3e114028	0.1418463
29	0x3e7cdb78	0.24693096
30	0x3e769d9c	0.2408356
31	0xbfa62067	-1.2978638
32	0x3e6d656b	0.23183219
33	0xbf4ebdc2	-0.807583
34	0x3e8abb72	0.27096134
35	0x3faf2568	1.368329
36	0xbf2759eb	-0.6537158
37	0x3ddc4fdc	0.107574195
38	0xbde5c416	-0.11219041
39	0xbd7ce2bd	-0.061739672
40	0xbb5cecbd	-0.0033710443
41	0xbea561d3	-0.32301196
42	0x3f0ea4b6	0.5572008
43	0x3cad9509	0.02118923
44	0x3f73b71d	0.95201284
45	0x3ec1d762	0.37859637
46	0x3e25b274	0.16181356
47	0xbe4c85e5	-0.19972952
48	0xbe086f22	-0.13323644
49	0x3ed4c622	0.41557413
50	0x3d904549	0.07044465
51	0xbbe55ed0	-0.006999828
52	0xbe40db5c	-0.18833679
53	0x3eaaa798	0.3333099
54	0xbe032706	-0.12807855
55	0xbda197a4	-0.07890251
56	0xbf491434	-0.7854645
57	0x3edd34dd	0.43204394
58	0x3efe5b89	0.4967921
59	0x3ea47532	0.32120663
60	0x3e159075	0.14605887
61	0x3dd23fda	0.10266085
62	0xbba99a17	-0.0051758396
63	0x3e0c01a0	0.13672495
64	0x3e795518	0.24348867
65	0x3e953bc9	0.29147175
66	0x3f31c129	0.69435364
67	0xbffbb3bd	-1.9664227
68	0x3f7b28d9	0.98109204
69	0x3f94e59f	1.1632575
70	0x4082437f	4.0707393
71	0x3ece7075	0.40320173
72	0xbfdd77b1	-1.7302152
73	0x3df0cdaa	0.11757977
74	0x3f16ac33	0.58856505
75	0x3dbb539f	0.09146809
76	0x3f51c591	0.8194209
77	0x3faeb799	1.364978
78	0x3ff763a3	1.9327282
79	0x4027fbfe	2.6247554
80	0xbeac2f9f	-0.33630082
81	0x3e1f842a	0.1557776
82	0x3f663b61	0.89934355
83	0x3fd5a116	1.6689785
84	0x3e5e0164	0.21680218
85	0x398f8600	0.00027374923
86	0x3fb23ebb	1.3925394
87	0x3d7b2d3c	0.061322436
88	0xbf707437	-0.9392733
89	0x3f8a9c56	1.082896
90	0x3f8fc6c8	1.1232538
91	0x3f23946f	0.63898367
92	0x400d9dba	2.2127519
93	0x40027d8a	2.0389123
94	0x3f5a46d7	0.85264343
95	0x3fba4d49	1.4554836
96	0x3fafb95d	1.3728443
97	0x40a5d049	5.1816754
98	0xbf5ffbe6	-0.8749374
99	0x3f1c3998	0.6102538
100	0x3f105881	0.56385046
101	0x403c1149	2.938555
102	0x3f643ac9	0.891522
103	0x3f125f82	0.57176983
104	0xbe97d2b3	-0.29652938
105	0x3f9556b8	1.166709
106	0x3faf5994	1.3699212
107	0x3f8d2b75	1.1028887
108	0xbf747245	-0.9548686
109	0xbf49899d	-0.78725606
110	0x400bdd70	2.1853905
111	0x40330855	2.7973835
112	0xbe278fe5	-0.16363485
113	0xbf5accde	-0.8546885
114	0x3f24f68b	0.64438695
115	0x3d79c4fa	0.060978867
116	0x3e2159b8	0.15756881
117	0xbd8965b3	-0.06708851
118	0x3f22dfb5	0.636226
119	0x3f2245e9	0.63387924
120	0x3fda64f4	1.7062058
121	0xbee7d6c2	-0.45281035
122	0xbfdf8199	-1.7461425
123	0x3deb060d	0.114757635
124	0x3db198bc	0.0867171
125	0x3d96b336	0.073584005
126	0x3e8da09b	0.27661595
127	0x3eec5e64	0.46165764
128	0x3dbe659b	0.092967235
129	0xbe901b0d	-0.28145638
130	0xbe715b28	-0.2356993
131	0x3f5fe465	0.8745788
132	0xbed66d5e	-0.41880316
133	0x3d23a152	0.03994877
134	0x3ee0ec9c	0.4393052
135	0x3ee0404b	0.43799052
136	0xbf1fff87	-0.6249928
137	0xbf738636	-0.95126665
138	0x3e3f41a4	0.18677384
139	0x3ee43aa9	0.44576004
140	0x3e86d525	0.2633449
141	0xbfb54b56	-1.4163616
142	0x3f02052f	0.5078916
143	0x3f0ae26c	0.5425174
144	0x3f950aa3	1.1643871
145	0x3d2f85e2	0.04285229
146	0x3e428c0d	0.18998738
147	0x3dc4b4a0	0.09604764
148	0xbe185356	-0.1487554
149	0x3ce37360	0.027764976
150	0x3ed558aa	0.41669208
151	0x3f40ea97	0.75357956
152	0xbfad44f6	-1.353667
153	0x4016472d	2.3480942
154	0x3fc4ba28	1.536931
155	0x3db90f56	0.09036128
156	0x3fae18c8	1.3601313
157	0x3ee98941	0.4561253
158	0xbf93ed36	-1.1556766
159	0x3f6ccd44	0.9250071
160	0x3f91de8a	1.1396039
161	0x3fb78081	1.4336091
162	0xbe88158d	-0.26578942
163	0xbfd9f04c	-1.7026458
164	0xbe26c40d	-0.16285725
165	0x3fbb48c0	1.4631577
166	0x3f8de6de	1.108608
167	0xbf13d654	-0.57748914
168	0x3f450ffc	0.76977515
169	0x40052368	2.080286
170	0xbf4f867f	-0.810646
171	0x3ebc44d8	0.36771274
172	0xbfefe3b7	-1.8741368
173	0x3e1a5c43	0.15074258
174	0x3fada792	1.3566763
175	0x3fd06509	1.6280833
176	0x3f794c76	0.97382295
177	0xbf3fd400	-0.7493286
178	0xbeb63962	-0.35590655
179	0x3f1d75b6	0.6150774
180	0xbd8a2537	-0.067453794
181	0x3fb485a0	1.4103279
182	0xbfa3614b	-1.2764066
183	0xbe2066a2	-0.15664151
184	0x402577ca	2.5854363
185	0x3f166c5d	0.587591
186	0x3f4839d1	0.7821322
187	0xbf30c9a8	-0.69057703
188	0x3f04a868	0.5181947
189	0xbd5f206c	-0.05447428
190	0x3f51e62a	0.8199183
191	0x3f11fbae	0.5702466
192	0xbf7ece88	-0.9953389
193	0x3e2ad25a	0.16681805
194	0x3cb14fdb	0.021644523
195	0x3fb38ccc	1.4027343
196	0x3d212737	0.03934404
197	0x3f66dde9	0.9018236
198	0x3f6e1cf9	0.9301296
199	0x3c96605f	0.0183565
200	0xbfe89d55	-1.8173014
201	0xbf39168e	-0.7230004
202	0x3ecf516c	0.40491807
203	0xbead4ae2	-0.33846194
204	0x3e8e67bd	0.2781352
205	0xbc85df74	-0.016341902
206	0xbf0c8b26	-0.54899824
207	0xbe5c5c27	-0.21519528
208	0x3ea675ce	0.32511753
209	0x3e07d509	0.1326486
210	0x3eb159f3	0.34638938
211	0x3dac5ccb	0.08416136
212	0x3ee9e7eb	0.45684752
213	0xbdaaa206	-0.08331685
214	0x3ed77d95	0.42088
215	0x3f0c1356	0.54717004
216	0xbf2148ba	-0.63001597
217	0x3fa70980	1.3049774
218	0xbf05919a	-0.52175295
219	0x3eb123cb	0.3459762
220	0x3f570213	0.8398754
221	0x3eebd13b	0.46058068
222	0x3da590ab	0.08084234
223	0x3ffd7cc2	1.9803698
224	0xbc2046d7	-0.009782515
225	0x3f897bc4	1.0740895
226	0xbf3ae435	-0.73004466
227	0xbf922bc7	-1.141961
228	0x3e16b3a8	0.14716971
229	0x3fcf73e8	1.6207247
230	0x3f731850	0.9495897
231	0x3e427049	0.18988146
232	0x3f055121	0.5207692
233	0x40411d41	3.0174105
234	0xbe2d123c	-0.16901487
235	0x3e2db80d	0.16964741
236	0xbe2bf86b	-0.16793983
237	0xbd8ef36c	-0.06980023
238	0x4041650f	3.0217931
239	0x3fa932cd	1.3218628
240	0x3ee29a10	0.44258165
241	0xbfaeb5d9	-1.3649246
242	0x3e1b4f0a	0.1516687
243	0xbeb48110	-0.35254717
244	0x3f53c133	0.82716674
245	0x3fd4a62c	1.6613212
246	0xbed4af17	-0.41539833
247	0x3eb1bdc6	0.34715098
248	0x4067097a	3.6099534
249	0x3f467136	0.77516496
250	0x3dd3dd04	0.1034489
251	0xbf060e5a	-0.5236565
252	0xbf80a894	-1.0051446
253	0x3e361a31	0.17783429
254	0x3f8bd9bf	1.0925826
255	0x3e23ff95	0.16015466

fc2.bias f4 [180]
0	0x3e028f05	0.1274987
1	0x3eaf0f8a	0.34191543
2	0x3e2ad526	0.16682872
3	0x3e43b0ac	0.19110364
4	0x3dee7ec2	0.11645271
5	0xbe09afcf	-0.13445972
6	0x3d812431	0.06305731
7	0xbdd886bd	-0.10572574
8	0xbd04d5fb	-0.03243063
9	0x3d34b66c	0.044119284
10	0xbed9a885	-0.42511383
11	0x3de3ece5	0.111291684
12	0x3d3d0824	0.04615034
13	0xbdb90078	-0.090332925
14	0xbdbcb9d8	-0.092151344
15	0xbdd4bec8	-0.10387951
16	0x3f5d3cbc	0.864208
17	0x3e6cfa22	0.23142293
18	0x3d4162c0	0.047213316
19	0x3c805864	0.015667148
20	0xbe422d1f	-0.18962525
21	0xbcd3a84a	-0.025837082
22	0xbc120646	-0.0089126285
23	0x3ecd45ae	0.40092224
24	0x3c1a95f7	0.0094351685
25	0xbdcc3db8	-0.099727094
26	0xbe006ab0	-0.12540698
27	0xbe33701e	-0.17523238
28	0xbccd9efb	-0.025100222
29	0x3f11dbe7	0.5697617
30	0x3de8c5ab	0.11365827
31	0xbe85c8fe	-0.26129907
32	0xbd2b4a1d	-0.041818727
33	0x3ae9dd5c	0.001784246
34	0xbd4e78b3	-0.050408076
35	0x3e4ef0dc	0.20209068
36	0x3f28a777	0.6588053
37	0x3ec53217	0.38514778
38	0x3dd1ea29	0.10249741
39	0x3e99f1b0	0.30067205
40	0x3e94b644	0.29045308
41	0x3e23db79	0.16001691
42	0x3e26a2df	0.16273068
43	0xbe2c95eb	-0.16854064
44	0xbdb73e8c	-0.08947477
45	0xbccf3b36	-0.025296789
46	0xbd007b54	-0.031367615
47	0x3e82943c	0.2550372
48	0x3eba5f71	0.3640094
49	0xbcc395b8	-0.023875102
50	0xbe14e2b4	-0.14539605
51	0xbe289546	-0.16463193
52	0xbe3099a2	-0.17246106
53	0x3eb43a07	0.3520052
54	0xbe0e1306	-0.13874444
55	0xbd66bec2	-0.056334265
56	0xbd1e38b9	-0.038628314
57	0xbdbe2297	-0.09283941
58	0x3d14822c	0.036256954
59	0x3eaa63b0	0.3327918
60	0x3f08fbff	0.53509516
61	0xbda47e86	-0.08031945
62	0xbdd72c12	-0.105064526
63	0xbcda951c	-0.026682429
64	0xbdf41360	-0.11917758
65	0x3e4f98e1	0.20273162
66	0x3b9fdb00	0.0048784018
67	0xbe99a632	-0.3000961
68	0xbe291588	-0.1651212
69	0x3bcacd88	0.006189052
70	0xbdbff048	-0.09372002
71	0x3ca08ef0	0.019599408
72	0xbce06f3a	-0.027396787
73	0xbecc43e1	-0.39895537
74	0x3ccebdb7	0.025236947
75	0x3d9dd9f9	0.077075906
76	0x3e7f3b46	0.24924955
77	0x3eae7353	0.3407236
78	0x3d9c1a3a	0.0762219
79	0xbe172e35	-0.1476372
80	0xbdc52d1f	-0.09627747
81	0xbde2905c	-0.110626906
82	0xbe023003	-0.12713628
83	0xbbc0e297	-0.0058863866
84	0xbce79530	-0.02826938
85	0xbd460091	-0.048340384
86	0xbd30d2de	-0.04316985
87	0xbe034209	-0.12818159
88	0xbcf3edf9	-0.02977656
89	0x3e137e58	0.14403665
90	0x3d6d9da6	0.058011673
91	0x3d09de7c	0.033659443
92	0xbe3a429e	-0.18189475
93	0xbcb97f3f	-0.022643683
94	0xbd6585e1	-0.05603588
95	0x3e5f8b85	0.21830566
96	0x3cd3e64d	0.025866652
97	0xbe36dfb4	-0.17858773
98	0xbde5f4cc	-0.11228332
99	0xbc9ccdac	-0.01914104
100	0xbd3a3685	-0.04546215
101	0x3ed21e44	0.41038716
102	0x3dc57574	0.09641543
103	0x3dc501d1	0.09619487
104	0x3de8ee5d	0.11373589
105	0x3dd394c3	0.103311084
106	0x3e5ede7a	0.21764556
107	0x3ed89670	0.42302275
108	0xbe3c12b0	-0.18366504
109	0x3e26cec5	0.16289814
110	0xbd0f194d	-0.034936238
111	0x3d480d52	0.04884083
112	0xbcc136c4	-0.023585685
113	0xbc044861	-0.008073897
114	0x3f3b1bcd	0.73089296
115	0xbe310016	-0.17285189
116	0xbd780630	-0.060552776
117	0xbe3310d1	-0.17486884
118	0xbe0ab792	-0.13546589
119	0xbe2b47b7	-0.16726576
120	0x3e268910	0.16263223
121	0x3ea44d3b	0.32090172
122	0xbd36fc0b	-0.04467396
123	0xbe4573bc	-0.1928243
124	0xbe534e86	-0.20635423
125	0x3d37caf3	0.04487128
126	0x3efc9c14	0.49337828
127	0xbded5d2e	-0.11590038
128	0xbdaedae6	-0.08537845
129	0xbe18a894	-0.14908057
130	0xbdb09d11	-0.08623708
131	0xbe0f495c	-0.13992828
132	0xbe1003b6	-0.14063916
133	0x3d69047f	0.056889053
134	0xbd958251	-0.073002465
135	0xbd973f6c	-0.07385144
136	0xbdbca74d	-0.092115976
137	0xbe3408d2	-0.1758149
138	0x3f13d347	0.5774426
139	0xbe58e0c4	-0.21179491
140	0x3dcf76e2	0.10130097
141	0xbaf0617f	-0.0018339603
142	0xbe6b825f	-0.22998951
143	0x3e1d5556	0.15364584
144	0x3e3f13a0	0.1865983
145	0xbed08b03	-0.40731058
146	0xbe0f19dc	-0.13974708
147	0x3d8577b3	0.065169714
148	0xbe3b0b49	-0.18266024
149	0xbdb66706	-0.08906369
150	0x3f14cd48	0.58125734
151	0xbdadf7d8	-0.08494538
152	0x3c1dfc4f	0.009642675
153	0xbd36e192	-0.044648714
154	0xbd86b716	-0.065778896
155	0xbdc1f582	-0.09470655
156	0x3ef94b38	0.486902
157	0xbdcc21dd	-0.099673964
158	0xbe30543f	-0.17219637
159	0xbe12ca89	-0.14335074
160	0xbe5437cf	-0.20724414
161	0xbc46a5f8	-0.012124531
162	0x3e20b7f3	0.15695171
163	0xbda4a71f	-0.08039688
164	0xbdbc18e1	-0.09184433
165	0xbe493b7b	-0.19651596
166	0xbea405c6	-0.32035655
167	0x3e72db79	0.23716535
168	0xbd1400ff	-0.036133762
169	0x3d168821	0.036750916
170	0xbd891aa3	-0.06694534
171	0x3b210cd6	0.0024574301
172	0x3c80e73b	0.01573526
173	0x3ecf64af	0.40506503
174	0x3e8c37d2	0.27386338
175	0x3d94f0e8	0.07272512
176	0x3ea59156	0.32337445
177	0x3de7bc7c	0.113152474
178	0xbcd67bf5	-0.026182154
179	0x3ea6bece	0.32567447

conv.weight f4 [5, 1, 34, 34]
0	0xbd228b0d	-0.03968339
1	0xbdf8ed33	-0.12154617
2	0xbdc11ff8	-0.09429926
3	0xbd990899	-0.07472343
4	0xbe0c66ad	-0.13711043
5	0xbe1cb378	-0.15302837
6	0xbe283f24	-0.16430336
7	0xbe1e900a	-0.15484634
8	0xbe3537fe	-0.1769714
9	0xbe5f036c	-0.21778649
10	0xbe434353	-0.19068651
11	0xbe6950f7	-0.22784792
12	0xbe7ca390	-0.24671769
13	0xbe801a27	-0.25019953
14	0xbeab9596	-0.33512563
15	0xbe81aac7	-0.25325605
16	0xbe8369a6	-0.2566654
17	0xbe71f5f5	-0.23628981
18	0xbe140854	-0.14456302
19	0xbe47f313	-0.19526319
20	0xbe20f663	-0.15718989
21	0xbde6b288	-0.11264521
22	0xbd95b74b	-0.07310351
23	0xbdaad503	-0.0834141
24	0xbdb4e986	-0.088336036
25	0xbd94f697	-0.07273596
26	0xbd99c444	-0.07508138
27	0xbd87324e	-0.06601392
28	0x3b9eb3a7	0.0048431936
29	0x3d33954c	0.043843552
30	0xbd47e686	-0.04880383
31	0xbd9efb80	-0.077628136
32	0xbd9ab4ab	-0.07553991
33	0xbd5f14a7	-0.054463055
34	0xbd95e41a	-0.073188975
35	0xbe0d91ad	-0.13825102
36	0xbdcc6197	-0.09979551
37	0xbdd5be61	-0.104367025
38	0xbe134ddc	-0.1438517
39	0xbe0dad5e	-0.13835666
40	0xbe1ba7b4	-0.15200692
41	0xbe419fd4	-0.18908626
42	0xbe6fff10	-0.23437142
43	0xbe811954	-0.25214636
44	0xbe6dcb10	-0.23221993
45	0xbe8fdcb3	-0.28098068
46	0xbea188ae	-0.3154959
47	0xbeb771d2	-0.35829026
48	0xbebec540	-0.37259865
49	0xbe8c3ce6	-0.27390212
50	0xbeaa7763	-0.3329421
51	0xbea10b89	-0.31454113
52	0xbe2bade1	-0.16765548
53	0xbe1953cf	-0.14973377
54	0xbe1c5dbc	-0.15270132
55	0xbde556d8	-0.11198205
56	0xbdeadad7	-0.11467522
57	0xbd93329b	-0.071873866
58	0xbdf99595	-0.12186734
59	0xbd8cc130	-0.06872785
60	0xbd94ffb0	-0.07275331
61	0xbd0deccc	-0.034649655
62	0xbb2bbfc7	-0.0026206838
63	0x396bd220	0.00022489624
64	0xbd29112a	-0.041276135
65	0xbd271608	-0.040792495
66	0xbd9940a6	-0.07483034
67	0xbda0d317	-0.07852762
68	0xbdef06b2	-0.11671199
69	0xbdf550de	-0.11978315
70	0xbdf56be9	-0.11983473
71	0xbdf044cd	-0.11731873
72	0xbd95a31d	-0.07306502
73	0xbe5223d7	-0.20521484
74	0xbe60c102	-0.21948627
75	0xbe2d52c7	-0.16926108
76	0xbe60eac2	-0.21964553
77	0xbe80b851	-0.25140622
78	0xbe65419f	-0.22388314
79	0xbe905717	-0.28191444
80	0xbeb874cd	-0.36026612
81	0xbebcf8e6	-0.36908644
82	0xbefe4c6f	-0.4966769
83	0xbed4e7bd	-0.41583052
84	0xbeb6531d	-0.35610285
85	0xbeb62da0	-0.35581684
86	0xbe4e2dfe	-0.20134732
87	0xbe3d3847	-0.184785
88	0xbe38b290	-0.18036866
89	0xbe222b16	-0.15836748
90	0xbdd872ef	-0.10568797
91	0xbde3c120	-0.1112082
92	0xbe1fafac	-0.15594357
93	0xbd3632e9	-0.044482145
94	0xbd783d8c	-0.06060557
95	0xbd2e4f15	-0.042555887
96	0x3a2d5dc8	0.0006613401
97	0x3ccc81f9	0.02496432
98	0xbb7df1cb	-0.0038748856
99	0xbd414341	-0.04718328
100	0xbd95b456	-0.07309787
101	0xbd976a6f	-0.073933475
102	0xbdaf0d06	-0.08547406
103	0xbe121857	-0.14267097
104	0xbe1fd430	-0.15608287
105	0xbe0586b1	-0.13039662
106	0xbdc110c2	-0.094270244
107	0xbe4b9a1f	-0.19883011
108	0xbe571fac	-0.21008176
109	0xbe7d2fbc	-0.2472524
110	0xbe9057e8	-0.28192067
111	0xbe9aa3f5	-0.30203214
112	0xbe9ad7ec	-0.3024286
113	0xbe85233b	-0.2600344
114	0xbed76317	-0.42067787
115	0xbec63067	-0.38708803
116	0xbeee48ce	-0.4653992
117	0xbed5ab91	-0.41732457
118	0xbe9713f6	-0.29507416
119	0xbe9c30fe	-0.30506128
120	0xbe7f0be7	-0.24906884
121	0xbe4f6707	-0.20254146
122	0xbe8e0bfc	-0.27743518
123	0xbe2cca59	-0.16874065
124	0xbe10b19a	-0.1413025
125	0xbdc5a45a	-0.09650488
126	0xbda5070d	-0.080579855
127	0xbd32c9e0	-0.043649554
128	0xbd83d59a	-0.06437226
129	0x3c3eb3f2	0.011639582
130	0x3c39f7ed	0.011350614
131	0x3d0e58ab	0.03475253
132	0xbc329bf8	-0.010901444
133	0xbce066c4	-0.027392752
134	0xbd66c481	-0.056339744
135	0xbdc00e4f	-0.09377729
136	0xbd580740	-0.05274129
137	0xbdc65bc1	-0.096854694
138	0xbda4f1d4	-0.080539376
139	0xbe00efab	-0.12591426
140	0xbe0d1087	-0.13775836
141	0xbe146ef1	-0.14495446
142	0xbe60b1e6	-0.21942863
143	0xbe69550d	-0.2278635
144	0xbe641894	-0.22275001
145	0xbe8491db	-0.2589253
146	0xbeb5e761	-0.3552809
147	0xbe53b555	-0.20674641
148	0xbec6678a	-0.3875087
149	0xbecd109d	-0.40051737
150	0xbef60ab7	-0.4805505
151	0xbecbdb38	-0.39815688
152	0xbecb9ab9	-0.39766482
153	0xbeb6ac16	-0.35678166
154	0xbea81bce	-0.32833713
155	0xbe782781	-0.2423382
156	0xbe6ff0a7	-0.23431645
157	0xbdbf7b36	-0.093496725
158	0xbd134cfb	-0.035962086
159	0xbd5bd4ef	-0.053669866
160	0xbdc2d4ac	-0.0951322
161	0xbdb793fe	-0.08963774
162	0xbdb98b16	-0.09059732
163	0xbccaf7f4	-0.024776436
164	0x3af29f3e	0.0018510593
165	0x3cd6eff6	0.02623747
166	0xbc8f0ec6	-0.0174631
167	0xbd932364	-0.071844846
168	0xbd969d0c	-0.07354173
169	0xbdc81e84	-0.097714454
170	0x3c701dd9	0.014655554
171	0xbcd9d0c2	-0.026588801
172	0xbdc61177	-0.096713
173	0xbe2d7c3f	-0.16941927
174	0xbe20ad0e	-0.15691015
175	0xbe3403e0	-0.17579603
176	0xbe58402a	-0.21118227
177	0xbe71e971	-0.23624207
178	0xbea0cf94	-0.3140837
179	0xbeadb83e	-0.33929628
180	0xbef30979	-0.47468165
181	0xbf0f6a61	-0.56021696
182	0xbefb4d34	-0.4908234
183	0xbea4de8d	-0.32201043
184	0xbeef9ce8	-0.46799397
185	0xbef7a758	-0.4836986
186	0xbed8e36f	-0.42361018
187	0xbee50015	-0.44726625
188	0xbe8eb2c3	-0.2787076
189	0xbe3221a6	-0.17395648
190	0xbe4c69e6	-0.19962272
191	0xbe718777	-0.23586832
192	0xbe052772	-0.13003328
193	0xbdd4046d	-0.10352407
194	0xbdab9892	-0.0837871
195	0xbd3c1e14	-0.045927122
196	0xbd15f58b	-0.03661112
197	0xbb74d610	-0.0037359037
198	0xbd2a4371	-0.041568223
199	0xbd479727	-0.048728134
200	0xbd89c15e	-0.06726335
201	0xbd362480	-0.044468403
202	0xbdd574a6	-0.104226395
203	0xbd9b21e1	-0.07574821
204	0xbd2d58ee	-0.042321138
205	0xbdf6df7f	-0.12054347
206	0xbe1e0a38	-0.15433586
207	0xbe6abe91	-0.22924258
208	0xbe5a2d6a	-0.21306387
209	0xbe4c3622	-0.19942525
210	0xbe813ad1	-0.25240186
211	0xbe9bc0b2	-0.30420452
212	0xbeb286f5	-0.3486859
213	0xbec95370	-0.3932147
214	0xbf0b3185	-0.54372436
215	0xbf013f52	-0.50487244
216	0xbee0e0da	-0.43921548
217	0xbef80c2a	-0.4844678
218	0xbeee3181	-0.46522143
219	0xbee9a319	-0.45632246
220	0xbeff99c4	-0.49922
221	0xbeef8c0f	-0.46786544
222	0xbe9e4a7e	-0.30916208
223	0xbe3ae459	-0.1825117
224	0xbe8c94b3	-0.27457199
225	0xbe4bfdb3	-0.19920997
226	0xbe66e5ea	-0.22548643
227	0xbe1e4f26	-0.1545988
228	0xbde99946	-0.11406188
229	0xbd102427	-0.035190728
230	0xbcf6822b	-0.030091366
231	0xbc34260d	-0.0109954
232	0x3cc83637	0.024439914
233	0xbcb580ea	-0.022156198
234	0xbd76f6e2	-0.06029404
235	0x3bf220dc	0.007389171
236	0xbddef470	-0.108864665
237	0xbdb528d9	-0.08845682
238	0xbe07a520	-0.13246584
239	0xbdf3c6f3	-0.11903181
240	0xbe0ae11d	-0.13562436
241	0xbe3f298b	-0.18668191
242	0xbe9d50d6	-0.30725735
243	0xbe7a3b6a	-0.24436727
244	0xbea0df33	-0.31420287
245	0xbee68994	-0.4502684
246	0xbea53148	-0.3226416
247	0xbee48ea1	-0.44640067
248	0xbf06c090	-0.5263758
249	0xbf09ab01	-0.53776556
250	0xbf15d754	-0.5853169
251	0xbf114266	-0.5674194
252	0xbee917bb	-0.45525917
253	0xbec20ebf	-0.37901875
254	0xbf0216a2	-0.50815785
255	0xbea94807	-0.33062765

conv.weight f4 [5, 1, 10, 10]
0	0x3e3fb817	0.18722568
1	0x3e3c389b	0.18380968
2	0x3e326f55	0.17425282
3	0x3e0b0fe0	0.13580275
4	0x3e1bcc02	0.15214542
5	0x3e726f38	0.23675239
6	0x3dcf0bdc	0.10109684
7	0x3b801da4	0.0039097834
8	0x3dcc5016	0.09976213
9	0xbd5e6b6b	-0.05430166
10	0x3dd9fc2d	0.10643802
11	0x3d97b1fc	0.07406995
12	0x3e215698	0.15755689
13	0x3e80c67a	0.25151426
14	0x3e26ef03	0.16302113
15	0x3d9cee71	0.076626666
16	0x3e200dab	0.15630214
17	0x3e09cf98	0.13458097
18	0x3ce4db9e	0.027936753
19	0x3c12921a	0.008945966
20	0x3e483009	0.19549574
21	0x3ddbca02	0.10731889
22	0x3dc13852	0.0943457
23	0x3e5b2331	0.21400143
24	0x3e6ba551	0.23012282
25	0x3e49ac4a	0.1969463
26	0x3d80cf04	0.06289485
27	0x3db915f6	0.09037392
28	0xbd072103	-0.032990467
29	0x3d9cc492	0.0765468
30	0x3e44f4d7	0.19234024
31	0x3e5b82d9	0.21436633
32	0x3e2b9f84	0.16760069
33	0x3e17c9e5	0.1482311
34	0x3e8cc0d9	0.2749088
35	0x3e552dc6	0.20818242
36	0x3e16a641	0.14711858
37	0x3e09e4b6	0.13466153
38	0xbaf223ed	-0.0018473841
39	0xbc14ff4c	-0.009094071
40	0x3e34e071	0.17663743
41	0x3e3e7ee6	0.18603095
42	0x3e147dbd	0.1450109
43	0x3e1338b5	0.14377101
44	0x3e04a8ba	0.12954989
45	0x3e87956d	0.2648119
46	0x3e6777cd	0.22604294
47	0x3d3967eb	0.04526512
48	0x3dde72d5	0.10861746
49	0xbb4e28bc	-0.0031457385
50	0x3d451315	0.0481139
51	0x3dcaae13	0.09896483
52	0x3e1ed99d	0.155127
53	0x3e094049	0.13403429
54	0x3dbc5c30	0.09197271
55	0x3d87e508	0.06635481
56	0x3e6cc4e4	0.23121983
57	0x3d95ff24	0.07324055
58	0x3ce19269	0.027535634
59	0x3c6a266a	0.014291385
60	0x3e31b67f	0.17354773
61	0x3d8756be	0.06608342
62	0x3dcf76af	0.10130059
63	0x3d910659	0.07081289
64	0x3e59d764	0.21273571
65	0x3d65d760	0.0561136
66	0x3e68c67e	0.22731969
67	0x3e033ba1	0.12815715
68	0x3d1a6bf4	0.03770061
69	0x3d3ffb26	0.046870373
70	0x3da62966	0.08113365
71	0x3e1b9782	0.15194514
72	0x3e282d53	0.1642354
73	0x3db4c54f	0.08826696
74	0x3df7cd07	0.12099653
75	0x3e467101	0.19379045
76	0x3d57b74b	0.052665036
77	0x3dd64dc4	0.10464051
78	0x3d07392b	0.033013504
79	0x3ddfd68e	0.10929595
80	0x3daed816	0.08537309
81	0x3e43354b	0.19063298
82	0x3e82b153	0.25525913
83	0x3e58c0f8	0.21167362
84	0x3e510592	0.20412281
85	0x3e09b317	0.13447224
86	0x3dc2890b	0.09498795
87	0x3d8c4a7e	0.06850146
88	0x3de536b3	0.11192074
89	0x3cbf7a1d	0.023373658
90	0x3db1a7bc	0.08674571
91	0x3e8e730d	0.27822152
92	0x3e58e256	0.2118009
93	0x3e80dac7	0.25166914
94	0x3dfab462	0.122414365
95	0x3d7cbee3	0.06170548
96	0x3df6955d	0.120402075
97	0x3e341a13	0.17588072
98	0x3e050a52	0.12992218
99	0x3e1179f0	0.14206672
100	0xbd63111e	-0.055436246
101	0x3cbe9ff7	0.023269637
102	0xbdaf5543	-0.08561184
103	0xba6e12a5	-0.0009081758
104	0xbcad8fb9	-0.021186696
105	0xbd8dbb5e	-0.06920503
106	0xbd180100	-0.03711033
107	0xbdc711c2	-0.09720184
108	0xbcfa968c	-0.030589364
109	0xbda7b24b	-0.081883036
110	0xbe231e0e	-0.15929434
111	0xbd82a735	-0.063795485
112	0xbdfe1679	-0.1240663
113	0xbe02688f	-0.12735198
114	0x3c0c67ff	0.0085697165
115	0xbd8d33ee	-0.068946704
116	0xbe1063e9	-0.14100613
117	0xbdb8291b	-0.08992215
118	0x3dbe7add	0.09300778
119	0x3cb8bf54	0.02255217
120	0xbd506dd3	-0.050885987
121	0xbd87fa90	-0.06639588
122	0xbdc50df1	-0.096218
123	0xbd9c0e88	-0.07619959
124	0xbde84fd6	-0.113433525
125	0xbd98c82e	-0.07460056
126	0xbd775160	-0.06038034
127	0xbcb6376c	-0.022243224
128	0xbd1778ca	-0.036980428
129	0xbdc48727	-0.09596091
130	0xbddbbf12	-0.10729803
131	0x3c59adeb	0.013286094
132	0xbd53dc07	-0.051723506
133	0xbe2522e9	-0.16126598
134	0xbdc6f173	-0.097140215
135	0x3cef619d	0.02922135
136	0x3ca15738	0.01969491
137	0xbd870008	-0.06591803
138	0xb99f9800	-0.00030440092
139	0x3d97cfe5	0.074126996
140	0xbe0d902b	-0.13824527
141	0xbc7ebf8b	-0.015548597
142	0xbca0018a	-0.019531984
143	0xbd811d26	-0.06304388
144	0xbcf3d6da	-0.029765535
145	0xbde1542e	-0.11002384
146	0x3c9db8d8	0.01925318
147	0x3be2ef50	0.006925501
148	0xbcf88f20	-0.030341685
149	0x3ba7da20	0.005122438
150	0xbd0a5f0f	-0.03378206
151	0xbd1b2d9d	-0.037885297
152	0xbc4c64f5	-0.012475242
153	0xbd90ffdc	-0.07080051
154	0xbd4de3df	-0.050266143
155	0xbe18ae6a	-0.14910284
156	0xbd01cf5e	-0.0316919
157	0xbdaa74de	-0.08323072
158	0x3b8e2f50	0.004339136
159	0xbd700903	-0.058602344
160	0xbdd73a07	-0.10509115
161	0xbd3cd265	-0.046099085
162	0x3c769a8d	0.015051496
163	0x3cd8abda	0.026449133
164	0xbda7c4a8	-0.08191806
165	0x3ad3ecc0	0.001616858
166	0xbc91c611	-0.01779464
167	0xbd1817c6	-0.037132047
168	0xbdbb30d4	-0.091401726
169	0xbd361cb7	-0.04446098
170	0xbe07b600	-0.13253021
171	0xbc4544be	-0.012040315
172	0xbc53f8ef	-0.012937768
173	0xbd8bc59b	-0.068247996
174	0xbd4f48c9	-0.050606523
175	0xbdc96a26	-0.09834699
176	0xbdd58063	-0.104248784
177	0xbe1d6c13	-0.15373258
178	0x3dc321fc	0.095279664
179	0xbd8ba560	-0.06818652
180	0xbde793c9	-0.11307485
181	0xbe1c7014	-0.1527713
182	0x3c0b71e9	0.008511045
183	0xbe17959e	-0.14803168
184	0xbe1906a7	-0.14943944
185	0x3c9622f1	0.018327208
186	0xbe1b58f9	-0.15170659
187	0xbcfca9b4	-0.03084264
188	0x3d0d9f68	0.03457585
189	0xbdc8e607	-0.09809499
190	0xbd57cc53	-0.052685093
191	0xbd6c3fae	-0.057677917
192	0xbdbab949	-0.091173716
193	0xbdd1088f	-0.102067105
194	0xbe0785f8	-0.13234699
195	0xbd1852a9	-0.037188206
196	0xbdd87821	-0.10569788
197	0xbc1659e5	-0.009176706
198	0xbd77de2d	-0.060514618
199	0x3b828102	0.003982664
200	0x3d44aa26	0.04801383
201	0xbd84a8e1	-0.064775236
202	0xbe0087ca	-0.125518
203	0xbcaac7b2	-0.020847175
204	0x3aac46cf	0.0013143661
205	0xbd41d68e	-0.047323756
206	0xbd54439e	-0.051822297
207	0xbd2c3612	-0.042043753
208	0x3d8ba3cd	0.06818352
209	0x3de1f5f9	0.11033244
210	0xbdae1247	-0.0849958
211	0xbbf1601a	-0.0073661925
212	0xbddb3002	-0.10702516
213	0x3cbee0f9	0.023300635
214	0xbe2593b6	-0.16169629
215	0xbd77815f	-0.060426112
216	0xbdf641d6	-0.12024276
217	0xbe342deb	-0.17595641
218	0xbda75961	-0.081713445
219	0xbdeda473	-0.11603632
220	0x3cc3a628	0.02388294
221	0xbda2fff3	-0.07958975
222	0xbd9e45eb	-0.077281795
223	0x3c62508d	0.01381315
224	0xbd6d28ad	-0.05790012
225	0xbdc59bc3	-0.0964885
226	0xbdfd439e	-0.123664126
227	0xbd1a7b77	-0.0377154
228	0x3c55ac49	0.013041564
229	0xbe148b71	-0.14506318
230	0xbc1047f0	-0.008806214
231	0x3c89d93a	0.016827215
232	0xbdd2b87e	-0.10289095
233	0x3c9ec291	0.019379886
234	0x3b2bf62b	0.0026239257
235	0x3ac1025a	0.0014725432
236	0xbdef21dd	-0.11676381
237	0x3bab1a08	0.005221609
238	0xbd9e5873	-0.07731714
239	0xbe1940b7	-0.14966093
240	0x3d46cd36	0.04853555
241	0x3d01cc82	0.031689174
242	0xbc01ae99	-0.0079151625
243	0xbdcb6ccd	-0.099328615
244	0xbdeba584	-0.11506179
245	0xbd7aefac	-0.061263725
246	0xbcd90246	-0.026490342
247	0xbdf3a76a	-0.11897166
248	0xbe07eca7	-0.1327387
249	0xbbb0b683	-0.005392851
250	0xbb8b3b85	-0.0042490386
251	0xbdb1163f	-0.08646821
252	0xbdb0fd3f	-0.08642053
253	0xbe116bed	-0.14201327
254	0x3b08c417	0.0020868832
255	0x3bebeef4	0.0072001163

conv.bias f4 [5]
0	0x3e095fc3	0.13415436
1	0xbe2de5a6	-0.16982135
2	0x3d96dba4	0.07366112
3	0xbd3526db	-0.04422651
4	0x3e020382	0.1269665

fc1.weight f4 [64, 180]
0	0x3d129556	0.03578695
1	0xbb8c4480	-0.004280627
2	0x3cfa83a0	0.030580342
3	0x3d8243b1	0.06360567
4	0x3ce817f0	0.028331727
5	0x3cfa86d4	0.03058187
6	0xbd2f745d	-0.042835582
7	0x3d5aad9a	0.053388216
8	0xbcd33c24	-0.025785513
9	0xbd87e466	-0.066353604
10	0x3d166dfe	0.03672599
11	0xbd8fb226	-0.07016401
12	0x3d89d1d1	0.067294724
13	0x3d0cadc2	0.034345396
14	0xbd6560a0	-0.056000352
15	0x3d38a11c	0.04507552
16	0x3cb30024	0.021850653
17	0xbc170348	-0.009217091
18	0xba5f7680	-0.0008524433
19	0x3aaf7b80	0.0013388246
20	0x3b3103c0	0.0027010292
21	0xbd44720c	-0.047960326
22	0xbd54c6f4	-0.05194755
23	0x3b0495e0	0.0020230934
24	0x3c8f5f24	0.017501421
25	0xbd26a759	-0.04068694
26	0xbcb7ef1e	-0.022452887
27	0xbd46b511	-0.048512522
28	0xbc5dbba0	-0.013533503
29	0x3d8ba15d	0.06817887
30	0x3d42dfb2	0.047576614
31	0x3d67ea5a	0.05661998
32	0x3d320de2	0.04347027
33	0x3d4ee4d2	0.05051119
34	0xbd9720d1	-0.07379306
35	0xbd0172fc	-0.0316038
36	0x3d04f650	0.032461464
37	0x3ce2d90c	0.027691387
38	0xbcd68486	-0.026186239
39	0x3d8d5995	0.06901852
40	0xbacebcc0	-0.0015772805
41	0x3c19a468	0.009377576
42	0xbd7ef5c1	-0.062246088
43	0xbc0e4858	-0.00868424
44	0x3d399548	0.04530838
45	0x3d638776	0.055549107
46	0xbd6da554	-0.058018997
47	0xbcb742cc	-0.022370718
48	0x3d951df7	0.07281106
49	0xbd416ae8	-0.047221094
50	0x3d0b4e8e	0.034010462
51	0xbd936543	-0.071970485
52	0x3d53f936	0.051751338
53	0xbc8f66d6	-0.01750509
54	0xbbdbb9a0	-0.006705478
55	0x3d6c8bfa	0.05775068
56	0x3a287580	0.00064262
57	0xbc9fd540	-0.019510865
58	0xbc6b1ccc	-0.014350127
59	0x3d951671	0.07279671
60	0xbd8a689d	-0.06758235
61	0x3cd07bfc	0.025449745
62	0xbcc494e4	-0.023996778
63	0xbcf5aaec	-0.029988728
64	0x3d7a293a	0.061074473
65	0xbcfb7be6	-0.030698728
66	0xbd4d8f88	-0.05018571
67	0xbbf43ea0	-0.0074537545
68	0xbc893716	-0.0167499
69	0xbc6113a4	-0.013737593
70	0x3c3453e0	0.0110063255
71	0x3d745096	0.059647165
72	0xbc0b25e0	-0.008492917
73	0xba3b5200	-0.0007145703
74	0xbd3c101c	-0.0459138
75	0x3d4663d0	0.048435032
76	0xbb1eb160	-0.002421461
77	0x3d1eadd8	0.03874001
78	0xbc88b848	-0.016689435
79	0xbd2b6d53	-0.041852307
80	0x3c244b98	0.010027789
81	0xbcc300c8	-0.023804083
82	0xbd3c9caa	-0.046047844
83	0x3ba54c50	0.0050444975
84	0x3bf50930	0.007477902
85	0xbd5f6964	-0.054543868
86	0xbd74c424	-0.059757367
87	0xbd801e7a	-0.06255813
88	0xbd9673c7	-0.073463015
89	0x3d078b8a	0.03309206
90	0x3d7939b2	0.06084604
91	0xbce20d1a	-0.027594138
92	0x3c008828	0.007844962
93	0xbd6c526e	-0.0576958
94	0x3d15ff86	0.03662064
95	0x3c29a7a0	0.010354906
96	0xbd3042e7	-0.043032553
97	0x3cd312e8	0.025765851
98	0x3d88b30d	0.06674776
99	0xbd317dee	-0.043332987
100	0x3c0c8a38	0.008577876
101	0x3c4347f8	0.011919014
102	0xbb861630	-0.0040920004
103	0xbbe22f90	-0.0069026425
104	0xbcbb8c3c	-0.022894017
105	0x3d8e9e29	0.069637604
106	0xbc85339c	-0.01625996
107	0x3d8b98bb	0.068162404
108	0x3d1ac320	0.037783742
109	0xbca862de	-0.020554956
110	0xbd1ca283	-0.03824092
111	0x3d38002c	0.04492204
112	0xbd60bb52	-0.054866143
113	0xbd79ac2b	-0.060955208
114	0x3d1961e0	0.037446856
115	0xbce2e5da	-0.027697492
116	0x3d054630	0.03253764
117	0x3cb4fed8	0.022094175
118	0xbd451234	-0.048113063
119	0xbcfd2c8c	-0.03090503
120	0x3d48da52	0.04903633
121	0x3d7cd8d2	0.061730213
122	0xbd897198	-0.067111194
123	0x3cba063c	0.02270805
124	0x3ca4edd4	0.020132937
125	0x3d192d9e	0.03739702
126	0x3c3d17d8	0.011541329
127	0x3c18eb70	0.009333476
128	0xbd8b682a	-0.06806977
129	0x3cc3a75c	0.023883514
130	0xbd879e4c	-0.066219896
131	0xbd6dae75	-0.058027703
132	0xbc2b2fe8	-0.010448433
133	0x3d6a9d0e	0.057278685
134	0xbd22d2e4	-0.039751902
135	0xbd87ca78	-0.06630415
136	0x3bb8fab0	0.0056451187
137	0x3cb20698	0.02173166
138	0xbd2cff6f	-0.042235788
139	0xbd1c2d13	-0.038128924
140	0x3d3167da	0.04331193
141	0x3c7e01b8	0.0155033395
142	0x3d69209a	0.056915857
143	0xbbb3f230	-0.0054915175
144	0x3cba80e0	0.02276653
145	0xbcd2a356	-0.02571265
146	0xbd92eed9	-0.07174463
147	0xbd74f16a	-0.059800543
148	0x3d22cb9c	0.03974496
149	0xbc61d49c	-0.0137836
150	0xbd8ae4de	-0.06781934
151	0x3c7f5038	0.0155830905
152	0x3c651ca0	0.0139838755
153	0xbcb1da80	-0.021710634
154	0xbd5203e4	-0.05127324
155	0xbd55bb5b	-0.05218063
156	0x3cf0bbd4	0.029386438
157	0x3d20b27e	0.039232723
158	0x3d6d69aa	0.057962097
159	0x3d1cea2e	0.03830927
160	0x3d0d495e	0.034493797
161	0xbcfbe79c	-0.030750088
162	0xbd3f63d2	-0.046726055
163	0xbcf69016	-0.030098002
164	0x3c9f1d54	0.019423164
165	0x3d49d8ce	0.049279027
166	0x3cb4d670	0.022074908
167	0x3d7c82da	0.061648227
168	0xbd0371c5	-0.03209092
169	0x3d08c33c	0.033389315
170	0xbd046905	-0.032326717
171	0xbcbef58e	-0.023310449
172	0xbd8754f8	-0.066080034
173	0xbd5f8414	-0.05456932
174	0x3d36375a	0.04448638
175	0x3d2d60ce	0.04232865
176	0xbcc72e9c	-0.024314217
177	0xbd86c388	-0.065802634
178	0xbae07d00	-0.0017127097
179	0x3d0b3fc0	0.033996344
180	0xbcdcb32d	-0.026940906
181	0xbdc4955c	-0.095988005
182	0xbddbb5df	-0.107280485
183	0x3ca2551a	0.01981597
184	0xbd5491d8	-0.0518969
185	0x3ca4c01a	0.020111132
186	0xbd1757cd	-0.036948968
187	0xbd49fce1	-0.04931343
188	0xbd953690	-0.072857976
189	0x3c4fa75c	0.012674179
190	0xbd1b99ea	-0.03798858
191	0xbcb0a1fc	-0.021561615
192	0xbddccd59	-0.107813545
193	0xbe00288e	-0.1251547
194	0xbbffcc10	-0.0078063086
195	0xbd3f93cc	-0.04677181
196	0xbd051de0	-0.032499194
197	0xbddc61c4	-0.10760835
198	0xbda3e323	-0.08002307
199	0xbd02bb56	-0.03191694
200	0xbd910c43	-0.07082417
201	0x3c471b39	0.0121524865
202	0xbd62ed58	-0.05540213
203	0xbdb81bc6	-0.08989672
204	0xbdab3ccb	-0.08361205
205	0xbda51314	-0.080602795
206	0xbd673e63	-0.05645598
207	0x3c96276b	0.018329343
208	0xbdb3e111	-0.087831624
209	0xbc37a8ef	-0.0112097105
210	0xbcc09f9d	-0.02351361
211	0xbdc7a6d4	-0.09748617
212	0xbc427090	-0.011867657
213	0xbd2e82eb	-0.04260532
214	0xbcc25d62	-0.023726169
215	0xbd2edc2d	-0.042690445
216	0x3d76214a	0.06009034
217	0xbcc8f312	-0.024529967
218	0x39806400	0.00024488568
219	0xbd76bda0	-0.060239434
220	0x3d00c2a4	0.031435624
221	0x3d96303d	0.073334195
222	0xbd43f94c	-0.04784517
223	0xbc7240c8	-0.014785953
224	0xbd9021c0	-0.07037687
225	0xbd603713	-0.054740023
226	0x3c802c4c	0.015646122
227	0xbd55f6bc	-0.052237257
228	0xbd663b34	-0.056208804
229	0xbc81e6ca	-0.01585712
230	0xbdac38df	-0.08409285
231	0xbd82cc98	-0.063866794
232	0x3c68b380	0.014202952
233	0x3d0eb940	0.034844637
234	0x3ca4a034	0.020095922
235	0xbb83a1f0	-0.004017107
236	0x3c9b1658	0.018931553
237	0x3cb7c6e0	0.022433698
238	0xbd43fdf7	-0.04784962
239	0x3d5e66e2	0.054297335
240	0xbd854539	-0.06507344
241	0x3d3e4ad0	0.046458066
242	0x3d8bd561	0.06827808
243	0xbd2eef67	-0.04270878
244	0x3ccfb4f0	0.025354832
245	0xbd8a42ff	-0.0675106
246	0x3cd844e0	0.02640003
247	0x3cdd259c	0.026995473
248	0xbd7d1990	-0.061791956
249	0x3a1e4f00	0.00060389936
250	0xbd752500	-0.05984974
251	0xbd7f8e1b	-0.06239138
252	0xbd9a764a	-0.07542093
253	0xbd2c1f7d	-0.042022217
254	0xbdee0527	-0.116220765
255	0xbd9fc7cb	-0.07801779

fc1.bias f4 [64]
0	0xbd94f0fb	-0.07272526
1	0xbcd95a3b	-0.026532283
2	0xbda52144	-0.080629855
3	0x3dadf757	0.08494442
4	0xbd860321	-0.065435655
5	0xbd0d3878	-0.03447768
6	0xbd3d1014	-0.04615791
7	0xbd56d14a	-0.052445687
8	0xbdc6f63e	-0.09714936
9	0x3decca9d	0.11562083
10	0xbd2e36da	-0.04253278
11	0x3d2e7ff7	0.042602506
12	0xbdb124e1	-0.08649612
13	0x3ba83f32	0.0051344866
14	0xbd88e393	-0.06684031
15	0x3c3efddc	0.0116572045
16	0xbdc662a2	-0.096867815
17	0xbdbf66d3	-0.09345784
18	0x3dd45e43	0.103695415
19	0xbde66853	-0.11250367
20	0x3e22d72d	0.15902396
21	0xbd2a54d7	-0.041584816
22	0xbe0116dd	-0.12606378
23	0xbd8066df	-0.06269621
24	0xbdc4be63	-0.09606626
25	0xbbeccf8f	-0.0072268914
26	0x3c677e11	0.014129178
27	0x3c93b59c	0.018030934
28	0xbe0a0d48	-0.13481629
29	0x3cb29e8e	0.02180412
30	0xbdd27d21	-0.10277773
31	0xbd08f108	-0.03343299
32	0x3ceb5a60	0.028729618
33	0xbdb0a6fe	-0.08625601
34	0xbde6a3e7	-0.11261731
35	0xbd1bf258	-0.038072914
36	0xbd8dfcf7	-0.06933015
37	0xbce86d06	-0.028372299
38	0xbd936561	-0.07197071
39	0x3df1ae9b	0.118008815
40	0xbdc85a78	-0.097828805
41	0xbc515234	-0.012775946
42	0x3ea68353	0.32522067
43	0xbde40e33	-0.11135521
44	0xbdc41279	-0.09573836
45	0xbd1a8d4e	-0.037732415
46	0xbd54cf50	-0.05195552
47	0xbcf914a6	-0.030405354
48	0x3c58a03f	0.013221799
49	0xbc17dd7c	-0.009269115
50	0xbde508c8	-0.111833155
51	0xbd65edbd	-0.056134928
52	0x3d033e83	0.032042038
53	0xbd0f1e7f	-0.034941193
54	0xbde509de	-0.11183523
55	0xbb277102	-0.0025549536
56	0xbd48ecc3	-0.04905392
57	0x3dcb252f	0.099192016
58	0x3de90e95	0.113797344
59	0xbdb8322f	-0.08993947
60	0x3d8e408b	0.06945904
61	0xbd2f5bc5	-0.042812128
62	0xbd1e67e5	-0.0386733
63	0xbd53d4fc	-0.05171679

fc2.weight f4 [4, 64]
0	0x3dfed39e	0.124427065
1	0x3d673101	0.05644322
2	0x3de840bf	0.11340474
3	0xbc74c33b	-0.014939125
4	0xbbfa5bc0	-0.007640332
5	0xbd32a83c	-0.043617472
6	0x3c476555	0.0121701555
7	0x3d8b7238	0.06808895
8	0x3a0d4909	0.0005389606
9	0x3f23c185	0.6396716
10	0x3df57dea	0.11986907
11	0xbe0fe66e	-0.14052746
12	0xbc94587d	-0.0181086
13	0x3c91eb92	0.017812524
14	0xbd142850	-0.036171257
15	0x3e100894	0.14065772
16	0x3d9ade22	0.075619
17	0x3c3b5569	0.011433938
18	0x3c8bbcdc	0.017057829
19	0x3e149642	0.14510444
20	0x3f0cfcc0	0.55073166
21	0x3d2814d3	0.041035485
22	0xbc3efe7a	-0.011657352
23	0x3d7c3c5e	0.061581008
24	0x3d6169b3	0.055032443
25	0x3d86803f	0.0656743
26	0x3c5a50ac	0.013324898
27	0x3f1e2184	0.6176989
28	0x3cc905e0	0.024538934
29	0x3b8d5ea7	0.004314262
30	0xbad0b20e	-0.0015922205
31	0x3dde5569	0.108561344
32	0xbd952a38	-0.07283443
33	0x3b35438c	0.002765867
34	0x3dae1a8f	0.085011594
35	0x3ceadc2c	0.02866944
36	0x3bd94e67	0.0066316607
37	0x3dc71c65	0.09722213
38	0xbd2f4147	-0.042786863
39	0x3f276fba	0.65404856
40	0xbb8710c0	-0.00412187
41	0x3ebbc5da	0.36674386
42	0x3f440694	0.7657254
43	0x3e0a0c2c	0.13481206
44	0x3ebf768d	0.37395135
45	0xbd10de94	-0.035368517
46	0x3e52ada2	0.20574048
47	0xbd9a6a08	-0.07539755
48	0x3f0eb9e8	0.5575242
49	0x3e554680	0.20827675
50	0x3b001487	0.0019543485
51	0x3d1acc01	0.03779221
52	0x3d942647	0.07233863
53	0x3d019c14	0.03164299
54	0x3d9b273f	0.07575845
55	0x3db2de56	0.087338135
56	0x3e0833f0	0.13301063
57	0x3f35a981	0.7096177
58	0x3f370751	0.7149554
59	0x3c068494	0.00821032
60	0xbd96a6be	-0.07356022
61	0x3d071463	0.032978427
62	0x3db24808	0.08705145
63	0xbcecdab0	-0.028912872
64	0x3c0d5d20	0.00862816
65	0xbd19df74	-0.037566617
66	0xbd0e9c58	-0.03481707
67	0xbd712ff9	-0.05888364
68	0x3da9b410	0.08286297
69	0x3d4e89a4	0.050424233
70	0x3c523fcc	0.012832593
71	0xbd779598	-0.060445398
72	0xbc334517	-0.010941765
73	0xbed4f40f	-0.41592452
74	0x3cc05a22	0.023480479
75	0xbd4dd219	-0.050249193
76	0xbe3c7bf7	-0.18406664
77	0xbdfe78f1	-0.124254115
78	0xbd86b03a	-0.06576581
79	0xbb890505	-0.0041815066
80	0x3c93af4a	0.01802792
81	0xbe320777	-0.1738566
82	0xbdcf3b9d	-0.10118792
83	0xbc9e1795	-0.019298354
84	0xbeb73f2d	-0.35790387
85	0x3d03930b	0.032122653
86	0xbda43771	-0.08018387
87	0xbe0dea2c	-0.1385886
88	0xbe11b79a	-0.14230195
89	0xbdea5a43	-0.11442997
90	0x3d66ad2c	0.056317493
91	0xbecd8627	-0.40141413
92	0xbdacb820	-0.084335566
93	0xbd3529d8	-0.04422936
94	0x3d3d4e0e	0.046217017
95	0xbe3deb74	-0.1854685
96	0xbd898e6c	-0.06716618
97	0xbb93db97	-0.004512261
98	0xbd25f123	-0.04051317
99	0xbdcc46f0	-0.09974468
100	0xbc0c7a2c	-0.00857405
101	0xbdf9ad35	-0.1219124
102	0xbd0e2d4b	-0.034711163
103	0xbed9be9c	-0.42528236
104	0xbcde64b1	-0.027147623
105	0xbeaa9f85	-0.3332483
106	0xbefe7d0b	-0.49704775
107	0xbd304347	-0.04303291
108	0x3e958dcb	0.29209742
109	0xbdebc38e	-0.115119085
110	0xbcce7530	-0.025202364
111	0x3d50ba30	0.050958812
112	0xbebc6970	-0.36799192
113	0xbd044f33	-0.032302093
114	0x3d0f5d99	0.03500137
115	0xbdcc64ae	-0.099801406
116	0xbd7db1a8	-0.061937004
117	0xbca0f2e8	-0.019647077
118	0xbcc4cfba	-0.024024833
119	0x3d684848	0.056709558
120	0xbd04293d	-0.03226589
121	0xbeec56ad	-0.46159878
122	0xbeedffec	-0.46484315
123	0x3c8b8ff1	0.01703641
124	0x3c96ada8	0.018393353
125	0x3d517d40	0.05114484
126	0x3dc61282	0.09671499
127	0x3dae8858	0.08522099
128	0x3deaa3e6	0.114570424
129	0xbe009705	-0.1255761
130	0xbc24d858	-0.010061346
131	0x3d4c771f	0.04991829
132	0xbddd2fb4	-0.10800114
133	0xbd762430	-0.060093105
134	0xbd958570	-0.07300842
135	0x3dc8ca06	0.09804158
136	0xbdb05b7d	-0.086112
137	0x3e070877	0.13186823
138	0xbd4a57e9	-0.049400244
139	0xbd07ccd9	-0.033154342
140	0x3d29fa92	0.041498728
141	0xbd984c8e	-0.07436477
142	0x3d66f868	0.056389242
143	0xbdc0dfe0	-0.09417701
144	0xbd2921b2	-0.0412919
145	0xbbe36c47	-0.006940398
146	0xbda6ace3	-0.08138444
147	0xbd16d8ad	-0.036827732
148	0x3de82782	0.113356605
149	0x3b02586c	0.001988913
150	0xbba2ff3a	-0.004974273
151	0xbe106264	-0.14100033
152	0x3d4f3c1c	0.050594434
153	0xbc6ed5cd	-0.014577341
154	0xbdbc8bbc	-0.0920634
155	0x3e02257d	0.12709613
156	0xbb872e13	-0.0041253655
157	0x3cc41f20	0.023940623
158	0xbe1f82ad	-0.15577193
159	0xbbe93ae1	-0.0071176146
160	0xbd9634a8	-0.07334262
161	0xbba39faf	-0.004993401
162	0x3c45f8d8	0.012083255
163	0xbe2658f9	-0.16244878
164	0xbd923535	-0.07139055
165	0xba48dd32	-0.0007662355
166	0x3d19986f	0.037498888
167	0x3e0a1395	0.13484032
168	0xbc72507d	-0.014789698
169	0x3dabd2ec	0.083898395
170	0x3e209df4	0.15685254
171	0x3d4af02d	0.049545456
172	0x3eaf5fd6	0.34252805
173	0xbdfff0b8	-0.12497085
174	0x3d48a06c	0.048981115
175	0x3d947a68	0.0724991
176	0x3df7f8e6	0.121080205
177	0xbd214032	-0.039367862
178	0x3c47a765	0.012185906
179	0x3b8c9d0b	0.004291182
180	0xbd1ff1ff	-0.039049145
181	0x3dc89796	0.09794538
182	0xbda8750f	-0.08225452
183	0xbd96bfe3	-0.07360818
184	0xbe2c2f4f	-0.16814922
185	0x3e1602f8	0.1464957
186	0x3e16e072	0.14734057
187	0x3d2a3bd5	0.041560967
188	0x3de4b57c	0.11167428
189	0xbdc5abcf	-0.096519105
190	0x3ddd045e	0.107918486
191	0x3d88f7e4	0.066879064
192	0xbde709a4	-0.11281136
193	0x3d6ff2e1	0.058581237
194	0x3c779276	0.015110603
195	0x3d531260	0.051531196
196	0xbd384cb4	-0.044995025
197	0xbcef4668	-0.029208377
198	0x3d105ad0	0.035242856
199	0xbdbe12a8	-0.09280902
200	0x3d5e9753	0.054343533
201	0xbdc27c3e	-0.094963536
202	0xbd2a7014	-0.041610792
203	0x3e22a84f	0.15884517
204	0xbc13c43f	-0.009018957
205	0x3c6864a9	0.0141841555
206	0xbdfab166	-0.12240867
207	0x3cd90f5c	0.026496582
208	0x3d46885f	0.048469897
209	0xbdf734e8	-0.12070638
210	0x3ca7b665	0.020472715
211	0xbcd003a3	-0.02539236
212	0xbda7fbce	-0.08202325
213	0x3ccd4b85	0.025060425
214	0x3d3e466e	0.046453886
215	0xbd77dd9a	-0.06051407
216	0x3d6d1ecf	0.05789071
217	0xbd35bd3e	-0.04436993
218	0x3dfd7900	0.123765945
219	0xbdbc5fc6	-0.09197955
220	0x3bf2cc36	0.0074095977
221	0xbd06a377	-0.032870736
222	0xbccaf504	-0.024775036
223	0x3d4e9182	0.050431736
224	0x3c8755b0	0.016520351
225	0x3d1691ac	0.036760017
226	0x3d816177	0.06317418
227	0x3c833aca	0.016019244
228	0x3d27d190	0.04097134
229	0xbc206b7e	-0.009791253
230	0xbc93f2c6	-0.0180601
231	0xbdc6d48a	-0.09708507
232	0xbe2ccf32	-0.16875914
233	0xbdac3cbf	-0.08410024
234	0xbdeadf7b	-0.11468407
235	0xbc9ee4a7	-0.01939614
236	0x3ebe96ad	0.37224331
237	0x3d165da8	0.03671041
238	0x3d562dc1	0.052289728
239	0x3cad38a0	0.021145165
240	0xbd9b3b08	-0.07579619
241	0x3d52db8a	0.0514789
242	0x3d510a08	0.051034957
243	0xbda1e28a	-0.07904537
244	0x3e0736bf	0.13204478
245	0xba32f200	-0.0006826222
246	0xbb6aa7d3	-0.0035805597
247	0x3da2f6fb	0.07957264
248	0x3ca44dc6	0.020056617
249	0xbdd742fb	-0.105108224
250	0xbdd96f2a	-0.10616906
251	0xbd4c7676	-0.04991766
252	0x3b969f80	0.0045966506
253	0x3d90008a	0.07031353
254	0xbd57d354	-0.052691773
255	0xbd6b4c38	-0.057445735

fc2.bias f4 [4]
0	0x3eb86ce7	0.36020586
1	0xbe46afb0	-0.19402957
2	0x3d03f08f	0.032211836
3	0xbdd4e49a	-0.10395165
