src/flatland/flat_game/results/ourmethod_reg6/rep_learner.pth (torch_old, 312910 bytes, 33 tensors)

representations f4 [6]
00000000: e0fd 66b9 4e80 343c 3ec3 2d3c f3e4 563b
00000010: 4df4 9e3b 9f53 a33f
-0.00022029085 0.011016918 0.010605631 0.0032790273 0.0048509003 1.2759894

representations f4 [6]
00000000: a35d 8aba a643 12bc 02ca 593c d000 533c
00000010: 4032 1f3a 2750 a2bf
-0.001055647 -0.008927261 0.013292791 0.012878612 0.00060728565 -1.268071

representations f4 [6]
00000000: fdb2 a23f 1e68 a03a 6caf 063a 021e 023c
00000010: 2327 af3b 993e a4bb
1.2710873 0.0012238061 0.0005137834 0.007941725 0.0053452416 -0.005012345

representations f4 [6]
00000000: 105f a1bf 3002 7e3a c145 03bc a176 803b
00000010: a31b 7f3b ac9e ccb9
-1.2607136 0.0009689657 -0.008012236 0.0039203917 0.0038926385 -0.00039028132

fc1.weight f4 [64, 4]
00000000: 3824 9bbd f41c 383e 00a3 b33d 90d7 c5bd
00000010: b975 6d3f a2b4 2c3f 5f84 74bf 118f 353f
00000020: 8ff5 6abf 17ed 48bf 9d48 0440 cbad 2e3e
00000030: 65cc 913e c0f4 d13f f71f 903f f85b 17c0
00000040: 2329 98bd ccde 1a3e d065 b73e f63a 3b3e
00000050: ee4d f13e aaab 7ebe 1d1d d83e f2ac 6bbd
00000060: 55c7 9cbf e155 a7bf ca2e a63f ea07 d13f
00000070: b85b 1fbe 2c93 123e 80c3 2d3d b05e 0cbe
00000080: 5d0b e33f 1cd9 913f 86c0 aa3f 944a b1bd
00000090: 7ee4 e13e 3c7a c8bf e552 c5bc b641 1ebe
000000a0: 444f c5be 6f5d a83e a3a0 f73f 8003 c1bf
000000b0: 4cd3 92bf 34f2 2fbf 246c 1840 10ee 1440
000000c0: 9e8c 763f e659 2a40 1923 253e 4e5a 49be
000000d0: 9af1 00bf b87d a9bf 8559 9ebf 0257 813f
000000e0: 050c 833f 37de d63f 1c44 c2bf 022e af3f
000000f0: 9ad9 853e c890 9b3e 00bf 603c d41c 1d3e
00000100: fa75 a0bd 63d5 81bf aa19 483e b85b 0e3f
00000110: a7a6 4bbf 36cd 76bf 3fbe 323f 86fb fd3e
00000120: 8241 ebbf 3de2 203f 7711 7d3f 3145 883f
00000130: 7cc7 123f 5932 d2bf c555 c0bf 35fe 913f
00000140: 55be 00bf 7486 b9be 2920 5e3f 33b8 5fbf
00000150: b9c7 edbe f7c3 7a3f a7dc 40bf 14a4 253f
00000160: 62fd f3be b551 ef3f 0d6b e03f 70ff 5fbd
00000170: 20e5 463e 4b72 4ebf dcb5 9abe 4736 703f
00000180: 44c2 2940 596e b1bf 391f 0ebf f5e9 a5be
00000190: f9dc b6be 406f 8ebe 0639 52c0 0af8 ccbd
000001a0: 41b7 1140 46c9 7f3b 8824 d5bc 4268 4dbf
000001b0: 944a 14bf e698 69bf cc04 2f3e f16a 383f
000001c0: 1c27 dcbf ec44 483e b9a5 bc3f 75f5 86bf
000001d0: 0d62 38bf a4fd e6bf 5df4 bcbf c46b 93bf
000001e0: dc85 31be 87ce 0240 6e36 923f 22b7 1d40
000001f0: 2019 7b3d 0c75 1ebe a025 6b3e 8049 c03b
00000200: e5d2 c93f 6acb 09c0 2004 c8be 9cd6 f5bf
00000210: 26d8 a5bc 18bc f23f c364 86bf d384 26bd
00000220: b6da 2c3e 6c18 8cbd 6305 fbbf 6cc6 b4bf
00000230: 35dc 03bf 8ab1 d73f 3161 1bbe 09d2 2dbd
00000240: 6b73 203f 24d0 0640 5071 c0bf 537d 453f
00000250: 1efa fe3c d14c cdbd 33ae 8b3e 6096 acbd
00000260: 4416 c33f 000a cabf f3e6 1440 55a4 a23f
00000270: 137b 0e3f 658a f1bf 5917 2c3f 2d68 e83f
00000280: 77d7 793f 9e1f 03c0 118b d13f 810d 1ebf
00000290: 2664 d73f e51d 433f c2c9 33c0 1e01 76bf
000002a0: 6011 4ebd e571 f83d d310 81be fa92 153d
000002b0: cfec 8bbf 811d 14bf 01f6 0dbf ad04 c73a
000002c0: ed16 793f 6753 0c40 2feb 2340 0691 26bd
000002d0: 092e f6bf 1951 493f 3945 e0bf dc2e bb3f
000002e0: 0894 37be 689b 33be 2487 383e e0c1 5ebe
000002f0: 9d3b f4bf ba8e 533e 89dc ccbe bddf 8ebf
00000300: e639 0740 0dda fc3f 48fa 24bf 00b4 42bf
00000310: 0bdc 86bf b83d 243e dc2a 303f 546b ae3f
00000320: a8ff e83f 2af4 b63e f29c bd3f d804 fd3e
00000330: 96f5 90bf ab29 12bf e9be 14bf 61d6 e13c
00000340: 5d5c 813f a170 633f 7e1e 7f3d 5706 883f
00000350: 0bb4 d03f f24b 96bf b18c 14bf 40d1 f03f
00000360: 4993 26be a3b8 5abc 2b68 853e 8a4a 76bc
00000370: 1fa7 bfbc ff38 0c3d 900d 1d40 46d6 f2bf
00000380: bbd1 74bf 7a1b ddbd 2b84 d0be 6b3b 933f
00000390: 0975 34bf 4156 a6bf fcc0 bd3e b00b 44c0
000003a0: 538c f7bf fdad 31bf 49a6 a83f 3b6c 7ebf
000003b0: 7473 a03f 2add 8dbf dcb0 1ec0 3939 09be
000003c0: faf0 afbf 5ea7 123f 612a 9fbf 23c0 cabc
000003d0: 8eeb 66bd 5ffe 6ebc 22db 41bf a9bb 163e
000003e0: 02b5 d8be 8130 cf3e 1072 223c 1463 43c0
000003f0: 3174 503f cacb 3cbe 3840 cf3f 4ab8 71bf
-0.075752676 0.17979795 0.08771324 -0.09660256 0.92757756 0.67463124 -0.9551448 0.70921427
-0.9178094 -0.7848677 2.066932 0.17058484 0.28476253 1.6402817 1.1259755 -2.3649883
-0.07429721 0.15124053 0.35819864 0.1828421 0.47129768 -0.24870172 0.42209712 -0.05753798
-1.2248331 -1.3073083 1.2983029 1.633054 -0.15562332 0.14313954 0.04242277 -0.13707995
1.7737843 1.1394382 1.3340003 -0.08656803 0.44119638 -1.5662303 -0.024087379 -0.15454754
-0.38537037 0.32883784 1.9345897 -1.5079193 -1.1470733 -0.6872895 2.3816004 2.3270302
0.96308315 2.661737 0.1612667 -0.19663355 -0.50368655 -1.3241491 -1.2371069 1.0104678
1.0238043 1.6786565 -1.5177035 1.3685915 0.2614258 0.30383897 0.013717413 0.15343028
-0.07835002 -1.0143245 0.1954104 0.556087 -0.79551166 -0.9640688 0.6982154 0.4960596
-1.8379366 0.6284521 0.98854774 1.0646116 0.5733564 -1.6421615 -1.5026175 1.1405703
-0.50290424 -0.36235392 0.8676782 -0.8739044 -0.4644144 0.9795527 -0.7533669 0.6470349
-0.47654253 1.869681 1.7532669 -0.054686964 0.19423342 -0.8064315 -0.30216873 0.9383282
2.652482 -1.38618 -0.5551639 -0.32405058 -0.35715464 -0.27819252 -3.2847304 -0.10008247
2.27681 0.003902988 -0.026018396 -0.8023721 -0.579263 -0.9124893 0.17091674 0.7203818
-1.7199435 0.19557542 1.4738075 -1.0543658 -0.72024614 -1.8046155 -1.4762074 -1.1517262
-0.1733622 2.0438554 1.1422861 2.4643025 0.061303258 -0.15474337 0.22963572 0.005868137
1.5767485 -2.1530404 -0.39065647 -1.9206119 -0.02024467 1.8963652 -1.04995 -0.040654015
0.16880307 -0.068405956 -1.9611019 -1.4123054 -0.51507884 1.6851056 -0.15173794 -0.042436633
0.62676114 2.106454 -1.503458 0.77144355 0.031125125 -0.10024417 0.2728134 -0.08427119
1.524117 -1.5784302 2.326596 1.27064 0.55656546 -1.887036 0.67223126 1.8156792
0.975944 -2.0488048 1.6370565 -0.61739355 1.6827438 0.7621749 -2.8091893 -0.96095455
-0.05030954 0.12131099 -0.25208148 0.03651712 -1.0931643 -0.5785752 -0.554535 0.0015183889
0.97300607 2.1925905 2.5612295 -0.04066565 -1.9232799 0.7863937 -1.7521125 1.4623675
-0.17927563 -0.17539752 0.18020302 -0.21753645 -1.9080693 0.20659915 -0.40012005 -1.116203
2.1129088 1.9754044 -0.644444 -0.7605591 -1.0535902 0.16039169 0.688154 1.3626504
1.820302 0.35733157 1.4813521 0.49417758 -1.1324947 -0.5709483 -0.58103806 0.027568044
1.0106312 0.88843733 0.06228494 1.0626935 1.6304945 -1.1741927 -0.5802718 1.8813858
-0.16267122 -0.013349685 0.26056036 -0.01503242 -0.02339512 0.034234043 2.4539528 -1.8971641
-0.95632523 -0.10796256 -0.40725836 1.1502508 -0.7049108 -1.2995073 0.37061298 -3.0632133
-1.9339699 -0.6940611 1.3175746 -0.99383897 1.2535233 -1.1083119 -2.4795446 -0.13400735
-1.3745415 0.5728663 -1.2434808 -0.024749821 -0.056376986 -0.014587014 -0.75724995 0.14720024
-0.42325598 0.40466693 0.00991489 -3.0529222 0.81427294 -0.18437114 1.6191473 -0.9442183

fc1.bias f4 [64]
00000000: 42d7 bcbe c460 a63e c612 793e ba62 363e
00000010: 3f79 16bf c843 433e ea24 193e 0484 eebe
00000020: bd60 1d3e 87c0 533e b37b 843d 1d9e 1d3e
00000030: baab b13e 20fa 203f c8f8 4bbd a8c9 e3be
00000040: 749e 793e dca5 1f3f b68b 953d d627 acbd
00000050: 8720 fb3e c0bf e13e ade6 173f dfdf ad3e
00000060: b1bf 3bbf 6f6d 4d3e 5186 0ebe d0ce 8e3e
00000070: 7018 45be 0e4f 0f3f 7f7c 063f a47a b7be
00000080: a0a8 f1bc 5d28 ec3d 7f34 3dbf 70d5 553f
00000090: 6279 f0be 6a34 debe 19a3 413d 16fa 6dbe
000000a0: 5ac4 fdbe de63 b2be e905 d8be 03d2 013f
000000b0: 129a 12bc f7f9 1e3e a418 cfbe 7072 903e
000000c0: 1778 07bf 891d 923e 8764 b53d 4e74 043f
000000d0: 5fb7 b33e dca2 c0bc 2204 653e e489 e23e
000000e0: c0b7 343f fcb6 5d3e e01d c83e 07cc 8bbe
000000f0: ce0d 613e 9da1 2d3e 6d56 54bd cdd9 063f
-0.3688298 0.324957 0.24323568 0.17811099 -0.58778757 0.19068825 0.14955488 -0.46585095
0.15368934 0.20678912 0.06468906 0.15392347 0.3470133 0.6288166 -0.049797803 -0.4448979
0.24376851 0.62362456 0.07302038 -0.084060356 0.49048254 0.44091606 0.5933636 0.33959863
-0.7333937 0.20061277 -0.13918425 0.2789216 -0.19247603 0.5598 0.52533716 -0.35835755
-0.029499352 0.11531136 -0.7390823 0.83528805 -0.46967608 -0.43399364 0.047274683 -0.23239931
-0.49563867 -0.34841818 -0.4219201 0.5071108 -0.008947866 0.15525042 -0.40448487 0.2821231
-0.5291762 0.2853816 0.08857065 0.51739967 0.3510084 -0.023515157 0.22364858 0.44245827
0.7059288 0.21651834 0.39085293 -0.27304098 0.21977922 0.16956182 -0.051840235 0.5267609

fc2.weight f4 [180, 64]
00000000: d413 1dbd 3d5d 533f ac67 803e db2b a03d
00000010: 6254 833e b0c0 893e 32e2 ae3e 464c acbd
00000020: 52f4 c03c 7b25 ca3e d9f5 b73d 132d f03e
00000030: 29b9 183f df71 273f e8d7 4dbe 261c b13d
00000040: 914b a13e 5ff0 d93e 6a35 873e 1fc1 ab3e
00000050: 22a8 ad3c 22eb ac3e c9f3 693f 5954 af3e
00000060: 90af 663f e0bb a13e f0f0 cd3e 65fd f83e
00000070: 7d0a 1f3f acf6 993e 352f 323e 2476 ca3d
00000080: 90e9 2e3f c7ab 473f 1843 2c3f 55d8 153f
00000090: 73e5 78be d0ac 1e3d 9988 1c3e 3c26 a83e
000000a0: 85f0 193f ae35 1a3f b799 24bd cb34 eb3e
000000b0: a133 343f 9fa9 ac3e c045 57bc b48c f73e
000000c0: 631b 11bd 06bb 05bb 1085 773f 3851 ee3e
000000d0: b9b4 883f 4f28 103f eb3e 9d3e a393 62be
000000e0: 6b27 513e dc53 563e 1549 be3e 6e8b 3e3f
000000f0: 5e18 973e f69a 023f cc07 903e 3516 013e
00000100: f029 bdbc 5250 463f 3618 203f 84a5 40bf
00000110: d58f be3d f67a e93c 68ec 6e3f fa6f bb3d
00000120: 02cd 3d3f 4ef1 023e 080e 2bbf 187e ff3f
00000130: 2435 ae3e 2937 473f 32e2 89bf 2c11 e23d
00000140: 90b4 7a3e 3862 fa3e e5de 313f bc70 e83e
00000150: 013e 9abe 3be0 ab3e 4370 343f c811 563e
00000160: def1 3a3e 6e13 983f dea1 a83f 8c65 3b3f
00000170: aafa c3be ab4a 97be d16d d83f 0409 18bd
00000180: f68e 433f 49b3 a63d e1e2 e73f aca5 b53e
00000190: 99be 2b3f faa1 aabd d193 62be 1bb2 60be
000001a0: ec7a 67be 8aa2 ca3f 69a5 4b3d 9aa1 473f
000001b0: f86a 9b3f f88f 0240 285b b33c adb6 5b3c
000001c0: f4f5 3f40 b9ec c93e 14e6 883f 9152 753f
000001d0: 2f08 e93e c4ad 7cbf 22fa 503e 7224 b0bf
000001e0: 89bd 663f 909b f0be c77a bebd b151 c33f
000001f0: 4871 0f3f 33df e93e fa8f aebf f89e 10bf
00000200: c0d6 023c 6381 033d ac51 5cbe c4dd 2bbc
00000210: 1116 1ebc 6bcc c3bd 7094 5bbe 16f4 803d
00000220: edac b83d 3428 16be 7369 083d fef5 2abe
00000230: ac23 01bd 905a 21be d815 443d b069 a23c
00000240: 5872 e9bc 7112 fabd a7b6 06be 040d 7ebd
00000250: 9d4f 2cbd 10a3 b8bd 2577 4cbd 6951 12be
00000260: 05d4 ab3d 81be 1e3b 3862 21bd cd2e c4bd
00000270: 995e 04be c6a8 90bd b462 c63d e8c3 f83c
00000280: 60af d7bc 181d 48bd 8f57 dbbd b3a2 0bbe
00000290: c6d7 05be adcb 88bc 9b44 9cbc d00f 31be
000002a0: 8b48 e1bd 3504 403d f0a5 2dbd 2773 1dbe
000002b0: ae37 453d 52f0 86bd 2c6b ebbd d618 9bbc
000002c0: d62a fbbc b5b0 66bd 6814 b83d 91c6 0dbd
000002d0: 4c87 8f3d 32d0 82bd 3da2 053d 9603 30bd
000002e0: eadb 443c a724 c03c a64a a6bd 0de9 4e3d
000002f0: 35de 943d 30b6 8a3d 3f96 c6bd c9e7 23be
00000300: d81b 6abd f3f7 353f 62cb be3d df76 93be
00000310: 53a2 d2bb d42f 193f 644a f53d 301c 13bc
00000320: 99c5 183f 18bf 763e a224 47be c299 0b3f
00000330: 827b d93e 6416 84be 5316 ef3f 009b eaba
00000340: ffd7 70be 5e1a 363e e210 09bd dc82 7c3f
00000350: 72f3 f2bb e26c 94be bbaf 81bd d1c5 c6bd
00000360: 261a 41bf 139f e43f 8a4d e6bc 21e7 0abe
00000370: 824a 1cbf d299 1540 b1d2 6e3f 4885 853d
00000380: e7bd e6bf 0ba4 a53e fc33 4740 f486 ec3d
00000390: 964a 743e 4413 b4bd 392c 723f ca57 943e
000003a0: 84bb 0d3f 398a 64be 22b7 e83d 2809 663e
000003b0: fd3c c83f 94d2 d0be 982b 5e3d f6f3 febe
000003c0: 9f48 7abf 46e8 be3d b0c4 4a3f 94c9 9f3d
000003d0: 5457 143f b189 3f3e 8b08 e23d 621d d6be
000003e0: a31d 003f 6f9b 873e 017b 93be dba2 0a3e
000003f0: 74f0 4dbe dd74 553e ab1e 34bf 10e8 74be
-0.038348988 0.82564145 0.25079095 0.07820865 0.25650316 0.2690482 0.34156948 -0.084129855
0.023554001 0.3948172 0.089824386 0.4690939 0.5965753 0.6540813 -0.20101893 0.08647947
0.31502965 0.425662 0.2640794 0.33545777 0.021198336 0.33773142 0.9138761 0.3424404
0.9011164 0.3158865 0.40222883 0.48630825 0.6212538 0.30071008 0.1740082 0.09885815
0.6832514 0.77996486 0.67289877 0.5853322 -0.24306278 0.038739026 0.15286483 0.3284167
0.6013263 0.6023816 -0.040185656 0.45938715 0.7039128 0.3372316 -0.013139188 0.48349535
-0.03542651 -0.0020405664 0.9668741 0.4654634 1.0680152 0.56311506 0.30712065 -0.22126631
0.20425193 0.20930427 0.37165132 0.744315 0.29510778 0.510177 0.2813095 0.12606128
-0.023091286 0.7746631 0.6253694 -0.75252557 0.093047775 0.028501015 0.9332948 0.09152217
0.7414094 0.12787363 -0.66818285 1.9960356 0.34024918 0.7781854 -1.0772154 0.110384315
0.24482942 0.4890306 0.69480735 0.4539851 -0.3012543 0.33569512 0.704838 0.2090522
0.18256328 1.188093 1.3174398 0.73201823 -0.3827718 -0.29549155 1.6908513 -0.037117973
0.76390016 0.08139665 1.8116113 0.3547796 0.67087704 -0.08331676 -0.221267 -0.21942942
-0.22605485 1.5830853 0.049718294 0.7798096 1.2142019 2.0400372 0.021894053 0.0134102525
2.9993868 0.39438418 1.0695214 0.9582911 0.45514056 -0.98702645 0.20407918 -1.3761122
0.9013296 -0.46993685 -0.09300762 1.5259305 0.5603223 0.456781 -1.3637688 -0.5649257
0.007985771 0.032105815 -0.2151553 -0.010489885 -0.009648816 -0.09560474 -0.21443343 0.06296556
0.09017358 -0.14663774 0.03330369 -0.16695401 -0.03152816 -0.15757203 0.047872394 0.019825786
-0.028496906 -0.12210549 -0.13155614 -0.06202413 -0.042068113 -0.09015477 -0.049918313 -0.14288868
0.08390049 0.0024222436 -0.03940031 -0.09579239 -0.12926711 -0.07063441 0.09686795 0.030366853
-0.026328743 -0.04885587 -0.1071006 -0.13636284 -0.13070592 -0.016698683 -0.019075682 -0.17291188
-0.110001646 0.046879012 -0.04239458 -0.15375958 0.048148803 -0.06588806 -0.11495051 -0.018932741
-0.030660074 -0.056320865 0.08988267 -0.034613196 0.07008228 -0.06387366 0.032625426 -0.04297217
0.012015322 0.023454977 -0.08119707 0.050515223 0.07268945 0.06773031 -0.09696626 -0.16006388
-0.05715546 0.71081465 0.09316136 -0.2880163 -0.006428042 0.59838605 0.119770795 -0.008978888
0.5967651 0.24096334 -0.19447568 0.5453149 0.4247704 -0.25798333 1.8678688 -0.0017898977
-0.23519896 0.17783496 -0.033463366 0.98637176 -0.007414275 -0.2898932 -0.06332346 -0.09705699
-0.75430524 1.7861046 -0.028113145 -0.13564731 -0.6105119 2.3375134 0.9329024 0.06519562
-1.8026704 0.32351717 3.1125479 0.11549178 0.23856577 -0.08792737 0.9459873 0.28973228
0.5536425 -0.22318353 0.11363055 0.2246443 1.5643612 -0.40785658 0.054240793 -0.49795502
-0.9776706 0.093216464 0.7920637 0.0780212 0.5794575 0.18704869 0.11036786 -0.41819292
0.5004522 0.26485774 -0.28804782 0.13538687 -0.20111257 0.20845361 -0.70359296 -0.2391665

fc2.bias f4 [180]
00000000: 0cfe b03e 6ccd 8f3e 2c88 333c 5e8c 373e
00000010: c8a7 bc3e 6636 283e a20f 4a3e b985 dd3c
00000020: 073f fbbc 73bf c4bd 500d 0bbe 1200 4c3e
00000030: 495b cb3d bf8f d8bd 0d6a e63b f9ec 21bd
00000040: 3bed 7ebe 6927 943e 025c 9d3e 3f80 ddbd
00000050: d3c7 09be 1bcb b8be eccb c2bd f790 113e
00000060: c261 20be 9098 e3bd 5504 a6bd 60c8 d9bd
00000070: c2ea 3ebd 247b 913e 7c2b 793e 7bd7 4c3e
00000080: 51c6 3cbe c0e9 2f3e 2a3e 5f3e 08b6 773e
00000090: 6c7b efbd 949c eb3b 2bb4 d7bb c109 9b3e
000000a0: 1d0e a83e a365 9c3e c99b e93c f2e6 2fbe
000000b0: 9a7e 3abe 70ad d3bd 4621 f13d 68d2 82bd
000000c0: 3559 81bd a8f9 66bd 7c84 a8bd 3202 32bc
000000d0: 785f aebd bacc 99bb b8eb 4f3d 90b0 cabd
000000e0: 671c 2a3e 4e6f 4939 e42b 4bbe b1a4 eabd
000000f0: 09bc bdbd ae29 fcba bff1 bfbd 55af 3d3d
00000100: f59f 31be 285f d53d 33ff 723e c7cc b6bd
00000110: 5b0c 65bd 2edf b73a 922e 433e 509f fe3d
00000120: 9a8d eabc accb 443e 1d40 1bbe 0582 ddbd
00000130: b104 063e 0d8a 063d 7dd3 3b3e cd69 07bd
00000140: 4743 d6bc eee1 00be 0679 3cbe 923e 053f
00000150: 5d12 aa3e 5a94 ddbd 8716 d7bd 6bd7 d4bd
00000160: 7c97 22be 2dbf bd3e 1824 623d 94d1 93bd
00000170: 0316 44be f552 5ebe da87 66bd 41f8 953e
00000180: 65e4 b23e edc1 4abe 5664 23be dabe 94bb
00000190: b2da 353d 051c af3e a322 b03e 7a24 523e
000001a0: fce0 073e 569a c93d 7fb1 a33b 0590 c43e
000001b0: 2b4b cd3e c66f 033e 5c91 153e e207 7d3d
000001c0: dbd7 e9bd 4efe 363e 8710 e43e ef3a 44be
000001d0: 0181 36be 5b84 31be f097 18be 2ef3 8e3e
000001e0: 669d 95bc 82b3 28be 6e87 00be 716f e7bc
000001f0: 4435 a03b a8c7 91bd d90f 913e 6a29 0ebe
00000200: 44d0 39be 6474 f9bd 5afa 82bd fac7 a83d
00000210: b7db d53c e542 50bd 125e 013d 65bf 21be
00000220: 88d6 3bbe fb02 29bd 3baa 093e 1b1b 0cbe
00000230: cfeb 3ebe 4d33 b4bd 8b00 363c 86e3 27bd
00000240: 6ecb 8b3e 748c b93e d1ba 3f3d 433a c53d
00000250: 9abc 033f d80a f0bd b63d 453d fff4 14be
00000260: 7ad3 7a3c 22c3 9ebd 4243 0f3d 3447 aa3e
00000270: 21f1 cebd de5e 28be a6c5 41bd abdb 6bbe
00000280: 267d 36bd cd85 563e 1383 813e d15e 3ebd
00000290: 8cb7 0abe f956 8dbe 4338 29bd b821 873e
000002a0: fbdd 56be eaa9 d7bd 5b7a a9bd bf73 e7bd
000002b0: ac56 bfbd 7a89 5c3e ef02 34be ef84 d9bd
000002c0: e8a6 133e 4384 24be 47c6 f5bc 3f35 0e3e
0.34568822 0.28086412 0.010957759 0.1792464 0.36846757 0.16427001 0.19732526 0.027041303
-0.030669702 -0.096068285 -0.13579297 0.19921902 0.09929521 -0.105742924 0.007031685 -0.039532635
-0.24895184 0.28936318 0.3073426 -0.108154766 -0.13455133 -0.36092457 -0.09511551 0.14215456
-0.15662292 -0.11113083 -0.08106295 -0.106339216 -0.0466106 0.2841426 0.24332994 0.20004074
-0.18435027 0.17179012 0.21801057 0.24190533 -0.11693463 0.0071902964 -0.006582757 0.3028088
0.32823268 0.30546293 0.028516667 -0.17177942 -0.18212357 -0.10335815 0.117739245 -0.06387788
-0.06315843 -0.056390435 -0.082283944 -0.010864781 -0.08514303 -0.0046935948 0.05076191 -0.09896958
0.16612397 0.00019210318 -0.19840962 -0.11457194 -0.092643805 -0.0019238496 -0.09372281 0.046309788
-0.17346175 0.1041854 0.23730163 -0.08925777 -0.055919986 0.0014028305 0.19060734 0.1243273
-0.028631974 0.1921832 -0.15161176 -0.10815815 0.13087727 0.0328465 0.18342395 -0.033059884
-0.026155127 -0.12586185 -0.18405542 0.520486 0.33217135 -0.108193114 -0.105023436 -0.1039265
-0.15878099 0.37059918 0.055210203 -0.07217708 -0.19149022 -0.21711333 -0.056281902 0.29290965
0.34939876 -0.1980054 -0.15956244 -0.004539353 0.044398017 0.34201065 0.34401426 0.20521727
0.13269418 0.0984389 0.0049955244 0.38391128 0.4009641 0.12835607 0.14606231 0.061775096
-0.11418124 0.17870447 0.4454386 -0.19163106 -0.17822649 -0.17335646 -0.1490171 0.27919906
-0.01826353 -0.16474727 -0.12551662 -0.028251382 0.0048891623 -0.071181595 0.28332403 -0.13882986
-0.18145853 -0.12180403 -0.06395407 0.082412675 0.026105745 -0.050845046 0.031583853 -0.15795667
-0.18343556 -0.041262608 0.13443844 -0.13682215 -0.18644641 -0.08798847 0.011108528 -0.040988468
0.27303642 0.3623997 0.04680902 0.09630253 0.5145966 -0.11720818 0.048154555 -0.14546584
0.015309209 -0.077520624 0.03497625 0.3325745 -0.101045854 -0.16442439 -0.047307633 -0.23033015
-0.044552945 0.20949478 0.25295314 -0.046477143 -0.1354658 -0.27605417 -0.04131342 0.26392913
-0.20983116 -0.105304554 -0.082752906 -0.11301374 -0.09342703 0.21536818 -0.17579244 -0.10621058
0.14419138 -0.16066079 -0.030001773 0.138875

conv.weight f4 [5, 1, 34, 34]
00000000: fdaf c3be 594a c0be 6129 bebe 8ebd cbbe
00000010: 4b18 eabe 9a6b ebbe c984 e9be edc6 cdbe
00000020: e90d a8be d4f3 98be f7dd c4be 7e4b 26be
00000030: 8eea 4abe 8efb c4bd 7534 1c3e eaa9 133e
00000040: a6cd 1b3e 6512 0f3e 981e 723e ee09 483e
00000050: b6e2 c03e ea6e e53e 32a6 e23e 59d5 bc3e
00000060: 75d6 803e 24d1 4e3e 046e 6b3e 7717 b33e
00000070: fe82 4b3e a980 2c3e 015e f73d ab46 7ebb
00000080: 0852 8fba eef5 ea3d 3fb5 95be 2e8b c7be
00000090: f596 c4be 625a c6be 4a23 e5be ab84 dcbe
000000a0: b551 e6be dba0 c2be 6557 bebe 72f7 babe
000000b0: 420d b9be 1f6e 0bbd 5e25 5ebd 627b 6c3d
000000c0: 1a17 613e ccb2 0c3e a970 1a3e d1cd df3d
000000d0: 59b1 903e 4ef6 ad3e 3fdf 0e3f dee1 d93e
000000e0: 673e cd3e d62c d13e 8e84 a83e b47f 943e
000000f0: 757f 973e 6970 a83e a768 0c3e b157 093e
00000100: f884 453e d46f e73d 1642 e33d c578 bd3d
00000110: c2c6 c0be 8d6b b9be 2490 b0be 940b adbe
00000120: b54b 04bf 218f 08bf eae1 eebe 9f36 f0be
00000130: 4025 a5be 1f5d 87be f2e9 97be 38c1 39bd
00000140: 95fc f63d b9a3 3a3e 30b0 743e 66f1 923e
00000150: 926a a83e 4612 773e 72ab 8b3e ce91 b83e
00000160: c4a5 0a3f 5243 1d3f 3e2d 163f 7bf4 153f
00000170: 735e c23e f01a 873e d174 953e e9ae 803e
00000180: deda 413e ddaa 183e 4385 1f3e ff1e 573e
00000190: f806 943e 66d4 973e 0140 bebe 4722 cabe
000001a0: 2d4d cbbe 602f c8be 3db5 09bf fc0a 0abf
000001b0: 8760 eebe 086b f9be c9d0 debe abdd 97be
000001c0: d4a1 39be 62c2 e1bd 79bc 613e 2d87 9a3e
000001d0: e84d cd3e e271 963e 1dad 943e f588 9f3e
000001e0: b6e5 a53e 32ac 053f fe3a 023f 2cb9 223f
000001f0: aa67 c63e 953b f13e 8460 193f d2d7 e23e
00000200: 246c aa3e 48db 773e c350 9d3e fecb 663e
00000210: 0508 303e bfb2 c03e f22c 863e 84f0 a13e
00000220: 0881 9abe a3c7 b8be 0be2 dbbe d113 dcbe
00000230: f0b8 febe a29f fcbe 2776 e9be 3d6e d9be
00000240: e44d 05bf 00ae d3be 54df 00bf 8cbd 7ebe
00000250: 61cd bf3d 6e27 503e 367a bd3e de55 963e
00000260: 3eac 723e 9cf1 873e d7b0 d53e 5efe 233f
00000270: 053e 443f af44 403f 5526 403f 78d3 1b3f
00000280: fd6a 273f 5b84 173f bf40 ff3e 6e7c d23e
00000290: 583f b33e 1801 593e 1e48 9c3e f1d9 b93e
000002a0: 118b b13e 2e66 c33e ea68 c2be c389 c9be
000002b0: 3f09 d3be 74fc dabe 54a5 febe 8f4a 0abf
000002c0: 6586 07bf 333e 09bf 25b5 fdbe 2a7e c1be
000002d0: 4112 90be e100 58be 6f04 303d 5745 423e
000002e0: 1b16 be3e d709 fd3e 4860 fd3e 6062 b03e
000002f0: 51f2 0c3f 3644 4f3f 0bc0 4c3f f963 3c3f
00000300: 966c 683f 31a3 6d3f 3a7c 283f 9aaa 0d3f
00000310: 1406 053f 5a1a b83e 3233 ce3e a83b 0c3f
00000320: 6e1a 013f 7f10 b13e 8e44 933e 4d47 923e
00000330: 8eac b6be 8ad4 d5be d0ea debe 23cb eebe
00000340: 59c7 05bf a692 fdbe 13d6 0cbf 997b febe
00000350: 1752 d9be 52f9 c2be 59ac 9bbe aff2 d13c
00000360: 212b 0d3e cf88 5f3e 8470 eb3e 73c6 e93e
00000370: a69c 0d3f d0c0 393f a2ff 523f ff25 533f
00000380: 8c5c 943f 9808 913f e813 783f 8bcf 893f
00000390: c99e 233f 32c3 243f d891 103f 0465 3a3f
000003a0: c4ca 293f 8b72 0c3f 32ff 0f3f 42c9 e53e
000003b0: 2b02 e63e c08a 0a3f b5ae c6be cd19 debe
000003c0: b791 edbe c7c4 08bf 15b8 fbbe e6aa fabe
000003d0: 71e9 fbbe 7dc3 e0be a630 0cbf 1373 f2be
000003e0: d3ca 93be e8b1 a93d b750 353e 6eb8 9f3e
000003f0: e09a 213f a85f 043f fd1f 2e3f c140 2b3f
-0.38220206 -0.37556723 -0.37140945 -0.39793056 -0.4572166 -0.4598053 -0.4560912 -0.4019083
-0.32823113 -0.29873526 -0.38450596 -0.16239735 -0.19816038 -0.09618293 0.15254386 0.14420286
0.15215167 0.1397186 0.23644483 0.19535038 0.37672967 0.44811183 0.44267422 0.3688152
0.25163618 0.20196968 0.22991186 0.3497884 0.19874188 0.16845955 0.12078477 -0.0038799446
-0.0010934481 0.114726886 -0.29239842 -0.38973373 -0.3839642 -0.38740832 -0.44753486 -0.43069968
-0.44984213 -0.38013348 -0.37176052 -0.3651691 -0.36142927 -0.034040567 -0.054234855 0.057734855
0.21981469 0.1374008 0.15082039 0.10927928 0.28260306 0.33976978 0.55809397 0.42555135
0.40086672 0.4085452 0.3291363 0.2900368 0.2958943 0.32898262 0.13711797 0.13412358
0.19289005 0.113006264 0.11096589 0.092515506 -0.3765164 -0.36214867 -0.3448497 -0.33797896
-0.5167802 -0.533434 -0.46656734 -0.46916673 -0.32254982 -0.26438233 -0.29670674 -0.045350283
0.12059895 0.18226518 0.23895335 0.28699797 0.32893807 0.24128065 0.2727924 0.3604874
0.5415919 0.6143085 0.58662784 0.5857617 0.37962684 0.2638774 0.29190686 0.25133446
0.18931147 0.14908929 0.15578179 0.21007918 0.28911567 0.29654235 -0.37158206 -0.39479277
-0.39707318 -0.39098644 -0.5379217 -0.5392301 -0.4655802 -0.4871447 -0.43518665 -0.29661307
-0.18128139 -0.11023404 0.22044553 0.30181256 0.400985 0.2938376 0.29038325 0.31159177
0.32401818 0.52215874 0.50871265 0.635638 0.38750964 0.4711577 0.59912896 0.44305283
0.3328563 0.24204743 0.3072568 0.22538754 0.17190559 0.37636372 0.26206166 0.3162881
-0.30176568 -0.3608981 -0.42945895 -0.4298387 -0.4975047 -0.4934054 -0.45597956 -0.42466918
-0.52071977 -0.4134369 -0.5034077 -0.24876994 0.09365345 0.20327541 0.37007302 0.29362386
0.23698518 0.2655152 0.4173648 0.6406001 0.76657134 0.751048 0.7505849 0.6086955
0.65397626 0.59186333 0.49854085 0.41110557 0.35009265 0.21191823 0.3052377 0.3629909
0.34676412 0.38163894 -0.37970668 -0.39362916 -0.41217992 -0.4277073 -0.4973551 -0.5402002
-0.52939445 -0.53610533 -0.49552265 -0.37791568 -0.28138927 -0.21094085 0.04297298 0.18971764
0.3712624 0.4942157 0.4948752 0.34450054 0.55057245 0.80963457 0.79980534 0.73590046
0.9079069 0.92827135 0.65814555 0.5533844 0.519624 0.35957605 0.40273434 0.5477853
0.50430954 0.34582898 0.2876324 0.28570023 -0.35678524 -0.41763717 -0.43538523 -0.46639356
-0.52257305 -0.49525946 -0.5501415 -0.49703673 -0.42445442 -0.3808084 -0.30404928 0.025628416
0.13785984 0.21829532 0.4598428 0.45659217 0.5531715 0.72559834 0.82421315 0.8247985
1.1590743 1.1330748 0.96905375 1.0766462 0.6391416 0.64360344 0.5647254 0.7281039
0.6632502 0.5486228 0.5624877 0.4488011 0.4492353 0.54117966 -0.38805166 -0.4337906
-0.46400234 -0.5342526 -0.4916388 -0.4895851 -0.4920154 -0.43899146 -0.5476173 -0.4735342
-0.2886568 0.08285886 0.17706572 0.31195396 0.63126945 0.5170846 0.6801756 0.6689568

conv.weight f4 [5, 1, 10, 10]
00000000: 2e92 b43b beb9 17be 65d9 183d adae cdbd
00000010: 5a8b f3bd 813a 05be 90ff 9cbd df4d 8f3b
00000020: 575c 5fbd 467d c83d 637d 0bbd eb7b 26bd
00000030: 8124 24be feef 09be 054b b7bd c5dc b9bc
00000040: e47c 23be 251a 033d cc88 05be 2538 efbd
00000050: b4e4 93bd 0cc4 8b3c b636 373d 9c53 aabc
00000060: 2a9d abbd e357 bdbc dded f4bd 4535 c33b
00000070: a51e ee3c d184 f1bd c2b5 0dbe a44d 6d3b
00000080: c74f 08be e246 f4bd 4796 a3bd 27b0 75bd
00000090: 8cfa 0fbe 2d02 d4bd 4f9e c1bd 0c95 f1bb
000000a0: 85df 5cbd a1a3 acbd 3bc0 c63c 4b74 babd
000000b0: 92a8 bd3b 2d66 77bd ecdc f6bd f86f ddbd
000000c0: 4869 3ebe 25da 15be f7ba afbd 1a1a 2b3d
000000d0: 3f60 cfbd cb41 11bd 47bd aebb 3d6e 9bbd
000000e0: ba61 e9bc 26c6 debd 1fe9 e3bd 71cc 04be
000000f0: d215 f5bd bbb4 21bd 40e3 9abd 7559 173d
00000100: adb9 cc3c cc75 23be 7c3a e13c 98dc 08be
00000110: 95bd ae3c 1825 b0bd 6327 7dbd 9903 eebc
00000120: 923f cbbd 1ad9 babd b227 3fbd 0f65 6bbd
00000130: 571b aebd 3859 803d dd63 6d3d c60c 77bd
00000140: 8c06 d5bd ed34 58bc 81e2 f5bc b37d 08bc
00000150: e965 b73d cd02 b33d 2086 163e 2dd2 b63d
00000160: 0d89 21bd 8cee c8bd 141c 98bd ed13 c5bd
00000170: 7706 003e fd3a 0d3c 3de2 b23d 99ca e83d
00000180: af18 ea3d aae1 c13d ebae 073e 8e4e c93b
00000190: dc7f 0d3d fcb5 3dbc d804 9c3d f2b1 f83d
000001a0: b16e ac3b 8cc5 60bc 20d7 63bc 6fcc eebd
000001b0: 2db1 2dbe 6c49 39be 3b45 45bd c690 d73d
000001c0: b9fd a73d 9678 363c 4ac6 b63d 2c6f 9d3d
000001d0: cc11 60bd fe88 8cbd 9d78 dfbd 3bd1 51bc
000001e0: 2d24 113e 0b1e c93d a405 823d 8cfe bebb
000001f0: dc7c bd3d 2455 f93d 25f9 6bbd dd72 ddbc
00000200: 21c2 e83c ab28 80bd a02e 033e 3aef 3f3d
00000210: d227 8d3d ca34 c73d 321f 313e 5cd5 493d
00000220: e0c7 0d3e c16a 73bd 2815 c03b ee66 0b3e
00000230: 583c d03c 1567 b13c 17a3 113d b1b7 973c
00000240: 032c 413e 72b3 233d 8bba 473e 7e43 ff3c
00000250: e6ee 2a3e eed1 ae3d 9b31 a53c 974b 333e
00000260: 8c3c bd3d eacd 323d 47ed 933d 60a5 243e
00000270: 84c0 383e 94a2 66bb e1c8 9a3d 9b35 f63d
00000280: 38df d33d 5b73 1f3e f65b cb3d d391 1e3e
00000290: 6237 e7bb fc0f dd3d bc63 c43c b53d 1a3d
000002a0: 25cf 193e 44bb 763d 9968 9a3d b72c cf3c
000002b0: d513 5c3d 0ce2 243e 49ad c73d b8a3 263e
000002c0: f98f 463b ac43 263e 3547 423d 9a4f e83d
000002d0: 8856 c03d 6957 9e3d e4a0 073e bc76 c23d
000002e0: 87f4 86bc bd08 fb3d 4af6 063d 28f2 503e
000002f0: 771a a43d b3aa bc3c ebee 3abb 7cb8 d23d
00000300: e2fc 943b 6f85 283d 9620 5d3d 1953 033e
00000310: d2fc d9bd ed3c 053c 52c6 b13d 2b77 143e
00000320: 88e8 afbd 4a6a 9bbc ffd2 a1bd 4afc acbd
00000330: d603 8abc f581 a4bd e8ac 6fbd cade 6fbd
00000340: d5a9 04bd b7fc 82bd 8caa 7eba 7763 0fbd
00000350: d9d6 e2bd d94e 763c 0430 1cbe 47c6 a73c
00000360: 309c 15be 7390 9dbd 1280 ecbd a15d babc
00000370: 27c1 64bd 0f87 a3bd d293 7f3d cea6 393d
00000380: 0fae e7bc 7cf0 e8bd 9000 0bbe 2aa0 b5bd
00000390: 4c0b 1abe aa1f eabd 3cbe 08bd d97d 383d
000003a0: 8a42 a3bd 4152 3abc 1702 7bbd bdb6 323d
000003b0: 8d4a 24bd bb59 aa3c 0462 d3bd 6512 963c
000003c0: 1ad0 673c f1f6 d1ba 4283 36bd a98e e23d
000003d0: 7709 50bd fdec 323d be1e 1a3b a1cf dbbc
000003e0: d783 79bd e3ed 6fbd b358 08be 432d a8bd
000003f0: e2aa 27bc c1ba 01be 6747 7bbd 26a9 073d
0.00551059 -0.14816949 0.0373167 -0.100430824 -0.118918136 -0.13010599 -0.07665932 0.0043732966
-0.05453142 0.09789519 -0.034055125 -0.04064552 -0.1602955 -0.13470456 -0.08949856 -0.022688279
-0.1596561 0.032007355 -0.13040465 -0.116806306 -0.07221356 0.017061256 0.04472991 -0.020791821
-0.08379586 -0.023113197 -0.11959431 0.005957278 0.029067347 -0.11792911 -0.13838866 0.0036209607
-0.13311683 -0.11927582 -0.079876475 -0.059982445 -0.1406042 -0.103519775 -0.09454023 -0.007372504
-0.053924102 -0.08429647 0.024261585 -0.091042124 0.0057879174 -0.060400177 -0.12053856 -0.10812372
-0.18594849 -0.14633997 -0.085805826 0.04177294 -0.10125779 -0.035463136 -0.005332622 -0.07589386
-0.028488982 -0.108776376 -0.11128449 -0.12968613 -0.119670525 -0.039479 -0.07562876 0.036950547
0.02499088 -0.15962905 0.027493708 -0.133654 0.021330634 -0.08600825 -0.06180514 -0.02905445
-0.099242344 -0.0912344 -0.046668716 -0.057469424 -0.085013084 0.06267017 0.057956565 -0.060314916
-0.10401639 -0.013196212 -0.030015232 -0.00833075 0.08954985 0.087407686 0.14699602 0.089268066
-0.039437342 -0.09811124 -0.074272305 -0.09622941 0.12502466 0.008620021 0.08734558 0.113667674
0.11430489 0.0946687 0.1325032 0.0061433977 0.034545764 -0.011579033 0.07618111 0.121433154
0.005262219 -0.013718974 -0.01390627 -0.11660086 -0.16962118 -0.18094414 -0.048161726 0.1052566
0.08202691 0.011137148 0.089245394 0.0768722 -0.054704472 -0.06862067 -0.10911677 -0.012806232
0.14173956 0.09820183 0.06348732 -0.005828684 0.09252331 0.121744424 -0.05761065 -0.02703231
0.02841288 -0.06257757 0.12810755 0.046859004 0.06892361 0.097268656 0.17297056 0.04927574
0.13845778 -0.05942798 0.005861897 0.13613483 0.0254194 0.021655599 0.035555925 0.018520208
0.18864445 0.039966054 0.19504754 0.031160112 0.16692695 0.08536135 0.020165255 0.17509304
0.09240064 0.043653406 0.072229914 0.1607871 0.18042189 -0.003519212 0.07557846 0.12021943
0.1034531 0.15571348 0.099296495 0.15485315 -0.0070561627 0.107940644 0.023973338 0.037656505
0.15020426 0.060237184 0.07539482 0.025289876 0.05372985 0.16101855 0.097498484 0.16273391
0.0030298217 0.16236752 0.04743119 0.11343308 0.093915045 0.07731516 0.13244969 0.09495303
-0.016474022 0.12257526 0.032949723 0.20404875 0.0801286 0.023030614 -0.0028523754 0.10289094
0.0045467475 0.041142877 0.053986154 0.12824668 -0.10643925 0.008132202 0.08680405 0.14498584
-0.08589274 -0.018971581 -0.079015724 -0.08446558 -0.016847532 -0.080326 -0.058514506 -0.058562078
-0.032388527 -0.06395858 -0.00097147445 -0.035006966 -0.11076135 0.015033447 -0.15252692 0.020480288
-0.14610362 -0.07693567 -0.11547865 -0.022749724 -0.055848267 -0.07984745 0.06239683 0.045325093
-0.02828124 -0.11373994 -0.13574433 -0.088684395 -0.15043372 -0.11431821 -0.033384547 0.045041893
-0.07971676 -0.01137215 -0.06128129 0.043631304 -0.04011016 0.02079474 -0.10321429 0.018319318
0.014148736 -0.0016019029 -0.04455877 0.110623665 -0.050790276 0.04368304 0.002351686 -0.026832404
-0.060916748 -0.058576476 -0.13315086 -0.08211758 -0.010233613 -0.12668897 -0.06134739 0.033120297

conv.bias f4 [5]
00000000: fbf5 5b3d a2c4 2dbc ac5f 003e c2d5 0dbe
00000010: ac6c 8a3d
0.053701382 -0.010605963 0.12536496 -0.13851073 0.06759009

fc1.weight f4 [64, 180]
00000000: 4038 0fbc 0cd0 b5bd f20a 2dbc ee3a b8bd
00000010: 5cc8 59bd 4e72 88bd 15bb 9e3b b20d 9fbd
00000020: f997 b7bd 513d 02be bfe1 c6bd efdb f6bd
00000030: a5a2 9dbd 7b21 93bd 96b8 1f3c bc86 65bc
00000040: 318c 243c 07b9 fcbd cd51 8dbd f9e3 883b
00000050: 604d 153d 42e7 dabc 66ec a7bd a875 463c
00000060: 051e d9bd 175b 2abd a428 e7bd 42dd d9bd
00000070: 0233 c5bd 7104 093a c127 c1bd 9288 d1bd
00000080: be78 d3bb 445a 87bd ced9 eabd 19b4 5d36
00000090: ba49 6b3d 862f e7bc d85a ec3c b7ac 21bd
000000a0: 502a 1fbd 1cdd c93c 6079 72bb 84d7 cf3c
000000b0: c084 c8bb b024 ffbb 49ee 803d 9293 46bd
000000c0: 5cf1 34bd 1349 f0bd 59aa 88bd 6fe6 70bc
000000d0: 6c0d b6ba 690b 03bd 7856 27bd f7df 57bd
000000e0: ceb1 643b e7a8 3dbc 2493 78bd 10ae e9bb
000000f0: 429f 3f3d 3e94 7a3d 31fa 68bd dfd8 a6bc
00000100: f84e 463c 5dc8 75bd 4e2e ccbc 5844 b4bc
00000110: 22c7 81bd 28fd c63c f485 8dbd c07d aeba
00000120: 1882 febd 2eed e43b f0e6 70bd 3f72 d5bd
00000130: e68d 2dbd 12f8 76bd 8bef e2bd 48bd 02be
00000140: 5b06 ddbd fcd1 d1ba 6f04 00be 3618 e8bd
00000150: b6da 50bd 123d fcbb 5597 163c 01cf aabd
00000160: 1951 2cbd b696 f6bd e846 fabc 8244 2abd
00000170: 60ef ddbc 1853 02bd c705 a6bd 9055 d1bd
00000180: e313 cdbd 8eec 09bd 0a17 b4bd c1ae e63b
00000190: aff4 2abd ec1c 3e38 f81e 01bd 4895 95ba
000001a0: 08af 4bbd f877 6bbd 5381 b43b b223 35bd
000001b0: 3216 5f3d 64a7 55bd f82d 3fbd 5236 acbc
000001c0: 6c18 2dbd 37de 7bbd 40ae f83a 6dab 853d
000001d0: 8f3d bebd d210 d8bd 5d27 4abd b925 12bd
000001e0: 2990 823d 481e e4bd 8bd2 eabd d1ec 2a3c
000001f0: 3db0 bdbc f072 b9bb 44e7 95bc 9266 b7bd
00000200: 4470 afbc e5e5 d3bd e0ca cbbd fa20 53bd
00000210: 5934 6cbd 1ca9 8bbc cee0 e9bc 3c80 753c
00000220: 2050 66bd c172 0cbd 345a 8d3c b2d6 7e3d
00000230: e1f9 903d 58ff 393d 8aef 323d 69d3 45bd
00000240: 236c a8bb f3f3 d9bd bdfd e1bd 962b 77bc
00000250: 6969 72bd 2cd8 cabb aea5 f3bc b010 32bd
00000260: 79ce f93b b1f0 e03b c300 eabd 0cee 69bd
00000270: 6863 f2bd b67e 2bbc 3e6c 133d e3c9 5abd
00000280: 487a 473c 7d64 5d3b 8b4e 91bd 3a80 05be
00000290: c80e 1f3d ecb3 24bc f22f 8d3b 5d34 bfbd
000002a0: f58c 14bc c901 a5bd 763e 63bd 1975 9bba
000002b0: bc75 7bbd bd05 5a3b 2a75 cabd a836 3fbd
000002c0: 69f3 debd 3731 d2bd b34d ecbd 1ec0 613c
000002d0: 2936 96bd 08f0 c93c 70ad 53bc 7025 083c
000002e0: 8368 823d 9043 fdbb 607a 603c e0e8 9abc
000002f0: b10f 0abd 0101 63bd b4a3 61bd 01e4 96bd
00000300: 060e 8dbc 96d8 043d 1655 94bd 8c81 b53c
00000310: 6847 cfbc 45dd 41bd 0403 81bd e4dd 72bd
00000320: c49a 85bd 4079 993c 20f8 21bc 5097 e63c
00000330: fc02 81bc 0617 373d 28fc e7bc 9829 c13c
00000340: f098 83bd 3fac 8fbd ac3b 153d d860 023d
00000350: 7cc0 313d 0e32 71bd f0a0 203d 21a9 26bd
00000360: e8a9 743c e055 f13c 822f 7f3d 6114 19bd
00000370: a98e 40bd 9342 82bd 70be d13c 396b 813d
00000380: 10c4 c93b a070 bc3b c016 d53c 0404 d73c
00000390: 3aac 9ebc ea9f 203d 461c 553d 7a1f dbbc
000003a0: d019 18bc c48b de3c a563 97bd f3fa 3fbd
000003b0: c41a 27bd a07b 89bb aebc 7fbd 8f4e 3bbd
000003c0: 85c2 94bd e856 c13c 1841 61bc d187 7fbd
000003d0: de4e a1bc 72d5 2f3d cc97 77bd d88f b0bc
000003e0: ea69 5bbd f43f a93c 0dc8 8cbd d91e 45bd
000003f0: 9cc1 8d3c a97c 8a3d 98f5 6c3c c086 89bd
-0.008741438 -0.088775724 -0.010561692 -0.08995615 -0.053169593 -0.06662427 0.0048440793 -0.07766284
-0.08964533 -0.12718703 -0.097110264 -0.12053668 -0.076970376 -0.0718412 0.009748599 -0.014009174
0.01004319 -0.12339979 -0.06900368 0.004177567 0.036450744 -0.0267216 -0.08199386 0.012113012
-0.10601429 -0.041590776 -0.112870485 -0.10637905 -0.096288696 0.0005226797 -0.094314106 -0.10231127
-0.0064536026 -0.06609014 -0.11467324 3.3036397e-06 0.057443358 -0.028220903 0.028851911 -0.039471354
-0.03885871 0.024641566 -0.0036998615 0.02537132 -0.0061193407 -0.007786356 0.06295449 -0.048480578
-0.04417549 -0.11732688 -0.06673116 -0.014703377 -0.0013889498 -0.031993303 -0.040853947 -0.052703824
0.003489602 -0.011575914 -0.0606872 -0.0071313456 0.04678274 0.06117653 -0.056879226 -0.020367084
0.012103789 -0.060005534 -0.024924424 -0.022005245 -0.0633681 0.024290636 -0.06910315 -0.0013312623
-0.12427157 0.006986282 -0.05881399 -0.10422181 -0.042371653 -0.060295172 -0.110808454 -0.12767518
-0.10792228 -0.0016008015 -0.12501691 -0.11332743 -0.05098983 -0.00769771 0.009191354 -0.08340264
-0.04206953 -0.120404646 -0.030551389 -0.04156924 -0.027091682 -0.031817526 -0.08106571 -0.10221398
-0.10013559 -0.03367286 -0.08793457 0.0070398753 -0.041737255 4.5326466e-05 -0.031523675 -0.0011412287
-0.04972747 -0.057487458 0.0055085807 -0.044223495 0.054464526 -0.05216159 -0.0466747 -0.021021996
-0.04225962 -0.061491217 0.0018972829 0.065268375 -0.09289085 -0.10550083 -0.049353946 -0.035680506
0.063751526 -0.11138588 -0.11465939 0.010432438 -0.023155326 -0.0056594536 -0.018298753 -0.089551106
-0.021415837 -0.10346583 -0.09950805 -0.05154512 -0.05766711 -0.017048411 -0.028549578 0.014984187
-0.056228757 -0.034289125 0.017254926 0.06221647 0.070789106 0.04540953 0.043685474 -0.04829732
-0.005139844 -0.10642233 -0.11034725 -0.015086075 -0.05918256 -0.0061903205 -0.029742088 -0.043472946
0.0076234904 0.00686463 -0.114259265 -0.057111785 -0.118353665 -0.010467222 0.0359919 -0.05341519
0.01217515 0.003378182 -0.07095059 -0.13037196 0.038832456 -0.010052662 0.004308694 -0.093361594
-0.00906681 -0.08056981 -0.05547949 -0.0011860459 -0.061391577 0.003326758 -0.098856285 -0.046682984
-0.108862706 -0.10263293 -0.115382574 0.013778714 -0.07334549 0.024650589 -0.012919769 0.008309707
0.0636759 -0.0077290013 0.0137010515 -0.018909872 -0.03370637 -0.05542088 -0.05508776 -0.07367707
-0.017218601 0.032433115 -0.07242791 0.0221565 -0.025302604 -0.04733016 -0.06299403 -0.059293643
-0.0652366 0.018734574 -0.009885818 0.028148323 -0.015748493 0.04469969 -0.02831848 0.023579404
-0.06425655 -0.07015275 0.03643386 0.03183064 0.043396458 -0.058885626 0.039215982 -0.040688638
0.014933087 0.029459894 0.062301166 -0.03737295 -0.04701105 -0.06360354 0.025603503 0.06319279
0.0061574057 0.0057507306 0.026011825 0.026247032 -0.019369233 0.039215006 0.052028917 -0.026748408
-0.009283498 0.027166255 -0.073920526 -0.046870183 -0.04079701 -0.0041956455 -0.0624358 -0.045729216
-0.07263664 0.02360101 -0.01374843 -0.062385384 -0.019690927 0.042928167 -0.0604475 -0.021552965
-0.053567804 0.020660378 -0.06874094 -0.04812512 0.017304234 0.06762058 0.014462851 -0.06715155

fc1.bias f4 [64]
00000000: 16ed 30bb 6e76 8fbd 3076 6bbd 2101 8abd
00000010: 38ed ee3c 0142 15bd 7611 edbc 52fc de3c
00000020: 384e 133c c023 8bba 727d b1bc 19d7 45bc
00000030: a416 32bd 1462 c1bd f853 6bbc a931 e93d
00000040: 0078 263c c9b2 af3d 62a5 59bd 1947 1ebd
00000050: 5a7a 62bd ea73 9ebc 19ef 1a3e fd69 ac3d
00000060: a5ca 4c3e 13d5 acbc 58d7 a53d 68c7 92bd
00000070: f5a4 af3c 1cf2 3e3c e9d1 e5bd 82d0 cbbc
00000080: 6d74 8ebd 2885 67bd 66b6 8bbd cdaa bd3d
00000090: 612c 1c3d 4b00 3dba f693 35bb 1571 3dbd
000000a0: a854 4ebd 6f51 2ebd bdfc 4abd e8e2 b2bd
000000b0: 6e76 fdbc 71f4 643d 3ccd b33c 3ff2 8f3b
000000c0: c63e 4a3e e380 08bc f4cc c6bd 7877 77bd
000000d0: 64c3 39bd 1616 efba 7493 d43c 40c9 c63d
000000e0: ce49 7fbd ec4b 9dbc f9e9 69bd 22b9 ffbd
000000f0: 71ad 10bc d4ad 93bd e404 2c3d 3835 6fbd
-0.0026996783 -0.070050105 -0.05748576 -0.067384966 0.02916585 -0.0364399 -0.02893899 0.027219925
0.008990817 -0.0010615513 -0.021666262 -0.012075209 -0.043478623 -0.09442535 -0.014363281 0.11386425
0.010160446 0.085790224 -0.053136237 -0.038642023 -0.055292465 -0.019342382 0.15130271 0.08418653
0.19999178 -0.021097695 0.08097714 -0.0716694 0.021440962 0.011654403 -0.11221678 -0.024879698
-0.069558 -0.056523472 -0.06821899 0.09261093 0.03812826 -0.00072098215 -0.00277066 -0.04625042
-0.050373703 -0.04255813 -0.049557436 -0.08734685 -0.03094026 0.05589718 0.02194845 0.0043928917
0.19750509 -0.00833151 -0.097070605 -0.06041667 -0.045352355 -0.0018240835 0.025949217 0.09706354
-0.062326245 -0.019201241 -0.0571079 -0.12486483 -0.008830414 -0.072108895 0.04199685 -0.058400363

fc2.weight f4 [4, 64]
00000000: 6bd7 873c 20cd 293d 08eb 24be d0ff 31bc
00000010: e4ff 093d 3c16 c93c c830 8a3c 8907 4dbd
00000020: 3b0a 4abd 0007 52bb 3ab4 b8bd 231c 54bd
00000030: 467c 9abd de48 073d a72f 803d e43b 23bf
00000040: 88c3 80bc 4f56 b0be 73b0 0a3d 1a0a 94bd
00000050: 0425 1fbd f442 1ebd 8fe5 f4be 7d4f f4be
00000060: 3c03 17bf cac4 bd3c a364 e4be 3c9c 863c
00000070: d65a b5bc aa84 ccbd 7319 bf3c 1449 913d
00000080: 846c 993c 2406 e03d 78a9 213d 6b46 91be
00000090: aadb babe 2106 29be 62d0 05be 7469 cdbd
000000a0: d83b 9a3c 72c2 b83c 85e7 18be f98f 84bd
000000b0: f078 5d3c 6b06 03bf 10a6 c93d 45ac 59bd
000000c0: 2789 2abf 6309 62bd e58a 173d 00f5 243d
000000d0: de9d bfbd a4c8 e8be 2827 53bd 741d b3be
000000e0: 8d2a 5d3d a5ed af3b c3b5 68bc 37d1 c5bd
000000f0: be68 28be d411 8c3d 80a7 25bd d098 28bd
00000100: 313e 78bd 1008 c1bd c9e6 3bbd 1a3e 91bd
00000110: cc56 86bd 3c50 99bd 9e84 823d 0cc4 a63d
00000120: e4c5 6dbd 548d f0bd dbd3 523d 49da 913d
00000130: 382a 6f3d 6c83 c6bd 153d ed3c c502 3f3c
00000140: c06c 9b3c 7008 d23b ca24 e93c 2013 ccbb
00000150: 8f17 a0bd 8412 50bd 6999 0f3c 073d 0f3c
00000160: 01cc 303c 0b8d 12bd e1fa 053c e004 8e3c
00000170: 5f6d 973d 41e5 51bc 17e7 2d3e 10b9 f9bc
00000180: 7f4a e33c 40b0 f4bc 7889 a93c 257b 983c
00000190: d54f 0a3d 5b07 043d eb15 7338 68b8 a7bc
000001a0: 926e 9dbd 9f3f 3e3d 855c 15be 18b9 7a3d
000001b0: a417 753d d026 193c e01d ee3d a2c4 b7bd
000001c0: c2cf 473c 9832 663d 035b e1bc fa35 9dbd
000001d0: 5c66 ff3d e0a1 083c e410 de3d 07e1 d03b
000001e0: b304 1abd 9a80 fbbc 51cd cebd 89a4 96bd
000001f0: 5b5e 93bd 7ecb f3bc 28c9 723d b8e7 493d
00000200: 91b1 26bd e813 41bd df6a 8ebd b8a1 8ebc
00000210: e842 e93d 59ef 0a3e 90e6 623d ad8f 9f3d
00000220: da68 813d dada b63d 5c5c 30bd e19d ae3d
00000230: eaa5 f33d 7ce7 393e 4bd7 b93d e175 3d3e
00000240: 101c 8c3c 9ba5 cc3d 2644 40bd 1046 91bc
00000250: 80ec 443d c888 db3d 9618 0e3e 1fc4 0d3e
00000260: 8541 2f3e eff0 8c3c 7681 043e db8e 2e3c
00000270: 6044 8c3d 39eb 61bd 64ee 393d 9c6c b3bd
00000280: 60ea 053e 4cd7 143d 7efd ff3d 053b a93d
00000290: ff93 d23d eb42 3e3c 5043 e73d 68d9 ea3c
000002a0: 7332 5ebd c7bd 5abd b82f 38bc 89f3 9d3d
000002b0: 92e9 a73d 190f 183e 8869 e3bd 4062 853c
000002c0: 4bec 453e 80b1 003e 8b26 533c 000d 8e3a
000002d0: 0065 56bb 8806 073e fcb0 963d d125 d03d
000002e0: 7376 f23c f669 453e fe35 b73d f908 063e
000002f0: ef4e 463d 1d6e 4a3e 7a35 fabd b64c 9bbd
00000300: d231 dfbd 6c3b 7ebd 8d9f 3f3c bc3d 57bd
00000310: a027 65bc 73cb 663c b0fd 3a3d 1d7e 89bd
00000320: 3d5f 143c e05e c23b 99b5 b6bd ddcf bbbc
00000330: b079 e23c 7593 ac3c e557 b83c 4e8d 173f
00000340: 3885 6c3d cc28 a43e 393d ed3c 6ec6 903d
00000350: 398d 26bd cacc 8dbd 7b52 e33e 4dcc e23e
00000360: 7b33 0c3f f45f 763c 820b d43e aba8 1abd
00000370: aa5e c2bd 030a 3cbd f969 d6bd 10cb b2bd
00000380: bf60 2b3c 00d1 d43b 749f dbbd 4a14 8d3e
00000390: d235 bc3e 5d62 d6bd 9d17 0dbd 200f 2d3c
000003a0: 840b 63bc fa73 19be 47bb 9bbb a967 a1bc
000003b0: d0e9 fc3d 6f50 f33e 4070 56bb 5390 ca3c
000003c0: eb51 1e3f 1e67 69bc 657d 08ba ac79 d03d
000003d0: d42e 4fbd ba24 d83e 0803 343d 894d a63e
000003e0: c5ee c2bd 844a 683c ba64 f4ba 5875 4a3d
000003f0: a4cd d73c d8c0 61bc bed6 a5bd 404f ffbd
0.016582211 0.041455388 -0.16105282 -0.010864213 0.033691302 0.024546735 0.016868964 -0.050056014
-0.049326163 -0.003204763 -0.090187505 -0.051784646 -0.075432345 0.033028476 0.06259089 -0.6376326
-0.015718237 -0.34440848 0.03385968 -0.07228489 -0.03885366 -0.03863807 -0.4783139 -0.47716895
-0.5898931 0.023165125 -0.4460803 0.01643192 -0.02213804 -0.09986241 0.023327565 0.07094017
0.018728502 0.10938671 0.03946826 -0.28374037 -0.36495715 -0.16506244 -0.13067773 -0.10029879
0.018827364 0.022553656 -0.14932068 -0.06472773 0.013517603 -0.5118167 0.09846127 -0.053142805
-0.6661553 -0.055184733 0.036997695 0.040272713 -0.09356283 -0.45465577 -0.051551014 -0.34983408
0.053995658 0.0053689056 -0.014203492 -0.09659045 -0.16446206 0.06839338 -0.040442944 -0.04116136
-0.060606185 -0.09425366 -0.04587439 -0.07091923 -0.06559524 -0.074860066 0.06372951 0.08142862
-0.05805005 -0.11745706 0.051471572 0.07121713 0.058389872 -0.096930355 0.02895979 0.011658375
0.018972754 0.0064096972 0.028459925 -0.006227866 -0.078169934 -0.050798908 0.008764603 0.008742577
0.010790826 -0.03577904 0.00817749 0.017336309 0.07393908 -0.012811006 0.16982685 -0.030483752
0.027745483 -0.029869199 0.020695433 0.018613407 0.03376754 0.032233577 5.7956127e-05 -0.020473674
-0.07687105 0.046447393 -0.14586075 0.061211675 0.059837 0.0093476325 0.11626792 -0.089730516
0.012195529 0.056200594 -0.027509218 -0.07676311 0.124706954 0.008339375 0.108430654 0.0063744816
-0.037602138 -0.03070097 -0.10097755 -0.07355601 -0.07195731 -0.029760119 0.05927387 0.04929325
-0.040696684 -0.047138125 -0.06953978 -0.017411098 0.113897145 0.13567866 0.055395663 0.07791076
0.06318827 0.089284614 -0.04305683 0.08526207 0.1189688 0.1815471 0.09074267 0.18501998
0.017103225 0.09992524 -0.04693999 -0.017733604 0.048077106 0.10719448 0.13876566 0.13844346
0.17114837 0.01720473 0.1294001 0.010654177 0.06848979 -0.055155966 0.045393363 -0.0876095
0.13077688 0.036338136 0.12499522 0.0826321 0.10282134 0.011612634 0.11292136 0.02866812
-0.05424733 -0.053403642 -0.011241846 0.07712466 0.08198847 0.1484951 -0.11104113 0.0162822
0.1932842 0.12567711 0.012887607 0.0010837615 -0.003271401 0.13186085 0.07357976 0.10163463
0.029597497 0.19278702 0.08945845 0.1308936 0.04841512 0.19768567 -0.12217231 -0.07582991
-0.10898174 -0.062068388 0.011695755 -0.05254911 -0.013986498 0.014086592 0.04565209 -0.06713507
0.00905591 0.00593172 -0.08921356 -0.022926265 0.027645916 0.021066407 0.022502849 0.5919999
0.057744235 0.32062376 0.028959857 0.070690975 -0.040662024 -0.06923826 0.44398865 0.44296494
0.5476605 0.015037525 0.4141503 -0.03775851 -0.09490712 -0.045907985 -0.104694314 -0.08730137
0.010460078 0.0064946413 -0.10723773 0.27554542 0.36759812 -0.1046798 -0.034446348 0.010562688
-0.013857726 -0.14985648 -0.00475255 -0.01970275 0.12349284 0.47522303 -0.0032720715 0.024727022
0.61843747 -0.014245776 -0.00052066735 0.10179457 -0.05058177 0.4221552 0.043948203 0.3248103
-0.09518198 0.014177922 -0.0018645742 0.049428314 0.026343174 -0.013778888 -0.080975994 -0.124662876

fc2.bias f4 [4]
00000000: 3a7b f7be 5c12 0f3c a1d3 0f3e 84fa e53e
-0.48336202 0.008732405 0.14045574 0.4491769
