src/flatland/flat_game/results/ourmethod_noreg9/rep_learner.pth (torch_old, 312932 bytes, 33 tensors)

representations f4 [6]
000000 cf 9d 07 bf 56 c3 78 3e 80 d5 c0 be 59 13 12 3f
       -0.5297517 0.24293265 -0.37662888 0.5706077
000010 68 82 24 3f 12 5d 14 bf
       0.64261484 -0.57954514

representations f4 [6]
000000 01 18 a3 3e 0a f3 e0 3e fa d3 de 3e be 18 34 bf
       0.3185425 0.43935424 0.435211 -0.70350254
000010 7a a7 dc 3d b8 55 4b 3f
       0.10774131 0.7942767

representations f4 [6]
000000 b7 f9 65 3f 8f d6 db bd 9d bd 19 bf 5f 09 03 3f
       0.8983416 -0.10734283 -0.6005495 0.51186174
000010 2d 98 05 bf 1d a5 b4 3e
       -0.52185327 0.3528222

representations f4 [6]
000000 f1 c5 33 bf 11 55 2a bf c0 fe 09 3f 17 7c 9a be
       -0.7022391 -0.6653605 0.5390434 -0.30172798
000010 cc 0d 93 be 87 c7 1c bf
       -0.28721464 -0.61241955

fc1.weight f4 [64, 4]
000000 2a 3f fe 3e f6 b7 a9 be 60 5b 6d bd 0e b0 30 3f
       0.49657565 -0.33148164 -0.05794847 0.6901864
000010 9f 42 69 3f 89 13 bc bc c6 2c 8b be 21 dd de bf
       0.9111728 -0.022958534 -0.27182597 -1.7411233
000020 39 85 ce bd 44 e7 07 3e 61 3a 85 3e c8 90 d9 3f
       -0.10084004 0.13271815 0.26021102 1.6997309
000030 a9 54 15 3f 5e 23 34 3e b0 67 79 3f 96 d9 05 bd
       0.58332306 0.17591617 0.9742384 -0.03267821
000040 ec 29 b4 3e b0 ba a7 3f 4a f0 0c bf 44 5d 61 3f
       0.35188234 1.3103848 -0.5505415 0.8803294
000050 6c 4e cc bf e9 61 d4 3e 63 e0 18 c0 5b d2 09 c0
       -1.5961432 0.4148095 -2.3886955 -2.153464
000060 12 9c 9f 3e 96 93 89 3e 7c 3f f8 3e b2 f2 21 3f
       0.3117376 0.26870412 0.48485935 0.6326095
000070 28 fe 0c 3f 71 a9 1e bf 53 12 63 be 86 31 0e 3f
       0.5507531 -0.619773 -0.22174959 0.55544317
000080 11 11 46 3e ce 6a c8 be f7 50 16 bf 15 90 b9 bc
       0.19342448 -0.39143986 -0.5871729 -0.022651711
000090 ed 2a 56 bf 34 f6 4d bf fd ae 15 bd 00 68 60 3d
       -0.8365925 -0.804538 -0.036543835 0.054786682
0000a0 c3 4b ee 3f 4b c9 ed 3e c4 aa d4 be a8 4d bd 3e
       1.8616871 0.46442637 -0.41536534 0.3697331
0000b0 a7 b3 b6 3e 9c 27 04 be a0 b4 c5 bd a2 5e 1d 3f
       0.3568394 -0.12905735 -0.09653592 0.61472523
0000c0 71 a3 2e 3f d9 8d fd 3f d3 eb 3c 3d 0b 70 b0 be
       0.6821814 1.9808913 0.046123337 -0.34460482
0000d0 8b aa 93 3e 87 fd 3f 3e f0 41 41 3b 7d 68 94 3f
       0.2884105 0.18749057 0.0029488765 1.1594387
0000e0 1c d8 16 3e 48 4a 05 be e5 63 7e be f4 d2 38 3d
       0.14730877 -0.13016617 -0.24842794 0.045123056
0000f0 30 7c d0 bb b5 f6 f0 3e 08 66 ca 3f 1d d1 bc bf
       -0.0063624606 0.47063223 1.5812387 -1.4751316
000100 4e 83 98 bc 14 29 6f 3f 39 5f 85 3e 36 eb aa 3f
       -0.018617298 0.93422055 0.26049212 1.3353031
000110 4e f6 10 c0 df 2f 04 bf b5 e0 e1 3d 27 60 44 be
       -2.2650332 -0.51635545 0.110291876 -0.19177304
000120 08 96 57 be fc 60 23 3e a0 ed 86 be 50 e6 68 be
       -0.21053326 0.15954965 -0.26353168 -0.22744107
000130 2c 86 8e 3e 7c 6f 3c 3e 69 1b 0b 3f 68 44 e8 3d
       0.2783674 0.18401903 0.543387 0.113411725
000140 a1 e7 12 c0 c3 25 18 3f e6 ae 56 c0 bd 84 47 bf
       -2.2953875 0.5943262 -3.354425 -0.7793692
000150 05 8a 06 40 8b d6 c7 bf d8 12 15 be b6 25 b5 be
       2.102174 -1.5612348 -0.1455797 -0.35380334
000160 ce 7a ab 3f 9a 08 98 3e 6e 26 2b 3f 73 c0 44 bf
       1.3396852 0.29694062 0.66855514 -0.76856154
000170 08 b3 3b 3f ec db f0 3f 07 c8 17 c0 d1 bc 84 bf
       0.73320055 1.8817115 -2.3715837 -1.0370122
000180 37 77 c0 3f 67 99 06 3f 49 7d 47 3d 24 51 1c be
       1.5036381 0.52577823 0.048703466 -0.15265328
000190 42 d6 87 bf 91 36 d2 3f 4b 17 29 3f 98 2f 16 be
       -1.0612261 1.6422902 0.6605117 -0.14666593
0001a0 07 9d 1e c0 6c bf 33 bf b3 cb 12 bf 3b 03 b3 be
       -2.4783342 -0.7021396 -0.5734207 -0.34963402
0001b0 77 1e 63 3f 73 49 be 3e 3a fe 1c 3f 3e e9 66 3f
       0.8871836 0.37165412 0.6132542 0.9019965
0001c0 d9 cf e5 bf 7b b0 f1 bf fb 95 0a be 1d f9 d3 3e
       -1.7954055 -1.8881983 -0.13533776 0.41400996
0001d0 ce c9 fd 3c 5a 3d 03 40 7b 03 49 bf 0c b1 20 3e
       0.030980017 2.0506196 -0.78520936 0.15692538
0001e0 6c ac 07 3e 8b f1 84 3f ae c9 c9 3e a9 a7 9f bf
       0.13249367 1.0386213 0.39411682 -1.2473041
0001f0 0e 64 6b 3f a4 81 d6 3f f1 b9 75 3f 49 87 1c 3e
       0.91949546 1.6758313 0.9598685 0.15285982
000200 6f d2 db 3e 7a 49 cd be 18 0c 45 3f a8 81 b7 3f
       0.42933986 -0.4009512 0.7697158 1.4336443
000210 48 e4 49 3e e5 69 d3 be d4 b5 8e bc 41 0e c6 bd
       0.19715989 -0.4129173 -0.017420687 -0.096706875
000220 04 31 15 c0 6c be f8 bf 9f 46 66 3f d8 bc b0 3f
       -2.3311167 -1.9433112 0.8995151 1.380763
000230 b0 00 e8 3e 6b c4 27 c0 aa 51 17 3f 0b 5d bc 3f
       0.45313025 -2.6213634 0.59108984 1.4715894
000240 10 3c a2 3f 82 6b bf bf fc 6a 6f 3f 9c b4 a1 bf
       1.267458 -1.4954684 0.9352262 -1.2633243
000250 10 2d 77 bf 40 76 75 3f a2 71 78 3f 13 52 99 3f
       -0.96553135 0.9588356 0.9704839 1.1978172
000260 92 1c 3d 3e 79 c1 78 be 4e 08 70 be 68 e4 8b 3d
       0.1846793 -0.24292554 -0.23440668 0.068306744
000270 1b 99 b0 be 6f b8 df 3e 56 b9 d2 be bd 36 62 3e
       -0.3449181 0.436954 -0.41157025 0.22091193
000280 1e 79 f7 be 55 f1 bf bf c3 b5 2c 40 b4 69 6d 3e
       -0.48334593 -1.4995524 2.6985939 0.23184854
000290 cb 94 73 3e 68 95 79 bd c1 67 74 be db 15 ee bd
       0.23787229 -0.0609335 -0.23867704 -0.11625262
0002a0 e9 58 b0 3f b7 00 0b c0 43 14 b2 3f 2f 29 c3 bf
       1.3777133 -2.1719186 1.3912433 -1.5246943
0002b0 51 3b 15 3e 74 01 7e 3d bf 00 40 bd 50 43 c7 3f
       0.14573409 0.062013105 -0.04687571 1.5567417
0002c0 8a 0e 86 3f 9e c6 3f c0 a1 d2 56 3f cb fd c1 3e
       1.0473187 -2.9964976 0.83915144 0.3788894
0002d0 be 39 c3 3c 02 0b 56 bf 34 dc c8 be bf bb 4b 3f
       0.023831245 -0.83610547 -0.39230502 0.7958335
0002e0 71 07 a0 be 85 c5 31 be 9c 06 ec 3f d5 85 26 c0
       -0.31255677 -0.17360504 1.8439517 -2.6019185
0002f0 6e 0f 16 c0 c0 e2 31 bf 7f 22 f0 bf e4 be 20 40
       -2.3446918 -0.6948662 -1.8760527 2.511651
000300 ef bf 96 bf 5e b2 ca bf ae 06 36 3f b8 df 4c bf
       -1.1777323 -1.5835683 0.7110394 -0.8002887
000310 97 64 3a 3f 83 7b bc 3e 9f 9b c9 3f 8e 1b b8 3f
       0.7280974 0.36812982 1.5750617 1.4383409
000320 7c 23 0b 3c 8d d2 4a 3f 9a 92 87 bf 4b 6e 55 3f
       0.008492347 0.79227525 -1.0591614 0.8337142
000330 5a c8 36 c0 a6 21 05 c0 5d 2e 9f 3f 48 83 c6 3f
       -2.8559785 -2.0801787 1.2436024 1.5508814
000340 49 60 8c bf 59 c2 27 3f 65 ad c2 bf 14 75 f9 3d
       -1.0966884 0.65530926 -1.5209166 0.12180534
000350 0e b6 88 bf 91 7f af be 76 6f 17 40 d1 49 ff 3c
       -1.0680559 -0.34277013 2.366178 0.031163128
000360 90 e2 3e 3f d9 6b 03 bf e3 89 25 be c7 28 f3 bf
       0.74564457 -0.5133644 -0.16165881 -1.8996819
000370 28 0b b3 bf ab 57 74 3f fb 0b 00 c0 bd 7a ac 3d
       -1.398778 0.9544627 -2.0007312 0.08421848
000380 45 3e f8 be ab 0b 8c 3f 5c f3 3f bf 60 95 6b 3f
       -0.48485008 1.0941061 -0.7498071 0.92024803
000390 e0 72 e2 bd 88 9c 24 c0 0d 30 1c 3d e8 01 14 c0
       -0.11057067 -2.572054 0.038131762 -2.3126163
0003a0 1a f4 e5 3f f9 a0 b5 bf 11 a0 7b be d3 92 89 bf
       1.7965119 -1.418975 -0.24572779 -1.0747932
0003b0 ac fc 5c be 23 94 e7 bf 94 dd 2e c0 d6 a6 c7 bf
       -0.21580762 -1.8092083 -2.732274 -1.5597789
0003c0 1f c6 bf 3f 01 4a 0f bf 8a fb 71 3f 70 06 ac 3f
       1.4982337 -0.55972296 0.94524443 1.3439465
0003d0 ea 84 19 c0 5a af 0b 3f e0 ad aa 3f 68 ff 4c bf
       -2.3987374 0.5456444 1.3334312 -0.8007722
0003e0 49 ac b0 3f 14 23 cc bf 80 80 ba bf 22 2c be 3f
       1.3802577 -1.5948205 -1.4570465 1.4857218
0003f0 7e d3 31 3e f2 5d 30 40 b8 38 85 3f 5a a7 36 c0
       0.17365834 2.755734 1.0407934 -2.8539643

fc1.bias f4 [64]
000000 c5 2e e8 3e ac 3d de 3e fe 3b ba 3e 31 b0 b7 3e
       0.45348182 0.43406427 0.36373895 0.3587661
000010 74 f6 1a 3f d0 ab 0e bf 14 26 ea 3e 57 94 c5 3e
       0.6053231 -0.55730915 0.45732176 0.38589737
000020 bb 54 ee 3e 11 a2 df 3e 12 cf 2a 3f 05 f9 a5 3e
       0.4654902 0.43678334 0.66722214 0.3241655
000030 83 ef 01 3e 35 0d ed 3e b4 f0 82 3e 72 18 16 3e
       0.12689023 0.4629914 0.25574267 0.14657763
000040 ad e8 a8 3e 12 9b 60 3e 08 3c f0 be b6 d3 d3 3e
       0.32990018 0.21934155 -0.469208 0.4137246
000050 41 f0 a0 be 27 aa ae bd 9f dd e5 3e 84 e1 c1 3e
       -0.314333 -0.08528548 0.44895646 0.37867367
000060 28 bb d0 3e fc 5e fd bc 92 0b 0d 3f 91 28 0c 3f
       0.4076779 -0.030929081 0.5509578 0.547494
000070 a9 ba 22 be 5f 80 d7 3e a0 da f6 3d 47 5c 92 3e
       -0.15891518 0.42090127 0.12053418 0.28586027
000080 a0 b5 0d 3f 68 42 9a 3e 8b 2d 8b bc cc 9f 5c 3e
       0.5535526 0.3012879 -0.01698949 0.21545333
000090 7f 08 46 3e e6 67 65 3f 95 30 d1 3e 57 e6 26 bf
       0.19339179 0.8961166 0.40857378 -0.6519522
0000a0 6d 90 33 3f a1 74 e6 be 1b a7 e5 3e 8c 2f ee 3d
       0.7014225 -0.45010856 0.44854054 0.116301626
0000b0 3b 04 c2 bd 52 0e 03 3f 36 3a 85 bd 6c be 73 be
       -0.09473463 0.51193726 -0.065052435 -0.23803109
0000c0 b5 f5 ef 3e e7 6d 9e 3f 6e 76 12 3f 50 f3 1c be
       0.46867147 1.237729 0.5721196 -0.15327191
0000d0 2d 71 82 3e 24 06 12 3d b5 58 10 3e 54 c9 b1 3e
       0.2547697 0.035650387 0.14096339 0.34723914
0000e0 97 55 36 3f c7 4f 2e bf d3 fb a6 be 08 39 8f 3e
       0.7122435 -0.6809048 -0.32614002 0.279732
0000f0 c4 e4 2b 3f 85 59 11 3e 7d 14 35 3f 97 dd bb 3e
       0.67145944 0.14194305 0.7073439 0.36692497

fc2.weight f4 [180, 64]
000000 c0 cf 80 3e 77 7b 4d bd fe 7a 0f 3f bb 8e 2a 3f
       0.251585 -0.050166573 0.56047046 0.6662404
000010 4d ad 9a 3f 71 9e 43 bf d5 91 0f 3f bd 05 d3 3e
       1.2084137 -0.7641364 0.560819 0.41215315
000020 d3 fd 31 3f bb 9b 83 be 4d 81 8e 3f ad 06 03 3e
       0.6952793 -0.2570475 1.113321 0.12795515
000030 03 e9 8c 3f 74 49 0f 3f 41 69 ce 3e 03 ce 68 3e
       1.100861 0.55971456 0.40314677 0.22734837
000040 2c 2a 62 3f bf 98 b6 bd e0 78 98 bc ea 15 e6 3e
       0.883456 -0.08915853 -0.018612325 0.44938594
000050 b0 9c 8d be 2b 7c e7 3f 37 77 89 3f bf f9 fc 3d
       -0.27658606 1.8084768 1.0739506 0.12352323
000060 54 a0 ae 3f 97 b1 e4 3e 1f 83 d2 be c1 89 fa 3e
       1.3642678 0.4466674 -0.41115662 0.48933223
000070 1c fa 8e 3f be 72 17 3f 65 c8 98 3e f6 4f ef 3f
       1.1170077 0.5915946 0.2984039 1.8696277
000080 b2 18 16 3f c0 11 cc 3e 07 2a b0 3f a5 47 8e 3d
       0.5863143 0.39857292 1.3762826 0.06947259
000090 6b 93 10 3f d7 5c ae 3e f9 ac 9c 3e 23 28 5a 3e
       0.5647494 0.34055206 0.30600718 0.21304373
0000a0 1e e7 0d 3f 22 c4 78 3e 63 16 4b 3f 6c 1d fe 3d
       0.5543078 0.24293569 0.79331034 0.124079555
0000b0 ee db dc bf c4 5a 19 3f 3c f9 1e be 83 fd f0 3e
       -1.7254617 0.5990412 -0.15524763 0.47068414
0000c0 07 27 b2 be 34 44 c6 3f f2 1a 89 3f fa d5 01 40
       -0.347954 1.5489564 1.0711348 2.028685
0000d0 d2 67 eb 3d 4b 16 7e 3e 97 9e f4 3e 06 b3 15 3b
       0.114944115 0.24813192 0.47777244 0.0022842302
0000e0 6a 67 a1 3f c3 9c e2 3f d4 62 d6 3f 88 5d 08 3f
       1.2609684 1.770409 1.674891 0.5326772
0000f0 5b 09 00 bf 7c 54 02 be ac 6a 42 40 aa a5 38 3e
       -0.50014275 -0.1272754 3.0377607 0.18031946
000100 75 2f b6 3e fa a6 dd bc 89 01 78 3f ee bf 7e 3f
       0.35583082 -0.02705716 0.9687734 0.9951161
000110 8a dd 8b 3f 50 f7 cc be cd 9c a1 3f bd 7b 98 3e
       1.0926983 -0.40032434 1.2625977 0.29781905
000120 29 bb 82 3e 6f fc 97 bd b4 c7 ca 3e d2 f1 b1 3e
       0.25533417 -0.07421195 0.39605486 0.34754807
000130 df 8d a5 3e 18 7e 0f 3f bd 83 4e 3e a4 56 9f 3f
       0.32334802 0.5605178 0.20167442 1.2448316
000140 bc a8 80 3f 54 e3 18 3e 30 45 e1 3d 52 4f 25 3f
       1.0051494 0.14930469 0.109995246 0.6457416
000150 54 a4 43 be ab a7 c8 be 91 77 81 3f 97 b3 24 bf
       -0.19105655 -0.3919042 1.0114614 -0.6433653
000160 48 f8 38 3f be 6d a1 be b5 85 6d 3d 53 2f 38 3f
       0.7225385 -0.3152904 0.05798884 0.7194721
000170 4c e1 94 bd 2a dd 61 3e 6f 44 6f 3e da c0 75 3f
       -0.072695345 0.22057024 0.23365949 0.95997393
000180 13 fc 1c 40 ee f6 20 3e 40 46 4c 3f 45 0e 76 3f
       2.4528854 0.15719196 0.79794693 0.96115524
000190 b0 13 9a 3e e6 7b 98 3f 78 b0 97 3e 60 b5 d5 3d
       0.30093145 1.1912811 0.29626822 0.10434985
0001a0 66 b7 99 bb 25 22 29 3e af 0b 25 3f b7 29 05 3f
       -0.0046910523 0.16516931 0.6447095 0.52016777
0001b0 84 35 01 c0 d1 6d a3 3e 28 dd 90 3f 89 6b 08 40
       -2.0188913 0.3191972 1.1317492 2.1315634
0001c0 67 fc 72 bf cb e5 fa 3f 39 dd 25 3f d4 5e 8d 3e
       -0.94916385 1.9601377 0.64790684 0.2761141
0001d0 a0 5a 89 be ee d4 9b bd 29 c0 5a bc 27 05 13 bf
       -0.26826954 -0.076089725 -0.013351479 -0.57429737
0001e0 65 63 44 3f b8 2a be 3f ea 64 87 bd 4f c3 53 bf
       0.76714164 1.4856787 -0.06611045 -0.8271989
0001f0 2e 31 4d 40 5c 99 9e be ee b0 a0 3f c2 11 98 3d
       3.2061267 -0.3097638 1.2553995 0.07425262
000200 d4 b0 f4 3e b8 b9 9a 3f 41 d1 89 3f 31 69 0a 3f
       0.4779116 1.2087927 1.0766984 0.5406676
000210 e9 84 51 3f 4a 54 d3 be 64 d0 c3 3f db 13 87 be
       0.8184343 -0.41275245 1.5297971 -0.26382336
000220 49 27 00 be 1c fd 7e 3e e9 09 ed 3f 0b c1 48 3f
       -0.12514986 0.24901241 1.8518649 0.7841956
000230 25 6d 2b 3d a9 75 7a 3f c3 d6 1b 3e 57 36 38 be
       0.041852135 0.97835785 0.15218644 -0.17989479
000240 f5 a5 c9 3f 71 79 38 3f 68 95 eb 3d f4 fe 2a 3f
       1.5753771 0.72060305 0.11503106 0.6679528
000250 b6 56 9b be 34 c8 f3 3e af 22 09 be 40 3f 9f bd
       -0.30339593 0.4761368 -0.13392137 -0.07775736
000260 45 36 45 3f 3a 4f 4d 3f 5a 77 89 3c 34 49 b6 3f
       0.77035934 0.80199015 0.016780544 1.424109
000270 f8 ca 72 be ee c5 07 3f 7e 3c 12 3f 96 ed 5c 3e
       -0.23710239 0.5303639 0.57123554 0.21575007
000280 86 b3 e7 3f 5b 9c f0 bd 0d 6b 06 3f f6 e1 eb be
       1.8101661 -0.117485724 0.52507097 -0.46070832
000290 79 bb 9d 3f c9 6e d5 3f 86 5c 0f 3e 47 06 30 3c
       1.2322837 1.6674434 0.14000139 0.010743684
0002a0 9c f8 a4 3f c5 a3 67 bd 01 a2 85 3f 37 b6 9e 3f
       1.288837 -0.056552667 1.0440065 1.2399358
0002b0 55 06 7c 3f 91 22 e5 3d 4c bf 80 bd 38 21 6d 3e
       0.9844716 0.11188234 -0.06286487 0.23157203
0002c0 17 96 d5 3e e2 03 08 40 a5 63 c0 3e 6c 4e 93 3f
       0.41716072 2.125237 0.37576023 1.1508307
0002d0 ec 0c bb ba b2 43 9a 3e 27 f7 6a 3f 33 e6 29 bd
       -0.0014270819 0.30129772 0.91783375 -0.0414793
0002e0 33 ea 4f 3f 63 c7 3e 40 fc d9 d5 3f 80 c6 ef bf
       0.81216735 2.9809196 1.6707149 -1.8732452
0002f0 5a 4f 27 40 d0 e0 f2 3f 2a 3f 89 bf 75 6d 2b 3f
       2.6142182 1.8974857 -1.0722401 0.66963893
000300 e7 b9 0d 3f 3f a5 53 3f f6 28 20 3f 7a 31 63 3f
       0.5536179 0.8267402 0.625625 0.8874737
000310 43 bb 17 3f 01 e3 98 bf 04 8f 74 3f 9c 31 ba 3e
       0.59270114 -1.1944276 0.95530725 0.36365974
000320 4a 1b 81 3d fa ab 08 3e 4b 6e 2f 3f cf c0 03 3f
       0.06304033 0.13346854 0.6852767 0.5146608
000330 83 4f 0b be f6 e4 18 3f 2a 68 0c 3e 05 f9 13 40
       -0.1360455 0.59724367 0.1371161 2.312074
000340 4a 40 3e 3f 6d e5 d6 3e cc aa 74 3d c1 01 2a 3f
       0.7431685 0.41971913 0.059733197 0.66408926
000350 80 b8 99 bf 37 93 86 3f f8 eb fb 3e 65 d3 07 be
       -1.200943 1.0513676 0.49203467 -0.13264234
000360 d9 97 d8 3e 7d ae 8f 3f 6f 52 98 3e 3e 3c 18 3f
       0.4230335 1.1225125 0.29750392 0.5946692
000370 82 5a 93 bd 1f 47 1a 3f dd c0 04 bc 2e d9 c1 3d
       -0.07194997 0.6026477 -0.008102623 0.09465252
000380 78 b0 cb 3f 1a 60 62 3e 2e 1f 90 bd 75 e0 1b 3f
       1.5913229 0.22106972 -0.07037197 0.6088937
000390 7d 48 f3 3f 30 a5 9b 3f d2 68 a9 3e 3b f7 e2 3c
       1.9006497 1.2159786 0.33087784 0.02770578
0003a0 3c 57 12 3f af df 3c 3d 2a ab 8c 40 c6 4d 09 3f
       0.5716436 0.04611176 4.395894 0.536343
0003b0 c8 b0 a6 3f 10 87 49 3e 2d f2 61 3f c5 07 dc bf
       1.3022699 0.19680429 0.88260156 -1.7189871
0003c0 39 74 34 3f f5 5c 00 40 c7 dc 96 3e c4 33 46 3e
       0.7048984 2.0056736 0.29465315 0.19355685
0003d0 73 6e 39 bf 87 1c ae 3f ac 96 97 3f 13 e5 6f bf
       -0.7243416 1.3602456 1.1842856 -0.93708915
0003e0 2b ac 90 3e 36 36 0f 40 c6 93 31 3e 99 50 42 bf
       0.28256354 2.2376838 0.17341527 -0.7590423
0003f0 91 b3 cb 3f 85 7b 97 3f 26 bd 63 3f 06 a6 9e 3e
       1.5914174 1.183457 0.8896049 0.3098604

fc2.bias f4 [180]
000000 6b 7a d6 3e 35 58 57 3e 0c b1 09 3f 60 c8 9e 3e
       0.41890272 0.21029742 0.5378578 0.3101225
000010 ef cf 1c 3f 55 b7 ca 3e e2 61 cd 3e 63 7d e9 bd
       0.6125478 0.39592996 0.4011374 -0.11400869
000020 fc 09 2a be 3b 63 db bd 85 7c 52 bc 41 5f bc 3d
       -0.16605371 -0.10712286 -0.012847071 0.09197856
000030 9b e4 0b 3f f9 cf d2 bc dd 76 f4 3c d8 d4 91 bd
       0.546457 -0.025733935 0.029841835 -0.07120675
000040 64 9b fc bc 58 ab 6e bc e7 93 c1 3e 99 f0 04 3d
       -0.030835815 -0.014567219 0.37808153 0.032456014
000050 2c fc 18 3c d3 3c 3d be f4 6d fa bd eb d5 11 3e
       0.009337466 -0.18480234 -0.12228003 0.1424176
000060 60 00 db be ff 72 24 be ed 91 21 bd b2 db f2 be
       -0.42773724 -0.16059493 -0.039445806 -0.4743324
000070 09 d6 a4 bd ee 1f 8d 3d fa 8c b0 3e eb 89 82 3e
       -0.080486365 0.06890856 0.34482557 0.25495848
000080 dd a3 46 bd 5f aa 38 bc 58 0d 85 bb 7c 67 a9 3d
       -0.048496116 -0.011271088 -0.0040604286 0.08271691
000090 3d 8a 91 3e 6e 09 a6 3e 15 53 5a 3e ae 18 d6 3d
       0.2842578 0.3242907 0.21320756 0.10453926
0000a0 27 b9 b7 3d a8 6a 60 3e 78 59 4f 3e cd 9d 89 bd
       0.08970862 0.21915686 0.20248973 -0.06719551
0000b0 01 69 e4 bc b5 36 4f be f7 44 2c be 7b 25 39 be
       -0.027882101 -0.20235713 -0.16823183 -0.18080704
0000c0 1b 09 ea 3d 02 ba 8f bb fa 2d db bd 1f 19 86 bc
       0.11427518 -0.0043861875 -0.10702129 -0.0163694
0000d0 b5 bd fa bc 2a df 07 be 8b 43 ee bd 79 88 28 3b
       -0.030608037 -0.13268724 -0.116339765 0.002571611
0000e0 87 c8 75 3c ff 91 0f be de 92 bb bd d2 4b 59 bd
       0.015001423 -0.14020537 -0.09158872 -0.053050824
0000f0 de f3 4c 3f 2d fd 4d bd 38 5d c3 bd 9c 18 05 be
       0.8005961 -0.050290275 -0.095392644 -0.12997669
000100 ed 98 e7 bd 53 53 44 3d ce 08 29 3e ec 4d b6 bd
       -0.11308465 0.047931027 0.16507265 -0.08901581
000110 71 41 0c be cf 4c ec bb 05 1b 07 3e aa ba 42 3d
       -0.13696839 -0.0072113047 0.13193901 0.047541298
000120 46 9f 52 3e 5a cc 0d 3e fe 57 5e 3e 78 4a c5 3d
       0.2056857 0.13847485 0.21713254 0.096333444
000130 a7 62 a7 3d e4 ce 80 3e c9 15 15 3e fa 57 a8 bd
       0.08173113 0.25157845 0.14559092 -0.08219905
000140 44 4a 55 be cb 84 84 bb 25 e9 2b bc 53 dd 99 3e
       -0.20829111 -0.0040441505 -0.010492598 0.3005167
000150 4b 9d b2 3d c7 b2 15 be 37 21 42 be 83 7d 4c ba
       0.087214075 -0.1461898 -0.18957983 -0.0007800685
000160 f3 ac 30 3d e1 27 6e 3e 73 a6 fa bd 1a 70 4d be
       0.043133687 0.232574 -0.12238779 -0.20062295
000170 6e 4d 95 3b 50 ca 45 be c7 65 24 3c d9 e7 ab 3e
       0.0045563495 -0.19315457 0.010034031 0.33575323
000180 27 13 81 3e 85 25 ae bd f3 83 8b bd 8f 1a 08 bd
       0.25209925 -0.0850325 -0.06812277 -0.033228453
000190 57 fc 88 bd 62 14 d1 3e b2 cc 61 3e 81 ed 0f 3f
       -0.06688755 0.40835863 0.22050741 0.5622178
0001a0 08 c0 ee bd d7 31 5b 3e 50 bc 02 3e e1 67 f2 3e
       -0.11657721 0.21405731 0.12767148 0.47344878
0001b0 3d 85 6f 3d a3 16 8e 3d 00 7a c6 3d e9 b1 40 3e
       0.058476675 0.06937911 0.096912384 0.18817867
0001c0 5d ba 74 3d f1 5e 23 3f 0b bd bf bd a0 84 eb bc
       0.059748042 0.63816744 -0.09362229 -0.028749764
0001d0 a9 11 ab bc 19 75 3c bd 0e 58 a7 3c 9e d1 84 3d
       -0.020882444 -0.04601011 0.02042773 0.06485294
0001e0 37 37 39 be f2 5c e0 bd 92 79 76 bd f6 b7 f3 bc
       -0.18087469 -0.10955228 -0.060174532 -0.029750805
0001f0 ac 1f 15 be 4b 2d 8c bd 47 ef 25 3d 0c 04 8e 39
       -0.14562863 -0.068445764 0.040511396 0.00027087366
000200 4e af 9f bd 56 62 38 be 5e 9e ab bc 55 8c af 3e
       -0.077971086 -0.18006262 -0.020949539 0.34286752
000210 23 7f 5f bc de 7a 7c 3d 7c 8d 5e bd 83 cd 3b be
       -0.013641152 0.061640613 -0.05433415 -0.18340115
000220 b1 ea 11 3d 77 be f6 3d 35 ea c0 3b 26 56 31 be
       0.03562421 0.12048047 0.0058872947 -0.1731802
000230 66 82 e9 3c 68 6c 9c 3c cc 3d 33 be 02 af 5b be
       0.028504562 0.01909466 -0.17504042 -0.21453479
000240 61 25 98 3d 65 da ff bd a6 bb ec 3d 34 0c 19 3d
       0.074290045 -0.12492827 0.115592286 0.037365153
000250 d8 e7 d7 3d c4 a3 29 3e d7 36 6f 3e 24 d0 33 ba
       0.105422676 0.16566378 0.23360763 -0.00068593235
000260 b4 25 4b be 99 f3 39 be 76 8a d1 3c 17 10 a3 3d
       -0.19838601 -0.18159331 0.025578719 0.07962053
000270 65 4b 4d bd 62 b6 36 be aa 50 46 be da 5b 6b bd
       -0.05012073 -0.17843011 -0.19366708 -0.057460643
000280 54 45 55 bd ac 5b 05 3e 58 8d ca 3c 16 f5 8c bd
       -0.05206807 0.13023251 0.024725601 -0.06882684
000290 e8 01 98 b9 59 1c 14 be 06 d3 2e be 18 9c 8f 3e
       -0.0002899312 -0.14463939 -0.17072687 0.28048778
0002a0 e8 7b 83 3c e6 8f 61 bd 18 96 25 be 60 51 19 be
       0.016050294 -0.055068873 -0.16170537 -0.14972448
0002b0 02 d8 6e 3d 10 1a 5e 3e ca 92 97 3d 0d c4 ab 3e
       0.05831147 0.2168963 0.07401045 0.33548012
0002c0 a6 ac c7 3e b8 df a8 3e 3a 94 31 3e 2a bd d2 3e
       0.38998908 0.32983184 0.173417 0.41159946

conv.weight f4 [5, 1, 34, 34]
000000 6c c8 20 be f1 d2 b4 bd cc 3c 80 bd 1f 56 b5 bd
       -0.15701455 -0.088292964 -0.06261596 -0.08854317
000010 f3 61 8b bd 4d 99 c9 bd d8 59 1c bd fb c3 9f bd
       -0.06805792 -0.09843693 -0.03817162 -0.07801052
000020 f6 b9 73 bc cd 78 39 bd 9d 88 0a 3e 77 44 e7 3d
       -0.0148758795 -0.04528122 0.13528676 0.112923555
000030 72 aa a2 3d 1b 4e 8e 3d 1f 5a 3c 3c 87 7b 01 3c
       0.07942666 0.06948491 0.011496096 0.007902986
000040 52 02 e6 bd b5 57 bc bc 9f 9c 2f be 31 08 14 be
       -0.11230911 -0.02299104 -0.1714959 -0.1445625
000050 62 a2 b7 bd 9c 4c 6b be ea ee 77 be 62 79 fb bd
       -0.08966519 -0.22978443 -0.24212232 -0.12279011
000060 2d e8 51 bd f8 20 8b 3b a6 0e 56 3d e8 d0 91 bc
       -0.05124681 0.0042458735 0.052260064 -0.01779981
000070 45 77 d1 3d e3 b2 cc 3d 05 c4 53 3d b2 38 e2 3d
       0.10227827 0.099950574 0.05170061 0.1104597
000080 8a 1e 11 3e bd d9 58 3d 68 de 0c be 10 8f 9d bd
       0.14171806 0.052942026 -0.13756716 -0.07693303
000090 12 ad 61 bd 14 b3 5d bd d1 7f 89 bd d9 51 f5 bc
       -0.055096693 -0.05412586 -0.06713832 -0.029946255
0000a0 bd 91 81 bd 69 12 6f bd 37 35 6e 3c 77 1c bb 3c
       -0.063266255 -0.058367167 0.014539055 0.022840722
0000b0 bf e0 7c 3e 6c a0 db 3d 79 04 a7 3d 5c 10 73 3d
       0.24695109 0.107239574 0.0815515 0.059341773
0000c0 ca 75 12 3c d5 95 8c bd c7 30 97 bb b1 4f 10 bd
       0.008939216 -0.06864516 -0.004613969 -0.03523225
0000d0 a0 f6 66 be b0 67 5e be 3c c3 8d be 0a 35 6a be
       -0.22555017 -0.21719241 -0.27688015 -0.22871795
0000e0 d7 d9 3e be 7d cf 3f be f1 56 36 bd 6a 54 2f 3a
       -0.18637787 -0.18731494 -0.044516508 0.0006688299
0000f0 58 88 59 bd 44 4a 2e bd b3 06 d9 3d 5a 7a c4 3d
       -0.053108543 -0.042551294 0.10596981 0.09593649
000100 ec 03 82 3d 1e 5e c5 3d 49 c8 28 3d 39 10 c7 3d
       0.06348404 0.09637092 0.04120663 0.09719891
000110 25 1f b4 bd 52 64 ab bd 7b f9 39 bd ee d2 30 bd
       -0.08795003 -0.08368744 -0.04540394 -0.04316991
000120 b5 65 ed bc 02 6a 42 bc a7 66 54 3c d7 7a 43 bb
       -0.028979162 -0.011866095 0.012963927 -0.0029827857
000130 ab 4e 11 3b b4 c8 90 3c 56 e4 57 3e 8c c9 4a 3e
       0.0022172134 0.017673828 0.21083197 0.19803447
000140 02 6c 24 3e bb cf c2 3d 78 44 df 3b b0 01 93 bd
       0.16056827 0.09512278 0.006813582 -0.07178056
000150 2d 4d f6 bd e2 8d d0 bd d3 00 2a be 32 47 15 be
       -0.12026439 -0.10183312 -0.16601877 -0.1457794
000160 da ad 85 be fe af a7 be 56 12 b4 be 10 5c 92 be
       -0.261092 -0.3275146 -0.3517024 -0.28585863
000170 91 db 17 be c2 bf 63 bd 8c 37 19 bd e7 5a b0 bc
       -0.14829852 -0.055602796 -0.03740649 -0.02152772
000180 ed 69 0e 3d 44 5f 5b bc f5 0d ff 3c e8 1d c0 3d
       0.034768987 -0.013389412 0.031134585 0.09380704
000190 ff 3d e3 3d 7b 06 e9 3d 8e ea 99 bd 5e 20 5d bd
       0.11095809 0.11378189 -0.07515441 -0.053985946
0001a0 ea 4a aa bc 2f b5 14 ba b3 17 04 bb bf c7 95 bc
       -0.020787675 -0.00056727504 -0.0020155727 -0.018283723
0001b0 52 95 b9 3c a3 01 e6 3b 66 ef 11 3d 42 46 95 3d
       0.02265421 0.007019238 0.0356287 0.07288791
0001c0 a0 3d 01 3e cc 5c 3f 3e 4e 08 b7 3d b0 39 ae 3d
       0.12621164 0.18687743 0.08937131 0.08507097
0001d0 bf 3d 8a 3d fe eb f3 3c 8b a3 7f bd ed 59 a9 bd
       0.067500584 0.029775616 -0.062411826 -0.08269105
0001e0 cd 33 0a be 39 da 4c be 7e a9 31 be 3f 28 8d be
       -0.13496323 -0.2000512 -0.17349812 -0.27569768
0001f0 df 85 80 be 84 be 8f be 5e 78 81 be fc 1b 39 be
       -0.25102136 -0.2807504 -0.25287145 -0.18077081
000200 bb 45 f1 bd 49 3d ac bd dc 70 a9 bd 94 c1 30 bc
       -0.11780878 -0.08410127 -0.08273479 -0.01078834
000210 93 23 c9 bc bd 5d 87 bc 73 2f 06 3d 4e a8 d6 3c
       -0.024553096 -0.01652419 0.032760095 0.0262033
000220 22 83 9e bd 27 2a a7 bd ff f0 ae bd 68 26 80 bc
       -0.07739855 -0.08162337 -0.0854206 -0.015643314
000230 52 e2 a4 bc 71 d8 8c bc 76 da e9 3c 15 4b 42 3d
       -0.02012745 -0.017193051 0.028546553 0.047434885
000240 3f c2 d9 3c 45 32 bd 3d aa 78 07 3e 30 0f 1b 3e
       0.026581882 0.09238104 0.13229623 0.15142512
000250 0e f5 6b 3e 78 c4 ed 3d f8 50 05 3d a6 0a 9f 3c
       0.230427 0.11609739 0.03254792 0.019414257
000260 6e e4 f7 bd 6d 74 fc bd 97 dc 82 bd d8 11 59 be
       -0.121041164 -0.12326894 -0.063897304 -0.21198213
000270 f6 d6 17 be 7c 22 3f be c0 f9 c1 be 4b 22 8d be
       -0.14828095 -0.18665498 -0.37885857 -0.27565226
000280 82 e7 40 be 68 86 3f be 4b b7 90 bd 0a f4 dc bd
       -0.18838313 -0.18703616 -0.0706621 -0.10788734
000290 2d 8d 1b be ce 97 92 bd da f1 84 bd 28 b8 89 bd
       -0.15190573 -0.07157861 -0.06491442 -0.06724578
0002a0 91 11 bd 3d 6d a7 ec bb 61 d9 9a bd 5a c4 47 bd
       0.09231866 -0.007222107 -0.07560993 -0.04877124
0002b0 6c 6b 25 bd de 09 97 bd 29 48 be 3b 95 09 a7 3d
       -0.04038565 -0.07374929 0.005806942 0.081561245
0002c0 63 6d 2c 3d 15 5c 8a 3d 9d e8 b9 3d 15 fd 17 3e
       0.042096507 0.067558445 0.090775706 0.14842637
0002d0 66 aa 3b 3e 4f 33 4e 3e 8f 67 51 3e 7f 25 a5 3e
       0.1832672 0.2013676 0.2044966 0.3225517
0002e0 e0 75 4b 3d 45 de 9c bd 4c db 98 bc 05 3e fb bd
       0.04967296 -0.07659582 -0.018659256 -0.12267689
0002f0 80 93 44 be 47 c9 90 be 6b bc 2d be bc 28 91 be
       -0.19196892 -0.28278562 -0.16966407 -0.2835139
000300 ee 19 c4 be e3 39 f0 be f5 29 6b be 2b 16 5a be
       -0.38301033 -0.46919164 -0.22965224 -0.21297519
000310 c4 35 5d be 44 5b fb bd 6e 68 a9 bd 3f 0c 81 bd
       -0.21602541 -0.12273267 -0.082718715 -0.06301164
000320 89 3d 00 be 2d 96 bd bd 4d 04 ed 3c bc ac 1b 3d
       -0.12523474 -0.092571594 0.028932715 0.03800653
000330 42 82 a9 bd 2d e1 b7 bc 7c 1c 06 3c 4c 97 2d 3c
       -0.08276798 -0.02244624 0.008185502 0.010595154
000340 28 c9 ea 3d 8b 85 ae 3d cf be d1 3d bf fa 3a 3e
       0.11464149 0.08521565 0.10241472 0.18259715
000350 43 04 16 3e bf 1d 16 3e 3a 9f a7 3e e0 c7 95 3e
       0.14650063 0.14659785 0.32738668 0.29254055
000360 ba f5 72 3e 28 b0 11 3e bd 2b 99 bc e2 21 19 bd
       0.2372655 0.14227355 -0.018697614 -0.03738583
000370 cc 49 b5 bd c6 99 31 be 57 14 47 be f0 62 9f be
       -0.08851966 -0.17343816 -0.19441353 -0.3113017
000380 84 18 c0 be e9 54 f4 be a8 88 e8 be 64 8e bb be
       -0.37518704 -0.4772103 -0.4541676 -0.36632073
000390 e9 bc b5 be 0a 02 78 be 1e cd 60 be a9 e3 81 be
       -0.3549569 -0.24219528 -0.21953246 -0.25369003
0003a0 3f c9 35 be 76 53 3a bd 7f f8 8f bd 48 59 0e bb
       -0.1775255 -0.04548975 -0.07029819 -0.0021720696
0003b0 e4 5e c7 bb 1a 61 33 bc 5b 11 66 bc 02 79 11 3b
       -0.00608431 -0.010948444 -0.014042224 0.002219737
0003c0 3e d5 6a 3d 16 ff b9 3d dd 1e f5 3d 43 0b 3b 3e
       0.05733227 0.09081857 0.11968777 0.18266015
0003d0 22 ac 4a 3e da 32 84 3e 05 12 11 3e 70 05 73 3e
       0.19792226 0.25820047 0.1416703 0.23732543
0003e0 2c 15 a6 3e 40 c4 91 3e cb f9 7e 3e 72 2d 4f 3e
       0.32438028 0.2847004 0.24899976 0.2023218
0003f0 d3 2f c1 3d a3 d1 b4 bd eb 4a ff bd 98 a9 9f be
       0.0943295 -0.088290475 -0.12465461 -0.31184077

conv.weight f4 [5, 1, 10, 10]
000000 70 bf c1 3c 7d 06 06 bd 77 8f e1 bd b1 d1 ec bd
       0.023650855 -0.03272103 -0.11013692 -0.11563433
000010 c2 37 0b be 46 fb 9b bd f5 f2 d8 bc 1d 0b 70 bd
       -0.13595489 -0.07616286 -0.026483038 -0.05860435
000020 31 52 95 bd e2 3b b2 bd 72 f7 00 be 1c 50 96 bd
       -0.072910674 -0.08702828 -0.12594393 -0.073394984
000030 0a 6b ab bc 05 6e 17 bd 01 81 d8 bd 46 a3 8a bd
       -0.020925064 -0.036970157 -0.105714805 -0.06769423
000040 af 3d 17 3d cc 0a 03 bd b3 f0 8c bd 16 a0 ae bd
       0.03692406 -0.03199272 -0.06881847 -0.08526628
000050 5d 96 e3 bd 99 f8 21 be 10 f6 6b bc ad cb e2 bd
       -0.11112664 -0.15817489 -0.014401928 -0.11074004
000060 69 5a a5 bd 2e ab 3d bd 90 4e 9e bd 29 77 25 bc
       -0.08073885 -0.046305828 -0.07729828 -0.010099211
000070 12 ad 03 be ff 40 a4 3c 53 f2 29 3c e9 36 97 bd
       -0.1285899 0.020050524 0.010372716 -0.0738352
000080 55 18 ae 3c f0 1c 6f bc 6f b7 be 3c 88 26 ca bd
       0.021251837 -0.014594302 0.023280827 -0.098706305
000090 68 30 6a bd 02 13 05 be ca 81 18 be 07 f8 be bd
       -0.05717507 -0.12995532 -0.1489326 -0.09324651
0000a0 b8 70 e7 bd aa bc a5 bb 34 ba 22 be 02 63 1e 3d
       -0.11300796 -0.005057891 -0.15891343 0.03866864
0000b0 fe d3 d9 bd 60 68 06 3d 91 37 52 bd 57 c6 64 3c
       -0.106361374 0.032814384 -0.051322524 0.0139633035
0000c0 d5 9f 2e bc f4 b3 d7 bd de 72 b7 bd 25 82 98 bd
       -0.010658224 -0.1053237 -0.08957456 -0.07446698
0000d0 4c 53 d5 bd ec 01 00 3d d4 fb e0 bc ec dd cd 3c
       -0.10416278 0.031251833 -0.027463831 0.025130235
0000e0 e0 a4 ac bd ab cb 0d be 7f 1e e9 bd 38 90 18 be
       -0.08429885 -0.13847224 -0.1138277 -0.14898765
0000f0 d3 1c 2d bd 4f 27 09 be 77 4d 17 be 5f 8a a7 bd
       -0.042263817 -0.13393901 -0.14775644 -0.08180689
000100 52 4e 0a be b7 a0 f8 3c 09 8d d6 bd 8a 5c b6 bd
       -0.1350644 0.030350072 -0.10476119 -0.08904369
000110 00 ec 22 be f2 28 d4 bd 14 74 77 bd 8c ee e5 bb
       -0.1591034 -0.10359372 -0.060413435 -0.0070169624
000120 a0 ac e1 bd 49 11 af 3c 22 99 7b bd 55 62 5f 3b
       -0.11019254 0.021370547 -0.061425336 0.003408571
000130 a7 f9 02 bd 8e ae 16 be 55 d5 11 bd 14 bb 84 bb
       -0.03197637 -0.14715025 -0.03560384 -0.0040506218
000140 b4 66 96 3d 40 cc 18 be f9 13 20 be 46 86 8a bd
       0.07343808 -0.14921665 -0.15632619 -0.06763892
000150 55 f8 a2 bd 63 17 10 3c 3a d5 5b bc 27 8e a4 3d
       -0.07957522 0.008794638 -0.013417536 0.08034926
000160 0b 2f 95 bd 7d ae fb bd 7e 5f 86 bc 78 07 e4 3d
       -0.07284363 -0.122891404 -0.016402956 0.11134237
000170 f9 dc d8 3d f7 4d 05 be ba e3 3a 3d 41 4b 16 bd
       0.10589022 -0.13018022 0.045627333 -0.03669286
000180 b2 53 9e bd 71 a0 c5 3c b3 06 53 bd ad 91 9e 3c
       -0.07730807 0.024124356 -0.05152006 0.019356573
000190 71 66 95 bc b7 38 75 bd 2f 98 0d bd 69 cd b9 bd
       -0.018237324 -0.05986854 -0.03456896 -0.09072382
0001a0 70 87 2b be c0 32 84 bd e8 6d 1f be 2b f8 50 be
       -0.16750884 -0.06454992 -0.1556927 -0.20407169
0001b0 79 d9 02 3e ab 60 23 3e 2a 7f 05 3c e6 f6 72 3d
       0.12778272 0.15954845 0.008147994 0.059317492
0001c0 55 30 c7 bd 42 f3 84 bd 0f 3e eb 3b 13 47 03 be
       -0.097260155 -0.0649171 0.007179029 -0.12820081
0001d0 71 d8 0c be 8e f3 ea bd 6f 0e fe 3d cf f0 ba 3c
       -0.13754441 -0.114722356 0.12405097 0.022819905
0001e0 ab 4d 0d 3e b0 2b cc bd 2d 66 97 bd ce b5 55 3b
       0.13799159 -0.0996927 -0.07392535 0.0032609585
0001f0 9b c7 2f bd e6 36 19 be 41 33 8e bc 8b 4a 0e be
       -0.042914968 -0.14962348 -0.017358424 -0.13895623
000200 49 b9 89 bd c4 b3 82 bd 88 9b 47 3e 30 53 a6 bd
       -0.067247935 -0.06381944 0.19492924 -0.081213355
000210 77 be 6f bd 2a 67 21 bd 9d 35 94 bd f0 2d 13 be
       -0.05853125 -0.039405026 -0.072367884 -0.14372993
000220 79 88 0b bd 82 d4 d2 bb bf 9a 41 bc cd 76 93 bd
       -0.034065697 -0.0064340243 -0.0118166795 -0.07200394
000230 2e 05 2d be ca 5a 0c bd 1d 54 9e bd 78 d3 1b be
       -0.16896507 -0.03426627 -0.07730887 -0.15217388
000240 b2 1d 13 be d0 94 56 3c 92 a6 44 3d a3 d1 08 3d
       -0.14366797 0.013097003 0.048010416 0.03340305
000250 3d 6a be 3d ca a8 04 3e f5 ab 39 be b9 93 1a be
       0.09297607 0.12955013 -0.18132003 -0.15095414
000260 0d e7 25 be 86 8e 05 bd cc 7b f8 bd f7 66 b3 bb
       -0.1620142 -0.032606624 -0.121329874 -0.005474921
000270 92 bb 7f bd 7f 54 04 3e d1 cc 72 3d 21 d5 cc 3d
       -0.06243474 0.12922858 0.05927736 0.100015886
000280 8a 53 2c be 74 9c be bb dc 56 83 bc ac cf 1d bc
       -0.16828743 -0.0058169905 -0.016032629 -0.009632032
000290 87 a2 f5 3c 53 53 ed bc 2c 99 0f 3e b4 18 4b 3d
       0.029984726 -0.028970396 0.14023274 0.049584106
0002a0 70 a9 41 bc 59 58 6d 3d 7a 2d 3d bd 2c d7 c6 bd
       -0.011820182 0.057945583 -0.046185948 -0.097090095
0002b0 a7 04 78 3c 59 c3 01 be 08 3f b3 3b 3c 87 f2 3d
       0.015137828 -0.12672175 0.0054701604 0.118422
0002c0 aa 87 04 3e d9 61 4f 3d b4 af 0c 3d 84 ff dc 3d
       0.12942377 0.050630424 0.03434725 0.10790923
0002d0 ba 27 e8 bd ae d5 8f 3c b3 88 33 bd c3 e6 3c bd
       -0.11335702 0.017557945 -0.04383154 -0.04611851
0002e0 a6 a9 db 3d e7 1b ba 3d a4 3b 01 3e fa 7c 40 bd
       0.10725717 0.09087353 0.12620407 -0.046994187
0002f0 d4 65 0e 3e f1 93 f7 3d 77 2b 1f be 2e 1e 59 bd
       0.13906032 0.120887645 -0.15543924 -0.053007297
000300 fb 0e 1f be 65 02 de bd 3a 94 53 bd 1f 40 ee 3c
       -0.15533058 -0.108403005 -0.05165503 0.02908331
000310 ef 93 60 bc e3 d8 9b 3c 4f 74 14 3e 4f b8 ca 3d
       -0.013707145 0.019024318 0.14497493 0.09898435
000320 e2 c4 ac 3d 6c 19 f4 3d 4c dd 2a 3d 49 8b 5c 3d
       0.0843599 0.11918911 0.04171495 0.05384377
000330 05 8c 03 bd c4 a3 c6 3d 2f 87 e0 3c d6 c9 ca 3d
       -0.032115955 0.096992046 0.02740821 0.099017784
000340 d5 1e 1a bd aa 3f af 3b 04 a6 f6 3d 7a 71 28 3e
       -0.03762706 0.0053481655 0.12043384 0.16449538
000350 ba fa 50 3d 4e 5d d3 3d c8 6a 5e 3d 18 fc 88 3d
       0.05102036 0.10320531 0.054301053 0.06688708
000360 b7 41 d2 3d 23 52 33 3d ab 73 21 3d 3a 2f 79 3d
       0.1026644 0.043779504 0.03941695 0.060836054
000370 b4 b3 24 3d c6 a2 42 3c 4b e7 19 3d 4f 7f 12 3e
       0.04021044 0.0118796285 0.037574094 0.14306377
000380 b8 12 b8 3d 0f 90 11 3e 50 23 75 3d 5f c7 25 bc
       0.08987945 0.1421511 0.05984813 -0.010118335
000390 66 04 fc bb 0e 3d b0 3d ea be 91 3d 4c d7 ab 3d
       -0.007690954 0.08605395 0.07116492 0.08390674
0003a0 d9 e6 90 3c 28 d5 b8 3d a0 b2 fb 3d 90 44 bd 3d
       0.017688202 0.09025031 0.122899294 0.09241593
0003b0 e3 d1 52 3d 39 f1 22 3d 44 89 7a bb d8 de 81 bd
       0.051469695 0.03978083 -0.003822879 -0.06341332
0003c0 d6 f4 b0 3d a5 69 e1 3c db 05 74 3d f5 1a 1b 3d
       0.08640449 0.027516196 0.059575897 0.037867505
0003d0 05 0f 0c 3e b1 a8 85 bc f4 3e 2c 3c 6e 20 d6 bc
       0.13677604 -0.01631579 0.010513056 -0.02613851
0003e0 ce f4 a1 3c 27 8e 15 3d 03 d0 d7 3d e2 eb 63 3d
       0.019770052 0.03651252 0.10537722 0.055644877
0003f0 ac 4e ac 3d 76 20 50 3e e9 8a 42 3e c4 aa 48 3d
       0.08413443 0.20324883 0.18998303 0.04899098

conv.bias f4 [5]
000000 fe cc 5f bd 30 a4 04 3d 0c d7 ab 3c 1a 40 e1 3d
       -0.054638855 0.032383144 0.020976566 0.109985545
000010 ca 6b 14 3e
       0.14494243

fc1.weight f4 [64, 180]
000000 42 24 b6 bc 52 fb 0d 3d e4 97 3a 3d 28 fc 29 bc
       -0.022234086 0.034663506 0.04555501 -0.01037506
000010 f4 cd d0 bc 52 ed 50 bd 8a 55 6c 3d 70 78 a8 3c
       -0.025488831 -0.051007576 0.057698764 0.020565242
000020 90 13 a4 bc ef 7d 1f bd 20 8d 78 3b da a2 0f bd
       -0.02002886 -0.03893846 0.0037925914 -0.035067417
000030 f7 2d 84 bd b2 e3 07 bd d6 21 61 3d a7 13 90 3d
       -0.064540796 -0.03317613 0.05496391 0.070349984
000040 48 cc 47 bd 56 35 4a bd 20 99 be 3c a0 3a b0 3c
       -0.048778802 -0.04936727 0.023266375 0.02151233
000050 b7 f7 24 bd 1d 9e 91 bd 26 d1 a8 bb a0 a5 be bb
       -0.0402753 -0.07110236 -0.0051518856 -0.005818084
000060 1a 30 e2 bc 60 07 ea bd 8d 23 9c bd e0 b5 03 bd
       -0.027610827 -0.11427188 -0.07623968 -0.03215587
000070 54 2c 3c 3d aa 86 43 3d 72 6c 40 3d b0 a4 bb 3c
       0.045940712 0.047735848 0.04697842 0.022905678
000080 e8 92 e1 bc 16 6f 1e bd ab 74 74 bd d6 75 af bc
       -0.02753587 -0.03868016 -0.059681576 -0.021418493
000090 c5 a1 88 3d 92 f9 b7 bc 67 7a 2f bd 8e 76 3a bd
       0.0667148 -0.022457872 -0.04284134 -0.04552322
0000a0 16 30 17 3d b7 e8 82 bd 3c 0e b1 bc 8a 65 28 bd
       0.036911093 -0.06392043 -0.021613233 -0.04111246
0000b0 89 38 a9 bd 16 77 5e bd 3f 26 81 3d 57 9e 84 3d
       -0.08262736 -0.054312788 0.06306123 0.064755134
0000c0 c0 33 63 bc 50 74 ba 3b 0f 14 f3 bd 8f 81 26 bd
       -0.013867319 0.005690135 -0.1186906 -0.0406509
0000d0 a0 53 ac bb c4 1c ff bc 54 bd 7d bc f1 2b ee bd
       -0.0052589923 -0.031141646 -0.015487034 -0.11629475
0000e0 98 58 23 3c c0 82 48 bb 55 de 43 3c 6a 41 ba bc
       0.009969853 -0.0030595511 0.011954864 -0.02273627
0000f0 37 e1 2a bd b1 1c ee bc 6f 47 a0 bc b9 fa 05 bd
       -0.041718688 -0.029066416 -0.019565312 -0.03270981
000100 f8 2e 4b bc 80 09 26 bd 28 fa 3d bd 55 02 97 3d
       -0.012401335 -0.040536404 -0.046381146 0.07373492
000110 67 35 31 bd 14 93 19 3d a6 35 5a 3d 38 2f 0f bd
       -0.04326382 0.03749378 0.05327382 -0.03495714
000120 18 e1 f2 bc 4e 22 8f bd dc 51 aa bd b8 c5 0a bd
       -0.029648349 -0.06988965 -0.08316395 -0.033879966
000130 0c 03 8a bd b4 e8 63 bd 02 73 e6 bd 02 20 e1 bd
       -0.067388624 -0.055641845 -0.11252405 -0.10992433
000140 59 19 f1 bd df 27 d8 bd 86 bf 42 bd 8f 23 b1 bd
       -0.11772413 -0.1055448 -0.047545932 -0.086493604
000150 68 ca b9 bd 35 26 3f bd 5a 86 2c bd 1e b4 18 bc
       -0.09071809 -0.046667296 -0.042120315 -0.009320287
000160 c8 84 df bd 40 17 ea bd 47 30 db bc 11 08 af bd
       -0.10913998 -0.11430216 -0.026756419 -0.085464604
000170 18 c5 1f bb 04 4f 07 bc b5 36 e8 ba ff 5f 97 bb
       -0.0024378952 -0.008258585 -0.0017716499 -0.004619598
000180 38 60 ab bd 69 84 0e 3c 44 89 00 bd e6 64 e0 bd
       -0.08367962 0.008698561 -0.031380907 -0.10956745
000190 88 a4 a0 bc a7 88 c2 bc 88 ca 6e bd f6 5f ad bd
       -0.019609705 -0.023746802 -0.058298618 -0.08465569
0001a0 76 b9 b9 bd 58 9c 24 bc 8b 2d ea 37 4a 20 12 bd
       -0.09068577 -0.010047041 2.7916181e-05 -0.035675324
0001b0 f5 a4 db bb 42 d5 b7 bd 02 c6 f4 bd 32 14 b3 bd
       -0.006703014 -0.089762226 -0.119518295 -0.08744086
0001c0 46 dd b2 bd e6 f3 c3 bd 10 21 93 bd 80 31 e9 bd
       -0.08733611 -0.09568004 -0.071840405 -0.113863945
0001d0 02 25 4c bd 86 0a 3d bc 00 3c 5d bd 30 3e 94 bd
       -0.04983998 -0.0115381535 -0.0540123 -0.07238424
0001e0 14 3b 0d 3c 30 7d b7 bd 31 65 ca bd c7 d2 3b bd
       0.008620042 -0.089594245 -0.09882582 -0.04585531
0001f0 44 32 09 3c ea d3 ec bd fa 88 7e bd 92 97 c3 bd
       0.008373801 -0.11563857 -0.06214235 -0.09550394
000200 90 c8 d4 bd a9 66 a6 bd e2 8d 1a bd 3e a4 b0 bc
       -0.10389817 -0.081250496 -0.037732966 -0.021562692
000210 cf 9e ee bd fb 76 11 bd d2 5a 7b bd bd 3c f8 bd
       -0.11651384 -0.03551386 -0.06136591 -0.1212096
000220 12 d2 c0 bd 7a 34 b0 bd 50 00 e0 bc 0e 56 11 3a
       -0.09415068 -0.08603759 -0.027343899 0.0005544134
000230 f6 87 f5 bd fe 9d ae bd ce 5a c1 bc 2a a3 88 bd
       -0.11988823 -0.08526228 -0.02360287 -0.06671746
000240 1e b3 67 bd 8b 31 5b bc 96 aa f4 bd dd 72 9a 3c
       -0.056567304 -0.013378511 -0.11946599 0.0188536
000250 b3 d9 3c bd 1c 71 af ba cc 3b b4 bd bd 4a 79 bc
       -0.04610605 -0.001338515 -0.08800468 -0.015215573
000260 ae c0 5a 3c 23 a7 1d bd 99 7d df bd 77 67 2d bc
       0.0133516025 -0.038489472 -0.10912628 -0.01058375
000270 bc 9d a4 bd 3a 6f d4 bd f4 4e 65 bd de af 69 3d
       -0.08037898 -0.10372777 -0.0559835 0.057052486
000280 d2 6d e5 bd 3e 5b 05 bd 33 a7 db bc b9 1f 40 3b
       -0.11202587 -0.03255772 -0.026813125 0.0029315783
000290 7e 07 69 bb e8 47 dd bd 19 84 05 3c da a2 e2 bd
       -0.0035557444 -0.10804731 0.00814917 -0.11066218
0002a0 5e e2 f6 bd 71 08 b3 bc 80 f1 8a bd eb f5 c4 bc
       -0.12054895 -0.021854611 -0.06784344 -0.024043044
0002b0 97 06 c1 bc 9d 54 03 be ec 9e 75 bd a3 c3 a7 bd
       -0.023562713 -0.12825246 -0.059966013 -0.081916116
0002c0 b8 bd 7c bd 8d 61 1e bd 3e 25 83 3c 6b 2e 0b bd
       -0.061704367 -0.03866725 0.01600897 -0.033979814
0002d0 09 2f 2f bd aa 95 4a bd d0 96 63 bd 02 f6 37 3d
       -0.042769466 -0.049459137 -0.055563748 0.044912346
0002e0 10 1c 5c 3c 80 0e 37 3b cc 0f ed 3c 5d 98 7f bd
       0.013434425 0.0027932227 0.028938197 -0.062401164
0002f0 36 6c ec bc 2a 8d d5 bc 7c 69 84 bd 35 c2 8d 3d
       -0.028860193 -0.026068289 -0.06465432 0.06921808
000300 92 de 1c bd 1a 47 20 bd b8 f3 44 bd 4a 22 62 bd
       -0.038298197 -0.039130308 -0.04808399 -0.05520848
000310 38 cb 77 bd eb 8d 75 bd b6 cb 26 bd 31 58 49 bd
       -0.06049654 -0.059949797 -0.040721618 -0.04915637
000320 3c 18 f5 bc 16 78 58 3d 6d c3 8d bd 31 5d 7f bd
       -0.029918782 0.052848898 -0.0692204 -0.062344734
000330 01 21 2e bd 7a 05 93 bd 72 a9 94 bd 5d 4d 95 bd
       -0.042511944 -0.07178779 -0.07258882 -0.072901465
000340 c5 ea 93 3d 00 db 97 3c 80 ca 94 bd 5a 02 dd bc
       0.07222513 0.018537045 -0.07265186 -0.02697866
000350 a0 41 09 3d c2 1e 44 3d cd 79 7e bd b2 e5 ad bc
       0.03350985 0.047880895 -0.062127877 -0.021227691
000360 2c 5d af 3c f8 5e 88 bd 20 e5 91 3c f6 cf 62 bd
       0.021406732 -0.06658739 0.01780945 -0.05537411
000370 94 c5 f2 3c 80 ef 07 3d ce d0 43 bd d7 b2 0f bd
       0.029635228 0.03318739 -0.047806554 -0.035082664
000380 60 2d a0 3c 9b d0 94 3d 2e 47 54 bd 70 7c 87 3c
       0.019552886 0.07266351 -0.051825695 0.016538829
000390 52 00 54 3d c8 08 1c bc 5b ac 8e bd 90 57 20 3d
       0.051758118 -0.009523578 -0.06966468 0.039146006
0003a0 49 47 6f bd 86 45 69 bd 6c ec 48 bc 34 a6 c8 3c
       -0.058417592 -0.05695107 -0.012263399 0.024493314
0003b0 93 36 52 bd cc 06 b6 3c fc b3 2e 3d 36 29 40 3d
       -0.051321577 0.022220038 0.042652115 0.0469143
0003c0 44 1e 11 bd 2a de 6d 3d 3e 9e 47 bd 54 f9 86 3c
       -0.035429254 0.0580732 -0.048734896 0.01647631
0003d0 be 27 57 3d 5e be 69 3d dc 71 4a 3d d0 96 ec 3b
       0.052528135 0.057066314 0.04942499 0.0072201267
0003e0 32 f7 be bc 00 a8 f2 ba c0 b2 67 bd 31 4d 8d 3d
       -0.023311231 -0.0018513203 -0.056566954 0.06899489
0003f0 26 02 81 bc 0b bc 0e bd 92 e2 23 3d 0c 71 85 bd
       -0.015748095 -0.0348473 0.040010996 -0.065157026

fc1.bias f4 [64]
000000 04 65 f7 bd 00 47 8e b9 ba 29 8e bb 96 02 16 be
       -0.12079814 -0.0002713725 -0.0043384703 -0.14649424
000010 f9 3b 8d 3d c7 b9 0e bc b4 82 b8 bc 8f f2 0e bd
       0.068962045 -0.008711285 -0.022523262 -0.03489929
000020 88 1b a8 bc 89 be 0f bd de 91 59 bd 3b 6b b5 3b
       -0.02052094 -0.035093818 -0.053117625 0.0055364645
000030 f3 34 45 bc a0 24 e1 bc b8 22 01 3d d2 98 18 3d
       -0.01203655 -0.027483284 0.03152725 0.037255116
000040 c2 5f 17 bd 9b 04 43 bd 5e 9b 6b 3d f0 e7 64 bd
       -0.036956556 -0.047611814 0.057521217 -0.055885255
000050 87 17 b6 bd c2 2a 53 3d d6 4c f4 bd 3a c1 27 3d
       -0.08891206 0.05155445 -0.11928718 0.04095576
000060 84 7f 8f bd 44 1c 5c 3b a8 f5 ca 3d 10 93 7e 3d
       -0.070067436 0.0033586184 0.099101365 0.06215197
000070 f7 80 4f 3a 40 52 6e 3b 8a 26 91 bc 86 9d 60 bd
       0.00079156406 0.0036364943 -0.017718572 -0.054837726
000080 83 2c cc bd 4a e3 f1 3d 9a 09 77 bd d4 06 bb be
       -0.099694274 0.1181093 -0.06031189 -0.36528647
000090 81 36 0b 3e cb 0e 03 be d0 91 e4 bb 46 12 3c bd
       0.1359501 -0.12798612 -0.00697539 -0.045915864
0000a0 a2 f5 22 3b 42 df a9 bc 7c f1 45 3d 3a 4e 96 bd
       0.0024865647 -0.02073634 0.048326 -0.07339139
0000b0 8b 72 b7 bc 94 24 9b bd 98 17 a9 3d ad 42 40 bd
       -0.022393486 -0.07575336 0.08256453 -0.046938587
0000c0 a1 74 21 3d 9b 80 a6 bd 5d 21 9d bd 53 fb 1c bd
       0.039417867 -0.08129998 -0.07672379 -0.03832562
0000d0 8f 4d 4a bd a5 7b be bc 9c a3 a3 bd 7a 34 21 3d
       -0.049390372 -0.023252318 -0.079901904 0.039356686
0000e0 68 26 90 3d 0d 55 43 bd 8b 91 91 bd e2 27 00 bd
       0.070385754 -0.047688533 -0.07107838 -0.031288035
0000f0 3e ec 19 bd 50 3c e3 bc 80 9a 60 bb 76 7e 0e bd
       -0.037578814 -0.02773872 -0.0034271777 -0.03478857
