src/flatland/flat_game/results/ourmethod_noreg8/rep_learner.pth (torch_old, 312910 bytes, 33 tensors)

representations f4 [6]
000000 87 6c bf 3c 18 6d 05 bf 7e 9c ab be 7d 3c 4a 3f
       0.02336718 -0.5211959 -0.33517832 0.7899855
000010 b5 08 27 3f df 08 64 be
       0.6524766 -0.22269009

representations f4 [6]
000000 91 bd 01 bf 16 ab af 3e 51 fe a3 bd dd 71 84 bf
       -0.5067988 0.34310216 -0.080074914 -1.0347248
000010 81 0d 8c be 92 a2 32 3f
       -0.27354053 0.6977931

representations f4 [6]
000000 49 1c 6b 3f 90 7f 12 3f cd 4a cc be f2 fd 3a 3f
       0.91840035 0.57225895 -0.39900818 0.7304374
000010 da 26 25 bf c6 4d 31 bf
       -0.6451241 -0.692593

representations f4 [6]
000000 2b 16 b7 be c6 6f 1a bf 05 04 6a 3f 5f cd 02 be
       -0.357591 -0.603268 0.91412383 -0.12773655
000010 ec 17 ca 3e c6 d7 13 3c
       0.39471376 0.009023612

fc1.weight f4 [64, 4]
000000 c8 72 a4 3f 9d 44 2c c0 a3 52 28 3f a4 ae 4c bf
       1.2847528 -2.6916878 0.65751094 -0.7995398
000010 ea 5f af 3b 26 5d 60 bf 4c 36 94 3e 4e ec 62 be
       0.00535201 -0.87642133 0.28947675 -0.22160456
000020 0f b5 be 3f ad c5 ce be b9 8a b3 bf 18 cc 2c bd
       1.4899005 -0.4038519 -1.402671 -0.042186826
000030 70 69 24 bd f0 59 6b 3d 00 55 20 3d dc 3b 41 be
       -0.040139616 0.057458818 0.039143562 -0.18870491
000040 30 c1 8f 3e 0a ae 1d bf f8 de 94 bd 31 fb c5 bf
       0.28077078 -0.6159369 -0.072690904 -1.5467283
000050 b5 02 32 3e 23 a8 7e be 7b a6 60 3e 3a 50 b4 bd
       0.17383845 -0.24868827 0.21938507 -0.088043645
000060 b5 71 b6 bc 14 97 ad 3e f3 14 9e 3e 23 08 01 bf
       -0.022271017 0.33904326 0.30875358 -0.5040304
000070 b8 be cc bf 11 79 a0 3d 14 e2 39 3e 5a 1d 5e c0
       -1.5995703 0.078355916 0.18152648 -3.4705415
000080 53 c3 54 be 3a c1 99 3f a5 b5 bc 3f dc 73 eb 3e
       -0.20777635 1.2012093 1.4742934 0.4598683
000090 5e ba 20 be 2e 21 a0 bd 1d 92 82 3d ed ab d6 3e
       -0.15696093 -0.078188285 0.06375525 0.41928044
0000a0 05 60 90 bf 3d 1b 78 3f e6 b5 82 be 7b cb 41 c0
       -1.1279303 0.9691656 -0.25529402 -3.0280445
0000b0 d7 43 73 3e 5a 2d 89 3f 07 20 84 3e bf 09 28 bf
       0.23756348 1.0716965 0.25805685 -0.6563987
0000c0 42 2f b3 3f 79 54 67 3d 36 62 ce 3f a8 9d 36 3e
       1.3998797 0.056477044 1.6123722 0.17833579
0000d0 3e f1 6f be f8 60 2c 3f c0 75 5e 3d bf 1c 4f c0
       -0.2343187 0.6733546 0.054311514 -3.2361295
0000e0 70 2d 4f 3e 27 51 07 3e 28 f4 21 bf 52 56 e1 be
       0.20232177 0.13214551 -0.6326318 -0.4401117
0000f0 0a db 34 bc d5 e8 ad bd a6 7e 33 bf c5 73 be bf
       -0.011038551 -0.08491675 -0.70115125 -1.487908
000100 e2 67 b9 be 27 8b c8 bf 58 f3 01 c0 32 88 07 40
       -0.3621207 -1.5667466 -2.0304775 2.1176877
000110 7b 80 03 c0 d6 4c b4 3e d4 7e 6a 3f 74 01 5f c0
       -2.0547168 0.3521487 0.91599774 -3.4844637
000120 49 c6 17 be 97 8c cc 3f 37 4c 97 bf b8 3b af 3e
       -0.14821734 1.5980405 -1.1820134 0.3422525
000130 67 a6 24 3d 8b 46 14 3f 4c a2 95 3e 1b ea e2 3e
       0.040197756 0.5792014 0.29225385 0.44319233
000140 61 2a 10 40 06 2b 04 c0 29 a0 6b bf 28 93 eb 3e
       2.2525866 -2.065126 -0.9204126 0.4601071
000150 75 d9 9c 3f 84 3d 81 be c5 d7 33 bf 82 eb cd 3f
       1.2253863 -0.25242245 -0.70251113 1.6087496
000160 47 33 b9 bf 41 c5 d0 3f ca f5 4e 3f 29 4a d0 3f
       -1.4468774 1.6310197 0.80843794 1.6272632
000170 52 d1 07 be 28 8b 16 3e b5 da c3 be d6 76 51 3e
       -0.13263443 0.14701521 -0.38252798 0.20455489
000180 7f 73 db 3e 1f b9 05 40 bc 16 3c bf 13 ac 96 bf
       0.42861554 2.089424 -0.7347219 -1.1771263
000190 0a 47 44 3f 59 78 3a bf ee 04 c8 be e9 1f 15 3f
       0.76670897 -0.72839886 -0.3906626 0.58251816
0001a0 a9 d2 85 be 94 54 57 bf ea 38 b6 be 23 46 80 bf
       -0.26137283 -0.8411343 -0.35590297 -1.0021404
0001b0 06 19 6b 3e e1 ee c8 bf 25 b8 f9 3f d6 3f 98 3e
       0.22958764 -1.56979 1.9509321 0.29736203
0001c0 51 af b8 3f c7 c2 9c bd 8e 25 86 3e 1d fc ed bf
       1.4428502 -0.07654338 0.26200527 -1.8592564
0001d0 c4 d3 05 40 02 d0 d7 bf 8a b2 4f 3f 45 10 50 3f
       2.0910501 -1.6860354 0.81131804 0.81274825
0001e0 91 70 10 be c3 94 5f bf ad 9b 09 40 f3 ea 77 3f
       -0.1410544 -0.8733637 2.1501267 0.9684288
0001f0 dd 1f ff 3e b8 91 32 3e 7b 92 9f 3e 45 89 50 bf
       0.49828997 0.174384 0.31166443 -0.81459457
000200 40 8b 20 be bc 99 37 be 00 f0 bf bb b4 05 21 3e
       -0.1567812 -0.17929739 -0.0058574677 0.15724832
000210 6e 16 98 be 38 61 81 3e 80 70 5a 3d f4 ae 2d be
       -0.29704612 0.25269485 0.053329945 -0.1696127
000220 2f ab 2b 3d 8a 21 93 be d5 8c 6a 3f c3 3f 2d be
       0.0419113 -0.28736526 0.9162114 -0.16918854
000230 7c c4 14 3e 91 f9 7b 3e 87 0e cc bf 98 12 91 3f
       0.14528078 0.24606921 -1.5941933 1.1333799
000240 46 32 54 bf 92 9e 36 3f 44 fb 78 bf 63 3f 1d be
       -0.8288921 0.7133571 -0.972584 -0.15356211
000250 dd 3b 61 3f d9 bd 8d 3f 24 c4 a0 be e8 41 53 c0
       0.8798197 1.1073562 -0.31399643 -3.3008976
000260 b3 48 71 bf 34 c6 2b 3e ad 14 00 3f 42 33 a6 bf
       -0.94251555 0.16774827 0.5003155 -1.2984393
000270 72 a8 9e 3f b3 7e 60 3f 65 7f ed bf ca 87 14 40
       1.2395155 0.8769333 -1.8554503 2.320788
000280 6d 61 b8 3f 35 67 1b 3e 34 96 a5 3f af 83 95 bf
       1.4404732 0.15176089 1.2936463 -1.1680812
000290 ce ec 48 bf 87 61 37 c0 77 00 10 c0 6d 7c 3b 3f
       -0.78486335 -2.8653276 -2.2500284 0.73236734
0002a0 0d dc 23 40 fc 21 69 be 18 2f aa bf 34 60 51 bf
       2.5603058 -0.2276687 -1.3295622 -0.8178742
0002b0 22 c6 60 3f 33 43 ee 3e e4 40 92 be 48 7e ea 3e
       0.87802327 0.46535644 -0.28565133 0.4579947
0002c0 9a 3c ef bd 2c fe e9 3e 44 9d 2b bf 1e 91 97 bf
       -0.11681481 0.4570173 -0.67036843 -1.1841161
0002d0 14 97 00 c0 c5 0a c4 bf 63 69 e2 3f a2 a5 97 3e
       -2.009221 -1.5315787 1.7688411 0.29618555
0002e0 bc 40 10 bf 97 7a ab 3f 31 d6 a9 3f b5 c1 3c bf
       -0.56348777 1.3396786 1.3268491 -0.73733073
0002f0 5b 3e 2d c0 56 bd c6 bf fe a9 99 bf 00 4e df 3c
       -2.7069309 -1.5526531 -1.2005002 0.027258873
000300 87 84 9e 3e e2 c9 1d bf 6a 88 f5 bf 64 a1 51 bf
       0.30960485 -0.61636174 -1.9182255 -0.8188689
000310 5c 8c 9c 3f c7 32 e6 bf b2 18 80 3f b1 be 9e 3f
       1.2230334 -1.7984246 1.0007536 1.2401944
000320 76 df c5 bf 4e c5 bb bf a9 8c b2 be e0 88 13 40
       -1.545882 -1.4669588 -0.3487294 2.3052292
000330 81 fb 4c 3f 4d e8 6f 3f 85 1f fd be 2c 79 86 be
       0.80071265 0.9371384 -0.4943811 -0.26264322
000340 1a 18 c7 3d 42 b9 f4 bf 53 98 da bf 82 5a 0d 40
       0.09721394 -1.9119036 -1.7077736 2.2086492
000350 e1 a7 e2 be 78 f2 f7 3e 06 9e 3e 3f 67 4b 03 40
       -0.44268706 0.48427176 0.74459875 2.0514772
000360 6c b8 ef 3e 8c b6 fb 3f 6a 3d 44 3d 3f e1 0f 3f
       0.4682039 1.9665084 0.04791013 0.56203073
000370 4a 86 e6 be 09 dd 02 3f c2 25 17 3f 7f 51 0b bf
       -0.4502433 0.5111852 0.5904199 -0.5442123
000380 68 f1 8c 3e 3a ab 2a 3f 9f f7 bb 3f 65 af cf 3f
       0.27527928 0.6666752 1.4684943 1.6225401
000390 03 19 cf bf 80 4e 7d 3f 4f a2 32 bf da 1e 12 3f
       -1.6179508 0.98947906 -0.69778913 0.57078326
0003a0 cd 24 8c 3e ec 50 a7 bf ea a9 8c bf f3 93 3f be
       0.27371827 -1.307157 -1.0989354 -0.18708782
0003b0 d0 56 82 3e 40 d2 23 3e c8 78 98 bd f8 13 80 bd
       0.25456858 0.15998173 -0.07444912 -0.06253809
0003c0 4c 6d bd 3d 9b 75 33 be 65 7f 43 be 1b d1 65 3e
       0.09249362 -0.17525332 -0.19091566 0.22443049
0003d0 ad 4c d7 3f e7 ba a5 bf 50 ab 97 3f 61 dd 16 bf
       1.6820275 -1.2947663 1.1849155 -0.5893155
0003e0 6e 3f 13 3e 23 b0 01 40 32 e1 19 bf 2b a2 fd be
       0.14379665 2.0263755 -0.60109246 -0.49537787
0003f0 94 e7 cd 3e fa 29 9e bf f8 bb 78 3e f5 d9 ed bf
       0.40215743 -1.235656 0.24290454 -1.858214

fc1.bias f4 [64]
000000 62 27 31 3e 6d c0 c3 3e df f9 5d 3f d2 25 a5 be
       0.1730018 0.38232747 0.867094 -0.32255417
000010 39 d1 2e 3e e4 45 a6 3e 50 db ab 3e 19 d8 04 bd
       0.17072 0.32475197 0.3356576 -0.03243265
000020 c3 a8 46 3e 8e 59 e8 be dd b2 bd 3c 4e af f6 3e
       0.19400315 -0.45380825 0.023156578 0.48180622
000030 8d c6 c7 3e 7c 4f f9 3d 11 fc f2 3e 6d fe b7 3e
       0.3901867 0.121733636 0.47457936 0.359363
000040 e2 37 df 3a c1 f5 aa 3e 74 a7 f5 3e 7c 27 a4 3e
       0.0017030204 0.3339062 0.4797932 0.32061374
000050 6e 90 a1 3e 4d a6 8c 3f fc 81 c7 3e eb c2 07 bf
       0.31555504 1.0988251 0.38966358 -0.53031796
000060 b7 dd 60 3e cb c0 85 3e 0d 8e 6c 3e 78 5c cb be
       0.21959578 0.26123652 0.23101063 -0.39718986
000070 48 63 49 3f d1 04 c0 be 4e 3a 96 3e f7 50 df 3e
       0.78667116 -0.37503675 0.29341358 0.4361646
000080 b4 cd 96 be c8 73 e1 be 38 22 76 3e c5 33 aa 3e
       -0.29453814 -0.44033647 0.24036491 0.33242622
000090 6a 11 0b 3f 14 46 ff 3c 23 a4 4f 3e 99 c4 06 3f
       0.54323447 0.031161346 0.20277457 0.52643734
0000a0 35 0e 3a 3f 58 5e bb be b7 21 89 be ca 0d bb 3e
       0.7267793 -0.36595416 -0.26783535 0.36533958
0000b0 2a 02 98 3e 77 46 51 3e de 4d 8f 3e d2 24 b0 3e
       0.2968915 0.20437036 0.27989095 0.34403092
0000c0 30 cf 3e 3f f6 c4 60 3e 03 cf 4d bd 9d af 7c 3e
       0.74534893 0.21950135 -0.05024625 0.24676366
0000d0 c9 8c f0 3d 1f 83 0e 3f 03 0a fc 3e 2e d2 c8 3e
       0.11745603 0.55668825 0.49226388 0.39222854
0000e0 51 d8 9c 3e 4d 08 94 3e ad 65 90 3e a2 62 a8 be
       0.30633786 0.28912583 0.28202572 -0.3288775
0000f0 ee 9d 48 3e 76 07 58 bd 06 15 1f 3f 6f a9 00 3e
       0.19591495 -0.05274149 0.62141454 0.12564634

fc2.weight f4 [180, 64]
000000 9a b5 f2 3d a1 d1 cd 3e 3a c2 32 3f 90 0e 27 3c
       0.11851044 0.40198997 0.69827616 0.010196343
000010 2c 8e 5e 3e 31 c4 42 3e 58 58 5c 3e fa 75 81 be
       0.21733922 0.19020154 0.21518075 -0.2528532
000020 48 16 2f 3f de d3 67 3e f8 51 0d 3e 31 49 d0 3e
       0.68393373 0.22639415 0.138008 0.4068084
000030 1f 15 b4 3e a8 cf d1 3d de ef c0 3e 68 62 56 3d
       0.35172364 0.102446854 0.37683004 0.05233994
000040 5f b1 cc bc 50 9b 5c 3e 3a 22 bb 3e 18 02 fc 3e
       -0.02498692 0.21543622 0.3654955 0.49220347
000050 a8 7c 30 3f 56 9c a5 3e be 4d 52 3e fa 85 94 bd
       0.6894021 0.32345837 0.20537469 -0.072521165
000060 49 75 e0 bd df 5e 87 3e a3 d6 46 3e 3a 05 f9 3e
       -0.1095987 0.26439568 0.19417815 0.486368
000070 a0 27 76 3e 04 e9 60 3f 5b ca 98 3e 63 be a5 3e
       0.24038553 0.87855554 0.29841885 0.32371816
000080 60 e5 54 3d 5c a5 c8 3d 40 50 9a 3d 73 e2 42 3f
       0.05197656 0.09797165 0.07534838 0.76126784
000090 49 09 23 3f 6b 94 e1 3d 4c 07 25 3e 7b aa 9a be
       0.63686043 0.110146366 0.16116065 -0.3020819
0000a0 c9 2c 14 bf ac 92 3b 3e 46 cc 91 3c b4 8c 8a 3e
       -0.57880837 0.1831767 0.0177976 0.27060473
0000b0 a2 72 42 3e 35 42 04 bf 5f 56 68 3e 4b f3 67 3f
       0.18989041 -0.51663524 0.22689198 0.9060561
0000c0 00 ab e5 3e 3a ce d9 be 07 6e d6 3d 73 0e 29 3e
       0.44857025 -0.4254015 0.10470205 0.16509418
0000d0 5e e0 4f be 52 10 7c 3f 42 cd 00 3f fa 95 8c 3e
       -0.20300433 0.984624 0.503132 0.27458173
0000e0 ee 6a b4 3e 5d 23 83 3e a2 08 5e be 40 48 17 bd
       0.3523783 0.25612918 -0.2168298 -0.036934137
0000f0 4e 76 a7 3e 07 51 9e 3e 38 5b 13 3e 5c 04 e2 be
       0.32707447 0.30921194 0.14390266 -0.4414395
000100 b3 e0 12 3e 92 38 b0 3d 15 c1 5e bf 1c ac 4f bd
       0.14343528 0.0860454 -0.8701337 -0.050701246
000110 56 2e 15 3e 8e 0f 9a 3e 51 49 30 3e 2c 9b f8 3e
       0.14568457 0.30089992 0.17215468 0.48555887
000120 75 46 00 bf 61 e3 a5 3d 05 db ab bb 51 6d 23 3e
       -0.5010751 0.0810001 -0.005244615 0.1595967
000130 7e 08 ba 3e ac a5 88 bb 2e 4c 27 bd c0 d4 a8 39
       0.36334604 -0.0041701403 -0.040844135 0.00032201968
000140 2f 1d 5f bf 3b 17 14 3d 7f c4 ad bb ef 79 a3 bd
       -0.87153906 0.036154967 -0.005302965 -0.07982241
000150 33 48 50 3e 05 75 b5 be c2 7b b3 3c be 46 df bd
       0.20340042 -0.3544084 0.021909598 -0.10902165
000160 3e 49 9c 3e be ca cf 3d 96 6a 47 3e 84 e4 5e 3d
       0.3052463 0.10146092 0.19474253 0.05441715
000170 e3 c0 ea bd 6a 15 e7 be 24 53 19 3e a3 9a 1f 3e
       -0.114625715 -0.45133525 0.14973122 0.15586333
000180 4a d3 ab 3d ae 6b cd bd b8 4d a3 3d 83 5c 38 be
       0.083899096 -0.10030304 0.07973808 -0.1800404
000190 22 79 0b be 74 0f 57 bd e6 3f eb 3d ba 16 88 bf
       -0.13620427 -0.05250497 0.11486797 -1.0631936
0001a0 7f c1 17 3f fe 7a bd bd b0 3a 27 3d 98 66 7e 3e
       0.59279627 -0.092519745 0.040827453 0.24843824
0001b0 08 74 c6 bd ad ba 88 3e 3f e4 05 bf 59 1c 90 be
       -0.096901 0.26704922 -0.523014 -0.28146628
0001c0 4d 89 aa be 39 82 92 be 2a fe db 3f 1f 37 9b 3e
       -0.33307877 -0.28614977 1.718694 0.30315492
0001d0 a7 21 9a 3e 5e 4b 65 3f a9 1e ad 3e 75 5c 2e bd
       0.301038 0.89568126 0.33812454 -0.042568643
0001e0 65 36 46 3e af 30 28 be 1d 6c c9 3d e4 09 e1 3d
       0.19356687 -0.16424821 0.09835074 0.109882146
0001f0 c8 63 25 3e 57 80 24 3f d6 1f 7e be 1e 6e 9f 3e
       0.16151345 0.6425833 -0.24816832 0.311387
000200 52 ab 12 3e c2 3d c4 bd c6 7e 8b 3c b2 a2 af 3d
       0.14323166 -0.09582092 0.017028224 0.085759535
000210 bc 75 e9 3d db 36 3a 3e 0a 88 af bd 53 ec 4e 3f
       0.11399409 0.18184988 -0.08570869 0.8082935
000220 1f e9 b0 be 53 c7 f6 bc 20 84 0b be 82 41 d4 be
       -0.34552857 -0.030124342 -0.1362462 -0.41456228
000230 76 b7 25 bd bb 94 86 3e ae f4 42 3d 0d e0 d3 3c
       -0.040458165 0.26285347 0.047596626 0.025863672
000240 43 1c 2f be b8 db de 3e db 63 13 3f 12 2d a9 3d
       -0.17100625 0.43527007 0.5757424 0.082605496
000250 4f 40 93 3e 39 15 af bd b4 1b 86 3f 52 fb a6 3d
       0.2876 -0.0854897 1.0477204 0.08153404
000260 96 e0 1f be 02 c3 3b 3e e2 28 7c bd 1a 28 d2 be
       -0.15613016 0.18336108 -0.061562426 -0.4104622
000270 01 93 56 3e 95 08 9f 3e bf ae 42 3e 6e b3 a4 3d
       0.20954515 0.31061235 0.19011973 0.08042036
000280 2c a3 2f 3d aa f7 b2 bd db cd 19 3e e3 a7 ee 3d
       0.042880222 -0.087386444 0.15019934 0.116531156
000290 00 89 d8 3b 72 37 50 3e 87 26 8f 3e 64 f1 18 3f
       0.0066081285 0.2033365 0.27959082 0.5974333
0002a0 e3 0d cd bd 7e 5b da be 86 40 07 3f 1a e6 58 bd
       -0.10012414 -0.42647928 0.5283283 -0.052953817
0002b0 51 ae 93 bd 1d 56 fe bd 3d 77 93 bd ea 1c c0 3e
       -0.072109826 -0.124187686 -0.07200477 0.3752206
0002c0 76 ce df 3e 11 af 0e 3f bd c6 58 bf b5 14 50 be
       0.43712205 0.5573588 -0.8467825 -0.20320399
0002d0 9d 01 02 3f d8 97 99 3f 31 1a a0 bd 8b ac 04 3e
       0.5078371 1.1999464 -0.078174956 0.12956445
0002e0 bb 4e 7e 3c 87 07 90 3e 09 f2 98 3e 7c b7 b7 bd
       0.0155217005 0.28130743 0.29872158 -0.08970544
0002f0 0a 2c dc 3c 37 36 df bc 4b f7 7e be be e3 cc bd
       0.026876468 -0.027247531 -0.24899022 -0.10004376
000300 46 7a 0c 3f 6b 24 1e 3f 40 d4 97 3f 78 1d 7a 3d
       0.54874074 0.6177432 1.1861649 0.06106326
000310 b8 fe 05 3f c1 ae 74 3d 87 77 1d 3e b1 08 4e 40
       0.52341795 0.05973697 0.15377627 3.2192805
000320 e1 92 c0 3e e5 27 07 3c a5 d8 66 3f 1c 25 00 3d
       0.3761206 0.008249258 0.90174323 0.03128539
000330 48 81 8e bd fd d3 1d 3e 22 c4 99 3e f1 f6 f9 3e
       -0.06958252 0.15412898 0.3003245 0.48821214
000340 b1 98 6e 3f d9 b5 a4 3f 12 f4 54 3d d0 b9 55 3e
       0.9320174 1.2867996 0.051990576 0.20871663
000350 38 be 3e bf fa 56 50 3e 09 a5 ad 3f ec 69 02 3c
       -0.74509 0.20345679 1.356599 0.007959824
000360 9b ee cc 3e 09 18 9d be d0 a5 15 3f 1d a8 70 bf
       0.40025792 -0.306824 0.58456135 -0.9400652
000370 32 38 87 3f 4f 18 58 bf fd 0b 32 bf ef 3e be 3e
       1.0564024 -0.8441209 -0.6954954 0.3715739
000380 04 70 b7 3d a0 b7 a0 bc 0a 24 77 bd c4 a0 15 3f
       0.08956912 -0.01961881 -0.060337104 0.58448434
000390 10 5c 8c 3e 7e d9 c5 3e 1f 39 14 3e d5 7e fd 3f
       0.27413988 0.38642496 0.14474915 1.9804331
0003a0 d0 34 14 3f 2c ff 89 3f 4b dc d7 bd fa 26 95 3e
       0.57893085 1.0780997 -0.105400644 0.291313
0003b0 b4 1f 86 3e fa 7a 66 be 8d c0 c9 3f cc 39 17 3c
       0.26196063 -0.2250785 1.5761887 0.009230088
0003c0 34 a5 93 3e 83 70 1c bf f7 14 ec 3e e3 b0 e4 3e
       0.28836977 -0.6110918 0.46109745 0.44666204
0003d0 49 62 95 3f 0d 36 f5 3d c2 75 53 3e 70 30 d7 3e
       1.1670619 0.119732 0.2065039 0.42029142
0003e0 be d0 b8 3e 88 0f 5f bf e0 d2 cc 3e 74 d1 1b bd
       0.36096758 -0.87133074 0.40004635 -0.038041547
0003f0 dd 7e 54 3e 97 40 7e be 56 34 e5 3c 19 f7 0d 3f
       0.2075152 -0.24829327 0.027979057 0.55455166

fc2.bias f4 [180]
000000 59 22 88 3e 5d 7c d1 3d 70 69 cd 3c c8 49 95 3e
       0.26588705 0.102287985 0.02507469 0.29157853
000010 ac ff ad 3e 9d ed bf 3e d9 97 85 3d 45 db c5 bc
       0.33984125 0.37485972 0.06523103 -0.024152407
000020 bd f2 ff bc 7d 79 59 bd 6a 00 04 bd a1 0b 85 3e
       -0.031243676 -0.053094376 -0.032226957 0.25985435
000030 f0 25 15 be 2b 5d fa bd 04 ea 76 3b d7 90 c9 bd
       -0.14565253 -0.12224802 0.0037676105 -0.09842079
000040 9a b4 dc bd 5a d0 9d 3e bd fa c0 bc 97 e8 81 bd
       -0.107766345 0.30823022 -0.023557061 -0.06343191
000050 2a 33 e6 bc 96 de ca bd 1a 1d 07 be 36 7c 3b be
       -0.028100569 -0.09905736 -0.13194695 -0.18309101
000060 10 74 1b 3e c0 42 db bc 2d 96 41 be 3e b2 33 3f
       0.15180993 -0.026765227 -0.18904944 0.7019385
000070 09 7e 35 be 11 fb e0 3e 04 84 23 3e 3d 50 8f bd
       -0.1772386 0.43941548 0.15968329 -0.06997726
000080 4d e2 c4 3c e8 2d 69 bd 56 02 22 3c 3a 54 e2 3d
       0.02403369 -0.056928545 0.009888252 0.11051221
000090 9c 7b bb 3e 86 02 26 3d 4b ff 9b 3e f0 6c ac 3e
       0.36617744 0.04052975 0.3046821 0.33676863
0000a0 93 a6 cd 3e 1f 82 c2 3e 30 56 8d 3e 52 a2 1b 3e
       0.4016615 0.379899 0.27604818 0.15198639
0000b0 cd 1f c6 3e 76 32 c8 bd ca 1f e9 3c 99 f0 c7 3e
       0.38696137 -0.0977525 0.028457541 0.3905075
0000c0 78 2a 81 3e 08 5e 69 bc 18 64 28 bd 96 40 39 be
       0.25227714 -0.01424361 -0.04111108 -0.18091044
0000d0 06 23 b1 bd f0 96 00 3e bb 9c 1a 3e a5 6f be bc
       -0.08649258 0.12557578 0.1509885 -0.023246596
0000e0 a5 90 ee bd 9d 72 57 3c ee 09 5d bd 6b 42 7d 3e
       -0.116486825 0.0131498845 -0.053964548 0.24732368
0000f0 9b bf bb 3e 51 02 e2 3c 55 b5 32 be fc 23 29 be
       0.3666962 0.027588995 -0.17451985 -0.16517633
000100 92 e8 d3 bd e6 0b 45 3e 2b 9b 16 3f 3d 68 c8 3e
       -0.10347094 0.1924282 0.5883052 0.39142027
000110 5b d2 b1 bd f3 3c 7d 3d d3 42 8f 3d c9 59 48 3e
       -0.086827 0.061825704 0.069951676 0.195655
000120 0d 9f b9 bc 8e e1 a6 bd a2 a7 d8 3c 53 1b 40 3d
       -0.02265885 -0.0814849 0.026447121 0.04690106
000130 76 dd 1d 3e 95 d2 e6 3e a8 27 6a 3e 49 50 34 be
       0.15416512 0.45082536 0.2286669 -0.17608751
000140 8e 5e ac be 19 e1 01 be a5 b5 1c 3c a1 d4 17 3e
       -0.3366589 -0.12683524 0.009564792 0.14827205
000150 0c c5 0c 3d ca 86 3e bd fc b2 11 be 4e ae dd bd
       0.034367606 -0.046515264 -0.14228433 -0.108242616
000160 2a 07 26 be d0 6a df bd 7a 4c 6e bd 21 02 ba bd
       -0.1621367 -0.10909045 -0.058178402 -0.09082437
000170 58 b4 8f bb 0f 85 35 bd 0a 4e 99 bd 1b 7a 0b 3e
       -0.0043855123 -0.044316348 -0.07485588 0.13620798
000180 c1 57 d8 3d fc e3 0e be 58 72 ac bc 2e 4e 07 bd
       0.10563613 -0.13954157 -0.021050617 -0.033033542
000190 d5 ec 2c be 66 37 fc ba 29 9a 92 3d 99 ab 09 3f
       -0.16887219 -0.0019242584 0.0715831 0.5377746
0001a0 86 92 c0 3e 2a ff ce 3e 24 1e db 3e 4c ff bb 3e
       0.3761179 0.4042905 0.42796433 0.36718214
0001b0 6d cc 02 be 11 90 25 3d b0 24 67 bd d3 f6 55 3d
       -0.12773295 0.040420596 -0.056431472 0.052237343
0001c0 36 4a 62 3c c5 41 e7 3e cd f2 b2 bd 6d d5 37 bb
       0.013811639 0.45167366 -0.08737717 -0.0028050796
0001d0 d0 38 d3 bd e1 0a 5f be d1 24 08 be 01 f5 0b 3f
       -0.103135705 -0.21781494 -0.13295294 0.5467072
0001e0 75 71 36 3e 5c 74 2b bd 22 e2 d5 bd eb 35 f7 bd
       0.17816718 -0.041859016 -0.10443522 -0.12070831
0001f0 fd 8e 19 be e0 7e ce 3d 00 a2 cd b9 00 6a bd 3b
       -0.14995952 0.10082793 -0.00039221346 0.0057804585
000200 76 06 7e 3e b0 08 9d 3c fd e6 cf 3c c9 dc 80 3e
       0.24807152 0.019169182 0.025378698 0.25168446
000210 94 47 54 3a 35 80 41 be ee 62 a1 bd 86 a9 ce bb
       0.0008097824 -0.18896563 -0.078801975 -0.00630683
000220 81 10 8e bd a2 aa e1 3d 32 ba 46 3e 92 c1 b4 3e
       -0.069367416 0.11018874 0.19406965 0.35303932
000230 b0 8c 51 3d a6 23 8c 3d fc 13 37 be 82 7f 24 3f
       0.05115956 0.06842737 -0.17878717 0.6425706
000240 f3 97 ef 3e 89 23 54 3e cf df 05 3f 0c 31 b5 3d
       0.46795616 0.2071668 0.5229463 0.088472456
000250 db e4 b3 3d 62 b5 70 3e 8f dc 0e 3e 21 1b bb 3c
       0.08783885 0.23506692 0.13951324 0.022840085
000260 40 64 8e bd 54 0e 11 be 97 42 c1 3c a2 e2 e6 3e
       -0.06952715 -0.14165622 0.023591323 0.45094782
000270 fd 1f 66 3e 37 d5 b6 bd 58 cd 13 be 7e ac 6d bd
       0.2247314 -0.08927386 -0.14433801 -0.05802583
000280 60 6a 01 be 5a b5 df bd aa ed a2 3e 0b 55 74 bc
       -0.12638235 -0.10923262 0.31821948 -0.014912854
000290 85 da 03 3d 54 6f 85 3c cb 19 01 be 9f a0 82 3e
       0.03219082 0.016288437 -0.12607495 0.2551317
0002a0 de e8 ae 3e e4 1a 71 3a dc 81 3d be 32 b7 ed bd
       0.3416204 0.00091974274 -0.18506569 -0.11607207
0002b0 53 f9 0e 3c 1b 29 42 be 5e 1e 00 3f 44 5b ea 3d
       0.008726436 -0.18960993 0.50046337 0.11443189
0002c0 b3 09 62 bd a7 6f 15 be 31 bd c5 3c 5d e1 fd 3d
       -0.05518503 -0.14593373 0.024138065 0.123965

conv.weight f4 [5, 1, 34, 34]
000000 93 ea 53 be 6e 84 b5 be e7 fb be be d2 8d b0 be
       -0.20694952 -0.35452598 -0.3730156 -0.344832
000010 f5 08 80 be 97 7d 86 be a4 36 90 be 8a d4 b1 be
       -0.25006834 -0.26267692 -0.28166687 -0.34732467
000020 fd b2 bb be 55 1b c5 be 19 67 09 bf 82 ac 15 bf
       -0.36659995 -0.38497415 -0.5367294 -0.5846635
000030 1a 25 cb be 15 53 b6 be 99 78 85 be de 08 8f be
       -0.39676744 -0.35610262 -0.2606857 -0.27936453
000040 04 e7 9f be 02 0f 95 be c9 82 96 be de 43 6e be
       -0.31230938 -0.29113013 -0.29396656 -0.23268077
000050 82 b9 80 be 87 07 94 be 1e 43 df bd 27 7a 04 be
       -0.2514153 -0.28911993 -0.109014735 -0.12937222
000060 1b c2 4a be e3 c8 f9 bd 65 b4 02 be 6b 92 b0 bd
       -0.19800608 -0.12196519 -0.12764128 -0.08621677
000070 34 f7 f2 bd c6 63 23 be 29 ec 48 be 75 06 5e be
       -0.118635565 -0.1595603 -0.19621338 -0.2168215
000080 5e 19 03 be f9 00 0a be b2 2d 35 be c9 5e ba be
       -0.12802646 -0.13476934 -0.17693213 -0.3640044
000090 53 25 b8 be 07 2c b2 be 3f 2f a5 be d8 5b a1 be
       -0.35965976 -0.34799215 -0.32262608 -0.31515384
0000a0 81 f2 a1 be 5a 24 ba be 1e 7f c5 be 91 cb bf be
       -0.31630328 -0.3635586 -0.38573545 -0.37459996
0000b0 0c c9 05 bf a1 d9 0b bf 0e 8a bb be c4 51 ba be
       -0.522599 -0.5462895 -0.36628765 -0.36390507
0000c0 90 37 a7 be 02 0b b0 be d8 0c 9b be 95 56 90 be
       -0.32659578 -0.34383398 -0.30283237 -0.28191057
0000d0 29 da a0 be 79 8e 9a be df 95 8b be bd 94 72 be
       -0.31416443 -0.30186823 -0.2726278 -0.23689552
0000e0 2e 75 9f bd 6b 10 df bd 94 b2 36 be ff 98 2b be
       -0.07786022 -0.10891803 -0.1784156 -0.16757582
0000f0 91 6a 13 be db 9a f5 bd f0 f1 13 be 08 b8 21 be
       -0.1439612 -0.11992427 -0.1444776 -0.15792859
000100 07 23 44 be 3a c9 46 be b6 26 3e be ba 28 4b be
       -0.19153987 -0.194127 -0.18569455 -0.19839755
000110 de 88 85 be 01 f4 bb be 4e 9c d3 be bc 4b d0 be
       -0.26080984 -0.36709598 -0.4133019 -0.4068278
000120 87 27 f5 be 32 0e f4 be 83 75 0c bf 3f 75 e3 be
       -0.4788172 -0.4766708 -0.5486681 -0.4442539
000130 94 8d fd be 21 83 f4 be 07 4d 33 bf 67 05 18 bf
       -0.49522078 -0.47756293 -0.7003941 -0.59383243
000140 2f 7c 05 bf 0c f9 03 bf a0 a0 e0 be c4 5b c0 be
       -0.52142614 -0.5155189 -0.43872547 -0.37570012
000150 44 17 c0 be 86 12 bb be 1a 76 93 be a6 00 b8 be
       -0.3751775 -0.3653757 -0.28801042 -0.35937995
000160 87 ae d1 be 8a 10 a4 be 00 16 73 be 0d 4e 87 be
       -0.40953466 -0.32043868 -0.23738861 -0.26426736
000170 54 79 15 be 22 77 6a be fe 5a 48 be 58 8b 02 be
       -0.14597064 -0.22897008 -0.19565961 -0.12748468
000180 b9 3f a4 be d5 2f 8b be d1 55 44 be c4 1d 63 be
       -0.32079867 -0.2718493 -0.19173361 -0.22179323
000190 a1 4d 54 be e9 6e 5f be 59 87 99 be d5 e5 d6 be
       -0.20732738 -0.21819653 -0.29986075 -0.41972223
0001a0 b5 13 00 bf bc 4d 09 bf 82 57 11 bf ca 78 18 bf
       -0.5003007 -0.5363424 -0.5677415 -0.5955931
0001b0 16 a0 24 bf 41 d2 22 bf 1e f4 17 bf 52 8a 12 bf
       -0.6430677 -0.6360207 -0.5935687 -0.5724231
0001c0 36 dc 4a bf 59 e2 20 bf 8f b4 11 bf 28 5c 0d bf
       -0.79242265 -0.6284538 -0.56916136 -0.55218744
0001d0 8c 53 09 bf a3 b0 e1 be db df af be f6 e8 e4 be
       -0.5364311 -0.44080076 -0.34350476 -0.44708985
0001e0 23 2d c7 be 24 9d c4 be 0a 81 b8 be 56 e4 92 be
       -0.38901624 -0.3840114 -0.3603595 -0.28689831
0001f0 1e 89 23 be 89 3c 7f be 7a f2 0b be 24 f5 8a be
       -0.15970275 -0.24925436 -0.13666716 -0.27140152
000200 4e e5 75 be fd b3 32 be 9a 82 79 be 81 ff 94 be
       -0.24013254 -0.17451473 -0.24366227 -0.29101184
000210 dc 09 69 be 4a a7 44 be 6b 80 93 be c2 7c 66 be
       -0.22757667 -0.1920444 -0.28808913 -0.22508529
000220 ff cb 93 be 6e ea fd be f7 dd 01 bf 13 f6 19 bf
       -0.28866574 -0.49592918 -0.50729316 -0.60141104
000230 75 e3 02 bf 8d 50 1f bf 5c a9 20 bf bf ba 18 bf
       -0.5112832 -0.62232286 -0.6275842 -0.5965995
000240 06 a1 32 bf 67 01 3d bf 34 c5 18 bf a9 34 0e bf
       -0.6977695 -0.73830265 -0.5967591 -0.55549103
000250 c4 e7 28 bf 97 36 23 bf 7e 0b f7 be 9b 7f 0a bf
       -0.65978646 -0.6375517 -0.48250955 -0.5410096
000260 77 20 1c bf fe 92 f0 be ff 4a f2 be 31 13 e9 be
       -0.6098704 -0.46987146 -0.47322842 -0.45522454
000270 b6 2b bf be dc 1c a7 be 9b f2 ac be 18 f3 82 be
       -0.37338036 -0.32639205 -0.33778843 -0.2557609
000280 0c b6 cb bd 39 6a 8e be 9b d5 83 be 5e e0 7e be
       -0.09946832 -0.27815416 -0.25748906 -0.24890277
000290 1a 96 77 be cf 6e 91 be 64 05 8f be af 29 75 be
       -0.24178353 -0.28404853 -0.279338 -0.23941682
0002a0 df 9e 59 be 64 c3 6b be 22 59 b5 be 0e 16 f4 be
       -0.21252011 -0.23023754 -0.35419565 -0.47673076
0002b0 8a 4d f7 be 7a f5 0b bf 0a 3c 2a bf 34 76 4b bf
       -0.48301345 -0.5467144 -0.6649786 -0.7947724
0002c0 db b7 44 bf 6e d6 40 bf 8e d9 33 bf 23 2e 30 bf
       -0.7684304 -0.75327194 -0.7025384 -0.688204
0002d0 5f 43 2e bf 64 8c 3b bf bf c0 69 bf d6 47 7c bf
       -0.6807155 -0.73261094 -0.9130973 -0.9854711
0002e0 56 00 29 bf 5a 09 0d bf 9a 64 17 bf 7e 7f 05 bf
       -0.6601614 -0.55092394 -0.5913788 -0.5214766
0002f0 80 b9 1e bf a9 84 15 bf 30 e3 f3 be 3f 79 bb be
       -0.620018 -0.5840555 -0.47634268 -0.3661594
000300 b3 fb ec be 08 5a 0a bf 87 3a d8 bd ba c7 45 be
       -0.4628578 -0.54043627 -0.10558038 -0.19314471
000310 01 c7 93 be 38 96 a1 be c9 38 a0 be 75 54 b3 be
       -0.28862765 -0.3155992 -0.31293324 -0.35025373
000320 9e 00 95 be 56 d2 88 be da ff 1c be 98 82 51 be
       -0.29102033 -0.26722974 -0.15331975 -0.20459974
000330 d2 96 82 be 1a 22 e6 be 25 74 1b bf fd 53 37 bf
       -0.25505692 -0.44947892 -0.607241 -0.7161253
000340 6b 37 15 bf e2 c8 34 bf 29 63 30 bf 2b 39 2e bf
       -0.58287686 -0.7061902 -0.68901306 -0.6805598
000350 bd 22 5c bf eb 74 5c bf 27 1e 78 bf ab 92 53 bf
       -0.85990506 -0.861159 -0.9692101 -0.8264567
000360 45 f8 75 bf b0 6a 77 bf fd 65 3c bf d1 69 30 bf
       -0.96081954 -0.9664717 -0.7359312 -0.68911463
000370 d2 a9 29 bf 4f 77 34 bf d4 28 1f bf fa a5 2d bf
       -0.6627475 -0.7049455 -0.62171674 -0.67831385
000380 64 43 fe be 20 ce e5 be e0 3f e9 be 97 96 dd be
       -0.4966079 -0.44883823 -0.45556545 -0.43278953
000390 b5 b8 99 be 77 70 9d be 1b 09 bc be 1a dd bb be
       -0.30023733 -0.30749866 -0.36725697 -0.36692125
0003a0 3d 48 98 be 22 31 b3 be da 76 a6 be a2 36 ad be
       -0.29742613 -0.34998423 -0.32512552 -0.33830744
0003b0 73 8a 92 be 34 e7 6e be ac 84 78 be 89 98 c6 be
       -0.28621253 -0.23330384 -0.2426936 -0.3878825
0003c0 39 df fb be cc 49 01 bf 6c 85 d3 be 2c 2f 36 bf
       -0.49193743 -0.5050323 -0.4131273 -0.7116573
0003d0 f4 89 2f bf db f3 3d bf 59 1f 64 bf 84 a0 4f bf
       -0.68569875 -0.7420022 -0.8911033 -0.811043
0003e0 af c1 7c bf f0 9d 4c bf b7 5c 5f bf 1e 37 54 bf
       -0.9873304 -0.79928493 -0.87250847 -0.828966
0003f0 89 e4 2b bf c0 19 3e bf 3d e8 30 bf 04 c3 28 bf
       -0.6714559 -0.7425804 -0.6910437 -0.6592257

conv.weight f4 [5, 1, 10, 10]
000000 37 03 e6 bd fe c2 f8 bd 77 ca ff bd 84 f6 b0 bc
       -0.11231082 -0.12146567 -0.12489789 -0.021601923
000010 22 88 af 3b 9e a7 f7 bb f5 f0 cd 3b 70 66 d7 bd
       0.0053568045 -0.0075578233 0.006284828 -0.10517585
000020 c6 df 1f bd e1 6c e1 bc 5c fb 62 bd 8e 76 02 3c
       -0.039031766 -0.027517738 -0.055415496 0.007962836
000030 f9 c1 f6 bd 8b e6 42 3c 94 ed e5 bc f5 0a 7d bd
       -0.12048716 0.011895786 -0.028067388 -0.061778028
000040 ba 6c 86 bc a8 c5 2f bd a9 e8 48 bd ff a3 84 bd
       -0.016409267 -0.04291311 -0.049050007 -0.06476592
000050 a3 00 63 3c 61 f0 97 bd a4 3b 2d bd c4 a4 8f bd
       0.013855132 -0.074188955 -0.042293206 -0.070138484
000060 5f 58 f8 bd 05 76 bd bd 4b 30 af bc ad 33 09 be
       -0.121262304 -0.09251026 -0.021385333 -0.13398619
000070 b9 5d 76 bd 49 e7 9d bd a8 49 40 bd 79 51 8b bd
       -0.060147975 -0.0771013 -0.046945244 -0.06802649
000080 83 29 01 be a3 62 0b be be b7 e0 bc de 33 1f bd
       -0.12613492 -0.13611846 -0.027431365 -0.038867824
000090 51 98 fa bd aa d4 26 be 80 e7 54 bd 5e 88 7b bd
       -0.12236083 -0.16292062 -0.051978588 -0.061409347
0000a0 c9 c6 b6 bd 90 4f 2f 3c b2 ba ea 3c 67 43 1c be
       -0.08924634 0.0107001215 0.028653476 -0.15260087
0000b0 5e 34 d6 bd 43 b0 91 bd 42 a2 ce bd d5 f0 0a bc
       -0.10459207 -0.071136974 -0.10089542 -0.00848027
0000c0 3d 3d 13 be a4 6b 21 be 10 c7 e7 bb 24 0d a3 3b
       -0.1437883 -0.15763718 -0.0070732906 0.0049759317
0000d0 23 a5 fe bd b2 66 22 be c7 54 dd 3c 0e 4f 6b bd
       -0.12433841 -0.15859488 0.027017964 -0.05744844
0000e0 5b d1 88 bd 0f cd 13 be 72 c2 1a be eb cf f0 3c
       -0.066805564 -0.14433692 -0.15113238 0.029396018
0000f0 42 06 bd bd 02 fa 0f be 11 91 9f 3c ee 62 ef 3c
       -0.09229709 -0.14060214 0.019478353 0.029221978
000100 4d 2b 96 bd eb 60 38 bd 23 00 bc bd 63 2f a8 bd
       -0.07332478 -0.045014303 -0.091797136 -0.08212163
000110 ab 69 54 ba 30 03 94 bd 80 fc ba 3c 80 ae 47 3d
       -0.0008102904 -0.072271705 0.02282548 0.0487504
000120 a9 a2 ab bd 52 aa e7 bd 09 22 2d 3d 03 40 81 bd
       -0.08380634 -0.11311783 0.042268787 -0.063110374
000130 d5 20 e6 bd 67 05 10 bd f2 c1 11 be 4b 7c 10 be
       -0.11236731 -0.035161402 -0.1423414 -0.14109914
000140 99 e0 91 bd a4 71 95 3d 8b 48 3d bd a1 5d fe bd
       -0.07122917 0.07297066 -0.04621176 -0.12420202
000150 0e dd ea bd 7b 6a 4f bd 10 ae ef bb e7 84 79 bc
       -0.11467944 -0.050638657 -0.007314451 -0.01522944
000160 89 38 1b bc cc 4f 02 be ad bb 7a 3d f6 e2 02 bd
       -0.009473928 -0.12725753 0.061214138 -0.031954728
000170 46 e9 21 3d 58 7a 2f be 03 1b 1d be ac 79 26 3d
       0.039529108 -0.17136514 -0.15342335 0.04064338
000180 cb 00 ea bd af bb fa 3c 2d a6 90 bd 9b c4 61 3c
       -0.114259325 0.030607073 -0.070629455 0.013779785
000190 17 93 ca 3d 79 2e 0f 3e b9 a1 87 3d 99 3c 22 3e
       0.098913364 0.13982572 0.06622643 0.15843429
0001a0 1f aa 63 3c e0 f1 e1 3d d0 57 3f 3e 38 e7 2f 3e
       0.0138955405 0.11032462 0.18685842 0.17178047
0001b0 ea 6a 2e 3e e1 70 86 3e 6e fe b5 3d 7c 40 d7 3d
       0.17032972 0.26257995 0.08886419 0.10510346
0001c0 53 f2 bc 3d ba 24 32 3e c9 67 bc 3d bf ff 69 3e
       0.09225907 0.17396823 0.09199483 0.22851466
0001d0 ce 6d 83 3e 98 8c 00 3e 23 bf 1f 3e 1d 7c 40 3e
       0.25669712 0.12553632 0.15600257 0.18797345
0001e0 46 68 0b 3e a0 11 27 3e e9 f5 b9 3d 2c b1 49 3e
       0.13613996 0.16315317 0.09080107 0.19696492
0001f0 15 b5 70 3e 53 27 bb 3d d4 e5 12 3e 4e 26 e5 3d
       0.23506577 0.0913836 0.14345485 0.11188947
000200 17 f6 9f 3e d8 e5 89 3e 23 bd 57 3e 07 52 42 3e
       0.3124244 0.2693317 0.21068244 0.18976603
000210 db 00 29 3e 96 36 47 3e f0 79 1f 3e 25 2e 6d 3e
       0.16504233 0.19454417 0.15573859 0.23162134
000220 17 0b 57 3d bb 8e a3 3d f7 1a 99 3e a6 64 46 3e
       0.05250081 0.07986208 0.29903385 0.19374332
000230 7d 5d f2 3d 79 72 15 3e 23 9d 19 3e 10 ef ef 3d
       0.11834238 0.14594449 0.15001349 0.117155194
000240 64 0a 15 3e 7a e3 0a 3e 6b ff 57 3d c1 9b d0 3d
       0.14554745 0.13563338 0.05273382 0.10185958
000250 57 88 80 3e 7c fc 6f 3e a8 d4 70 3e 43 7c 6e 3e
       0.2510402 0.23436159 0.23518622 0.2328959
000260 b6 54 19 3e 10 6f e0 3d 22 1c 8c 3e 26 67 4a 3e
       0.14973721 0.109586835 0.27365214 0.1976591
000270 25 8b dd 3d 53 87 4b 3e a9 44 73 3e 3c ac 92 3e
       0.10817555 0.19875841 0.2375666 0.2864703
000280 f8 3d e7 3d e5 4f 1d 3d 2f b2 22 3e 52 0d f2 3d
       0.112911165 0.03840627 0.15888284 0.11818947
000290 11 0b cc 3d 5a ce d2 3d 5c 29 62 3e 38 86 3f 3e
       0.09963048 0.10293265 0.2208609 0.18703544
0002a0 3b 7e 1f 3e c1 55 67 3e cf 70 11 3e 94 47 3e 3d
       0.15575497 0.22591306 0.1420319 0.04645498
0002b0 76 f9 d5 3d 74 23 05 3e cb e1 45 3e 73 13 63 3e
       0.104479715 0.13001806 0.19324414 0.22175388
0002c0 44 db 1b 3e b1 eb 5f 3e 80 11 00 3e 3e cf 46 3e
       0.15220362 0.21867253 0.12506676 0.19414994
0002d0 a0 94 7d 3e cc 5d f7 3d 12 2c 40 3e 03 f5 86 3e
       0.24763727 0.12078437 0.18766811 0.26358804
0002e0 4a 8a 6d 3e 64 06 a1 3e 17 db 92 3e c8 78 5e 3e
       0.23197284 0.31450188 0.28682777 0.21725762
0002f0 8e 90 85 3e 55 d8 3c 3e 98 00 2c 3e 00 28 09 3e
       0.2608685 0.18441899 0.16797101 0.13394165
000300 27 dd 76 3e 65 72 0f 3e b9 94 37 3e 9d 5b b2 3e
       0.241078 0.14008482 0.17927827 0.3483552
000310 4f 85 76 3e e0 eb 51 3e ca c6 68 3e b0 bc 0a 3e
       0.2407429 0.20500135 0.22732082 0.13548541
000320 97 00 2e bd 87 9e c7 bd 80 ea 7e 3c a3 5a 79 bd
       -0.04248103 -0.097470336 0.015558839 -0.060877454
000330 a1 89 a8 3d 2a 7c ac 3b 21 61 16 be a8 63 1a be
       0.08229376 0.005263825 -0.14685489 -0.15077078
000340 42 fd 5b bd 2e 3e 1f 3b 68 ec 88 3c 80 ce 91 bd
       -0.053708322 0.0024298537 0.01671429 -0.07119465
000350 56 6b 94 bd 30 26 1b bc 92 2b 49 3d 95 50 c4 bd
       -0.07247035 -0.009469554 0.049113818 -0.09585682
000360 c8 71 81 bc ff 94 6b bc 56 36 18 3d 01 37 c8 bc
       -0.015801325 -0.014378785 0.037161194 -0.02444029
000370 33 34 99 bd 9a 30 2b 3d 9c 60 df 3c 35 f8 c5 3d
       -0.07480659 0.041794397 0.027267747 0.09666482
000380 05 62 aa bd cc 3f b8 3c c6 f6 2f 3d f2 f0 97 bd
       -0.08319477 0.022491358 0.04295995 -0.074190035
000390 30 ce 09 be 9a e7 f0 3b 44 d5 e3 3c d0 74 c1 bb
       -0.1345756 0.007351828 0.027811654 -0.0059038177
0003a0 60 0f 04 bb de 87 39 3d 42 eb 28 3d 8d 54 6f bd
       -0.0020150766 0.04529559 0.041239984 -0.058430243
0003b0 9a d2 44 3d 8c c4 de bc bd 18 2a bc 22 d9 b2 bd
       0.048052408 -0.02719333 -0.010381875 -0.08732821
0003c0 3f 70 bd bd 60 e7 af 3b 27 47 50 bd a2 7e 17 3d
       -0.09249925 0.005368158 -0.050849106 0.036986
0003d0 d0 ac 25 3c 96 3f 63 3d f2 5d 02 3d 8a 01 08 bd
       0.0101120025 0.055480562 0.031827874 -0.033204593
0003e0 2f 03 95 3c e1 8b d9 3b 02 38 6f bd 46 38 89 bd
       0.018189995 0.0066389893 -0.058403023 -0.067001864
0003f0 46 2f 1b 3d 87 18 26 bd 12 50 18 3d fd a0 c2 bd
       0.03788688 -0.040550735 0.037185736 -0.09503362

conv.bias f4 [5]
000000 d7 1a 21 be b1 f6 15 bd 99 46 92 bd 00 ee 4b be
       -0.15732895 -0.036612216 -0.07142372 -0.19915009
000010 62 a7 9a 3d
       0.07551457

fc1.weight f4 [64, 180]
000000 4d 39 83 3d a9 4f 84 bd 4c 46 90 3c 80 31 7e bc
       0.06407414 -0.064605065 0.017611645 -0.015514731
000010 60 94 a1 3c e8 7e d6 3c d6 16 79 3d ec 54 95 bc
       0.019724071 0.02618356 0.060812794 -0.01822897
000020 60 e7 ed 3d 7e ac 8c 3d 40 90 e3 3a 75 30 88 3d
       0.11616397 0.06868838 0.0017361715 0.066498674
000030 64 34 93 bd 60 6f 58 3c ed 6c 6d 3d 97 b7 09 bb
       -0.07187727 0.013210148 0.057965208 -0.002101397
000040 2a 8c a6 bc d5 b9 2b bd d2 a1 66 bd ae 64 a0 3d
       -0.020330507 -0.04192527 -0.056306668 0.07831703
000050 5a 29 85 3d 54 b2 f8 3d e6 90 af 3c ca 4d 60 bd
       0.06502028 0.121433884 0.021431398 -0.054761685
000060 ea fc 1f 3d 96 aa 28 3b b4 c9 da 3b 71 05 00 bc
       0.039059557 0.0025736443 0.006676877 -0.007813797
000070 f1 5b 90 3a d3 d6 1f bd ec 3b b9 3c 72 0d 6b 3d
       0.0011013729 -0.03902323 0.02261158 0.05738587
000080 28 90 39 3c b0 84 4d 3d b0 80 1e 3c 00 08 c8 3b
       0.011325873 0.05017537 0.009674236 0.0061044693
000090 53 2b 87 3c 23 17 c5 bd 0d 3d eb bd 92 1f 89 bd
       0.01650015 -0.096235536 -0.11486254 -0.06695475
0000a0 6c 10 aa bc c6 c4 c5 bd e4 69 1e bc f8 91 ec bc
       -0.020759784 -0.09656672 -0.009668801 -0.028878197
0000b0 5b b4 19 bd cd 55 81 bd e7 3e be bd 72 af b7 bd
       -0.037525516 -0.06315193 -0.092893414 -0.089690104
0000c0 13 6c 9b bd 7a 9f 90 bb e6 5d c2 bd 2b ef 2d bd
       -0.07588973 -0.0044135423 -0.09490566 -0.042464416
0000d0 45 cf 4e bd 0c 98 a2 bd 54 1f 12 bd ad 96 85 bd
       -0.050490636 -0.07939157 -0.035674408 -0.0652288
0000e0 9e 53 f7 ba 8f 3f 25 bd 98 01 2b bc 04 76 88 bd
       -0.0018869524 -0.040343817 -0.010437392 -0.06663135
0000f0 6c c1 3e bd cb 46 a3 bd e6 10 04 be c2 5d 74 bc
       -0.04657118 -0.07972487 -0.12897071 -0.014914932
000100 74 a6 20 bd 16 ac e3 3c c5 fe a9 bd cf 6d 2d bc
       -0.039221242 0.027792018 -0.083005466 -0.010585262
000110 49 a6 e3 bd 8e 90 b2 bc 97 ca c7 3c 3d 28 cb bd
       -0.11115701 -0.021797445 0.024388595 -0.09919784
000120 80 04 c9 3c 5c 32 ff bc e6 0b 90 bd bb 9b 8b bd
       0.024538279 -0.031151943 -0.070335194 -0.068168126
000130 01 39 8d bd 68 81 01 3c 8c 4d a1 3c 5f fc 89 3d
       -0.06895638 0.007904388 0.019690298 0.06737589
000140 8a 12 de bc f7 59 83 3d 3c dc e0 3c c8 0c 2a 3c
       -0.02710845 0.06413644 0.027448766 0.010379024
000150 d4 2e de bc 80 7e ae 3a 10 9e 87 bb 33 7d 21 bd
       -0.027121939 0.0013312846 -0.0041387156 -0.03942604
000160 e8 1c 0c 3c 88 58 51 bd 8e 1a a7 bc 08 dc 01 3c
       0.008551814 -0.05110982 -0.020398404 0.007925995
000170 80 9b fd 3b 87 cf 82 bd 2e 4d 1d 3d fa f3 8e bc
       0.0077394843 -0.06387239 0.038403682 -0.017450321
000180 20 8c e0 bc a7 bf 52 bc 87 b9 8e bc 63 a6 06 bd
       -0.027410567 -0.012863076 -0.01742245 -0.032873522
000190 a4 b5 f5 bc 2b d6 84 bd 74 34 b3 3c 48 24 dd 3c
       -0.02999384 -0.06486162 0.021875598 0.02699484
0001a0 eb 3c 61 bd 4c 37 12 3d ba de 5e 3d d6 b9 82 bc
       -0.054989737 0.035697266 0.054411627 -0.015957754
0001b0 02 db 6c 3d 60 02 2f bc e2 04 90 bd 40 03 fd 3a
       0.05782605 -0.010681719 -0.07032181 0.0019303337
0001c0 ab e4 84 3d 08 89 30 3c 00 8c a9 bc 38 e9 90 3c
       0.064889275 0.010774858 -0.02069664 0.017689332
0001d0 dd 1c 08 bd 7f ad 94 bd 72 6e 8a bd ae 33 95 bd
       -0.03323065 -0.07259654 -0.06759347 -0.07285248
0001e0 f2 28 4f bd 96 ee 3b 3d e3 a2 03 3d 22 b5 53 bd
       -0.050576158 0.04588183 0.032137763 -0.051686414
0001f0 af 0c bc 3c c0 e5 17 bc a4 7e 8d 3c fb 6e 14 bd
       0.022955267 -0.009271085 0.017272301 -0.03623865
000200 f3 63 80 3d 7c d9 36 bd a2 63 85 3d e4 6d 21 bd
       0.06269064 -0.044641003 0.06513144 -0.03941144
000210 d4 80 01 3d 12 30 82 bc 5a d4 ee bc f7 40 2b 3d
       0.031617 -0.015892062 -0.029153991 0.041810002
000220 26 3f 92 3d 5b ba 2b bd 07 24 85 3d 9b a5 21 bd
       0.07140951 -0.04192577 0.06501012 -0.039464574
000230 af 65 82 bd e8 12 d0 bc 1b a9 81 bd 3d cf 56 bd
       -0.06367051 -0.02539964 -0.063310824 -0.05244373
000240 f9 6e d4 bc 00 9b 1d bc 6a 20 2d 3d 97 fd 26 bd
       -0.025931822 -0.009619474 0.04226724 -0.040769186
000250 b3 17 3e bd a3 d7 a9 3b 06 83 46 3b 37 c2 05 3d
       -0.04640932 0.0051831766 0.0030290498 0.03265592
000260 ea 4a 37 3c 5e 08 12 3c 95 cf a8 3c 92 dc 10 3d
       0.0111872945 0.008913128 0.020606795 0.035366602
000270 ab b8 00 3d 9b d1 7e bd 55 c0 3d bd 29 66 48 3c
       0.031426113 -0.062211614 -0.046326 0.012231388
000280 c1 d7 ef bd 5a c4 a7 3c 73 93 b9 3c 69 ba c7 bd
       -0.11711074 0.02047937 0.022653317 -0.09752352
000290 08 cd c9 3b 0c ad 75 bd 90 a2 c7 bd ec 13 b6 3a
       0.006158475 -0.059979483 -0.09747803 0.0013891435
0002a0 63 b9 6b bd e8 bc c7 3c a7 a2 e7 bd 75 ce 04 bc
       -0.057549845 0.02438207 -0.1131032 -0.008105864
0002b0 30 f6 c7 bb 17 c2 83 bc 60 fb 31 bd bd f0 85 3c
       -0.006102346 -0.01608376 -0.04345262 0.016350145
0002c0 9d 76 ae bd 08 54 8e bd db c6 54 bd f0 94 a7 bc
       -0.085187174 -0.069496214 -0.051947456 -0.020456761
0002d0 1e cf 10 3d ec 9b b4 bc 2a 3a 4e bd 44 c5 bf bc
       0.035353772 -0.022047006 -0.05034844 -0.023409493
0002e0 e9 ef 92 3d c0 88 af bb 52 78 2e 3d 40 f7 59 3c
       0.071746655 -0.005356878 0.042595215 0.013303578
0002f0 84 4c e7 3c 55 3d 7c 3c 12 73 5c 3d d4 62 8c 3c
       0.028234728 0.015395482 0.053820677 0.017136969
000300 a7 4b 82 3d c4 61 e3 3d f1 86 45 bd 50 ce 10 bd
       0.06362086 0.11102632 -0.048224393 -0.035353005
000310 08 68 b9 bd 58 9c 33 bc b8 f1 23 bc e2 5d bc bc
       -0.090530455 -0.010962568 -0.010006361 -0.022993986
000320 04 32 05 3d 9e 81 ab 3b f5 96 05 3d da 38 cf bc
       0.0325184 0.0052339574 0.032614667 -0.025295664
000330 4a 64 7a bd 5c 2a 91 3c af 07 60 3c 09 74 d6 bd
       -0.0611308 0.017720394 0.013673707 -0.10471351
000340 93 5b 8a bc cc 2f 03 3d 70 8b bf 3b 20 62 b9 bc
       -0.01688937 0.032028005 0.0058454797 -0.022629797
000350 ae 7e 4a 3d 52 b0 ce bc e0 6b 53 bb 70 aa 29 3c
       0.049437217 -0.02523056 -0.0032260343 0.010355577
000360 5c 9c c2 3c 18 1a b0 3c 81 16 00 bd c2 dd 03 3d
       0.023756199 0.021496817 -0.03127146 0.032193907
000370 9f ad 79 bd e8 b0 de bc c0 78 06 3b fc d8 73 bc
       -0.060956594 -0.027183965 0.002051875 -0.014883276
000380 71 62 e8 3c 30 ea 45 3c 40 c9 fb bc 54 f9 84 bd
       0.028367253 0.01207976 -0.030735612 -0.06492868
000390 f6 47 08 3d 61 54 0c bd 00 46 e1 bd 99 d5 ec bc
       0.033271752 -0.034260157 -0.109996796 -0.028910445
0003a0 cd 7c 4f bd 40 3e be bc 80 ed 16 3a fe 09 80 bc
       -0.05065613 -0.023223042 0.0005757436 -0.015629765
0003b0 9a ae 9b bd e6 fa bc bc 29 7f 59 bd ec 1a a0 bc
       -0.07601662 -0.023068856 -0.053099785 -0.019544087
0003c0 78 47 37 3d fd 53 4e bd 94 67 85 bd 6a 3e 0f bd
       0.044745892 -0.050373066 -0.065138966 -0.034971632
0003d0 b1 0f 81 bc 0e e3 28 3d b8 01 29 bd d5 99 80 3d
       -0.015754553 0.04123216 -0.041261405 0.06279341
0003e0 38 f2 4b bc 5a 8b 30 bd a0 7a 41 3c 76 eb 00 3d
       -0.012447886 -0.043101646 0.011809021 0.031474553
0003f0 c8 34 ff bc 47 38 2d bd 6a b0 3c 3d 60 f4 17 bb
       -0.031153098 -0.04229 0.04606668 -0.002318643

fc1.bias f4 [64]
000000 40 65 c0 bc 21 a1 cb bd 95 df 30 bc 6e a4 86 bc
       -0.02348578 -0.09942842 -0.010795494 -0.016435828
000010 02 3c a4 bc 0b e9 cd bc a1 3f 97 bd 6e 29 af bd
       -0.020048145 -0.025135538 -0.07385183 -0.08552824
000020 87 c5 92 bd 8f 20 86 bd f7 9d 10 bd b3 64 a7 bd
       -0.071665816 -0.06549179 -0.035306897 -0.08173504
000030 9a 1f 6c bd 38 09 90 bd 91 d7 b0 bd 33 ee 6e bd
       -0.057647325 -0.07033008 -0.08634866 -0.058332633
000040 a1 f1 86 bd 19 bb ad bb 03 fa c3 bd 86 48 22 bc
       -0.06589056 -0.005301845 -0.0956917 -0.009904986
000050 b4 ac e7 3d 78 66 43 3d 6e 29 13 3d 88 e4 15 3e
       0.113122374 0.047705144 0.035928182 0.14637959
000060 fd ff 50 3e d2 82 88 bd d7 5c a9 bd 73 58 94 bd
       0.20410152 -0.06665577 -0.08269661 -0.07243433
000070 2f f5 85 3e b0 9c 1e 3c 04 bb 49 3e 41 cd bc bd
       0.26163623 0.009680912 0.19700247 -0.092188366
000080 d8 57 ff bd 1e d3 67 bd b2 86 4b bd 94 2d 39 3d
       -0.12467927 -0.05659782 -0.049689002 0.045209482
000090 16 b2 4d bc 47 d3 e4 bd 61 7f 27 bd fe 38 fe bc
       -0.012554666 -0.111731105 -0.040892962 -0.031033035
0000a0 28 a2 7a bd 32 ef 57 3d de c9 a8 3d 9c 3e 87 bc
       -0.0611898 0.05271835 0.08241628 -0.016509347
0000b0 f0 62 33 bd 0b 35 df 3d d1 a7 b5 bd 7b 7f cd bd
       -0.043795526 0.10898789 -0.08869899 -0.100340806
0000c0 c6 c3 b2 bd 3a 43 4f 3d f7 2b e6 bd 8a a6 cf bd
       -0.08728747 0.05060122 -0.112388544 -0.10139187
0000d0 86 22 94 bd 61 ad 9d bc 3f e8 e3 3d 27 8f 84 bd
       -0.07233147 -0.019247713 0.11128282 -0.06472617
0000e0 5c 8a 04 be 0d 01 94 3d 7d b7 53 3c 5c 12 6c 3d
       -0.12943405 0.07226763 0.012922165 0.057634696
0000f0 40 19 91 3d 98 13 2b bc 3c dc 2d bd 5b ee eb bb
       0.07084894 -0.010441683 -0.04244636 -0.007200045
