src/flatland/flat_game/results/ourmethod_reg5/rep_learner.pth (torch_old, 312904 bytes, 33 tensors)

representations f4 [6]
0.005350403 1.274538 -0.008722244 -0.007862138 0.0011412764 -0.0012532319
00000000: 6f52 af3b 1024 a33f bee7 0ebc 32d0 00bc
00000010: e296 953a 7c43 a4ba

representations f4 [6]
0.0020657103 -1.2653447 -0.004210608 -0.0037902365 -0.0023660124 0.006923805
00000000: de60 073b d1f6 a1bf 24f9 89bb 9e65 78bb
00000010: 1a0f 1bbb 16e1 e23b

representations f4 [6]
0.0008223565 0.0015841424 0.0008368623 -0.000986221 0.6282726 -0.0049522347
00000000: 6993 573a 00a3 cf3a e160 5b3a 1644 81ba
00000010: 79d6 203f 5b46 a2bb

representations f4 [6]
0.00020712323 -0.0016609346 0.00047066953 -0.00069235713 -0.62840843 0.0066719097
00000000: 382f 5939 b8b3 d9ba 32c4 f639 4d7f 35ba
00000010: 60df 20bf 09a0 da3b

fc1.weight f4 [64, 4]
0.18049565 -2.498263 0.14415932 0.10062853 0.03452612 1.1064696 0.34599456 -2.655266
-0.037766732 1.0499575 1.3318721 0.47829634 0.9130083 0.45682743 -0.7130271 -1.858253
-2.691274 0.0049897274 -0.09458485 0.122389354 -0.704981 0.904438 0.38603562 -0.0027788244
0.52091897 -0.34007207 -1.6691245 0.97933173 0.90655035 -0.31100178 0.9853027 -0.44883746
0.021440381 1.3606799 -0.1764283 -1.2724792 0.08374314 1.6111963 0.043205775 -0.069538854
0.027091512 -2.4601924 0.11866232 1.9377075 -0.60502976 1.7330438 0.43213484 0.00691351
0.10448545 1.7363114 -0.06819845 -0.13997462 1.1090217 -0.27311265 -0.38276094 -0.17880428
0.9848762 1.4941065 0.636323 -0.050098874 1.6753141 -0.6804628 -0.38088006 1.8102689
-0.6238139 1.9235399 2.0374098 -0.6745898 -1.461513 -1.8024864 0.8784956 -0.006710962
-0.06725135 -2.7107017 0.21302976 2.2062588 0.45118248 -0.7367447 1.002077 1.1620681
2.037586 0.2878361 -0.5304766 -0.08306419 -2.726251 0.09592436 2.121214 -0.051453438
-0.0006131863 0.12697053 0.037798095 0.30599868 -0.008091181 1.5299418 -0.020894116 -1.12788
-0.394366 2.2565901 -1.4864442 1.0607126 0.33531365 -1.270827 0.34795913 -3.0786662
0.6923852 1.0639179 1.7848743 -0.9251001 -0.113496296 1.5598302 0.04861165 -1.111543
1.2831655 1.4433414 0.6541164 -1.1474931 1.8925356 -0.013119416 -0.009912649 0.020900993
-0.58853316 0.55383605 -1.2323403 -0.4457126 -1.805054 -0.7322385 -0.41683808 -0.28488827
0.21898729 0.793603 -1.1069351 0.13659628 -0.070681214 -3.3994102 -0.122927636 -0.006776583
-0.023438279 3.3097253 -0.0073417234 -0.24800882 -1.269043 -0.9540176 0.4030976 1.6578186
-0.6802672 -0.017308617 3.7383807 0.011358603 0.40586668 -0.22100358 0.7864999 1.9224747
-0.55536926 -1.9313596 -0.9142404 -1.0487665 2.0748544 1.0096052 -0.48655358 0.46208164
-0.2294187 1.3107878 -0.21740079 -1.2217586 1.8462455 0.12739137 -1.0139742 0.34374726
-2.746466 -0.12859449 -0.074718595 0.0039995355 0.12802964 -0.07941216 -0.18453336 0.14187032
-0.6890297 0.7477734 -0.97005737 -0.017709013 -1.3698355 0.61426973 -0.820164 1.2704415
1.4249507 -0.18299007 2.087486 0.020974314 0.13176395 2.1132858 0.023472477 -0.14186178
-0.029636927 2.0416996 0.13545296 -1.4832885 -0.11532706 -0.21215093 0.023311794 0.30373198
0.046366587 -2.3352165 -8.865085e-05 1.7182738 1.1344895 1.3280067 -0.41945264 -1.5309025
-1.2123958 -0.07043445 -0.6966361 -1.553702 -0.02152781 1.954629 0.11679952 -0.72366965
0.7664794 -0.18439874 -0.9170117 0.06708931 0.5860078 0.73106366 0.08468478 -1.2733731
-0.7195718 -0.00022199108 3.722293 -0.09355155 -2.6597311 0.044693045 2.0862792 0.06696577
-0.033493742 -2.7226782 0.0049218107 0.18450274 -0.054237656 2.1934438 0.07933749 1.4501407
-1.8131614 -0.08444038 -3.0213487 0.0029611653 0.03497121 1.9648647 0.006251173 -1.5231429
1.7877928 -0.016122317 -0.02303175 0.009893584 1.6027731 0.5203401 1.0630072 -0.28749895
00000000: dad3 383e 8ae3 1fc0 809e 133e 5516 ce3d
00000010: 436b 0d3d cca0 8d3f 3326 b13e e1ef 29c0
00000020: 4ab1 1abd 0265 863f c97a aa3f 42e3 f43e
00000030: e9ba 693f 49e5 e93e f288 36bf 3cdb edbf
00000040: d53d 2cc0 de80 a33b b4b5 c1bd 45a7 fa3d
00000050: a379 34bf 4089 673f 76a6 c53e f01c 36bb
00000060: f25a 053f ed1d aebe dfa5 d5bf 7cb5 7a3f
00000070: af13 683f a03b 9fbe cc3c 7c3f 06ce e5be
00000080: bda3 af3c c22a ae3f 9fa9 34be 99e0 a2bf
00000090: 8681 ab3d ae3b ce3f 8af8 303d 636a 8ebd
000000a0: 05ef dd3c cb73 1dc0 3b05 f33d cd06 f83f
000000b0: 3be3 1abf 61d4 dd3f c740 dd3e ba8a e23b
000000c0: 78fc d53d 743f de3f a1ab 8bbd 8255 0fbe
000000d0: 6cf4 8d3f 6cd5 8bbe 3ef9 c3be 7818 37be
000000e0: d920 7c3f e23e bf3f 10e6 223f 7a34 4dbd
000000f0: b170 d63f cf32 2ebf b602 c3be e4b6 e73f
00000100: 45b2 1fbf 8e36 f63f ec64 0240 ebb1 2cbf
00000110: dc12 bbbf e0b7 e6bf 16e5 603f a1e7 dbbb
00000120: 13bb 89bd 237c 2dc0 7924 5a3e 5833 0d40
00000130: 6401 e73e 4d9b 3cbf 0f44 803f a6be 943f
00000140: cf67 0240 415f 933e 51cd 07bf 8f1d aabd
00000150: e57a 2ec0 fe73 c43d f8c1 0740 d7c0 52bd
00000160: 3cbe 20ba 9004 023e 2dd2 1a3d dcab 9c3e
00000170: df90 04bc 22d5 c33f 232a abbc 5f5e 90bf
00000180: 57ea c9be f96b 1040 ce43 bebf 6ec5 873f
00000190: 3bae ab3e 76aa a2bf b327 b23e de08 45c0
000001a0: 2840 313f 762e 883f c376 e43f 5cd3 6cbf
000001b0: bf70 e8bd 84a8 c73f 021d 473d 0b47 8ebf
000001c0: c43e a43f 69bf b83f 2c74 273f 0ee1 92bf
000001d0: 9b3e f23f d2f2 56bc aa68 22bc 8f38 ab3c
000001e0: 1caa 16bf 33c8 0d3f 54bd 9dbf 7134 e4be
000001f0: 020c e7bf fb73 3bbf cd6b d5be e0dc 91be
00000200: 343e 603e 9129 4b3f 0db0 8dbf e5df 0b3e
00000210: 50c1 90bd f08f 59c0 7cc1 fbbd 190e debb
00000220: a201 c0bc 8ad2 5340 d792 f0bb 06f6 7dbe
00000230: 0070 a2bf 7f3a 74bf cf62 ce3e 6633 d43f
00000240: fe25 2ebf cdca 8dbc a141 6f40 6f19 3a3c
00000250: c2cd cf3e c34e 62be 0f58 493f a713 f63f
00000260: ae2c 0ebf cb36 f7bf a90b 6abf fb3d 86bf
00000270: 6aca 0440 be3a 813f 8d1d f9be f795 ec3e
00000280: bcec 6abe e5c7 a73f 509e 5ebe 9662 9cbf
00000290: c651 ec3f e272 023e e8c9 81bf a4ff af3e
000002a0: 19c6 2fc0 46ae 03be 1006 99bd 890e 833b
000002b0: 341a 033e d8a2 a2bd 50f6 3cbe 7446 113e
000002c0: 4064 30bf 146e 3f3f ae55 78bf 7e12 91bc
000002d0: c556 afbf c840 1d3f 45f6 51bf d49d a23f
000002e0: c964 b63f c061 3bbe 5f99 0540 53d2 ab3c
000002f0: 21ed 063e 1340 0740 5a49 c03c 3744 11be
00000300: 24c9 f2bc 35ab 0240 2eb4 0a3e 66dc bdbf
00000310: 9830 ecbd 183e 59be 60f8 be3c c282 9b3e
00000320: e4ea 3d3d 3074 15c0 10ea b9b8 65f0 db3f
00000330: f436 913f 20fc a93f 7fc2 d6be 9df4 c3bf
00000340: c92f 9bbf f03f 90bd be56 32bf b5df c6bf
00000350: 175b b0bc 4831 fa3f 9634 ef3d 6a42 39bf
00000360: fe37 443f 06d3 3cbe 47c1 6abf 1f66 893d
00000370: 9b04 163f fd26 3b3f 376f ad3d e4fd a2bf
00000380: dc35 38bf 47c6 68b9 0c3a 6e40 f497 bfbd
00000390: 0939 2ac0 0e10 373d 9985 0540 5a25 893d
000003a0: bc30 09bd 5c40 2ec0 2447 a13b 49ee 3c3e
000003b0: 4e28 5ebd 6261 0c40 b27b a23d 369e b93f
000003c0: ac15 e8bf 14ef acbd c75d 41c0 1c10 423b
000003d0: f93d 0f3d b080 fb3f a4d6 cc3b 59f6 c2bf
000003e0: 65d6 e43f f312 84bc 15ad bcbc b318 223c
000003f0: ab27 cd3f 0235 053f 9f10 883f 1033 93be

fc1.bias f4 [64]
-0.13768756 -0.4895906 0.17473146 0.21207239 0.073798895 0.28754744 0.7446887 0.5069199
-0.020824768 -0.056844447 -0.07592611 -0.21844542 -0.039578922 0.41901174 -0.5318358 0.8752678
-1.5091372 0.7017155 -0.14968288 0.7960567 0.5579807 -0.92676276 -0.4476484 -0.031207142
-1.0690718 -0.13034472 -0.40500385 -0.010969319 -0.7165359 0.844288 0.19161537 0.3024181
0.3526484 -0.0011908268 -0.016496431 1.0996686 0.4301203 0.51798534 0.7783435 0.17162648
0.039429784 0.5730671 0.06339683 -0.36075628 0.32859436 0.5558503 0.78904027 -0.077939875
-0.05238173 -0.3942719 -0.02233186 -0.3310814 0.23584427 -0.6291307 0.46862257 -0.15872072
0.38215756 -0.8570331 -0.016554909 -0.038250875 0.23245695 -0.0885396 0.80223864 0.5258297
00000000: f8fd 0cbe 9eab fabe ceec 323e 8129 593e
00000010: e023 973d 6b39 933e eba3 3e3f 81c5 013f
00000020: b498 aabc b9d5 68bd 267f 9bbd 28b0 5fbe
00000030: 821d 22bd b588 d63e 6426 08bf 8d11 603f
00000040: 682b c1bf a1a3 333f 7846 19be 5fca 4b3f
00000050: d3d7 0e3f 5340 6dbf 2c32 e5be 1fa6 ffbc
00000060: 58d7 88bf 1679 05be aa5c cfbe a9b8 33bc
00000070: e66e 37bf 4223 583f d236 443e 8cd6 9a3e
00000080: 558e b43e 8415 9cba 8623 87bc f1c1 8c3f
00000090: ba38 dc3e b09a 043f 8541 473f dabe 2f3e
000000a0: 2081 213d 87b4 123f 32d6 813d 0cb5 b8be
000000b0: 853d a83e 354c 0e3f 8bfe 493f f19e 9fbd
000000c0: 3a8e 56bd 02de c9be 4ef1 b6bc 8083 a9be
000000d0: 2981 713e b60e 21bf 4cef ef3e af87 22be
000000e0: 28aa c33e 8566 5bbf 299e 87bc f3ac 1cbd
000000f0: 3209 6e3e 4054 b5bd 835f 4d3f c69c 063f

fc2.weight f4 [180, 64]
-1.091214 0.98025227 0.004685908 0.13474026 -0.01773883 0.2568191 0.55598444 0.09527968
-0.29661435 0.44285613 0.74088734 -0.26218262 0.33327922 0.014318394 -0.7780377 0.27665967
1.4981003 0.35335752 0.40235153 0.25719893 0.30867898 0.37515557 -0.052927837 0.25296274
0.21229307 1.2432727 -0.34853742 -0.1282468 -0.71112794 0.0256476 -0.060533747 -0.17121336
0.18159202 -0.70539194 0.04485251 0.06892594 0.28218544 0.34615242 0.21188703 0.27423787
-0.46332428 -0.015482462 0.17223738 -0.052953705 0.231007 0.213879 0.023319533 0.275614
0.12872788 0.041901916 0.75557226 0.8155099 -0.40974537 0.12950425 0.019240959 0.253654
0.26499167 1.0393703 -0.47995785 -0.1063797 -0.18274735 0.5307858 -0.18014136 0.38662237
1.4963953 -2.4543731 0.31473565 -0.459122 0.5179584 0.1779528 0.28472263 -0.39127988
-0.40961838 0.39091408 -1.6619097 0.9768682 0.9203131 0.23827043 0.74785227 0.060157288
0.63048416 0.28861433 -1.4717891 -0.5215734 0.21718499 -1.097478 0.08626912 -0.33553788
0.08482607 0.6703731 -0.7654442 -0.8909805 -1.664462 0.13418348 0.09314102 0.33553827
-0.027416386 0.9601325 0.6661114 0.3176345 -2.6221654 0.0676745 -0.30712494 0.077447586
-0.4988483 0.19964786 0.5096148 0.028110102 -0.01827477 0.02240861 -0.15596077 0.73659426
-1.6742755 -0.009813011 -1.6546811 -0.29207128 -0.28340876 -0.15762222 -0.0053688227 -0.7614085
-1.6886402 -1.4095173 1.1476464 0.28966472 0.7266368 -0.048498996 -0.10827676 0.3993911
-0.023939544 0.04698721 -0.0683105 -0.010046775 -0.17022386 -0.11122397 -0.09837322 0.049769722
0.0951249 -0.037849177 -0.1390064 -0.09829261 -0.048887108 -0.08262687 -0.16888288 -0.019595558
0.030587839 -0.0346846 -0.06614228 -0.006423337 -0.104945585 0.07715614 0.055640474 -0.15276353
-0.09690164 0.01306822 0.034982037 -0.12513149 -0.12169116 0.025864992 0.022809682 0.02152065
-0.06985395 0.05889931 -0.035911083 -0.121445574 -0.14731948 0.08522115 -0.0649413 -0.0053932057
-0.13384692 -0.12794526 -0.07074957 0.057951465 -0.04965343 -0.091866925 -0.08770163 -0.0747914
0.030586198 0.018068254 -0.16297962 0.02561046 -0.15824893 -0.10996163 -0.13120522 -0.16511945
-0.13841033 -0.07439959 -0.16674674 -0.10890771 -0.032593563 -0.06448961 -0.06769387 0.045675755
-0.82759017 0.20326991 -0.89644134 -0.0663169 0.3369201 0.5123091 0.088717 -0.4517402
0.6946443 -0.25240338 1.3910867 -0.8127588 -0.5310323 -0.14259775 -0.33273283 0.27128962
-0.25081798 0.30031943 1.6241663 -0.6519845 -0.12696499 -0.24917065 0.12394795 0.22849092
0.0559575 0.8172644 -2.1512969 0.33833727 0.2721749 -0.72902274 0.07722577 0.05962896
0.2097857 -0.57156146 0.1625141 -0.07764318 -1.0909495 0.3310688 0.10516806 -0.053523522
0.50191855 -0.23021099 0.6770136 -0.012850538 0.27621374 0.04922826 -2.5112798 -0.102722645
0.45510337 0.119074985 1.0470163 -0.2948579 0.22292162 0.48991466 -0.13535757 0.3323697
-1.1946365 -0.9885288 -1.5126132 -0.5731117 0.08336288 0.69280285 -0.47807053 -0.23632953
00000000: e6ac 8bbf d0f1 7a3f 3f8c 993b 5af9 093e
00000010: 0651 91bc cb7d 833e ff54 0e3f fe21 c33d
00000020: d6dd 97be 0abe e23e cbaa 3d3f cd3c 86be
00000030: 93a3 aa3e b297 6a3c 7b2d 47bf 56a6 8d3e
00000040: c0c1 bf3f 47eb b43e 0501 ce3e 94af 833e
00000050: 2c0b 9e3e 6414 c03e dcca 58bd 5584 813e
00000060: 5b63 593e 8f23 9f3f 7f73 b2be 2153 03be
00000070: 7b0c 36bf ea1a d23c 3cf2 77bd 8e52 2fbe
00000080: 42f3 393e 9194 34bf 44b7 373d 0b29 8d3d
00000090: 9c7a 903e e43a b13e eaf8 583e e868 8c3e
000000a0: d738 edbe 27aa 7dbc ff5e 303e fce5 58bd
000000b0: 198d 6c3e 1903 5b3e 9b08 bf3c 471d 8d3e
000000c0: 3ed1 033e 58a1 2b3d 2f6d 413f 42c5 503f
000000d0: 25ca d1be c39c 043e 379f 9d3c f0de 813e
000000e0: fdac 873e 160a 853f 09bd f5be 9add d9bd
000000f0: 1f22 3bbe 94e1 073f fa76 38be 5ef3 c53e
00000100: e289 bf3f 7314 1dc0 0825 a13e 0a12 ebbe
00000110: ec98 043f 4239 363e 2ac7 913e d655 c8be
00000120: 80b9 d1be e425 c83e 75b9 d4bf 0914 7a3f
00000130: a499 6b3f 2afd 733e 3f73 3f3f 7d67 763d
00000140: 6967 213f 42c5 933e 9663 bcbf d685 05bf
00000150: be65 5e3e 297a 8cbf ddad b03d 9fcb abbe
00000160: 4ab9 ad3d 929d 2b3f 27f4 43bf 4c17 64bf
00000170: 170d d5bf 6567 093e b8c0 be3d accb ab3e
00000180: 5498 e0bc 3ecb 753f 4786 2a3f fda0 a23e
00000190: 8fd1 27c0 ee98 8a3d 7b3f 9dbe d79c 9e3d
000001a0: 0b69 ffbe 7d70 4c3e 1e76 023f 2847 e63c
000001b0: f8b4 95bc 4392 b73c 2eb4 1fbe 7191 3c3f
000001c0: a94e d6bf c0c6 20bc 97cc d3bf 5e8a 95be
000001d0: f41a 91be b867 21be f3ec afbb abeb 42bf
000001e0: 5d25 d8bf 106b b4bf 14e6 923f ef4e 943e
000001f0: df04 3a3f e2a6 46bd 35c0 ddbd fe7c cc3e
00000200: dd1c c4bc a975 403d 60e6 8bbd 3b9b 24bc
00000210: 2a4f 2ebe 65c9 e3bd e677 c9bd 56db 4b3d
00000220: d8d0 c23d bd07 1bbd b257 0ebe a34d c9bd
00000230: d93d 48bd 4738 a9bd a2ef 2cbe dd86 a0bc
00000240: 5993 fa3c 7011 0ebd 9b75 87bd db7a d2bb
00000250: b6ed d6bd 0a04 9e3d 44e7 633d 0b6e 1cbe
00000260: 5e74 c6bd 161c 563c 5349 0f3d 7822 00be
00000270: 3739 f9bd d2e2 d33c 5fdb ba3c 134c b03c
00000280: 960f 8fbd 6740 713d 8017 13bd 75b8 f8bd
00000290: ebda 16be 6d88 ae3d f2ff 84bd 7db9 b0bb
000002a0: 2b0f 09be 1504 03be 27e5 90bd 845e 6d3d
000002b0: 6561 4bbd ba24 bcbd ea9c b3bd 3c2c 99bd
000002c0: e88f fa3c e003 943c 21e4 26be 07cd d13c
000002d0: 020c 22be 9033 e1bd a95a 06be 1315 29be
000002e0: 70bb 0dbe d05e 98bd a8bf 2abe 010b dfbd
000002f0: d480 05bd 2113 84bd 15a3 8abd 8016 3b3d
00000300: f3dc 53bf fd25 503e 2e7d 65bf 28d1 87bd
00000310: cb80 ac3e b026 033f 42b1 b53d 7e4a e7be
00000320: 35d4 313f 043b 81be 210f b23f f610 50bf
00000330: bcf1 07bf 2505 12be f55b aabe 79e6 8a3e
00000340: 376b 80be 78c3 993e aee4 cf3f 75e8 26bf
00000350: 1c03 02be 9726 7fbe 6cd8 fd3d 86f9 693e
00000360: b133 653d 3d38 513f d9ae 09c0 8b3a ad3e
00000370: 825a 8b3e 3ca1 3abf 8b28 9e3d 7f3d 743d
00000380: 10d2 563e da51 12bf 196a 263e 6303 9fbd
00000390: 3ca4 8bbf da81 a93e 5a62 d73d 7b3b 5bbd
000003a0: bc7d 003f 6ebc 6bbe c350 2d3f 108b 52bc
000003b0: e36b 8d3e 92a3 493d cfb8 20c0 4060 d2bd
000003c0: 4f03 e93e 96dd f33d a104 863f 9df7 96be
000003d0: 9145 643e 18d6 fa3e 2d9b 0abe 5c2c aa3e
000003e0: d9e9 98bf 3910 7dbf 4f9d c1bf 73b7 12bf
000003f0: 28ba aa3d 875b 313f a9c5 f4be 5e00 72be

fc2.bias f4 [180]
0.16155101 0.13906278 -0.14456479 -0.21492723 0.07764907 0.019910535 -0.029268995 -0.14931259
-0.21679632 -0.02825208 0.2304545 0.136023 -0.13064614 -0.03175436 -0.028967105 -0.15669432
0.03225324 -0.16349544 -0.058877155 -0.023611825 0.010743691 -0.0584991 -0.15919322 -0.003632592
0.18036297 0.0053471434 -0.13137059 -0.11330453 -0.030192254 0.13623513 -0.09298989 0.31738377
-0.04226238 0.23881003 -0.123093754 0.22999823 0.13897398 0.0034228514 -0.0049969945 0.22269247
0.12336499 0.4896895 -0.05568086 -0.04678252 0.63072485 -0.16917221 -0.1560252 0.16117983
-0.03260654 -0.013278484 -0.017339554 -0.091315694 -0.028157204 0.23771124 0.06585714 -0.0038092842
0.021785809 -0.019881943 -0.03304434 0.122139946 0.09202156 -0.17453904 -0.17460698 -0.22503848
-0.17803772 0.11216398 0.0814209 -0.19989732 0.32009977 0.13640654 0.12738211 0.35613316
-0.04256679 0.042150628 -0.016379515 -0.063378304 0.064687066 -0.056907136 0.48030037 0.020936724
-0.0967485 -0.117023565 -0.031132028 -0.1556065 0.44056883 -9.337778e-05 -0.030115876 -0.10638799
-0.09545941 0.07016518 0.1911053 -0.09572983 -0.18971437 -0.0081043895 -0.06738403 0.020400612
0.3112056 -0.1412287 -0.038592692 -0.22067046 -0.1516229 0.050623395 0.47110328 0.343102
-0.16289856 0.33027765 0.02098978 0.5027648 0.5305287 0.5508846 0.44465372 0.8183114
0.5836542 0.07682412 0.28648344 -0.114702836 -0.20107375 -0.08590579 0.6875841 0.18822506
0.10753055 -0.058239378 -0.025705827 -0.15815656 -0.16550218 -0.13987795 -0.11995047 -0.06752357
0.019919278 -0.025224607 -0.12217997 -0.13442093 0.30375275 -0.076905504 0.015697524 -0.029496452
-0.049052842 -0.08162975 0.0010780827 0.018923815 -0.12850663 -0.008812436 -0.053688396 -0.16397853
0.40195 0.2404471 -0.011097971 -0.041218344 0.05213012 0.22123264 -0.023484522 -0.020842792
-0.043739304 -0.18715753 0.66795194 0.5758257 0.20807335 -0.1647041 -0.041459117 -0.099897265
-0.1378407 0.41184035 0.083803 -0.05985725 -0.16480471 -0.16091438 -0.12806712 0.19526528
0.21394148 0.009285981 -0.071846426 -0.12711315 -0.060023107 0.15610777 0.41792858 0.4231855
0.28726602 0.68633825 0.11011799 0.22768058
00000000: a16d 253e 7966 0e3e cb08 14be e215 5cbe
00000010: 7a06 9f3d 6b1b a33c 88c5 efbc 66e5 18be
00000020: dbff 5dbe e870 e7bc 44fc 6b3e 9d49 0b3e
00000030: 1ac8 05be dc10 02bd 6c4c edbc 7a74 20be
00000040: f91b 043d 596b 27be 2c29 71bd 966d c1bc
00000050: 4e06 303c c19c 6fbd 8c03 23be c810 6ebb
00000060: 12b1 383e 1737 af3b 0386 06be 350c e8bd
00000070: bf55 f7bc 3981 0b3e 7c71 bebd 2080 a23e
00000080: 511b 2dbd 9e8a 743e 9418 fcbd a884 6b3e
00000090: 324f 0e3e eb51 603b d4bd a3bb 7f09 643e
000000a0: c9a6 fc3d 95b8 fa3e 9d11 64bd 079f 3fbd
000000b0: 2f77 213f 7b3b 2dbe 12c5 1fbe 530c 253e
000000c0: 6f8e 05bd 008e 59bc ae0b 8ebc b903 bbbd
000000d0: f0a9 e6bc 936a 733e 1ce0 863d 2fa5 79bb
000000e0: 2778 b23c 75df a2bc 8059 07bd 8224 fa3d
000000f0: cd75 bc3d 5dba 32be 2ccc 32be 7d70 66be
00000100: 854f 36be 3bb6 e53d 00c0 a63d e2b1 4cbe
00000110: 1ee4 a33e 28ae 0b3e 7570 023e 1657 b63e
00000120: 845a 2ebd 23a6 2c3d 552e 86bc 7ccc 81bd
00000130: a77a 843d 7517 69bd eee9 f53e 7e83 ab3c
00000140: 1424 c6bd 0daa efbd 9808 ffbc 4f57 1fbe
00000150: 3d92 e13e d0d3 c3b8 92b5 f6bc f2e1 d9bd
00000160: 3980 c3bd c3b2 8f3d 1cb1 433e 000e c4bd
00000170: 7c44 42be 46c8 04bc a300 8abd 2f1f a73c
00000180: 5756 9f3e 429e 10be 5f13 1ebd 70f7 61be
00000190: 0943 1bbe 7a5a 4f3d 7334 f13e 11ab af3e
000001a0: e1ce 26be 271a a93e c2f2 ab3c 32b5 003f
000001b0: bbd0 073f c606 0d3f a7a9 e33e db7c 513f
000001c0: 5d6a 153f f755 9d3d f5ad 923e 52e9 eabd
000001d0: 47e6 4dbe 60ef afbd 8305 303f 12be 403e
000001e0: fa38 dc3d 6a8c 6ebd 0795 d2bc cbf3 21be
000001f0: 6779 29be 2a3c 0fbe 98a8 f5bd cc49 8abd
00000200: c12d a33c d6a3 cebc 7e39 fabd a4a5 09be
00000210: 7b85 9b3e a280 9dbd 1898 803c 8ba2 f1bc
00000220: a2eb 48bd 802d a7bd 744e 8d3a 1e06 9b3c
00000230: 3e97 03be 0962 10bc 5de8 5bbd fde9 27be
00000240: 64cc cd3e c437 763e 44d4 35bc 91d4 28bd
00000250: 6586 553d cf8a 623e 9d62 c0bc 81be aabc
00000260: fc27 33bd 39a6 3fbe e6fe 2a3f 5069 133f
00000270: 2e11 553e 31a8 28be 09d1 29bd f096 ccbd
00000280: 1d26 0dbe bddc d23e e8a0 ab3d e02c 75bd
00000290: 91c2 28be bdc6 24be 0724 03be 9ff3 473e
000002a0: 7a13 5b3e 3a24 183c 3824 93bd f329 02be
000002b0: cada 75bd b7da 1f3e bcfa d53e c5ab d83e
000002c0: 8814 933e ddb3 2f3f 8a85 e13d 1925 693e

conv.weight f4 [5, 1, 34, 34]
-0.21564654 -0.015115304 -0.058404084 0.05316309 0.26139754 0.2931491 0.30158624 0.26244113
0.29488885 0.13920662 0.051974505 0.19005878 0.09628332 0.1466114 0.18633342 0.51036793
0.16277981 0.38599145 0.12579858 -0.028487828 -0.38912016 -0.19887911 -0.13057481 -0.128733
0.025256716 -0.026511945 -0.36715823 -0.30234522 -0.2025222 -0.10427037 -0.04998922 -0.18122503
-0.23569718 -0.058874495 -0.22855139 0.12558629 0.01173974 -0.13589124 0.18448143 0.3945664
0.35204506 0.34992018 0.2151397 -0.071589015 -0.27424115 0.3831124 0.338111 0.14793864
0.2211039 0.23515756 0.19881275 0.1930361 0.26765317 0.025602998 -0.13020316 0.0246419
-0.42710122 -0.5214771 -0.075612284 0.020640329 -0.07914991 -0.15722387 -0.42916742 -0.21270102
-0.10420362 0.06701701 -0.049228407 -0.2069878 -0.24867699 0.027642187 0.118202016 0.0051952032
0.21962632 0.257356 0.11942179 0.24421509 0.35557735 0.15481828 0.23313296 0.5432444
0.37729612 0.35158274 0.2950577 0.37101412 0.0930121 0.2932549 0.35637355 0.30037507
0.18256539 0.013722847 -0.41476196 -0.40042815 0.15775499 -0.13786434 -0.060408022 -0.31329873
-0.10026745 -0.08265059 0.018308057 -0.060638607 -0.32926765 -0.34463164 -0.12770091 0.0012979342
0.15794961 -0.17538278 0.142635 0.17907569 0.26588896 0.24293008 0.07960322 0.081197836
-0.08095946 0.42724013 0.5669192 0.49206764 0.49188069 0.4990765 0.26550412 0.11889104
-0.0022962138 0.3542779 0.27927595 -0.15347663 -0.3552503 -0.45458832 0.08897016 0.17903575
0.1655961 0.023713917 -0.027508728 -0.26797822 -0.13622054 -0.3339009 -0.38174903 -0.39324957
0.17850219 -0.022084227 -0.058171075 0.11888471 0.19569053 0.4910385 0.5887181 0.5860607
0.18923016 0.21734798 -0.07861717 0.3853015 0.6356537 0.7375708 0.7069171 0.66224456
0.40866747 0.23067681 0.110923 0.452398 -0.019077817 -0.2540123 -0.34152198 -0.3354665
0.068275094 0.07841505 -0.10511486 -0.24476261 -0.16087426 -0.30869636 -0.032655478 -0.32498556
-0.36799252 -0.38476807 -0.21972965 0.050418545 0.32843268 0.19897379 0.2673103 0.12766343
0.122895725 0.3809038 0.30932474 0.37687853 0.24411495 0.4926563 0.48021966 0.36910295
0.76003146 0.5577962 0.57883716 0.27192912 0.10617255 -0.13027082 -0.2559249 -0.3608099
-0.48154956 -0.4765713 -0.0101184845 -0.18772261 -0.18383476 -0.13154525 -0.4012706 -0.47664854
-0.24153633 -0.41227132 -0.320126 -0.46744707 0.00097339595 0.0031149916 0.041287605 0.020330904
0.279588 0.23617312 0.29326594 0.32892013 0.21681845 0.32084405 0.40738314 0.33298457
0.54042757 0.6250073 0.72243863 0.43243572 0.6576743 0.5199336 0.21961966 0.083634146
0.07172254 -0.56744504 -0.6522005 -0.45530808 -0.04847153 -0.046984877 -0.21710525 -0.19566889
-0.4113685 -0.32748276 -0.43133786 -0.6847884 -0.76791507 -0.45021746 -0.09510716 -0.009358414
0.017620604 0.0057944423 0.37146616 0.15255198 0.2426773 0.32647875 0.1048256 0.10443424
0.14417118 0.376249 0.63139474 0.6507868 0.6529227 0.43897128 0.27251163 0.35259184
00000000: 72d2 5cbe 2ea6 77bc 1f39 6fbd 8ac1 593d
00000010: e6d5 853e a417 963e 8369 9a3e af5e 863e
00000020: acfb 963e 2e8c 0e3e 38e3 543d c59e 423e
00000030: 3030 c53d 4d21 163e 30ce 3e3e 79a7 023f
00000040: c0af 263e aca0 c53e 58d1 003e 4e5f e9bc
00000050: c23a c7be f7a6 4bbe 67b5 05be 95d2 03be
00000060: 2ce7 ce3c 942f d9bc 2afc bbbe fecc 9abe
00000070: fb61 4fbe b48b d5bd 7fc1 4cbd 0e93 39be
00000080: 9a5a 71be 6226 71bd 6009 6abe b199 003e
00000090: 0a58 403c 1327 0bbe b3e8 3c3e 9b04 ca3e
000000a0: 403f b43e bd28 b33e 954d 5c3e 439d 92bd
000000b0: 5669 8cbe 4f27 c43e e31c ad3e 3a7d 173e
000000c0: 1069 623e 25cd 703e 9295 4b3e 41ab 453e
000000d0: d609 893e 61bd d13c fa53 05be cfdd c93c
000000e0: 03ad dabe 867f 05bf 9dda 9abd e815 a93c
000000f0: 5919 a2bd 4bff 20be d5bb dbbe 4cce 59be
00000100: b568 d5bd 3740 893d baa3 49bd 9cf4 53be
00000110: 2ea5 7ebe de71 e23c e613 f23d 863c aa3b
00000120: b9e5 603e 2ac4 833e 6993 f43d 8513 7a3e
00000130: 3c0e b63e af88 1e3e 68ba 6e3e 1112 0b3f
00000140: f52c c13e a702 b43e ce11 973e 90f5 bd3e
00000150: 217d be3d 8225 963e 9876 b63e c3ca 993e
00000160: 6cf2 3a3e cbd5 603c ae5b d4be eb04 cdbe
00000170: 868a 213e 4f2c 0dbe 676e 77bd b168 a0be
00000180: 0559 cdbd b644 a9bd c7fa 953c 3060 78bd
00000190: c595 a8be 8f73 b0be 07c4 02be 721f aa3a
000001a0: 8bbd 213e 8b97 33be e90e 123e 9e5f 373e
000001b0: 9922 883e aac2 783e 0307 a33d 0d4b a63d
000001c0: 13ce a5bd 38bf da3e 9e21 113f 4af0 fb3e
000001d0: c9d7 fb3e f486 ff3e 28f0 873e 257d f33d
000001e0: 137c 16bb ea63 b53e 42fd 8e3e fa28 1dbe
000001f0: 5ee3 b5be cdbf e8be fd35 b63d 2655 373e
00000200: 0692 293e b043 c23c fc59 e1bc 7134 89be
00000210: 667d 0bbe 0ff5 aabe 9c74 c3be 0258 c9be
00000220: 47c9 363e fbe9 b4bc cb44 6ebd d479 f33d
00000230: 1963 483e 6669 fb3e 3bb6 163f 1308 163f
00000240: 8dc5 413e 7890 5e3e 0a02 a1bd 3d46 c53e
00000250: 33ba 223f 71d1 3c3f 85f8 343f dc88 293f
00000260: dd3c d13e 8b36 6c3e 992b e33d b6a0 e73e
00000270: 1549 9cbc e60d 82be f8db aebe 44c2 abbe
00000280: d0d3 8b3d 1298 a03d 7646 d7bd 0da3 7abe
00000290: 39bc 24be 730d 9ebe c0c1 05bd 8264 a6be
000002a0: 8469 bcbe 5200 c5be cf00 61be ad83 4e3d
000002b0: 5428 a83e c9bf 4b3e e5dc 883e 34ba 023e
000002c0: c1b0 fb3d d305 c33e d05f 9e3e 39f6 c03e
000002d0: 45f9 793e 723d fc3e 5adf f53e 10fb bc3e
000002e0: 6c91 423f bbcb 0e3f ac2e 143f 4b3a 8b3e
000002f0: fe70 d93d b765 05be 9708 83be 13bc b8be
00000300: aa8d f6be 2701 f4be 00c8 25bc 5b3a 40be
00000310: 2e3f 3cbe ccb3 06be 5773 cdbe 470b f4be
00000320: 4d55 77be 3a15 d3be 8ee7 a3be 3955 efbe
00000330: 7f2b 7f3a e324 4c3b 311d 293d ff8c a63c
00000340: 2926 8f3e 5ed7 713e f426 963e 3868 a83e
00000350: a805 5e3e ac45 a43e 8694 d03e f47c aa3e
00000360: 7659 0a3f 7a00 203f bdf1 383f 3768 dd3e
00000370: 585d 283f 5e1a 053f fae3 603e 6148 ab3d
00000380: 44e3 923d 1444 11bf 9df6 26bf 241e e9be
00000390: 158a 46bd 3773 40bd d750 5ebe 6d5d 48be
000003a0: e49e d2be d2ab a7be 51d8 dcbe 4b4e 2fbf
000003b0: 1596 44bf e782 e6be 8bc7 c2bd 0954 19bc
000003c0: 1659 903c 4edf bd3b d030 be3e 9636 1c3e
000003d0: 6680 783e 3928 a73e ceae d63d 9ee1 d53d
000003e0: 9ca1 133e b5a3 c03e 16a3 213f f799 263f
000003f0: f125 273f d8c0 e03e a586 8b3e eb86 b43e

conv.weight f4 [5, 1, 10, 10]
0.35823002 0.3662663 0.20302771 0.39331436 0.21997176 0.423758 0.54732025 0.58398414
0.44113284 0.42514652 0.37588546 0.36513457 0.20772056 0.22312884 0.38577002 0.30693424
0.5413074 0.5972617 0.35044426 0.43759203 0.25232014 0.28048545 0.3289091 0.21808548
0.21024565 0.3783532 0.43945602 0.34107295 0.44380975 0.38012826 0.20242015 0.20191714
0.37350333 0.31611124 0.31342345 0.38686207 0.32407466 0.39642176 0.44262326 0.33562362
0.29720697 0.19677314 0.32197684 0.24212061 0.46122432 0.35822514 0.21040398 0.46567848
0.42085052 0.5003304 0.34761837 0.3888854 0.30220288 0.31773275 0.28505793 0.3275563
0.38625422 0.34674147 0.5026485 0.38011843 0.3333334 0.35859022 0.31418502 0.36784837
0.3339767 0.24454026 0.3406799 0.3615977 0.5047935 0.3923931 0.28306448 0.31176406
0.2768064 0.38476 0.40960377 0.42912364 0.19566078 0.25787267 0.306271 0.2921994
0.3049912 0.34253028 0.20357892 0.11575248 0.21652964 0.29428616 0.2646896 0.08213646
0.14280032 0.30783185 -0.00044593544 0.11402933 0.09105488 0.21869344 0.1954447 0.20266093
0.18180333 0.21098234 0.10472585 0.20478493 -0.2340948 -0.087351546 -0.14935601 -0.07528181
-0.016903901 -0.112011336 -0.005612078 -0.11064681 -0.12526488 -0.021364532 0.010585396 -0.006612278
-0.12133376 -0.22463427 -0.09358417 -0.13202463 0.0019918962 -0.107751414 -0.09975632 -0.04420758
-0.11197911 -0.13674082 -0.17802648 -0.03413409 -0.077419594 -0.024064558 0.019363457 -0.15048313
-0.10932228 -0.18681973 -0.089738324 -0.09140191 -0.0060778093 0.053843863 0.060308516 0.011415459
0.016835194 -0.12727955 -0.12961987 -0.08494713 0.08697718 0.039671402 -0.07247572 0.051418446
0.011609235 -0.02517321 -0.12825032 -0.1080825 -0.049194433 -0.020720843 -0.035603583 -0.07752868
0.025088165 0.049117304 -0.049172897 0.039376635 -0.031876016 -0.09231714 -0.16939007 -0.10618271
0.07988233 -0.03837953 -0.13010377 -0.03032605 -0.09516345 -0.15775475 -0.0097794905 -0.14760503
-0.11901314 -0.16786164 0.09165999 0.03220387 -0.03178405 -0.023499232 -0.025782278 0.017202457
-0.09728999 0.011348861 -0.124292485 0.034604695 0.19950078 0.21701856 0.11237009 -0.05536258
-0.12713428 -0.15592217 -0.14637421 0.14580637 0.05207322 -0.038703606 0.14370476 0.2509183
0.02188022 0.16855326 0.10495924 0.09079891 0.036585223 0.076419346 -0.022778304 -0.016869966
-0.09618537 -0.12248218 0.025750656 -0.025833592 -0.09158679 -0.033760965 -0.09892515 -0.03933284
-0.1496335 0.011871874 -0.041014634 0.07005121 -0.013599504 -0.09943588 -0.030663654 0.0060723647
-0.041773837 -0.008058958 -0.11008369 0.032831304 -0.09643771 -0.08425906 -0.0046793474 -0.05849635
-0.012098311 -0.052278895 -0.14646164 0.12896995 -0.031557538 0.0054653166 -0.015456741 -0.090295956
-0.171719 -0.03578743 -0.030201498 -0.0026988548 0.032510802 0.025056574 -0.08790411 0.09578461
-0.002756908 -0.085476436 -0.10273954 -0.07744511 -0.04390575 -0.12281173 -0.09951887 -0.106377296
-0.09900838 -0.06603606 -0.07545659 -0.07174455 -0.13481738 -0.090157375 0.061882686 -0.038440935
00000000: ed69 b73e 4287 bb3e 7fe6 4f3e 8060 c93e
00000010: 4740 613e cff6 d83e 2e1d 0c3f fc7f 153f
00000020: 2adc e13e ceac d93e 0f74 c03e ebf2 ba3e
00000030: b3b4 543e e37b 643e a683 c53e 7c26 9d3e
00000040: 1f93 0a3f 25e6 183f 6e6d b33e 100c e03e
00000050: 1b30 813e ca9b 8f3e c666 a83e cd51 5f3e
00000060: a34a 573e 83b7 c13e 6100 e13e 1da1 ae3e
00000070: 083b e33e 2ca0 c23e 3a47 4f3e 5ec3 4e3e
00000080: d43b bf3e 55d9 a13e 0a79 a03e c912 c63e
00000090: 1ded a53e cbf7 ca3e 849f e23e dcd6 ab3e
000000a0: 832b 983e e67e 493e 26da a43e 77ee 773e
000000b0: 9825 ec3e 4969 b73e 2474 573e 696d ee3e
000000c0: b879 d73e a715 003f 09fb b13e fd1b c73e
000000d0: 56ba 9a3e dead a23e 1df3 913e 76b5 a73e
000000e0: 1dc3 c53e 1988 b13e 92ad 003f e29e c23e
000000f0: adaa aa3e 2399 b73e dcdc a03e 9f56 bc3e
00000100: fefe aa3e c368 7a3e 996d ae3e 5523 b93e
00000110: 263a 013f c0e7 c83e d4ed 903e 8a9f 9f3e
00000120: 92b9 8d3e 43ff c43e 96b7 d13e 18b6 db3e
00000130: 4d5b 483e e307 843e 8dcf 9c3e 299b 953e
00000140: ce27 9c3e 2160 af3e fe76 503e a30f ed3d
00000150: f2b9 5d3e adac 963e 6585 873e 2937 a83d
00000160: 3f3a 123e 239c 9d3e 71cc e9b9 3688 e93d
00000170: fb7a ba3d 2cf1 5f3e a822 483e 5986 4f3e
00000180: a72a 3a3e c10b 583e 827a d63d 24b3 513e
00000190: 8cb6 6fbe 5ee5 b2bd c8f0 18be 592d 9abd
000001a0: 0d7a 8abc 3366 e5bd 86e5 b7bb cb9a e2bd
000001b0: 7045 00be ac04 afbc 5e6e 2d3c cfab d8bb
000001c0: d67d f8bd 8706 66be 0fa9 bfbd 7731 07be
000001d0: 798a 023b c6ac dcbd 0b4d ccbd 0213 35bd
000001e0: 4e55 e5bd c905 0cbe 934c 36be 30d0 0bbd
000001f0: 2a8e 9ebd 0923 c5bc 1da0 9e3c 4018 1abe
00000200: 5ce4 dfbd ac4d 3fbe bac8 b7bd ed30 bbbd
00000210: 5c28 c7bb 628b 5c3d 1006 773d e807 3b3c
00000220: f6e9 893c 9255 02be 12bb 04be c3f8 adbd
00000230: 1721 b23d 7b7e 223d 266e 94bd 269c 523d
00000240: a934 3e3c 0c38 cebc 0d54 03be 5c5a ddbd
00000250: 1a80 49bd c2be a9bc 10d5 11bd 5bc7 9ebd
00000260: b285 cd3c 3a2f 493d 8569 49bd 6549 213d
00000270: 6d90 02bd c510 bdbd 9774 2dbe 5276 d9bd
00000280: 5999 a33d db33 1dbd ec39 05be 566e f8bc
00000290: 0ee5 c2bd 768a 21be 283a 20bc c625 17be
000002a0: 29bd f3bd ece3 2bbe 3cb8 bb3d 35e8 033d
000002b0: fe2f 02bd 7681 c0bc 5b35 d3bc 2bec 8c3c
000002c0: f93f c7bd 93f0 393c 0f8d febd a7bd 0d3d
000002d0: ef49 4c3e 1d3a 5e3e 4a22 e63d dfc3 62bd
000002e0: 7d2f 02be 10aa 1fbe 1fe3 15be 444e 153e
000002f0: bb4a 553d ac87 1ebd 5727 133e 5d78 803e
00000300: 263e b33c 3a99 2c3e dff4 d63d c7f4 b93d
00000310: 63da 153d bf81 9c3d 9199 babc e232 8abc
00000320: d6fc c4bd f0d7 fabd 0af3 d23c f8a0 d3bc
00000330: db91 bbbd f048 0abd 4599 cabd 791b 21bd
00000340: 8639 19be 4082 423c f6fe 27bd 0277 8f3d
00000350: 74d0 5ebc 0aa5 cbbd 5832 fbbc b0fa c63b
00000360: 0b1b 2bbd b809 04bc 8f73 e1bd 1e7a 063d
00000370: 2281 c5bd 0490 acbd 3655 99bb de99 6fbd
00000380: ff37 46bc 6522 56bd 0afa 15be b310 043e
00000390: 7a42 01bd 6616 b33b 453e 7dbc 16ed b8bd
000003a0: 1bd7 2fbe d795 12bd 2269 f7bc 45df 30bb
000003b0: 0c2a 053d 7243 cd3c 1207 b4bd b92a c43d
000003c0: 3ead 34bb 450e afbd 1c69 d2bd 8b9b 9ebd
000003d0: 84d6 33bd b784 fbbd 8dd0 cbbd 57dc d9bd
000003e0: e8c4 cabd ea3d 87bd fc88 9abd ceee 92bd
000003f0: 910d 0abe 6ea4 b8bd b378 7d3d 3e74 1dbd

conv.bias f4 [5]
0.2216926 -0.06800442 -0.15562806 -0.26980144 -0.08006594
00000000: 6303 633e e745 8bbd f65c 1fbe 6a23 8abe
00000010: 9df9 a3bd

fc1.weight f4 [64, 180]
0.14203922 0.116220094 0.1850521 0.09648444 0.08491306 0.075145245 0.1014843 0.21314746
0.12492306 0.12141406 0.17845917 0.21481204 0.17975974 0.19533575 0.12853125 0.07175294
0.13592716 0.16801324 0.1244428 0.17168781 0.13451296 0.18761052 0.14290035 0.15512672
0.083402574 0.13610534 0.19982177 0.12370507 0.085869 0.21362332 0.13760972 0.21065937
0.11404781 0.18949531 0.09933999 0.21409354 0.07591264 0.028926605 0.087075554 0.08633133
-0.050082274 0.086645536 0.02197784 -0.01914364 0.065263435 0.11159055 -0.04410859 -0.021916596
-0.039897423 -0.12432609 0.031424355 0.12748276 0.077594824 -0.035887823 0.02819643 0.0022916575
0.017844556 0.08343122 0.11753696 0.0039509935 -0.043471616 0.046643123 0.14446804 0.097864084
-0.019082254 -0.03991943 -0.008612325 0.029758262 -0.035858233 -0.0023123447 0.061996713 -0.04075013
0.06732259 0.046792693 -0.043525495 0.00026313215 -0.028710548 -0.018748254 0.07353873 -0.06285932
0.0130764395 0.04780928 -0.0133321695 -0.0007964298 -0.018180054 0.032141022 -0.06603765 0.113945335
0.032921292 0.04393237 0.02916228 0.009881958 0.07078002 -0.050509207 0.05235491 -0.01705743
0.059465192 -0.040986136 0.066406436 -0.012058992 0.03970266 -0.06845699 -0.035814274 -0.044269897
-0.017821506 -0.00093351305 -0.04962381 -0.0567865 0.030300776 0.031845827 -0.0017474967 -0.030209484
0.016211895 -0.040247913 -0.043273576 0.05383627 -0.06331675 0.09834841 -0.02909081 0.03383926
0.06586933 -0.0051495344 0.011533489 0.09659855 0.13524382 0.060727715 0.0028363473 0.24892516
0.039326176 -0.018346086 0.18927202 -0.037937555 0.07154947 0.09639711 0.19961816 0.28749
0.074806124 -0.017962351 0.053031296 0.04462128 -0.05518367 -0.024641259 0.06648965 0.0537448
0.009942427 0.057168845 0.12565516 0.046514776 0.02635099 0.026175966 0.022842668 0.09010292
0.058520097 0.086797595 0.0197081 0.03961231 0.027795076 0.19957271 0.026217835 0.09791073
0.07119263 0.069129445 0.05537161 0.010852543 0.026024625 -0.07281838 0.08840249 0.09837245
0.13879076 0.09492563 0.044248685 0.1410502 0.12954481 0.044984445 0.060187478 0.021185163
0.036181085 0.09484036 0.13462003 0.10080195 0.07219211 0.059751995 0.026765145 0.04055153
0.028518267 -0.053411596 0.019089751 -0.051731877 -0.06841963 0.025720447 -0.04586015 -0.025165219
-0.036751695 0.031840682 0.057475887 0.05636818 -0.026474312 0.015272528 -0.026729304 -0.06079913
-0.07048583 -0.024028134 -0.05643195 -0.021056026 0.01583016 -0.028023824 -0.020491656 -0.002461195
0.047389835 0.030474633 0.06715525 -0.038913578 -0.040824182 -0.017083019 -0.024754155 -0.057952125
0.007051669 -0.032605417 0.07449772 0.06377063 -0.050953783 -0.033216592 0.033836886 -0.01494813
-0.037381887 0.06977589 0.019794255 -0.019015364 0.049230494 0.01659397 0.060138427 0.05692219
-0.06352379 0.004815586 0.0011861771 0.071823604 0.02378416 -0.057014357 -0.0023832396 -0.046912923
0.018776074 -0.026765883 0.03846986 -0.03895818 -0.0135311745 -0.013236433 -0.051342085 0.0051099956
-0.027205814 0.04291758 0.028686635 -0.04498267 0.06647798 -0.03425307 0.038408063 0.008121058
00000000: bb72 113e cd04 ee3d 4c7e 3d3e a299 c53d
00000010: e6e6 ad3d c0e5 993d 00d7 cf3d 5443 5a3e
00000020: a9d7 ff3d efa7 f83d 00be 363e b0f7 5b3e
00000030: f012 383e 1806 483e b29d 033e 35f3 923d
00000040: 7d30 0b3e aa0b 2c3e dedb fe3d eece 2f3e
00000050: c4bd 093e f91c 403e 7854 123e 8ad9 1e3e
00000060: f8ce aa3d 335f 0b3e 149e 4c3e 1559 fd3d
00000070: 16dc af3d 12c0 5a3e 90e9 0c3e 17b7 573e
00000080: e691 e93d 0f0b 423e c472 cb3d 563b 5b3e
00000090: 1678 9b3d 7df7 ec3c ab54 b23d 7bce b03d
000000a0: 1223 4dbd 3773 b13d df0a b43c 1fd3 9cbc
000000b0: d6a8 853d 9689 e43d 35ab 34bd 6f8a b3bc
000000c0: 7b6b 23bd ad9e febd d3b6 003d d78a 023e
000000d0: 09ea 9e3d 1cff 12bd 33fc e63c a22f 163b
000000e0: bf2e 923c fddd aa3d 38b7 f03d 5677 813b
000000f0: 4b0f 32bd dc0c 3f3d 6eef 133e f76c c83d
00000100: 6352 9cbc 8e82 23bd b61a 0dbc 99c7 f33c
00000110: 15e0 12bd b58a 17bb 44f0 7d3d 9ce9 26bd
00000120: 6de0 893d b2a9 3f3d ca47 32bd 00f5 8939
00000130: 6232 ebbc f095 99bc 799b 963d 63bc 80bd
00000140: 903e 563c aad3 433d 2c6f 5abc 80c7 50ba
00000150: 56ee 94bc 4ea6 033d bf3e 87bd 2c5c e93d
00000160: 7ad8 063d 6ef2 333d bce5 ee3c f0e7 213c
00000170: 1df5 903d bee2 4ebd 1a72 563d 06bc 8bbc
00000180: c691 733d 14e1 27bd 1900 883d 1493 45bc
00000190: 429f 223d 2e33 8cbd fdb1 12bd 5a54 35bd
000001a0: 68fe 91bc 00b7 74ba 5642 4bbd f698 68bd
000001b0: 5539 f83c c570 023d 420c e5ba e179 f7bc
000001c0: cfce 843c ffda 24bd a23f 31bd 6c83 5c3d
000001d0: 36ac 81bd e46a c93d da4f eebc 099b 0a3d
000001e0: 80e6 863d 6dbd a8bb f6f6 3c3c 76d5 c53d
000001f0: 5b7d 0a3e a0bd 783d 03e2 393b 3de6 7e3e
00000200: 7c14 213d 884a 96bc 86d0 413e 6964 1bbd
00000210: 8788 923d d96b c53d b468 4c3e e431 933e
00000220: f433 993d c825 93bc 5837 593d cec4 363d
00000230: 4608 62bd 77dc c9bc ba2b 883d 8223 5c3d
00000240: 90e5 223c e129 6a3d bfab 003e 4786 3e3d
00000250: 08de d73c fb6e d63c 8c20 bb3c e187 b83d
00000260: c5b2 6f3d f0c2 b13d e272 a13c 8440 223d
00000270: 80b2 e33c ca5c 4c3e c9c6 d63c 6c85 c83d
00000280: 71cd 913d bd93 8d3d 57cd 623d ddce 313c
00000290: 9831 d53c ce21 95bd 5d0c b53d 7f77 c93d
000002a0: 2a1f 0e3e 5e68 c23d 1c3e 353d 776f 103e
000002b0: 65a7 043e 9c41 383d 2587 763d 828c ad3c
000002c0: 9e32 143d aa3b c23d d5d9 093e 4171 ce3d
000002d0: 75d9 933d 82be 743d 9442 db3c 5c19 263d
000002e0: 249f e93c 1ec6 5abd 1c62 9c3c cee4 53bd
000002f0: 971f 8cbd b0b3 d23c dad7 3bbd 4a27 cebc
00000300: f288 16bd 606b 023d d66b 6b3d 52e2 663d
00000310: a8e0 d8bc a039 7a3c 6af7 dabc 8208 79bd
00000320: e05a 90bd a6d6 c4bc 3025 67bd b07d acbc
00000330: 40ae 813c 3892 e5bc 1ede a7bc 004c 21bb
00000340: d81b 423d f0a5 f93c b188 893d d863 1fbd
00000350: 4237 27bd b0f1 8bbc 3ac9 cabc 355f 6dbd
00000360: b011 e73b 428d 05bd 4392 983d 2d9a 823d
00000370: eab4 50bd 1f0e 08bd 8c98 0a3d 00e9 74bc
00000380: c01d 19bd a9e6 8e3d 9027 a23c 1cc6 9bbc
00000390: eaa5 493d 14f0 873c b653 763d 3e27 693d
000003a0: c318 82bd 10cc 9d3b 8079 9b3a 4118 933d
000003b0: 00d7 c23c e387 69bd 2030 1cbb c427 40bd
000003c0: 48d0 993c 2044 dbbc 9292 1d3d 9d92 1fbd
000003d0: dcb1 5dbc a0dd 58bc 144c 52bd c071 a73b
000003e0: bade debc 58ca 2f3d 3c00 eb3c c03f 38bd
000003f0: 9b25 883d f24c 0cbd c651 1d3d 300e 053c

fc1.bias f4 [64]
0.059499707 -0.00011986494 -0.11289585 0.063262954 -0.035901226 0.10096935 -0.044653684 -0.05868602
0.012426214 -0.051755283 0.011714332 0.055804837 -0.015673248 -0.07431129 -0.11897478 -0.028221743
0.33745942 -0.008419145 -0.018053181 -0.046080463 0.008853652 -0.10176513 -0.07986004 0.0037469123
-0.08968199 -0.026977003 -0.08680538 -0.056971215 0.009902067 -0.0098367175 0.053956367 0.10057383
-0.03825678 -0.06973482 0.006243132 0.03130983 -0.030716226 -0.06945951 -0.059143744 0.009038567
-0.036609318 -0.047574952 0.017621726 -0.09065199 -0.08511196 -0.027942631 0.013935782 0.0021344742
-0.012643279 -0.08380385 0.057985075 -0.12010868 -0.006361736 -0.087019585 -0.10566128 -0.0773883
0.058587886 -0.024741756 0.30196905 0.081577465 -0.11515785 -0.034316145 0.00698071 0.009572715
00000000: f7b5 733d 0060 fbb8 f035 e7bd 0290 813d
00000010: 2a0d 13bd 05c9 ce3d c8e6 36bd c160 70bd
00000020: 5297 4b3c 59fd 53bd 78ed 3f3c 9d93 643d
00000030: 2f65 80bc 8530 98bd 0da9 f3bd 4931 e7bc
00000040: 7bc7 ac3e 74f0 09bc 44e4 93bc debe 3cbd
00000050: e80e 113c 3d6a d0bd a98d a3bd c28e 753b
00000060: 31ab b7bd e0fe dcbc 05c7 b1bd a65a 69bd
00000070: 473c 223c 2f2a 21bc 5a01 5d3d a7f9 cd3d
00000080: 24b3 1cbd 21d1 8ebd 3093 cc3b bc3e 003d
00000090: 98a0 fbbc ca40 8ebd b640 72bd 7f16 143c
000000a0: a7f3 15bd f4dd 42bd 705b 903c c0a7 b9bd
000000b0: 2e4f aebd f2e7 e4bc e852 643c 89e2 0b3b
000000c0: c125 4fbc 5aa1 abbd c281 6d3d 8afb f5bd
000000d0: 1c76 d0bb 5337 b2bd f164 d8bd c27d 9ebd
000000e0: daf9 6f3d 39af cabc b09b 9a3e 1612 a73d
000000f0: e1d7 ebbd 168f 0cbd 71be e43b e0d6 1c3c

fc2.weight f4 [4, 64]
0.40360516 -0.038562313 0.052730624 0.30771837 0.09454645 0.40710488 0.019663673 -0.014413056
-0.06098874 -0.058784623 0.0111005455 0.042904276 0.00082662917 -0.057224218 0.029520009 0.28914565
0.47985774 0.064100906 -0.03527181 -0.013214722 -0.10021481 -0.07420951 -0.05296806 0.023999372
-0.1693633 0.039575886 0.037446197 0.033321094 0.021175643 0.05918641 -0.11752172 0.36653814
-0.03383873 -0.02333191 -0.06308611 -0.10121183 -0.09232559 0.008589476 0.08041924 -0.075194746
0.015139282 -0.0020706505 -0.04460779 0.04089977 -0.09051532 -0.1039702 -0.052221656 -0.117661275
0.036098663 0.040361907 0.08446923 0.024787353 -0.02456526 0.03566917 -0.0038828854 -0.158916
-0.07252829 -0.0487939 0.47115603 0.36740738 0.011275647 0.053793956 0.00025037143 0.05485314
0.5647597 0.022565916 -0.02945248 0.4309412 -0.063191384 0.5700161 0.11365653 0.08574907
0.11669632 0.06524602 0.089646384 0.09255277 0.03675374 0.13443509 0.07462709 0.44813278
0.6721739 -0.051030215 0.022244036 0.051991235 -0.03843455 0.054141887 0.103705525 0.02301272
-0.015170041 0.15872298 0.16332471 0.14991666 0.12657508 -0.046910156 0.0013702661 0.513168
0.14562468 0.08487785 -0.09148307 -0.039594308 0.025212934 -0.035560817 -0.011712417 0.10893788
-0.030904397 -0.120505586 -0.05945149 -0.026728407 0.087430164 0.0021517277 -0.06536864 0.055322513
0.17283155 0.06512514 0.021981597 -0.029237913 0.14660454 0.006707043 0.046984125 0.0989912
0.113929644 0.019424913 0.66083556 0.50608516 -0.05513628 0.0644265 0.24618521 -0.05959589
-0.037744418 0.10683535 0.13797335 -0.028913291 -0.032693982 -0.03755061 -0.12585986 0.09137899
0.01625641 0.020137936 0.023004383 -0.05244204 -0.11063757 -0.11212691 0.047292475 -0.045609236
-0.044472247 0.07442222 0.08088015 -0.02485737 -0.039347425 0.020198522 -0.0457439 0.17143244
-0.028996961 -0.0823593 0.037691537 0.02729242 -0.016689183 -0.02997323 -0.05121158 -0.034164485
-0.055677343 0.041315004 0.008552134 0.09266041 0.035582602 0.0688093 0.04393807 0.0008337852
-0.04036516 0.06767653 -0.096976995 0.12410775 -0.03003938 -0.08693603 -0.086419806 0.04778127
-0.013721044 -0.008550325 0.10364036 -0.055062715 -0.028838668 -0.04613045 0.011396559 0.055959303
0.121863484 0.06601633 -0.038432006 -0.047060736 -0.04259253 -0.12842022 0.002598875 -0.06086998
-0.20489196 -0.014228195 0.13732971 -0.15649259 0.047504604 -0.20711435 -0.018851465 0.095366694
-0.00039736612 0.15236782 -0.038534343 -0.041211132 -0.018603066 0.03341435 0.08132901 -0.12073264
-0.24387419 0.1153158 -0.022643805 0.04089972 -0.12147726 0.10199865 -0.0630763 -0.048131853
0.029008642 0.05501537 -0.06165747 -0.07752584 0.056941032 0.09115417 0.0846342 -0.18640128
-0.039627656 0.019083261 -0.09730965 -0.07880519 0.04010454 0.11880365 -0.09925033 -0.114489384
0.034876615 0.070393145 0.11225027 0.08745249 0.12188465 0.11009152 0.06783098 -0.040493026
-0.050547116 -0.05116693 0.110589 0.0569501 0.048105102 0.09274806 -0.021960441 0.022504227
-0.0025861561 -0.071005575 -0.2410166 -0.18598753 -0.15397745 0.019446695 0.061343502 0.11059906
00000000: 56a5 ce3e 84f3 1dbd 11fc 573d 438d 9d3e
00000010: 92a1 c13d 0d70 d03e b615 a13c bd24 6cbc
00000020: 54cf 79bd 25c8 70bd 10df 353c 65bc 2f3d
00000030: 25b2 583a f163 6abd f2d3 f13c e60a 943e
00000040: eaaf f53e 5647 833d 2c79 10bd 9082 58bc
00000050: 6c3d cdbd 28fb 97bd 09f5 58bd 559a c43c
00000060: 936d 2dbe 531a 223d 2f61 193d b37b 083d
00000070: 8b78 ad3c 736d 723d 3aaf f0bd e3aa bb3e
00000080: 7b9a 0abd 9022 bfbc 4a33 81bd 2648 cfbd
00000090: 3315 bdbd e0ba 0c3c d8b2 a43d b4ff 99bd
000000a0: c00a 783c c0b3 07bb a8b6 36bd 8486 273d
000000b0: 1960 b9bd 54ee d4bd 60e6 55bd 65f8 f0bd
000000c0: 31dc 133d 8752 253d 34fe ac3d d90e cb3c
000000d0: 163d c9bc d619 123d 0278 7ebb e0ba 22be
000000e0: b689 94bd 1ddc 47bd 5d3b f13e d21c bc3e
000000f0: 7ebd 383c 0d57 5c3d 4944 8339 b0ad 603d
00000100: 1794 103f 28dc b83c 5446 f1bc 53a4 dc3e
00000110: 7c6a 81bd 93ec 113f c1c4 e83d 359d af3d
00000120: 7bfe ee3d b59f 853d 8698 b73d 4f8c bd3d
00000130: 178b 163d 5aa9 093e 16d6 983d a971 e53e
00000140: 9713 2c3f 0f05 51bd 2039 b63c c3f4 543d
00000150: 8c6d 1dbd e2c3 5d3d 9063 d43d 2c85 bc3c
00000160: c38b 78bc 4788 223e 983e 273e c183 193e
00000170: e69c 013e dd24 40bd 809a b33a fa5e 033f
00000180: a31e 153e 70d4 ad3d 7a5b bbbd a42d 22bd
00000190: 5b8b ce3c 38a8 11bd 70e5 3fbc d31a df3d
000001a0: 382b fdbc a2cb f6bd 6883 73bd 88f5 dabc
000001b0: 960e b33d 0004 0d3b fedf 85bd dc99 623d
000001c0: c1fa 303e 5460 853d c012 b43c 5984 efbc
000001d0: 801f 163e c1c6 db3b 6d72 403d e6bb ca3d
000001e0: f253 e93d ff20 9f3c 852c 293f cc8e 013f
000001f0: 94d6 61bd 0af2 833d fa17 7c3e d21a 74bd
00000200: e499 1abd 7ecc da3d e348 0d3e 91db ecbc
00000210: 20ea 05bd abce 19bd 68e1 00be e824 bb3d
00000220: 2a2c 853c 50f8 a43c b073 bc3c 77cd 56bd
00000230: f395 e2bd cba2 e5bd c1b5 413d c0d0 3abd
00000240: 8828 36bd ad6a 983d 7ea4 a53d afa1 cbbc
00000250: c42a 21bd 5f77 a53c f55d 3bbd fc8b 2f3e
00000260: 098b edbc feab a8bd 7162 1a3d 5a94 df3c
00000270: c1b7 88bc 6b8a f5bc 3cc3 51bd 0ff0 0bbd
00000280: ed0d 64bd ec39 293d 401e 0c3c bec4 bd3d
00000290: 10bf 113d e4eb 8c3d 68f8 333d 6192 5a3a
000002a0: f055 25bd fe99 8a3d e09b c6bd 342c fe3d
000002b0: 2515 f6bc 840b b2bd defc b0bd 4bb6 433d
000002c0: 3bce 60bc aa16 0cbc 6641 d43d 7189 61bd
000002d0: 123f ecbc 48f3 3cbd a2b8 3a3c 9535 653d
000002e0: 9093 f93d 9233 873d e16a 1dbd c2c2 40bd
000002f0: 8175 2ebd 9780 03be e351 2a3b cd52 79bd
00000300: 33cf 51be 601d 69bc 29a0 0c3e 983f 20be
00000310: 3094 423d c915 54be 636e 9abc 9d4f c33d
00000320: 9455 d0b9 4f06 1c3e 30d6 1dbd 01cd 28bd
00000330: 7565 98bc 7cdd 083d d38f a63d ad42 f7bd
00000340: 28ba 79be b12a ec3d 807f b9bc 7786 273d
00000350: 12c9 f8bd abe4 d03d 262e 81bd e825 45bd
00000360: 88a3 ed3c cc57 613d 8b8c 7cbd dec5 9ebd
00000370: 003b 693d 0aaf ba3d b254 ad3d fadf 3ebe
00000380: 9c50 22bd 8054 9c3c 484a c7bd 9e64 a1bd
00000390: a844 243d 544f f33d c243 cbbd 6979 eabd
000003a0: c8da 0e3d 482a 903d 78e3 e53d 4b1a b33d
000003b0: a99e f93d aa77 e13d f8ea 8a3d 04dc 25bd
000003c0: 7e0a 4fbd 6a94 51bd 7c7c e23d 8244 693d
000003d0: db09 453d b2f2 bd3d 62e6 b3bc c95a b83c
000003e0: 807c 29bb 5f6b 91bd 0ecd 76be 8473 3ebe
000003f0: 44ac 1dbe ad4e 9f3c 5343 7b3d c381 e23d

fc2.bias f4 [4]
0.24002859 0.3676964 -0.09602751 -0.10013301
00000000: 0eca 753e b442 bc3e 12aa c4bd 8912 cdbd
