src/flatland/flat_game/results/ourmethod_reg19/rep_learner.pth (torch_old, 312924 bytes, 33 tensors)

representations f4 [6]
0	0x38f1cea0	0.000115302624
1	0xbb1c0636	-0.0023807413
2	0xbfa2c52b	-1.2716421
3	0xbaf047de	-0.0018331965
4	0xbb248b0d	-0.0025107295
5	0xbc04d957	-0.0081084585

representations f4 [6]
0	0xb9101ba0	-0.00013743201
1	0x3aaa7a7a	0.0013006472
2	0x3fa26003	1.268555
3	0x3b599cd2	0.0033205044
4	0x3a1f3278	0.0006072889
5	0xbb453b92	-0.003009532

representations f4 [6]
0	0x3aeedf9d	0.0018224601
1	0x3bfb9ed2	0.007678845
2	0x3a940a2a	0.0011294533
3	0x3fa16a35	1.2610537
4	0xbae11ec3	-0.0017175305
5	0xbc7328bd	-0.014841256

representations f4 [6]
0	0x3bb4ec93	0.005521366
1	0x3b98f780	0.004668176
2	0xba13d9f4	-0.00056400825
3	0xbfa0d54d	-1.2565094
4	0xbaf1a7c2	-0.0018436837
5	0x3a1467fa	0.00056612457

fc1.weight f4 [64, 4]
0	0xc042d482	-3.0442204
1	0x3d86a1c3	0.06573822
2	0xbd0caca6	-0.034344338
3	0xbc715aba	-0.014731104
4	0xc0078df9	-2.1180403
5	0xbfd82700	-1.6886902
6	0x3f0e7166	0.5564178
7	0x3fd63408	1.6734629
8	0xbca8e2b1	-0.020615907
9	0x3f714f8b	0.94262
10	0xbf85053a	-1.039222
11	0x3e9044c1	0.28177455
12	0xbeab1eb3	-0.3342186
13	0x3dd43ae0	0.10362792
14	0x3eb59ec0	0.3547268
15	0x3f751dda	0.95748675
16	0x3fa15abd	1.2605816
17	0x3f3b788f	0.7323083
18	0xbf0f4770	-0.5596838
19	0x3f979e02	1.1845095
20	0xbfa121b7	-1.2588414
21	0x3e43216f	0.19055723
22	0xbf8f5a23	-1.1199383
23	0xbe91ccfd	-0.28476706
24	0xbfcd0bc8	-1.601922
25	0x40389d32	2.8845944
26	0xbfe40b43	-1.7815937
27	0xbe9f33ac	-0.3109411
28	0x3f275e99	0.6537872
29	0xbf9ed014	-1.240725
30	0x3fbda426	1.4815719
31	0x3ffc5498	1.9713316
32	0x3f88d50c	1.0690017
33	0x402125ff	2.517944
34	0xbfa770d4	-1.3081307
35	0xbfb41cd7	-1.4071301
36	0xbe500520	-0.20314455
37	0x3e86b70b	0.26311526
38	0x3dac4dc9	0.08413274
39	0x3e0cde6b	0.1375672
40	0xbf5a3102	-0.8523103
41	0x3eeb6fcf	0.4598374
42	0x400ecf1c	2.231391
43	0xbfed6529	-1.8546497
44	0xbe2064b9	-0.15663423
45	0xbf84165f	-1.0319327
46	0xbf542e59	-0.8288322
47	0x3e1cc4b9	0.15309419
48	0x403bf1b8	2.9366283
49	0x3e8dc366	0.2768814
50	0x3ec24183	0.37940606
51	0xbf560642	-0.836033
52	0xbf0dce11	-0.5539256
53	0x3eb08ee3	0.34484014
54	0xbed33d28	-0.41257596
55	0x3eb22a55	0.34797922
56	0x3fa0ea3f	1.2571486
57	0x3eaf63f7	0.34255955
58	0x40191075	2.3916295
59	0xbf552c4b	-0.8327071
60	0xbfc05d82	-1.5028536
61	0xbff0d9d2	-1.8816473
62	0xbf5298e7	-0.8226456
63	0x3f9e2290	1.2354298
64	0x3e3f88db	0.1870455
65	0xbfa9285c	-1.3215442
66	0xbc9775b6	-0.018488746
67	0x3f90e901	1.1321107
68	0xbe84b121	-0.2591639
69	0x40275870	2.6147728
70	0xbfafa274	-1.3721452
71	0x3ff097db	1.8796343
72	0x3fa5c086	1.2949378
73	0xbe0e8a5b	-0.13919966
74	0xbf3fdf1d	-0.7494982
75	0x3fba708b	1.4565595
76	0x3fcdfef3	1.6093429
77	0x3dcd861e	0.100353464
78	0xbf0755b0	-0.52865124
79	0xc0162bdb	-2.3464267
80	0x4022ef65	2.5458615
81	0xbecd2af0	-0.4007182
82	0x3fcff809	1.6247569
83	0xbf711ca4	-0.9418433
84	0x3f667aea	0.900313
85	0xbe44963d	-0.19197936
86	0x3ffdf056	1.983897
87	0x3fd4cec7	1.6625603
88	0x3f789a05	0.97110015
89	0x3f803da6	1.0018814
90	0xbf88f370	-1.0699291
91	0xbf0b17bc	-0.5433309
92	0x3e5e2334	0.21693116
93	0x3fb3fb6b	1.4061102
94	0xbfff1f2e	-1.993139
95	0x3dac2826	0.08406095
96	0xbe8bf90e	-0.2733845
97	0xbc31bd00	-0.010848284
98	0xbe7802a0	-0.24219751
99	0x3e5fd1ac	0.21857327
100	0x3e86e174	0.26343882
101	0xbfde38cb	-1.7361082
102	0xbf0bd321	-0.5461903
103	0x3f7faa6b	0.9986941
104	0xbeca7bd1	-0.3954759
105	0xbe268103	-0.16260152
106	0x40484775	3.1293614
107	0xbded7289	-0.115941115
108	0x3eeadb62	0.458705
109	0xc011d115	-2.2783864
110	0x3f69c68d	0.9131859
111	0xbee19c2a	-0.44064456
112	0x3ebdabe0	0.37045193
113	0xbfeddfce	-1.8583925
114	0x3e9f08d9	0.31061438
115	0xc0440acf	-3.0631597
116	0xbfca3a55	-1.5799052
117	0x3fe90e3f	1.8207473
118	0x402406ec	2.5629225
119	0x3f74dd28	0.9564996
120	0x3fbcde18	1.4755278
121	0xbf06f966	-0.527243
122	0xbf3a6180	-0.72805023
123	0x3f6f88da	0.93568194
124	0x3e4df548	0.20113099
125	0x3e732a54	0.23746616
126	0x3e8e5a2a	0.27803165
127	0x3e2b09b8	0.16702926
128	0xbee78bbd	-0.452238
129	0x40366879	2.8501265
130	0x3f8e11bc	1.1099162
131	0xbf1261ad	-0.5718029
132	0xba645a42	-0.0008710959
133	0xbd19f7fb	-0.03759001
134	0xbda20bc3	-0.079123996
135	0xbdf78fe8	-0.12087995
136	0x3e8ea9b4	0.27863848
137	0x3fe4086e	1.7815073
138	0x401ef6f8	2.4838238
139	0x3f0f94dd	0.5608652
140	0xbf1be17d	-0.6089094
141	0xbe8acf57	-0.27111313
142	0x3e13cab7	0.14432798
143	0x3f6bfa7f	0.921791
144	0x3d803984	0.0626097
145	0x3f626f10	0.8845072
146	0x4082db73	4.089288
147	0x3d86ea24	0.065876275
148	0xc018ebe1	-2.389397
149	0xbf0600cd	-0.5234497
150	0x3f4b8adf	0.79508775
151	0x3f0813c1	0.5315514
152	0x3f9d79de	1.2302816
153	0x3fc9a8fb	1.5754694
154	0x4010ff71	2.265591
155	0x3fb47b1a	1.4100068
156	0x40249969	2.5718634
157	0x3cb6ce9a	0.022315312
158	0xbf51fe68	-0.8202882
159	0x3f02cd6d	0.51094705
160	0x3ff8c60a	1.9435437
161	0xbfae0a38	-1.3596869
162	0xbf3a0788	-0.7266774
163	0x3c886a62	0.01665229
164	0xbfc662e0	-1.5498924
165	0x3e9c2781	0.3049889
166	0xbff0066d	-1.8751961
167	0x3fdffdac	1.749929
168	0x3fe53b33	1.7908691
169	0x3e033251	0.12812163
170	0xbdfc96a8	-0.12333423
171	0xbfebd582	-1.8424532
172	0x3e808ed8	0.2510898
173	0xbdb9cc50	-0.09072173
174	0xbd5758e0	-0.052574992
175	0x3e587b3c	0.2114076
176	0xbe8aa8ca	-0.270819
177	0xbdf76d73	-0.12081423
178	0xbf182afc	-0.5944059
179	0x3d6a91f4	0.057268098
180	0xbf87291d	-1.0559422
181	0xbf847c3d	-1.0350415
182	0xbfe4c451	-1.7872411
183	0x3dbc9b82	0.09209348
184	0x404095a7	3.009134
185	0x3e2decaf	0.16984819
186	0xc0124f3a	-2.2860856
187	0xbfafb847	-1.3728112
188	0x3f53f51d	0.8279589
189	0x3faead9d	1.3646733
190	0x3f8b50e1	1.0884057
191	0xbf1c75d7	-0.6111731
192	0x40017119	2.022528
193	0x3f564422	0.8369771
194	0xbf970c76	-1.1800678
195	0x3fa3676e	1.2765939
196	0xbe275e5c	-0.16344589
197	0xbd31d049	-0.043411527
198	0x3ffba2c4	1.9659047
199	0x3f43a65f	0.7642574
200	0x3f9982fb	1.1993097
201	0xc019d51f	-2.4036329
202	0xbea8a276	-0.32936448
203	0xbf872e80	-1.0561066
204	0xbfa411e8	-1.2817965
205	0x3cae172e	0.021251287
206	0x3bde2ce2	0.006780253
207	0x3fa2a6ed	1.2707192
208	0x3ee819b8	0.45332122
209	0xbfba9d74	-1.4579301
210	0xc004900d	-2.0712922
211	0x3fba446a	1.4552128
212	0x3e68f906	0.22751245
213	0x3df3d836	0.11906473
214	0x3f07f8fa	0.53114283
215	0x3ee3d46d	0.44498006
216	0xc03709b9	-2.8599684
217	0xbefdab3d	-0.49544707
218	0xbf50676d	-0.81407815
219	0xc04f0653	-3.234761
220	0xc04152c6	-3.020677
221	0xbfaed6c2	-1.3659289
222	0x3f11e08a	0.56983244
223	0xbf695e9c	-0.9115999
224	0xbfe33d53	-1.775309
225	0x3ffd3789	1.9782573
226	0x3d9a866f	0.075451724
227	0xbd494e6c	-0.049147055
228	0x3da96563	0.08271291
229	0x3fa9e46d	1.3272835
230	0x3f46c9d2	0.77651703
231	0xbe3951f6	-0.18097672
232	0xbfe6d660	-1.8034172
233	0x3eba4330	0.36379385
234	0xbf9a4b3a	-1.2054207
235	0x3f08cb89	0.5343557
236	0x3e51a239	0.2047204
237	0x3fadf495	1.3590266
238	0xbff2d599	-1.8971435
239	0x3e1b2de0	0.15154219
240	0x3f791daf	0.9731092
241	0xbf61a071	-0.8813544
242	0xbe9a5bb5	-0.30148092
243	0xbfb10479	-1.382949
244	0xbe244276	-0.16040978
245	0xbe77c5bc	-0.24196523
246	0x3e1ce006	0.15319833
247	0xbe1c1a28	-0.15244353
248	0x40067243	2.100724
249	0x3e7296d6	0.23690352
250	0xbe53fa10	-0.2070086
251	0xc0055c3c	-2.0837545
252	0xbf6830a2	-0.9069921
253	0x3fcb0812	1.5861838
254	0xbf0d59c9	-0.55215126
255	0x3f0724bd	0.52790433

fc1.bias f4 [64]
0	0x3eed9447	0.4640219
1	0x3e9b11e7	0.30287096
2	0x3e23ef89	0.16009344
3	0x3ed697df	0.41912743
4	0x3f0b74dc	0.5447519
5	0xbc9b059e	-0.018923577
6	0xbf99b36b	-1.2007879
7	0x3f39c7d9	0.7257057
8	0x3e15386b	0.14572303
9	0x3e272b4b	0.16325109
10	0x3e75aff3	0.239929
11	0x3f3054c0	0.6887932
12	0x3f66c4cf	0.90144056
13	0x3daef2ea	0.08542426
14	0x3f019590	0.5061884
15	0x3f30615b	0.6889855
16	0x3ecd1618	0.4005592
17	0x3e68ce22	0.22734883
18	0x3f30db90	0.69085026
19	0x3e0257a8	0.1272875
20	0x3dbc72d7	0.092015915
21	0x3da141ae	0.078738555
22	0x3e8e0090	0.27734804
23	0x3e945b45	0.28975883
24	0xbede8774	-0.43462718
25	0x3f391bd3	0.7230808
26	0x3c082aa1	0.008310945
27	0x3f446923	0.76722926
28	0x3e4c36dd	0.19942804
29	0x3e10020d	0.14063282
30	0x3f134be4	0.57537675
31	0xbef470b4	-0.47742236
32	0x3e4cee62	0.20012811
33	0xbe981fe5	-0.29711834
34	0xbf898d4a	-1.0746243
35	0x3f37be52	0.7177478
36	0xbe63556e	-0.22200558
37	0x3f0ba7ba	0.54552805
38	0x3e9797df	0.29608056
39	0x3f67c952	0.90541565
40	0x3eefa5ca	0.46806175
41	0x3f45d6c5	0.7728084
42	0x3dad464d	0.084606744
43	0xbee32020	-0.44360447
44	0x3ebb2b4d	0.36556473
45	0x3f302c48	0.6881757
46	0xbf0928fd	-0.5357817
47	0x3d992df5	0.07479469
48	0x3f426e45	0.7594951
49	0x3f0f567d	0.55991346
50	0x3e2810f9	0.16412725
51	0x3f505eb9	0.81394535
52	0x3f2ac9a2	0.6671392
53	0x3ea544db	0.32279095
54	0xbe832eb2	-0.25621563
55	0x3ea5b92a	0.3236783
56	0x3e9cc2dd	0.3061742
57	0xbdbc9cb2	-0.09209575
58	0x3dfa193f	0.122118466
59	0x3e8758db	0.2643498
60	0x3ee5969b	0.44841465
61	0x3ed90715	0.42388216
62	0x3d844be7	0.0645979
63	0x3df6b719	0.12046642

fc2.weight f4 [180, 64]
0	0xbce763c2	-0.02824581
1	0xbcf37f7a	-0.029723871
2	0xbd83636d	-0.06415448
3	0x3d111bcf	0.03542691
4	0x3d93092a	0.07179482
5	0xbe654922	-0.22391179
6	0xbe0313be	-0.128005
7	0x3da0c3b2	0.07849826
8	0xbe2c8908	-0.16849148
9	0x3cafabea	0.02144428
10	0xbaad50c9	-0.0013222928
11	0x3ca9acf7	0.020712359
12	0x3dfec798	0.12440413
13	0xbe2dd3ff	-0.16975401
14	0xbe2ed5ec	-0.17073792
15	0x3d214270	0.03937
16	0x3da20429	0.0791095
17	0xbe8924fd	-0.26786032
18	0xbdaa573c	-0.0831742
19	0x3dc8a9c6	0.09798007
20	0x3df225e6	0.11823635
21	0x3e461118	0.19342458
22	0x3d5cc28a	0.053896464
23	0xbdb69fab	-0.08917173
24	0x3dc05e7c	0.093930215
25	0xbe18eb0c	-0.14933413
26	0x3d3f8d37	0.046765532
27	0x3cb8a235	0.022538284
28	0xbe26ff31	-0.16308285
29	0xbe7a4909	-0.24441923
30	0x3dec7ff8	0.115478456
31	0x3dd76d34	0.10518876
32	0xbd871ce8	-0.0659731
33	0xbd0575de	-0.03258311
34	0x3ec3a68e	0.3821301
35	0xbdbaaa6c	-0.09114537
36	0x3dffef6c	0.12496838
37	0xbd855276	-0.06509869
38	0x3e9f2bc6	0.31088084
39	0xbc1c32ff	-0.009533643
40	0x3dc5166e	0.09623419
41	0xbe855568	-0.26041722
42	0x3e3952f0	0.18098044
43	0x3d4ea464	0.050449744
44	0xbd048947	-0.03235748
45	0xbd097873	-0.033562135
46	0x3efd8620	0.49516392
47	0x3d3847e4	0.044990435
48	0xbd6bf1d9	-0.05760369
49	0x3e3c16b1	0.18368031
50	0xbe0cd582	-0.13753322
51	0xbe295511	-0.16536357
52	0x3c727880	0.014799237
53	0xbd848edd	-0.064725615
54	0xbe45c7c0	-0.1931448
55	0xbb2e77b2	-0.0026621637
56	0xbd37da89	-0.044886146
57	0x3df01762	0.1172321
58	0xbe133fc0	-0.14379787
59	0xbe159ade	-0.14609858
60	0x3db82c3d	0.08992813
61	0x3da5c8f6	0.08094971
62	0x3e0d4029	0.13794006
63	0xbdaea255	-0.08527056
64	0x3e12fe65	0.14354856
65	0xbefd5d24	-0.49485123
66	0x3d87dd3a	0.066339925
67	0xbd5dfe61	-0.054197673
68	0xbe452a9c	-0.19254535
69	0x3ed53826	0.416444
70	0x3f6cf5cd	0.9256256
71	0xbcf41b32	-0.029798124
72	0xbe55db99	-0.20884551
73	0x3ccbdb9b	0.02488499
74	0xbeee9cf4	-0.4660412
75	0x3c6d51f7	0.014484874
76	0x3e4871c6	0.19574651
77	0x3da6c471	0.08142937
78	0xbdb8397e	-0.08995341
79	0xbe8dc9f7	-0.2769315
80	0x3d68d9e5	0.056848425
81	0xbc5f1d2d	-0.013617796
82	0xbe45fe89	-0.19335379
83	0x3eb2c765	0.3491775
84	0x3edc4a3e	0.43025392
85	0x3e9109c6	0.2832777
86	0xbda7f900	-0.0820179
87	0x3d8b8e8e	0.068142995
88	0x3cadcbc8	0.021215335
89	0xbe15b086	-0.1461812
90	0xbe755564	-0.23958355
91	0x3e3d4395	0.18482812
92	0x3e2a6654	0.16640598
93	0x3efa2321	0.48854926
94	0xbdcf43ea	-0.101203755
95	0xbd85801c	-0.065185755
96	0x3dfd23e2	0.1236036
97	0x3db6583c	0.08903548
98	0xbe548d39	-0.20756997
99	0xbd8b03c1	-0.067878254
100	0xbd842693	-0.0645267
101	0x3e38d6e4	0.18050724
102	0xbebc8c17	-0.3682563
103	0xbe93b381	-0.28847888
104	0xbe4f4688	-0.2024175
105	0xbd59c6a7	-0.053167965
106	0xbd33402b	-0.043762367
107	0x3dd51e60	0.10406184
108	0xbd8f5e41	-0.070003994
109	0xbd16cf24	-0.03681864
110	0x3e2b02f3	0.16700344
111	0xbd61a6cf	-0.05509072
112	0xbdcc5cfd	-0.099786736
113	0xbe3a6db6	-0.18205914
114	0xbe67bfd4	-0.2263177
115	0x3dab6c47	0.08370262
116	0xbebdb6bc	-0.37053478
117	0xbd6073d1	-0.05479795
118	0xbe36c500	-0.17848587
119	0xbe0cf7a3	-0.13766341
120	0x3f184877	0.5948557
121	0x3d0d6c88	0.03452733
122	0x3eac5490	0.33658266
123	0x3d9caeaf	0.07650506
124	0x3cb55c13	0.022138631
125	0x3dee6ce3	0.11641862
126	0xbdea14f7	-0.1142978
127	0x3e34b51e	0.17647216
128	0xbc0bb308	-0.008526571
129	0x3d113319	0.03544912
130	0xbe25e0ce	-0.16199037
131	0xbd5b2714	-0.053504065
132	0xbdf529e4	-0.11970881
133	0xbd1f6b5f	-0.038920756
134	0xbd31c416	-0.043399893
135	0x3ca6be42	0.020354394
136	0xbde1b66d	-0.11021123
137	0xbba9afe8	-0.0051784404
138	0x3db4c3ce	0.08826409
139	0xbdf9a613	-0.12189879
140	0xbcc5455a	-0.024080921
141	0xbd4bd84b	-0.04976682
142	0x3d8fb4a4	0.07016876
143	0xbd4b1d1d	-0.04958831
144	0xbd02f19f	-0.03196871
145	0x3c4696ca	0.012120912
146	0xbe3276e0	-0.1742816
147	0xbd61ffe3	-0.055175673
148	0xbe363544	-0.17793757
149	0xbe5af5c0	-0.21382809
150	0xbe254f5c	-0.16143554
151	0xbdcee922	-0.1010306
152	0xbda2a230	-0.07941091
153	0xbe4a199a	-0.19736329
154	0x3cca4943	0.024693137
155	0xbca6c7e8	-0.020358995
156	0xbe264cef	-0.16240285
157	0x3d971906	0.0737782
158	0xbd9bbde4	-0.07604578
159	0x3d9e075e	0.07716249
160	0xbdb5bf13	-0.08874335
161	0x3c480165	0.012207364
162	0xbe0fd3e3	-0.14045672
163	0xbdaa9077	-0.08328336
164	0x3e1dd940	0.15414906
165	0xbd1de604	-0.038549438
166	0xbdc6580f	-0.096847646
167	0xbe8f8df0	-0.28037977
168	0xbe5a9696	-0.21346506
169	0xbcdca5b2	-0.026934478
170	0xbdb571e5	-0.08859614
171	0xbc7c37a0	-0.015394121
172	0xbd1bd061	-0.038040522
173	0xbe5e7555	-0.21724446
174	0xbd5b8f02	-0.05360318
175	0x3da661f5	0.081241526
176	0xbe44e718	-0.1922878
177	0xbe25dbe4	-0.16197163
178	0xbe480535	-0.19533236
179	0xbd7798f9	-0.06044862
180	0xbe592c53	-0.21208315
181	0xbdd173aa	-0.10227139
182	0xbd840035	-0.06445352
183	0xbd2ee002	-0.0426941
184	0x3c60f423	0.013730082
185	0xbd86e58a	-0.0658675
186	0xbdff3ada	-0.12462397
187	0xbe4b704b	-0.19867055
188	0xbd0589de	-0.032602184
189	0x3ba26e94	0.0049570296
190	0xbd9384b0	-0.072030425
191	0xbe34824f	-0.17627834
192	0x3d9e6f4d	0.07736073
193	0xbd9ddc37	-0.07708018
194	0xbe094d5f	-0.13408421
195	0xbdcde99a	-0.100543216
196	0xbd8eca24	-0.06972149
197	0xbdf794c6	-0.12088923
198	0x3df05625	0.11735181
199	0xbe6066cb	-0.21914212
200	0xbe0a02da	-0.1347765
201	0xbe008820	-0.12551928
202	0x3caf6a8e	0.021413114
203	0xbd905c73	-0.07048883
204	0xbe740aee	-0.23832294
205	0x3d635926	0.05550494
206	0x3c4f4e49	0.012652942
207	0x3d038b08	0.032115012
208	0xbdc17c93	-0.09447589
209	0xbe179669	-0.1480347
210	0xbe962474	-0.29324687
211	0xbdb80dfa	-0.08987041
212	0xbdcc42e1	-0.09973694
213	0xbe54f5a8	-0.20796835
214	0xbe090945	-0.13382442
215	0xbd91ef01	-0.071256645
216	0x3d160c2c	0.0366327
217	0xbe357f6c	-0.17724389
218	0xbd034f63	-0.03205813
219	0xbd5f68ad	-0.054543186
220	0xbe071f63	-0.13195567
221	0x3d7d1b00	0.061793327
222	0xbe6de07f	-0.2323017
223	0xbd6ef8cc	-0.05834274
224	0xbd31cfa3	-0.04341091
225	0x3e00731e	0.12543914
226	0xbd6f0dfa	-0.05836294
227	0xbe0df9d8	-0.13864839
228	0xbca9e6ac	-0.020739876
229	0x3e0d64f5	0.13808043
230	0xbbd22600	-0.0064132214
231	0xbe660d5b	-0.22466032
232	0x3b2bbd01	0.0026205184
233	0x3da7d50d	0.08194933
234	0xbe1435d3	-0.14473657
235	0x3d07eb88	0.033183604
236	0x3b00cfda	0.001965514
237	0x3c81a39d	0.015825087
238	0xbdfcaefa	-0.12338062
239	0x3c9fa1bd	0.019486303
240	0xbd31c2d6	-0.0433987
241	0xbd36b60c	-0.044607207
242	0xbe425c8f	-0.18980621
243	0x3d5a0dba	0.053235747
244	0xbe786b0e	-0.24259588
245	0x3d2ac2f4	0.041689828
246	0xbdb22c21	-0.08699823
247	0x3c8e8d69	0.017401414
248	0x3e2de940	0.16983509
249	0xbd395002	-0.045242317
250	0xbde54b41	-0.11195994
251	0x3c0af0d9	0.008480274
252	0xbe48764a	-0.19576374
253	0xbd9abe29	-0.075558014
254	0xbe74562e	-0.23861
255	0xbe06583d	-0.13119598

fc2.bias f4 [180]
0	0xbdf45c48	-0.11931664
1	0x3da5b6aa	0.08091481
2	0xbd9874e0	-0.07444167
3	0xbe0be341	-0.13660909
4	0xbdf002e1	-0.11719299
5	0xbe05323f	-0.13007449
6	0xbdba998b	-0.09111317
7	0xbcee9648	-0.029124394
8	0xbdbc92b1	-0.09207667
9	0xbe19332d	-0.14960928
10	0xbe154799	-0.14578094
11	0x3e93d3d7	0.28872558
12	0x3d9dfdc6	0.07714419
13	0x3f0473da	0.51739275
14	0xbcf34ca7	-0.029699637
15	0xbe0eceb3	-0.13946037
16	0xbe3836b6	-0.1798962
17	0x3e8ebb2a	0.2787717
18	0xbcedf5b6	-0.029047828
19	0xbd5dfb81	-0.05419493
20	0xbcaf5a1c	-0.021405272
21	0xbcfe7874	-0.031063296
22	0x3c3c80ff	0.011505364
23	0x3d6c91ab	0.057756107
24	0xbd8aac40	-0.06771135
25	0xbde52de6	-0.11190395
26	0xbe093ae2	-0.13401368
27	0xbba0c230	-0.0049059615
28	0xbdc96328	-0.09833366
29	0x3eda82f0	0.42678022
30	0x3e38f7c9	0.18063273
31	0x3e3c6ee8	0.18401682
32	0x3e56f915	0.20993455
33	0x3e217c4e	0.15770075
34	0x3dbdd757	0.092695884
35	0x3f0f4618	0.5596633
36	0x3d60d315	0.054888804
37	0x3ecf52cd	0.4049286
38	0x3ec4cae9	0.38436058
39	0x3e8f5372	0.2799335
40	0x3eecadd4	0.4622637
41	0x3f153494	0.5828335
42	0x3e2be97f	0.1678829
43	0x3b9c5241	0.0047705476
44	0xbda1144b	-0.07865199
45	0xbe2b9704	-0.16756827
46	0x3d919bfd	0.071098305
47	0xbdcc786f	-0.099839084
48	0xbdb95250	-0.09048903
49	0xbdd63bba	-0.10460611
50	0xbd304a5e	-0.043039672
51	0xbc75e9bd	-0.015009341
52	0xbda177b6	-0.07884161
53	0x3e8b57e6	0.272155
54	0xbe12e99e	-0.1434693
55	0xbcec6848	-0.028858319
56	0xbdc21ef1	-0.09478558
57	0xbdbbd59c	-0.09171602
58	0xbe106e15	-0.14104493
59	0x3e6f3972	0.23361757
60	0xbcc9747f	-0.024591682
61	0x3cbddc5f	0.02317637
62	0xbe318926	-0.17337474
63	0xbddcd383	-0.1078253
64	0xbdc28e80	-0.09499836
65	0x3ec96c24	0.39340317
66	0x3e4f63da	0.20252934
67	0xbdb9e252	-0.0907637
68	0x3bddf277	0.006773289
69	0xbdf656af	-0.12028252
70	0xbc983b41	-0.018582942
71	0x3de5cd4e	0.112207994
72	0xbde723e6	-0.11286144
73	0xbd1953ba	-0.037433363
74	0xbd6e26b5	-0.058142383
75	0x3d94d0a1	0.07266355
76	0x3e3911bb	0.1807317
77	0xbc790b04	-0.01520038
78	0x3f43054d	0.76179963
79	0xbdcc7600	-0.09983444
80	0xbcd7d2c6	-0.026345622
81	0xbe35398e	-0.17697737
82	0xbe4495be	-0.19197747
83	0x3d9b5627	0.07584792
84	0x3ea4c30c	0.3218006
85	0xbdcfab56	-0.101401016
86	0x3c28b6e0	0.010297507
87	0xbcbf5ddb	-0.023360183
88	0xbd3c4ab8	-0.045969695
89	0x3dcdb42d	0.100441314
90	0xbce521d0	-0.027970225
91	0xbe2b6067	-0.16735993
92	0xbdf71b43	-0.12065747
93	0xbe3144f1	-0.17311455
94	0xbbfe47bf	-0.0077600176
95	0x3da53916	0.08067529
96	0x3e409b79	0.18809308
97	0x3c9af9c7	0.018917931
98	0xbdd4e8f7	-0.10395997
99	0xbe4a489e	-0.19754264
100	0xbdf91ed8	-0.12164086
101	0xbb8b2240	-0.0042460263
102	0x3efa9bcc	0.4894699
103	0x3c88b248	0.016686574
104	0xbe1788dc	-0.14798301
105	0x3e52f630	0.20601726
106	0x3e429ab9	0.19004335
107	0x3e31aec0	0.17351818
108	0x3e8de393	0.27712688
109	0xbe0edc2b	-0.13951175
110	0xbe3556ef	-0.17708944
111	0xbdf75cd4	-0.120782524
112	0xbd927a95	-0.07152287
113	0x3d8d36ba	0.06895204
114	0x3f1ebe0b	0.6200873
115	0xbcb3863a	-0.02191459
116	0xbe01061c	-0.12599987
117	0xbd9eda4c	-0.077564806
118	0xbd98c0b4	-0.0745863
119	0x3da2a0f1	0.079408534
120	0xbe062b67	-0.13102494
121	0xbda9f8c2	-0.082994
122	0xbcdaf1c8	-0.026726618
123	0xbe35c2e6	-0.17750129
124	0xbcd7bb26	-0.026334357
125	0x3d187e5a	0.037229873
126	0x3ec4d553	0.38444003
127	0xbe30d33f	-0.17268084
128	0xbdfc263f	-0.12311982
129	0xbccdee50	-0.02513805
130	0xbce69a09	-0.028149622
131	0x3d2c64e6	0.04208841
132	0x3e230d4a	0.15923038
133	0xbde5d61d	-0.112224795
134	0xbe1ac49e	-0.15114066
135	0xbe0cd55d	-0.13753267
136	0x3c8ac109	0.01693775
137	0xbd00eb49	-0.031474385
138	0x3d177ad3	0.03698237
139	0x3ee0be3d	0.4389514
140	0xbca0b4cc	-0.01961746
141	0xbd743aea	-0.059626497
142	0x3e6dd175	0.23224433
143	0x3dbb8342	0.09155895
144	0x3ef905f4	0.48637354
145	0xbe98cc7f	-0.29843518
146	0x3ec5f175	0.3866078
147	0x3d96ec4c	0.07369289
148	0x3eb6b225	0.35682788
149	0x3efd4ee8	0.49474263
150	0x3e35058f	0.17677902
151	0xbe0e94ea	-0.13923994
152	0xbc8d7211	-0.017266305
153	0xbd6b697e	-0.057473652
154	0xbd90f7bc	-0.070785016
155	0x3e7fd96d	0.24985285
156	0x3e0594e9	0.13045086
157	0xbdf699fa	-0.120410874
158	0xbdc0cf23	-0.09414508
159	0xbe041b6a	-0.12901083
160	0xbda4a7c8	-0.08039814
161	0x3d1cbb73	0.038264703
162	0xbe1a9795	-0.15096886
163	0xbd7d9990	-0.061914027
164	0xbdc322b4	-0.095281035
165	0x3b113f20	0.002216287
166	0xbe2cece3	-0.1688724
167	0x3e256eb4	0.16155511
168	0xbe38fdc5	-0.18065555
169	0xbe1aff4b	-0.15136449
170	0xbdd1e6fe	-0.102491364
171	0xbe1c3846	-0.15255842
172	0xbd6c1349	-0.05763558
173	0x3ebf964c	0.37419355
174	0x3e1240ab	0.14282481
175	0x3d081dd3	0.033231568
176	0xbd8da787	-0.06916719
177	0xbb397527	-0.0028298588
178	0xbe157823	-0.1459661
179	0x3ead0b65	0.33797756

conv.weight f4 [5, 1, 34, 34]
0	0x3f0b7609	0.5447698
1	0x3f1f9c7b	0.62348145
2	0x3f2af6e6	0.6678299
3	0x3f6a0f83	0.9142992
4	0x3f82422b	1.0176443
5	0x3f60368d	0.8758324
6	0x3f9ddf37	1.2333745
7	0x3f8e7eaa	1.1132405
8	0x3f4d8d70	0.8029394
9	0x3f44cdae	0.7687634
10	0x3f26a189	0.65090233
11	0x3ec0fdd4	0.37693655
12	0x3ee3882c	0.44439828
13	0x3eb1ef9d	0.34753123
14	0x3eb63e23	0.35594282
15	0x3e186416	0.1488193
16	0xbe3198ce	-0.17343447
17	0xbe4188e0	-0.1889987
18	0xbe94bfa6	-0.29052466
19	0xbec99378	-0.39370322
20	0xbea45ad7	-0.32100555
21	0xbe910685	-0.28325287
22	0xbeb505d8	-0.3535602
23	0xbe97d99d	-0.29658213
24	0xbe6c2125	-0.23059519
25	0xbde04efd	-0.10952566
26	0xbd022611	-0.031774584
27	0xbdb89985	-0.090136565
28	0xbce26531	-0.027636142
29	0x3c6ba394	0.014382262
30	0x3bf98fce	0.00761602
31	0x3d128de6	0.035779856
32	0x3e12b184	0.1432553
33	0x3d03dd71	0.032193605
34	0x3eb50f80	0.35363388
35	0x3f3dd390	0.74150944
36	0x3f45faff	0.77336115
37	0x3f34069c	0.70322585
38	0x3f7cc9a7	0.987452
39	0x3f81f758	1.0153608
40	0x3f8a3556	1.0797527
41	0x3f8d87ef	1.1057109
42	0x3f6960d5	0.9116338
43	0x3f62ead1	0.8863955
44	0x3f8aa43d	1.0831372
45	0x3ee3d80b	0.44500765
46	0x3ed968ff	0.42462918
47	0x3f00ea31	0.5035735
48	0x3ee1ed8d	0.4412655
49	0x3b6ad47a	0.0035832212
50	0xbd618379	-0.055057023
51	0xbdc4f2aa	-0.09616597
52	0xbebb9967	-0.36640474
53	0xbefd7fc7	-0.4951155
54	0xbf02e7bf	-0.51134866
55	0xbe82361b	-0.25431904
56	0xbedc319d	-0.43006602
57	0xbec0035b	-0.3750256
58	0xbe8a89f3	-0.27058372
59	0xbe5090ec	-0.20367783
60	0xbe44a15e	-0.19202182
61	0xbe32e8ba	-0.1747159
62	0xbd0181c2	-0.031617887
63	0xbc1f274b	-0.009713958
64	0xbc3c30d9	-0.011486256
65	0xbd47e6c1	-0.04880405
66	0x3c34c89f	0.01103416
67	0x3b809513	0.003924021
68	0x3ee29b25	0.4425899
69	0x3f61c300	0.8818817
70	0x3f4a3070	0.7898016
71	0x3f518476	0.81842744
72	0x3f9a9035	1.2075258
73	0x3f8d8143	1.1055073
74	0x3f897e9a	1.0741761
75	0x3f957ca5	1.1678663
76	0x3f6ab2dc	0.9167917
77	0x3f545ec4	0.829571
78	0x3f92be4c	1.1464324
79	0x3f77eb9f	0.96843904
80	0x3f324155	0.6963094
81	0x3f357c77	0.70893043
82	0x3eb96816	0.36212224
83	0xbcb64456	-0.022249382
84	0xbd1195ff	-0.035543438
85	0xbd85981e	-0.06523155
86	0xbeae1660	-0.34001446
87	0xbeb4af30	-0.35289907
88	0xbef6a895	-0.48175493
89	0xbf1a89d0	-0.60366535
90	0xbf20d5bd	-0.6282614
91	0xbf25c269	-0.6474977
92	0xbebd309c	-0.3695115
93	0xbe78f882	-0.24313548
94	0xbe6eb59b	-0.23311464
95	0xbe42bf2e	-0.19018242
96	0xbe40737b	-0.18794052
97	0xbe2d8139	-0.16943826
98	0xbde9c60f	-0.1141473
99	0xbd81cfbe	-0.06338452
100	0x3d2adacd	0.04171257
101	0x3d1459b5	0.036218364
102	0x3eef2c0b	0.4671329
103	0x3f40a573	0.75252455
104	0x3f436d50	0.7633867
105	0x3f50d165	0.8156951
106	0x3f826614	1.0187402
107	0x3f869cbb	1.051658
108	0x3f447912	0.7674724
109	0x3f6fbb69	0.9364534
110	0x3f860eb0	1.0473232
111	0x3f7fb5a9	0.99886566
112	0x3f89067b	1.0705103
113	0x3f679d78	0.90474653
114	0x3f015896	0.50525796
115	0x3efb0102	0.49024206
116	0x3e73eda9	0.23821129
117	0x3e0e2988	0.1388303
118	0x3d459ef4	0.048247293
119	0xbe2e7328	-0.17036116
120	0xbee32bcb	-0.4436935
121	0xbef8f783	-0.48626336
122	0xbf37171e	-0.7151965
123	0xbf3e10f7	-0.74244636
124	0xbec5a899	-0.38605192
125	0xbea2b353	-0.3177744
126	0xbed933ba	-0.42422277
127	0xbed65d2e	-0.41867965
128	0xbeb44d25	-0.35215107
129	0xbe9b3137	-0.30310985
130	0xbe522ec9	-0.2052566
131	0xbe4a80dd	-0.1977572
132	0xbdf0b4ff	-0.11753272
133	0xbc98fbdf	-0.018674789
134	0xbcbe3512	-0.023218665
135	0xbdae96b2	-0.085248366
136	0x3f52fc88	0.8241658
137	0x3f27f0b5	0.65601665
138	0x3f4ff44d	0.8123215
139	0x3f4d9d01	0.80317694
140	0x3f8246f3	1.0177902
141	0x3f8e0d14	1.1097741
142	0x3f88a464	1.0675168
143	0x3f8ae7ca	1.0851986
144	0x3f6e45eb	0.93075436
145	0x3f34dde8	0.706511
146	0x3f89a7e1	1.0754358
147	0x3f4738e0	0.7782116
148	0x3f134e8d	0.57541734
149	0x3f209f93	0.6274349
150	0x3ea61cad	0.32443753
151	0x3e6aa8c1	0.22915937
152	0x3e0b989b	0.13632433
153	0xbe4f8af2	-0.20267847
154	0xbe87fa5e	-0.26558203
155	0xbe7d663b	-0.24746029
156	0xbf1798e6	-0.5921768
157	0xbf11524a	-0.5676619
158	0xbf07b9b0	-0.5301771
159	0xbf13f0c1	-0.57789236
160	0xbeeb40c1	-0.4594784
161	0xbece3554	-0.4027506
162	0xbebe1a89	-0.3712962
163	0xbe85d4f1	-0.26139024
164	0xbe8d6d56	-0.2762248
165	0xbe6d5e54	-0.23180515
166	0xbda20fc8	-0.07913166
167	0xbcbfa94e	-0.02339616
168	0xbc0fcfd6	-0.008777579
169	0xbb828495	-0.00398309
170	0x3e9f21d5	0.310805
171	0x3f20722f	0.6267423
172	0x3f4ae3bd	0.7925375
173	0x3f560152	0.83595765
174	0x3f809baf	1.0047511
175	0x3f3956da	0.7239815
176	0x3f2f7580	0.68538666
177	0x3f72a2a4	0.9477942
178	0x3f5b2169	0.85597855
179	0x3f30a71f	0.69005007
180	0x3f3b013f	0.73048776
181	0x3f622bc0	0.8834801
182	0x3edb80f5	0.42871824
183	0x3ec249f8	0.3794706
184	0x3e8ed23b	0.27894768
185	0x3e085f63	0.13317637
186	0x3d00be55	0.031431515
187	0xbe34c99d	-0.17655034
188	0xbe9747b8	-0.29546905
189	0xbee0a87d	-0.43878546
190	0xbf0384b8	-0.5137439
191	0xbf2db384	-0.67852044
192	0xbf5284b9	-0.8223377
193	0xbf5818d9	-0.84412915
194	0xbede4fb3	-0.4342018
195	0xbe9edf59	-0.31029776
196	0xbed12c35	-0.4085404
197	0xbedca12b	-0.4309171
198	0xbe62c8b4	-0.22146875
199	0xbe53760c	-0.206505
200	0xbdfee517	-0.12446039
201	0xbd960802	-0.07325746
202	0xbd09ac5c	-0.03361164
203	0xbd97f5c9	-0.07419927
204	0x3eaf9da7	0.34299967
205	0x3eb65577	0.3561208
206	0x3eb5371b	0.35393605
207	0x3f102387	0.5630421
208	0x3f1f7599	0.62288815
209	0x3f2f2b39	0.6842533
210	0x3f46a3fb	0.77593964
211	0x3f4be2e2	0.7964307
212	0x3f429da1	0.7602177
213	0x3f2d1df0	0.67623806
214	0x3f175756	0.5911764
215	0x3f1e34f4	0.6179955
216	0x3f2a6662	0.66562474
217	0x3ebe4c2d	0.37167493
218	0x3e7f1cbb	0.24913304
219	0x3e20062e	0.15627357
220	0x3c8a7f43	0.016906386
221	0xbe8fa916	-0.2805869
222	0xbedf342d	-0.43594494
223	0xbed6fed0	-0.41991282
224	0xbf062031	-0.5239287
225	0xbf29721a	-0.6618973
226	0xbf3a81a2	-0.72854054
227	0xbf30b369	-0.6902376
228	0xbf0ca158	-0.5493369
229	0xbf11bd4b	-0.56929463
230	0xbedaf6ae	-0.42766327
231	0xbee8caf5	-0.45467344
232	0xbebaf838	-0.365175
233	0xbe911e29	-0.28343323
234	0xbe801acb	-0.2502044
235	0xbe4dc1b2	-0.2009342
236	0xbd9d5ed8	-0.07684106
237	0xbdf8b456	-0.12143771
238	0x3e8f2a67	0.27962038
239	0x3ed2ce2d	0.41172925
240	0x3f0d031e	0.5508288
241	0x3f1cb57f	0.6121444
242	0x3f0fb45a	0.5613457
243	0x3f2b2948	0.66859865
244	0x3f572b4b	0.84050435
245	0x3f2ad45d	0.6673029
246	0x3f463ac9	0.7743345
247	0x3f66c36c	0.9014194
248	0x3f296b4e	0.6617936
249	0x3efa762b	0.4891828
250	0x3f12e28c	0.57376933
251	0x3ed11f14	0.40844023
252	0x3e804715	0.2505423
253	0x3d17d918	0.03707227
254	0xbe4afb70	-0.19822478
255	0xbe7b77bf	-0.24557398

conv.weight f4 [5, 1, 10, 10]
0	0x3e0fe0a9	0.14050545
1	0x3d98ef8e	0.074675664
2	0xbd6c561e	-0.057699315
3	0xbc9ffadf	-0.019528804
4	0xbd995c6d	-0.07488332
5	0xbb852ee7	-0.004064429
6	0xbca6c614	-0.020358123
7	0xbdc23910	-0.0948354
8	0xbcbfe6d0	-0.02342549
9	0xbde933ea	-0.11386855
10	0xbceee55b	-0.0291621
11	0xbc49b81d	-0.012311962
12	0xbdeb0893	-0.11476245
13	0xbdb0e4bf	-0.0863738
14	0xbe1a105c	-0.15045303
15	0x3b8d262f	0.0043075304
16	0xbdc694e0	-0.096963644
17	0xbdb95c78	-0.0905084
18	0xbdad44c3	-0.08460381
19	0xbe190842	-0.14944556
20	0xbc156129	-0.009117403
21	0xbd2533c6	-0.040332578
22	0x3c43ef22	0.011958869
23	0xbdf30e6e	-0.118679866
24	0xbd027458	-0.031849235
25	0xbe12d757	-0.14339958
26	0xbe0efa45	-0.13962658
27	0xbde2f450	-0.11081755
28	0xba9b4073	-0.0011844769
29	0xbe03d774	-0.12875158
30	0xbd545e7c	-0.05184792
31	0xbd7e06ca	-0.062018193
32	0xbdeedaf1	-0.116628535
33	0xbd150cd8	-0.036389202
34	0xbcbc6abc	-0.023000114
35	0xbdbda63a	-0.09260221
36	0xbc3b4f10	-0.011432424
37	0x3d1a8d7b	0.037732583
38	0xbcd26cc4	-0.02568663
39	0xbe14e2b2	-0.14539602
40	0xbe22dec3	-0.1590529
41	0xbdc566af	-0.09638726
42	0xbd5b730a	-0.053576507
43	0xbd1d0f57	-0.038344707
44	0xbd2800fa	-0.041016556
45	0xbd302f19	-0.043013666
46	0x3d2f29d4	0.0427645
47	0xbe0e9ab5	-0.13926204
48	0x3d032ff2	0.032028146
49	0xbd8ffed3	-0.07031026
50	0x3da43039	0.0801701
51	0xbd5a9b0d	-0.053370524
52	0xbdc951b3	-0.09830036
53	0xbd9e004e	-0.07714902
54	0xbd9da51a	-0.07697506
55	0x3d926df9	0.07149882
56	0xbd3cdf6a	-0.0461115
57	0xbb8b3a30	-0.00424888
58	0xbd09e2f4	-0.033663705
59	0xbd3da130	-0.0462963
60	0x3d0726dc	0.032996044
61	0x3b930fe0	0.0044879764
62	0xbd52fc00	-0.051509857
63	0xbc861e20	-0.016371787
64	0xbd3ad333	-0.04561157
65	0x3ce00c6c	0.027349673
66	0xbdc5c952	-0.096575394
67	0xbbe5a2a0	-0.007007912
68	0x3b1ed401	0.002423525
69	0xbdfee93e	-0.12446831
70	0xbd66bee5	-0.056334395
71	0xbd294585	-0.041326065
72	0xbdb8d1fd	-0.09024427
73	0x3d2d9b66	0.042384528
74	0xbd9afc03	-0.07567599
75	0x3d9fa639	0.07795376
76	0xbd6fcb03	-0.058543216
77	0xbdbb1542	-0.09134914
78	0xbd87a2c8	-0.06622845
79	0xbda26148	-0.07928711
80	0xbda851f1	-0.08218754
81	0x3c9a6b8b	0.018850109
82	0x3d53e16b	0.051728647
83	0xbde8db2d	-0.113699295
84	0xbd10d205	-0.03535654
85	0xbc7ba730	-0.015359685
86	0xbc742090	-0.014900342
87	0xbd60acdc	-0.05485235
88	0xbd117c66	-0.035519026
89	0xbd8e13a1	-0.06937338
90	0x3e59e1c7	0.21277533
91	0xbe094463	-0.13404994
92	0xbd37ce1e	-0.044874303
93	0xbe3ccfd6	-0.18438658
94	0xbb0f2b58	-0.0021845903
95	0xbe0525d3	-0.1300271
96	0xbe12b735	-0.143277
97	0xbd9e6de6	-0.07735805
98	0x3e2c8704	0.1684838
99	0x3e2264da	0.15858784
100	0x3d0bdfb2	0.03414888
101	0x3c208bc1	0.009798945
102	0x3c2ef547	0.010678596
103	0xbe0d993d	-0.13827987
104	0xbd14d9bc	-0.03634046
105	0xbcd8c851	-0.026462706
106	0xbe343ac6	-0.17600545
107	0xbccf6b87	-0.025319828
108	0xbc81846f	-0.01581022
109	0xbdd47672	-0.10374154
110	0xbd4607b7	-0.0483472
111	0xbde01297	-0.10941046
112	0xbdb39491	-0.08768571
113	0xbcb24eef	-0.021766154
114	0xba13eb26	-0.0005642645
115	0xbdba59b5	-0.090991415
116	0xbd6574c6	-0.056019567
117	0xbe0e2036	-0.13879475
118	0xbbb9a2bc	-0.0056651514
119	0x3c94e9b5	0.018177846
120	0xbd84d2ff	-0.06485557
121	0xbd0a9738	-0.03383562
122	0xbe0315b9	-0.12801255
123	0xbdb1ffd3	-0.08691373
124	0xbda8d5fe	-0.08243941
125	0xbe1ea83e	-0.15493867
126	0xbe3df461	-0.18550254
127	0xbe17a274	-0.14808065
128	0xbe0a4ee3	-0.13506655
129	0x3d1ae988	0.03782037
130	0xbdf1cd8c	-0.11806783
131	0xbc49f6de	-0.012326924
132	0xbd899dcb	-0.0671955
133	0xbd8b1cdf	-0.06792616
134	0xbe310f77	-0.17291056
135	0xbe332cc4	-0.17497545
136	0xbe00b2a8	-0.12568152
137	0x3d0c33fe	0.03422927
138	0xbdf347f4	-0.11878958
139	0xbcd18fdc	-0.025581293
140	0xbdf3a84a	-0.11897333
141	0xbd7d5db0	-0.061856925
142	0x3c66732a	0.014065543
143	0xbdd0c222	-0.10193278
144	0xbda1dea5	-0.07903794
145	0xbe1aa2ac	-0.15101117
146	0xbd1aabae	-0.037761383
147	0x3aebc17a	0.0017986738
148	0xbd4024e8	-0.046910197
149	0xbcde9e5f	-0.027175127
150	0xbc6a780b	-0.014310847
151	0xbaed88e8	-0.0018122466
152	0xbe0b38ee	-0.13595936
153	0xbe241205	-0.16022499
154	0xbd01ae48	-0.03166035
155	0xbd90a027	-0.07061797
156	0xbe267511	-0.16255595
157	0xbdc2ced8	-0.095121086
158	0xbaa90da6	-0.0012897744
159	0xbe091c3a	-0.13389674
160	0x3cffdf1c	0.031234317
161	0x3cc398a7	0.023876501
162	0x3ca0988e	0.019603994
163	0xbe3fa4e1	-0.1871524
164	0xbdcc470d	-0.09974489
165	0xbe05f899	-0.13083114
166	0xbe0b2ba6	-0.1359087
167	0xbd59fb3f	-0.053218123
168	0xbd4434c6	-0.04790189
169	0xbe07e90a	-0.13272491
170	0x3d01ded8	0.03170666
171	0xbdc0b543	-0.09409573
172	0x3c9fdf3c	0.019515626
173	0x3c983459	0.018579649
174	0x3cd45cf4	0.02592323
175	0xbe1a7679	-0.15084256
176	0xbc2b3d12	-0.010451572
177	0xbdbd83b9	-0.0925364
178	0x39b30f99	0.00034153162
179	0xbdc68e30	-0.09695089
180	0x3c93e250	0.01805225
181	0xbe08df96	-0.13366541
182	0x3b91e4a6	0.004452306
183	0xbe01085f	-0.1260085
184	0x3c1468ab	0.009058158
185	0xbe0037b1	-0.12521245
186	0xbdbf8b15	-0.093527
187	0xbde98de1	-0.114040144
188	0x3c0316a7	0.008001006
189	0xbdb9c952	-0.09071602
190	0xbdbaaa42	-0.09114505
191	0xbdbd1ee2	-0.09234406
192	0xbc81a109	-0.015823858
193	0xbddef987	-0.10887437
194	0xbe18a450	-0.1490643
195	0xbe2da9e2	-0.16959336
196	0xbe1d1574	-0.15340215
197	0xbd6882b4	-0.056765273
198	0xbca8ca0d	-0.020604158
199	0xbdeafcd4	-0.114740044
200	0xbb4ba3a1	-0.0031072872
201	0xbde5f831	-0.112289794
202	0xbe03ab33	-0.12858276
203	0x3cdda050	0.027053982
204	0xbd608ac0	-0.054819822
205	0xbdb7ac20	-0.08968377
206	0xbd537538	-0.05162546
207	0xbe038450	-0.12843442
208	0x3e940107	0.28907034
209	0x3e483de6	0.19554862
210	0x3e859902	0.26093298
211	0xbde38d79	-0.11110968
212	0x3c1e9106	0.009678131
213	0xbe23323d	-0.15937133
214	0xbdaa0cb5	-0.08303205
215	0x3c6e2ad4	0.014536578
216	0xbda05597	-0.07828825
217	0xbdff6ade	-0.12471555
218	0x3cecc965	0.028904626
219	0xbdec0267	-0.11523896
220	0xbdb49bb4	-0.088187605
221	0xbbe86747	-0.0070923897
222	0x3cd4482d	0.025913322
223	0xbdc04173	-0.093874834
224	0xbcfb7cda	-0.030699182
225	0xbd2b6585	-0.041844863
226	0xbdef69fe	-0.11690138
227	0xbc84090e	-0.016117599
228	0xbd52b9cd	-0.051446725
229	0xbdd70563	-0.10499074
230	0xbe326907	-0.17422877
231	0xbd901514	-0.0703527
232	0xbdba4435	-0.09095041
233	0xbd847862	-0.06468274
234	0xbdd96494	-0.10614887
235	0xbbce0c2b	-0.0062880716
236	0xbc831033	-0.015998935
237	0xbd6d685a	-0.057960846
238	0xbd36e744	-0.044654146
239	0xbe1b7e30	-0.15184855
240	0xbb3f27d2	-0.0029168022
241	0xbd88730c	-0.066625684
242	0xbdc514ec	-0.09623131
243	0xbc77f1c4	-0.015133325
244	0xbde57710	-0.1120435
245	0xbe0901f6	-0.13379654
246	0xbcffa261	-0.031205358
247	0xbd239869	-0.03994027
248	0xbd717e43	-0.058958303
249	0xbd519907	-0.05117133
250	0xbdd5bc9f	-0.10436367
251	0xbd592bf0	-0.053020418
252	0xbce469ae	-0.027882423
253	0xbe1f69c8	-0.15567696
254	0xbe09d4c8	-0.13460076
255	0xbd891d80	-0.0669508

conv.bias f4 [5]
0	0x3e12a872	0.1432207
1	0x3dba5a28	0.09099227
2	0x3e1b91e3	0.1519237
3	0xbe0cb19a	-0.13739625
4	0x3e33b4c0	0.1754942

fc1.weight f4 [64, 180]
0	0xbdd5721c	-0.10422155
1	0xbd9d2b95	-0.07674328
2	0xbde4dbbc	-0.111747235
3	0xbd88981f	-0.0666964
4	0xbd8fa92f	-0.07014691
5	0xbdbc2061	-0.09185863
6	0xbe02a5aa	-0.12758508
7	0xbd476dcc	-0.048688695
8	0xbd9c7731	-0.076399215
9	0xbdc1dac5	-0.09465555
10	0xbdd18c6d	-0.10231862
11	0x3c1ba612	0.0095000435
12	0xbe00e9cc	-0.12589186
13	0xbdfb4534	-0.12269059
14	0xbd56dd5b	-0.052457195
15	0xbd939564	-0.072062284
16	0x3c73cbab	0.014880101
17	0xbcf4ff09	-0.029906766
18	0xbb875a37	-0.0041306275
19	0xbd8d5f2f	-0.069029205
20	0x3d9648dd	0.07338116
21	0xbd8be9ed	-0.06831727
22	0x3c050f46	0.008121317
23	0xbcabf780	-0.02099204
24	0x3adbdb84	0.0016773795
25	0xbd99993f	-0.074999325
26	0xbceef895	-0.029171268
27	0xbd056e64	-0.03257598
28	0xbcb94543	-0.022616034
29	0xbdbf5b03	-0.09343531
30	0xbdd325f8	-0.10309976
31	0xbd541d46	-0.05178573
32	0xbdff9b34	-0.124807745
33	0x3b3acab0	0.0028502159
34	0xbd57340c	-0.05253987
35	0xbdf5a0b6	-0.11993544
36	0xbd8289cd	-0.0637394
37	0xbd27e502	-0.040989883
38	0x3b677499	0.00353173
39	0xbc318b3e	-0.010836421
40	0xbd604c79	-0.05476043
41	0xbdfc8339	-0.12329716
42	0x3b1ab6d9	0.002360752
43	0x3c0c51d9	0.008564436
44	0xbdb89bfe	-0.09014128
45	0xbdac72b2	-0.08420314
46	0xbc685f65	-0.0141829
47	0xbdc22836	-0.09480326
48	0xbbc37935	-0.0059653767
49	0xbd683e3a	-0.05669997
50	0xbd25f054	-0.040512398
51	0xbd841fd7	-0.064513855
52	0xbd20a995	-0.039224226
53	0xbd7a9590	-0.06117779
54	0xbd6303e9	-0.05542365
55	0xbd2ef162	-0.04271067
56	0xbbb03861	-0.0053778146
57	0xbdae4a93	-0.08510318
58	0xbc7e60cf	-0.015526011
59	0xbd8bf915	-0.06834618
60	0xbdff82ff	-0.124761574
61	0xbd29cf45	-0.041457433
62	0xbb9bea0e	-0.004758126
63	0x3c3847de	0.011247603
64	0xbd5c14e7	-0.05373087
65	0xbd4a7aca	-0.049433507
66	0xbddc1a6e	-0.107472286
67	0xbc9224d8	-0.017839834
68	0x3c5537f3	0.013013828
69	0xbdb98dfa	-0.09060283
70	0x3bb98b60	0.0056623667
71	0xbbedf513	-0.007261881
72	0xbdeb99f6	-0.11503975
73	0xbde51cde	-0.111871466
74	0x3bd829ea	0.0065967934
75	0x3b510c5b	0.0031898234
76	0xbdd0e99e	-0.10200809
77	0x3c8d28fe	0.01723146
78	0xbdada887	-0.0847941
79	0xbd4a21a2	-0.04934848
80	0xbd12b0b5	-0.035813052
81	0xbdeb4011	-0.11486829
82	0xbd188538	-0.037236422
83	0xbdea80c9	-0.11450345
84	0xbdb3d553	-0.08780923
85	0xbd934e80	-0.07192707
86	0xbde1d97f	-0.11027812
87	0xbdfbd9c3	-0.12297394
88	0xbdcceb69	-0.100058384
89	0xbb91a4f4	-0.004444713
90	0xbcc0b49a	-0.023523618
91	0xbd9438d6	-0.07237403
92	0xbd0d1eeb	-0.034453314
93	0xbd8064d7	-0.06269234
94	0xbdf329b4	-0.118731886
95	0xbc143aef	-0.009047254
96	0xbdd2b3be	-0.10288189
97	0xbd6292b2	-0.05531568
98	0xbe00e327	-0.12586652
99	0xbc486522	-0.012231143
100	0xbdc59c27	-0.09648924
101	0x3aad4fa8	0.0013222592
102	0xbda66fe7	-0.081268124
103	0xbd95a2a0	-0.07306409
104	0x3be1c318	0.006889712
105	0xbd80729a	-0.062718585
106	0xbddec40a	-0.10877235
107	0xbd4029cd	-0.046914864
108	0xbd8e73a9	-0.06955654
109	0xbd6a5b0a	-0.057215728
110	0xbd18e725	-0.03732981
111	0x3cc1d570	0.023661345
112	0x3d845601	0.064617164
113	0xbc86634a	-0.016404767
114	0xbcc5da12	-0.024151836
115	0xbc860ad0	-0.016362578
116	0xbd80cd5a	-0.06289168
117	0xbd44a135	-0.0480053
118	0x3af27e80	0.0018500835
119	0xbabbca80	-0.0014327317
120	0xbcf0b71c	-0.029384188
121	0xbd812d0e	-0.063074216
122	0xbda2712e	-0.079317436
123	0xbd303e30	-0.043028057
124	0xbd3f94bf	-0.046772715
125	0x3d570d76	0.05250307
126	0xbd20a01c	-0.039215192
127	0xbdc319ea	-0.09526427
128	0xbd6322f6	-0.055453263
129	0x3c16766c	0.009183507
130	0xbd4f24e6	-0.0505723
131	0x3d91610b	0.070985876
132	0x3bc3afb0	0.0059718713
133	0x3d97be75	0.07409374
134	0xbe05c765	-0.13064344
135	0xbd36a167	-0.04458752
136	0xbd646beb	-0.05576698
137	0x3d815fdb	0.06317111
138	0xbc68b2ac	-0.014202755
139	0x3d532c9a	0.051556207
140	0x3d0b6736	0.034033976
141	0xbd4800aa	-0.04882876
142	0x3cad391c	0.021145396
143	0xbd875e48	-0.066097796
144	0xbdc07258	-0.09396809
145	0xbd42bd7f	-0.047544
146	0xbdd253f2	-0.102699175
147	0xbdb1385e	-0.08653329
148	0xbd3cb0dd	-0.046067107
149	0xbd546396	-0.051852785
150	0xbd6ab6c5	-0.05730321
151	0xbdd273cc	-0.10275993
152	0xbde007fa	-0.109390214
153	0xbc837f7d	-0.016052002
154	0xbe01ccf5	-0.12675841
155	0xbdf04cc8	-0.11733395
156	0xbd55474b	-0.052069943
157	0xbd820a1d	-0.06349585
158	0xbd9191de	-0.071079
159	0xbe06d5c6	-0.13167486
160	0xbcdf79ee	-0.02727982
161	0xbdd4ae06	-0.10384755
162	0xbc13cf85	-0.0090216445
163	0xbde9b29b	-0.114110194
164	0xbd1c58ba	-0.038170554
165	0x3c172857	0.009225926
166	0xbcbd9b99	-0.023145484
167	0xbd9b9930	-0.075975776
168	0xbdbfb5bd	-0.09360836
169	0xbde62898	-0.112382114
170	0xbd5d229c	-0.053988084
171	0xbd67b42d	-0.056568313
172	0x3c7e9831	0.015539215
173	0xbc153f12	-0.009109275
174	0xbc7931d3	-0.015209633
175	0xbde541a6	-0.11194162
176	0xbd82bc78	-0.06383604
177	0x3be88f3a	0.007097152
178	0xbd2c1b55	-0.042018253
179	0xbcfc5264	-0.030801006
180	0xbddfadd9	-0.10921831
181	0xbdd0e1e5	-0.10199336
182	0xbaf19bae	-0.0018433237
183	0xbc1e6c41	-0.009669364
184	0xbde67ccf	-0.11254274
185	0xbdc3b831	-0.09556616
186	0xbd470c9b	-0.048596006
187	0xbd8a174e	-0.06742726
188	0xbcc919fb	-0.024548521
189	0xbd0b63fa	-0.034030892
190	0xbd95ac5f	-0.07308268
191	0xbc5eaa06	-0.013590341
192	0xbbae8d4e	-0.0053269034
193	0xbc05a18a	-0.00815619
194	0xbc445a02	-0.01198435
195	0xbcbf2c14	-0.023336448
196	0xbdea79cb	-0.114490114
197	0xba62f980	-0.0008658394
198	0xbda0c8a3	-0.078507684
199	0xbd07801c	-0.03308116
200	0xbd8d6c69	-0.06905443
201	0xbbeb8290	-0.007187195
202	0xbde4cf93	-0.11172404
203	0xbc0c41d6	-0.008560618
204	0xbdc98259	-0.09839315
205	0xbdea9c42	-0.11455585
206	0xbd3e08a9	-0.046394978
207	0xbd8568f6	-0.0651416
208	0xbc8f8a10	-0.017521888
209	0xbd1dc71e	-0.03851997
210	0xbce9b5f9	-0.028529154
211	0xbdb926d7	-0.09040611
212	0xbdc4a22e	-0.09601246
213	0xbc0b5624	-0.008504424
214	0xbdf3ffda	-0.11914034
215	0xbdf71b30	-0.120657325
216	0xbd9bc95e	-0.07606767
217	0xbdb59ebe	-0.08868168
218	0xbb7adcbf	-0.0038278548
219	0xbd981016	-0.07424943
220	0xbdb727f5	-0.08943168
221	0xbcdae33a	-0.026719678
222	0xbd5e3b9f	-0.054256078
223	0xbe0e21bb	-0.13880055
224	0xbd29c775	-0.041449983
225	0xbe063ae3	-0.13108401
226	0xbe0070e2	-0.12543061
227	0xbd8bbcbe	-0.06823109
228	0xbdb186e2	-0.08668305
229	0xbe0bee78	-0.13665187
230	0xbdd47079	-0.10373015
231	0x3bade071	0.0053062965
232	0xbde497dc	-0.111617774
233	0xbc9f4144	-0.0194403
234	0xbd151c6a	-0.03640405
235	0xbd850b05	-0.064962424
236	0xbdd8a247	-0.10577827
237	0xbdd70444	-0.104988605
238	0xbd44fca1	-0.04809249
239	0xbdd38e07	-0.10329824
240	0xbced3772	-0.028957102
241	0xbdd0b9f4	-0.10191718
242	0xbe106bdd	-0.14103647
243	0xbe05d59a	-0.13069764
244	0xbd4f4745	-0.050605077
245	0xbdb4a1e7	-0.08819943
246	0xbcc2e155	-0.023789087
247	0xbcae3614	-0.02126602
248	0xbd134629	-0.03595558
249	0x3c0359ef	0.008017047
250	0xbdee4923	-0.116350435
251	0xbcb67f14	-0.022277392
252	0xbe00b4dd	-0.12568994
253	0xbd65da12	-0.05611617
254	0xbd81f0a8	-0.0634473
255	0xbd1fa699	-0.03897724

fc1.bias f4 [64]
0	0xbc7573e8	-0.0149812475
1	0xbd355a58	-0.04427561
2	0xbdaab75d	-0.08335755
3	0xbd45dbad	-0.048305202
4	0xbdc8788f	-0.0978862
5	0xbe024d79	-0.12724866
6	0xbde6fc83	-0.112786315
7	0xbe07d48e	-0.13264677
8	0xbdddf451	-0.10837615
9	0x3d938363	0.072027944
10	0x3ab28340	0.0013619438
11	0xbdc12d1a	-0.094324306
12	0x3e3e3b15	0.18577226
13	0xbdccbf02	-0.09997369
14	0xbd621424	-0.05519499
15	0xbd60eb6d	-0.05491202
16	0x38cd2000	9.781122e-05
17	0xbd825034	-0.06362954
18	0xbd4746c6	-0.04865148
19	0xbc5fde89	-0.013663896
20	0xbcf0652e	-0.029345121
21	0xbead5d90	-0.33860445
22	0xbdcdb284	-0.10043815
23	0xbdcf98d3	-0.10136571
24	0xbce9d53f	-0.028544066
25	0xbd9fd22d	-0.0780376
26	0xbcddef5e	-0.027091678
27	0xbd65a0b1	-0.05606145
28	0xbd1cb31a	-0.038256742
29	0xbd1f661a	-0.03891573
30	0xbc5ca101	-0.013466121
31	0xbdb97d8a	-0.09057148
32	0x3e53934a	0.20661655
33	0x3c96ae46	0.018393647
34	0xbcdca8da	-0.026935983
35	0x3e582906	0.21109399
36	0xbd85c8fc	-0.06532475
37	0x3d9641d0	0.073367715
38	0xbdf790b5	-0.120881476
39	0x3b11051f	0.0022128297
40	0x3efa455b	0.4888104
41	0x3dcc17c1	0.09965468
42	0x3e01d4bc	0.12678808
43	0xbd5f229a	-0.054476358
44	0x3c881a5c	0.016614132
45	0xbcbb11da	-0.02283566
46	0xbd11fc51	-0.03564102
47	0xbd8df6c7	-0.06931835
48	0x3c52c3dc	0.012864079
49	0xbcd1f76c	-0.025630675
50	0xbd85698f	-0.06514274
51	0x3dc1eabd	0.09468601
52	0xbdcac3c1	-0.09900618
53	0xbd8cbdb8	-0.068721235
54	0x3e726de8	0.23674738
55	0xbd86ab67	-0.06575661
56	0x3d2f0ad8	0.04273495
57	0xbda3c661	-0.07996822
58	0xbd931004	-0.07180789
59	0xbce28a31	-0.027653785
60	0x3caea6a2	0.021319691
61	0xbc8f8f48	-0.017524377
62	0xbd76ca09	-0.06025127
63	0x3cf1fb5b	0.029538801

fc2.weight f4 [4, 64]
0	0xbd17f81e	-0.037101857
1	0x3d206e75	0.03916784
2	0xbcf0e78e	-0.029407289
3	0x3d863ea4	0.065549165
4	0x3cc284e3	0.023745006
5	0x3d4a0310	0.049319327
6	0xbbf93bcb	-0.007606005
7	0x3d8180cf	0.063233964
8	0xbd1528f2	-0.036416
9	0x3e16cdb0	0.14726901
10	0x3de86cd0	0.11348879
11	0xbd3733e5	-0.044727225
12	0x3e3f0cce	0.18657228
13	0x3d4dc981	0.050240997
14	0x3d7f898c	0.062387034
15	0x3d342a1e	0.04398548
16	0x3dbc2496	0.09186666
17	0x3bf233a0	0.007391408
18	0x3dc0e0eb	0.094179
19	0xbde0ff57	-0.10986202
20	0xbd1f0840	-0.038826227
21	0x3e9876f9	0.2977827
22	0xbceb960c	-0.028758071
23	0x3c7a2ebb	0.0152699305
24	0xbc46df61	-0.012138219
25	0xbd44ff49	-0.04809502
26	0x3c474965	0.012163495
27	0xbcd21080	-0.025642633
28	0x3def4929	0.11683876
29	0xbd11f437	-0.035633292
30	0xbdea5620	-0.11442208
31	0x3d5f508c	0.054520175
32	0x3e3de534	0.18544465
33	0x3dce4da6	0.10073404
34	0x3dab555c	0.083658904
35	0x3e39243a	0.18080226
36	0x3c7c50e1	0.015400142
37	0x3e356701	0.17715074
38	0x3c535615	0.0128989415
39	0xbd4e327a	-0.050341107
40	0x3e5f2837	0.21792684
41	0x3e20c867	0.15701447
42	0x3e2ced36	0.16887364
43	0xbd6d1117	-0.057877626
44	0xbdc0b2aa	-0.094090775
45	0x3d9afe4c	0.075680345
46	0x3dc181ba	0.094485715
47	0x3dc09cc9	0.094049044
48	0xbd0b9645	-0.034078855
49	0xbda7ec92	-0.08199419
50	0xbcc978f8	-0.024593815
51	0x3e3d291f	0.18472718
52	0x3b0baba8	0.0021312032
53	0xbd19ee7f	-0.037580963
54	0x3e574c44	0.21025187
55	0xbcc47384	-0.023980863
56	0xbb3b6b40	-0.0028597862
57	0x3cc8ad48	0.02449669
58	0x3d9ac566	0.07557182
59	0x3df3b2cc	0.11899337
60	0x3e30ea73	0.17276935
61	0xbcf0ad39	-0.029379474
62	0xbd990f55	-0.074736275
63	0x3c64cf52	0.013965445
64	0x3d2d5a7e	0.04232263
65	0x3dbd630e	0.09247409
66	0x3d9b4070	0.0758065
67	0xbcd42d16	-0.025900405
68	0x3d19e803	0.03757478
69	0xbce88989	-0.028385894
70	0xbaade53a	-0.0013267167
71	0x3e38c9ce	0.18045732
72	0x3c2a6749	0.010400602
73	0xbedca92e	-0.43097824
74	0xbaa5f580	-0.0012661666
75	0xbbb16d48	-0.0054146387
76	0xbf0c23e8	-0.5474229
77	0x3d81f75f	0.063460104
78	0xbd5844f8	-0.05280015
79	0x3dc2f48d	0.095193006
80	0xbdfe71ae	-0.124240264
81	0x3cbbe958	0.022938415
82	0xbdb57f8d	-0.08862219
83	0x3e28aa3e	0.16471192
84	0x3c854778	0.01626943
85	0xbd710a29	-0.05884758
86	0x3a8eb9f9	0.0010889164
87	0x3d0628af	0.032753643
88	0x3de273b4	0.11057225
89	0xbc9d8508	-0.019228473
90	0x3cdc02ee	0.026856866
91	0x3d02412a	0.031800427
92	0xbd83c282	-0.06433584
93	0xbd42f59a	-0.047597505
94	0xbd80ad0f	-0.06283008
95	0x3dad146a	0.08451159
96	0xbf0b5172	-0.5442115
97	0xbdf68623	-0.12037303
98	0xbdbe8229	-0.0930217
99	0xbf07d23b	-0.5305516
100	0x3d8973ce	0.06711541
101	0xbf051f50	-0.52000904
102	0x3c963f75	0.018340806
103	0x3c661c32	0.014044808
104	0xbf23b0f3	-0.6394188
105	0xbeebd8cf	-0.4606385
106	0xbefdd65d	-0.4957761
107	0xbc58bdef	-0.013228877
108	0x3e0d9569	0.13826527
109	0xbdccfad0	-0.10008776
110	0xbce7f778	-0.028316244
111	0x3dae70ee	0.085176334
112	0x3dd9f480	0.10642338
113	0x3be0f1f3	0.00686478
114	0xbd08643c	-0.033298716
115	0xbf0abd6f	-0.541953
116	0x3ce5fe62	0.0280754
117	0x3d9cd989	0.07658679
118	0xbf1dfad3	-0.6171085
119	0xbc0c15ae	-0.008550091
120	0xbd88a18c	-0.066714376
121	0x3e1c9033	0.15289383
122	0xbd60d9e8	-0.05489531
123	0xbec452bc	-0.3834437
124	0xbf01dcca	-0.5072752
125	0xbce1b24f	-0.027550844
126	0xbd72c3ac	-0.05926864
127	0x3d5ac2a2	0.053408273
128	0xbc12e1e4	-0.008964989
129	0x3d2b874b	0.041877072
130	0x3af14d7c	0.0018409933
131	0xbd8ced29	-0.06881172
132	0xbe30ad5b	-0.1725363
133	0x3d37f98c	0.04491572
134	0xbd1d21a6	-0.038362168
135	0x3d04c63a	0.032415606
136	0xbe1edfbc	-0.15515035
137	0xbe11eb82	-0.14249995
138	0x3d6d4cf8	0.05793473
139	0xbdba4724	-0.090956
140	0xbe38dd45	-0.18053158
141	0x3c65e779	0.014032238
142	0x3d2cdde4	0.0422038
143	0xbceace14	-0.028662719
144	0x3b8e3720	0.0043400675
145	0xbd122694	-0.035681322
146	0xbe094728	-0.1340605
147	0x3d10f116	0.035386167
148	0xbdfdce8e	-0.12392913
149	0x3edd7a63	0.43257436
150	0xbd906204	-0.07049945
151	0xbe0a4ba0	-0.13505411
152	0xbd6b0c75	-0.057384927
153	0x3cecf2bd	0.02892434
154	0x3dab478c	0.08363256
155	0xbe31a071	-0.1734636
156	0x3ce0674b	0.027393004
157	0x3dda9a6e	0.106739864
158	0xbd860739	-0.06544346
159	0xbd804146	-0.0626245
160	0xbe37c633	-0.17946701
161	0xbd502ffb	-0.050827008
162	0x3c96dd33	0.018416023
163	0xbe332e07	-0.17498027
164	0x3d5abc38	0.053402156
165	0xbe2f924d	-0.17145653
166	0xbb8e467f	-0.0043419
167	0xbcf6250f	-0.030046968
168	0xbe57f774	-0.2109049
169	0xbe1b395b	-0.15158598
170	0xbe276387	-0.1634656
171	0x3ce1f8a3	0.02758438
172	0x3d4ba671	0.049719278
173	0x3de894d8	0.11356515
174	0x3dc4f5fe	0.09617232
175	0x3d885fa2	0.066588655
176	0x3de43f3c	0.111448735
177	0xbd8b234c	-0.06793842
178	0x3da8d0c8	0.08242947
179	0xbe3701e6	-0.17871818
180	0xbe5231b1	-0.20526768
181	0x3d94692b	0.07246622
182	0xbe503e14	-0.20336181
183	0x3d2c94e9	0.0421342
184	0x3deb1180	0.11477947
185	0x3d880d24	0.066431314
186	0xbd7f2c68	-0.06229821
187	0xbe08620f	-0.13318656
188	0xbe2b3c63	-0.16722254
189	0xbdb51f0c	-0.08843812
190	0xbd005948	-0.031335145
191	0xbdc1dd4a	-0.09466036
192	0x3d473284	0.04863216
193	0xbce4ef1f	-0.027946053
194	0xbce6fe31	-0.02819738
195	0x3d88017d	0.06640909
196	0x3d5049ce	0.050851636
197	0xbafdf974	-0.0019376711
198	0x3d0de098	0.034638017
199	0xbc7ec131	-0.01554899
200	0x3d9c5fe2	0.07635476
201	0x3ed9bca6	0.4252674
202	0x3ddc0234	0.10742608
203	0x3e0d3ac4	0.13791949
204	0x3f0a08bd	0.53919584
205	0xbd24ab22	-0.040202267
206	0x3a90f080	0.0011058003
207	0x3e0f644b	0.14003102
208	0xbdbfd494	-0.09366718
209	0xbc341410	-0.010991111
210	0x3df49c68	0.119438946
211	0x3d11a9d0	0.035562336
212	0x3df4dd8a	0.11956318
213	0xbe408247	-0.18799697
214	0xbd4babea	-0.049724497
215	0xbc81fa62	-0.015866462
216	0x3d9d9eaa	0.076962784
217	0x3d627781	0.05528975
218	0x3c83a535	0.016069988
219	0x3e19fc2b	0.150376
220	0x3af32b2f	0.0018552298
221	0xbdc1712d	-0.09445415
222	0x3bf6301f	0.0075130607
223	0x3e188d21	0.14897586
224	0x3f0933ce	0.5359467
225	0x3e4f1ff7	0.20227037
226	0x3b0e4b6a	0.002171243
227	0x3f05c143	0.5224802
228	0xbd6a2e22	-0.057172902
229	0x3f031141	0.511982
230	0x3d193a2c	0.037408993
231	0xbd05c0c4	-0.03265454
232	0x3f214179	0.6299053
233	0x3ee82ef8	0.45348334
234	0x3ef9dc98	0.48801112
235	0xbde4988a	-0.11161907
236	0x3dd9114e	0.10599004
237	0xbd92a518	-0.071603954
238	0xbd28c930	-0.041207492
239	0x3d5d0f42	0.05396963
240	0x3d6e38ac	0.058159515
241	0x3d15f7dd	0.036613334
242	0x3bb63540	0.005560547
243	0x3f08a905	0.53382903
244	0x3d56834d	0.052371312
245	0x3d4c5412	0.049884863
246	0x3f1ba866	0.6080383
247	0xbdba6812	-0.09101881
248	0xbdb9d74c	-0.09074268
249	0x3d42fb7b	0.04760311
250	0xbd3503cc	-0.044193074
251	0x3eab3906	0.33441943
252	0x3effadfa	0.4993742
253	0x3e30206f	0.17199872
254	0x3d997f71	0.07495011
255	0x3caa2365	0.02076883

fc2.bias f4 [4]
0	0x3e359a8d	0.17734738
1	0xbf05230b	-0.52006596
2	0xbe2f776f	-0.17135404
3	0x3f033057	0.51245636
