src/flatland/flat_game/results/ourmethod_noreg0/rep_learner.pth (torch_old, 312928 bytes, 33 tensors)

representations f4 [6]
00000000: 1a73 c0be c4b1 52bf 480f cd3e 65bc 543f
00000010: 2417 96be 4645 743e
-0.37587816 -0.823025 0.4005072 0.8309997 -0.2931453 0.2385455

representations f4 [6]
00000000: 48fd 00bf e45f 563f c0b3 933c c18f 69bf
00000010: 01df dc3c fb23 0abf
-0.50386477 0.8374007 0.018030047 -0.91234976 0.026961805 -0.5396115

representations f4 [6]
00000000: 8aae 393f 1540 fc3d ef14 843e 930a 153f
00000010: 33a0 843f 5186 d43e
0.7253195 0.1231691 0.2579722 0.5821926 1.0361389 0.41508725

representations f4 [6]
00000000: 1221 05be 908c 7bbe 3c7d 3abf 9461 d4be
00000010: 6621 68bf 5fe5 6c3e
-0.13000897 -0.24565339 -0.7284734 -0.41480696 -0.9067596 0.23134373

fc1.weight f4 [64, 4]
00000000: 8439 4f3d 17e8 32bf 68b2 813f 3983 9a3f
00000010: d9c3 0d3e 1c48 d93e 3a0f 943f 6a6a be3e
00000020: ad53 3cbf 1028 dfbc 75b2 b83f 7295 e03f
00000030: 147c 0cbf 5843 05c0 9ead 933f 3cd7 a93e
00000040: 70bd 8b3e e0c1 bfbc ee23 263d ed09 c23e
00000050: a9e4 bebf b1cb 3d3f e48c 8cbd fd75 efbe
00000060: a2ce 7b3f 883d 86be 4bd7 22c0 7f0c 653f
00000070: bc79 5bbf 2ec8 643e f9ee a13f c294 22c0
00000080: 7215 5a3f 070c bb3f 2b02 04c0 242c b83e
00000090: 1031 1bc0 37f1 dbbd 83cc 80bf 5d86 633f
000000a0: ed9f a2bf acab 233e c59a 32c0 d1ad 2cbe
000000b0: 0874 b33f b22e 2cbf cae0 853f fb97 8ebd
000000c0: 8b8f e0be 2e4d 26bf 493a 00c0 f43f b03f
000000d0: 6c90 07c0 e3b3 f23e 6427 3b3f fdab a2bf
000000e0: d44e b93d c921 89bd f071 793e d216 dabc
000000f0: 56d2 34bf cff6 24c0 8790 1abf 9884 96bf
00000100: 73ce 2a40 6dd4 a23f 3101 b0bd 1433 323e
00000110: 96ac 8cbf 8770 0abe 29f2 adbf 8f53 03c0
00000120: 27a1 0f40 8dcd 0240 c434 8cbe ed70 f7bf
00000130: 78d8 44be e0d3 8cbd e82d ccbd acd4 a4be
00000140: 5200 df3f 4eed 423f 0ce1 9c3e 4c6e ad3f
00000150: abe2 0fc0 d6da 7a3f d8f6 843e f836 4c3e
00000160: 67a1 d43e 1ed3 0040 1810 443e 04b8 f3bf
00000170: 3a67 543d 98d0 983e 4f77 1a3f 52da e8be
00000180: 76e8 cebf 7f7a f43d 95d6 a63f a249 183f
00000190: 0449 6abf 38b2 50bf 8b1d 413f 6b1f 4dbe
000001a0: 1f0b a43f a658 65bf 6a12 aebf 02ac a23f
000001b0: 64a1 22bf b6dc ddbf 0c40 d0be 5c4e 83bf
000001c0: 0224 753e e4c3 a83f 9256 d4bf cbed 3140
000001d0: 68aa d93f 1221 9d3e 258d 913f 03cf ddbf
000001e0: 9126 d2be 0a7f 773e bdab 3a3e bcf1 0b3e
000001f0: 8e1e bb3f 2e3f 1ebf 06f0 acbf 8261 3abc
00000200: aaf1 44bf 6555 6bbf 9fa9 593f 6bd4 2b3f
00000210: 0e69 64be 9be7 9e3f 09e7 593f 073c c5bd
00000220: 7dfd f53e 69ee 19be 589d d1bd 9ec8 9dbe
00000230: 4ec0 433f 0cdc c7bf 7e1a 8cbf 3e82 0040
00000240: 86ee c33e 5391 d0bf ebad 4c3f 3cfb d1bf
00000250: 0c1b 7cbe a204 63bd 5d6d 983e dbd8 d73c
00000260: 69f0 173f 9dc4 e93e cf68 4d3f ec31 ac3f
00000270: 4f3b 94be ee91 623d 7055 913e 4456 5abd
00000280: 4af5 e0bf bc40 5c40 e757 d2bf 6fda 20bf
00000290: 0411 2abf a6bc 02c0 7ab9 fdbe 5932 92bf
000002a0: 3097 91be b0ed 7c3d 6ad2 913e 0021 6cbc
000002b0: 6c37 063c 7a82 343e e57c be3e 72cb c6be
000002c0: a012 f43f f3c3 1540 4811 82bd 9bfb 2cbf
000002d0: 0a5a a63f 6fc2 2c3f ecf2 bf3f 910c 393f
000002e0: c3d3 c03d 51b6 8a3e be93 7bbe cdd5 bbbf
000002f0: 089d 6abe bcc8 3e3e f0be 88be 50a3 4dbe
00000300: af73 bd3e ab19 71bf 7c89 8abd 430e 6f40
00000310: 0f9a 813f 2dd2 0cbf 80cb 82bf 9d9d 4b3f
00000320: 0375 e03e 6ea4 a33e a65b 903e 915b 6e3f
00000330: b5af 153f 831d 6abf 43d6 7a3f 7472 833d
00000340: 2032 64be 4954 8f3f 6f5d 9c3f ad4e 963f
00000350: 7f85 82be c53e 07bf fbc7 143f 4d77 873f
00000360: e773 343e b361 cbbf bd03 fd3f 3d2d 3e40
00000370: 6b42 0040 517e df3f 466a 843f f26b c8bd
00000380: 2ea2 f4be a08d fa3e 094e aabd 4ff9 7abf
00000390: aad3 4b3f c9d2 cdbf a0f5 f3be 19ac 843e
000003a0: 6dd2 d1bf 9ef8 24bf 36c7 723f f012 b1be
000003b0: d27b aabd 6174 91be 805d af3f 655b 923f
000003c0: 20d3 383f f84a 3640 8d30 a93f 617e 3bbe
000003d0: 2309 14c0 e511 0440 2db1 343f 5d15 a2bf
000003e0: 09c8 18c0 ad36 0e40 59da a8bf e2c1 363f
000003f0: 35ad 983f d64a bdbf 047a b7bf b778 88bf
0.05059196 -0.6988539 1.013257 1.2071296 0.13844241 0.42437828 1.1567147 0.37190562
-0.7356518 -0.027240783 1.4429461 1.7545607 -0.5487683 -2.0822353 1.1537359 0.33172023
0.27292967 -0.023407876 0.04056161 0.37898198 -1.4913532 0.74138933 -0.0686281 -0.46769705
0.9836217 -0.2621882 -2.5443904 0.8947219 -0.85732627 0.22341987 1.2651054 -2.5403295
0.8518897 1.4613045 -2.0626323 0.35971177 -2.4248695 -0.107393675 -1.0062412 0.888769
-1.2705055 0.15983456 -2.7906964 -0.1686318 1.4019785 -0.6725875 1.0459225 -0.06962582
-0.43859515 -0.64961517 -2.0035574 1.3769517 -2.1181898 0.47402868 0.7310698 -1.2708737
0.090482384 -0.06695897 0.2435987 -0.02662221 -0.7063345 -2.577564 -0.6037678 -1.1759214
2.6688507 1.2721077 -0.08593977 0.17402297 -1.0990169 -0.13519488 -1.3589526 -2.051975
2.244211 2.0437958 -0.27384007 -1.9331337 -0.19223201 -0.068763494 -0.099696934 -0.32193506
1.7421973 0.7614335 0.30640447 1.3549285 -2.2482097 0.9799017 0.25969577 0.19942844
0.4152939 2.0128856 0.19146764 -1.9040532 0.051856257 0.29846644 0.603383 -0.45479065
-1.6164691 0.11937427 1.3034235 0.59487355 -0.91517663 -0.8152194 0.75435704 -0.20031516
1.2815894 -0.8958839 -1.359937 1.2708743 -0.6352751 -1.7332981 -0.40673864 -1.0258288
0.23939517 1.3184781 -1.6588919 2.7801387 1.7005129 0.30689293 1.1371199 -1.73288
-0.4104505 0.24169555 0.18229575 0.13666433 1.46187 -0.61815155 -1.3510749 -0.011375787
-0.7693125 -0.91927177 0.85024446 0.67121 -0.223057 1.241443 0.85118157 -0.0963059
0.4804496 -0.15032353 -0.10235089 -0.3081712 0.7646531 -1.5614028 -1.0945585 2.0079494
0.38267916 -1.629435 0.7995288 -1.6404796 -0.24619693 -0.05542434 0.29770938 0.026348522
0.5935121 0.45657817 0.8023805 1.3452735 -0.289515 0.05531495 0.28385496 -0.053304926
-1.7574856 3.441451 -1.6433076 -0.62833303 -0.66432214 -2.0427642 -0.4955557 -1.1421615
-0.2843566 0.061750114 0.28480846 -0.014412165 0.008191925 0.17627898 0.37204662 -0.3882709
1.9068184 2.3400848 -0.063509524 -0.6757142 1.2996228 0.6748418 1.4996009 0.722848
0.0941539 0.2709222 -0.24568078 -1.4674622 -0.22911465 0.18631262 -0.26708174 -0.2008183
0.37002322 -0.9417979 -0.06764504 3.7352455 1.012514 -0.550082 -1.0218353 0.79537374
0.43839273 0.31961387 0.28194922 0.9310847 0.5847123 -0.9145128 0.9798319 0.064183146
-0.22284746 1.1197597 1.2216014 1.174276 -0.25492474 -0.52830154 0.58117646 1.0583283
0.17622338 -1.588919 1.9766766 2.9715111 2.0040538 1.7460424 1.0344932 -0.09786214
-0.47779983 0.48936176 -0.08315665 -0.98036665 0.7961985 -1.6079952 -0.47648335 0.2591255
-1.6392342 -0.6444186 0.9483522 -0.3458476 -0.08324398 -0.28409103 1.3700409 1.1434141
0.7219715 2.8483257 1.3217942 -0.18309928 -2.3130577 2.0635922 0.7058285 -1.266277
-2.3872092 2.2220871 -1.3191634 0.7138959 1.1927859 -1.4788463 -1.4334111 -1.0661839

fc1.bias f4 [64]
00000000: 0325 bc3e 0023 383e eecc 893f c5a2 f33e
00000010: 9130 5e3e 819b edbc dc86 80be d0ef 343f
00000020: 22b1 b93d a80f 49be e249 b13d 467e 5e3f
00000030: 31f4 783e 310e dc3e c364 ee3d ebb5 8f3e
00000040: 7aa5 403d db42 0c3f b3ba 20bf 00f8 fabe
00000050: dcaa ff3e 1b70 f6be cdfb b13d 8b7a 7d3e
00000060: d903 f53e 04ef 973e 7c39 8e3e 64f7 9d3e
00000070: 7222 95bd e6fa 283f 11aa 2b3e b1e0 0a3f
00000080: e689 383f ffc4 c63e 77ce 763e 5080 99bd
00000090: 8b30 0b3f a48b 01bf 03b8 de3e 735b 613e
000000a0: a9f8 12bf 76e7 913e 8c56 d8be 15c1 0f3e
000000b0: 4d30 7e3e ef5f 3e3f 291a c93e 400c edbe
000000c0: 44c4 813e 6ec5 903e 4ee3 f53e 7eb4 2e3f
000000d0: 20bd 1c3f 3db3 af3e 3482 4a3f f6be 553e
000000e0: 1938 9f3e c8a8 c73d 907f 0b3f 8f14 b63e
000000f0: 2496 cabd abb3 183f 65d5 8ebe 9148 3bbb
0.36746988 0.17982101 1.0765665 0.4758512 0.21698214 -0.029004814 -0.2510289 0.70678425
0.090669885 -0.19634879 0.0865667 0.8691143 0.24311902 0.42979577 0.116403125 0.2806848
0.04703281 0.54789513 -0.6278488 -0.49017334 0.49935043 -0.48132405 0.08690605 0.24753778
0.47854498 0.29674542 0.27778232 0.30852807 -0.072819605 0.6600784 0.16764094 0.542491
0.72085416 0.3882217 0.24102198 -0.07495177 0.54370946 -0.506037 0.43499765 0.22007541
-0.57410675 0.28496903 -0.4225353 0.14038499 0.24823113 0.74365133 0.3927777 -0.46298409
0.2534505 0.28275627 0.48024982 0.6824416 0.6122608 0.34316435 0.79104924 0.20873627
0.31097487 0.09748989 0.5449152 0.3556256 -0.09891918 0.5964915 -0.27897182 -0.0028577188

fc2.weight f4 [180, 64]
00000000: c65f e43e 5adc 713e b67d b83d 1d74 9d3e
00000010: 56d3 b63e e08e 4b3e 72c9 d03e 1662 593e
00000020: eee5 cf3e 0d5b 113f 2f20 f43e 032f 7b3e
00000030: f355 013f 4610 323e 3dec 793e 7880 05be
00000040: 1a75 843d afcc 573e 3720 e83e e846 72bd
00000050: 7d81 983e d9ca 1a3e b12b b53e d8e3 3f3e
00000060: 8661 ab3e 5f76 873e e386 0d3e 4937 8e3e
00000070: b519 b13d 5d29 a63e 2363 9a3e ba63 ef3e
00000080: 3e6a b03d 06f6 9c3e 9917 ec3e ef64 fd3d
00000090: 3bab 663e 39de ea3d 500b f13e 4a41 b43e
000000a0: c2eb f73e 2b05 a73e 4c2f c3bd 1f6e 803e
000000b0: 396d 2ebd 984d 663e 4d96 1b3e 204b 943d
000000c0: 04bb 143e 7705 4b3e bb3c ad3e b87d bd3e
000000d0: 4fcf 003e 4f5c 7a3e 50b9 36be 9f72 f33e
000000e0: ab76 923e 2bf7 0d3f 32ba b23e 0fbc 963e
000000f0: 173a 6bbb 68f2 fd3d 3092 973e 2e2d 9c3e
00000100: bc00 0d3f 9624 523f 9bae 543f 2174 963f
00000110: 3fed 253e bdb1 963e ac33 8d3f 251e a03f
00000120: 6fb5 0040 170f e13e a83e e4bc 48b1 a53f
00000130: 24b5 82bf c8fb a13e 9407 2e3f 93c1 843f
00000140: 658e c8be 09bc f83e 2e3b 12c0 204b 30bc
00000150: 5f4d b53f 3768 3f3f 9f92 663e 9d6a 353f
00000160: 279f 2b3f 59e1 643f 177a 823e b4c5 813f
00000170: b890 aa3f 7321 793e 66e1 fb3e 4789 933c
00000180: 91aa 0b3f 201b 223f 93bc a43d ed45 bbbd
00000190: d19d ee3f 86b8 b1bd 232b 143d 86f5 273f
000001a0: a644 83bf ea27 873f 70e0 883d f9d8 fd3e
000001b0: 228d 93bf f32a 063f dfbd 513e 504d 263d
000001c0: 2942 5bbf 4c58 d33e a42e 203e 02e2 543f
000001d0: 6fc2 3c3f 49a2 833e 8d87 183f 7ae5 3bbd
000001e0: a012 943e e436 e03c 7db7 0c3f d168 e23e
000001f0: c283 40be 3373 00bd bf18 c1be 16ec a73e
00000200: 1c59 f23e 4ca3 293f 6782 2c3f 5038 ee3e
00000210: 6d9f c53d 67c1 d13e ce0c 393e eb3c d03e
00000220: 2bf5 a9bf fcb2 8e3e be3e c93e 0a6b ab3d
00000230: 79a4 f4be 3750 913f 122b 9b3e e6c1 4b3f
00000240: 8892 703d 99c1 af3e 60b4 783f 9c04 8d3d
00000250: 3960 1b3f fed7 033f e628 40bf be66 083d
00000260: d7c6 973f ed7c 3a3f 56f8 f13e 99cb 6d3f
00000270: 24eb a5bf cc63 b0bc b988 9e3e 4cb0 1f3f
00000280: cb23 c63e 4497 c1bc a9be bbbc 4b51 73bd
00000290: 695c 573f 0431 26bd 3000 ec3e c669 fe3e
000002a0: 2b6b c4bf 936d 4d3f fc6e 63bd 9d37 473e
000002b0: 3e3d af3e 0910 1f3f bbbc 1f3e 2200 943d
000002c0: bb26 bd3d 8e92 ab3e f4d8 e43c ff11 213e
000002d0: 2464 a53d 6337 033f 2e9c 953e 5e47 49be
000002e0: 82f4 da3e 42c9 5ebe 41c7 843f 9d3c 353f
000002f0: 5d87 8dbe 91bd 663f 9068 ae3e d05f 01bf
00000300: 11ca f2bd 7c2d 43bc cbb3 323f 4d74 51bd
00000310: a7f1 683e ae22 da3e 48c9 ddbf fd8f 73bf
00000320: 41a9 6abe 65a5 f63a 2bee 443f e7da 1b3e
00000330: 8a08 d13f 3c72 333e e377 32bd 5144 a33f
00000340: 3b8e b83f 1219 e33e 5852 2b3e c04f 743b
00000350: ce28 8b3f 448f 043e 5043 cc3e 40b9 493e
00000360: 9947 663f 6ffa 8f3e 7119 0fbf 8637 ef3e
00000370: b8c8 e03f 5814 8c3e ca06 093e 14e9 a4bf
00000380: 5126 023e d1de 803e f314 563e a463 33bf
00000390: e751 a63f 0a2b 99bd 3a00 903e c1ea 483e
000003a0: 772c 6a3f f9e3 4e3f f87c 4e3d 72aa 81bd
000003b0: 688d 533f a4ed 933e cf0f 603c 64bb 80bd
000003c0: 04c0 ae3d d945 67bf 17b3 e93e 362a 433d
000003d0: 517f 013f b445 cb3b 0868 f4be 4195 a73f
000003e0: bde2 473e e990 883e a1c1 0e3f 6bb8 ee3d
000003f0: 24b9 5e3f f236 993e 5997 2e3f 73ed 7a3f
0.4460432 0.23619214 0.090083525 0.3075265 0.35708112 0.19878721 0.4077869 0.21228823
0.4060511 0.5677956 0.47680804 0.24529652 0.50521773 0.1738902 0.24406524 -0.13037288
0.06467648 0.21074174 0.45337078 -0.059149653 0.29786292 0.15116443 0.35384896 0.18739259
0.33472842 0.26457497 0.13820986 0.27776554 0.08647481 0.32453433 0.3015376 0.46755773
0.08614014 0.3065645 0.46111754 0.12372767 0.22526257 0.11468167 0.47078943 0.35206062
0.48422056 0.3262113 -0.095305055 0.25084016 -0.04258463 0.22490537 0.15194054 0.072408915
0.14524466 0.19826303 0.33835396 0.37009978 0.12579082 0.24449275 -0.17844129 0.47548386
0.2860616 0.55455273 0.3490768 0.29440352 -0.0035892779 0.12399751 0.2960372 0.3050322
0.55079246 0.82087076 0.83078927 1.175419 0.16203783 0.2943248 1.1031394 1.2509199
2.0110738 0.43956825 -0.027861908 1.2944727 -1.021153 0.31637406 0.67980313 1.0371574
-0.39171138 0.4858096 -2.284862 -0.010760099 1.4164237 0.74768394 0.22516869 0.70865804
0.6703972 0.89406353 0.25483772 1.0138459 1.3325415 0.24329166 0.49195403 0.018009795
0.5455714 0.6332264 0.0804378 -0.09144197 1.8641912 -0.08677773 0.03617395 0.65609014
-1.0255325 1.0559056 0.06683433 0.495796 -1.1527445 0.52409285 0.20482586 0.040601075
-0.8564783 0.41278303 0.15642792 0.8315736 0.7373418 0.2570975 0.59581834 -0.045873143
0.2892046 0.027369924 0.5496748 0.44220594 -0.18800262 -0.031359863 -0.37714192 0.32797307
0.4733361 0.66264796 0.6738648 0.46527338 0.09649549 0.40967867 0.18071291 0.40671477
-1.3277944 0.2787093 0.3930568 0.083700255 -0.47781733 1.1352605 0.30306298 0.7959274
0.058733493 0.3432739 0.9715023 0.06885645 0.606937 0.5150145 -0.75062406 0.033301108
1.1857556 0.7284687 0.47259778 0.9288879 -1.2962384 -0.021531962 0.30963686 0.6237838
0.38699183 -0.0236317 -0.022918062 -0.0594037 0.8412538 -0.04057409 0.46093893 0.49690074
-1.5345205 0.8024532 -0.055525765 0.19454809 0.34226412 0.6213384 0.15599339 0.07226588
0.09235903 0.3351025 0.027935483 0.15729521 0.08075741 0.5125639 0.29220718 -0.1965613
0.4276467 -0.21756461 1.0373307 0.70795614 -0.27642336 0.90133005 0.3406415 -0.50536823
-0.11854947 -0.0119127 0.6980559 -0.051136304 0.22748433 0.42604584 -1.7327051 -0.95141584
-0.22916128 0.0018817602 0.76925915 0.15220223 1.6330731 0.17524046 -0.043571364 1.2755224
1.4418405 0.44355065 0.1673063 0.003727898 1.0871828 0.12945276 0.39895105 0.19699574
0.89953 0.28120753 -0.55898196 0.4672205 1.7561255 0.2735927 0.13381496 -1.288363
0.12709929 0.25169995 0.20906429 -0.70073915 1.2993745 -0.07478912 0.28125173 0.19620802
0.914741 0.8081661 0.05041215 -0.06331338 0.82637644 0.28892243 0.013675644 -0.06285742
0.08532718 -0.90340954 0.45644447 0.047647677 0.50584894 0.0062033776 -0.4773562 1.3092424
0.19520088 0.26673058 0.55764204 0.11656269 0.8700125 0.29924732 0.6819969 0.9801857

fc2.bias f4 [180]
00000000: c1ac d83e f5e7 c33e 44a4 9e3e b4c0 223e
00000010: fc72 ce3d 8121 b53e 2d1e 853e 2e48 49be
00000020: 3e72 b2bd dd8d 2bbd 23a2 8e3e 1f34 003e
00000030: 975c f3bb 0559 14bd bdaf 84bd 859d 47bd
00000040: 56f8 b63c 2e2b 913d 5121 543d 928d 98bd
00000050: ea61 29be c7ad 3fbd 8426 883b 6926 8a3c
00000060: db59 4c3e bd90 1ebe 73b5 1ebc b6d5 e3bd
00000070: 433d 03be 4af8 c43e cb76 243d 967a 0f3d
00000080: 9a09 05be 1098 283d 0cfe 0e3e f40c 8b3d
00000090: 4781 ab3e 28ad 713e e4d5 e33c 2369 1d3c
000000a0: 0dcd 06be c6b3 07be 8bbe b83e ccb0 cbbd
000000b0: 8cbc e2bd 0f4c f0bc 56bf 41be 0107 2b3e
000000c0: 868b 1d3c 266f 39bc 2f69 23be a58b 06be
000000d0: e483 3ebb 0d50 18be 0fa8 903e 11d0 3dbe
000000e0: b901 823c ff96 2cbe 681e a53c a19b 3bbd
000000f0: b38d 9f3e 62a4 babd c049 c0bd 5876 41be
00000100: d449 e7bd 63a6 153d 0d72 033f b17f 233e
00000110: 7a13 4f3e a6af ac3e 90b1 aabe 1e2e a93e
00000120: 1263 923e 73ef b93e bc1a ba3e a224 673e
00000130: af53 d53e c963 0d3f 1f5b 4d3e 1903 7dbd
00000140: 3a4e fdbd 47e8 523c 57fa 303e 187d 993e
00000150: 7ac2 223d 59eb f4bd 175b d7bd a049 0dbe
00000160: f573 b13c 8416 8b3e c9b0 053e c71b 2dbe
00000170: 36d9 d2bc 9e7a 0bbd 693c 84ba dd6a cb3c
00000180: d428 9ebe 0dab 88be eaad 04bd e326 54be
00000190: b051 b0bd bba6 6a3e 1723 7d3e e84b 113e
000001a0: 5527 493e a075 fb3d 871a 143e 935c c93e
000001b0: abe9 06be 79eb ab3e 1b23 6c3e e992 823e
000001c0: 564f 60be d923 9c3e 3dc5 36be 87b9 28be
000001d0: 04f5 8fbd 8eec 5fbc bbda 49be 156b 18be
000001e0: 6754 963b 4646 30be 345d 0ebe fa49 debd
000001f0: 94ac a5bd d5a5 c03d e6e5 34be fdc2 ab3c
00000200: 1adc efbd 8394 0cbe 5b34 37be 613b 653e
00000210: bf33 b4be 9b7a 5bbc 8465 8fbd 0447 c03c
00000220: 5766 353d 2ae8 fc3e 8e27 1dbe 0df1 4f3e
00000230: 09e9 87be 9a64 973d f760 e73d cd57 a1bd
00000240: e2a9 e13e 0df6 153d 5cb8 523e 06c7 c8bd
00000250: 7655 0e3e caf1 f3bd 14b5 b13e 6264 04be
00000260: c677 15be f29d 0f3d 6610 883e 281f 273e
00000270: e02d 413d b441 7c3d 8c2c 5fbd 87ec d6bd
00000280: bd23 75bd 4278 c43c 473d a2bc 3945 23be
00000290: fc29 24bc 889e 01bb ae14 96bc afeb 3d3d
000002a0: a428 12bc 240b c53c 168f 03be 2042 30be
000002b0: 2516 1e3b d11e d0bd 20ca d63e 6056 253e
000002c0: f540 a23e c657 c53e 864d 8c3e 551f fd3e
0.423193 0.38262907 0.309847 0.15893823 0.10080525 0.35377124 0.25999585 -0.1965644
-0.08713196 -0.04188334 0.27858075 0.12519883 -0.007426809 -0.03621771 -0.06478832 -0.048734207
0.022335213 0.07088314 0.051789586 -0.074488774 -0.16541258 -0.046796586 0.004154982 0.016864019
0.19956152 -0.15484901 -0.009686816 -0.111247465 -0.12816338 0.3847068 0.040152352 0.035029016
-0.12991944 0.041160643 0.13964099 0.0678958 0.33497068 0.2360121 0.027811952 0.009607586
-0.13164158 -0.13252172 0.36082873 -0.09945831 -0.11071119 -0.029333143 -0.18920645 0.1670189
0.0096157845 -0.011318004 -0.15958093 -0.13139208 -0.0029070312 -0.14874287 0.2825322 -0.18536402
0.015869962 -0.16854475 0.0201561 -0.045802716 0.31162795 -0.09113385 -0.09389067 -0.18892801
-0.112933785 0.036535632 0.513459 0.15966679 0.20222273 0.3372776 -0.33338594 0.33042997
0.2859121 0.36315498 0.36348522 0.22572568 0.41665408 0.55230385 0.20054291 -0.061770532
-0.12368436 0.012872762 0.17282997 0.2997825 0.03973625 -0.119589515 -0.10515421 -0.13797617
0.021661738 0.27165616 0.1305572 -0.16905127 -0.02573834 -0.034052484 -0.0010088804 0.02483123
-0.30890524 -0.26693 -0.03239242 -0.20717959 -0.08609331 0.22915165 0.24720417 0.14189112
0.1964391 0.122782946 0.14463244 0.3932844 -0.13175075 0.3357809 0.23060267 0.2550271
-0.21905264 0.304961 -0.17848678 -0.16477023 -0.07029155 -0.013667239 -0.19712345 -0.14884599
0.0045876983 -0.17214307 -0.13902742 -0.10853954 -0.08089557 0.0940663 -0.17665824 0.020967001
-0.11711903 -0.13728528 -0.17891066 0.22385933 -0.3519573 -0.013395931 -0.070017844 0.023471363
0.044287052 0.49395877 -0.1534712 0.20306797 -0.2654498 0.07392235 0.112977915 -0.07878075
0.44074923 0.036611605 0.2057814 -0.09803586 0.13899788 -0.11911352 0.34708464 -0.12928918
-0.14596471 0.035062738 0.2657501 0.16320479 0.04716289 0.061586097 -0.054485843 -0.10494333
-0.059848536 0.023983125 -0.01980461 -0.15944375 -0.0100197755 -0.001977833 -0.018320408 0.046367344
-0.008920822 0.024053164 -0.12847552 -0.17212725 0.0024122086 -0.10162128 0.41951084 0.1614623
0.31690183 0.38543528 0.27402896 0.49437967

conv.weight f4 [5, 1, 34, 34]
00000000: ec5f 0bbf c120 14bf 2949 04bf 0f08 11bf
00000010: e51e 15bf 5169 23bf 9b47 07bf 58a8 28bf
00000020: 7958 12bf ae4c c2be a017 73be 02f6 8dbe
00000030: e0e3 bbbe 1afb aebe 447c e2be 48a6 09bf
00000040: 303d dcbe 1122 5abe fcd4 e1be 1e4a fabe
00000050: e5f8 dcbe 0608 bbbe c5b6 c4be f969 07bf
00000060: 690a e9be a245 f0be ceb6 dcbe c6fa d0be
00000070: 6316 f7be b9b1 adbe e97d dabe 8731 afbe
00000080: 3b32 babe 5633 a8be 9769 e3be 47cf 19bf
00000090: 3199 05bf 4539 03bf 0fba 1abf a980 26bf
000000a0: 6b63 28bf a99b 2dbf 72d0 19bf 77f3 01bf
000000b0: 0b19 cabe 3197 b3be c010 c2be 3437 d9be
000000c0: abea 02bf 9f18 4dbe 38bf 8ebe 13dd 63be
000000d0: 09c3 08bf ed15 12bf 88e3 ddbe 4a45 d2be
000000e0: 53b1 e7be c34c b6be ae82 bbbe cc7c 15bf
000000f0: c1b1 06bf 21a1 e9be def9 b5be 2106 9ebe
00000100: 753a e2be 55e1 b8be db01 c4be 6604 c1be
00000110: 7900 f2be aef9 d4be c984 14bf 93b7 13bf
00000120: ddfe 57bf 4f0c 2bbf 336a 2dbf a063 53bf
00000130: f129 1fbf b0cb 17bf 2cc7 03bf 8528 1cbf
00000140: 6882 d6be 0022 d8be bb01 a9be 9f9c b0be
00000150: 4b29 77be 7d02 b9be edb4 28bf bd49 4ebf
00000160: b6ff 0fbf a7e1 f9be b974 c2be e736 c7be
00000170: aca1 d6be f2e5 e0be 03b9 dfbe 9a98 b9be
00000180: 30cf cabe 0acc bdbe f0f3 fbbe b849 febe
00000190: 7f48 f0be 248d fdbe 4fee 0ebf 536a 06bf
000001a0: 7eec 12bf 7de8 1fbf 66a7 1dbf e75e 1abf
000001b0: 584e 2dbf a8d8 34bf d72f 18bf e7f7 0ebf
000001c0: 06c4 edbe 2f9b 8bbe 0ef1 febe 551a 2bbf
000001d0: 71ba 10bf 4332 e9be fe31 aebe 7030 4dbf
000001e0: 508f 20bf 6ce1 1bbf f040 21bf 840a 0bbf
000001f0: 2697 d8be bda0 a0be 9a72 09bf 2a3f e9be
00000200: a59b e7be f98f d4be 0173 b6be b057 9bbe
00000210: 258d d7be 4652 07bf 8c7f e6be bc21 02bf
00000220: 783f f4be 3efe 0abf 52f2 12bf e721 17bf
00000230: c686 0fbf 62ea 0abf 97a0 17bf fe1f 18bf
00000240: 7c7a 23bf cfe5 eebe 97fc 5ebe fae9 04be
00000250: a8ec 09bf 12e3 febe 2012 08bf 3257 95be
00000260: b5ea 90be 825a 04bf fbf9 03bf 45a1 27bf
00000270: d352 2dbf c5a8 cfbe 367f 52be 859c 8fbe
00000280: 9f52 0ebf d0f2 f0be c89a febe fa76 fbbe
00000290: db30 bdbe 8e77 d7be ca44 e4be 8234 04bf
000002a0: 2095 f9be 3284 00bf d4a9 09bf 194d 0dbf
000002b0: a221 23bf 09c5 2fbf cccc 13bf 7bb6 febe
000002c0: 776c 00bf 3ddc 0abf 2b3d 10bf 2bac 0cbf
000002d0: cdff 94be 132a 87be 32b2 99be 0688 b4be
000002e0: 4bc7 f6be 93da d2be 81d3 a1be b6a8 09bf
000002f0: 61d8 e5be 99dc 07bf dc25 10bf 47ad efbe
00000300: 7c84 b8be b80b 01bf a3d4 0cbf 8212 01bf
00000310: 7e8c 06bf ac08 e4be b9b7 02bf 19b5 06bf
00000320: 4fba 0bbf 4565 25bf bc4d e6be c39a edbe
00000330: c6a9 cabe a02a c6be 5f54 12bf 45c5 27bf
00000340: 770a fabe 41cd f8be 7a93 06bf bcf7 0bbf
00000350: ed6f febe ffc6 05bf 75bd 8ebe 9e11 d7be
00000360: bbb0 fcbe f293 c3be a858 99be 2d8c f8be
00000370: 3d61 b1be 7edd b6be ef1b 03bf 3974 36bf
00000380: b5d5 2cbf 8f8c 18bf 30f1 7ebe 92d2 cfbe
00000390: 311e 33bf 51c2 43bf 5923 3bbf e1c9 36bf
000003a0: 1d06 42bf 86ab 16bf 1ef0 0abf f94f 14bf
000003b0: 02ad 0abf 0397 13bf e9e1 eebe f627 eabe
000003c0: 08b4 0dbf 5bab 0ebf 7b28 bfbe 9dca 28bf
000003d0: 46ac 29bf a0bf 0ebf 19f4 08bf 1bb2 fabe
000003e0: 91d7 03be 4138 00bf a2e4 a3be 526b f2be
000003f0: b957 02bf 4ae7 5abe 5e8c abbe dc66 3bbe
-0.5444324 -0.5786248 -0.51674134 -0.5665292 -0.58250266 -0.63832575 -0.52843636 -0.6588187
-0.5716625 -0.37949127 -0.23739481 -0.27726752 -0.36697292 -0.3417595 -0.44235432 -0.5376935
-0.43015432 -0.21302058 -0.44107807 -0.48884672 -0.4315864 -0.3652956 -0.38420692 -0.52896076
-0.45515755 -0.46928126 -0.4310822 -0.40816325 -0.48259267 -0.33924654 -0.42674187 -0.34217474
-0.36366448 -0.32851666 -0.44416496 -0.60081905 -0.52186877 -0.5125926 -0.6044015 -0.6504007
-0.657767 -0.67815644 -0.6008369 -0.5076212 -0.3947223 -0.35076287 -0.37903404 -0.4242493
-0.51139325 -0.20028923 -0.27880263 -0.22252302 -0.534226 -0.57064706 -0.43337655 -0.41068488
-0.45252475 -0.3560544 -0.36623138 -0.5839355 -0.5261498 -0.45630744 -0.35542196 -0.3086405
-0.44185224 -0.36109415 -0.38282666 -0.37698668 -0.47265986 -0.4159674 -0.58015114 -0.5770199
-0.84373266 -0.66815656 -0.6774017 -0.8257389 -0.6217337 -0.5929518 -0.5147579 -0.6099933
-0.41896367 -0.4221344 -0.33009133 -0.34494492 -0.24136846 -0.3613471 -0.6590107 -0.80581266
-0.5624956 -0.48804972 -0.37979677 -0.38909075 -0.4192022 -0.43925434 -0.4369584 -0.36249238
-0.39611197 -0.37069732 -0.49209547 -0.49665618 -0.4693031 -0.49521744 -0.5583238 -0.5250599
-0.5739211 -0.62464124 -0.61583555 -0.6030106 -0.6769767 -0.7064309 -0.59448 -0.5584702
-0.46438617 -0.27266833 -0.49793285 -0.66837054 -0.56534487 -0.4554616 -0.34022516 -0.80152035
-0.6271868 -0.6089084 -0.6298971 -0.5431292 -0.42302817 -0.31372634 -0.53690493 -0.45556003
-0.45235935 -0.41516092 -0.35634616 -0.30340338 -0.42099872 -0.52859914 -0.45019186 -0.50832725
-0.47704673 -0.5429419 -0.57401 -0.59036106 -0.5606502 -0.5426389 -0.59229416 -0.59423816
-0.6385877 -0.46659705 -0.21776043 -0.1297988 -0.53876734 -0.49782616 -0.53152657 -0.29168087
-0.28304067 -0.51700604 -0.51553315 -0.6548045 -0.67704505 -0.40558448 -0.2055634 -0.28049102
-0.5559482 -0.4706025 -0.49727464 -0.4911421 -0.36951336 -0.420834 -0.44583732 -0.5164262
-0.48746586 -0.50201714 -0.5377476 -0.55195767 -0.63723195 -0.68660027 -0.5773437 -0.49748597
-0.50165504 -0.54242307 -0.56343335 -0.5495021 -0.2910141 -0.26399288 -0.30018765 -0.35260028
-0.48198923 -0.41182384 -0.31606677 -0.5377306 -0.44891647 -0.5307098 -0.5630777 -0.46811888
-0.36038578 -0.50408506 -0.5501196 -0.50418866 -0.52558124 -0.44537866 -0.5106159 -0.52620083
-0.5458116 -0.6460765 -0.44981182 -0.46407136 -0.39582652 -0.38704395 -0.5715999 -0.65535384
-0.4883611 -0.48594096 -0.5256878 -0.5467489 -0.49694768 -0.5225677 -0.2787892 -0.42005628
-0.49353585 -0.3819881 -0.29950452 -0.48544446 -0.346445 -0.3571586 -0.512145 -0.7127109
-0.6751359 -0.59589475 -0.24896693 -0.4059034 -0.69967943 -0.7646838 -0.7310081 -0.7140179
-0.7579058 -0.58855474 -0.5427264 -0.5793453 -0.5417024 -0.576523 -0.4665673 -0.45733613
-0.5535283 -0.5573022 -0.37335572 -0.65934163 -0.66278493 -0.55761147 -0.53497463 -0.4896401
-0.12875201 -0.50085837 -0.3201037 -0.47347504 -0.50915104 -0.21377292 -0.3350553 -0.18300956

conv.weight f4 [5, 1, 10, 10]
00000000: de56 cebc 3f5d 1fbd acb6 18bd 9515 19bd
00000010: 3e5d ddbd 4c75 01be 68e6 dabd 0ef8 553d
00000020: a86d 6fbc e6b2 53bd 5434 84bd 9718 983d
00000030: 4eba 30be 5d21 723b d279 7ebc 18a2 0d3c
00000040: 0bd5 b8bd 700a a2bd da4d 32be 619b f0bd
00000050: 22cb 103d 4370 8fbd 3333 2f3d 892e 9b3d
00000060: 4d16 82bd 672c 93bd 571e 89bd 156e 02bd
00000070: 6c1f 03be 3a1c e4bd 0ed4 8d3b 91ec bcbd
00000080: 837c 2c3c 59d8 8abd c106 c03d 0998 633d
00000090: d853 b3bd 596d 7abd 2aec 123b b758 8ebd
000000a0: 6623 30bb fe6d 79bc c1d0 85bc e20d 883d
000000b0: c4e1 453d 8962 853d fd0a 21bd e733 a9bd
000000c0: 19cc cbbc a47e 1dbe d5c7 62bd 557c 23be
000000d0: cdd3 a73c 6965 14be 56cf 92bd e7c9 25bd
000000e0: afe8 1abe 311e 38bd 272d 5c3b 8e46 5cba
000000f0: d3b6 89bd 9570 953b 63c5 923b daba d5bd
00000100: 4366 5fbd de23 92bd 8ac1 36bd 739c 0cbe
00000110: e961 d1bc 19ee 42bd f2d9 d6ba 7ff9 f7bd
00000120: 4178 3dbd 155a 46bc 1fe3 a2bd 1fe3 67bd
00000130: e4d4 0cbc d0aa 32be db0b 253b 723b 87bd
00000140: 2019 be3c 8d4b d4bd e592 3d3d 70a5 09bd
00000150: 2f56 92bd 5158 dc3b b2bc 763c c71b 31be
00000160: 25ae 1ebe 0cbc 83bd b587 10be 346f 0abe
00000170: 6567 ecbd 7123 da3c 8e24 96bb 3383 a3bd
00000180: 3c37 d2bd 60a5 39be 60a2 34bd 2051 66bc
00000190: dc37 50be d450 e6bd 9632 00bc 6981 29be
000001a0: 55a8 0fbe 8c4c cabd 41cf 29bd e240 02be
000001b0: e77b 94bd a1fe 3dbd 66fa 0bbe a9de cdbd
000001c0: 3457 9dbd 3ff0 c5bd 8944 003d d0ea 0ebd
000001d0: cfba 0fbe f3c2 16be a9b2 e9bd dc7e 6abd
000001e0: c4ee 9fbd a6c4 dcbd 64fd b5bd 5e55 f0bd
000001f0: c2a1 04bd 1d70 843c 5d69 d5bd e8a5 15be
00000200: 5a53 b93c 66a2 e2bd 92dd b1bc 5115 f0bd
00000210: 8309 6ebd 72be c4bd bc28 77bd ee8c 03bd
00000220: b3e1 a3bd 78cd 20be 1fb4 0dbe f297 963b
00000230: dc63 adbd 78ea 93bd da6b 4cbb aa71 9cbd
00000240: bbb8 0d3c 2c15 08be f05a 9abc b19e 17bc
00000250: 76c9 e3bd 9b36 84bd b08b d8bd ba86 c2bd
00000260: 647e 13be bf60 8cbc 6a9a fdbb 8bbc 1cbd
00000270: a99b e3bd fb4a 7fbd b1d8 61bc a2d5 85bc
00000280: 5728 a53d 55c7 06be 9f3f 90bd c1aa 8b3b
00000290: 9165 edbd 63b5 d0bd 6d51 ab3c 0b61 d7bd
000002a0: 7721 05be 5c1c 9abd 36cd 1c3d a6e3 6dbd
000002b0: 0663 d3bd eb8c 423c 2b83 ccbc 06e5 62bd
000002c0: 9945 e5bc 4b54 1dbd c5bd 1dbe 264e ff3c
000002d0: 7668 443d 951f 23be 91fe 0fbe fe1f 14bd
000002e0: cc1f 2abd b79c 82bd b903 00bc 8dff c83c
000002f0: 52e4 87bd e8c2 19bd ed1c 843d 81ac 00ba
00000300: 32ba 28be a88c 0ebe baf2 943c 822e 1bbe
00000310: 2499 a8bd 6b9f 00be eb36 29be 5f3a afbd
00000320: d618 81bd f09f 8cbc 5c41 babc ae0e c53d
00000330: 5e35 fb3c a1d7 d13d f9cc d33d 858f 053e
00000340: 02a2 383d ef70 9abb 210b 40be bc42 2abe
00000350: 1f10 a6bd 874e ac3b 5509 2f3c 323c 7d3c
00000360: dca9 043e 81fc 183e a233 373e e0af 52bd
00000370: 7a57 48be 184f 1fbc a5ea 9dbb 8ed9 883d
00000380: abeb cc3d f911 af3d e1b9 fc3d 9db2 af3c
00000390: a819 493e f180 243d c00a 67be e9c6 41be
000003a0: 9d19 e43c ea0d 00bd 80cb 723d 6999 ac3d
000003b0: 4a61 563d 261a ed3d 2bc8 273e a747 3a3e
000003c0: fb0a 18bc 3d7f 8fbd 8fdf e6bb 58e4 573d
000003d0: c0e4 67bd 1892 eb3d 2e66 213d 496d 8b3d
000003e0: ffcd 283e cfa3 2c3e 3ff9 2bbe 968f 9abd
000003f0: f5f5 59bd 9a20 babc 2e38 93bc 14b6 63bd
-0.025187906 -0.038907286 -0.037283584 -0.037374098 -0.108088 -0.12642401 -0.10688478 0.052238517
-0.014613546 -0.051684283 -0.06455293 0.07426565 -0.1725857 0.0036946156 -0.015531974 0.008644603
-0.0902501 -0.07912147 -0.1741251 -0.11748386 0.035349973 -0.07003834 0.042773437 0.07577235
-0.0635191 -0.071862034 -0.0669524 -0.031843264 -0.12804955 -0.11138196 0.0043282574 -0.09224809
0.010527733 -0.06779546 0.09376288 0.055564914 -0.08756226 -0.06113944 0.0022418597 -0.06950515
-0.0026876568 -0.015223978 -0.016334893 0.06643273 0.04831101 0.06512935 -0.03931712 -0.08261853
-0.024877595 -0.15380341 -0.055366356 -0.15965398 0.020486737 -0.1449181 -0.071684524 -0.040475752
-0.15127824 -0.044950668 0.0033596249 -0.00084028475 -0.06724324 0.00456054 0.0044790967 -0.1043603
-0.054540884 -0.071357474 -0.044618167 -0.13731556 -0.025559383 -0.04759035 -0.0016391857 -0.121081345
-0.04625726 -0.012106438 -0.07953476 -0.056613084 -0.008595679 -0.17447972 0.0025184068 -0.06603135
0.02320534 -0.10365973 0.046282668 -0.03360504 -0.071453445 0.0067243953 0.015059637 -0.17295752
-0.15496118 -0.064323515 -0.14114268 -0.13518983 -0.115431584 0.026628228 -0.0045819944 -0.07984009
-0.10264441 -0.18129492 -0.044100165 -0.014057428 -0.20333809 -0.112458855 -0.007824561 -0.16553272
-0.14029057 -0.098778814 -0.04145742 -0.12720063 -0.07250195 -0.04638541 -0.13669738 -0.10052235
-0.07682648 -0.09664964 0.03131536 -0.034891903 -0.14036106 -0.14722805 -0.1141103 -0.05724989
-0.07809213 -0.10779695 -0.08886221 -0.117350325 -0.032380827 0.016166741 -0.10420487 -0.1461407
0.022622753 -0.11066131 -0.021712098 -0.11722816 -0.05811454 -0.09606637 -0.06034158 -0.032116823
-0.08002033 -0.1570338 -0.13838242 0.00459575 -0.08466312 -0.07222456 -0.0031192214 -0.07638867
0.00865 -0.13289326 -0.01884219 -0.009254144 -0.1112241 -0.06455728 -0.10573518 -0.09498353
-0.14403683 -0.017135976 -0.007739355 -0.038265746 -0.11113674 -0.062327366 -0.013784573 -0.01633722
0.08064335 -0.13161977 -0.07043385 0.004262299 -0.11591638 -0.10190847 0.02091285 -0.10516556
-0.13001047 -0.0752494 0.038281642 -0.05807843 -0.103216216 0.011874418 -0.02496489 -0.055394195
-0.027987288 -0.038410466 -0.15404423 0.031165194 0.047951184 -0.15930016 -0.14061953 -0.036163323
-0.04153423 -0.06377547 -0.007813388 0.024535919 -0.066353455 -0.037539393 0.0645083 -0.00049085176
-0.16477278 -0.13920844 0.018182147 -0.1515446 -0.08232334 -0.12560813 -0.16524856 -0.08556055
-0.06303565 -0.017166108 -0.022736244 0.096219406 0.030665096 0.10246206 0.1034183 0.1304303
0.045076378 -0.0047131698 -0.18754245 -0.1662702 -0.081085436 0.0052583846 0.010683377 0.015456246
0.12955421 0.14940073 0.1789079 -0.05143726 -0.1956462 -0.009723447 -0.0048192316 0.0668212
0.100058876 0.0854835 0.12340141 0.021447474 0.19638693 0.04016203 -0.22562695 -0.18923534
0.027844245 -0.03126327 0.059276104 0.08427698 0.052338876 0.11577253 0.16384952 0.18191396
-0.009279962 -0.07006691 -0.007045693 0.052708 -0.056614637 0.115024745 0.039404087 0.06807954
0.16484831 0.16859363 -0.16794299 -0.07546918 -0.05321308 -0.022720624 -0.017971125 -0.055593565

conv.bias f4 [5]
00000000: bf51 33be d038 ccbc a921 6dbd 5349 113d
00000010: e6ea 4bbe
-0.17511652 -0.024929434 -0.05789343 0.035470318 -0.19913825

fc1.weight f4 [64, 180]
00000000: 8e01 e9bc b8d8 dfbc 912b 8fbd 98ab 27bc
00000010: 6337 1bbd a9b3 18bd 6c7b ebbc 609a 56bd
00000020: d661 85bc 7459 dd3c acea c63c f22c b8bc
00000030: f222 92bd 62bc de3b 365a 7cbd dcbc 96bd
00000040: 5219 1f3d 9423 a73c bcec ff3c f5da b2bd
00000050: 4c7e 0c3c 2a2c 9cbc b50c 05be b048 423c
00000060: ff8a 2fbd a613 62bd 23f2 173c 0195 e1bd
00000070: f819 cebd 917e 98bd 4458 5cbd cbf5 863d
00000080: d499 863c e8ae 073c c03d 11bb 8c0c 9fbc
00000090: 8dba 07be e92a d8bc 87d1 9bbd a689 83bd
000000a0: b6eb c4bc 1cfa b5bd 393e 93bd f5e4 78bc
000000b0: f2f9 bfbd 9d5e f6bd cf66 13bc a6f0 55bd
000000c0: b843 ed3a 8b37 ae3b 25cc 5d3c 0415 d4bd
000000d0: 4647 f5bd d3e8 9ebd 98f4 0dbd 24fa 2fbd
000000e0: 4549 72bc 28d8 51bd 8357 4ebb db33 a1bb
000000f0: 3e70 bbbd b4b8 af3b e079 90bc eb2e f73b
00000100: 0fc5 1fbd 62a6 a3bd cb1d d0bd 153e f6bc
00000110: 3007 c6bd 4d12 c1bd 510b 98bd 8c6c 35bd
00000120: 0440 95bd 5455 e7bd 7e45 02be b98a dfbd
00000130: f138 c9bd 2c85 aebd 5690 06bd 86f7 38bd
00000140: 1c52 4fbd 6a20 6dbd f69e 4638 bb7f 7bbd
00000150: da83 19bd b999 2bbd 1802 8fbd 85b4 febd
00000160: dcce fbbd eabe 80bd ff52 0cbd 4952 f43b
00000170: a115 31bb 5a5d f1bd 1f9e 8fbd 2fe1 8abd
00000180: 8e77 4abd a894 8fbd d39a 8dbd efb1 4f3c
00000190: 7323 e7bc e6c5 21bd 7e84 00be 4b65 cbbd
000001a0: 5df2 92bd 964a 433c fdb5 afbd d7dd d2bc
000001b0: 57c0 bfbd 7df4 b2bd 7511 f2bd 7be2 93bd
000001c0: 093d abbc 3366 313c 83d9 afbd 42ce c8bd
000001d0: 280c 0b3c fed0 0fbc e77c 94bd 4238 a5bd
000001e0: 4376 92bd 3eca 013c 83c1 0fbd bf33 61b9
000001f0: 3b14 05be a86b 06ba 9970 d5bc ac97 fb3b
00000200: 0409 07bb 3f51 f0bd e4f5 a2ba 8e5f 39bd
00000210: 4bfa 50bd 4412 103c da13 08be 9f3d 07bd
00000220: 8209 f7bd 193a 96bd f21b 583c 71b7 7fbd
00000230: 62b6 0fbd 007e d6bd 0be9 9fbd 934f 1abd
00000240: 50d4 8f3b 2026 f53b 901a 11bc e7c7 913d
00000250: 64f6 263d c0a3 de3b 005c 833c 3e2f 0b3d
00000260: 3746 00be 27ff 86bd f233 263d d6f3 28bd
00000270: bf93 59bd 65a6 3ebd a007 11bc 93e6 11bd
00000280: 5910 673c 01a5 903d 00cb b5b9 ad46 d1bd
00000290: 0d2a 61bd 632e 54bd 433f debd 1abc 163d
000002a0: 020a 88bd aae8 d7bd 1a77 fabd 80c4 89bd
000002b0: 3df7 e6bb 0c2a ed3c e0e8 52bb fe15 97bd
000002c0: 7ed2 2ebd 0079 5eba e830 b93c f81e 41bd
000002d0: ce4f 3a3d 2638 0bbd 0035 5ebb a1d5 64bd
000002e0: b41f 8dbc 2862 443c e2d2 92bd fe9b 9cbc
000002f0: f180 b9bc 94d8 59bd 5bd7 2abd e5ac 87bd
00000300: 56ff 90bd 1b2f dfbd b43c 8bbd 1d40 c6bd
00000310: 4c84 d63c d844 09bc 0014 2cbb 0f0d eabd
00000320: d105 71bd e2ab bcbd 952a 23bb 5043 26bd
00000330: 8827 54bd 2b31 07be 5342 07be 6ae9 7ebd
00000340: a4f1 c5bc 3c67 d43c 5276 373d 3e1d d1bc
00000350: b83c 363d 4c40 cd3c 704b 8fbc 2c0d 3a3d
00000360: 03eb 96bd 32db 9dbd 5fe2 00be 9179 3dbd
00000370: 958b 1f3c 9529 94bc 751d 19bd 630f 90bd
00000380: d864 bdbb 1d40 e8bd 3cfe cbbd 7667 06be
00000390: b349 53bd bf83 4ebd 44b5 febd c3fc 02bd
000003a0: d43b 873b ddde 17bc 552a bcbb a3da b2bc
000003b0: 8b86 853b 8e2c 683d 8772 8fbd 18d9 d8bb
000003c0: 2315 32bd add3 dfbd 8097 55bd 9305 0fbb
000003d0: aca3 95bd 23bc 013c b498 8abd 1c31 03bd
000003e0: dcea 38bd 2898 26bd d766 01be da55 debb
000003f0: 68df b4bb a07e dbbd d812 ebbd deaf 52bd
-0.028443124 -0.02732502 -0.069907315 -0.010233782 -0.037894618 -0.037280712 -0.028745376 -0.052393317
-0.016282003 0.027020194 0.024281822 -0.02248237 -0.071355715 0.0067973593 -0.06160947 -0.07360241
0.038842507 0.020402707 0.031240813 -0.08733169 0.008575033 -0.019064028 -0.12993129 0.01185815
-0.042857166 -0.05519452 0.0092740385 -0.11014748 -0.10063547 -0.074460156 -0.053795114 0.0658985
0.016430773 0.008281447 -0.002216205 -0.019415163 -0.13254757 -0.026387649 -0.076083235 -0.06422739
-0.024038177 -0.08885595 -0.071896024 -0.015191306 -0.09373845 -0.12029765 -0.008996679 -0.052231453
0.0018101847 0.00531668 0.013537441 -0.10355571 -0.11976485 -0.077592514 -0.03465709 -0.042963162
-0.014787977 -0.051231533 -0.0031485267 -0.0049195117 -0.09152268 0.0053625945 -0.01763624 0.007543435
-0.03900629 -0.079907194 -0.101619326 -0.0300589 -0.0966934 -0.09427319 -0.074240334 -0.04429297
-0.07287601 -0.11295572 -0.12721822 -0.10915131 -0.09825314 -0.08521494 -0.032852493 -0.04515793
-0.050615415 -0.05789224 4.7354923e-05 -0.06140111 -0.03747926 -0.04189465 -0.06982821 -0.12436775
-0.12295315 -0.06286414 -0.03425884 0.007456098 -0.0027020948 -0.117853835 -0.07012581 -0.067812316
-0.049430422 -0.07010776 -0.06914296 0.0126767 -0.028215146 -0.03949537 -0.12550542 -0.099314295
-0.071751334 0.011919638 -0.085796334 -0.025740547 -0.09362858 -0.08738039 -0.11819736 -0.07220932
-0.020903127 0.010827589 -0.08586409 -0.098049656 0.008486785 -0.008777855 -0.07250386 -0.08067371
-0.07151463 0.007921753 -0.035096657 -0.00021476949 -0.12995999 -0.00051277364 -0.026054667 0.007677993
-0.002060474 -0.117342465 -0.00124329 -0.045257144 -0.051019948 0.008793417 -0.13288823 -0.03301775
-0.1206236 -0.073353 0.013190256 -0.062430803 -0.035086043 -0.10473251 -0.07808121 -0.037673544
0.0043893233 0.0074813515 -0.008856431 0.071182065 0.04076232 0.006794423 0.01603508 0.0339806
-0.12526785 -0.06591635 0.040576883 -0.041248165 -0.053119417 -0.046545405 -0.008851916 -0.035620283
0.014103019 0.07062722 -0.00034674257 -0.102185585 -0.054971743 -0.05180205 -0.1085191 0.03680048
-0.06642534 -0.10542424 -0.12229748 -0.067269325 -0.007048516 0.028950714 -0.0032182261 -0.073772416
-0.04268121 -0.00084866583 0.022606328 -0.047148675 0.045486264 -0.033989094 -0.0033906102 -0.055867795
-0.017227031 0.011986293 -0.07169129 -0.019117352 -0.022644492 -0.05318506 -0.041709285 -0.06624774
-0.070799515 -0.108976565 -0.067986876 -0.096801974 0.026186131 -0.00837823 -0.0026257038 -0.11428272
-0.058843438 -0.092124715 -0.0024897207 -0.040591538 -0.051795512 -0.1320235 -0.13208894 -0.06223432
-0.024163075 0.025928132 0.044790573 -0.02552664 0.0444915 0.025055073 -0.017492026 0.045422718
-0.07369044 -0.07707824 -0.12586354 -0.046258513 0.009737869 -0.018086234 -0.037381608 -0.07034185
-0.005779844 -0.11340354 -0.09960601 -0.13125405 -0.051583957 -0.05041861 -0.124369174 -0.031979334
0.004127005 -0.009269443 -0.005742351 -0.02183277 0.0040748767 0.056683116 -0.07004266 -0.0066176765
-0.04347719 -0.10929046 -0.052146435 -0.002182339 -0.073066086 0.00791839 -0.06767407 -0.032029256
-0.045145854 -0.04067245 -0.12636887 -0.0067851366 -0.005519796 -0.10717511 -0.114782035 -0.05143725

fc1.bias f4 [64]
00000000: 3f9a e23b 98ba 053c 742e f23d 22e3 43bd
00000010: e9db 5ebd 6fc6 c83b 1cc8 fcbc 34a9 65bc
00000020: a8bf b1bc ccae 123d 415c a03b e387 f2bd
00000030: abde 823d 41f4 46bd 8852 38bd 1546 fdbd
00000040: 8c9e 03bd 5390 93bd 84fa e13d b41b c03d
00000050: ef68 50bc cafd c4bd b2bf 363d 758e babd
00000060: 51a0 82bd 0497 ef3c 5cbf 5dbd e347 0cbe
00000070: dfdf e53c 1ee6 6b3d eab5 8d3c cd43 b1bd
00000080: 15df 093b 35c5 34bc 3673 9abd f4ea 62bd
00000090: 0283 a3bd 7e6f de3d 88f8 6a3c 312a 92bc
000000a0: 78eb 7dbd 0863 c53d 98fb c63c 3218 263d
000000b0: 28f3 463d ffd9 a63d c2f5 c3bd 5830 ec3b
000000c0: 343d aa3b 1143 0fbd b70a cebd 2ed6 1fbd
000000d0: b937 9dbb b4c4 ca3e 7b32 5fbd 2a66 d73e
000000e0: 07c6 1bba 66db 9cbc ed20 f1bd 4d76 babd
000000f0: 0fa7 bdbd 8b2d 79bd 5e9d e5bd 3e41 583d
0.00691536 0.008162163 0.118252665 -0.047824033 -0.05440894 0.0061271708 -0.030857138 -0.014017392
-0.021697834 0.03581123 0.00489381 -0.118423246 0.06390127 -0.048572782 -0.045000583 -0.12366883
-0.032133624 -0.07205262 0.1103411 0.09380284 -0.012720331 -0.09618719 0.04461641 -0.09109203
-0.06378234 0.029246815 -0.054137573 -0.13699298 0.028060852 0.057592504 0.017298657 -0.0865551
0.0021037508 -0.011033346 -0.07541506 -0.05539985 -0.07983972 0.10861109 0.014341481 -0.017842384
-0.06199214 0.09638029 0.024289891 0.04055042 0.048571736 0.08147048 -0.09568359 0.0072079115
0.0051952843 -0.03497607 -0.100606374 -0.039022617 -0.0047979024 0.39603198 -0.0544915 0.42070132
-0.0005942289 -0.019147586 -0.11773858 -0.09104595 -0.092603795 -0.06083445 -0.11211656 0.052796595

fc2.weight f4 [4, 64]
00000000: 8cd0 5ebd 15da 66bc e264 fcbc 84df 983d
00000010: 0ca9 4dbd 3419 f93c bc3d afbd e4e0 fb3d
00000020: 3ca6 a5bc a0c0 a13d 2209 553d 60ee 913d
00000030: 5c04 70bd 56f2 fd3d 8af7 fcbc 8104 833d
00000040: d796 c93c 6450 da3d 4390 1abd 3346 09bd
00000050: 10b5 01bd f082 8939 b416 95bd 55cf 9c3c
00000060: b7b2 723d 98c9 fa3c 97d5 c0bc 2f2c 403d
00000070: 2c88 e4bc 6451 fd3d 9d79 0dbd 4ec0 b2ba
00000080: 5cf7 daba b299 a13c ff32 3c3d 7698 b63d
00000090: d4f2 743d 7252 13bd e85d ee3b d99d b83d
000000a0: 907c f73c cda7 19bd 8266 afbd 90bb 273c
000000b0: 5c3c 1fbd 8bb7 1fbd f489 30be 8bdb 113d
000000c0: f23c 22bd f468 053e 875b 8c3d 19d0 9bbd
000000d0: 606e 333d c49e 48bd cdf0 123e 4a4d 47bd
000000e0: 732f f0ba 531e 463d aca5 b03d 5da0 e3bc
000000f0: 6e41 e13d 6140 973c 3064 bd3d b2cf eebd
00000100: 971b 0f3d 9a11 093d b6c7 c5bd 1836 e3bc
00000110: 4746 743d 53fd 293d b008 0f3d 709c 173d
00000120: 5e0e 023d 40af 99bb 7acb 0abe f812 5abd
00000130: 38d4 d6bc 00cf e1bb 9afd a2bd 32ac 283d
00000140: cdef 99bc 9480 133d 9893 f1bd f988 d6bd
00000150: 525b bfbd 3748 583c b610 f3bd 5006 33be
00000160: 5ddd 483d 34a0 6f3d 3f25 7d3d a358 71bb
00000170: 452f b2bd 6830 3ebd 9c0e ddbd 3791 643d
00000180: a482 173d 9306 813d 6b0b 11bd c434 983d
00000190: 5c96 ff3d 2676 e6bd e9fb d2bd 2b3a 8a3b
000001a0: bc6a 0ebd cd2b f0bd a27f b5bd 047b 603d
000001b0: 80e3 f8bd 685f f9bd 2156 c1bd c854 d3bc
000001c0: d517 fcbd 850b a2bc 3b30 ad3d b87a 6abd
000001d0: 0990 833b 8061 1bbe 0683 10bc b8f4 1cbe
000001e0: 2b63 bc3d f464 a9bb 7711 0dbd 6bac 83bb
000001f0: a68f 8bbc 8ee9 ae3d 5cba b83c e4f0 403d
00000200: ef27 36bd 7d59 e73d a5f5 ea3e 6031 81bb
00000210: d77b 1ebd 107b 28bd cca3 0e3d f037 273d
00000220: 180b 203e 143d f13d 9dbb 6e3c 7b69 fa3d
00000230: 5032 33bc f84a 6bbd 3c5f 9e38 f462 803d
00000240: 60d6 e23d 6ceb 7bbd 58db 0e3f d8c4 fd3e
00000250: fd87 1e3d 650a b9bd 0425 523d 14f7 22bd
00000260: 3729 42bc 90d1 60bd c631 a5bc 4a18 ea3d
00000270: 61c1 d23e f821 1bbd 00bd 023f 8493 123c
00000280: 9b7a c43d b2b1 0a3e 71dd ea3d 90c2 0a3c
00000290: 1445 5f3c 2e40 083f 58ec 0b3e a8ce 16bd
000002a0: 3667 fb3d 2dfe 0d3f 82a3 82bd 7af7 a2bd
000002b0: 3f2d 133f 2e8e 133f 55cd 27bd 6412 8d3d
000002c0: 2f06 153f 7e18 103d 86e0 073e cea2 0ebd
000002d0: ce3d 9f3d a6e0 373f cb0b 5a3d 3faa 393f
000002e0: 7031 783c 4070 6ebd 5e68 02bd 46dc 0f3e
000002f0: 1a5f e73d c9bf 5e3d 7ca2 49bb a828 4dbd
00000300: 9792 0ebe aead 3a3c 0c1c a23e 6a3d d43d
00000310: 16a5 093d 3700 44bb 566a 813d 564e dcbd
00000320: 20a5 bbbc 888c ebbd a82e 1f3d c134 5b3d
00000330: 00ad 1ebb a09d 42bd 38bc 27bd f6ce 1dbd
00000340: 93d5 55bd 4617 cd3d 5510 c53e 2b05 af3e
00000350: 270f e73c 6309 8a39 5864 abbc dbaf 16be
00000360: 3e25 adbc 5a39 d93d d1ad f73c 4cd2 c4bd
00000370: 366b 913e 6c63 b73d 2c55 b43e d8a6 1bbd
00000380: 3dc7 b2bd cc09 223e 0955 d83d e0da 383d
00000390: a3be d43d 39f5 bb3e 82ba b53b 592f dfbb
000003a0: 180f b63c 0adf c33e 00d3 0d3b 302c d8bd
000003b0: 1a06 cb3e b78b cb3e 123c 1abd 6b7e 90bd
000003c0: 3385 cd3e a439 e43d f8f2 083c 0d45 003c
000003d0: ecca 8bbc 3879 fd3e a3b7 80bc b81c 003f
000003e0: 2358 1e3d 7ac2 16bd 06bf 9abd 707c 193e
000003f0: d8cc 753d 076b 3cbd 2bc3 703d 4068 753d
-0.054398105 -0.014090081 -0.030809823 0.07464507 -0.050210044 0.030407526 -0.08556697 0.12298754
-0.020220868 0.078980684 0.052010663 0.071255445 -0.058597907 0.123997375 -0.030879755 0.063973434
0.024608059 0.106598645 -0.037735235 -0.033514213 -0.031666815 0.00026228232 -0.07279721 0.019141832
0.059252467 0.030613706 -0.023539348 0.046917137 -0.027896963 0.1236904 -0.034539808 -0.0013637634
-0.0016705799 0.019726608 0.04594707 0.08915798 0.05980189 -0.035967298 0.007274378 0.09014482
0.030210763 -0.037513543 -0.08564474 0.0102375895 -0.038875923 -0.0389934 -0.17240125 0.035609763
-0.039608903 0.13028318 0.06853395 -0.07608051 0.043806434 -0.048979536 0.1434967 -0.048657693
-0.0018324688 0.048368763 0.086253494 -0.027786428 0.10998808 0.018463315 0.09247625 -0.116607085
0.03493842 0.03346405 -0.096572325 -0.027735755 0.059637334 0.041501354 0.034920394 0.037014425
0.031751983 -0.004690081 -0.13554183 -0.053240746 -0.02622424 -0.0068911314 -0.07958527 0.041179843
-0.018791104 0.036011294 -0.117957294 -0.10475344 -0.0934359 0.013200811 -0.11868422 -0.17482877
0.049039233 0.05850239 0.0618031 -0.0036826513 -0.08700422 -0.046432883 -0.10793802 0.05580255
0.036989823 0.06300082 -0.03541128 0.07431939 0.12479851 -0.11253004 -0.10301954 0.00421836
-0.03476976 -0.11727104 -0.08862235 0.054804817 -0.12152767 -0.121764004 -0.09440256 -0.025797263
-0.12309233 -0.019780884 0.08456465 -0.05724594 0.004014973 -0.15173912 -0.008820301 -0.15327728
0.09198602 -0.0051695053 -0.034440484 -0.0040183566 -0.01703627 0.08540641 0.0225498 0.04710473
-0.044471677 0.112963654 0.45890537 -0.0039426535 -0.03869232 -0.041132987 0.034824178 0.04082483
0.15629232 0.11779228 0.014571098 0.1222715 -0.010937288 -0.057444543 7.551766e-05 0.06268874
0.11076045 -0.061503813 0.5580344 0.49564242 0.038703907 -0.09035186 0.051304832 -0.039786413
-0.011850647 -0.054887354 -0.020165335 0.11430414 0.4116316 -0.037874192 0.5106964 0.008946303
0.09593698 0.13544348 0.11468018 0.008469239 0.013627309 0.5322293 0.13664377 -0.036818177
0.12275545 0.55465966 -0.06378843 -0.07957359 0.57490915 0.57638824 -0.040967304 0.06888273
0.5821256 0.035179608 0.13269243 -0.03482323 0.0777546 0.7182716 0.053233903 0.725254
0.015148506 -0.05821252 -0.031837814 0.14048871 0.11297436 0.05438212 -0.0030767014 -0.0500876
-0.13923107 0.0113939475 0.31662023 0.10363276 0.033604704 -0.0029907355 0.0631911 -0.10757129
-0.022905886 -0.115014136 0.038862854 0.053517107 -0.0024212003 -0.047513604 -0.040950984 -0.03852745
-0.052205633 0.10014205 0.38489023 0.3418363 0.028205467 0.00026328405 -0.020921871 -0.14715521
-0.021135923 0.10606642 0.03023425 -0.096104234 0.28402108 0.0895451 0.3522123 -0.03800091
-0.08729408 0.1582405 0.10563094 0.04513061 0.103879236 0.36710528 0.005545915 -0.006811064
0.022223994 0.38256103 0.0021640658 -0.10555303 0.39653093 0.3975503 -0.037654944 -0.07055362
0.40140685 0.111438066 0.0083587095 0.007828963 -0.017064534 0.49506545 -0.015712565 0.5004382
0.038658272 -0.03680656 -0.07555966 0.14988875 0.060009807 -0.046000507 0.058779877 0.059913874

fc2.bias f4 [4]
00000000: 9253 2abd c95b 04be 66ca 1b3f 44dd d63e
-0.041583605 -0.12925638 0.6085571 0.41965687
