src/flatland/flat_game/results/ourmethod_noreg14/rep_learner.pth (torch_old, 312906 bytes, 33 tensors)

representations f4 [6]
0.20051995 0.085894585 0.14827992 -0.48683637 -0.083471164 0.29805946
00000000: 1a55 4d3e 80e9 af3d b1d6 173e 9e42 f9be
00000010: eef2 aabd 409b 983e

representations f4 [6]
-0.23730446 0.054032285 -0.11398985 0.44802573 0.24290316 -0.21829964
00000000: f1ff 72be f550 5d3d 8373 e9bd a163 e53e
00000010: 9bbb 783e f189 5fbe

representations f4 [6]
-0.693341 -0.7626864 0.7095603 0.022652702 -0.34399995 -0.7742178
00000000: cc7e 31bf 6a3f 43bf bea5 353f 2992 b93c
00000010: c320 b0be 2333 46bf

representations f4 [6]
0.82522166 0.017327609 -0.88878727 0.34072876 -0.5027581 0.3622792
00000000: ba41 533f a1f2 8d3c 9087 63bf 0074 ae3e
00000010: c1b4 00bf a97c b93e

fc1.weight f4 [64, 4]
0.47222006 0.55975825 0.09911222 -0.9195069 1.3887302 0.18555444 2.7196639 0.9868436
-0.5076319 2.0172238 -0.416954 0.66740257 0.29549614 1.0498759 -1.2833269 -0.6115055
1.0516602 -1.1185298 1.8046411 0.06805279 -0.035470173 -0.020079361 1.0333419 -1.4466615
0.9669351 0.78709155 -0.5314279 -0.7069592 0.7445864 -0.8740438 1.4829245 0.18183602
0.8583193 1.1692526 0.28749663 -1.7761507 1.1766557 -1.4794701 2.4976625 0.11346022
-1.3875701 -0.024839956 -1.755742 -1.077771 -1.193364 2.40721 -1.4695456 0.47234544
-1.5000571 -0.055748314 -3.2387805 -1.3635882 1.2685087 1.7847284 2.5312068 1.691182
1.6120484 -0.24896376 1.2796546 0.4580657 1.4123235 -0.33433577 -0.96852416 0.6464273
-0.28675443 -2.1353765 1.134988 -0.17456701 1.1405091 -1.1926756 2.1060026 0.17598443
0.3923921 1.8946189 -0.68203324 1.2994106 -1.0436705 -1.4428433 -0.35666895 2.2651975
0.86564916 -0.7652249 -0.7129422 -0.6093538 0.60571676 -0.6758896 -0.8004526 -0.017107613
1.1333188 0.104714714 2.6207583 1.1271627 1.078806 -0.6207573 -0.77388746 1.842338
1.2118164 -1.3709532 2.408466 0.15367392 1.9705073 0.81730634 -0.5755267 -1.0686507
0.77552557 0.107006274 -0.8734025 1.3574857 1.700808 -0.8202907 -1.2929908 1.3369955
-1.4497969 -1.8807408 -0.73391324 1.6748792 -0.3429016 0.32299036 3.016857 -0.51016104
-0.9063021 1.1724877 1.2626208 -2.1253655 0.02115053 -0.7827776 0.94741255 1.9692138
1.107445 0.33464336 2.351561 1.0856521 -1.0820423 -0.05369796 -1.3105752 -0.93273467
0.46901116 -0.12719634 -0.9026025 -0.05825053 1.3672657 -1.7436422 0.6428355 1.3062985
0.8770826 1.1266669 2.5303905 -1.0084157 -0.68418574 -0.98560226 2.3386235 0.07987037
1.7309496 -1.3373653 0.9433077 0.6733937 1.088813 -1.2236874 0.82895046 -0.9080608
-1.0478395 -0.5968035 2.4262238 -0.523747 -1.5939889 1.0865716 0.9644129 -1.0443208
0.38920656 -0.47347176 0.74677026 0.027578793 -3.9456112 0.11238279 1.489612 -0.15703394
1.0470431 -1.1560899 2.005112 0.08900277 0.09381347 -0.056147758 -0.007408076 0.005324373
2.1285279 0.047398366 1.6513654 -0.33028895 -2.1542783 0.30184546 1.3234857 -1.881691
1.3217919 0.10802146 2.6622531 0.9153649 -0.93710417 -0.34817272 -0.012986124 2.1356018
0.20880486 -0.2992141 0.04337508 -0.91689116 0.5905767 -0.84171516 1.7084492 0.11678954
1.3932747 0.501318 0.60480964 -1.3431321 0.31897804 0.7628409 -0.27369723 -0.21157932
-1.9164808 -0.07632757 -2.4347491 1.2332579 0.8496411 -1.8707572 0.48651236 -0.25758633
-0.47409242 0.08773696 -2.1978471 -1.6843635 -0.15583187 -0.037527144 -0.29315948 0.27209628
0.8746 -0.97430384 -0.48867518 -1.380844 -0.027041947 2.819525 0.54499996 1.2765975
-0.664103 -1.0808212 -0.26535115 1.6541758 -1.0658584 0.941998 1.112121 -1.7747458
0.0473648 -1.6316528 -1.349737 0.60183954 -0.42265072 -2.4440203 -0.88925964 -1.47171
00000000: d4c6 f13e 514c 0f3f 59fb ca3d ce64 6bbf
00000010: e9c1 b13f fc01 3e3e f90e 2e40 c8a1 7c3f
00000020: 2af4 01bf 321a 0140 ff7a d5be e5da 2a3f
00000030: 454b 973e 5562 863f 0e44 a4bf a08b 1cbf
00000040: cd9c 863f fc2b 8fbf 7bfe e63f 435f 8b3d
00000050: 2c49 11bd 797d a4bc 8c44 843f 342c b9bf
00000060: 0f89 773f d57e 493f a90b 08bf 47fb 34bf
00000070: 379d 3e3f 56c1 5fbf 78d0 bd3f 3933 3a3e
00000080: d0ba 5b3f 12aa 953f c232 933e e858 e3bf
00000090: a79c 963f 475f bdbf b4d9 1f40 d55d e83d
000000a0: e69b b1bf 2a7d cbbc 27bc e0bf 66f4 89bf
000000b0: 27c0 98bf bb0f 1a40 121a bcbf 43d7 f13e
000000c0: df01 c0bf 5858 64bd 2e48 4fc0 0f8a aebf
000000d0: 7e5e a23f fb71 e43f 4bff 2140 a778 d83f
000000e0: 9a57 ce3f 5bf0 7ebe b9cb a33f 9687 ea3e
000000f0: 04c7 b43f 0f2e abbe 33f1 77bf 427c 253f
00000100: 7ad1 92be 02aa 08c0 4947 913f b2c1 32be
00000110: 34fc 913f 98a9 98bf bfc8 0640 4335 343e
00000120: 9ee7 c83e df82 f23f bb99 2ebf 1653 a63f
00000130: ff96 85bf 17af b8bf 509d b6be fff8 1040
00000140: 2f9b 5d3f c7e5 43bf 6183 36bf 9cfe 1bbf
00000150: 4110 1b3f 1a07 2dbf 76ea 4cbf 4425 8cbc
00000160: 9710 913f ab74 d63d 81ba 2740 de46 903f
00000170: 5116 8a3f f3e9 1ebf 7d1d 46bf bbd1 eb3f
00000180: cd1c 9b3f 657b afbf 4f24 1a40 b25c 1d3e
00000190: 9539 fc3f fd3a 513f b855 13bf 8cc9 88bf
000001a0: d888 463f 1b26 db3d 4e97 5fbf 17c2 ad3f
000001b0: 14b4 d93f 92fe 51bf b980 a5bf ab22 ab3f
000001c0: f292 b9bf 1dbc f0bf bde1 3bbf 7162 d63f
000001d0: cc90 afbe fe5e a53e 2f14 4140 ea99 02bf
000001e0: 6a03 68bf 1414 963f 8f9d a13f fd05 08c0
000001f0: e043 ad3c 1d64 48bf a189 723f 330f fc3f
00000200: c2c0 8d3f 6056 ab3e fa7f 1640 a6f6 8a3f
00000210: 5d80 8abf 64f2 5bbd eec0 a7bf b3c7 6ebf
00000220: 3b22 f03e c23f 02be f510 67bf 1c98 6ebd
00000230: 9002 af3f ab2f dfbf de90 243f ca34 a73f
00000240: 7c88 603f 9f36 903f ebf1 2140 c413 81bf
00000250: cc26 2fbf 6e50 7cbf 02ac 1540 1493 a33d
00000260: c28f dd3f c92e abbf 9d7c 713f 8863 2c3f
00000270: 395e 8b3f caa1 9cbf 1936 543f ac76 68bf
00000280: 9b1f 86bf 1dc8 18bf 4047 1b40 4914 06bf
00000290: d407 ccbf c714 8b3f c4e3 763f 4eac 85bf
000002a0: 1546 c73e e46a f2be 562c 3f3f ecec e13c
000002b0: e584 7cc0 f328 e63d 9bab be3f 81cd 20be
000002c0: 8205 863f c1fa 93bf c153 0040 1647 b63d
000002d0: 4721 c03d 31fb 65bd 72bf f2bb 1478 ae3b
000002e0: cd39 0840 ca24 423d f15f d33f a21b a9be
000002f0: b2df 09c0 7d8b 9a3e fb67 a93f 40db f0bf
00000300: 7a30 a93f 5b3a dd3d 5b62 2a40 5b55 6a3f
00000310: 0fe6 6fbf b243 b2be c0c3 54bc b3ad 0840
00000320: f1d0 553e 9732 99be 11aa 313d 61b9 6abf
00000330: 0930 173f a57a 57bf 77ae da3f 5b2f ef3d
00000340: d356 b23f 6056 003f ced4 1a3f c1eb abbf
00000350: 1751 a33e 8b49 433f 0b22 8cbe 40a8 58be
00000360: 3e4f f5bf a151 9cbd eed2 1bc0 65db 9d3f
00000370: 1482 593f f974 efbf 2618 f93e 5be2 83be
00000380: 3ebc f2be 6faf b33d 87a9 0cc0 3999 d7bf
00000390: 6492 1fbe 10b6 19bd 0019 96be 3450 8b3e
000003a0: c9e5 5f3f fa6b 79bf a233 fabe 7fbf b0bf
000003b0: 1387 ddbc 1973 3440 1e85 0b3f 8c67 a33f
000003c0: a702 2abf 5958 8abf 1bdc 87be 08bc d33f
000003d0: 0c6e 88bf c826 713f fb59 8e3f df2a e3bf
000003e0: 9801 423d 00da d0bf 2fc4 acbf 2812 1a3f
000003f0: ad65 d8be d46a 1cc0 85a6 63bf fe60 bcbf

fc1.bias f4 [64]
0.47195494 -0.0061075613 0.92227226 0.6288029 0.013131816 0.17161284 0.5500527 -0.0028171765
0.89122176 -0.02686087 0.22373179 0.7894021 -0.13610306 -0.24852444 -0.7516297 0.9916531
-0.23493452 -0.013991249 0.21463503 0.27693582 0.5684125 0.66658705 -0.05737369 0.7571699
-0.005143188 0.37621802 0.24680652 0.46272802 0.13535088 -1.0129676 0.21647805 -0.88208735
-0.23166192 0.985504 0.44136736 -0.5837778 -1.1596946 -0.86700934 -0.59085333 -0.9441181
-0.71443343 -0.33336797 -0.0042620883 0.19196837 -0.012320694 -0.3215965 -1.2906966 -0.52371866
0.01328896 0.11083938 0.27659672 -0.083783 -0.018072432 0.382906 0.74472356 0.109171875
0.01080811 -0.4703375 -0.5203337 0.2230833 0.21373002 0.04925509 0.69795203 -0.13209777
00000000: 14a4 f13e f021 c8bb 091a 6c3f 3af9 203f
00000010: d426 573c 47bb 2f3e 41d0 0c3f 61a0 38bb
00000020: 1c27 643f 540b dcbc f219 653e 4216 4a3f
00000030: 9a5e 0bbe 317d 7ebe ce6a 40bf fadc 7d3f
00000040: ad92 70be 8d3b 65bc 49c9 5b3e 88ca 8d3e
00000050: 7b83 113f 73a5 2a3f ad00 6bbd e3d5 413f
00000060: 3088 a8bb a69f c03e d9ba 7c3e b0ea ec3e
00000070: 6c99 0a3e eca8 81bf 6cac 5d3e 7ad0 61bf
00000080: c838 6dbe fd49 7c3f e7fa e13e 7672 15bf
00000090: df70 94bf 53f4 5dbf 2a42 17bf b9b1 71bf
000000a0: 1ce5 36bf 35af aabe fda8 8bbb 5b93 443e
000000b0: bcdc 49bc 4ca8 a4be 8c35 a5bf 6d12 06bf
000000c0: f0b9 593c c2ff e23d 169e 8d3e 6c96 abbd
000000d0: a30c 94bc 410c c43e 34a6 3e3f 8195 df3d
000000e0: 8014 313c 14d0 f0be 9734 05bf f36f 643e
000000f0: 0bdc 5a3e b5bf 493d fcac 323f a344 07be

fc2.weight f4 [180, 64]
0.8245311 1.2797749 0.19908482 -1.1966017 -0.21636449 0.011693674 0.5066071 -0.34785527
2.3950732 -0.5155292 0.3901929 -0.118713304 0.9938668 0.44812724 -0.3726592 0.08971765
0.31208143 -0.5992967 0.32039586 0.29261285 0.033896044 0.30923602 1.0930123 0.24665926
-0.6821358 0.047680087 0.63561046 0.56974274 0.3853046 0.23060496 2.7538462 0.7058897
0.73996687 0.22417203 0.2460495 0.1720749 -3.3005378 0.33550134 0.20757577 -0.5393501
0.32606146 0.37419328 0.22026554 -0.07547681 -0.061331768 -0.099459045 1.1040565 0.30350083
1.2582853 0.021560488 0.056789808 0.11392734 -0.05058182 0.30802992 0.09536044 0.28562775
1.2780257 0.07553807 1.033435 -0.32467973 0.38026884 1.7334274 -0.04621978 0.53885823
-0.03088963 0.021229804 -0.10336861 0.09649439 0.057134718 0.00026333332 0.0071756244 -0.00020670891
0.03769034 -0.107170686 -0.06714238 0.042523667 -0.03368482 -0.062067226 0.04429835 -0.06251708
-0.036171332 0.050484657 -0.032834277 -0.054767773 0.04223582 0.012977093 0.059838414 -0.045172065
0.0542901 -0.110821545 -0.03303343 -0.0814271 -0.07366772 -0.10349533 -0.065376505 0.024399266
-0.017205328 -0.12061274 0.015420973 -0.0025195926 -0.1118546 0.064151466 0.019501507 -0.08274841
0.090312585 -0.029165804 -0.10826498 -0.1198525 -0.09768881 0.11470224 0.075754195 0.07996076
-0.09000984 0.018696532 -0.043236926 -0.120472044 0.037808552 -0.001519382 -0.10186149 -0.12462661
0.006129101 -0.030667052 0.0492751 0.025615096 0.036983088 -0.034318462 0.04331827 -0.07127403
-0.05665283 0.84039354 -0.10139055 -0.04752773 -0.0912815 0.2999559 -0.14035107 -0.56593823
-0.20417647 -0.6268084 0.45786217 -0.12288475 0.4972362 1.3292897 -0.11568099 -0.0641606
-0.13998273 -0.618517 -0.24672225 0.6759565 0.17295709 0.12112887 1.014077 0.22533362
-0.54632497 0.28206518 0.1288693 0.05092593 0.71027994 -0.29118058 -0.23428544 -0.15876003
1.2312781 0.62771934 0.15353361 -0.50572133 0.1768503 0.8757557 -0.34474373 -1.5905287
-0.51126206 -0.11211917 0.1672201 0.7003434 -0.05191796 0.027018404 -0.043293852 0.0595814
1.6833005 0.22924958 0.26029894 0.3707709 0.39570415 0.18033293 0.14708394 0.4534933
0.71003705 0.091251865 0.059956852 -0.06887909 0.77115214 -0.36606187 0.5660718 1.0204477
0.06633732 -0.03340186 0.0077593774 0.08932109 -0.0074395537 0.09532061 0.013748497 -0.0047225505
-0.0007034838 0.101901606 0.05222273 -0.08454293 -0.0805715 0.021828711 -0.11582546 -0.11872096
0.013750151 -0.045636147 -0.01774612 -0.08296676 0.07936652 -0.025551766 -0.07780437 -0.024054483
-0.05674997 0.07353848 0.013883457 -0.054498926 -0.039818943 -0.07245302 -0.069258675 -0.108372
-0.066969424 -0.07781595 0.058368802 -0.109911874 0.05042383 -0.0898363 0.049305707 0.094174
-0.053684548 -0.071426585 -0.008134887 -0.107113555 -0.057204276 -0.03637114 0.06366104 -0.11848663
0.015962318 -0.08511016 -0.06251305 -0.092462525 -0.07559976 -0.044860885 -0.083722085 -0.08002648
-0.060203493 -0.0033979565 -0.094955444 -0.0019390285 0.032943323 0.10021329 -0.033808842 -0.105502754
00000000: 7814 533f aacf a33f e4dc 4b3e 3f2a 99bf
00000010: a78e 5dbe d396 3f3c 01b1 013f 161a b2be
00000020: e148 1940 b9f9 03bf 5dc7 c73e f61f f3bd
00000030: 0e6e 7e3f ef70 e53e 30cd bebe e3bd b73d
00000040: 23c9 9f3e 826b 19bf ed0a a43e 5ad1 953e
00000050: 94d6 0a3d 2f54 9e3e d4e7 8b3f 3f94 7c3e
00000060: 74a0 2ebf 324c 433d 5eb7 223f a9da 113f
00000070: a546 c53e b523 6c3e 043f 3040 30b5 343f
00000080: 786e 3d3f 5a8d 653e 66f4 7b3e 6734 303e
00000090: 033c 53c0 d5c6 ab3e be8e 543e d912 0abf
000000a0: 87f1 a63e 4396 bf3e 4a8d 613e 9693 9abd
000000b0: 0537 7bbd 2fb1 cbbd b951 8d3f 7664 9b3e
000000c0: 7e0f a13f 9f9f b03c 6e9c 683d bd52 e93d
000000d0: e22e 4fbd 19b6 9d3e 564c c33d cd3d 923e
000000e0: 5996 a33f b4b3 9a3d 9947 843f 6c3c a6be
000000f0: 99b2 c23e f3e0 dd3f f450 3dbd 9df2 093f
00000100: 400c fdbc 20ea ad3c ecb2 d3bd da9e c53d
00000110: 1806 6a3d 0010 8a39 8021 eb3b 00c0 58b9
00000120: 3061 1a3d 4e7c dbbd f281 89bd 4c2d 2e3d
00000130: 18f9 09bd 343a 7ebd 3072 353d f408 80bd
00000140: 6428 14bd 00c9 4e3d 3c7d 06bd 2c54 60bd
00000150: 78ff 2c3d e09d 543c 2019 753d 5806 39bd
00000160: 4c5f 5e3d 68f6 e2bd 104e 07bd 40c3 a6bd
00000170: 1adf 96bd 5cf5 d3bd 1ee4 85bd f8e0 c73c
00000180: 30f2 8cbc d003 f7bd 40a8 7c3c c01f 25bb
00000190: 0614 e5bd d861 833d a0c1 9f3c 0078 a9bd
000001a0: cef5 b83d 20ed eebc 08ba ddbd 3a75 f5bd
000001b0: 1211 c8bd 02e9 ea3d 0425 9b3d 78c2 a33d
000001c0: 1457 b8bd 7829 993c 3419 31bd 0cba f6bd
000001d0: 24dd 1a3d 0026 c7ba c29c d0bd 3c3c ffbd
000001e0: a0d6 c83b 7839 fbbc b0d4 493d c0d6 d13c
000001f0: 947b 173d 8491 0cbd 806e 313d 1ef8 91bd
00000200: cc0c 68bd 0824 573f d9a5 cfbd 70ac 42bd
00000210: ccf1 babd d293 993e 31b8 0fbe 54e1 10bf
00000220: a313 51be 8476 20bf e96c ea3e 00ab fbbd
00000230: be95 fe3e 2a26 aa3f 28ea ecbd a266 83bd
00000240: a257 0fbe 2157 1ebf c2a4 7cbe 7c0b 2d3f
00000250: aa1b 313e 6a12 f83d 46cd 813f dbbd 663e
00000260: f4db 0bbf d96a 903e 50f6 033e b597 503d
00000270: e8d4 353f 9f15 95be 86e8 6fbe fd91 22be
00000280: 859a 9d3f 37b2 203f ea37 1d3e f476 01bf
00000290: 3f18 353e 8731 603f 4082 b0be 7296 cbbf
000002a0: 12e2 02bf bc9e e5bd bf3b 2b3e b449 333f
000002b0: eda7 54bd b355 dd3c e554 31bd a00b 743d
000002c0: 6476 d73f 67c0 6a3e e745 853e afd5 bd3e
000002d0: bc99 ca3e 32a9 383e 2c9d 163e 4630 e83e
000002e0: fdc4 353f 42e2 ba3d 5195 753d 7b10 8dbd
000002f0: 3a6a 453f 766c bbbe 15ea 103f 089e 823f
00000300: dcdb 873d 64d0 08bd 6042 fe3b faed b63d
00000310: 80c7 f3bb 7437 c33d 6041 613c a0bf 9abb
00000320: 006a 38ba cab1 d03d 80e7 553d d824 adbd
00000330: ac02 a5bd 20d2 b23c e635 edbd fa23 f3bd
00000340: 5048 613c f8ec 3abd 5060 91bc 7aea a9bd
00000350: ea8a a23d f051 d1bc e657 9fbd e80d c5bc
00000360: a872 68bd 589b 963d 7077 633c 443a 5fbd
00000370: 3019 23bd 4062 94bd 7ed7 8dbd 24f2 ddbd
00000380: 4427 89bd f85d 9fbd 2014 6f3d 7a19 e1bd
00000390: 3889 4e3d 18fc b7bd c8f4 493d 4cde c03d
000003a0: 54e4 5bbd 1a48 92bd 3048 05bc 5a5e dbbd
000003b0: 084f 6abd e8f9 14bd b860 823d 1ea9 f2bd
000003c0: 68c3 823c 3c4e aebd d806 80bd fe5c bdbd
000003d0: 0cd4 9abd 0cc0 37bd 7c76 abbd ece4 a3bd
000003e0: f097 76bd 40b0 5ebb 0078 c2bd 0027 feba
000003f0: 94ef 063d a03c cd3d 247b 0abd d411 d8bd

fc2.bias f4 [180]
0.36336935 -0.080995515 0.17501487 -0.115963906 0.39255583 0.22723709 0.07540054 0.3793879
-0.05433784 -0.12109355 0.54757285 0.38031638 0.36925584 -0.039895315 0.0027788733 -0.20927063
-0.0351153 -0.09725068 -0.21186273 -0.042776335 0.46327624 -0.16683966 -0.010942447 -0.025211139
0.06369933 -0.0015988196 -0.09406013 0.046503313 -0.026421124 0.0014032464 0.73986423 0.35121387
-0.15586136 0.04612768 0.40736857 0.4310261 0.2965909 0.1799696 -0.06413167 0.36341393
-0.17868254 0.25870773 0.15186709 0.20679528 -0.05170126 -0.19724683 0.32328725 -0.14798518
0.0087809125 -0.17953627 -0.03344925 0.0023986094 -0.054530695 -0.114466764 0.016340327 -0.0088828225
-0.12756579 -0.027330652 -0.14193043 -0.022737795 0.31016785 -0.10223295 -0.050766524 -0.16785371
-0.1008684 0.66438603 0.6824098 0.04450818 -0.103594415 -0.19628404 0.19620167 0.20844506
-0.17001352 0.11228357 -0.07954628 -0.07731157 0.15843087 0.25464395 -0.19666378 -0.16089639
0.040174894 -0.089936666 -0.11360372 -0.33750924 0.01953896 -0.15062077 -0.1529715 -0.12441827
-0.01950179 -0.23108234 -0.088214934 -0.030063385 -0.1288833 -0.17696811 -0.03355426 -0.35718822
-0.07083724 -0.36536923 -0.13997169 -0.021748211 -0.07872468 -0.048811797 0.5834013 0.6135283
-0.11326684 0.15821464 0.43486497 -0.18140137 -0.077516645 -0.12631768 -0.07715245 0.09413446
0.13327694 -0.06904406 -0.22513932 -0.04189803 -0.09221195 -0.21470006 -0.13228855 0.29404998
-0.06909841 -0.08230395 -0.118628435 -0.16622782 -0.08803592 -0.08905253 -0.18341403 -0.09629277
-0.15764247 0.51543164 -0.15985604 -0.024003863 -0.11330624 -0.023567814 -0.21137926 -0.1310225
0.0064105275 0.094645225 0.31699342 0.35167807 0.32516468 0.09106424 0.44444594 1.1342773
0.24712336 0.16502127 -0.0384486 0.30042183 0.18292776 0.69736075 -0.00451275 -0.011500828
-0.015622911 -0.14088637 0.27323967 -0.068208955 -0.1018979 -0.12526591 -0.14113188 -0.16376245
-0.18032497 0.099409595 -0.1822539 -0.17902724 -0.12062702 -0.002600444 -0.10873992 0.12953825
-0.051934194 -0.13456626 -0.15079552 -0.051851556 -0.094873644 0.43519625 0.1261203 0.32400525
-0.018764373 -0.10178979 -0.30517787 0.30311564
00000000: 8c0b ba3e fae0 a5bd 1937 333e 7c7e edbd
00000010: 14fd c83e d7b0 683e 996b 9a3d 213f c23e
00000020: 5b91 5ebd e5ff f7bd bc2d 0c3f d4b8 c23e
00000030: 1a0f bd3e 4569 23bd c21d 363b 0a4b 56be
00000040: 10d5 0fbd 5d2b c7bd 8bf2 58be 3d36 2fbd
00000050: 8b32 ed3e 04d8 2abe f347 33bc 9787 cebc
00000060: cb74 823d 7c8f d1ba 99a2 c0bd 427a 3e3d
00000070: 1d71 d8bc 23ed b73a be67 3d3f 4ed2 b33e
00000080: 1f9a 1fbe 61f0 3c3d 9d92 d03e 74af dc3e
00000090: c3da 973e f349 383e 7757 83bd 6411 ba3e
000000a0: 8ef8 36be 5775 843e 0c83 1b3e 24c2 533e
000000b0: b3c4 53bd 13fb 49be e885 a53e 6d89 17be
000000c0: d1dd 0f3c 5bd8 37be 1502 09bd fd31 1d3b
000000d0: 945b 5fbd 8d6d eabd 26dc 853c 4289 11bc
000000e0: 9ba0 02be 88e4 dfbc 3656 11be 9d44 babc
000000f0: 52ce 9e3e 825f d1bd 8ff0 4fbd d8e1 2bbe
00000100: 1794 cebd 3415 2a3f 69b2 2e3f 364e 363d
00000110: 4f29 d4bd affe 48be 17e9 483e 9f72 553e
00000120: 0618 2ebe eef4 e53d 29e9 a2bd 8755 9ebd
00000130: b43b 223e b160 823e 3b62 49be 06c2 24be
00000140: 6e8e 243d b730 b8bd 11a9 e8bd 03ce acbe
00000150: 2b10 a03c 553c 1abe 90a4 1cbe 02cf febd
00000160: 38c2 9fbc d9a0 6cbe 08aa b4bd 7d47 f6bc
00000170: fcf9 03be 2137 35be 3170 09bd 60e1 b6be
00000180: 1d13 91bd ad11 bbbe bd54 0fbe 4e29 b2bc
00000190: 683a a1bd e1ee 47bd ca59 153f 3110 1d3f
000001a0: 72f8 e7bd 0503 223e 9fa6 de3e 48c1 39be
000001b0: 0cc1 9ebd 6c59 01be 1b02 9ebd 91c9 c03d
000001c0: c079 083e f966 8dbd ec8a 66be 459d 2bbd
000001d0: 9ed9 bcbd 55da 5bbe a676 07be b88d 963e
000001e0: 7883 8dbd f98e a8bd 77f3 f2bd a037 2abe
000001f0: 2d4c b4bd 2c61 b6bd e3d0 3bbe 2535 c5bd
00000200: 076d 21be 54f3 033f 4db1 23be c0a3 c4bc
00000210: 1a0d e8bd 4a11 c1bc ce73 58be c32a 06be
00000220: 670f d23b 5bd5 c13d f64c a23e 260f b43e
00000230: fc7b a63e e37f ba3d 6b8e e33e 0030 913f
00000240: e80d 7d3e 56fb 283e 477c 1dbd e4d0 993e
00000250: 6a51 3b3e 3c86 323f b1df 93bb f86d 3cbc
00000260: 3df7 7fbc 8444 10be 12e6 8b3e 23b1 8bbd
00000270: d9af d0bd b545 00be e084 10be 58b1 27be
00000280: 1ca7 38be 4297 cb3d c4a0 3abe eb52 37be
00000290: 4d0b f7bd 366c 2abb 09b3 debd ada5 043e
000002a0: f3b8 54bd bdcb 09be 246a 1abe 4c62 54bd
000002b0: 1d4d c2bd 0bd2 de3e ae25 013e 04e4 a53e
000002c0: beb7 99bc 2a77 d0bd 4640 9cbe f931 9b3e

conv.weight f4 [5, 1, 34, 34]
-0.37556016 -0.32271528 -0.3512877 -0.37003067 -0.43764853 -0.37991098 -0.43223462 -0.33131552
-0.3080012 -0.4405063 -0.29740468 -0.08183463 -0.16046299 -0.085388914 -0.090495296 -0.16145335
-0.12543026 -0.110538825 0.06796971 -0.026789343 -0.1145135 -0.18409917 -0.31781322 -0.20026211
-0.16171215 -0.1602272 -0.09508248 -0.19560587 -0.1285761 0.02239909 0.06657096 -0.0035376586
0.114086315 0.10209529 -0.4321493 -0.34254763 -0.36992508 -0.33719388 -0.3700536 -0.42680195
-0.4382414 -0.36206535 -0.2937993 -0.34577164 -0.21364795 -0.13138336 -0.16697563 -0.109730534
-0.175128 -0.17134576 -0.14594325 -0.10737438 0.075928405 -0.011636766 0.037269164 -0.20481613
-0.24723884 -0.26423994 -0.23752789 -0.30517256 -0.16212375 -0.0961814 -0.1922057 -0.011357211
-0.032936815 0.037115917 0.2256966 0.14492993 -0.37171644 -0.3882553 -0.4284326 -0.42318246
-0.37254518 -0.37142125 -0.3306723 -0.3339602 -0.34858444 -0.34881675 -0.15289633 -0.085613675
-0.1253472 -0.10758631 -0.18518856 -0.100048006 -0.1309605 -0.13987125 0.050918188 0.061190702
-0.024388617 -0.231095 -0.13367447 -0.11459799 -0.4192365 -0.20890856 -0.22356561 -0.18457468
-0.057992384 0.018778956 0.08573905 -0.009266373 -0.030577697 -0.038458806 -0.4410969 -0.4252051
-0.4244699 -0.43187243 -0.41566917 -0.4591172 -0.4577996 -0.44463894 -0.39175126 -0.3339311
-0.20357497 -0.13106912 -0.13630128 -0.12777843 -0.17805587 -0.22182451 -0.198099 -0.16839978
-0.086155035 0.07012916 0.06882641 -0.06735634 -0.061607964 -0.005354806 -0.25898302 -0.10020089
-0.15437086 -0.15632567 0.04453312 0.018780747 0.020923056 0.028512001 -0.024821453 -0.20007364
-0.4690405 -0.39052522 -0.5237051 -0.4112582 -0.46531153 -0.53114426 -0.4675145 -0.49302587
-0.36106625 -0.31170148 -0.2695143 -0.10101797 -0.07649113 -0.09425133 -0.14050856 -0.25078902
-0.17398527 -0.12337457 0.13013393 0.25363213 0.2572601 -0.033090293 -0.11607731 -0.13254677
-0.19048913 0.060218174 0.029336639 0.1702895 0.050555866 0.03200079 0.17302164 0.30399624
0.19283739 0.2304128 -0.4665272 -0.43213454 -0.45485348 -0.42819884 -0.45792004 -0.4411154
-0.38764966 -0.48298877 -0.3188815 -0.3228877 -0.32759756 -0.17652102 -0.17295748 -0.09257775
-0.2358459 -0.010064327 0.007070156 -0.06984677 0.04247011 0.14475071 0.2116331 0.013132552
-0.021796469 -0.04497601 -0.24131568 0.072662316 0.046243783 0.05255397 0.0863903 0.05535212
0.15967008 0.27251437 0.23688258 0.18340635 -0.47339287 -0.42358273 -0.39922777 -0.45664507
-0.4891828 -0.3805358 -0.38440332 -0.33926904 -0.3322427 -0.27018902 -0.35699368 -0.3999211
-0.23631874 -0.15983067 -0.25836527 -0.16034645 -0.062302247 0.04593381 0.07713453 0.15967232
0.035689294 -0.05438491 -0.08275868 -0.021904565 -0.2313185 -0.25525352 -0.014778287 -0.15878746
-0.009913375 0.038517043 0.113427 0.024989314 0.24149197 0.25651407 -0.5504284 -0.44955972
-0.43132707 -0.4609103 -0.42607024 -0.5232776 -0.49500805 -0.3422916 -0.4080716 -0.38755462
-0.46218145 -0.49288577 -0.3494838 -0.2465269 -0.21407525 -0.24124104 -0.19659467 -0.08531915
00000000: 6c49 c0be f03a a5be fbdb b3be a974 bdbe
00000010: 7813 e0be b183 c2be db4d ddbe 30a2 a9be
00000020: 55b2 9dbe 0b8a e1be 6d45 98be ea98 a7bd
00000030: 6950 24be 62e0 aebd 9955 b9bd 0754 25be
00000040: ca70 00be 2e62 e2bd b433 8b3d 5375 dbbc
00000050: 0e86 eabd 7e84 3cbe 6ab8 a2be 8311 4dbe
00000060: df97 25be 9912 24be 9aba c2bd e84c 48be
00000070: 74a9 03be 4c7e b73c 5b56 883d 10d8 67bb
00000080: 16a6 e93d 5617 d13d ac42 ddbe 6762 afbe
00000090: d266 bdbe ada4 acbe aa77 bdbe c985 dabe
000000a0: 2d61 e0be a160 b9be dd6c 96be fb08 b1be
000000b0: 87c6 5abe 5c89 06be a9fb 2abe 67ba e0bd
000000c0: c154 33be 4375 2fbe 2672 15be 19e7 dbbd
000000d0: 5a80 9b3d 22a8 3ebc 8da7 183d 52bb 51be
000000e0: 2e2c 7dbe 754a 87be 833a 73be 943f 9cbe
000000f0: c503 26be c1fa c4bd 92d1 44be 9813 3abc
00000100: c1e8 06bd dc06 183d 021d 673e 8368 143e
00000110: 9e51 bebe 66c9 c6be 855b dbbe 5fab d8be
00000120: 3ebe bebe ed2a bebe e14d a9be d5fc aabe
00000130: a979 b2be 1c98 b2be db90 1cbe 3956 afbd
00000140: 045b 00be 3656 dcbd 12a2 3dbe f8e5 ccbd
00000150: 821a 06be 693a 0fbe 978f 503d 1aa3 7a3d
00000160: a3ca c7bc 2ba4 6cbe f6e1 08be 5ab2 eabd
00000170: 2ba6 d6be 20ec 55be 62ee 64be 2501 3dbe
00000180: 6c89 6dbd 53d6 993c f497 af3d fcd1 17bc
00000190: 147e fabc fb86 1dbd 74d7 e1be 7cb4 d9be
000001a0: 1e54 d9be 621e ddbe 97d2 d4be 6911 ebbe
000001b0: b664 eabe b7a7 e3be 9f93 c8be 04f9 aabe
000001c0: f575 50be fc36 06be 9092 0bbe 59d8 02be
000001d0: 4754 36be f725 63be 77da 4abe fe70 2cbe
000001e0: 0d72 b0bd e19f 8f3d dcf4 8c3d 1ff2 89bd
000001f0: a258 7cbd 5e77 afbb 6c99 84be 2036 cdbd
00000200: 6513 1ebe d613 20be 5c68 363d 15da 993c
00000210: d466 ab3c 0092 e93c 5c56 cbbc 1be0 4cbe
00000220: 1426 f0be ecf2 c7be 8a11 06bf 6f90 d2be
00000230: 503d eebe 12f9 07bf 0f5e efbe e36d fcbe
00000240: addd b8be 5697 9fbe c7fd 89be 82e2 cebd
00000250: 62a7 9cbd d706 c1bd 7ae1 0fbe 6b67 80be
00000260: 3229 32be ceab fcbd d441 053e 12dc 813e
00000270: 99b7 833e b089 07bd f1b9 edbd 57ba 07be
00000280: 950f 43be 55a7 763d 6453 f03c 5f60 2e3e
00000290: ab13 4f3d 4313 033d 962c 313e 65a5 9b3e
000002a0: 2a77 453e 55f1 6b3e a7dc eebe bd40 ddbe
000002b0: 8ee2 e8be e13c dbbe 7f74 eabe e1d9 e1be
000002c0: 047a c6be 4e4a f7be 7044 a3be 8951 a5be
000002d0: deba a7be edc1 34be c41b 31be 6799 bdbd
000002e0: 9681 71be d9e4 24bc c4ac e73b d30b 8fbd
000002f0: 23f5 2d3d 8839 143e 59b6 583e ea29 573c
00000300: 828e b2bc c438 38bd 751b 77be fbcf 943d
00000310: 1f6a 3d3d d542 573d 66ed b03d e8b8 623d
00000320: 8e80 233e 0187 8b3e 5991 723e e0ce 3b3e
00000330: 8d60 f2be d6df d8be 9567 ccbe 62cd e9be
00000340: 2b76 fabe 97d5 c2be 83d0 c4be acb4 adbe
00000350: b71b aabe 3756 8abe e0c7 b6be 75c2 ccbe
00000360: 8afd 71be a7aa 23be 7448 84be dc31 24be
00000370: a430 7fbd 1725 3c3d b5f8 9d3d 2481 233e
00000380: f02e 123d b6c2 5ebd 627d a9bd 3471 b3bc
00000390: c2de 6cbe 97b0 82be a120 72bc 2e99 22be
000003a0: b56b 22bc 0cc4 1d3d 6a4c e83d 64b6 cc3c
000003b0: ac49 773e d055 833e e0e8 0cbf b12c e6be
000003c0: e7d6 dcbe 6ffc ebbe e125 dabe 85f5 05bf
000003d0: b271 fdbe d840 afbe c3ee d0be 8f6d c6be
000003e0: 0ca3 ecbe 865b fcbe 8aef b2be 8c71 7cbe
000003f0: 8b36 5bbe e407 77be 1d50 49be cebb aebd

conv.weight f4 [5, 1, 10, 10]
0.110550016 -0.038350485 -0.077428736 0.035288934 -0.1378357 -0.0827498 -0.0013942837 -0.07996536
-0.021344066 0.061421704 0.12596521 0.09645532 -0.08951706 -0.015758585 0.0012874871 -0.17727849
-0.14505666 -0.08093076 0.05724719 -0.014653078 0.033729285 -0.06502752 0.017101025 -0.13561583
-0.15797815 0.014537837 -0.10637562 0.027348438 -0.026215417 0.07816212 -0.005867179 0.034457285
0.02128355 -0.10710018 -0.06811695 -0.10176624 -0.1590504 0.0027048194 -0.019963186 -0.061832495
-0.01800088 -0.032737564 0.021105422 -0.00240295 -0.12442273 -0.04924242 -0.078469925 0.0390637
-0.07026594 0.0144741135 0.02817055 -0.021075567 -0.12959349 -0.0859068 -0.18384986 -0.109417446
0.008523299 0.05361794 -0.043681867 -0.047565065 -0.09609972 -0.08378259 -0.09158023 -0.14292394
-0.15989095 -0.0926262 0.011604902 0.023744652 0.011098024 -0.13180338 -0.044247575 -0.14972642
-0.07173172 -0.121308394 -0.17160732 -0.04414857 -0.12540485 -0.11168087 -0.017980035 0.05369774
-0.15112966 -0.0775973 -0.19285601 -0.17137662 -0.17758033 0.08305699 0.11833357 0.07763677
0.14729649 0.012224663 -0.030015942 0.016857693 0.04025473 0.06858107 0.092748374 0.03778379
0.018533746 -0.06097959 0.08608196 0.07367713 -0.1545977 -0.053388897 0.012088365 -0.10400425
-0.08856356 -0.037939694 0.03871884 -0.056194004 -0.06924396 -0.12352839 -0.054327287 -0.1261808
-0.073433556 -0.0019375911 0.0037900726 -0.027027173 -0.09967122 -0.036767103 -0.0346966 -0.1378254
-0.11336231 -0.008191544 -0.022925317 -0.067138255 0.027923247 0.058468446 -0.12833396 -0.050445165
-0.11990202 -0.047813475 -0.00573064 -0.08462581 -0.050344504 -0.085949965 -0.08879742 -0.073649734
-0.12026228 -0.09432638 -0.070262596 -0.09528492 -0.09234728 -0.12536862 -0.13129094 -0.08689186
-0.040624082 -0.044653013 -0.011438607 -0.05122543 -0.14300798 0.0054661753 0.039421737 -0.014343289
-0.02755406 -0.09188657 -0.053593982 -0.023532396 -0.020989079 -0.10825938 -0.1289731 -0.07839914
-0.03540906 -0.014478797 0.024654334 -0.056144323 0.014975608 0.0051027825 -0.016147714 -0.00010202175
-0.14423548 -0.14884004 0.0040507093 -0.032697015 -0.096845195 0.026978336 -0.11103645 -0.030012852
-0.04256154 0.049170833 -0.08441895 -0.0014429445 -0.1699997 -0.16912147 -0.012898524 0.011901205
-0.00345809 -0.007788362 -0.06652257 -0.046005588 -0.13193615 -0.13316935 -0.0006915274 -0.14276473
-0.14839895 -0.06597716 -0.04537492 -0.017882124 -0.12074615 -0.1417267 0.14084426 0.08928827
-0.086729325 0.019153481 -0.14201964 -0.11046942 -0.17281683 0.25912353 0.123387046 0.068576105
0.20668851 0.117237665 -0.0554681 -0.13512056 -0.14829253 -0.088645816 -0.13594821 -0.06911249
-0.06774279 0.23725863 0.07121258 0.03041197 0.03839259 0.024554856 -0.10669278 -0.117203265
-0.017576681 0.003900234 0.035043247 -0.13700849 0.06812291 0.18491144 -0.12885842 -0.0052077807
0.056210943 -0.020479547 -0.03878947 -0.06542112 -0.11766044 -0.14692427 0.020056263 0.07832125
0.011731203 -0.05371418 0.02877625 -0.12703884 -0.009348497 0.024831146 -0.051487 -0.13973136
-0.04505592 -0.07927989 0.015975244 0.004407784 -0.1161663 -0.12191416 -0.08464413 -0.11329736
00000000: 0c68 e23d 6615 1dbd f592 9ebd 218b 103d
00000010: cd24 0dbe ba78 a9bd 66c0 b6ba e1c4 a3bd
00000020: c0d9 aebc 5395 7b3d 06fd 003e 5e8a c53d
00000030: b854 b7bd 2618 81bc e6c0 a83a 7e88 35be
00000040: bc89 14be 07bf a5bd 087c 6a3d 7713 70bc
00000050: b827 0a3d 262d 85bd 7317 8c3c e0de 0abe
00000060: 06c5 21be 1c30 6e3c 76db d9bd d509 e03c
00000070: b7c1 d6bc 7613 a03d 7741 c0bb 1523 0d3d
00000080: d75a ae3c 5757 dbbd e680 8bbd d26a d0bd
00000090: 1cde 22be 5743 313b d689 a3bc 1244 7dbd
000000a0: 9576 93bc d317 06bd 47e5 ac3c d07a 1dbb
000000b0: 58d1 febd 6bb2 49bd d7b4 a0bd 4201 203d
000000c0: 97e7 8fbd d524 6d3c edc5 e63c aba6 acbc
000000d0: 28b4 04be e8ef afbd 2343 3cbe 4116 e0bd
000000e0: 4fa5 0b3c 7c9e 5b3d c2eb 32bd 96d3 42bd
000000f0: eecf c4bd 3596 abbd 6a8e bbbd a75a 12be
00000100: 74ba 23be ceb2 bdbd 7d22 3e3c 2584 c23c
00000110: 7dd4 353c 77f7 06be f23c 35bd e251 19be
00000120: 14e8 92bd 8970 f8bd d4b9 2fbe 22d5 34bd
00000130: 216a 00be f1b8 e4bd de4a 93bc 29f2 5b3d
00000140: bcc1 1abe 55eb 9ebd 0c7c 45be 5a7d 2fbe
00000150: 9ed7 35be c819 aa3d df58 f23d 0700 9f3d
00000160: e4d4 163e f449 483c fee3 f5bc 2519 8a3c
00000170: 25e2 243d 3b74 8c3d dcf2 bd3d 2dc3 1a3d
00000180: 15d4 973c bcc5 79bd bd4b b03d 09e4 963d
00000190: dc4e 1ebe 51ae 5abd 470e 463c 2e00 d5bd
000001a0: d060 b5bd a766 1bbd a597 1e3d af2b 66bd
000001b0: c7cf 8dbd 74fc fcbd 4a86 5ebd 8a35 01be
000001c0: 5564 96bd c5f6 fdba de62 783b 1768 ddbc
000001d0: 6d20 ccbd 1a99 16bd 061e 0ebd 1a22 0dbe
000001e0: 802a e8bd d335 06bc e0cd bbbc c87f 89bd
000001f0: 4bbf e43c 9c7c 6f3d fa69 03be 979f 4ebd
00000200: 318f f5bd 10d8 43bd 18c8 bbbb 4c50 adbd
00000210: 0a36 4ebd 8906 b0bd 6cdb b5bd acd5 96bd
00000220: 124c f6bd 302e c1bd d6e5 8fbd bd24 c3bd
00000230: 9220 bdbd a260 00be 2271 06be 5cf4 b1bd
00000240: 7065 26bd 14e6 36bd ff68 3bbc c2d1 51bd
00000250: af70 12be 9a1d b33b b078 213d 1d00 6bbc
00000260: 0db9 e1bc 072f bcbd 5d85 5bbd 03c7 c0bc
00000270: 4af1 abbc 18b7 ddbd 8611 04be ba8f a0bd
00000280: 1709 11bd 7a38 6dbc e3f7 c93c 97f7 65bd
00000290: 415c 753c 3e35 a73b 3648 84bc 83f4 d5b8
000002a0: 77b2 13be 8669 18be d0bb 843b 4eed 05bd
000002b0: c656 c6bd ac01 dd3c 1467 e3bd 83dd f5bc
000002c0: 0255 2ebd 5b67 493d d8e3 acbd 2f21 bdba
000002d0: 6714 2ebe 2e2e 2dbe 5554 53bc 46fd 423c
000002e0: 1fa1 62bb 8435 ffbb fc3c 88bd 5b70 3cbd
000002f0: 451a 07be 8c5d 08be 9e47 35ba eb30 12be
00000300: e5f5 17be 091f 87bd 0ddb 39bd 887d 92bc
00000310: c249 f7bd ce20 11be 7a39 103e c5dc b63d
00000320: 259f b1bd c3e7 9c3c 996d 11be cb3d e2bd
00000330: e5f6 30be d7ab 843e 59b2 fc3d a171 8c3d
00000340: 27a6 533e 4d1a f03d 8532 63bd 0b5d 0abe
00000350: ffd9 17be f08b b5bd 0236 0bbe d98a 8dbd
00000360: bbbc 8abd edf3 723e e7d7 913d 8622 f93c
00000370: 8c41 1d3d 4427 c93c bf81 dabd 4408 f0bd
00000380: f9fc 8fbc 119b 7f3b 8289 0f3d f44b 0cbe
00000390: 0684 8b3d 6d59 3d3e 76f3 03be 08a6 aabb
000003a0: 723d 663d b9c4 a7bc b5e1 1ebd 82fb 85bd
000003b0: f5f7 f0bd 5173 16be 084d a43c e466 a03d
000003c0: 3b34 403c 6603 5cbd 2cbc eb3c 7816 02be
000003d0: 702a 19bc b06a cb3c 08e4 52bd bd15 0fbe
000003e0: 8e8c 38bd 7f5d a2bd 84de 823c 2c6f 903b
000003f0: 99e8 edbd 22ae f9bd e759 adbd 7208 e8bd

conv.bias f4 [5]
-0.11313812 0.09537654 -0.018766316 0.07949101 0.1777682
00000000: f5b4 e7bd c754 c33d d1bb 99bc 2fcc a23d
00000010: de08 363e

fc1.weight f4 [64, 180]
0.024545819 -0.026176121 -0.06305221 -0.012264144 0.020558737 -0.016626906 0.059502788 0.00210803
-0.07626294 0.0039556543 0.006290786 0.028636537 0.037039205 -0.13172656 -0.053541947 -0.05728273
-0.1256009 0.025751531 -0.05599028 0.0015776244 0.0030933022 -0.06460622 -0.07810379 0.025316447
-0.014878511 -0.051852815 -0.079400316 -0.051472303 -0.079133734 -0.042652793 -0.018409502 0.060131498
0.03435971 0.0022994727 0.07261824 0.037582286 0.0023520533 0.010819738 -0.05775369 -0.045931377
-0.078408666 -0.09529917 0.0077496674 -0.024971962 -0.109029904 -0.0023127608 -0.06856994 -0.031075045
-0.024018556 -0.002671899 -0.054794915 -0.12523367 -0.038008112 -0.041100476 -0.02605524 -0.10481912
-0.030254925 -0.016831035 -0.03698097 -0.097496614 -0.042530853 -0.043104436 -0.027835991 -0.011957383
-0.055919796 -0.13293867 0.0022283045 -0.010450565 -0.09643066 -0.04360658 -0.09820343 -0.009414331
0.032324202 -0.011257045 -0.019625735 -0.057934344 0.036444724 -0.061165195 -0.015387349 -0.053934604
-0.044129323 -0.10236955 0.029925317 -0.023176245 -0.033697538 -0.06272453 0.02547118 -0.032663085
-0.09296659 0.0072809607 -0.07201316 0.038758747 -0.054316495 0.023624234 -0.09595089 0.017111845
0.028925166 -0.094663166 0.0064062863 -0.0092359185 -0.042031024 0.060959138 0.011743523 -0.0140640475
-0.055769797 -0.028999079 0.00922364 0.052359886 -0.076555476 -0.026411429 -0.02031693 -0.12363033
-0.12806551 -0.022732327 -0.06870786 -0.08175203 -0.064011015 -0.08130658 0.013137281 0.014692651
-0.007516537 -0.019718727 -0.041346423 -0.114644326 -0.06746479 -0.018249756 -0.07669793 -0.027663117
-0.044425137 0.012461883 -0.064657316 -0.03080827 -0.12106951 -0.12904517 -0.04421134 0.0056454884
-0.011553453 -0.06625093 -0.07233573 -0.0929722 0.01472494 -0.05798117 -0.12113171 -0.0063610347
-0.08229409 -0.028507674 -0.031297 -0.019599782 -0.11269946 -0.08533201 -0.069805816 -0.074919075
-0.08162969 -0.0034011698 -0.08824813 -0.09650867 -0.010105078 -0.055158846 -0.05661925 -0.0018744096
-0.13237433 -0.12818879 -0.0894725 -0.020836242 0.05477511 -0.05599473 -0.008251249 -0.12540966
-0.05500416 -0.022709537 -0.099642515 -0.04160003 -0.10927197 0.0020170535 -0.11755588 -0.033506487
-0.043235913 -0.04663174 -0.118807085 -0.11272384 -0.023587074 -0.041079894 0.04571954 0.06389078
-0.03437812 0.024528213 -0.035977997 0.0059514344 -0.051502224 0.004737735 0.007571414 -0.027127802
-0.06888264 -0.052206345 -0.028472446 -0.044340774 0.019995496 0.0221188 -0.013881329 -0.051591434
0.019546978 -0.01599804 0.037239783 -0.021072738 -0.003718719 0.0053652003 -0.06172317 -0.010022759
-0.048598863 0.02040618 -0.040768437 -0.0043097734 -0.071527995 -0.011891559 0.05713109 -0.028594539
0.07134626 -0.041288298 0.0125155 0.032780148 0.06754167 0.06592382 -0.01468898 0.011124194
-0.06780936 0.033471413 -0.044682764 0.01624082 -0.008541092 0.027351454 -0.010187909 -0.062181972
0.007676594 -0.021662857 -0.038839128 0.027523182 0.015016191 -0.035836264 0.05944354 0.07354242
-0.010663725 -0.06560184 0.033860013 0.00844001 0.031027295 -0.027484681 0.03340584 0.0027468204
0.038598664 -0.015971392 -0.055566855 0.00024044514 0.07426954 0.023104556 0.03312932 -0.06502357
00000000: 5014 c93c 4e6f d6bc 8421 81bd 8cef 48bc
00000010: cc6a a83c 2635 88bc 32b9 733d e026 0a3b
00000020: bf2f 9cbd 6f9e 813b f022 ce3b 2c97 ea3c
00000030: 6cb6 173d 54e3 06be cd4e 5bbd 4ca1 6abd
00000040: 869d 00be e0f4 d23c 1056 65bd 4ac8 ce3a
00000050: 00b9 4a3b 4450 84bd e1f4 9fbd 7064 cf3c
00000060: 00c5 73bc 9e63 54bd a29c a2bd 9fd4 52bd
00000070: de10 a2bd b2b4 2ebd 86cf 96bc 724c 763d
00000080: c4bc 0c3d c0b2 163b dfb8 943d e2ef 193d
00000090: e824 1a3b 4545 313c 228f 6cbd 8a22 3cbd
000000a0: b994 a0bd 362c c3bd ecf0 fd3b 0092 ccbc
000000b0: 124b dfbd b091 17bb 666e 8cbd 1891 febc
000000c0: 90c2 c4bc 071b 2fbb a270 60bd 413d 00be
000000d0: 65ae 1bbd f958 28bd cc71 d5bc 68ab d6bd
000000e0: 2dd9 f7bc 3de1 89bc 5c79 17bd 4eac c7bd
000000f0: d534 2ebd 478e 30bd 4e08 e4bc e6e8 43bc
00000100: 280c 65bd 1321 08be bf08 123b d938 2bbc
00000110: 707d c5bd d09c 32bd e11e c9bd 913e 1abc
00000120: 6266 043d 786f 38bc 26c6 a0bc 904c 6dbd
00000130: 1047 153d 5b88 7abd 381b 7cbc 88ea 5cbd
00000140: f3c0 34bd 20a7 d1bd f025 f53c 1cdc bdbc
00000150: 6e06 0abd b875 80bd f0a8 d03c bac9 05bd
00000160: 4465 bebd 2095 ee3b a37b 93bd 7ec1 1e3d
00000170: f97a 5ebd 9c87 c13c e681 c4bd 242e 8c3c
00000180: 78f4 ec3c c3de c1bd d3eb d13b 4052 17bc
00000190: b928 2cbd 4ab0 793d e867 403c e46c 66bc
000001a0: df6e 64bd 7a8f edbc c01e 173c 5277 563d
000001b0: 1ec9 9cbd c85c d8bc b16f a6bc e631 fdbd
000001c0: 9b23 03be 2539 babc b5b6 8cbd 9c6d a7bd
000001d0: 3518 83bd 1084 a6bd c03d 573c 72b9 703c
000001e0: 484d f6bb 2b89 a1bc de5a 29bd a5ca eabd
000001f0: fb2a 8abd 8380 95bc ce13 9dbd c39d e2bc
00000200: 22f7 35bd ed2c 4c3c 0e6b 84bd a061 fcbc
00000210: 4bf3 f7bd 6b24 04be f316 35bd cafd b83b
00000220: b24a 3dbc 91ae 87bd c124 94bd 3568 bebd
00000230: e040 713c aa7d 6dbd e713 f8bd 3a70 d0bb
00000240: ce89 a8bd ed88 e9bc 4831 00bd b98f a0bc
00000250: f9ce e6bd 8dc2 aebd 5af6 8ebd 2c6f 99bd
00000260: 782d a7bd 29e6 5ebb 70bb b4bd 56a6 c5bd
00000270: c58f 25bc 3eee 61bd 96e9 67bd c0ae f5ba
00000280: 238d 07be ec43 03be 5c3d b7bd c4b0 aabc
00000290: de5b 603d bb5a 65bd 3f30 07bc 646b 00be
000002a0: 0b4c 61bd 5a09 babc 6011 ccbd cb64 2abd
000002b0: fcc9 dfbd 8b30 043b 23c1 f0bd 193e 09bd
000002c0: 2418 31bd ec00 3fbd 2151 f3bd c2db e6bd
000002d0: ae39 c1bc 6443 28bd 6a44 3b3d 2bd9 823d
000002e0: 12d0 0cbd 64ef c83c aa5d 13bd 4004 c33b
000002f0: fff3 52bd 003f 9b3b a019 f83b 203b debc
00000300: 5712 8dbd 52d6 55bd 0c3f e9bc ac9e 35bd
00000310: 98cd a33c 7c32 b53c 846e 63bc 8a51 53bd
00000320: fc20 a03c 520e 83bc be88 183d bca0 acbc
00000330: c0b5 73bb 90ce af3b 6fd1 7cbd 8036 24bc
00000340: 9a0f 47bd dc2a a73c cefc 26bd 0039 8dbb
00000350: 457d 92bd d0d4 42bc 4a02 6a3d 183f eabc
00000360: fd1d 923d eb1d 29bd d00d 4d3c 7a44 063d
00000370: 4953 8a3d 1103 873d 0caa 70bc 4042 363c
00000380: a2df 8abd 5219 093d 4605 37bd 780b 853c
00000390: f0ef 0bbc 2810 e03c 30eb 26bc 86b2 7ebd
000003a0: f08b fb3b 4e76 b1bc c715 1fbd 4c78 e13c
000003b0: 7806 763c 0cc9 12bd 127b 733d 699d 963d
000003c0: e8b6 2ebc 425a 86bd ccb0 0a3d f847 0a3c
000003d0: f42c fe3c 8e27 e1bc 90d4 083d 0004 343b
000003e0: a219 1e3d 70d6 82bc 129a 63bd 0020 7c39
000003f0: a11a 983d c445 bd3c 9cb2 073d 142b 85bd

fc1.bias f4 [64]
-0.030933386 0.0107614845 -0.08794096 0.01698704 -0.10539564 -0.12773044 -0.0028761262 -0.013239189
-0.023125606 -0.1108755 -0.03822838 0.06942717 -0.027848667 -0.072776236 -0.0134219825 -0.006445832
0.34474555 -0.07020596 -0.053347476 0.027218034 -0.009132829 -0.038593218 -0.06013207 0.012860723
-0.065524556 -0.039617732 -0.111989126 -0.16800752 -0.06959267 0.007502987 -0.1268643 -0.061077256
-0.0005686216 0.00018715995 -0.0011484489 -0.013522841 -0.044178024 -0.014015501 -0.0023558512 -0.10790513
0.2386987 0.0054244664 0.3314579 0.023018796 -0.06428956 0.0071702376 -0.01759891 0.048182327
0.12769447 -0.07020509 -0.074532405 -0.26088685 -0.11148993 -0.008205645 -0.020756606 0.025740243
0.17483363 -0.03739878 -0.09045418 0.13900456 0.058848817 -0.093894415 -0.01337485 -0.09752265
00000000: 0368 fdbc f050 303c 641a b4bd 6828 8b3c
00000010: abd9 d7bd c5cb 02be 647d 3cbb 2fe9 58bc
00000020: e971 bdbc b212 e3bd 5d95 1cbd d52f 8e3d
00000030: e322 e4bc b50b 95bd e0e7 5bbc 8f37 d3bb
00000040: 7d82 b03e 24c8 8fbd e282 5abd 5bf8 de3c
00000050: dca1 15bc ec13 1ebd 0c4d 76bd c8b5 523c
00000060: bd31 86bd 3446 22bd 8e5a e5bd 2a0a 2cbe
00000070: 9a86 8ebd 9edb f53b b7e8 01be 252c 7abd
00000080: 8d0f 15ba 5e40 4439 8d87 96ba e88e 5dbc
00000090: 04f4 34bd 46a1 65bc a064 1abb 5dfd dcbd
000000a0: 6f6d 743e b9bf b13b dab4 a93e ea91 bc3c
000000b0: 3faa 83bd 50f4 ea3b 972b 90bc d55a 453d
000000c0: 57c2 023e b0c7 8fbd 72a4 98bd f692 85be
000000d0: d554 e4bd f870 06bc c209 aabc 34dd d23c
000000e0: 9607 333e 772f 19bd 0b40 b9bd 3657 0e3e
000000f0: 750b 713d b74b c0bd 3022 5bbc f5b9 c7bd

fc2.weight f4 [4, 64]
-0.10356941 0.114967644 0.16474678 0.06330359 -0.027648231 0.01569269 -0.014178795 0.04121727
0.007313728 0.049487613 0.016710319 -0.025982574 -0.03572499 0.029270824 0.12268612 -0.00097339175
0.91992086 0.04614929 -0.084214985 0.0014662297 -0.068695955 -0.046460923 0.08113021 0.06461775
0.020196315 -0.11520447 -0.08081804 0.08983018 -0.027805964 0.023904089 0.05451191 0.063386925
-0.070061795 -0.0040388713 -0.082044855 -0.1089503 0.0816606 0.14373653 -0.09564631 0.037465055
0.855329 -0.17680115 0.8861241 0.19152425 -0.008031577 -0.023620963 -0.05174322 -0.05724882
0.73888826 0.118000425 0.104182124 0.086338915 -0.103524484 0.015741602 -0.08167993 0.099081516
0.8471823 0.047912966 -0.019668762 0.72238433 0.12726748 -0.15275711 -0.014317718 -0.038014147
-0.005581163 0.08581585 0.073597945 0.1246607 0.0059889546 -0.10494629 0.196595 0.0028073476
-0.09899485 -0.057031155 0.05330318 0.09559739 0.15590341 -0.06992426 -0.002846554 0.031246576
-0.16118339 0.025154117 -0.082734615 0.03499021 -0.12312307 -0.033858437 0.06378186 0.030709151
-0.028695628 0.064440876 -0.11866228 0.0043801446 -0.028914701 -0.029151527 0.017386923 -0.025294969
0.05423713 0.070911765 -0.062848315 -0.060826883 0.02757065 0.048430137 0.014246941 0.035955366
-0.16468847 0.04517448 -0.15240073 0.030916076 0.03913693 -0.052810296 0.058870234 0.076722994
-0.13113257 0.0055561983 -0.07065517 0.18968254 -0.005679379 0.11172688 0.12926762 -0.040221363
-0.147058 -0.036563613 0.049230013 -0.12817417 0.030109128 0.106655404 -0.03127172 0.067523286
0.008861311 0.10038899 0.04088681 0.048052207 0.12591186 0.012099181 0.038305186 0.10050587
0.011182532 0.03223667 0.16834486 0.01719904 0.014258884 -0.05291759 -0.08268477 -0.036489934
0.49432465 0.030145332 0.05166392 0.0783853 -0.16487059 0.10590624 0.11532478 0.024487672
0.1254395 0.050053686 -0.022058971 -0.21309306 0.10761353 0.060231544 0.0945614 0.041986007
-0.06240921 0.17246908 0.00732227 -0.050345033 -0.045863524 0.04514532 -0.12077229 -0.16755913
0.4430785 0.068712 0.4723004 -0.035937414 0.09745126 0.09863129 0.014650947 0.1472245
0.40330598 0.11489175 0.014155403 0.06562128 0.08992655 -0.033699542 0.11242851 -0.07617685
0.5110897 -0.04379218 0.04013606 0.39437354 0.08959939 0.025446694 0.030380936 0.039458662
-0.058471706 -0.037124902 0.059809532 -0.05363621 -0.0057766796 0.11624015 0.0013282549 -0.0043727867
0.032146458 0.033108663 -0.028259236 0.09161332 -0.061480593 -0.016635347 -0.04771167 0.17234205
0.14378351 0.17990969 7.800758e-05 0.13162158 -0.0057928483 0.16426988 -0.035568174 -0.084572755
-0.054806616 -0.06568053 0.13987607 0.02109686 0.010943799 -0.058217555 0.037486155 -0.063389644
0.023243288 0.06172465 0.09735989 0.09770325 -0.051154867 0.033202723 -0.092721105 -0.017010855
0.15524769 0.03992709 0.13566424 0.12326867 0.14865208 0.012344629 0.07221798 0.08554163
0.116565675 0.03312976 -0.011578485 0.05140445 -0.010970823 -0.08592926 -0.06818536 -0.0055692494
0.121389806 -0.018709816 0.14053887 0.113886766 0.09479645 -0.045277424 0.0036391756 0.16790769
00000000: 331c d4bd 2874 eb3d 61b3 283e 50a5 813d
00000010: 8b7e e2bc f58d 803c 2d4e 68bc 71d3 283d
00000020: ffa7 ef3b 86b3 4a3d 14e4 883c 68d9 d4bc
00000030: 5e54 12bd 5ec9 ef3c dc42 fb3d 372b 7fba
00000040: ef7f 6b3f 0a07 3d3d e878 acbd 812e c03a
00000050: 77b0 8cbd cf4d 3ebd 9827 a63d 5056 843d
00000060: be72 a53c 52f0 ebbd ee83 a5bd e3f8 b73d
00000070: 55c9 e3bc 82d2 c33c e147 5f3d 01d1 813d
00000080: 8f7c 8fbd 8258 84bb 2207 a8bd 5621 dfbd
00000090: ac3d a73d ab2f 133e 36e2 c3bd f574 193d
000000a0: d7f6 5a3f 5c0b 35be 07d9 623f ef1e 443e
000000b0: e096 03bc c080 c1bc b3f0 53bd bd7d 6abd
000000c0: c827 3d3f 35aa f13d 705d d53d 75d2 b03d
000000d0: a504 d4bd 88f4 803c cf47 a7bd 40eb ca3d
000000e0: f0e0 583f 6340 443d 6220 a1bc 2eee 383f
000000f0: 6852 023e 5c6c 1cbe dd94 6abc b9b4 1bbd
00000100: 30e2 b6bb 38c0 af3d 85ba 963d 1c4e ff3d
00000110: fe3e c43b 15ee d6bd 3350 493e 7afb 373b
00000120: d0bd cabd 8099 69bd 6f54 5a3d 90c8 c33d
00000130: 25a5 1f3e 7334 8fbd 408d 3abb d2f8 ff3c
00000140: 420d 25be 0210 ce3c c470 a9bd e551 0f3d
00000150: f327 fcbd 25af 0abd 10a0 823d c291 fb3c
00000160: 1813 ebbc 94f9 833d 3605 f3bd 5187 8f3b
00000170: 86de ecbc 2fcf eebc 056f 8e3c 6537 cfbc
00000180: c127 5e3d 303a 913d 9eb6 80bd 9c25 79bd
00000190: d8db e13c ae5e 463d 006c 693c ef45 133d
000001a0: 18a4 28be e008 393d f00e 1cbe b643 fd3c
000001b0: 0c4e 203d 9c4f 58bd ea21 713d f220 9d3d
000001c0: 9e47 06be c510 b63b a8b3 90bd 243c 423e
000001d0: 161a babb 10d1 e43d bb5e 043e 28bf 24bd
000001e0: 5f96 16be bac3 15bd 69a5 493d 1740 03be
000001f0: 6ba7 f63c 266e da3d c616 00bd a649 8a3d
00000200: 082f 113c be98 cd3d ed78 273d 64d2 443d
00000210: 0aef 003e a53b 463c e6e5 1c3d 06d6 cd3d
00000220: f036 373c 990a 043d 9862 2c3e 00e5 8c3c
00000230: 189e 693c 1dc0 58bd a256 a9bd 7876 15bd
00000240: 1f18 fd3e 58f3 f63c 8c9d 533d 7988 a03d
00000250: d6d3 28be 5fe5 d83d 662f ec3d 5f9a c83c
00000260: 3673 003e 1805 4d3d 04b5 b4bc 1135 5abe
00000270: 7b64 dc3d 5ab5 763d 68a9 c13d 85f9 2b3d
00000280: cda0 7fbd bc9b 303e a7ef ef3b 9836 4ebd
00000290: 64db 3bbd 4dea 383d 7657 f7bd 9f94 2bbe
000002a0: 2fdb e23e e1b8 8c3d 5cd1 f13e 1c33 13bd
000002b0: 8794 c73d 34ff c93d 870a 703c 05c2 163e
000002c0: 1f7e ce3e 5e4c eb3d 10ec 673c 7364 863d
000002d0: 692b b83d 8808 0abd eb40 e63d 9c02 9cbd
000002e0: c6d6 023f 6e5f 33bd b665 243d 54eb c93e
000002f0: e37f b73d 9675 d03c 71e1 f83c 689f 213d
00000300: 0780 6fbd 4810 18bd d7fa 743d a4b1 5bbd
00000310: 4d4a bdbb 510f ee3d d718 ae3a 9849 8fbb
00000320: 01ac 033d f39c 073d ea7f e7bc c49f bb3d
00000330: 13d3 7bbd da46 88bc 506d 43bd 6f7a 303e
00000340: fc3b 133e 3f3a 383e 0098 a338 cfc7 063e
00000350: efd1 bdbb 5d36 283e efaf 11bd 7b34 adbd
00000360: e77c 60bd 8483 86bd ac3b 0f3e 52d3 ac3c
00000370: 9f4d 333c 8875 6ebd 158b 193d 6ed2 81bd
00000380: b568 be3c fdd2 7c3d 9f64 c73d a418 c83d
00000390: c487 51bd 94ff 073d 90e4 bdbd 595a 8bbc
000003a0: 40f9 1e3e 978a 233d 91eb 0a3e 4974 fc3d
000003b0: 4038 183e 2041 4a3c 05e7 933d 7330 af3d
000003c0: fcb9 ee3d 12b3 073d b0b3 3dbc 798d 523d
000003d0: f7be 33bc aefb afbd c4a4 8bbd 407e b6bb
000003e0: 389b f83d 5445 99bc 6ce9 0f3e 773d e93d
000003f0: a424 c23d d274 39bd 3c7f 6e3b feef 2b3e

fc2.bias f4 [4]
0.6742284 -0.117273696 0.37074742 0.10248406
00000000: 3c9a 2c3f 312d f0bd 9bd2 bd3e 2ae3 d13d
