src/flatland/flat_game/results/ourmethod_reg13/rep_learner.pth (torch_old, 312920 bytes, 33 tensors)

representations f4 [6]
0	0xbfa25746	-1.2682884
1	0xbad71416	-0.0016409184
2	0xbbf307b7	-0.007416691
3	0xba996563	-0.0011703189
4	0xbc10650a	-0.008813152
5	0xba38d6f8	-0.0007051076

representations f4 [6]
0	0x3fa15624	1.2604413
1	0xbb688188	-0.0035477597
2	0x3b401722	0.0029310663
3	0xb960af80	-0.00021427684
4	0xbad27a36	-0.001605815
5	0x3aa760f4	0.0012769983

representations f4 [6]
0	0x39e88172	0.00044346933
1	0xbb2fecd0	-0.0026844032
2	0xbb05f940	-0.0020442754
3	0x3b1ec040	0.0024223477
4	0x3a912490	0.0011073519
5	0xbf211f9c	-0.6293886

representations f4 [6]
0	0xbaa1961d	-0.0012328062
1	0xbb4f6e92	-0.0031651598
2	0xba3ccb82	-0.0007201956
3	0xbb3e2a7e	-0.0029017027
4	0x39bd246c	0.00036076026
5	0x3f216290	0.6304102

fc1.weight f4 [64, 4]
0	0x3da16338	0.078802526
1	0xbd7e9260	-0.062151313
2	0xbdae3508	-0.08506209
3	0x3eafc744	0.34331715
4	0xbfe9b375	-1.8257891
5	0x3f1425b4	0.5787003
6	0x3f0a8e26	0.5412315
7	0x3d8e5780	0.06950283
8	0xbb0dc69a	-0.0021633268
9	0x404f42dd	3.238456
10	0xbd7393f0	-0.059467256
11	0xbe31fbbf	-0.1738119
12	0x3fce299e	1.610645
13	0x3f3dadb7	0.7409319
14	0x3ddbddaf	0.10735642
15	0xbf75b736	-0.9598268
16	0x3f292083	0.66065234
17	0x3e4fbe37	0.20287405
18	0xbec1d4e3	-0.37857732
19	0xbeb3d042	-0.35119826
20	0x3e5793a6	0.21052417
21	0x3daa046c	0.08301625
22	0x3e6a2d8f	0.22868942
23	0xc0493f8e	-3.144504
24	0x3ee126b9	0.43974856
25	0x3fc51d4a	1.5399563
26	0xbea42599	-0.32059935
27	0x3ff197a5	1.8874403
28	0xbf24c76b	-0.6436679
29	0xbf91e046	-1.1396568
30	0xbf8244da	-1.0177262
31	0xbfcbb5b6	-1.5914829
32	0x3d77bde5	0.060483832
33	0x3de6f2ae	0.11276756
34	0xbccc59e8	-0.024945214
35	0x402355b6	2.5521064
36	0x3cc19daf	0.02363476
37	0xbd038287	-0.032106902
38	0x3d18d409	0.037311587
39	0x40160a08	2.3443623
40	0xbf890384	-1.0704198
41	0x3f2d7601	0.67758185
42	0xbd9810fd	-0.07425115
43	0xbf3d51a7	-0.73952717
44	0xbe56f488	-0.20991719
45	0xbecea59a	-0.4036072
46	0x3fed6c62	1.8548701
47	0x3f8f5430	1.1197567
48	0x3fa12563	1.2589535
49	0xbf332a95	-0.6998685
50	0x3e727176	0.23676094
51	0xbe95a280	-0.2922554
52	0x3d98345f	0.07431864
53	0xbfc86e8c	-1.5658736
54	0xbe458e38	-0.19292533
55	0x3fa494ab	1.285787
56	0x3bec4280	0.007210076
57	0xbd80a3f8	-0.062812746
58	0x3d97f700	0.074201584
59	0x3e4db1c8	0.2008735
60	0xc00ac770	-2.1684227
61	0xc0063268	-2.0968266
62	0xbe5f5309	-0.21809019
63	0x3e06f984	0.1318112
64	0xbf3342e3	-0.70023936
65	0x3fb1739e	1.3863409
66	0xbf0defe7	-0.55444187
67	0x3f1d79ea	0.6151415
68	0x3ef1b7ea	0.47210628
69	0xbf183d65	-0.5946868
70	0x3deffa82	0.117177024
71	0x3ff5f7f2	1.9216292
72	0x3fc3320d	1.5249649
73	0xbf0b5e1a	-0.5444046
74	0xbe58da7f	-0.211771
75	0x4003ab97	2.057348
76	0xbe3049ff	-0.17215727
77	0x3d8a7dee	0.067623004
78	0xbd18f869	-0.037346277
79	0x4015fec0	2.3436737
80	0xbfc55a00	-1.5418091
81	0x3ddb8d23	0.10720279
82	0x3f5c6df9	0.86105305
83	0x3f4d4e79	0.80197865
84	0xbf3cb5c7	-0.7371487
85	0x3f01b120	0.50660896
86	0x3ee09b84	0.4386865
87	0x3eb2b951	0.3490701
88	0x3f204fbf	0.6262168
89	0x3f382dc9	0.7194486
90	0x3f262a3c	0.64908195
91	0x3f06aed6	0.5261053
92	0xbf33693b	-0.70082444
93	0x3ed2b8ae	0.41156524
94	0x3ce0d137	0.027443511
95	0xbf981181	-1.1880342
96	0xbe60f3d2	-0.2196801
97	0x3d74e1b3	0.059785556
98	0x3f9ecfce	1.2407167
99	0x3fe52f4f	1.7905062
100	0xbeb1d9af	-0.34736392
101	0x3cc42c29	0.023946838
102	0xbff6d575	-1.9283892
103	0xc03aa4a4	-2.9162989
104	0x3e3d7d32	0.1850479
105	0xbe854a56	-0.26033276
106	0x3ff8193f	1.9382704
107	0x3f0de33c	0.5542486
108	0x3ea5baac	0.32368982
109	0xbf5b2951	-0.8560992
110	0xc04f54ab	-3.2395427
111	0x3f7d1c35	0.98871166
112	0x4002c19c	2.043067
113	0xbfa626bd	-1.2980572
114	0x3d749460	0.059711814
115	0x3d8cb37c	0.068701714
116	0x3f7f7c78	0.997993
117	0xbf868db5	-1.0511996
118	0xbdef686f	-0.11689841
119	0xbfab49a0	-1.3381844
120	0xbf3963ed	-0.724181
121	0x3fd59bcf	1.6688174
122	0xbfbec97c	-1.4905238
123	0xbd6daf5e	-0.05802857
124	0xbeda329e	-0.42616743
125	0x3f3e9d9d	0.7445925
126	0x3fa5d422	1.2955363
127	0x3fc1acbe	1.5130842
128	0xc0001a5c	-2.0016088
129	0xc0204a55	-2.5045369
130	0xbd9b6b74	-0.075888544
131	0xbd5a1771	-0.05324501
132	0x3f93de75	1.1552263
133	0x3f1cb2e6	0.6121048
134	0xbf8097ef	-1.0046366
135	0x3f5c29bc	0.8600118
136	0xbfb10730	-1.3830318
137	0xbf029894	-0.51014066
138	0x3fb57720	1.4176979
139	0xbfd690d6	-1.676295
140	0xbcfa30d0	-0.030540854
141	0xbc2b2778	-0.010446422
142	0x3f8a7586	1.0817115
143	0x3fe02caa	1.751363
144	0x3f17886b	0.5919253
145	0xbfabd454	-1.3424172
146	0xbea8939b	-0.32925114
147	0xbf962ad8	-1.1731825
148	0x3e5738c4	0.21017748
149	0x3d605750	0.054770768
150	0xbdfb4143	-0.12268307
151	0x3cea2e45	0.028586516
152	0xbf00f0e4	-0.5036757
153	0xbe2d5ab7	-0.16929136
154	0xbe500628	-0.20314848
155	0xbf5a00e3	-0.85157603
156	0x3fb96072	1.4482558
157	0x3d98c918	0.074602306
158	0x3f0d1e60	0.55124474
159	0xbee20385	-0.4414331
160	0x3f34f9d8	0.7069373
161	0xbf8acd7b	-1.0843958
162	0x3fa8305a	1.3139756
163	0x3f6942c5	0.9111751
164	0xbdf195f8	-0.117961824
165	0xbe342974	-0.17593938
166	0x3d9676e9	0.07346899
167	0xc098a2e4	-4.769884
168	0x3e7ca098	0.24670637
169	0xbe8e70bd	-0.27820387
170	0xbffc4d81	-1.9711152
171	0xc0422922	-3.0337605
172	0x3fc0f77f	1.507553
173	0xbd218421	-0.03943265
174	0xbfcc37f8	-1.595458
175	0xbfd66690	-1.675005
176	0x3d9a8a80	0.07545948
177	0xbeded647	-0.43522856
178	0xbdfac1ea	-0.122440174
179	0x3ff80cfd	1.9378964
180	0xbfb85b81	-1.4402925
181	0x40564d0c	3.3484526
182	0x3d27f892	0.04100854
183	0x398ffe64	0.0002746462
184	0xbf7783f0	-0.96685696
185	0xbfdbbd05	-1.7167059
186	0x3fcabe8b	1.5839399
187	0x3e8a9a55	0.2707087
188	0xbfb36219	-1.4014312
189	0xbed3b940	-0.41352272
190	0xbfe92000	-1.8212891
191	0xbf07dc4f	-0.5307054
192	0x3f1b8525	0.6075004
193	0x3f88e9e4	1.0696378
194	0x3fcd585a	1.6042588
195	0x3fa4d6aa	1.287801
196	0xbfaf5694	-1.3698297
197	0xbf678677	-0.9043955
198	0xbf3d0ec6	-0.7385067
199	0x3fce1747	1.6100854
200	0x3fcce08d	1.6006027
201	0xbe10ffcd	-0.1416008
202	0x3fa5a004	1.2939458
203	0x3fdc7444	1.7222981
204	0x3f14f3d5	0.5818456
205	0x3f625e43	0.8842508
206	0x3fa4e296	1.2881649
207	0x3fff2b6d	1.9935127
208	0x3fd69372	1.6763747
209	0x3f1bcf57	0.6086325
210	0xbf2bfbec	-0.6718128
211	0xbee26af8	-0.44222236
212	0x3f9b3a9f	1.2127265
213	0xbecdea69	-0.40217903
214	0x4015419e	2.33213
215	0xbfaf1f9a	-1.3681519
216	0x3d9fc006	0.078002974
217	0x3c8586cc	0.016299628
218	0x3f9d55d1	1.2291814
219	0x3ffa95e1	1.957699
220	0xbdea6a54	-0.11446062
221	0xbe13c451	-0.14430358
222	0xbfc20fe6	-1.5161102
223	0x401aed43	2.4207313
224	0xbe4e1708	-0.20125973
225	0xbe9663dc	-0.29373062
226	0xbdbb7c00	-0.091545105
227	0xbdb4a918	-0.088213146
228	0xbe439be1	-0.19102432
229	0xbf0ddd9a	-0.5541626
230	0xbf93d457	-1.1549176
231	0xc012a3ef	-2.2912557
232	0xbf59b912	-0.8504802
233	0x3f809a27	1.0047044
234	0x3fd25c30	1.6434383
235	0xbeb8222b	-0.35963568
236	0xbec895c7	-0.3917677
237	0x3fb44a3e	1.4085157
238	0x3f301084	0.687752
239	0x3f37b882	0.7176591
240	0xbfb90266	-1.4453857
241	0xbe7e5abc	-0.248393
242	0xbf938ef0	-1.1527996
243	0x3ee9c680	0.45659256
244	0xbe01f120	-0.12689638
245	0xbe42b7d7	-0.19015442
246	0x3de361b4	0.1110262
247	0x3fdf87c8	1.7463312
248	0xbf227798	-0.63463736
249	0xbe926516	-0.28592747
250	0xbf8a2b4c	-1.0794463
251	0xbd93dd8e	-0.072199926
252	0xbe5bda1b	-0.2146992
253	0xbf84afa9	-1.0366107
254	0x3fa93e83	1.3222202
255	0x3ffdcc78	1.9828024

fc1.bias f4 [64]
0	0xbecb0f36	-0.39660043
1	0x3ed05aaa	0.4069417
2	0x3ededb49	0.43526676
3	0x3f806a00	1.0032349
4	0x3e941725	0.28923908
5	0x3cec7f90	0.02886942
6	0xbf5e4b5f	-0.8683376
7	0x3f66dba8	0.9017892
8	0xbd9d37b3	-0.076766394
9	0xbd8b4343	-0.067999385
10	0x3f1e0444	0.6172526
11	0xbf12f8cd	-0.5741089
12	0x3f4713d8	0.77764654
13	0xbdc58e51	-0.09646285
14	0xbe74df4c	-0.23913306
15	0xbd406f08	-0.046980888
16	0x3e395965	0.18100508
17	0xbf1d6258	-0.61478186
18	0xbf5133a6	-0.81719434
19	0xbe2e21eb	-0.17005126
20	0x3dabe9a9	0.083941765
21	0x3dff32da	0.12460871
22	0x3e44da18	0.19223821
23	0x3eecae60	0.46226788
24	0xbdf1529d	-0.11783335
25	0xbe101213	-0.14069395
26	0xbd84f587	-0.06492143
27	0xbce42746	-0.027850758
28	0x3f937aa8	1.1521807
29	0x3e48ed47	0.19621764
30	0x3ea5465c	0.32280242
31	0xbd6e54da	-0.05818639
32	0x3eb7ff7a	0.359371
33	0x3e5ac1e1	0.21363021
34	0x3f336e7a	0.7009045
35	0xbc240319	-0.010010504
36	0x3f89d974	1.0769486
37	0xbed2e926	-0.41193503
38	0x3ee26f13	0.44225368
39	0x3f34c5ad	0.7061413
40	0xbe8e9522	-0.27848154
41	0xbe042b25	-0.12907083
42	0x3d531b92	0.051539965
43	0x3f8c17c9	1.0944759
44	0xbea3ef55	-0.32018533
45	0xbe8eb63a	-0.27873403
46	0x3eeb680a	0.45977813
47	0xbf49c70d	-0.7881935
48	0xbf552f97	-0.8327574
49	0x3e15d05c	0.14630264
50	0xbf7eb6d0	-0.994977
51	0xbf248eda	-0.64280474
52	0x3ee83b26	0.45357627
53	0xbe55830b	-0.2085077
54	0xbcb89a37	-0.022534473
55	0xbebf3d9f	-0.373517
56	0xbef142c6	-0.47121257
57	0x3d1240e9	0.035706434
58	0x3ef94ffd	0.4869384
59	0x3e0cd7aa	0.13754144
60	0x3ef0c0e0	0.47022152
61	0xbd8d6503	-0.06904032
62	0x3f1b8347	0.6074719
63	0xbe9f7795	-0.3114592

fc2.weight f4 [180, 64]
0	0xbde23d04	-0.11046794
1	0x3f1403b2	0.5781814
2	0x3f7eb8cc	0.9950073
3	0xbe81755e	-0.25284857
4	0xbdb5d2f2	-0.08878125
5	0x3e949e89	0.29027203
6	0xbec678a1	-0.38763908
7	0x3ed013a5	0.40639988
8	0xbe4f60a4	-0.20251709
9	0xbd12033c	-0.035647616
10	0x3f2b20f3	0.6684715
11	0x3e8521e8	0.2600243
12	0xbe294551	-0.16530348
13	0x3eaf8cf5	0.3428723
14	0xbdb01da8	-0.085994065
15	0xc012583c	-2.2866354
16	0x3f7a6895	0.9781583
17	0x3e2359ed	0.15952273
18	0x401115ae	2.2669482
19	0x3e69d966	0.22836837
20	0x3f22e4b7	0.6363024
21	0x3ea86be1	0.32894805
22	0x3e837d62	0.25681597
23	0x3fba913e	1.4575574
24	0x3ddf6001	0.10906983
25	0xbdae1035	-0.08499185
26	0x3f01ac12	0.50653183
27	0x3f415c73	0.7553169
28	0xbf4d566c	-0.80209994
29	0x3ec08c0d	0.3760685
30	0x3f0a363b	0.53989
31	0x3e181cff	0.14854811
32	0xbfdb761d	-1.714542
33	0xbd03ec46	-0.03220775
34	0x3f9c0bbe	1.2191083
35	0xbd4acb51	-0.049510304
36	0x3e8e7b12	0.2782827
37	0xbd8aadef	-0.067714565
38	0x3f333ed7	0.7001776
39	0xbedcb50c	-0.43106878
40	0xbf8da0c1	-1.1064683
41	0x3e371cbc	0.17882055
42	0xbc97b6d6	-0.0185198
43	0x3f1e520f	0.6184396
44	0x3fa72ae8	1.3059969
45	0x3f9acae8	1.2093172
46	0x3f8977fb	1.073974
47	0x3fa173ec	1.2613502
48	0x3eca1066	0.39465636
49	0x3f501f07	0.81297344
50	0xbf58555c	-0.8450525
51	0x3cb540d0	0.022125632
52	0xbe53da3d	-0.2068872
53	0xbf3afd33	-0.730426
54	0x3e30d835	0.17269976
55	0x3f8ec44e	1.1153657
56	0x3c8a5398	0.016885564
57	0xbe47af21	-0.195004
58	0x3ea78261	0.3271666
59	0x3d876d25	0.066126145
60	0x3f2c6ff0	0.67358303
61	0xbc86501c	-0.016395621
62	0x3dd41760	0.10356021
63	0xbeeffa83	-0.46870813
64	0x3da13b9e	0.07872699
65	0x3ebf8e6d	0.3741335
66	0x3f557b48	0.8339124
67	0x3f0299aa	0.5101572
68	0x3ef9484b	0.48687968
69	0xbf4e676a	-0.8062655
70	0xbea0f82c	-0.3143934
71	0xbf08d8e6	-0.5345596
72	0xbf29a4fc	-0.6626737
73	0xbf0756f3	-0.5286705
74	0x3ea4ba24	0.32173264
75	0x3f5dba7e	0.8661269
76	0x3d888fca	0.066680506
77	0xbe9ce999	-0.3064697
78	0x3db136ca	0.08653028
79	0xbf2acdba	-0.66720164
80	0x3f35b500	0.7097931
81	0xbed1768d	-0.4091076
82	0x3f0322aa	0.5122477
83	0xbd8c92bd	-0.068639256
84	0x3f167903	0.587784
85	0x3e8879e2	0.2665549
86	0x3f05c516	0.52253854
87	0x3f059490	0.52179813
88	0x3f9555d5	1.1666819
89	0x3fd7292a	1.6809437
90	0x3ebe3f66	0.37157744
91	0x3eb150d4	0.3463198
92	0xbe2a3ee4	-0.16625553
93	0xbecbca05	-0.39802566
94	0x3e8b802a	0.2724622
95	0x3f654e4f	0.89572614
96	0xbfb381d9	-1.4024001
97	0x3d3c2b90	0.045939982
98	0x3e2b374f	0.16720317
99	0x3f8f464c	1.1193328
100	0xbc8d1a4b	-0.017224452
101	0x3d70e52a	0.058812298
102	0xbc9aa3ae	-0.018876877
103	0x3dcec88e	0.100968465
104	0xbef315c0	-0.4747753
105	0xbfab1495	-1.3365656
106	0x3fad2be2	1.3529017
107	0x3fa58239	1.2930366
108	0xbf05aa9b	-0.5221345
109	0xbdf94214	-0.121708065
110	0x3fbc1f90	1.4697132
111	0x3fd8bac0	1.6931992
112	0x3ede855b	0.43461117
113	0x3e5df45b	0.21675245
114	0x3e273d7d	0.1633205
115	0x3f8caabb	1.0989603
116	0x3f341399	0.70342404
117	0x3f89586d	1.073011
118	0x3f99d096	1.201678
119	0xbf5d3aaa	-0.8641764
120	0xbc54ecb0	-0.012995884
121	0x3edb3186	0.4281122
122	0x3ecd5162	0.40101153
123	0x3e00588b	0.12533776
124	0x3f7aeacc	0.9801452
125	0xbe8c1888	-0.27362466
126	0xbe528a28	-0.20560515
127	0xbe2a4637	-0.16628347
128	0xbc5110a0	-0.012760311
129	0x3e85be3c	0.261217
130	0x3f2d1987	0.67617077
131	0xbe0d138a	-0.13776985
132	0xbdccf2c3	-0.100072406
133	0x3fe5b93f	1.7947158
134	0x3f675398	0.9036193
135	0x3ee39f29	0.44457367
136	0x3f6e997e	0.9320296
137	0x3f7ea478	0.9946971
138	0x3e4d89c8	0.2007209
139	0xbf592c1f	-0.8483295
140	0xbe860c8b	-0.26181445
141	0xbf4c9590	-0.79915714
142	0x3decc5b8	0.11561149
143	0xbfa8de74	-1.3192887
144	0x3ecb088b	0.39654955
145	0xbdd9d548	-0.10636383
146	0xbf4ab8ac	-0.79188037
147	0x3f6cfc73	0.92572707
148	0x3f3af706	0.7303318
149	0x3ec69419	0.38784865
150	0x3eb172b8	0.34657836
151	0xbe8ff17f	-0.28113934
152	0x3e98ba25	0.29829517
153	0x3c149386	0.009068375
154	0xbf5e1eef	-0.8676595
155	0xbfa4adee	-1.2865579
156	0xbf29a7f2	-0.6627189
157	0xbe6d57c1	-0.23178007
158	0x3cbe6c47	0.02324499
159	0x3eab370f	0.33440444
160	0xbfacf355	-1.3511759
161	0x3dabcc1e	0.08388542
162	0xbf5c14f5	-0.8596948
163	0x3e59da26	0.21274623
164	0xbe9cb68b	-0.3060802
165	0x3cb569ef	0.02214524
166	0xbf0fe0b3	-0.5620224
167	0xbe6d45a6	-0.231711
168	0xbc9b406d	-0.018951619
169	0x4016e5ef	2.357784
170	0xbf2b1378	-0.6682658
171	0xbe3dc3af	-0.18531679
172	0x3e91547d	0.28384772
173	0xbe0c2bdc	-0.13688606
174	0xbfc783a2	-1.5587046
175	0x3e94166a	0.2892335
176	0xbf47ee7b	-0.7809827
177	0x3f5a4766	0.85265195
178	0x3f7743c1	0.9658776
179	0x3f6eb2c6	0.93241537
180	0x3e9f977c	0.3117026
181	0xbf13b6c1	-0.57700735
182	0x3ea4d270	0.321918
183	0xbec4ecaf	-0.38461825
184	0x3dd603ec	0.10449967
185	0x3f754b62	0.9581815
186	0x3edd474a	0.43218452
187	0x3ea503d0	0.3222947
188	0x3f85c573	1.0450882
189	0x3f321db3	0.6957657
190	0xbc88552b	-0.016642174
191	0x3d7c5459	0.061603878
192	0x3dfff106	0.124971434
193	0xbe813e42	-0.2524281
194	0x3f0c9304	0.5491183
195	0x3f650ccd	0.8947266
196	0x3f6b5cb4	0.9193833
197	0x4025cd59	2.5906584
198	0x400f0183	2.2344673
199	0xbe94fd65	-0.29099575
200	0x3fe4f6c5	1.7887808
201	0x3fd399f4	1.6531358
202	0x3cb6e631	0.02232656
203	0xbef00cf0	-0.4688487
204	0x3f48890c	0.78334117
205	0x3ea81a00	0.32832336
206	0xbbd143e0	-0.006386265
207	0xbf702a63	-0.93814677
208	0x3eb736ac	0.357839
209	0x3fc03b2e	1.501806
210	0x40020dc3	2.03209
211	0x3fabdc0a	1.3426526
212	0x3ecd7d06	0.40134448
213	0x3e5d86e4	0.21633488
214	0x3ee44fa5	0.44592014
215	0x3f00e7c8	0.5035367
216	0x3d4735b0	0.048635185
217	0xbffd1ba3	-1.9774059
218	0x3a74a73a	0.000933278
219	0x3e0ca63d	0.1373529
220	0x3f565f37	0.83739036
221	0x3f473819	0.77819973
222	0x3e410a40	0.18851566
223	0x3e2d4261	0.16919853
224	0xbf4b8d56	-0.79512537
225	0x3fb423ee	1.4073465
226	0x3fab5838	1.3386297
227	0xbdb39e7c	-0.08770463
228	0x3ee70189	0.4511836
229	0xbdb79f0c	-0.08965883
230	0x3f15413b	0.5830266
231	0x3f6a674d	0.91563874
232	0x3f036a10	0.51333714
233	0x4031b681	2.7767642
234	0xbfd3c9a4	-1.6545911
235	0x3eae7f47	0.3408148
236	0x3f977ced	1.1834999
237	0xbef1c8ae	-0.4722342
238	0xbe77c866	-0.2419754
239	0x4000467e	2.0043025
240	0xbf8f6eb2	-1.1205657
241	0x3efc9640	0.49333382
242	0x3f978df3	1.1840194
243	0x3e870f22	0.26378733
244	0x3f8f76cd	1.120813
245	0xbeb7f734	-0.3593079
246	0xbdf494fc	-0.11942479
247	0x3fd749d5	1.6819407
248	0xbd726ab0	-0.059183776
249	0x3deaa859	0.11457891
250	0xbe82af14	-0.255242
251	0x3f090ac9	0.5353208
252	0x3b920f8a	0.004457419
253	0x3fa24ba5	1.2679335
254	0xbef587f1	-0.47955278
255	0x3f4322b2	0.76224816

fc2.bias f4 [180]
0	0x3ed84ccb	0.42246088
1	0x3e87ceb5	0.26524892
2	0xbcb408f0	-0.021976918
3	0x3f06f989	0.5272451
4	0x3e90aa2c	0.2825483
5	0x3f0f45c3	0.5596582
6	0x3d848a38	0.06471676
7	0x39acb95c	0.000329445
8	0xbd0809ad	-0.033212353
9	0xbd8997fd	-0.067184426
10	0xbd29b870	-0.04143566
11	0x3e27b8e3	0.16379122
12	0x3cbe6298	0.023240373
13	0xbc5c0b03	-0.01343036
14	0xbd60670a	-0.054785766
15	0xbca5a8cd	-0.020222092
16	0xbda55d4c	-0.080744356
17	0x3e4d2365	0.20033033
18	0x3d3760a6	0.044769906
19	0xbc0bd7ca	-0.008535335
20	0xbe41837b	-0.18897812
21	0xbe078006	-0.13232431
22	0xbd5c914a	-0.053849496
23	0x3e45528e	0.19269773
24	0x3e89ee9a	0.2693985
25	0xbb5e1612	-0.0033887667
26	0xbe78985a	-0.24276868
27	0xbd8da9e1	-0.069171675
28	0xbd9988d6	-0.074968025
29	0xbe9b50ed	-0.3033518
30	0x3defb27e	0.117039666
31	0xbe896448	-0.2683432
32	0xbe02a4c6	-0.12758169
33	0xbdc1bc82	-0.09459783
34	0x3cc99e5a	0.02461164
35	0x3d8e4f7d	0.06948755
36	0x3ee222e2	0.44167238
37	0x3eb6b9c0	0.3568859
38	0x3e8c13f3	0.2735897
39	0x3ee142e0	0.43996334
40	0x3eb2f1fc	0.34950244
41	0x3e08db74	0.13364965
42	0x3e09fe1d	0.13475843
43	0x3c479016	0.012180349
44	0xbd41ed5e	-0.04734551
45	0xbd8002ec	-0.06250557
46	0xbcf21e1c	-0.029555373
47	0x3b9888cc	0.0046549793
48	0x3d83485d	0.064102866
49	0xbd405670	-0.046957433
50	0xbe168f15	-0.14703019
51	0xbcdac9e0	-0.02670759
52	0xbe36c200	-0.17847443
53	0x3e019778	0.12655437
54	0xbbac8ff0	-0.005266182
55	0xbc1bf396	-0.009518525
56	0xbdb63151	-0.08896125
57	0xbe3fa60e	-0.18715689
58	0x3ae0bba9	0.0017145771
59	0xbe3a3a92	-0.18186405
60	0x3cd9d249	0.02658953
61	0xbdbb66a0	-0.091504335
62	0xbe0081df	-0.12549542
63	0xbdd091a8	-0.10184032
64	0xbbf203fe	-0.00738573
65	0x3d5a8efc	0.053359017
66	0x3e7e7bb6	0.2485188
67	0xbe2a8c54	-0.16655093
68	0xbe40f155	-0.18842061
69	0xbd4e6d43	-0.05039717
70	0x3d154e2b	0.0364515
71	0x3da2e854	0.07954469
72	0x3d9be9a7	0.07612925
73	0x3e97ced3	0.29649982
74	0xbc97cad0	-0.018529326
75	0x3d4c5fa2	0.04989589
76	0x3e3278c6	0.17428884
77	0x3e72e35d	0.23719545
78	0x3ec6b202	0.38807684
79	0x3c1cb591	0.009564773
80	0xbe41d84e	-0.1893017
81	0xbe424e0c	-0.18975085
82	0xbe66f3d2	-0.22553948
83	0x3f24c180	0.6435776
84	0x3f19cf32	0.6008178
85	0x3bbe4d78	0.005807575
86	0xbcf142ad	-0.029450739
87	0xbd092d28	-0.03349033
88	0xbe26cbb1	-0.1628864
89	0x3ea82dbc	0.32847393
90	0x3b741342	0.0037242924
91	0xbd5808a1	-0.052742604
92	0xbe65dd45	-0.22447689
93	0x3b6e5c7c	0.0036371043
94	0x3cb99312	0.022653136
95	0x3e0df469	0.13862766
96	0x3d4a9074	0.049454167
97	0xbd6e40ab	-0.05816714
98	0xbc8ed98c	-0.017437719
99	0xbdb94f98	-0.090483844
100	0x3cdb9504	0.026804455
101	0xbdbad86f	-0.09123313
102	0x3ec95840	0.39325142
103	0xbdc3bc3d	-0.09557388
104	0x3de401bb	0.111331426
105	0xbddc9b98	-0.10771865
106	0x3d9b9956	0.07597606
107	0x3e8b0df9	0.27159098
108	0x3ef9571e	0.48699278
109	0x3e8abd6f	0.2709765
110	0xbe32c684	-0.1745854
111	0xbe49f7f5	-0.19723494
112	0x3e81dd5f	0.25364205
113	0x3d0bce74	0.034132436
114	0x3cfdfaf7	0.031003458
115	0xbe2e84cb	-0.17042844
116	0xbe0909fd	-0.13382716
117	0xbde42484	-0.11139777
118	0xbda22c66	-0.079186246
119	0x3e64b1c9	0.22333445
120	0x3d196028	0.037445217
121	0xbd8cb703	-0.06870844
122	0xbe43099d	-0.19046636
123	0xbd8e4292	-0.06946291
124	0xbe360e19	-0.17778815
125	0xbca8797d	-0.020565743
126	0x3d498a49	0.049204145
127	0xbe36d6de	-0.17855403
128	0xbdb91734	-0.09037629
129	0xbe0a0366	-0.13477859
130	0xbe0983fb	-0.13429253
131	0x3d2f7029	0.042831574
132	0x3e0bbe24	0.13646752
133	0xbe1b81f2	-0.15186289
134	0x3c8c099c	0.017094426
135	0xbcb36777	-0.021899922
136	0xbd9cec23	-0.07662227
137	0x3e6ebf66	0.233152
138	0x3f04228d	0.5161522
139	0x3ebb817d	0.3662223
140	0x3e42160b	0.18953721
141	0x3eefd01c	0.46838462
142	0x3f162a31	0.5865813
143	0x3e0b75f3	0.13619213
144	0x3d873c63	0.06603315
145	0x3ede735c	0.43447387
146	0xbdfcb83f	-0.1233983
147	0xbe2d11b5	-0.16901286
148	0x3e847b39	0.2587526
149	0x3ee18bfa	0.44052106
150	0xbe2753bd	-0.16340537
151	0xbdb30ed1	-0.087430604
152	0xbd93d62d	-0.07218585
153	0xbcb5cafd	-0.022191519
154	0xbdbab850	-0.09117186
155	0x3ec3c1b5	0.38233724
156	0x3e8063d5	0.25076166
157	0xbd76000a	-0.06005863
158	0x3e9822e1	0.2971411
159	0xbe260b98	-0.1621536
160	0xbe12e98f	-0.14346908
161	0x3e947390	0.28994417
162	0xbd903f77	-0.07043355
163	0x3c1c5851	0.009542541
164	0xbd82df89	-0.06390292
165	0xbdfa4b67	-0.12221413
166	0xbdbaf202	-0.091281906
167	0x3ead5392	0.33852822
168	0xbe45a86b	-0.19302528
169	0xbda4794f	-0.0803095
170	0xbe0353a3	-0.12824874
171	0xbdf376a3	-0.118878625
172	0xbcd0538f	-0.025430469
173	0x3ec9e710	0.394341
174	0x3efa6029	0.4890149
175	0x3da47536	0.08030169
176	0x3e90bfa0	0.28271198
177	0x3e3696b4	0.17830926
178	0x3e22d62b	0.15902011
179	0x3ece72fa	0.40322095

conv.weight f4 [5, 1, 34, 34]
0	0xbd660225	-0.05615439
1	0xbda0867d	-0.078381516
2	0xbdab4e65	-0.08364562
3	0xbda615f8	-0.08109659
4	0xbdbdcf46	-0.0926805
5	0x3ba60fd6	0.0050678058
6	0xbd489ea9	-0.048979435
7	0x3cb9460e	0.022616412
8	0xbc6e357a	-0.014539117
9	0xbc24996e	-0.010046346
10	0xbc513188	-0.012768157
11	0xbbc54a09	-0.0060207886
12	0xbcb85e84	-0.022506006
13	0xbd0c4a44	-0.034250513
14	0xbe2a0a21	-0.16605426
15	0xbe292893	-0.16519384
16	0xbdf1d3f7	-0.11808007
17	0xbe559db3	-0.20860939
18	0xbe68dc7b	-0.22740357
19	0xbe704d04	-0.23466879
20	0xbe8fb6ed	-0.2806925
21	0xbe98cf41	-0.29845622
22	0xbe9e9dd4	-0.30979788
23	0xbe88fd40	-0.26755714
24	0xbed79cae	-0.42111725
25	0xbec78ef8	-0.38976264
26	0xbeb8581c	-0.36004722
27	0xbecbe69b	-0.39824376
28	0xbebe854c	-0.37211072
29	0xbec06212	-0.37574822
30	0xbec26b12	-0.37972313
31	0xbec3fe65	-0.38280025
32	0xbeb9a976	-0.362621
33	0xbec1b940	-0.37836647
34	0xbda8587f	-0.08220004
35	0xbd84ca5b	-0.06483909
36	0xbdc0c10a	-0.09411819
37	0xbda2ea1a	-0.079548076
38	0xbdca0549	-0.09864289
39	0xbcfb2ed2	-0.030661974
40	0xbd10fef6	-0.0353994
41	0x3ae85a03	0.0017727021
42	0x3c5dc370	0.013535365
43	0x3cb4b376	0.02205823
44	0x3df1cb48	0.11806351
45	0xba8f77a3	-0.0010945689
46	0xbcd46dfd	-0.025931353
47	0xbde2ce80	-0.11074543
48	0xbe07cdbb	-0.13262074
49	0xbe1008c4	-0.14065844
50	0xbded3f12	-0.11584295
51	0xbe1ff804	-0.15621954
52	0xbe80aa72	-0.2513004
53	0xbe9fdf81	-0.31225207
54	0xbed0867e	-0.4072761
55	0xbeab41b9	-0.3344858
56	0xbe9475bd	-0.28996077
57	0xbe660ecf	-0.22466587
58	0xbecdb0a3	-0.40173826
59	0xbec99b5d	-0.39376345
60	0xbec38bc3	-0.38192567
61	0xbed5eb1c	-0.41780937
62	0xbecb198e	-0.39667934
63	0xbec88658	-0.39164996
64	0xbedafe3e	-0.42772096
65	0xbed30a22	-0.41218668
66	0xbec0adde	-0.3763265
67	0xbeb90690	-0.3613782
68	0xbd6df43e	-0.058094256
69	0xbd7374d5	-0.05943759
70	0xbd48c386	-0.04901459
71	0xbce5b5ec	-0.028040849
72	0xbdc52116	-0.09625451
73	0xbc9d3a61	-0.019192876
74	0xbd57c043	-0.05267359
75	0xbbdff5c2	-0.0068347165
76	0x3d63715c	0.05552803
77	0x3d1ee931	0.038796607
78	0x3ca7a7db	0.020465782
79	0xbc913cb0	-0.017729133
80	0xbe00d872	-0.12582567
81	0xbda3935a	-0.079870895
82	0xbdf63bb3	-0.120231055
83	0xbe55be75	-0.20873435
84	0xbe2ace93	-0.16680364
85	0xbe364a04	-0.17801672
86	0xbe9e4281	-0.30910113
87	0xbe96d464	-0.29458916
88	0xbe9d4320	-0.30715275
89	0xbeae060f	-0.33988997
90	0xbe9e4f04	-0.3091966
91	0xbe93d210	-0.28871202
92	0xbed49a07	-0.41523764
93	0xbee115cf	-0.4396195
94	0xbed38d5d	-0.4131879
95	0xbec7c424	-0.3901683
96	0xbee45553	-0.44596347
97	0xbeec06a3	-0.46098813
98	0xbee13a80	-0.43989944
99	0xbee1a042	-0.4406758
100	0xbec3298b	-0.38117632
101	0xbec2ecbe	-0.38071245
102	0xbd99b400	-0.075050354
103	0xbd61d859	-0.055137966
104	0xbcaf4b8e	-0.021398332
105	0xbc1c20a9	-0.009529271
106	0xbd5a2175	-0.053254563
107	0xbd972c2d	-0.07381473
108	0xbd2ce29a	-0.04220829
109	0xbd0fccb3	-0.035107326
110	0x3d55a4cb	0.052159112
111	0x3d5a9641	0.05336595
112	0x3da95d02	0.08269693
113	0x3d81128a	0.06302364
114	0xbe05845c	-0.13038772
115	0xbdc4dbe9	-0.09612257
116	0xbde08af4	-0.10964003
117	0xbe19c498	-0.15016401
118	0xbe33cd12	-0.17558697
119	0xbe21e38a	-0.15809456
120	0xbe914e3f	-0.2838001
121	0xbec5e4c6	-0.38651103
122	0xbec3b3d9	-0.3822315
123	0xbed3f0f4	-0.4139477
124	0xbe9681ab	-0.29395804
125	0xbe974d9b	-0.29551396
126	0xbee8203b	-0.4533709
127	0xbf079e98	-0.5297637
128	0xbeeaba89	-0.4584544
129	0xbed4db95	-0.41573778
130	0xbee0dc2d	-0.4391798
131	0xbef04fa0	-0.4693575
132	0xbedeb756	-0.4349925
133	0xbee79a4b	-0.45234904
134	0xbebcb10a	-0.3685382
135	0xbed41782	-0.41424185
136	0xbe1b4ad3	-0.15165262
137	0xbd7324ab	-0.05936114
138	0xbd2816ea	-0.041037478
139	0xbdd5ca92	-0.10439028
140	0xbd6a689a	-0.057228662
141	0xbdc33c0c	-0.095329374
142	0xbd326f85	-0.043563385
143	0x3c052ac9	0.008127877
144	0xbc8a7541	-0.016901614
145	0xbcdf42fd	-0.027253622
146	0x3d0d2497	0.034458723
147	0x3d4643ab	0.048404377
148	0xbdb73968	-0.08946496
149	0xbcad2420	-0.02113539
150	0xbddb024b	-0.10693797
151	0xbe22c834	-0.15896684
152	0xbe3ff7b9	-0.18746842
153	0xbe2cd259	-0.16877116
154	0xbe6c6fed	-0.23089571
155	0xbecc228b	-0.39870104
156	0xbedea8c4	-0.43488133
157	0xbecaa3ca	-0.39578086
158	0xbe8f1c52	-0.27951294
159	0xbeb1f039	-0.34753588
160	0xbec21cb6	-0.3791253
161	0xbec858ed	-0.39130345
162	0xbee0c0cc	-0.43897092
163	0xbee89c35	-0.45431677
164	0xbebcf5f9	-0.36906412
165	0xbed5dcad	-0.41769925
166	0xbec3b324	-0.3822261
167	0xbece777f	-0.40325543
168	0xbed0fe09	-0.40818813
169	0xbedd2ec4	-0.43199742
170	0xbde48edf	-0.11160063
171	0xbe06f96c	-0.13181084
172	0xbd664200	-0.056215286
173	0xbd9b9600	-0.075969696
174	0xbd8e49c0	-0.069476604
175	0xbd735087	-0.05940297
176	0xbd1058b7	-0.035240855
177	0x3c55f4bd	0.013058838
178	0x3d52c7c7	0.051460054
179	0x3ddec0a9	0.10876591
180	0x3d8f5bda	0.06999941
181	0x3cdb4c20	0.026769698
182	0xbd4a61c1	-0.04940963
183	0xbc1d2dd4	-0.009593446
184	0xbde21ad0	-0.1104027
185	0xbe4695dd	-0.19393106
186	0xbe80970d	-0.25115243
187	0xbe7dd0a2	-0.24786618
188	0xbe9ce8c3	-0.30646333
189	0xbec4fa7b	-0.3847235
190	0xbebcb765	-0.3685867
191	0xbeea6377	-0.4577901
192	0xbf05e215	-0.522981
193	0xbf1300e7	-0.5742325
194	0xbed0ac0a	-0.40756255
195	0xbed0865a	-0.40727502
196	0xbed462f7	-0.41481754
197	0xbecebd17	-0.4037864
198	0xbef3aa41	-0.4759083
199	0xbf0665e8	-0.52499247
200	0xbee87062	-0.4539824
201	0xbee0ee30	-0.43931723
202	0xbf02c2bc	-0.5107839
203	0xbee2d5e6	-0.44303817
204	0xbdc4fbbd	-0.09618328
205	0xbd8f7c9c	-0.07006189
206	0xbcb664e4	-0.022264905
207	0xbbf6eebc	-0.0075357836
208	0xbdaa57ab	-0.083175026
209	0xbcee2749	-0.029071467
210	0x3c706ea6	0.014674818
211	0x3da070cb	0.078340136
212	0x3db52b93	0.08846202
213	0x3ddb8549	0.107187815
214	0x3d4acf8c	0.04951434
215	0x3cd1ce07	0.025610937
216	0xbcbcff44	-0.023070939
217	0xbe150339	-0.1455201
218	0xbe24f1d8	-0.16107881
219	0xbe481730	-0.19540095
220	0xbe965226	-0.2935955
221	0xbe8ca9f7	-0.27473423
222	0xbe933a12	-0.28755242
223	0xbebda853	-0.37042484
224	0xbecdd462	-0.40201098
225	0xbefecd81	-0.49766162
226	0xbf056ade	-0.5211619
227	0xbf0581d8	-0.5215125
228	0xbecadaea	-0.39620143
229	0xbed54fa8	-0.41662335
230	0xbedf0f1f	-0.43566224
231	0xbeeb26eb	-0.4592813
232	0xbf00c911	-0.50306803
233	0xbf0b4626	-0.54403913
234	0xbef8520e	-0.48500103
235	0xbee49d35	-0.4465119
236	0xbef0b1f3	-0.47010764
237	0xbef0fbca	-0.470671
238	0xbdc82c2c	-0.0977405
239	0xbdc44991	-0.09584344
240	0xbd9793aa	-0.074012116
241	0xbd0c09c8	-0.034189016
242	0xbd915239	-0.07095761
243	0x3cc03e25	0.023467133
244	0x3d110bab	0.035411518
245	0x3d97bdee	0.07409273
246	0x3dd2c5a3	0.102916025
247	0x3e0aaa75	0.13541587
248	0x3df7be4c	0.12096843
249	0x3cb4d63e	0.022074815
250	0xbd6160ac	-0.055023834
251	0xbdf31849	-0.118698664
252	0xbe6b6a69	-0.22989811
253	0xbe3d10d0	-0.18463445
254	0xbe3eb579	-0.18623914
255	0xbe539f9d	-0.20666356

conv.weight f4 [5, 1, 10, 10]
0	0xbc8d35ec	-0.017237626
1	0xbdb94f3c	-0.09048316
2	0xbdb7f850	-0.08982909
3	0xbe18593b	-0.14877789
4	0xbe1c7337	-0.15278326
5	0xbe448545	-0.19191463
6	0xbdc95103	-0.09829905
7	0xbe3e15e5	-0.1856304
8	0xbd87bd7a	-0.06627937
9	0xbdd57c16	-0.10424058
10	0xbd092bf2	-0.033489175
11	0x3d9bd01d	0.07608054
12	0x3c21456b	0.009843211
13	0xbb2b4e0a	-0.0026139044
14	0xbd83a428	-0.06427795
15	0xbdc7d24a	-0.09756906
16	0xbdd2d66c	-0.10294804
17	0xbe04325f	-0.1290984
18	0xbdfcc043	-0.123413585
19	0xbdedad13	-0.11605277
20	0xbdc5a4ad	-0.0965055
21	0x3d06460a	0.03278164
22	0x3c8d8a81	0.017277958
23	0xbe0d22c8	-0.13782799
24	0xbda6dfd7	-0.08148163
25	0xbd0b0946	-0.03394439
26	0xbdcccc26	-0.09999876
27	0xbd104f07	-0.035231616
28	0xbd8232b0	-0.06357324
29	0xbc865842	-0.016399506
30	0xbd051497	-0.03249034
31	0x3d160d1e	0.036633603
32	0xbdb21736	-0.086958334
33	0xbd128959	-0.035775516
34	0x3a28da89	0.00064412557
35	0xbd811659	-0.063030906
36	0xbe0613d0	-0.13093495
37	0xbe21b59a	-0.15791932
38	0xbc4f27b3	-0.012643742
39	0x3c0ee1db	0.00872084
40	0xbdb42a3d	-0.08797119
41	0xbbf90519	-0.0075994846
42	0xbd9482a0	-0.07251477
43	0xbdb968b9	-0.090531774
44	0xbdc01393	-0.093787335
45	0x3cc532fa	0.02407216
46	0xbdb286e1	-0.08717132
47	0xbd18f069	-0.037338648
48	0xbe0c54ab	-0.13704173
49	0xbe011b00	-0.12607956
50	0xbdf3772c	-0.118879646
51	0xbb573165	-0.0032835838
52	0xbd2d092a	-0.042245068
53	0xbd6facd5	-0.058514435
54	0x3c0d4b75	0.008623947
55	0x3c8c45b3	0.017123079
56	0xbc2bc4eb	-0.010483961
57	0xbdf510e8	-0.11966115
58	0xbe073cac	-0.13206738
59	0xbdc8aa3d	-0.097980954
60	0xbe0f2319	-0.13978232
61	0xbe2d1cf5	-0.16905577
62	0xbd181529	-0.037129555
63	0xbdb98430	-0.09058416
64	0x3b9e486a	0.00483041
65	0xbd98eb34	-0.074667364
66	0xbdbaec7c	-0.09127137
67	0xbe0369a6	-0.1283327
68	0xbd33e3e7	-0.043918516
69	0xbdfeaaa3	-0.1243489
70	0xbdef4c58	-0.11684483
71	0xbc27d0cc	-0.010242652
72	0xbcde5252	-0.027138863
73	0xbc5b2f8d	-0.013378036
74	0xb9c99849	-0.0003845117
75	0xbdb773b1	-0.08957613
76	0x3c68fbbb	0.0142201735
77	0xbda031d0	-0.07822001
78	0xbd38578b	-0.045005362
79	0x3e360c4c	0.17778128
80	0xbd7945bf	-0.06085753
81	0xbdf39794	-0.118941456
82	0xbbe309ac	-0.006928643
83	0xbd98b5a8	-0.07456523
84	0xbdfb2c71	-0.12264336
85	0xbd6ccc92	-0.05781228
86	0xbdfc4563	-0.12317922
87	0xbe8d6774	-0.2761799
88	0x3e59187c	0.21200746
89	0x3e2ebf88	0.17065251
90	0xbe076ab6	-0.132243
91	0xbda4ddc4	-0.08050111
92	0xbd8c4968	-0.06849939
93	0xbd0d073f	-0.03443074
94	0xbe3117e9	-0.17294277
95	0xbe45a475	-0.19301017
96	0xbea77e76	-0.3271367
97	0xbea84afe	-0.32869714
98	0x3e8d94ed	0.27652684
99	0x3e3c102d	0.18365546
100	0xbc1c62cd	-0.00954504
101	0xbdf133f8	-0.117774904
102	0xbc647148	-0.013943024
103	0xbe093598	-0.1339935
104	0xbe236a40	-0.159585
105	0xbb29087b	-0.0025792408
106	0x3c989772	0.018626902
107	0xbd0af751	-0.033927266
108	0xbe12407f	-0.14282416
109	0xbd874058	-0.066040695
110	0xbdb66c3a	-0.08907361
111	0xbd8eb262	-0.069676176
112	0xbd29755c	-0.04137169
113	0xbe1560de	-0.14587733
114	0xbc8c751d	-0.017145688
115	0xbc81ac7a	-0.015829314
116	0xbc39d3bc	-0.011341985
117	0xbd8b3965	-0.067980565
118	0xbd889cbe	-0.06670521
119	0xbd916389	-0.07099063
120	0x3d0c0a01	0.034189228
121	0xbcadafe8	-0.021202043
122	0xbdf46c0f	-0.11934673
123	0xbd21c6a7	-0.03949609
124	0x3c80d886	0.015728246
125	0xbd87c770	-0.066298366
126	0xbd8a42be	-0.06751011
127	0xbdbdb516	-0.09263055
128	0x3c48d74e	0.012258364
129	0x3c1c0fcf	0.009525253
130	0xbd98ed62	-0.07467152
131	0xbd11d701	-0.035605434
132	0xbd955db2	-0.072932616
133	0xbd9afbdd	-0.0756757
134	0xbb93e3fc	-0.004513262
135	0xbc450a19	-0.012026333
136	0xbdbf3293	-0.09335818
137	0xbdd30d86	-0.10305314
138	0xbdab31fd	-0.08359144
139	0xbc4db50b	-0.012555371
140	0xbdb44d04	-0.08803752
141	0xbdf2856d	-0.11841855
142	0xbcb4446e	-0.022005286
143	0x3d85af69	0.065275975
144	0xbd264303	-0.04059125
145	0x3d818de7	0.06325894
146	0xbe17df16	-0.14831194
147	0xbd2d5532	-0.042317577
148	0xbc9ea15b	-0.01936405
149	0x3c9f4341	0.019441249
150	0xbd52696f	-0.05137008
151	0xbe388efb	-0.18023293
152	0xbdbc8abb	-0.09206148
153	0xbd339b61	-0.043849353
154	0x3c82b953	0.01595751
155	0xbe2c283d	-0.16812225
156	0xbd160e1b	-0.036634546
157	0x3d45ae36	0.048261844
158	0xbdd57c03	-0.10424044
159	0xbd2da78d	-0.042396117
160	0xbe11b9bb	-0.14231007
161	0xbdb19490	-0.08670914
162	0xbe0767c5	-0.13223179
163	0x3cb6abf5	0.022298792
164	0xbe3106d7	-0.17287765
165	0xbe07040b	-0.13185136
166	0xbdd6e49b	-0.10492822
167	0x3c97feef	0.018554179
168	0xbd401803	-0.0468979
169	0xbc85a63c	-0.016314618
170	0xbc9abf98	-0.018890187
171	0xbdf584da	-0.1198823
172	0x3d78c303	0.060732853
173	0xbd83ad28	-0.06429511
174	0x3c61ebf1	0.013789163
175	0xbde04fa0	-0.10952687
176	0xbc6765bb	-0.0141233755
177	0xbd9a1149	-0.07522828
178	0x3d4be71e	0.049780957
179	0xbd8c6c26	-0.06856565
180	0x3b69ba69	0.0035664088
181	0xbd52c13a	-0.051453806
182	0x3d835fa3	0.06414726
183	0xbdf1d0a7	-0.118073754
184	0xbd84b71c	-0.06480238
185	0xbc1e2482	-0.009652259
186	0xbd64628f	-0.055758055
187	0xbd9bba23	-0.07603862
188	0xbd8a5b6a	-0.06755717
189	0xba8fbc1a	-0.0010966093
190	0xbd05bcc6	-0.03265073
191	0xbd1dfd80	-0.038571835
192	0xbd81e473	-0.06342401
193	0xbe52e1c5	-0.20593937
194	0xbd613200	-0.054979324
195	0xbda3c465	-0.07996444
196	0xbe0840c8	-0.13305962
197	0xbdbfabed	-0.09358964
198	0xbe02e096	-0.12780985
199	0x3b006179	0.0019589348
200	0xbd68203c	-0.056671366
201	0xbe177633	-0.14791183
202	0xbcc65b08	-0.024213329
203	0xbd81ec6e	-0.063439235
204	0xbe0ba131	-0.13635708
205	0xbe1880b2	-0.14892843
206	0xbdab78a1	-0.083726175
207	0x3c6cee12	0.014461057
208	0xbe0cca5c	-0.13749069
209	0x3cba71c7	0.022759331
210	0xbe210fdc	-0.15728706
211	0xbe129908	-0.1431619
212	0xbd90b757	-0.07066219
213	0xbd1944ae	-0.037419014
214	0xbcd56f2c	-0.026053987
215	0xbdca42a8	-0.09875995
216	0xbd049044	-0.032364145
217	0xbd89939e	-0.06717609
218	0xbd7ddef3	-0.0619802
219	0xbe12f7e4	-0.14352375
220	0xbe311f7c	-0.17297167
221	0x3d1ce13e	0.038300745
222	0xbba260b0	-0.0049553737
223	0xbd02b77a	-0.031913258
224	0x3da3845d	0.07984231
225	0xbdc76318	-0.097356975
226	0xbc94e228	-0.018174246
227	0xbd3ca8b0	-0.04605931
228	0xbd059ce5	-0.03262033
229	0xbd9da7d7	-0.076980285
230	0xbd5307ce	-0.051521115
231	0xbcefed8b	-0.029288074
232	0xbe1ebb6f	-0.15501188
233	0x3cf487af	0.029849855
234	0xbcaacd10	-0.020849735
235	0xbc31a160	-0.010841697
236	0xbdab4afa	-0.0836391
237	0x3ced22e4	0.028947301
238	0xbdcce7c6	-0.10005145
239	0x3cde093d	0.027104015
240	0xbdfd1ede	-0.12359403
241	0x3cf7a0d8	0.030228063
242	0xbcaafb54	-0.020871796
243	0x3bbde012	0.0057945335
244	0xbda5f7d7	-0.08103912
245	0xbdb1cf64	-0.08682135
246	0x3b2abb78	0.0026051681
247	0xbe20592c	-0.15659016
248	0xbde95e51	-0.113949426
249	0x3cfd120a	0.03089239
250	0xbdd32889	-0.10310466
251	0xba3527f9	-0.00069105584
252	0xbdb6776d	-0.089094974
253	0x3bfd3a83	0.0077279224
254	0xbccfe550	-0.0253779
255	0xbdfa108e	-0.12210189

conv.bias f4 [5]
0	0xbcfddc05	-0.030988703
1	0xbddb4448	-0.10706383
2	0xbd2acdef	-0.0417003
3	0xbdb4abf5	-0.08821861
4	0x3e5a8203	0.21338658

fc1.weight f4 [64, 180]
0	0x3b3b3700	0.0028566718
1	0xbd14835f	-0.036258098
2	0x3d46923e	0.04847931
3	0xbd8a7962	-0.06761433
4	0x3d471680	0.048605442
5	0xbd274784	-0.040839687
6	0xbcac85d8	-0.021059915
7	0xbc9ad4ba	-0.018900264
8	0xbb8b6900	-0.0042544603
9	0x3d5c2aee	0.05375188
10	0xbd0f71c5	-0.03502061
11	0xbd417eac	-0.047239944
12	0x3bbc02b0	0.005737625
13	0xbe09e0a5	-0.13464601
14	0x3db0b792	0.08628763
15	0x3cc7504b	0.024330279
16	0xbc0de774	-0.00866114
17	0x3bc5e7f0	0.006039612
18	0xbc288b80	-0.010287166
19	0x3d807363	0.06272008
20	0xbd577122	-0.052598126
21	0x3cce4ff7	0.025184615
22	0x3d0adf04	0.03390409
23	0x3c8dfb94	0.017331876
24	0x3d190e46	0.037367128
25	0x3da32134	0.07965317
26	0x3de077f6	0.10960381
27	0x3d0e6aeb	0.034769934
28	0x3da4db48	0.08049637
29	0xbceb6cc8	-0.028738394
30	0xbd7856d8	-0.060629696
31	0x3c60be78	0.013717286
32	0x3cdd7578	0.027033553
33	0xbd652ec4	-0.055952802
34	0xbd4bc7b1	-0.049750987
35	0xbd1d5703	-0.03841306
36	0xbd76fdab	-0.06030051
37	0x3c855ea4	0.01628048
38	0x3d0b8100	0.03405857
39	0x3bcf41c0	0.0063249767
40	0xbc967ab4	-0.018369056
41	0x3cdf53f8	0.02726172
42	0xbca65b26	-0.020307135
43	0x3bc055a0	0.0058695823
44	0xbdc1d3b3	-0.094642065
45	0xbdc87beb	-0.097892605
46	0xbb03c180	-0.0020104349
47	0xbd6f1224	-0.05836691
48	0x3c30a700	0.010782003
49	0xbe0f2c92	-0.13981846
50	0xbcaa67fd	-0.020801539
51	0xbc3fb27b	-0.011700268
52	0xbdd2f362	-0.10300328
53	0xbd5ff7ef	-0.054679807
54	0x3d66e7ea	0.056373514
55	0xbdffc62f	-0.124889724
56	0xbcd0ef9c	-0.02550488
57	0xbe094874	-0.13406545
58	0xbd5d8248	-0.054079324
59	0xbd5a330e	-0.053271346
60	0xbce9f9c2	-0.028561477
61	0xbce38caa	-0.027777035
62	0xbde31058	-0.11087102
63	0xbcb82b0c	-0.022481464
64	0xbd161e48	-0.036649972
65	0xbd88b4fb	-0.06675144
66	0xbcdbed4e	-0.026846554
67	0xbd89d877	-0.067307405
68	0xbd4bf97e	-0.04979848
69	0xbd801227	-0.06253462
70	0x3d4dc4e2	0.05023659
71	0x3d8fa20f	0.07013332
72	0xbdb7f261	-0.08981777
73	0xbd986a91	-0.07442201
74	0xbc23cde1	-0.009997816
75	0xbd77c838	-0.060493678
76	0xbd8c7028	-0.068573296
77	0xbcaf19f4	-0.02137468
78	0xbdfd8f4e	-0.12380849
79	0xbddf4e1f	-0.10903572
80	0xbdaf30c3	-0.085542224
81	0xbd0961d3	-0.033540558
82	0xbd920904	-0.07130626
83	0xbdc2625e	-0.09491418
84	0xbd6ecfb3	-0.058303546
85	0xbd9efe7e	-0.07763384
86	0x3d5d3f84	0.05401565
87	0xbdd9c3da	-0.10633059
88	0xbcab9c4e	-0.020948555
89	0xbd0cf342	-0.034411676
90	0xbb0427b3	-0.0020165264
91	0xbe0b9e7e	-0.13634679
92	0x3d7eb34a	0.062182702
93	0xbc5b2930	-0.013376519
94	0x3a84a115	0.0010118807
95	0xbd6b5f38	-0.057463855
96	0xbd0c41c9	-0.034242425
97	0xbddf6f88	-0.10909945
98	0xbe0e01d1	-0.1386788
99	0xbd47392d	-0.04863851
100	0xbd67f6ae	-0.056631736
101	0xbda7bb20	-0.08189988
102	0xbda3169f	-0.07963299
103	0xbd06c7c5	-0.03290536
104	0xbe007604	-0.1254502
105	0xbd52bbab	-0.051448505
106	0xbd3e49e3	-0.046457183
107	0xbd60491d	-0.054757226
108	0xbd1d4334	-0.038394168
109	0xbcbeb36f	-0.02327892
110	0xbe0dff57	-0.13866936
111	0xbca66017	-0.020309491
112	0xbe172948	-0.14761841
113	0xbda9dce7	-0.08294087
114	0xbd9d7162	-0.07687642
115	0xbdd09851	-0.10185302
116	0xbc961876	-0.01832221
117	0xbdae7326	-0.085180566
118	0xbdcbd4cf	-0.099526994
119	0xbcd99970	-0.026562423
120	0xbc8306dc	-0.015994482
121	0xbc306af6	-0.010767689
122	0x3b5f4fe7	0.0034074725
123	0xbde91763	-0.11381414
124	0xbd8e034b	-0.06934222
125	0xbc7bb270	-0.015362367
126	0xbcfd9b23	-0.030957764
127	0xbd416131	-0.04721183
128	0x3c22f3a3	0.009945783
129	0xbd65984c	-0.056053445
130	0xbde38e25	-0.11111096
131	0xbd8a47cf	-0.06751978
132	0xbc89138b	-0.016732952
133	0xbd4bacbf	-0.04972529
134	0xbdb1951f	-0.08671021
135	0xbdc45344	-0.09586194
136	0xbd1b2a9c	-0.037882432
137	0xbb5eccaf	-0.0033996513
138	0xbdc21bb1	-0.09477938
139	0xbd8f75f8	-0.07004923
140	0xbe10adec	-0.14128846
141	0xbd343675	-0.043997247
142	0xbd1bcd95	-0.038037855
143	0xbe0949d4	-0.1340707
144	0xbd2996c0	-0.041403532
145	0x3d8ed515	0.06974236
146	0x3d893eff	0.06701469
147	0xbc6e90e0	-0.014560908
148	0xbc0c2e38	-0.008555941
149	0x3ccb9ef0	0.02485606
150	0x3d87c949	0.06630189
151	0xbc87a2ea	-0.016557176
152	0x3dea7ae2	0.11449219
153	0xbcb5cca4	-0.022192307
154	0x3d12a988	0.03580621
155	0x3c5a2f60	0.013316959
156	0x3c5d0588	0.013490088
157	0xbd5028fa	-0.05082033
158	0x3d91020e	0.0708047
159	0xbdc2911c	-0.09500334
160	0x3b444587	0.0029948668
161	0x3d2d1fb0	0.042266548
162	0xbc9343d8	-0.017976686
163	0x3d3d48f2	0.046212144
164	0x3dd11e2d	0.10210834
165	0xbb81284b	-0.003941571
166	0xbdcb2697	-0.0991947
167	0xbd9086b8	-0.070569456
168	0x3d5188e6	0.051155947
169	0xbc7b53aa	-0.015339771
170	0x3de17be5	0.11009959
171	0xbd2390bc	-0.03993295
172	0xbd97591b	-0.073900424
173	0x3d5c54ea	0.053791918
174	0x3c670600	0.014100552
175	0x3d01fd12	0.031735487
176	0x3d157f9a	0.036498643
177	0x3d8ab4dd	0.06772778
178	0xbcadbbb0	-0.02120766
179	0x3c3f8ad8	0.011690818
180	0x3d7658d6	0.060143314
181	0x3c876b14	0.016530551
182	0x3d96b82b	0.07359346
183	0x3d2d5760	0.042319655
184	0x3d9417a3	0.07231071
185	0xbd255506	-0.040364288
186	0xbd8cbccc	-0.06871948
187	0x3d64d652	0.055868454
188	0xbccc074a	-0.02490582
189	0xbd099879	-0.033592675
190	0xbd0b90e7	-0.034073737
191	0x3c403208	0.011730678
192	0x3d69859a	0.057012178
193	0xbd97f151	-0.07419074
194	0x3d964225	0.07336835
195	0xbcdc4d1e	-0.026892241
196	0xbd6867e2	-0.056739695
197	0x3d685496	0.056721292
198	0x3bb8e180	0.005642116
199	0x3c4ff708	0.012693174
200	0xbd3545f6	-0.044256173
201	0x3c8b6628	0.017016485
202	0xbd724504	-0.05914785
203	0x3d935fbb	0.071959935
204	0x3c60e4e0	0.013726443
205	0x3d513f16	0.051085554
206	0x3d26c4d6	0.04071506
207	0xbd3a6af4	-0.045512155
208	0xbd4f2e0b	-0.05058102
209	0xbc1de340	-0.0096367
210	0x3d1d4b96	0.038402162
211	0xbbf744c0	-0.0075460374
212	0xbd059b51	-0.032618824
213	0x3d983733	0.074324034
214	0xbd5380dc	-0.05163656
215	0x3d8d70f1	0.069063075
216	0x3d4c64ea	0.049900927
217	0x3c58ce40	0.013232768
218	0x3c72f5b0	0.014829084
219	0xbd943b23	-0.07237842
220	0x3d36aa54	0.04459603
221	0x3d5974f6	0.05309006
222	0xbd297f20	-0.041381
223	0xbc567e7c	-0.01309168
224	0xbc4cdd9a	-0.012504006
225	0xbc1cb256	-0.009564003
226	0xbc2e91f0	-0.010654911
227	0xbd7a2486	-0.061069988
228	0x398d7300	0.00026979297
229	0xbdec17fd	-0.11528013
230	0xbdc0f218	-0.09421176
231	0xbd9fbe4a	-0.07799967
232	0xbde58166	-0.112063214
233	0xbc88a8d4	-0.016682066
234	0xbba8d490	-0.0051522925
235	0x3c88ef85	0.016715774
236	0x3c757448	0.014981337
237	0xbd66a834	-0.056312755
238	0x3b84db74	0.004054481
239	0xbcd0fd44	-0.025511391
240	0x3d7d1ec2	0.06179691
241	0xbde177d9	-0.11009187
242	0xbd4c0526	-0.049809597
243	0xbdc4e609	-0.09614188
244	0xbdfb0adc	-0.12257931
245	0xbbb33f80	-0.0054702163
246	0xbd2d2b75	-0.042277772
247	0x3d29d86e	0.04146617
248	0xbd5893c4	-0.052875295
249	0x3d0786a0	0.033087373
250	0xbc0844d0	-0.008317187
251	0xbc94f5b8	-0.018183574
252	0xbdd10e13	-0.102077626
253	0xbc68856e	-0.014191968
254	0xbce86e48	-0.028372899
255	0x3afb9292	0.0019193462

fc1.bias f4 [64]
0	0xbd6fd326	-0.058550976
1	0xbd1041df	-0.03521907
2	0x3ceeff81	0.029174568
3	0x3da90214	0.082523495
4	0xbdf55820	-0.11979699
5	0x3b934066	0.004493761
6	0xbd3c1b40	-0.045924425
7	0xbd1b1413	-0.03786094
8	0xbde2d81f	-0.11076378
9	0x3d027813	0.031852793
10	0xbcbdb678	-0.023158297
11	0xbd58337e	-0.05278348
12	0xbd8b6d75	-0.06807987
13	0x3b3a387c	0.0028415015
14	0x3d3888ab	0.04505221
15	0xbd8507f6	-0.06495659
16	0xbcee7dda	-0.029112745
17	0xbc855e3c	-0.016280286
18	0xbd1f7406	-0.038929008
19	0xbd8fb3f5	-0.07016746
20	0xbd353395	-0.044238646
21	0xbcab7aeb	-0.020932635
22	0xbd3829b9	-0.044961665
23	0xbd0eeeb1	-0.034895603
24	0x3ec8546f	0.39126918
25	0x3d15286f	0.036415514
26	0xbd7aca6a	-0.061228193
27	0xbcf95ad5	-0.03043882
28	0xbde00d12	-0.10939993
29	0xbcdb28b2	-0.026752803
30	0x3df139f0	0.11778629
31	0xbd567952	-0.052361794
32	0xbd8c3a2e	-0.068470344
33	0xbd06a2f6	-0.032870255
34	0x3d191733	0.03737564
35	0xbd66b2b7	-0.05632278
36	0xbd8bdda6	-0.068293855
37	0xbdab86ad	-0.08375297
38	0xbcc4aa07	-0.024006857
39	0xbd439c10	-0.047756255
40	0xbde2dca6	-0.110772416
41	0x3cb8f0c2	0.02257574
42	0xbcfc0339	-0.030763255
43	0x3dbcb889	0.09214885
44	0x3e45e91b	0.19327204
45	0xbca38d33	-0.01996479
46	0x3e7b3718	0.24532735
47	0xbd0887d2	-0.033332653
48	0x3baab90f	0.005210049
49	0xbe0aea4c	-0.1356594
50	0xbcf33519	-0.029688405
51	0xbd384fb3	-0.044997882
52	0xbdb4b646	-0.088238284
53	0xbd775bd3	-0.060390305
54	0xbdd90c65	-0.10598067
55	0x3b7ee673	0.0038894683
56	0x3e550162	0.20801309
57	0xbc7e2f54	-0.015514214
58	0xbd90e748	-0.070753634
59	0xbd75176e	-0.059836797
60	0xbd01cdaf	-0.031690296
61	0xbc9a44a7	-0.018831564
62	0xbd3a1553	-0.045430493
63	0xbe35690c	-0.17715853

fc2.weight f4 [4, 64]
0	0xbcfa5304	-0.030557163
1	0x3c2055c9	0.009786078
2	0x3d5fc916	0.05463513
3	0xbc647c24	-0.013945613
4	0xbd801664	-0.06254271
5	0xbdbb2013	-0.09136977
6	0xbb356c20	-0.0027682856
7	0xbd9c4c3f	-0.0763173
8	0xbc43a6c1	-0.011941613
9	0x3ebf503e	0.37365907
10	0xbb9528a0	-0.004551962
11	0x3cd53e88	0.026030794
12	0xbe26e0be	-0.1629667
13	0xbde79d1c	-0.11309263
14	0x3b8aabef	0.004231922
15	0x3d71229b	0.058870893
16	0x3c8d6fe1	0.017265262
17	0x3ecdc823	0.40191755
18	0x3d1782e7	0.036990073
19	0xbd0a8e64	-0.0338272
20	0xbb3a7084	-0.0028448412
21	0x3bb3dc3d	0.005488901
22	0x3cbde98b	0.023182651
23	0xbd55873d	-0.052130926
24	0x3f06eb80	0.52703094
25	0x3ea7877e	0.3272056
26	0x3cb8cf98	0.022559926
27	0xbd2d8eeb	-0.042372625
28	0x3c926c6f	0.01787397
29	0x3c83aae0	0.01607269
30	0x3ebf419f	0.37354752
31	0xbd6e3422	-0.058155186
32	0x3dfa5ae6	0.12224369
33	0xbe173b4d	-0.14768715
34	0xbd294145	-0.04132201
35	0xbd4b1679	-0.04958198
36	0xbd248ddc	-0.04017435
37	0x3d523a71	0.051325265
38	0xbc05695e	-0.008142797
39	0x3cfca59d	0.03084069
40	0x3d851c2f	0.06499516
41	0xbddc1ede	-0.10748075
42	0xbcbf0c63	-0.023321336
43	0x3e68d9f4	0.22739393
44	0x3f026555	0.5093587
45	0x3d5bb0a4	0.053635255
46	0x3ef1c5a4	0.472211
47	0xbd8e628a	-0.069523886
48	0x3be24efe	0.0069063893
49	0x3d837df1	0.06420506
50	0xbb83d352	-0.004022994
51	0x3d235478	0.039875478
52	0x3d1dcf9a	0.038528062
53	0x3d34fb80	0.04418516
54	0xbcaf9c3e	-0.021436807
55	0xbd2bd722	-0.041953214
56	0x3ef9f961	0.48823074
57	0xbc61aff9	-0.013774865
58	0xbd6fe529	-0.058568154
59	0x3c11e86c	0.008905511
60	0xbd39adf8	-0.045331925
61	0x3cdb06b2	0.026736591
62	0xbe0bc9ef	-0.1365125
63	0xbe4e7fe1	-0.2016597
64	0x3e1867e6	0.14883384
65	0x3d1d5b03	0.038416874
66	0x3e25d214	0.1619342
67	0x3d28b913	0.041192126
68	0x3d3fbaba	0.046808936
69	0xbd40203b	-0.046905737
70	0x3d944208	0.07239157
71	0xbcf4b4cf	-0.029871373
72	0x3dc0d743	0.09416058
73	0xbdf0f05a	-0.117645934
74	0x3d4b52ec	0.049639627
75	0xbdfc5a20	-0.123218775
76	0xbd6f5bd6	-0.05843719
77	0xbd75c5ec	-0.060003206
78	0xbd2575cb	-0.04039554
79	0x3d37a02c	0.044830486
80	0xbdcc3a56	-0.09972064
81	0xbe019ea2	-0.1265817
82	0x3d9ec5a3	0.0775254
83	0x3b9d6033	0.0048027276
84	0xbb79875c	-0.0038075065
85	0x3e21911d	0.15778013
86	0xbc64dc4e	-0.01396854
87	0x3b777485	0.003775866
88	0xbe263538	-0.16231239
89	0xbdd2f50b	-0.103006445
90	0xbcc043b8	-0.02346979
91	0x3d95c5c0	0.073131084
92	0x3dde76b9	0.10862488
93	0x3d5c4c7c	0.05378388
94	0xbdf80f4f	-0.12112295
95	0xbd1c411c	-0.03814803
96	0xbce2b608	-0.02767469
97	0xbcaaf36a	-0.020868022
98	0x3cb2f3f7	0.021844847
99	0x3dad7d33	0.084711455
100	0xbba7871a	-0.005112541
101	0x3e0b273d	0.13589187
102	0x3d94ae6f	0.07259833
103	0x3dad03e8	0.08448011
104	0x3cc9bf3c	0.02462732
105	0x3d51e5fd	0.051244725
106	0x3b8cdb37	0.0042985934
107	0xbd91d82c	-0.0712131
108	0xbe2864a5	-0.16444643
109	0xbc0bf263	-0.008541676
110	0xbe20ce1a	-0.15703622
111	0x3d57df04	0.05270292
112	0xbc5f374c	-0.013624024
113	0xbdcd6349	-0.10028703
114	0x3e1aae34	0.15105516
115	0x3d9900cb	0.07470854
116	0x3deb4982	0.1148863
117	0xbcaf08a8	-0.021366432
118	0xbce21963	-0.027599996
119	0x3d962021	0.07330347
120	0xbe15bf76	-0.14623818
121	0x3cd1bbcf	0.02560225
122	0x3dd39aae	0.10332237
123	0x3e359719	0.1773342
124	0xbd2f674c	-0.04282312
125	0x3b2da62e	0.0026496756
126	0x390605a3	0.00012781336
127	0x3d2aa627	0.04166236
128	0x3ddd349e	0.108010516
129	0x3d4658b3	0.048424434
130	0xbd25e86d	-0.04050486
131	0x3e56bc05	0.20970161
132	0x3defe87a	0.11714263
133	0xbe3ab0e5	-0.18231542
134	0x3d466977	0.048440423
135	0x3d44367b	0.04790352
136	0xbd1011c6	-0.0351732
137	0x3e1311c2	0.14362243
138	0x3c5e8c40	0.013583243
139	0x3df3b0fc	0.118989915
140	0xbd95dd76	-0.07317631
141	0x3d2cae25	0.042158265
142	0x3e43266d	0.19057627
143	0x3d6d57a3	0.057944905
144	0xbd8a2879	-0.06746001
145	0x3e1e1868	0.15438998
146	0xbd996f68	-0.07491952
147	0x3e1c6c87	0.15275775
148	0xbc288b0f	-0.01028706
149	0xbc41937c	-0.011814948
150	0x3d98346d	0.074318744
151	0x3e045735	0.12923892
152	0x3e431cf1	0.19054009
153	0x3e00b2ff	0.12568282
154	0xbc5f1960	-0.01361689
155	0xbc9e26e1	-0.019305648
156	0x3c905d02	0.017622475
157	0xbd8f6d5c	-0.070032805
158	0x3e11a7bf	0.14224146
159	0x3b9d918c	0.0048086103
160	0x3d5b837c	0.05359219
161	0xbd9107d4	-0.07081571
162	0x3e30bf80	0.17260551
163	0x3d837897	0.06419485
164	0x3c781200	0.01514101
165	0x3d567609	0.05235866
166	0x3d5c07a4	0.053718224
167	0xbc885468	-0.01664181
168	0x3df40064	0.11914137
169	0x3c964c40	0.018346906
170	0xbda84638	-0.08216518
171	0x3dd33567	0.1031292
172	0x3e472dc2	0.19451049
173	0xbdc6e914	-0.09712425
174	0x3e461ec6	0.19347677
175	0xbdcdb87a	-0.10044952
176	0x3d9dd988	0.077075064
177	0xbd7f986c	-0.06240122
178	0x3cfb46b7	0.030673368
179	0x3dbc8ada	0.09206171
180	0xbd448b63	-0.047984492
181	0xbd882996	-0.06648557
182	0x3e2e2eb8	0.1701001
183	0xbd5cdae8	-0.053919703
184	0x3e3e9246	0.18610486
185	0x3d059e14	0.03262146
186	0x3da1861f	0.0788691
187	0xbb8c7768	-0.0042866953
188	0x3d570604	0.05249597
189	0xbd1840bf	-0.03717112
190	0x3c8bbf77	0.017059071
191	0x3c660a01	0.014040471
192	0xbd3c1b4c	-0.04592447
193	0x3cb8ea97	0.022572799
194	0x3de4d7b2	0.11173953
195	0x3dd8c967	0.105852894
196	0x3df0e89f	0.11763119
197	0xbe060806	-0.13088998
198	0x3bef292b	0.007298609
199	0x3dcab306	0.09897427
200	0x3ba68aff	0.0050824876
201	0x3f03be03	0.5146181
202	0x3de4888a	0.11158855
203	0xbdfa47e6	-0.12220745
204	0x3d643ec1	0.05572391
205	0xbcb4a5b6	-0.022051673
206	0x3d39d692	0.045370646
207	0x3d8aa693	0.06770053
208	0xbd98b6ed	-0.07456765
209	0x3f0dabdd	0.5534037
210	0x3d9c2296	0.07623784
211	0x3d4992c7	0.049212243
212	0xbe09021f	-0.13379715
213	0x3c5bca73	0.013414967
214	0x3de33260	0.11093593
215	0xbda96d80	-0.082728386
216	0x3f30f5eb	0.6912524
217	0x3ee69b8d	0.4504055
218	0x3d8ad694	0.06779209
219	0x3e1b35e5	0.15157278
220	0x3e0222d2	0.12708595
221	0xbda50538	-0.08057636
222	0x3f04213d	0.5161322
223	0xbcdff355	-0.02733771
224	0x3db46360	0.08808017
225	0xbc43986d	-0.011938197
226	0x3dba6116	0.09100549
227	0xbcd4f8a8	-0.025997475
228	0x3c2fdcd2	0.0107338
229	0xbd90ed58	-0.0707652
230	0xbca0c083	-0.019623047
231	0xbe24604d	-0.16052361
232	0x3b75d6c7	0.003751205
233	0x3e22f4f0	0.15913749
234	0xbe0aae85	-0.13543136
235	0x3eae703f	0.34070012
236	0x3f34297e	0.7037581
237	0xbe2681cf	-0.16260456
238	0x3f2e9b73	0.68205947
239	0x3d3d9bc4	0.046291128
240	0xbc607921	-0.013700754
241	0x3da140ed	0.07873712
242	0x3dde98d4	0.108689934
243	0xbd0738c3	-0.033013117
244	0x3de3540b	0.11100014
245	0xbda32476	-0.07965939
246	0xbcb66aa4	-0.022267647
247	0x3df8d380	0.121497154
248	0x3f2c3f0e	0.67283714
249	0xbcdde2b1	-0.027085634
250	0x3cccea97	0.025014205
251	0xbc8893a4	-0.016671963
252	0x3cc0a330	0.023515314
253	0xbd8602aa	-0.06543477
254	0x3d73c065	0.059509654
255	0xbd3a866d	-0.045538355

fc2.bias f4 [4]
0	0x3e47fcea	0.19530073
1	0xbd8e1458	-0.06937474
2	0x3e3487ad	0.17629881
3	0x3ee8ae46	0.4544546
