src/flatland/flat_game/results/ourmethod_reg3/rep_learner.pth (torch_old, 312930 bytes, 33 tensors)

representations f4 [6]
00000000: 0462 3cb9 8d00 a2bf ca4b 12bc 8ebf 8cbb
00000010: 8ec7 9fbb d776 a1bb
-0.00017965591 -1.2656418 -0.008929202 -0.004295296 -0.0048760837 -0.004927497

representations f4 [6]
00000000: afc5 ed3b 6f9d a03f 92a9 b03b e3e3 e3bb
00000010: 9e74 213b bc16 dcbb
0.0072562317 1.2548045 0.005391308 -0.0069546564 0.002463616 -0.0067165773

representations f4 [6]
00000000: f477 3ebb ea02 9cba aafc cb3a 9a11 bfbb
00000010: 8581 203f 426a a63b
-0.0029063197 -0.0011902724 0.0015562971 -0.0058309557 0.6269763 0.005078585

representations f4 [6]
00000000: c8e7 953b a30c aab9 97e7 943b 15ff a6ba
00000010: 8092 1fbf a4e9 033c
0.0045747496 -0.00032434342 0.004544209 -0.0012740815 -0.62332916 0.00805131

fc1.weight f4 [64, 4]
00000000: 6ed7 663f 5d88 0ebf f988 9c3f fd12 6e3f
00000010: a101 593f acca 47be 67ef 36bf de11 bcbf
00000020: 5462 3a3e d614 9a3e 58bf b53d 8090 bd3d
00000030: a585 0ec0 6df1 993d 335a ecbf 98ce bb3c
00000040: 9525 36c0 785c b83d c333 9cbf 7372 bd3e
00000050: e2aa 593f 2b12 3d40 d0af 803e 140f 1fc0
00000060: 7a8d 07bf d948 aabf bb54 b23d 97cd d23f
00000070: 6b85 5abe 4f64 bdbf dc98 21bf 80c5 4cbe
00000080: 567c 93bf 6eb3 693f ff36 81bf 1147 b0bf
00000090: 0784 4a3f ba6b ffbe f999 fdbe 98e3 f83f
000000a0: a700 eabf c03e c3bc 2e36 9640 51cb 3a3d
000000b0: 96c0 3abf 442d 103f 2000 bdbf 3872 c73f
000000c0: 320a e53f 3289 ac3e ca88 503f 656c 73bf
000000d0: 016c 99be 75ab 8f3f f8b2 a3bf 4cc3 0dbe
000000e0: a5ba 143f 43d1 ffbd 4b88 2440 73d1 3bbe
000000f0: c789 50c0 72a6 fc3d 6704 05c0 d15c a53d
00000100: 1976 8b3c 37b6 bc3d fa9b 063d fe09 87bd
00000110: 65f2 0040 bfdb 723e 5611 88bb 3814 903b
00000120: dcff 653f 3064 3140 3661 2d3e 1900 823f
00000130: 429d 3dbc a774 d7be 0e38 773d d5af f13f
00000140: 9172 28bf 7a1e b83f 29fc bc3f 7029 a93f
00000150: 7821 073e b8e5 4abe a0cd 4abe 3017 c93d
00000160: ec7b 5b3f d3b4 f13e 08c7 5ebe 9d26 68c0
00000170: ffb3 b3bd b753 c4bf bc51 9ebd ce76 a63f
00000180: a3cd 723e 6b73 1ac0 c042 c4bc 689f 0040
00000190: 3f65 80bf 859f 2ebf 580e 863f 7b61 fbbf
000001a0: f081 213e c6b9 15bf 8cd5 403e 2e1d 4940
000001b0: 2f25 543f 58f7 2ebf 288c 44bf 6241 d13f
000001c0: c655 0c40 62bd 33bf 0638 273f a87e c33d
000001d0: c8ac 5c3d 3385 383e b9e0 52be a044 a2be
000001e0: a7a2 54bd 3694 bd3f c288 133c 5d93 a3c0
000001f0: 2d7f dcba b123 383f 2b36 8bbd 01e6 a23f
00000200: cfa7 c83f a45b b93f 7296 d43e 866a 523f
00000210: 09cf 08c0 08b6 9f3d c7f0 b43f c3e0 58be
00000220: d585 f43e c9eb 2dbe 5936 b6bf 4dac ee3e
00000230: b020 49bf 2e62 abbf 89d2 0340 9ab2 b33f
00000240: 8d87 8ebf 5ffe 7c3d 1168 f3bf c2e5 6ebd
00000250: e9ae 883f 3351 c13e 5510 543d 3e74 c03e
00000260: 52cf 283f cd20 f9be 4e5b 1140 5b40 dabe
00000270: e328 cdbf ebdd 893e c9e7 28bf 92b0 3a3f
00000280: 4a9f 2ebe 69d4 22bf c470 ea3e 2779 033f
00000290: e002 593e d462 543f 823d 4540 807e a8be
000002a0: 649d 54bf 0b62 d13f 4f65 8d3f e740 7fbf
000002b0: db40 2d3f 9b8c cdbf 7b4c 0cbf 88e0 92bf
000002c0: 4833 92be a5e5 2e40 6028 413c aa64 12c0
000002d0: b6c4 5fbc 6d04 19bf 0e14 5ebb 4b6a 2b40
000002e0: 0054 623e 7f04 bd3e 6842 aabf 65af d8bf
000002f0: 00d1 73bd fd49 0ec0 87be 20bd 0838 343e
00000300: e3da 18c0 191e 243e ec2b ce3f f0a3 3cbe
00000310: d9c3 b03f 66c5 993f eb2a 80bf 7c13 983e
00000320: b26f b1bf 1324 07bf 8826 acbf ac97 e1bf
00000330: c387 253f ddc9 313f 467c 673d d982 0840
00000340: 81c9 603d 25a2 32bf b0aa 8fbc 0c10 1d40
00000350: 24c3 c13f 99db cfbf f131 a53f c828 823f
00000360: 0266 1a3f e729 33be 5f0e 14bf 87ff 14bf
00000370: 38b3 023f 9fa3 dbbd b9f0 e2bf 0539 fd3e
00000380: ac2e bd3d c957 2c40 0db7 c83c 341b 17c0
00000390: 1131 753e 9f8e ae3f 9cfa 1ebf e320 27c0
000003a0: a458 923f 60d5 c13f 5d80 31bf 9e65 12bf
000003b0: 05ff f6bd 7cda 67be c307 f03d 899f 903d
000003c0: 94c9 2abf 5150 bb3e ab5d 02bf c383 02be
000003d0: a94c 9c3e f8ef e4bf 94fc f5bc 8295 c03f
000003e0: 3b3f 0c3f 1391 c0bf ec44 b8bf 7560 fcbe
000003f0: 1d86 123f a901 35bf db65 8fbf a42c 273f
0.9017247 -0.55676824 1.2229301 0.92997724 0.8476811 -0.19510907 -0.7145905 -1.4692953
0.18201572 0.30094022 0.088743865 0.09256077 -2.226907 0.075167514 -1.8465027 0.02292566
-2.8460438 0.09002012 -1.2203296 0.3700138 0.8502637 2.954234 0.25134134 -2.4852953
-0.5295025 -1.3303481 0.08707567 1.6468991 -0.21339957 -1.4796237 -0.6312387 -0.19997215
-1.1522319 0.9128941 -1.0094908 -1.3771688 0.7910771 -0.49886876 -0.49531534 1.9444456
-1.8281449 -0.023833632 4.6941137 0.045604054 -0.7295011 0.5631907 -1.4765663 1.5581732
1.7893736 0.33698422 0.81458724 -0.9508727 -0.29965213 1.12242 -1.2788992 -0.13844031
0.58097297 -0.124910854 2.5708187 -0.18341617 -3.2584093 0.123364344 -2.0783937 0.08074344
0.017024087 0.09214442 0.032863595 -0.06593703 2.0147946 0.23716639 -0.004152457 0.0043969415
0.89843535 2.77174 0.16931614 1.015628 -0.011573138 -0.42081186 0.060356192 1.8881785
-0.65799814 1.4384301 1.4764453 1.3215771 0.13196361 -0.19814193 -0.19805002 0.09818876
0.85735965 0.4720827 -0.21755612 -3.6273568 -0.08774566 -1.5338048 -0.07730433 1.3005006
0.23711257 -2.4132946 -0.02395761 2.0097294 -1.0030898 -0.6821216 1.0473127 -1.9639124
0.15772223 -0.5848659 0.18831462 3.142406 0.8286924 -0.68346167 -0.7677636 1.6348078
2.1927352 -0.7021085 0.6531986 0.09545642 0.053875715 0.18019561 -0.20593537 -0.31692982
-0.05191293 1.4810855 0.009004774 -5.1117387 -0.0016822569 0.7192946 -0.06797441 1.2726442
1.5676211 1.4481091 0.4152103 0.8219379 -2.1376364 0.077983916 1.413598 -0.2117949
0.47758356 -0.16984476 -1.4235336 0.4661583 -0.785655 -1.3389337 2.059725 1.403888
-1.1135117 0.061766025 -1.9016134 -0.058324583 1.0678378 0.37757263 0.051773388 0.37588686
0.65941346 -0.48657838 2.2711978 -0.42627224 -1.6028103 0.26927122 -0.65978676 0.72925675
-0.17052951 -0.6360536 0.45789158 0.5135674 0.21192503 0.829633 3.0818791 -0.32909012
-0.8305266 1.6358045 1.1046542 -0.9970841 0.67677087 -1.6058534 -0.548042 -1.1474771
-0.2855475 2.7327664 0.011789411 -2.287394 -0.013657739 -0.5977238 -0.0033886465 2.6783626
0.22102356 0.36917493 -1.3301516 -1.6928526 -0.05952549 -2.223266 -0.0392442 0.17599499
-2.3883598 0.16027106 1.6107154 -0.18421912 1.3809768 1.2013366 -1.0013098 0.29702365
-1.3862212 -0.5278942 -1.3449259 -1.7624412 0.6466028 0.69448644 0.056515 2.1329863
0.05487967 -0.6977866 -0.017537445 2.4541044 1.5137677 -1.6238891 1.2905866 1.0168695
0.603119 -0.17496453 -0.5783443 -0.58202404 0.51054716 -0.107245676 -1.7729713 0.49457565
0.092374176 2.692858 0.024501348 -2.3610353 0.23944499 1.3637275 -0.6210115 -2.6113822
1.1433301 1.5143242 -0.6933649 -0.57186306 -0.1206036 -0.22641939 0.117202304 0.07061679
-0.66713834 0.36584714 -0.50924176 -0.12745576 0.30527237 -1.7885733 -0.030027665 1.5045626
0.5478398 -1.5044273 -1.4396033 -0.4929234 0.5723589 -0.7070566 -1.1202959 0.6530249

fc1.bias f4 [64]
00000000: 0d74 b2be e361 713f a068 c5be e14c bc3e
00000010: 8b60 42bd 3e0d 1f3b 0d9c 07bf ec1d 023f
00000020: bbfe ecbe f541 3dbe b49e 8bbf 92a8 193f
00000030: 8c98 153f 7da8 1f3f db0e 553e 0177 733e
00000040: 5452 39be 32ee d63e 7f93 103e 3c5f 4c3c
00000050: cf4e e33e d4a9 b8be 16d2 8cbc c56e 0ebd
00000060: 074c 033d bd95 493f 3abc 5e3e 4584 60bf
00000070: c913 293f d3d8 04bf 7e1a 42bd 9bce 2e3e
00000080: 4230 163e f0d7 623e 6525 e63e 6a85 10bf
00000090: b950 2f3f 5100 063f 8f9b c03e e6b5 57bd
000000a0: c47b 4e3e c1c7 653e e819 463f 202d ee3e
000000b0: bfd8 ffbd 8f6a ff3c f0f5 493f 64f0 c5bc
000000c0: 15fe 893e c023 fa3e 3b04 223f 52b9 8bbd
000000d0: 99f2 cabc 1cd1 29bf 6780 303f 9926 213f
000000e0: db59 50bb a974 543e 1e62 823f 061b c7be
000000f0: 219d bc3e c7b0 9d3d f6c8 0e3f 36b5 8f3e
-0.34854165 0.9428999 -0.38556385 0.36777404 -0.04745535 0.0024269368 -0.5297249 0.5082691
-0.46288094 -0.18482192 -1.0907807 0.6002284 0.58435893 0.6236647 0.20806448 0.23775865
-0.18097812 0.41978604 0.14118765 0.0124738775 0.44396064 -0.3606707 -0.01719002 -0.034773607
0.032054927 0.7874411 0.2175149 -0.8770183 0.66045815 -0.5189335 -0.047388546 0.17071001
0.14666846 0.22152686 0.44950405 -0.56453574 0.6848255 0.5234423 0.37618682 -0.052663706
0.201644 0.22439481 0.7738328 0.46518803 -0.12492513 0.03117874 0.78890896 -0.024162479
0.26951662 0.488554 0.63287705 -0.068224564 -0.024773883 -0.663347 0.68945926 0.6294952
-0.003179184 0.20747627 1.0186193 -0.38887805 0.3683863 0.07699733 0.5577539 0.2806794

fc2.weight f4 [180, 64]
00000000: 7e49 06bf bda2 8dbc f012 a33d 6c6a 6c3d
00000010: 4638 a93e f814 973f dcef 1abf b286 d63d
00000020: 4b2d 963f 7424 1e3e 03fa a0bf 1c6d 1d3e
00000030: 0b73 bdbd 42fc 773e 02d1 1b3d e8bf 443e
00000040: 0089 a33b 8b47 153e c890 503f a2c4 3f3e
00000050: 2de0 80bd d074 36bc 55b0 813e 08d3 3f3e
00000060: 453b 373f 840c 5d3f 2fd2 c6be ded1 2cbe
00000070: a4df 0f3f 7442 7b3d b16a 3abf b7da a03d
00000080: 9b6b 9cbe 3016 99be 7af9 13bc deab 713c
00000090: 4c8f 813e 3def 8b3d 2f74 b1be f285 653e
000000a0: 8295 b63d e5db 35bf cda3 39bf 7f2a e5be
000000b0: 3aba 8c3e c118 50bd 5580 64be 07e2 37bf
000000c0: 53f8 e5be d6fa 76be 5c44 9abd c568 47bf
000000d0: 567a 97be 6845 89be 2a8f 243e 5cac a13c
000000e0: 91d1 81be c817 ecbe c86b 0cbe 6eb9 493d
000000f0: 7f57 aa3d df41 af3e 58c8 793d ad6a 0d3e
00000100: d22c 91bd dce4 11be 3612 e73d 0cdb 8f3d
00000110: 3828 213d 94ac 583d c0ca 53bb 608c 60bd
00000120: 9dea d2bd e028 d63b dc96 0d3d 94e8 02be
00000130: 9591 cb3c 6ff7 bdbd 224d c03d 701c bfbc
00000140: c0f0 263b 817e 88bd 90d9 0ebc 6e73 61bd
00000150: 0e0f fc3d 8012 ca3d 2d8e 8cbb c4aa 4bbd
00000160: 9cda d1bd cae9 2f3d e654 993d 4dad 39bb
00000170: 8b28 26be d8c2 6dbd b431 a6bd 0cd8 c3bd
00000180: c69a 983d c016 c9bd 59f1 723d 72c6 84bd
00000190: 5c90 5a3d f954 12be 60e6 4cbd 8a24 81bc
000001a0: e503 2ebe 8023 a3bd 8021 b3bc b98d 77bc
000001b0: 39d2 37bd 3022 33bc dc94 a23c 9f0b d6bc
000001c0: 18df bb3d 3ee7 7cbd f2a0 f1bd 2834 a3bc
000001d0: e465 943d 365a ecbd 73d7 0ebe 07a2 6ebd
000001e0: fc06 39bd 9096 07bc e75f 16be 7a50 d43d
000001f0: 2d05 15be 623a dfbd 73fe 13bd e85e 2cbc
00000200: 3fa9 b23d 9d15 213c f443 d7bd ee26 8ebe
00000210: 537f ddbf 31d3 64be c47e 413e ee8c cabe
00000220: fb87 0d3f 384a 703f bdfd 85bf e807 21c0
00000230: 81b2 943e 821f 1fbe 5cdf f63e 4a68 40bf
00000240: 4011 723b e2d1 c23e 6c9f 523f a20d d33e
00000250: 0cbc 7fbf e09d f5bc 82b8 b4be a351 5d3e
00000260: 23ca d83e f267 5fbf d36e 4c3f 6dee ca3e
00000270: 7fbd 0d3f f4ff 03be 7b44 04be 3096 0abf
00000280: 5485 a83e 4cb7 7fbf 6305 f4be 218c 373e
00000290: 00bb 4ebf 1b82 583e 803e 9d3e a1db 6ebe
000002a0: b42e 853d 4a63 f13b 6a78 01bf a8af a13d
000002b0: f108 b23f 15bc fe3d b677 c1be e98a 4dbe
000002c0: ff76 9cbf b134 dbbd 6371 76bc 558a cebe
000002d0: 248a 843e b5ba 643e 1f4a 31be 5fa7 0abf
000002e0: cd3f 783f 4c03 6d3f e40c c4bd a592 c1bc
000002f0: 871b 2bbf a074 353e 2ca3 71bf fe74 a2be
00000300: bb44 80be f442 e2be 5c91 42bd 1a6d 383f
00000310: c690 c43f f465 fabd 74f9 2b3f 4e42 583e
00000320: 0bfd aabe 6213 b93f ab72 cabf 559b 8fbe
00000330: 94f7 283f 7855 823e e343 6d3e 40e2 e83f
00000340: e0b1 42bd 48e7 333f f00c 833f d853 1c3f
00000350: 48dd cd3f bc61 80bd e1e4 d43f d46c ce3e
00000360: 7399 433f 7ff3 a83f eccb 5a3f 0846 69bf
00000370: 9a84 bb3f ee2a b6bd 3787 5f3e dbeb 4d3f
00000380: 5e3c a0be f7fb 28bf 1016 423f c281 59bf
00000390: 2306 0a40 f645 cf3e 5723 3a3e 5c05 a4bf
000003a0: be4f 0abf 1759 103e e1e2 ffbf c847 393d
000003b0: 1572 1c3f 0701 f03e 8c49 913f be02 813e
000003c0: 3c31 57bf 3edd a03f b04a 073f 8f43 d53e
000003d0: 34b2 083f ad67 663f 162e 843e d4cb 4d3f
000003e0: 14b8 8c3e 519c 093f f50f 0840 b4c6 143d
000003f0: 6889 08bf 0e1c 313f c54d 703f 26e5 963b
-0.5245589 -0.017289514 0.079625964 0.05771868 0.33050746 1.1803274 -0.60522246 0.1047491
1.1732572 0.15443593 -1.2576298 0.15373653 -0.09250458 0.24217322 0.038041122 0.19213831
0.004990697 0.14578073 0.8147092 0.18727353 -0.06292758 -0.011136249 0.25329843 0.18732846
0.71574813 0.8634722 -0.38832232 -0.16876933 0.56200624 0.06134267 -0.7281905 0.078542165
-0.30550846 -0.2989974 -0.009031648 0.014750449 0.2530464 0.068327405 -0.34658954 0.22414377
0.08915235 -0.7103866 -0.72515565 -0.44758984 0.2748583 -0.050804857 -0.2231458 -0.71829265
-0.4491602 -0.24119124 -0.0753257 -0.7789424 -0.29585522 -0.26810765 0.16070238 0.019735508
-0.253552 -0.46111894 -0.1371299 0.049249105 0.0831747 0.34229943 0.06098208 0.13810225
-0.07088627 -0.14247459 0.1128277 0.07024202 0.039344996 0.05289896 -0.0032316893 -0.054821372
-0.10298655 0.0065356344 0.0345677 -0.12784034 0.024849692 -0.0927571 0.09389712 -0.02332899
0.0025473088 -0.06664754 -0.008718863 -0.055041723 0.12307559 0.0986681 -0.0042894096 -0.0497234
-0.102467746 0.042947568 0.07486896 -0.0028332055 -0.16226403 -0.058047146 -0.08114949 -0.09562692
0.07451396 -0.09818792 0.0593122 -0.06483163 0.053360328 -0.14290227 -0.05002439 -0.015764493
-0.16993673 -0.079657555 -0.02186656 -0.015109473 -0.04487822 -0.010933444 0.019846372 -0.026128588
0.09173411 -0.061743967 -0.11798276 -0.019922331 0.072459966 -0.11540644 -0.13949375 -0.05825999
-0.045172676 -0.008275643 -0.14685021 0.10366912 -0.14552756 -0.108998075 -0.036131334 -0.010520674
0.087236874 0.009831813 -0.10511008 -0.27764076 -1.7304481 -0.22346188 0.18896013 -0.39560646
0.55285615 0.9386325 -1.046806 -2.5161076 0.29042438 -0.15539363 0.48217285 -0.7515913
0.0036936551 0.38050753 0.8227451 0.4122134 -0.9989631 -0.029982507 -0.35297018 0.21613173
0.42341718 -0.8726798 0.79856604 0.3963503 0.55367273 -0.12890607 -0.12916748 -0.5413542
0.3291422 -0.99889064 -0.4766036 0.17924549 -0.8075409 0.21143381 0.30711746 -0.2332597
0.065030485 0.0073665725 -0.5057436 0.07894832 1.3908979 0.124382176 -0.37786645 -0.20072521
-1.2223815 -0.107034095 -0.015041682 -0.40339914 0.25886643 0.22336848 -0.17313431 -0.5416164
0.9697235 0.92583156 -0.09572771 -0.023629496 -0.6683888 0.1772027 -0.94389606 -0.31729883
-0.25052437 -0.44191706 -0.047501907 0.72041476 1.5356681 -0.12226477 0.6717751 0.21119043
-0.3339618 1.445904 -1.5816244 -0.28048196 0.66002774 0.25455832 0.23170428 1.8194046
-0.047532916 0.7027478 1.0238323 0.61065435 1.6083155 -0.06268641 1.6632348 0.40317404
0.7640602 1.3199309 0.8546741 -0.91122484 1.4649842 -0.08894907 0.21828924 0.8043801
-0.31296057 -0.6600947 0.75814915 -0.8496362 2.1566246 0.40483063 0.18177544 -1.2814136
-0.54027927 0.14096485 -1.9991113 0.04523447 0.61111575 0.46875784 1.135057 0.25197405
-0.840595 1.2567518 0.5284834 0.41653106 0.53396916 0.90001947 0.2581641 0.8038914
0.2748419 0.53754145 2.125974 0.03632231 -0.53334665 0.69183433 0.93868667 0.0046049533

fc2.bias f4 [180]
00000000: 8d51 f9bd 523c 48bd 78c1 963b 2944 8f3e
00000010: f342 36be 952a a53d 9072 27be 50cb 07be
00000020: 2a42 86bc 6698 2bbd fda9 cb3e 9afd 253e
00000030: 76c6 bbbd 9717 d4bd 6080 653c 5392 17be
00000040: 40df 12be c36e 503e 1e8c e2bc baa9 9c3e
00000050: a12b 103d d022 dcbc 7dcf 1cbd e32e 7c3d
00000060: 80ce 13be 9044 30be 0ee0 1d3c dfa1 403c
00000070: 1897 1fbe 2fa5 5a3e a504 d5bd 4d62 88bd
00000080: 84c8 4b3e f96b 293e 01c3 293e 44cb 1cbe
00000090: 4289 f43e e26f 213e 1ad8 bd3e 349b 323f
000000a0: 146a af3e 5a9b ea3e 5948 8c3e 36aa 903d
000000b0: 8c68 53bc 6828 29be 53cc c6bd 0ac0 ba3e
000000c0: 1843 babe 02e0 32bd 63e6 27bd e15b e6bd
000000d0: 46e7 fabd 9fb0 863e f0fe a6bd 0b16 aabb
000000e0: 12e5 6cbc acc8 26be 3a98 edbb c672 73bb
000000f0: b8f5 fcbd 8845 0fbe cf9f 9ebd 2094 1cbe
00000100: e4af 3abd 8d24 c9bd 6c55 ae3e a31d acbd
00000110: 455c 5fbe 1a26 63bd 02c9 0cbe 4c9c 9fbe
00000120: 04e6 0a3f 3990 113e 6d7c 7f3c 2aea 7fbc
00000130: c096 d63e 3c03 14be f307 06be 631d 12bd
00000140: f4b6 22be fd48 ecbd 8399 38be a22b e43c
00000150: a67b ddbd 397e 44bd 6cf6 d2bc be71 d2b9
00000160: fde3 a5bd 1fb8 85bc a888 2fbc 72ca 37bd
00000170: 8955 d5bd 14f2 4abe c0ae 89bb b4e0 893e
00000180: eb2c a43e cdb8 093c dff8 d73b a1b6 4abe
00000190: f0b6 cdbd 8a50 6f3e 82f0 e4bd b9ea d93e
000001a0: e207 9fbd 015c 113f ac48 a23e 2de7 b93e
000001b0: 4380 dc3e 8f8d c23e b399 333e eb71 923d
000001c0: 735b 093f 846b e33e 9e56 433e dead 68bd
000001d0: 5345 ce3e b5f6 723c 7ff3 6cbd 18c7 c93c
000001e0: 7da2 033d 3d45 0cbd 8a3f 8bbd 603a 3bbb
000001f0: 72bc 07be fc18 883e 0407 83bd 1dcb ddbd
00000200: 8f95 b8bd 98ea 36be 78fb 32be c1b4 a13d
00000210: 0d5d fe3b 85ce e7bc b8b0 3bbd 55e3 00be
00000220: 9c82 a9bb 0f61 003e 6f32 ae3e 43d9 603e
00000230: 7422 943d a5fa 043e acbf 633e 2f4c ca3e
00000240: e8cb 48be 3a21 e83e f9d4 2fbe 845b 823e
00000250: 3122 653e 058a d13e c5c1 373e 6614 39be
00000260: e450 08be 4643 c9bd 4091 d5bd 5eef cb3e
00000270: 9456 003e 5ced 9abd 6bef 14be 6665 34bd
00000280: cafc 62be 317e 9e3e 0009 3c3e 1714 f33b
00000290: b99a c3bd d13a c4bd b986 5cbd e1b7 0f3e
000002a0: 1c48 903e 2d7a e5bd 0a5a 8bbd 6275 16be
000002b0: 42b1 c53e d70b 39be 9a5a d03e 1ee4 1c3e
000002c0: ddbc b13e 606d 9a3d 6ca7 2a3e 64af 183e
-0.12173758 -0.04888565 0.0046007 0.2798169 -0.17798977 0.080647625 -0.16352296 -0.13261151
-0.016388971 -0.041893385 0.39778128 0.16210023 -0.09168713 -0.10356062 0.014007658 -0.14801912
-0.14342976 0.20354752 -0.027654704 0.3059824 0.035197858 -0.026872069 -0.038283814 0.061568152
-0.14434242 -0.17213655 0.009635938 0.011757343 -0.15584981 0.21352075 -0.104012765 -0.066593744
0.1990071 0.16545095 0.16578294 -0.15311915 0.4776097 0.15765336 0.37078935 0.6976807
0.3426062 0.4582165 0.27398947 0.07063715 -0.012903344 -0.1651932 -0.097069405 0.3647464
-0.36379313 -0.04367066 -0.0409912 -0.11247993 -0.12251143 0.26306626 -0.08154094 -0.005190616
-0.0144589115 -0.16287488 -0.007250813 -0.0037147268 -0.12351555 -0.13991368 -0.07745325 -0.1529088
-0.0455779 -0.09821425 0.34049547 -0.0840409 -0.21812542 -0.05545626 -0.13748553 -0.31173933
0.54257226 0.14215173 0.01559363 -0.015619794 0.41911888 -0.14454359 -0.1308897 -0.035672557
-0.15890104 -0.11537359 -0.1802731 0.027852837 -0.108146 -0.047971938 -0.025752269 -0.00040139066
-0.08100126 -0.016323147 -0.010713734 -0.0448708 -0.10416705 -0.19818908 -0.00420174 0.26929247
0.3206552 0.008405876 0.006590947 -0.1979623 -0.10044658 0.23370567 -0.11178686 0.42561892
-0.077651754 0.5678101 0.3169607 0.36309186 0.43066606 0.37998626 0.175391 0.071506344
0.53655165 0.44417965 0.1907601 -0.056806438 0.40287265 0.014829327 -0.057849403 0.024631068
0.032137383 -0.03424572 -0.067992285 -0.002856873 -0.1325548 0.26581562 -0.063978225 -0.108297564
-0.09012901 -0.17862928 -0.1747874 0.07895804 0.0077625574 -0.028296718 -0.04582283 -0.1258672
-0.0051730406 0.12537025 0.34022853 0.21957879 0.07233134 0.12986238 0.22241086 0.39511248
-0.19609034 0.4533785 -0.17171086 0.25460446 0.22376324 0.40925613 0.17945011 -0.18074188
-0.13312107 -0.098272845 -0.10428095 0.3983106 0.12533027 -0.07564804 -0.14544456 -0.044042014
-0.22166744 0.3095565 0.18362808 0.0074181664 -0.095509954 -0.09581531 -0.05383942 0.14034988
0.28180015 -0.11204944 -0.06804283 -0.14693215 0.386118 -0.18070923 0.40694124 0.15321395
0.34714404 0.07540393 0.16665429 0.14910656

conv.weight f4 [5, 1, 34, 34]
00000000: 0be4 f43e 720b 0c3f 4d23 d13e c080 c63e
00000010: 556e d33e a72d a53e cf7f 0d3f 766e 043f
00000020: 18f2 063f 3e62 133f 31e4 403f e2fe 2f3f
00000030: cca6 583f ecf1 253f 360c 273f 640e 1c3f
00000040: cac9 8a3e 9e63 c63e 82ec 6b3e ed4d 6f3c
00000050: b7bb ea3d 15d7 3c3e 9169 13bd 0e15 0bbe
00000060: 9965 a53d 0dab 343c 23a4 2cbe 6397 a9bd
00000070: 8395 8bbd 0d30 c8bd 8499 0cbe bb84 6abe
00000080: 6b3c 2cbe b78b 94be 8ec8 503e 15c0 013f
00000090: 1171 023f a684 d43e 88be b33e 2bca 003f
000000a0: b9d3 d43e 3d58 533e 0e65 383f b711 283f
000000b0: 5870 823f c542 173f 8974 1d3f 1ef9 033f
000000c0: 3631 313f 40ac 013f 87d7 b23e 4ab4 0a3f
000000d0: 35e0 64bd 6810 19bc 3c74 f63c 46d3 e33d
000000e0: 39b0 3ebe 9fae 4ebd f54d 413d 4c5a 58be
000000f0: 4ec4 dfbd 6957 35be 5e04 93bd 3a2f 15be
00000100: 3515 1fbe 4bda 66be 217f acbe 2e2c 84be
00000110: 5e70 e03e e711 193f 4ce0 0a3f 48c1 043f
00000120: 7262 043f 4d7d 273f fe08 da3e fa04 dd3e
00000130: 1994 0a3f 770e 0c3f c9f7 793f 85da 613f
00000140: 88e1 163f 4646 0e3f 4352 2b3f fc56 e53e
00000150: c23b 043f 30ea 083f 3828 bd3d d3f6 f3bb
00000160: 9cf7 e53d f568 9cbd 6898 953d f287 d13d
00000170: e804 5c3c eb0e 84be 8df2 8cbe d60a 83be
00000180: 86c4 20be b54a 8c3c 26e1 4ebe 49e2 5abe
00000190: 9328 b6be ec92 afbe f9a2 0f3f 012d c73e
000001a0: 498a 083f c220 3f3f 0f71 233f ec7f 193f
000001b0: cff0 bd3e d3bd 013f 9699 aa3e 6ece f23e
000001c0: 9bd8 753f 09f5 8e3f 19d4 143f eb0b 1b3f
000001d0: 7c39 363f 1227 103f 40f8 033f 8de3 a63e
000001e0: 3726 9d3e 0a91 253d 457d 6cbb d744 8fbe
000001f0: c4c4 cc3d 0782 0a3e d1d0 9bbe 4e60 78be
00000200: 7997 a4be b925 c2be c92c d4be 8e94 0dbe
00000210: 5c97 babe 3ea7 a9be 69b2 cfbe 4095 aabe
00000220: cfd2 3e3e f080 e03e b1d7 223f 19e6 2f3f
00000230: ee1e fe3e f3f8 ff3e 16cd 993e aea0 eb3e
00000240: 59c8 053f 3211 223f 9272 8b3f a88b 7b3f
00000250: e244 f83e 0185 073f 40ae 643f 5a64 583f
00000260: f698 573f 614d 093f d587 dc3e b08a 593e
00000270: 303b 613e a0f0 743e db9c 513e 1350 2a3e
00000280: 712e 56be 9279 61be c053 90be 8dd7 cfbe
00000290: 178e 95be 75ec 4ebd 25db 68be a84c 8abe
000002a0: 5f8d 65be 355b 3abe d712 e53e d802 133f
000002b0: 2b3c 193f 263a 093f f1e5 073f a746 093f
000002c0: 8cd7 c83e d00f 083f ffde 413f a350 1f3f
000002d0: 8fcf 503f d5e1 533f a152 1f3f c698 263f
000002e0: d2e6 5a3f a102 3f3f 7d49 2e3f fab1 ee3e
000002f0: 9229 bf3e 2cc0 8e3d 1079 823e 8373 283e
00000300: d9f5 9f3d e1af 4e3d 3052 7dbe a77f 94be
00000310: 81bb b6be a6d4 c8be c7d8 b3be 808f 8bbd
00000320: e362 7dbe ad43 4fbe 2e2e a0be 945e 89be
00000330: 31a3 243f c599 003f 31fe 573f 6df0 743f
00000340: 7f5f 2c3f b9f4 d53e 25e5 ed3e c16c f53e
00000350: 91f6 e93e 43b0 233f cd3a 8b3f d109 4e3f
00000360: a4de 243f bfe1 ac3e 0717 3a3f 9389 483f
00000370: 3618 313f 6eaa c33e 734a 683e 9913 db3b
00000380: d4ec 30bd b9c4 86bc 67d9 5f3e a18c 1b3e
00000390: 2ac5 80be 6f56 88be 7ef5 b1be 16d7 01bf
000003a0: 017c 6dbe 9fe7 9ebd 8507 96be 1612 c5be
000003b0: cd9e a5be e33c 99be 4978 253f 28a5 2c3f
000003c0: 3863 123f 83ca 233f 12a4 133f da91 0d3f
000003d0: b022 023f 7f4a a33e 96ba 013f ea24 153f
000003e0: 15f8 743f 80c1 103f 8c62 223f 9879 123f
000003f0: 8cda 5a3f acfe 273f 9d38 123f 3926 f03e
0.47830233 0.54704964 0.40847245 0.38770103 0.41295114 0.32261392 0.55273145 0.5173105
0.52713156 0.5757178 0.7534819 0.68748295 0.8462951 0.6482227 0.6525301 0.6095946
0.27107078 0.38747877 0.2303944 0.014605981 0.11461585 0.18441422 -0.035989348 -0.1358225
0.08076019 0.01102711 -0.16859488 -0.08280828 -0.068156265 -0.0977479 -0.13730437 -0.22902195
-0.16819923 -0.29012844 0.20389006 0.5068372 0.50953776 0.41507453 0.351063 0.50308484
0.41567782 0.20639129 0.720292 0.6565203 1.0190535 0.5908626 0.61505944 0.51552
0.69215715 0.5065346 0.3493006 0.5418135 -0.055877883 -0.00934229 0.030084722 0.111242816
-0.18621911 -0.0504595 0.047193486 -0.21128196 -0.10926114 -0.17709126 -0.07178567 -0.14568797
-0.15535434 -0.2254421 -0.33690742 -0.25814956 0.4383573 0.5979294 0.542485 0.51857424
0.51712716 0.6542557 0.42584985 0.4316786 0.5413223 0.5470957 0.97643715 0.8822406
0.58937883 0.5557598 0.66922396 0.44792926 0.51653683 0.5348234 0.09236187 -0.007445195
0.11228868 -0.076372065 0.0730446 0.10231008 0.013428904 -0.25792632 -0.27528802 -0.25594205
-0.15699968 0.017125467 -0.20203075 -0.21375383 -0.3557783 -0.3429178 0.5610805 0.38901523
0.53336006 0.7465936 0.6384439 0.5996082 0.37097785 0.50680274 0.33320302 0.47423118
0.9603364 1.1168529 0.58136135 0.6056506 0.71181464 0.56309617 0.51550674 0.32595482
0.30693218 0.040421523 -0.0036085409 -0.27982208 0.099984676 0.13526164 -0.30432752 -0.24255487
-0.32146814 -0.37919405 -0.41440418 -0.138262 -0.36443603 -0.33135408 -0.40565804 -0.33316994
0.18635105 0.43848372 0.6361037 0.68710476 0.49632972 0.4999462 0.3003928 0.46021026
0.5225883 0.6330749 1.0894339 0.98259974 0.48490053 0.5293732 0.89328384 0.84528124
0.84217775 0.53633696 0.43072382 0.21244311 0.21995234 0.23919916 0.20469992 0.16632108
-0.20916153 -0.22019032 -0.28188896 -0.4059414 -0.29209968 -0.05051847 -0.22739847 -0.2701161
-0.2241721 -0.18198855 0.44740936 0.57426214 0.59857434 0.5360435 0.5308524 0.5362343
0.3922695 0.5314913 0.7573089 0.62232417 0.8156671 0.8276647 0.62235457 0.65076864
0.85508454 0.74613386 0.68080884 0.4662016 0.37336403 0.069702476 0.25482988 0.16450314
0.078105636 0.0504607 -0.24738383 -0.2900364 -0.3568993 -0.39224738 -0.35126325 -0.0681448
-0.24744754 -0.2024066 -0.31285232 -0.2682997 0.6431151 0.50234634 0.8437224 0.9567936
0.67333215 0.4178827 0.46463886 0.47934535 0.45695928 0.6394083 1.087732 0.8048373
0.6440222 0.3376598 0.72691387 0.7833492 0.6917757 0.38215965 0.2268465 0.006685686
-0.043194607 -0.016451227 0.21860276 0.15190364 -0.25150424 -0.26628444 -0.34757608 -0.5071882
-0.23191835 -0.07759022 -0.29302612 -0.3849036 -0.32347718 -0.29929265 0.64636666 0.6743951
0.57182646 0.63980883 0.57672226 0.55300677 0.5083418 0.31892774 0.5067533 0.5825945
0.95691043 0.5654526 0.6343162 0.5721679 0.85489726 0.65622973 0.57117635 0.46904162

conv.weight f4 [5, 1, 10, 10]
00000000: ecfe 4a3e 0dc8 fd3d 2cf1 5d3e b3d0 7f3d
00000010: 18bf 403e a6bf 4f3e 2cd8 543e 3208 443e
00000020: 7e1a 333d 2aa7 ad3d e67f 603e 94a9 903d
00000030: 28de a63d d6e2 6c3d d2f9 763e d79a 943e
00000040: 3944 243e fc9a 763e 630c 1d3e 8a64 823d
00000050: 141f cf3d ad30 563d 74ca 593d 97b4 df3d
00000060: 6214 183e 10e8 1e3e a433 ea3d f7f5 583e
00000070: 10d6 c73d d9a0 4b3d a60e f73c 5e48 133e
00000080: 77d4 0b3e acab 653e c6c0 293e 0a4c 7d3e
00000090: 292b 373e cf15 273e c5af 403e 59c6 353e
000000a0: 3933 f03d 68e6 223e 1166 243e 47f7 813d
000000b0: a2fe ee3d 6b1f 423e 7894 ca3c 0431 b63d
000000c0: 52eb 0d3e c45a 973d 5070 193e e248 563e
000000d0: afb1 993d 575c 7a3d 89dc fd3c df60 353d
000000e0: cc68 d73c 3ab3 85bc b76d f33d becd 2e3e
000000f0: e76c 283d 4637 273e 9006 013e 3b0f 133e
00000100: ee63 223e b363 69bd 970a 2f3c e9e9 3bbd
00000110: f5d9 f5bb 05f5 e83d dbc8 463e 4141 1f3e
00000120: d5df a739 83c6 a43d 6631 c83c f3c2 0ebd
00000130: 8611 37bd 6309 62bd dc97 983d eb5a 6e3d
00000140: 8eca d13c 24a9 243e 3d5b 2d3d feb8 d93d
00000150: b8e6 9e3d 321e 71bd 6cba 93bc 73fb 3cbd
00000160: 25e5 c83c 63db 43bd 48d7 1c3d 6034 0f3e
00000170: 033a f03d c327 a13d 5e81 4abd f6ac c73d
00000180: e352 c0bc 2917 b43a f716 63bd 7928 6bbb
00000190: 839b 1b3e 837c 123e 89f3 743e 607f 0a3e
000001a0: cc8d 923e 5689 543e 890a 613e dc76 553e
000001b0: fa1b df3e 4ce6 d63e 768c d73d c56e 4e3e
000001c0: dd6a 363e 96db 6b3e 9a3b 4b3e b26b 663e
000001d0: 443b bc3e 3a43 493e e6f3 a33e 8cbc c53e
000001e0: 0df3 5c3d 5b04 593e 0bbb bb3d c7b1 5b3e
000001f0: 9d03 3a3e 9361 8d3e c4c0 c13e e8ac b83e
00000200: ba23 c93e 9aa1 ac3e 7dbe 0b3e c16f 5d3e
00000210: bb78 a33d 8bba 5f3e 0ce3 923e 5fcf 5f3e
00000220: 2913 7d3e bd45 903e 5c4c c43e eafd d93e
00000230: 991c 083e ed21 3a3e 6a29 193e da78 2e3e
00000240: 72e6 2d3e 8114 553e ad65 813e 36ce aa3e
00000250: 8644 8c3e 2c12 943e b40b 503e 6389 d63d
00000260: 9365 0c3e 9d79 5c3e 8b16 2f3e 8382 ee3d
00000270: 169d ba3e 779c 6f3e c3f9 bc3e 05fe a63e
00000280: b116 7c3e da86 4c3e 5427 3a3e cf46 143e
00000290: 7901 2b3e 5f76 723e b34e 693e 7620 823e
000002a0: 7839 5d3e d0f9 a83e b597 5e3e 0f7f 8f3e
000002b0: 7647 4f3e 801f 723e 3bef a93e 497f 573e
000002c0: 5ddb 7c3e e34d cc3d 83af 253e ef18 683d
000002d0: 2be2 aa3d b828 e03d 5990 5a3e 20d9 333e
000002e0: 9330 883e 9b7f 8cbd 9dfb 1c3d c86a c83d
000002f0: 5168 053d d211 cf3d b0d0 323e db40 803e
00000300: 8822 153d 0b8d c63c 8681 d63c 4768 aabc
00000310: fae3 b0bd 7fbb bb3d cb41 e13c 83a4 793d
00000320: 0f46 54be 3653 2abe f68b d3bc 79b4 84bc
00000330: 0eee 14be 608b e03c 1749 353c fe9c 66bb
00000340: 637b 5abd 05c6 25be 3a4e d9bd 05ea bcbd
00000350: 4475 ebbd 1c5e 9ebd aae6 45bd 4d53 aabd
00000360: 7d41 a9bc 7758 4fbd af9d 7fbb 8578 42be
00000370: 2917 2cbe a5f9 debd 7275 cbbd ac01 3fbe
00000380: 73f3 50be 830e 31be d5ef 953a e82b c5bb
00000390: 3a1a 2bbe 2129 16be 1433 0cbe 3423 16be
000003a0: 0ec0 40be efff d4bc e716 92bd 6522 02be
000003b0: 3a55 3abe 6c71 f6bd 983b 1ebe c57f 60bd
000003c0: ec0b 4bbe b356 17be c2cf 1bbe 06f7 ddbd
000003d0: 2b58 20be d566 80be cb22 85be 0837 eabd
000003e0: c029 0bbe 69c2 b1bc 57fa d8bb 713f 12be
000003f0: f9f4 7bbe b9b6 9abe a3c4 62be 3a44 523d
0.19823807 0.12391672 0.21674031 0.06245489 0.18822896 0.20287952 0.20785588 0.19143751
0.043726437 0.0847915 0.2192379 0.070635945 0.08147842 0.057833515 0.24118736 0.29024383
0.1604165 0.2408256 0.15336756 0.063668326 0.101133496 0.052292515 0.05317159 0.10923117
0.14851525 0.15518212 0.11435631 0.21187578 0.09757626 0.049713943 0.030158352 0.14383075
0.13655268 0.22428769 0.16577443 0.24736038 0.17887558 0.16316913 0.18817051 0.17751445
0.1172852 0.15908206 0.1605456 0.063459925 0.11669661 0.18957298 0.024728999 0.08896068
0.13859299 0.07390359 0.1498425 0.2092624 0.075045936 0.06112322 0.030988948 0.044281837
0.026295088 -0.016320813 0.11886161 0.17070672 0.041119482 0.16329679 0.1260016 0.14361279
0.15858433 -0.056979846 0.010683677 -0.04587737 -0.007502789 0.11374859 0.19412558 0.15552236
0.0003201949 0.080456756 0.024437618 -0.034853887 -0.044694446 -0.055184733 0.0745084 0.058192175
0.02560928 0.16080147 0.04232334 0.106309876 0.0775885 -0.058866687 -0.018033229 -0.04613824
0.024523327 -0.047816645 0.038291246 0.13984823 0.11729815 0.07868912 -0.04943978 0.097497866
-0.023477023 0.0013739812 -0.055441823 -0.0035882278 0.15196042 0.1430531 0.23921026 0.13525152
0.28623807 0.20755515 0.21976675 0.20846123 0.43576032 0.41972578 0.10524838 0.20159443
0.17814203 0.23032984 0.19846955 0.2250202 0.36763966 0.19654551 0.32022017 0.38620412
0.05394273 0.21193068 0.09166535 0.21454535 0.18165441 0.27613506 0.3784238 0.36069417
0.3928507 0.33717042 0.13646884 0.21624662 0.07982012 0.21848504 0.28688848 0.2185645
0.2471434 0.28178206 0.38339508 0.42576534 0.13292159 0.18177004 0.14957204 0.17038289
0.16982439 0.20808603 0.25272885 0.3336045 0.2739603 0.28920114 0.20316964 0.10475423
0.13710622 0.21530767 0.17098443 0.11645987 0.36447972 0.2339953 0.36909303 0.32615677
0.24618031 0.19973317 0.18179065 0.14480136 0.1669978 0.23677967 0.22783928 0.2541539
0.21603954 0.33003092 0.21737559 0.28026626 0.20242104 0.23644829 0.3319033 0.21044649
0.24693055 0.09975793 0.16180234 0.056664404 0.08343919 0.109452665 0.21344127 0.17563295
0.2659956 -0.06860276 0.038325895 0.09785992 0.032570187 0.10110821 0.1746242 0.2504948
0.036409885 0.024237176 0.026184808 -0.020801676 -0.08637233 0.091666214 0.027497193 0.060947906
-0.2072985 -0.16633305 -0.025823575 -0.016199337 -0.14543936 0.02741021 0.011064789 -0.003518879
-0.053340327 -0.1618882 -0.10610624 -0.09224323 -0.11496976 -0.07732794 -0.04831568 -0.083166696
-0.02066111 -0.050621476 -0.00390039 -0.18991287 -0.1680571 -0.1088746 -0.0993451 -0.18652982
-0.20405369 -0.17290692 0.0011439273 -0.006017197 -0.16709223 -0.14664127 -0.1369136 -0.14661866
-0.18823263 -0.026000945 -0.071332745 -0.12708433 -0.18196574 -0.12033352 -0.1545242 -0.05480935
-0.19828767 -0.14779167 -0.15215972 -0.108381316 -0.15658633 -0.25078455 -0.26003107 -0.11436278
-0.13590145 -0.021699147 -0.0066216397 -0.14282013 -0.24605168 -0.3021753 -0.22145323 0.051334597

conv.bias f4 [5]
00000000: bec3 a33d 1218 983c 5545 07be 2de1 0fbe
00000010: 68a9 373d
0.07996319 0.018566165 -0.13210042 -0.14050741 0.044839293

fc1.weight f4 [64, 180]
00000000: 6f02 a0bd 7d2f c43b b1e5 93bd d612 7abd
00000010: 4353 8fbd cc68 633d b212 47bd ebbd 8cbb
00000020: ad23 bbbc 5a84 8dbd b290 85bd ea11 333d
00000030: c9d0 523d 0318 91bc 806d 993a d747 80bd
00000040: 80dc 11bd 5de9 c63a e612 0bbd 7698 aebd
00000050: 682d 59bd aec2 7b3d c443 17bd 7038 dfbc
00000060: dadb 8ebd bf91 82bd 8cd4 3ebd 33b6 f4bd
00000070: 0f24 f3bd 8240 2abd 4470 b23c e803 9d3c
00000080: 62c5 213d a2b7 a5bd 536f 99bc 5429 b5bd
00000090: 2e17 d9bb 4f88 d9bd 7f70 61bc dbf4 1f3c
000000a0: f3d1 02bd 7ec0 d7bd ee35 7abb f446 22bd
000000b0: 0cb3 05be 7ec2 d8bc 691f 05be b25c 7ebd
000000c0: fa04 f0bd e6df 18bd 6a28 563d fae8 95bd
000000d0: 3679 6abd 3974 b9bc a849 9dbc cb71 90bb
000000e0: acbe 863c 891c 58bd 6cb1 e6bd 5ceb 07bb
000000f0: c931 703c 7e65 c0bd 9573 a3bd 0640 12bd
00000100: b755 273c 1c5b 0f3c 40d1 f6bd 3ad0 b9bd
00000110: c439 9ebd 922e 92bc cb7b b8bd f74c debd
00000120: e3bd 91bd 08df 043d e4ae cdbc e4b8 423d
00000130: 9c7b 73bd 76d5 08bd 08d3 cc3c 764a a7bc
00000140: 28e5 31bd eaa4 47bd 22bc 77bd 0cc4 f73c
00000150: 1d3c 78bd 006f 6ebd 1aca aabd 084f aabd
00000160: 36be 4bbc fef8 b3bc 6617 74bd 04df 703c
00000170: 3446 99bd e470 d9bc d234 8dbd 3f0c 923d
00000180: 871a 94bd 0087 b8bd 955f b0bd 2019 50bd
00000190: 5697 88bc 0b72 953d 449c 1abd 0407 923c
000001a0: 5fd8 7bbd 54e0 54bc 6000 303c c1f4 25bd
000001b0: b815 b4bc 5554 8d3d c858 593c 9f0a 8a3d
000001c0: 062c 4d3d 4878 67bc 2a1d 223d 2ff9 82bd
000001d0: 3c56 f13b 946d 2f3d 2b98 803d 508e 23bc
000001e0: 9aa2 1fbd 1886 c8b9 77a7 19bc da98 a6bd
000001f0: 940a 3c3c 8b3b 863d 2877 113c d867 f5bd
00000200: 2321 0d3c c1d2 73bd a34c 023b 0efe 0b3d
00000210: c8ea 0f3d 588a 8cbd 45c6 c6bc e3be 5dbc
00000220: a91c bcbd c6a2 2a3d 33ec 923d 42f9 b9bc
00000230: 5c33 79bc 9c8f af3c 82e5 773d 1034 133d
00000240: 1e73 debd 2099 bdbd 24e1 48bd c780 d4bd
00000250: 1c12 05be d5d5 b3bd c398 93bd 55ad 73bb
00000260: 6cca f3bc 1f15 babd e830 e7bd b1ac 753c
00000270: be78 a8bc 86af adbb 8118 d2bd ade4 a9bc
00000280: 76a3 e0bd 6f06 38bc 1886 bbbd 4acd e9bc
00000290: 2ea6 85bd bd5b 7cbd b313 dfbb ff8b 05be
000002a0: 0ed3 eabd f164 3ab9 5791 e13b 77e7 04bd
000002b0: 237b aebc ff82 74bd b085 a1bd 8d5e dcbd
000002c0: f57e 2cbd 6573 06be 9bd7 c8bd 18d0 b3bd
000002d0: aaf4 1ebd 6da7 9dbd 1ec4 553d 5c4a 11bd
000002e0: e065 343c 7af5 593d 0186 38bd 82f1 9cbd
000002f0: dedc 963b c179 f7bd 1e5f 03bd 629d 8fbd
00000300: 2b6b 6d3c b52d 6ebd f084 8fbd 2e11 cf3b
00000310: ae68 33bd 4ae2 51bc a570 cf3b 8bc8 c43c
00000320: a34f 943d 42cf 763d a1b3 5fbc 8be7 c13b
00000330: 7d77 0dbc 6237 3bbd f777 c8bc bc0e c2bb
00000340: 1f84 71bc 83fa 9ebd 8cfe 29bd c791 91bd
00000350: 8959 073d a7f1 1bbd 0978 01bd 9ead 073c
00000360: 3bec 5cbd e763 91bd 85d2 84bd 9231 acbd
00000370: f78e d0bc 8958 533c 7fe8 7cbd b2e1 a0bd
00000380: f972 84bd 06b8 863c 5fb4 fcbd 9021 a0bd
00000390: 83c3 abbc 96de cdbd b0ef 5c3c 1abe adbd
000003a0: 1281 a93b 2770 cbbd 77ca b9bc 6e51 f63b
000003b0: e626 0dbd d022 fbbc 94c2 bcbd ff50 20bd
000003c0: 8c16 943c 355f 00be ca4f 823b d7e4 f3bd
000003d0: 4dc0 893b 9601 f4bd defd 83bd 158c 39bd
000003e0: 0e1b 53bd 2f35 57bc 6ab6 c2bd 1449 0abc
000003f0: 8cac df3c 9ebe 1b3d 10dc 85bd 7410 96bd
-0.07812964 0.0059871064 -0.072215445 -0.06105312 -0.06998303 0.055519864 -0.048601814 -0.004295101
-0.02284416 -0.0691001 -0.06521739 0.043718256 0.051468644 -0.017711645 0.0011705607 -0.06263702
-0.035610676 0.0015175749 -0.03395357 -0.08525173 -0.05302182 0.061464958 -0.03692986 -0.027248591
-0.06975527 -0.06375455 -0.04658942 -0.11948814 -0.11872112 -0.041565426 0.021782048 0.019166902
0.03949488 -0.08091666 -0.018729841 -0.08845773 -0.0066250777 -0.10621702 -0.013759731 0.009762968
-0.031938504 -0.10534762 -0.0038179117 -0.039618447 -0.13056582 -0.026459929 -0.13000263 -0.06210012
-0.11719699 -0.0373229 0.052284636 -0.073198274 -0.057244502 -0.022638427 -0.019200161 -0.0044080964
0.016448341 -0.05276159 -0.11264309 -0.002073965 0.014660307 -0.09394358 -0.0798103 -0.03570559
0.010213307 0.0087497495 -0.1205163 -0.09072919 -0.07725862 -0.017844472 -0.09007987 -0.10854524
-0.07116296 0.03243926 -0.025107808 0.047539607 -0.059444055 -0.033406697 0.025002971 -0.020421248
-0.04343143 -0.04874126 -0.06048215 0.03024485 -0.060604203 -0.058211327 -0.08339329 -0.08315855
-0.012435487 -0.021969315 -0.059592627 0.014701609 -0.07484093 -0.026543088 -0.0689484 0.07131242
-0.07231622 -0.09010124 -0.08611981 -0.05080521 -0.016673725 0.072971426 -0.037746683 0.017825611
-0.061485644 -0.012992937 0.010742277 -0.04051662 -0.021983013 0.06900851 0.013265796 0.06740307
0.050090812 -0.014127798 0.039578594 -0.06395184 0.0073650163 0.04282911 0.06279024 -0.00998266
-0.03897343 -0.0003824688 -0.009378306 -0.08134623 0.011477131 0.06554326 0.008878507 -0.11982697
0.008613857 -0.059527162 0.0019882105 0.034177832 0.035136014 -0.068623245 -0.024264464 -0.0135342805
-0.09185154 0.04165914 0.07173958 -0.022701863 -0.015209999 0.021430783 0.06052161 0.035938323
-0.108618006 -0.09257722 -0.049042836 -0.10376125 -0.1299519 -0.087810196 -0.07206871 -0.0037182171
-0.029759608 -0.0908606 -0.11288625 0.014994786 -0.020565387 -0.005300465 -0.1025858 -0.020738924
-0.10968678 -0.011232003 -0.09156436 -0.028540272 -0.06525837 -0.061610926 -0.0068077683 -0.13041686
-0.11466037 -0.00017775946 0.006883781 -0.032447305 -0.02129895 -0.05969524 -0.07886827 -0.10760222
-0.042113263 -0.13129957 -0.098067485 -0.08779925 -0.03880755 -0.076979496 0.052188985 -0.035471305
0.011010617 0.05321262 -0.04504967 -0.076632515 0.004603966 -0.120837696 -0.032073133 -0.0701244
0.014490883 -0.05814906 -0.07007778 0.0063191867 -0.043801002 -0.012810299 0.006330567 0.024021408
0.07241752 0.06025625 -0.013653667 0.0059174947 -0.008634445 -0.045707114 -0.024471266 -0.0059221666
-0.014740973 -0.07762625 -0.04150252 -0.07107883 0.03304437 -0.038072255 -0.031608615 0.00828114
-0.053936224 -0.07099133 -0.06485466 -0.08407892 -0.025458796 0.012899526 -0.061745163 -0.07855548
-0.06467242 0.016445171 -0.123390906 -0.078189015 -0.02096725 -0.100522205 0.01348488 -0.084835246
0.005172857 -0.09933501 -0.02267955 0.0075170314 -0.034460925 -0.030656248 -0.092168 -0.039139744
0.018077157 -0.12536319 0.0039767968 -0.11908882 0.0042038322 -0.11914365 -0.06444906 -0.04529961
-0.051539473 -0.013135239 -0.09507449 -0.008440275 0.027303956 0.038023584 -0.06536114 -0.07327357

fc1.bias f4 [64]
00000000: b3ab 40bb f161 83bd bff3 93bd 4787 e93d
00000010: 2186 8c3b a5cc 973c 66e9 96bd 171e 00bd
00000020: fced 3b3e 34a0 c93c f3f9 843d 260a a8bd
00000030: 5053 e33b f45a 653e 61b4 15bd 18a6 03bc
00000040: d8ad 26bd 7330 94bd 63ba abbd 9daa 94bd
00000050: 511e 293e 3adf 64bd e229 8fbd 53ce 0abd
00000060: c28f 503e 4f00 813b 4934 e2bd ce2c 1ebd
00000070: 116e 2cbd 9cdf 47bd d61a 383d 9b27 45bd
00000080: 13f9 a1bd 0047 96b9 5604 c5bd 4b95 21bd
00000090: b78f 8e3e e677 e13c 8a0b 033c cb26 9dbd
000000a0: 82ec 91bb cad5 23bd 3a2e a8be 5929 acbd
000000b0: 038d 7d3d 959f 37be 6d41 953e c86a 943c
000000c0: 32cd 50bd 5b29 0e3c dfe8 fcbc e14d 9abd
000000d0: ecfc 25bd ca07 efbb b3f2 7ebd 0ceb b0bd
000000e0: 0c9f 363d fcb3 4cbd 4d99 31bd 124c a13d
000000f0: 1046 d63b 1afa 293d 12c4 653d c6c0 9b3d
-0.0029399216 -0.06415165 -0.07224225 0.11402755 0.0042884503 0.0185302 -0.07368736 -0.031278696
0.18352503 0.024612524 0.064929865 -0.08205061 0.006937422 0.22397977 -0.036548976 -0.008035205
-0.040693134 -0.072358035 -0.0838516 -0.072591044 0.16515471 -0.055876948 -0.069904104 -0.033888172
0.20367339 0.0039368044 -0.11045129 -0.038616948 -0.042097155 -0.048797235 0.044947468 -0.048133474
-0.07908835 -0.0002866313 -0.09619968 -0.039449017 0.2784402 0.027522992 0.007998357 -0.07673415
-0.0044532428 -0.039998807 -0.32847768 -0.08406324 0.061902057 -0.1793197 0.29151478 0.018117324
-0.05097694 0.008676852 -0.03087276 -0.075343855 -0.04052441 -0.0072946297 -0.062243175 -0.08638582
0.044585273 -0.049976334 -0.04335909 0.078758374 0.006539114 0.04149828 0.05609519 0.07605128

fc2.weight f4 [4, 64]
00000000: 5933 b93d b78a d73d 08aa b73c 3c57 b63e
00000010: e489 263d 5d17 2a3e 6851 183e a3f2 de3d
00000020: 7dc4 b23e 34d6 023d a287 4f3e ce7f 6bbc
00000030: f6df f0bd 0d66 ca3e b0bf 153e 407d 00bc
00000040: f448 113d 26e8 cc3d 188b 463d 5611 ba3d
00000050: 89a7 ac3e aa14 c03d e681 653d 2eeb 513d
00000060: 391b b83e 8a35 a63e fe55 52bd fb09 b7bd
00000070: 4ffc 113d ec9b 863d f669 f1bd 3fbf b0bb
00000080: 3108 313c 84c6 d43c 75b7 1d3d 02bf e43d
00000090: 9804 d13e 6453 ac3e 317b cabb 8c51 da3d
000000a0: 316f 0d3e 5ab7 583d 0fb4 1e3e 3ae4 1b3d
000000b0: d0b0 b13e cc40 e3bd ce16 cb3e 24d5 d73d
000000c0: bf18 373e ce90 a83d 0e2a 273c 167d 9a3d
000000d0: d052 53bc fdd2 0e3e 57d4 d93d d1ce 973d
000000e0: ae7c 943d 136f b43c 0076 96ba 0dfb 083e
000000f0: be2f c7bc 185c c43d e3de 423e 19ff ac3e
00000100: 3697 0b3d fdd2 8bbd 842b a53d fea8 a1be
00000110: 5121 173c f81d 9d3d ce6b 383d 715e 573d
00000120: ad46 9ebe d56c c1bd a463 25be 970e 0abe
00000130: 701f 7d3c 2a27 b3be 218f 0bbe e8ae c63c
00000140: 70ea 223c 0027 943a abf9 cabd 4fb7 a73d
00000150: b1de 98be 881d 5cbd cd3d b1bc 93bf e2bb
00000160: b503 a3be 022c 93be 16c8 c1bc d588 a4bc
00000170: 9864 4d3d df80 74bd b2a3 8b3d 0579 4d3c
00000180: 8824 b93d f2c5 3f3d 6e74 30bd 7c37 c6bd
00000190: d918 b9be 2895 98be 972b 98bb 3e53 ab3d
000001a0: 4017 c1bd 0119 893d 7b5c 043e d6bc 7fbd
000001b0: 4b53 9dbe 14bb 69be 48c4 b3be 004f a3bb
000001c0: d5c3 8d3c a8a7 473d 7efc 223d 2dae fbbb
000001d0: c0d4 8e3d ceac 0b3c ea99 96bd 427a 3e3d
000001e0: 7afc ff3d 1196 8ebd c008 8dbd 1c25 5abd
000001f0: 0e27 7d3d 7c48 50bd 8127 19be 842b 99be
00000200: 2057 013d 3c0c 24be 5ce0 b13d ba41 69be
00000210: cd2a 72bd 904e 8dbd 4703 6fbc ee65 81bd
00000220: 104b 64be 1d00 973d 6aee 00be 439a 09bd
00000230: f013 0fbd eb2f 81be 19bb 853d 6069 e73c
00000240: 2a88 e3bd 8078 a8ba cf99 013e d43e 0cbe
00000250: 4e7e 5cbe 0ed9 96bd bb93 8b3d a073 1abe
00000260: 078c 6abe 0c3e 54be 7d06 c2bd c11c 6fbd
00000270: ab87 a3bc a79e 87bc 2cfe 393d 90c0 07be
00000280: 8eda 10be c0c1 cc3c 180d 013d 4094 f13c
00000290: ae43 85be a20b 5cbe b06f 1c3d 4663 03be
000002a0: 5e7f 03be b51c 74bc 7e0e 973d c83e 04be
000002b0: ade7 62be 024c b2bb a198 81be 5403 25bd
000002c0: 20bd 2e3c de0c 0abe 6129 1fbe 2b5a 09be
000002d0: 5e93 ccbd 9135 b23c a717 94bd a3d0 03bd
000002e0: d00c 5b3c 70ec 0a3d d49d 3ebd f298 a3bd
000002f0: c735 9abc 72fa fa3d a44d eebd d9f0 5cbe
00000300: 9bb5 6ebc e580 b2bc 40ff e6bc e1ff fb3e
00000310: 7a9c 273c 9a8b e93d c9db 3f3c 1fa9 07bc
00000320: 26d8 f63e 317e 89bd 0524 803e 65e4 733b
00000330: fcee e33d deb0 0b3f 095b 733d 142f cc3d
00000340: e4a4 e4bd 20a7 19bd 5072 47bc 6223 2dbc
00000350: e46c ee3e 400f f43c f1eb d43d 367b db3d
00000360: 311b fe3e 1585 e53e 8d2c 70bd 57ee dbbc
00000370: fec8 f63d 4cc5 e6bd 6878 853c bc6e b73c
00000380: d508 013d 65f1 06bc 317c 23bc ae6a c5bd
00000390: ad3c 103f 52f5 ed3e 5c22 f13c 6074 f5bc
000003a0: 1ad8 c9bc ffba 23bd cc55 793d c90e 4e3c
000003b0: 0b5a f53e 2e83 0cbe 4a27 0c3f 30c5 7fbd
000003c0: 7c2e 903c 59fe 1d3e b8d0 c8bd 4d97 a83c
000003d0: 5ef8 e33d e257 ba3d ba39 5dbd 3e5a ea3d
000003e0: 10aa 533d 2a0b ae3d c08b bd3c f6e5 433d
000003f0: b7c1 183e 10eb 24bc acb7 6e3e fce0 ee3e
0.09042997 0.10524505 0.022419944 0.3561343 0.040658846 0.16610475 0.14874804 0.10886123
0.34915534 0.03194256 0.20266584 -0.014373733 -0.11761467 0.39530984 0.14623904 -0.007842362
0.035469964 0.10005216 0.048472494 0.09085338 0.3372157 0.09378941 0.056032084 0.051249675
0.3595827 0.32462722 -0.05135154 -0.089374505 0.03564101 0.065727085 -0.117877886 -0.005393892
0.010805176 0.025973566 0.038505036 0.11169244 0.40823817 0.33657372 -0.0061792363 0.10660085
0.13811947 0.052909233 0.15498374 0.03805945 0.3470521 -0.110963434 0.39665836 0.105387
0.17880534 0.08230744 0.010202898 0.075433895 -0.012898162 0.13947673 0.10636204 0.07412494
0.07250343 0.02202562 -0.0011479259 0.13377018 -0.024314757 0.09587878 0.19030337 0.33788374
0.034079753 -0.06827352 0.080649406 -0.31574243 0.009224252 0.07671732 0.045024686 0.0525803
-0.30913296 -0.09444586 -0.16151291 -0.13482128 0.01544939 -0.34990817 -0.13628818 0.024253324
0.00994359 0.0011303127 -0.09910902 0.0818926 -0.298574 -0.0537391 -0.021635914 -0.00691981
-0.31838766 -0.28744513 -0.023654979 -0.020084778 0.05014476 -0.059693214 0.06818332 0.01254106
0.09040171 0.046819635 -0.043079786 -0.096785516 -0.3615177 -0.29801297 -0.004643868 0.083654866
-0.09428263 0.06694222 0.12925903 -0.062435947 -0.3072761 -0.22825271 -0.35110688 -0.004983783
0.017305294 0.048743874 0.039791577 -0.0076806755 0.069741726 0.008525087 -0.073535755 0.046503313
0.12499328 -0.06962217 -0.068864346 -0.053258047 0.061804824 -0.050850376 -0.14956476 -0.29916012
0.03157723 -0.16020292 0.08685371 -0.22778979 -0.05912285 -0.0689975 -0.014588184 -0.0631827
-0.22294259 0.073730685 -0.12590948 -0.03359438 -0.034931123 -0.2523187 0.06529827 0.028248489
-0.111099556 -0.0012853295 0.1265633 -0.13695842 -0.21532556 -0.07365619 0.06815287 -0.1508317
-0.22904979 -0.20726794 -0.09473894 -0.05837703 -0.019962152 -0.016555144 0.045408413 -0.1325705
-0.14145872 0.024994731 0.031506628 0.029489636 -0.26028198 -0.21488813 0.03819245 -0.12830839
-0.12841555 -0.014899422 0.07375811 -0.12914574 -0.2215869 -0.0054411897 -0.2531176 -0.040286377
0.010665208 -0.13481471 -0.15543129 -0.13413303 -0.099890456 0.021754058 -0.07231074 -0.032181393
0.013369754 0.03391689 -0.046537235 -0.079881564 -0.018824471 0.122548 -0.116359025 -0.21576251
-0.014569665 -0.021789977 -0.028197885 0.49218658 0.010230178 0.1140358 0.011710116 -0.008280068
0.48211783 -0.06713522 0.2502748 0.0037214991 0.11129567 0.5456675 0.05941299 0.09969917
-0.11164263 -0.0375129 -0.01217325 -0.010567518 0.46567452 0.029792428 0.10396565 0.1071686
0.4963012 0.44828096 -0.058636237 -0.026847048 0.12050055 -0.112681 0.016292766 0.02239167
0.031502564 -0.008236264 -0.00997834 -0.09639488 0.56342584 0.46476227 0.02943533 -0.029962718
-0.024639178 -0.039973255 0.060872838 0.012576767 0.4792026 -0.13721916 0.5474745 -0.062443912
0.01760029 0.15429057 -0.09805435 0.020579958 0.11131357 0.090987936 -0.05401013 0.114429936
0.051675856 0.08498223 0.023137927 0.04782673 0.14917646 -0.010065809 0.23312253 0.46656024

fc2.bias f4 [4]
00000000: 7d7b 173e 5c40 09be cbe0 57be 468c b13e
0.14793201 -0.13403457 -0.21081845 0.34677333
