src/flatland/flat_game/results/ourmethod_noreg16/rep_learner.pth (torch_old, 312934 bytes, 33 tensors)

representations f4 [6]
000000 e7 91 f8 3e fb f2 8c be 66 dc 64 3d 19 aa 7c bf
       0.48548815 -0.2752913 0.05587425 -0.9869705
000010 ec 1e ef be c3 87 50 3f
       -0.4670328 0.81457156

representations f4 [6]
000000 c0 17 c5 bd 60 d2 d2 3e 53 52 bc 3e 2b 7e 1a 3f
       -0.096236706 0.41176128 0.36781558 0.6034877
000010 9d 12 53 3f 91 19 79 be
       0.82450277 -0.24326159

representations f4 [6]
000000 3e 4a 6d bf c7 15 32 bf a8 92 90 3e 2d f5 44 3f
       -0.9269141 -0.6956448 0.2823689 0.7693661
000010 52 0c f5 be de 51 23 bf
       -0.47860962 -0.63796794

representations f4 [6]
000000 65 13 e9 3e b1 2b 4a 3f d3 d3 46 bf b4 1d 9d bd
       0.4552261 0.7897292 -0.7766697 -0.07671681
000010 6a 61 95 3e 2b f5 e4 3c
       0.29175884 0.027948936

fc1.weight f4 [64, 4]
000000 e4 25 df bd cb bc 87 bf 2d 3d c1 bf 63 aa aa 3f
       -0.10895899 -1.060449 -1.5096794 1.3333248
000010 c7 6e 19 3f 87 a9 71 3e 43 2c e5 bf 31 3a b8 bf
       0.5993466 0.23599826 -1.7904133 -1.4392759
000020 73 0f 22 3f 0b 32 0c be 24 59 82 3d 36 37 a6 3e
       0.63304824 -0.13690965 0.063646585 0.32463998
000030 32 4f f6 bd 4f b2 87 3f 74 7e be bd 29 a3 a6 be
       -0.12026824 1.060129 -0.09301463 -0.32546356
000040 23 36 dd be fb 19 89 bf df 08 b9 bf 0b 81 4c 40
       -0.43205366 -1.0711054 -1.4455832 3.1953762
000050 fa ef 41 bf 39 87 4f 3f a1 80 2b 3f 95 6f d7 bf
       -0.757568 0.8106571 0.6699315 -1.6830927
000060 80 e1 4b bd e8 2d fa 3d 04 4a ad 3e 68 b0 c2 3d
       -0.0497756 0.12215787 0.33845532 0.09506303
000070 7b 26 60 be 14 bd 37 3f f3 43 f3 be 06 08 e2 3f
       -0.21889679 0.71772885 -0.4751278 1.7658699
000080 6d 44 07 bf 87 0a 53 bf e6 3d 25 c0 5f f2 06 3f
       -0.52838784 -0.8243794 -2.581903 0.5271358
000090 5f 0e 9b bd 55 e4 cb 3e c7 d9 68 3f 9e 98 20 3f
       -0.075711004 0.3982264 0.909573 0.62732875
0000a0 b0 85 3b 3d 90 50 89 be 40 52 6c 3c 44 bb 7a 3e
       0.04578179 -0.26819277 0.014423907 0.24485499
0000b0 e6 26 df 3e 27 8b a3 3f 20 40 e5 3e fc 91 24 bf
       0.43584365 1.2776841 0.44775486 -0.64285254
0000c0 43 52 11 3f 82 32 21 bc 9c 8a 44 3f bf 9e 29 be
       0.56766146 -0.009838702 0.76774 -0.16564463
0000d0 c2 81 8a 3e 67 fd 83 bf 9b 75 cb 3f 3e fb 5f 3e
       0.27052122 -1.0311707 1.5895265 0.21873185
0000e0 96 da ae 3f d7 42 dc 3f fe fc 69 bf fb 3e 1b 3f
       1.3660457 1.7207898 -0.9140166 0.60642976
0000f0 73 f3 17 c0 6d a6 d8 3e f5 e7 03 c0 1e a5 37 3f
       -2.374234 0.42314473 -2.0610325 0.71736324
000100 1f 55 8d bf 58 29 c9 bf f6 1a 0c 40 60 56 23 40
       -1.1041602 -1.5715742 2.1891456 2.552147
000110 73 ec 35 3f fc d2 21 bf 67 82 94 3f 4c 4c 2c c0
       0.7106392 -0.6321256 1.1602296 -2.6921568
000120 4e d7 22 c0 e5 93 61 bf 15 31 e1 3e 89 cd 6f 3e
       -2.5443912 -0.88116294 0.4398276 0.23418249
000130 9a 27 26 40 81 04 af 3f e3 14 ae bf 49 3f d1 bf
       2.596167 1.367325 -1.3600124 -1.6347438
000140 97 49 6b 3f a2 27 15 40 88 7e 64 bf 3d e1 43 3f
       0.91909164 2.330544 -0.8925557 0.7651556
000150 b9 9c ca be c7 9d 60 3e 69 6a ea 3f 18 a2 94 bf
       -0.39572695 0.21935187 1.8313724 -1.1611967
000160 86 5a a9 3e 6c 72 5e bf 48 31 a4 3f 4c 8d b0 be
       0.33076876 -0.86893344 1.282754 -0.344828
000170 5d 0e 02 3f 36 fb 13 bf 9e 7f 34 bf 87 f8 c7 bf
       0.50803167 -0.5780519 -0.7050723 -1.562272
000180 6e 5d a1 bf c0 84 6f bf 16 7f 27 bf e9 67 d2 bf
       -1.2606637 -0.93561935 -0.6542829 -1.6437961
000190 93 1b 70 3f c5 9d 01 bc c0 29 48 bf 41 1f 2a c0
       0.93792075 -0.00791115 -0.78188705 -2.6581576
0001a0 f8 b4 a5 3e 02 51 87 bf 7b bf 7a 3d 16 9a d8 be
       0.3236463 -1.0571597 0.061217766 -0.42305058
0001b0 cc 51 6b 3e 1c 6b 87 3d 18 c6 f2 3d 27 00 2e 3e
       0.22980422 0.06612226 0.1185419 0.16992246
0001c0 e3 60 4a bf a5 3f 31 bf 0e 04 39 3f 41 c4 b2 be
       -0.7905409 -0.6923774 0.7227181 -0.34915355
0001d0 7d 79 9e bf 83 0a 3d 40 11 fa 46 bf c0 83 f1 bf
       -1.2380825 2.9537666 -0.7772532 -1.8868332
0001e0 37 69 ee 3e 11 a5 39 bf 27 79 6a bf 76 b8 1d be
       0.46564648 -0.72517496 -0.91591114 -0.15402398
0001f0 a3 8e 85 3f 1b bf b4 3e ed a8 82 3f 65 cf e8 3e
       1.0434154 0.35302052 1.0207802 0.4547073
000200 bf db c9 3f 9c d7 e8 bf 1e 52 35 bf 86 ee 0b 40
       1.5770186 -1.8190799 -0.70828426 2.1864333
000210 4d f1 25 3e 3e 79 66 bd c2 e0 06 bf 3a 64 0a 3f
       0.1620533 -0.05626797 -0.52686703 0.54059184
000220 0a f8 33 3f 21 a5 08 c0 bf 2d 74 bf c0 62 c6 bf
       0.7030035 -2.1350787 -0.95382303 -1.5498886
000230 4c 6b b4 3f e5 f1 c0 3e 1d 95 2d bf a2 7d 59 bf
       1.4095244 0.3768455 -0.67805654 -0.84957325
000240 53 63 e6 3f 72 47 14 c0 3c 3d d7 3f eb 99 ff be
       1.7999061 -2.3168607 1.6815562 -0.49922118
000250 88 0c bb 3d 14 4d 91 3e 94 8e 21 3e f8 3a 1b be
       0.091332495 0.28379118 0.15777045 -0.15159214
000260 14 60 11 bf 03 31 17 3f ac be bc bf 54 fd ed be
       -0.5678723 0.5905916 -1.4745688 -0.46482337
000270 94 8c 44 3e ce c1 13 3e 1c 50 d2 3f b4 60 a8 39
       0.19194251 0.144294 1.6430697 0.00032115506
000280 ba f7 49 40 0a da b9 3e 0f 56 ed 3f 2e 27 c1 3f
       3.155745 0.36299163 1.8541888 1.5090082
000290 5e 3f bb be b4 91 0c c0 20 52 04 40 16 eb 2d 3f
       -0.36571783 -2.196393 2.0675125 0.6793684
0002a0 d4 65 4e be 90 cb 72 bf 3e 4f 95 3e 5c 0a af 3e
       -0.20156032 -0.9484186 0.2916202 0.3418759
0002b0 16 a7 c0 be 29 b4 4e c0 47 bb 51 bf 08 eb b2 bd
       -0.37627476 -3.229746 -0.8192639 -0.08736235
0002c0 cf 21 70 c0 2c 55 ed 3f 8c 63 89 3f 7b 28 5a 3f
       -3.7520635 1.8541617 1.0733504 0.8521802
0002d0 61 29 88 bf 02 c7 11 3f d1 28 ac 3e a7 05 04 40
       -1.0637628 0.56944287 0.3362489 2.062845
0002e0 6e 6d da 3f 31 e8 90 3e a2 98 6f c0 35 8c 1f 3e
       1.7064645 0.28302148 -3.743691 0.15580828
0002f0 c9 a0 25 bf 0e ae 79 3f 03 41 3f c0 44 2b b5 3f
       -0.64698464 0.9753121 -2.988343 1.4153829
000300 79 7c 89 3f d9 e4 26 40 9e da 6b bf 56 6e 75 3f
       1.0741111 2.6077178 -0.9213046 0.95871484
000310 7a 4f 31 c0 34 d7 07 40 d3 07 ef 3f 93 8e ac be
       -2.7704759 2.12251 1.8674263 -0.33702525
000320 f0 1d 3c 3f 35 5e fd 3f 5b a6 3f 3d 0d 00 20 c0
       0.7348318 1.9794375 0.04678951 -2.500003
000330 2f f8 ed bf f1 66 26 c0 24 8e a0 bf ce 2b 5b 3f
       -1.8591365 -2.600033 -1.2543378 0.85613716
000340 3e 89 59 be d6 c4 45 3e 2f d5 84 3e 5d 25 82 3e
       -0.2124376 0.19313368 0.25943896 0.2541913
000350 d9 30 ea bf 70 93 87 3f 26 cf a6 3f 6d de 4c bf
       -1.8296157 1.0591869 1.3031967 -0.80026895
000360 74 ea 3f 3f 75 a4 d7 bd c9 9a 01 bf 7b fb ca 3d
       0.7496712 -0.105294146 -0.5062681 0.09911247
000370 22 7c a9 3f 8b 6d ec 3f 92 e2 81 3f 3b 6a 26 3f
       1.3241007 1.847093 1.0147269 0.65005845
000380 0b bd 68 be 00 03 71 be a5 42 3b 3e 83 7c 2a bf
       -0.22728364 -0.235363 0.18287142 -0.6659624
000390 5d 6b cb bf 01 9d 97 bf 39 9e 14 40 19 74 e1 bf
       -1.589214 -1.1844789 2.3221571 -1.7613555
0003a0 38 58 4e 3f 5a 84 1f c0 b5 d4 08 40 21 da 6e 3f
       0.8060336 -2.492453 2.1379826 0.9330159
0003b0 6c 66 ae 3f b1 65 ec 3e be c9 b9 be 20 08 d7 3e
       1.3625007 0.46171334 -0.3628673 0.41998386
0003c0 5c bd e4 3e 0c 9c c0 3d 64 c0 21 bf 95 41 57 bf
       0.4467572 0.094047636 -0.6318419 -0.84084445
0003d0 7c a2 3b bf 5e 91 4c bf 13 d0 66 be c3 85 cd be
       -0.73294806 -0.7990931 -0.22540312 -0.40141115
0003e0 21 4d 53 3f e7 94 63 3f 1c f6 99 bf d7 f8 fb 3f
       0.82539564 0.8889908 -1.2028232 1.9685315
0003f0 9a 1f e5 bc 28 51 a4 bf 03 e7 0d c0 56 20 d4 bd
       -0.02796917 -1.2837267 -2.2172248 -0.1035773

fc1.bias f4 [64]
000000 ea 68 ba 3e 8d 5f 42 3f d6 8c ea 3e 0c f8 1a 3f
       0.36408168 0.7592705 0.45810574 0.6053474
000010 72 2b 77 3e 4d 3f dd 3e c6 f1 d1 be 4a c2 cd 3e
       0.24137667 0.43212357 -0.4100477 0.40187293
000020 2d c3 ae be 86 11 93 3e fe 24 f4 be da 3c 8b 3e
       -0.34133282 0.28724307 -0.47684473 0.27194864
000030 8c 24 f5 3e 13 cb 49 3e 52 39 3b 3e 70 19 55 3e
       0.47879446 0.19706373 0.18283585 0.20810485
000040 57 40 10 be 36 ed 61 3f a3 c3 82 3c 3a 00 0d 3f
       -0.14087044 0.8825258 0.015962427 0.5507847
000050 18 19 b4 3e 8d bd b7 3e 6c 02 de 3e 5d 83 b9 3e
       0.35175395 0.35886803 0.43361223 0.36233035
000060 c1 70 93 3f 79 d4 28 3d 92 5e 14 3f 25 ac 36 3e
       1.1518785 0.041218255 0.579568 0.17839105
000070 b0 64 1a 3f de cf b4 3e a1 b7 da 3e 35 e9 e5 3e
       0.60309887 0.3531484 0.42718223 0.44904485
000080 3f 2c 67 3e b9 e9 a4 3e 74 7e 3b 3e 19 dd 1c 3e
       0.22575472 0.32209566 0.18309957 0.15318717
000090 3f 71 33 be ba 51 f5 be c6 f8 37 3f 36 d6 c7 3e
       -0.17523669 -0.47913915 0.71863973 0.39030617
0000a0 5b c8 08 3e d9 40 e3 3e 83 73 c0 3e 42 6a 5a 3f
       0.1335768 0.44385412 0.37588128 0.85318387
0000b0 70 f1 60 bf 49 43 e8 3e cf f0 90 3f 1a 5d 22 bf
       -0.87868404 0.45363835 1.1323489 -0.6342331
0000c0 ef ea 99 3e f6 8b 4c be 79 f9 83 3f a8 1c 96 3e
       0.30062053 -0.19975266 1.0310508 0.29318738
0000d0 cf 1a 67 3e 99 af 6a 3e 82 7a af 3e cf 85 2c 3e
       0.2256882 0.22918548 0.34273154 0.16847919
0000e0 38 07 c3 3e f3 6c d3 3e b4 e8 d8 3e 35 31 03 3e
       0.38091445 0.4129406 0.42365038 0.1281174
0000f0 25 6d fe 3e 90 fc e2 3e 3d ab 07 3e fa 9a cc 3e
       0.49692646 0.44333315 0.13248916 0.39961988

fc2.weight f4 [180, 64]
000000 34 d7 09 3f 6e 29 98 3f 5e b6 20 3f 90 0c ca 3e
       0.53844 1.1887643 0.6277827 0.3946271
000010 09 d1 27 3f ba 07 37 3f 18 c8 ba 3c 8f d7 35 3f
       0.6555334 0.71496165 0.02280049 0.7103204
000020 57 e7 07 3f f6 d7 00 3f 80 33 1e bc 23 16 b5 3e
       0.5308737 0.5032953 -0.009655833 0.3536845
000030 ea c7 1f 3f db 10 20 3f f8 86 01 3f bf 38 87 3e
       0.6241442 0.6252572 0.5059657 0.2641048
000040 b1 59 a2 be b4 27 45 3f b7 e9 70 3f 57 86 29 3f
       -0.31709054 0.7701371 0.9410662 0.6622061
000050 9d 26 d6 3e 9e 71 93 3f b6 93 14 3f de 74 e5 3e
       0.41826335 1.1519048 0.5803789 0.44815725
000060 4d d1 f0 3f 09 72 b0 3e cc 88 52 3f d1 cb 08 3f
       1.8813874 0.34462002 0.82239985 0.53436
000070 ce 0a 22 3f 06 b9 aa 3f 62 c5 2f 3f 8b a7 08 3f
       0.63297737 1.3337715 0.6866056 0.5338065
000080 ab 43 ad 3f d8 b4 3a 3f e0 cf ff bd 53 2a ef 3e
       1.3536276 0.72932196 -0.12490821 0.46711978
000090 52 3d 93 be ae 70 d9 3d 51 23 f5 3e 1f 4f f2 3e
       -0.2875772 0.10617195 0.47878507 0.4732599
0000a0 f0 19 c4 3f 39 bb 8b 3e 6c 4d 00 3f 08 be 64 3e
       1.5320415 0.27291277 0.50118136 0.22338116
0000b0 33 f5 a7 3f be df 7a 3f b3 20 96 3f 03 da e6 3e
       1.3121704 0.97997653 1.1728729 0.45088205
0000c0 89 1c 9c 3e 58 0c 1b 3f 50 17 7d bd 3c af 48 3d
       0.3049052 0.6056571 -0.06178981 0.04899524
0000d0 95 b8 13 3f b8 52 c0 3e 89 d4 e3 3e d1 ec 88 bc
       0.57703525 0.3756311 0.4449809 -0.016714485
0000e0 aa 01 05 3f a9 38 01 40 16 1e 28 40 1c 7f a2 3e
       0.51955664 2.0190833 2.6268363 0.31737602
0000f0 c8 a3 1f 3f 69 6e eb 3e ed 6f 20 3f ae d9 84 3f
       0.62359285 0.45982674 0.62670785 1.037893
000100 d9 e9 40 3e 94 a8 7a be a1 36 a6 3c c2 aa 03 3f
       0.18839206 -0.2447837 0.020289721 0.5143243
000110 58 60 b6 bd 70 ac b9 3e 7c 51 d0 3d 6d 5a 01 3d
       -0.08905095 0.36264372 0.10171792 0.031580377
000120 8e 0a 1c 3e 27 ac 5e 3f 28 25 be bc 33 00 28 3f
       0.15238401 0.86981434 -0.023211077 0.65625304
000130 b2 f1 f3 3d 2f 6a e6 3e 49 9b 03 3e 85 db cf 3f
       0.11911334 0.45002887 0.12852205 1.6238867
000140 36 ca 02 40 33 9d 60 3f 1c c3 97 3e ee 54 22 3f
       2.043592 0.87739867 0.29641044 0.6341084
000150 1c 95 aa 3e 75 e7 44 3e ac 14 6e 3e f8 fb df 3e
       0.33316886 0.19228919 0.23250073 0.43746924
000160 76 f5 0d 3f 28 bf 05 3f 3c e5 9d bc 92 e8 3b 3e
       0.5545267 0.52244806 -0.019274347 0.18350437
000170 2d 1e 47 3d fd 09 b2 be 5d c2 a2 3d 86 af 98 3d
       0.048612762 -0.34773245 0.07947228 0.074553534
000180 9a 0c 0d bf 97 1c 71 3e bc 23 63 3d 79 14 39 3e
       -0.55097353 0.23546062 0.055454 0.18074216
000190 69 9e d3 3f 80 1e 42 3c 40 f9 fb 3e 7c 03 2b 3d
       1.6532718 0.011848092 0.492136 0.04175137
0001a0 47 26 1f be 5e bd 86 bd d3 63 31 3f 8a 70 97 3c
       -0.15541945 -0.06579088 0.69292945 0.01848628
0001b0 fc fa 79 3f b2 00 63 3f 02 5a 12 3f 03 ac 0e 3f
       0.97648597 0.88672936 0.5716859 0.5573122
0001c0 ad 94 85 3e 92 48 01 bb 81 50 6e 3f 45 5c 10 40
       0.26089993 -0.0019727093 0.9309159 2.2556317
0001d0 17 97 f5 3e 4b 5a e2 bd bc fe 63 3d c6 25 72 3f
       0.47966835 -0.11052378 0.055662856 0.9458889
0001e0 46 df 39 3f 59 65 f7 be 60 f8 92 bf e5 b6 b5 be
       0.72606313 -0.4831951 -1.1482048 -0.354911
0001f0 f2 a8 e3 3e bf cd b8 3d d3 4e 2c be 45 c9 8c bd
       0.44464833 0.09023618 -0.16826944 -0.068743266
000200 12 dd e2 3e 9a a3 52 bf fc cf b0 3e c7 0f bb 3e
       0.44309288 -0.82280886 0.3453368 0.36535475
000210 aa 2c 34 3f 22 50 3e 3f ea 0b ac bd 80 88 1f 3e
       0.7038065 0.7434102 -0.0840071 0.15579414
000220 a2 8f 35 be 4f 90 f0 3e 8e 12 d3 bd 47 07 e6 3e
       -0.17730573 0.469851 -0.103062734 0.44927427
000230 f5 73 19 3e 53 e2 4c 3e fe 4d 29 be fa c5 8e 3f
       0.1498564 0.20008211 -0.16533658 1.1154168
000240 03 7f 0d 3f 95 93 43 3d 8a 98 1c bf 04 45 62 bf
       0.5527193 0.047748167 -0.61170256 -0.8838656
000250 03 66 5b 3e 46 2c f5 3d 9b e7 3d 3d e9 16 0a 3e
       0.21425633 0.11971335 0.046363454 0.13485302
000260 9b 3a 83 bf 3c 99 01 3e fb d0 85 be 4a ce cc 3c
       -1.025226 0.1265611 -0.26136002 0.02500071
000270 2d 11 f0 3d 96 80 1e 3f 75 48 82 bd b2 69 e5 3e
       0.11722026 0.61914957 -0.06361476 0.44807202
000280 2c 5a 28 3f 01 c6 64 3e 0a c7 fb be b3 74 06 be
       0.6576259 0.22341157 -0.49175292 -0.13130455
000290 f6 36 24 bd 52 26 d5 bd 49 97 7c 3e b1 cf b6 3e
       -0.040091477 -0.104077 0.24667086 0.3570533
0002a0 a0 5b 70 3f 37 0a cb bf 00 4c b5 3d 49 07 8e 3e
       0.9388981 -1.5862492 0.088523865 0.27739933
0002b0 1d 17 bd 3e 63 f8 4d 3f 0a ca de bf a2 a5 69 bc
       0.36931697 0.80457133 -1.7405407 -0.014260681
0002c0 fa 9c e6 3d 0f 1c 66 3f 67 fb cf 3e 3a 4e ea bd
       0.1126041 0.89886564 0.40621492 -0.11440702
0002d0 bf 28 e7 3e 82 08 2c 3f 44 d9 76 be 37 7b fb 3e
       0.45148274 0.6720048 -0.24106318 0.49117443
0002e0 f3 8c 50 3e 0f bb b9 bf 53 38 f6 bf 85 ab 87 be
       0.20366268 -1.4510211 -1.9235939 -0.26498047
0002f0 fd f8 5c be db 93 0a bf 8e 45 ed 3b 6e ce 81 be
       -0.21579356 -0.5413186 0.0072409576 -0.25352806
000300 fe a4 6b 3e 82 3e cc be 31 58 7b 3e 9e c3 5b be
       0.23012158 -0.3989144 0.24545361 -0.21461341
000310 ad ab 92 3f 40 8e 0f 3e 6c ee ca 3d 26 56 e7 3e
       1.1458641 0.14019108 0.099087566 0.45182914
000320 7d de 9f 3e fc a3 50 3e e0 79 d0 3d e3 25 13 3e
       0.31224433 0.20375055 0.10179496 0.14369921
000330 72 b5 23 bd 01 2a fd be 9d 2a 03 bd aa 34 9a 3e
       -0.03996796 -0.4944611 -0.03202306 0.30118304
000340 f9 b4 3c bf 6e 89 53 3f 2c 4c 3d be fb 17 aa bf
       -0.7371364 0.82631576 -0.18486089 -1.3288568
000350 61 25 a3 3e ae f3 bb 3d 17 69 ca be d7 cc cf 3d
       0.31864455 0.091773376 -0.39533302 0.10146492
000360 12 0d 39 bf 4e a9 31 3f 01 b9 c0 3e 41 9f f1 3d
       -0.7228557 0.69398963 0.37641147 0.117979534
000370 aa be c0 3e 3f 96 1a be e0 f0 ee 3e 52 54 ce 3e
       0.37645465 -0.15096377 0.46668148 0.40298706
000380 5e c2 8b 3f c8 0c d9 3e 02 1e 85 bf 2d bb 96 3d
       1.0918691 0.42392564 -1.0399783 0.0735992
000390 2d 0d c8 bd 40 3a e6 3b 5e d6 f6 3c 19 90 cc 3d
       -0.09768138 0.007025987 0.030131515 0.09988422
0003a0 d3 fe 36 3f cf fb 4b bf 22 a5 18 3e eb 52 0c 3f
       0.7148258 -0.79681104 0.14906743 0.5481402
0003b0 8f bc d4 3e 9a 70 44 3f 61 e9 1f bf 05 33 a7 be
       0.4155011 0.76734316 -0.6246548 -0.32656112
0003c0 9c c6 91 3e d8 06 8a 3e a3 7d c8 bf 02 aa d9 bf
       0.2847184 0.26958346 -1.5663341 -1.7005007
0003d0 8b 10 30 3e 74 f1 c0 3e 01 55 a7 bd 34 91 8f be
       0.1719381 0.37684214 -0.0817051 -0.2804047
0003e0 37 54 ab bd c3 c7 3b 3f f8 4c 53 3e 31 97 b3 3c
       -0.08365672 0.7335169 0.2063483 0.02192268
0003f0 aa f0 64 bc 54 8c be be 64 88 17 3f 94 50 05 3f
       -0.013973394 -0.37216437 0.5919249 0.5207608

fc2.bias f4 [180]
000000 04 63 f3 3e 7c 23 05 3f e2 2f 38 3e 4a 36 5e 3e
       0.4753648 0.5200727 0.17987016 0.21700397
000010 f7 0c 4a 3e 4c 65 f3 3e 25 ea 72 3d 66 12 51 bc
       0.19731508 0.4753822 0.05930533 -0.012760734
000020 4b 34 05 bc 4d 0e c3 bd 00 99 15 be 92 f3 ac 3e
       -0.008130143 -0.09524212 -0.14609146 0.3377958
000030 50 d2 ad be 1a cb b5 bc ee 43 f0 bb e9 bf a0 bc
       -0.33949518 -0.022191573 -0.0073323166 -0.01962276
000040 c3 19 07 be d6 17 b6 3e f3 96 b7 3d e8 1d 4d bc
       -0.13193421 0.3556506 0.08964338 -0.012519337
000050 6f 97 10 bd 44 be e6 bd 83 5d da be 9a fc b1 3e
       -0.03530067 -0.11266759 -0.4264947 0.34763032
000060 00 85 fc 3e be 15 ae bb 2f ae 9d bc f6 34 0e be
       0.4932022 -0.0053126505 -0.019248096 -0.1388739
000070 f8 a7 35 bc a5 ea dd 3e d3 ae 9e 3d 9c bb 48 3c
       -0.01108741 0.43343082 0.07748189 0.012251761
000080 86 7f 50 be e3 b9 eb bd 5c f0 1f 3d 4d 63 b6 bd
       -0.20361146 -0.115100645 0.039047584 -0.08905659
000090 df 8d bc 3e 83 06 8d 38 8b a2 98 bd 2b cf a7 bc
       0.3682699 6.724617e-05 -0.074528776 -0.020484528
0000a0 b8 a3 0d be 25 37 c2 3d b4 84 0a 3e a2 3f 0b 3d
       -0.13831985 0.09483174 0.13527185 0.03399623
0000b0 c4 03 3c be ac 01 a1 bd 40 08 b8 bd 3e 6a 97 3d
       -0.18360811 -0.07861647 -0.089859486 0.07393311
0000c0 71 ce 35 be 91 23 fd 3c cb ea 47 be 03 54 fc bd
       -0.17754532 0.030900748 -0.1952316 -0.123207115
0000d0 cc 3a 58 be 12 1c d3 3c c4 61 dc 3e c7 51 38 be
       -0.21116179 0.02577022 0.4304334 -0.17999946
0000e0 2c 50 01 bc 4f 9b dd bd 5e 8a 18 be 26 73 f2 bd
       -0.00789265 -0.108206384 -0.14896533 -0.11838369
0000f0 eb 03 91 3e f6 a2 33 3e 98 2e 4a be a5 b2 cb bc
       0.28323302 0.17542633 -0.19744337 -0.024865458
000100 e1 55 8d bd 7d 87 00 bd 8f cd df 3e 1a d2 98 bd
       -0.06901146 -0.03137921 0.43711516 -0.07461949
000110 b0 33 5c 3e ca e8 fd bd a9 f2 64 3d a2 b2 95 bd
       0.21504092 -0.123979166 0.05589548 -0.07309462
000120 ab 8d f2 3e 63 8b 79 bd 51 58 a4 3c 53 00 30 bd
       0.4737371 -0.060923945 0.020061644 -0.04296906
000130 0e 5c 67 3e f9 1f fc bb 30 63 a3 3e b3 93 a3 3b
       0.2259371 -0.007694241 0.31911612 0.0049919724
000140 af dc 1e 3d 34 b2 2e be 96 a6 bc bd 9b 3c d7 3e
       0.03878468 -0.17060167 -0.09211461 0.42038426
000150 55 d6 67 3e 6c 9d d7 bc 3b 25 07 be 51 12 73 bb
       0.22640355 -0.026320182 -0.13197796 -0.0037089775
000160 e9 8c fa bc 04 4f e7 3e 99 5c fe 3d 6e d6 ac bd
       -0.03058477 0.45177472 0.12420005 -0.08439337
000170 ab f1 d5 3c 30 59 4c 3c a3 cc d4 bd 59 f7 86 3e
       0.026116213 0.012472436 -0.10390594 0.26360586
000180 0e 31 e2 3d 83 6a c6 bd 25 62 37 be a7 f8 29 be
       0.11044513 -0.09688284 -0.17908533 -0.1659876
000190 b7 1b 93 bd 88 e7 08 3f 4b e4 2d 3f 4b b7 9e 3e
       -0.071830206 0.5347829 0.6792647 0.30999216
0001a0 f4 45 31 3b ab 05 4e 3e cf ef bb 3e 44 bc f7 3e
       0.0027049752 0.2011935 0.36706397 0.48385823
0001b0 42 33 b2 3e 9a ba cc 3e 26 6f 97 3e 20 45 8c 3e
       0.34804732 0.39986116 0.29576987 0.27396488
0001c0 65 65 3c 3e 2a d3 ba 3e 4f 2d d9 3e e1 cd 56 bd
       0.18398054 0.3648923 0.4241738 -0.052442435
0001d0 87 b7 29 be ed fc 2b bd 14 3e 6f bd 7c 85 43 3e
       -0.16573916 -0.041989256 -0.05840881 0.19093889
0001e0 56 af 0e 3e bd 0a f9 3e 87 fd a5 bd 7e 4c 31 be
       0.13934073 0.48641005 -0.08104997 -0.17314336
0001f0 d2 8c 4f be 5d 70 83 bc 46 2d 92 bd d0 22 b5 bd
       -0.20268562 -0.01604479 -0.071375415 -0.088445306
000200 78 7c d4 bd 2e c0 da bd 55 a7 39 be 38 64 f3 3d
       -0.10375303 -0.106811866 -0.18130238 0.118843496
000210 90 36 a2 bd 35 64 98 bd ea 50 e3 bd 4d 1e 03 3c
       -0.07920563 -0.07440988 -0.110994175 0.00800283
000220 85 61 ef 3c 9b 39 89 3d bc f9 a5 3e 20 21 da 3e
       0.029221306 0.067004405 0.32417095 0.42603397
000230 28 b9 0f be e6 13 41 bd 44 cd dd 3d 90 c8 93 3e
       -0.14035475 -0.047138117 0.10830167 0.28863955
000240 0a 56 2f be 61 44 a1 3e 47 68 01 3c 0c 40 a9 3d
       -0.17122665 0.3149748 0.007898397 0.08264169
000250 84 6e 3d 3a 75 cb 9c 3e 02 18 24 3e b5 ee c3 bd
       0.0007226246 0.30623975 0.16024783 -0.09567014
000260 55 c4 c7 3e 71 28 ef bd 37 91 47 bd a0 c3 02 3f
       0.39016977 -0.116776355 -0.048722472 0.5107975
000270 79 ef 70 3e 0d 70 18 be 5b e6 57 bc 0e 0c 31 bb
       0.23528852 -0.14886494 -0.01317748 -0.0027015242
000280 d8 bf 2f be 00 9f b3 3e 5d b9 54 3d 26 09 2c be
       -0.17163026 0.35082245 0.05193459 -0.16800365
000290 10 e9 1d bc fd 82 3f be 05 c8 4a be 07 e5 88 3e
       -0.009638086 -0.18702312 -0.19802864 0.26737234
0002a0 83 da a0 3d 1c bf 03 be b0 3b 03 be 96 f7 b5 3e
       0.07854178 -0.12865871 -0.12815738 0.35540456
0002b0 28 52 e2 bd 8a c0 c3 3e ab 19 f3 3d 90 73 54 3d
       -0.11050826 0.38232833 0.1187013 0.05186802
0002c0 82 33 8c 3d e3 61 88 bd 5e a6 0f 3e 9f 11 af bd
       0.06845762 -0.066592954 0.14028308 -0.08548283

conv.weight f4 [5, 1, 34, 34]
000000 b3 ac cd be 41 d5 c5 be 61 3b af be cc 7a c1 be
       -0.40170822 -0.38639262 -0.3422499 -0.37789
000010 88 a8 d9 be 48 0a c3 be 34 ff d0 be 78 5b d4 be
       -0.42511392 -0.3809378 -0.40819705 -0.41476035
000020 21 53 be be c0 17 d5 be 4c ac bc be 91 6b cd be
       -0.37172797 -0.41619682 -0.36850202 -0.4012113
000030 0b ee 02 bf 45 33 d8 be 6a ba b3 be ec f2 80 be
       -0.51144475 -0.42226616 -0.3510316 -0.25185335
000040 bf d5 7f be be e3 30 be 9d 5e 50 be 7e 25 2b be
       -0.24983881 -0.17274377 -0.20348592 -0.16713521
000050 10 f9 62 be aa 3c 7e be 28 52 65 be 48 cd 7e be
       -0.22165322 -0.24827829 -0.22394621 -0.24882996
000060 87 de 39 be 0a e1 6f be 2c c5 22 be 20 1e 5d be
       -0.18151294 -0.2342569 -0.15895528 -0.21593523
000070 3f 41 7a be bf 87 87 be 7e d0 8b be f6 69 87 be
       -0.24438952 -0.26470754 -0.27307504 -0.2644803
000080 74 b8 8f be 54 5c 88 be 99 07 87 be 5a d7 c2 be
       -0.28070414 -0.2663294 -0.26372984 -0.38054925
000090 71 0e b3 be 76 fa b4 be c0 ba a7 be f9 9e bf be
       -0.34971955 -0.35347337 -0.32759666 -0.37425974
0000a0 27 13 c9 be 0a 9d d2 be 6b a2 d3 be 46 1f ed be
       -0.39272425 -0.41135436 -0.41334853 -0.46312922
0000b0 ba 64 9f be 24 72 bd be 51 4a f5 be 44 c6 dc be
       -0.31131536 -0.37001145 -0.4790826 -0.43120015
0000c0 0b c5 dc be 1a af 34 be 6e 67 30 be 5d 94 22 be
       -0.43119082 -0.17644921 -0.17226955 -0.15876909
0000d0 cf 9a 22 be ec 1b d9 bd d7 e8 89 be 52 08 47 be
       -0.15879367 -0.10601029 -0.26935455 -0.19436768
0000e0 f5 8f 9e bd 32 dd 22 be f3 5d e9 bd 55 bf 5c be
       -0.077423014 -0.15904692 -0.113948725 -0.21557362
0000f0 ed 44 4c be 29 a0 6f be 57 28 61 be 39 c5 3f be
       -0.19948168 -0.2340094 -0.21988045 -0.18727578
000100 12 b7 63 be ba 49 96 be 0a 77 a9 be 6f d9 9f be
       -0.22237805 -0.29353124 -0.33098632 -0.31220576
000110 5f 3e 98 be 0b 6e 96 be e0 e1 8a be 55 66 8c be
       -0.29735085 -0.2938083 -0.27125454 -0.27421823
000120 36 20 c3 be 8f f0 c0 be 2e 8a b9 be a4 9b d0 be
       -0.38110512 -0.37683532 -0.36238235 -0.40743744
000130 0a 7d b4 be 92 1f c6 be 8e 1e bb be c5 1c ec be
       -0.35251647 -0.3869596 -0.3654675 -0.461157
000140 01 c2 ca be 96 5a c9 be 68 36 a3 be 22 bc 93 be
       -0.39601138 -0.39326924 -0.31877446 -0.2885447
000150 b6 37 ab be 01 b0 35 be 66 1b 08 be ab 9d 07 be
       -0.33440942 -0.17742921 -0.13291702 -0.1324374
000160 a7 2e e6 bd 44 42 11 be bf 31 4d be 10 98 3e be
       -0.11239367 -0.14185435 -0.20038508 -0.18612695
000170 0b e3 09 be 6b 2e 4f be ef 17 52 be 1c 97 43 be
       -0.13465516 -0.20232551 -0.20516942 -0.19100612
000180 1f b7 2f be 7f b3 47 be 96 98 7a be 86 16 84 be
       -0.17159699 -0.19502066 -0.2447227 -0.25798434
000190 68 ed 8d be 7d 81 8e be 5d 71 79 be 81 4f 69 be
       -0.2772019 -0.27833167 -0.24359651 -0.22784235
0001a0 4a e4 83 be 55 02 96 be 5f 56 a6 be 06 0e bf be
       -0.25760108 -0.29298654 -0.3248777 -0.37315387
0001b0 ed 11 ab be 09 42 b7 be 0c 08 b3 be 98 d6 ad be
       -0.33412114 -0.35792568 -0.34967077 -0.33952785
0001c0 34 36 a3 be f6 b6 c2 be a1 d5 c4 be 6b 54 d0 be
       -0.3187729 -0.38030213 -0.38444236 -0.40689406
0001d0 56 43 6d be 4f 98 64 be f4 3a 9d be 8c 90 1b be
       -0.23170218 -0.22323726 -0.3070904 -0.15191859
0001e0 50 38 62 be ea 6e 63 be dd 50 1b be ef b4 1a be
       -0.22091794 -0.22210279 -0.15167566 -0.15108083
0001f0 b4 96 29 be 54 d0 0a be 36 5f e9 bd 4c c9 25 be
       -0.16561395 -0.13556033 -0.11395113 -0.1619007
000200 35 d5 28 be 3e 37 16 be dd af e2 bd 81 82 30 be
       -0.16487582 -0.1466951 -0.110686995 -0.17237283
000210 fd 35 4b be 34 6e 39 be 81 9b a0 be f6 e2 8f be
       -0.19844814 -0.18108445 -0.3136864 -0.28102845
000220 31 5a 90 be c0 e1 a9 be 21 17 b8 be 3f 07 d2 be
       -0.2819381 -0.33180046 -0.35955146 -0.41021153
000230 75 c8 b9 be 4f 0b ce be f5 31 db be eb 9b f5 be
       -0.3628575 -0.40243003 -0.42811552 -0.47970518
000240 b0 9f ce be 37 6f d1 be d8 a3 af be ff 9e d3 be
       -0.40356207 -0.40905163 -0.3430469 -0.41332242
000250 13 c9 f8 be 7e ac 15 bf 8d 8b 85 be 95 d5 5a be
       -0.48590907 -0.5846633 -0.2608303 -0.21370538
000260 79 5c 8b be 3e 06 e9 bd 9b ce 68 be c4 f5 b6 be
       -0.2721899 -0.11378144 -0.22735064 -0.3573438
000270 02 0d b1 be 75 59 95 be ae 1e 6a be 22 8e 8a be
       -0.34580237 -0.29169813 -0.22863266 -0.27061564
000280 ed 84 d7 bd ce fa 1e be f9 29 42 be 0b 11 6c be
       -0.105234005 -0.15525362 -0.18961324 -0.23053376
000290 18 52 5a bd ec 92 24 be 4e c4 24 be 63 9a 22 be
       -0.053300947 -0.16071671 -0.1609051 -0.15879206
0002a0 c3 63 55 be 21 7d 71 be f6 44 6e be 1d 9f 8b be
       -0.20838837 -0.23582889 -0.23268494 -0.2726983
0002b0 49 d2 9a be 9e ed cf be f5 15 b6 be f8 08 b8 be
       -0.3023856 -0.40610975 -0.35563627 -0.35944343
0002c0 cc 1f a7 be a7 40 b0 be c3 35 d4 be 06 93 af be
       -0.32641447 -0.34424326 -0.41447267 -0.34291857
0002d0 0d 89 d1 be f3 89 b4 be e5 c3 b2 be 14 af ca be
       -0.40924874 -0.35261497 -0.3491508 -0.395867
0002e0 a6 96 60 be b5 0c 6d be 18 3e 7b be 9b 20 60 be
       -0.21932468 -0.23149379 -0.24535406 -0.21887438
0002f0 29 ab 55 be ab 6b 27 be 03 07 d5 bd d9 cf 84 be
       -0.20866074 -0.16349666 -0.10401728 -0.25939825
000300 59 86 a0 be 43 9d 8f be d9 93 36 be cd a7 ed bd
       -0.313525 -0.2804967 -0.17829837 -0.11604271
000310 03 49 07 be 0f 99 e4 bd c6 e0 ea bd b9 7e 33 be
       -0.13211446 -0.11162006 -0.114686534 -0.1752881
000320 e8 d7 2b be a5 52 3a be 80 b3 42 be 7d a8 35 be
       -0.1678158 -0.18195589 -0.19013786 -0.17740054
000330 e3 8c 82 be 06 69 ae be ee 07 b5 be 21 58 b3 be
       -0.25498113 -0.34064502 -0.35357612 -0.35028175
000340 97 db 89 be fa 5d 96 be 47 e5 a1 be 56 a8 a1 be
       -0.26925346 -0.29368573 -0.31620237 -0.31573743
000350 ea 25 b3 be 3f fc bd be 89 bb a8 be 47 25 a2 be
       -0.34989864 -0.3710651 -0.32955578 -0.31669065
000360 79 5a 96 be 90 22 81 be 1f d8 47 be b4 38 33 be
       -0.293659 -0.25221682 -0.19516037 -0.175021
000370 84 91 47 be ab c8 2f be d2 d6 34 be 5f ed 04 be
       -0.19489104 -0.17166393 -0.17660072 -0.12981175
000380 26 e7 d9 bd 44 8f cd bd 43 14 21 bd 27 f7 62 bc
       -0.10639791 -0.100370914 -0.039325964 -0.013852871
000390 3f 47 67 bd 77 e5 bc bd 2a ec 11 be c2 4a 35 be
       -0.05646443 -0.092234544 -0.14250246 -0.17704299
0003a0 32 73 33 be 25 56 3c be 0f 46 45 be 82 c3 35 be
       -0.17524412 -0.18392237 -0.19265006 -0.17750362
0003b0 2c 0e 3f be b9 90 50 be 4f 14 1e be 48 eb 8c be
       -0.1865775 -0.20367707 -0.15437435 -0.27523255
0003c0 65 ee 9a be 1e 48 9c be 2f e2 84 be 54 42 6d be
       -0.30260006 -0.3052377 -0.25953814 -0.23169833
0003d0 ab 27 8c be de f7 8f be 99 80 a5 be 3a 25 a4 be
       -0.27374014 -0.28118795 -0.32324675 -0.32059652
0003e0 88 22 9b be fd 23 90 be 06 96 a8 be 84 7d 8a be
       -0.30299783 -0.28152457 -0.3292696 -0.27048886
0003f0 08 e3 a8 be 7c a0 03 be d8 d9 f4 bd 3e c5 23 be
       -0.3298571 -0.12854189 -0.11955613 -0.1599321

conv.weight f4 [5, 1, 10, 10]
000000 1c 4c de bd e2 69 19 bd da c5 9f bd 9f 67 c5 bd
       -0.108543605 -0.037454493 -0.07801409 -0.09638905
000010 36 05 22 bd b4 1d bb bd 7f 1e 24 be c7 31 81 bd
       -0.03955575 -0.09136525 -0.16027258 -0.063083224
000020 f2 99 6b 3e e4 82 18 3e e8 7e 7b bd e0 55 f6 bd
       0.23007944 0.14893681 -0.061400324 -0.12028098
000030 ca 5a 45 3d 12 d4 c7 3c e9 1a 07 bd 51 95 b1 bd
       0.048182286 0.024393115 -0.032984648 -0.08671058
000040 38 11 f8 bd ef 15 a8 bd 50 aa a7 bd 7d d8 bc bd
       -0.12112659 -0.082073085 -0.081867814 -0.09220979
000050 2f 01 4a bd 36 c5 e9 bd ce 54 f3 bd a0 c2 7d bd
       -0.049317535 -0.11414568 -0.118814096 -0.061953187
000060 e5 6a 0a be d8 51 a7 bd fc b1 d8 bd f1 de df bd
       -0.1351734 -0.08169907 -0.10580823 -0.109311946
000070 50 0f b5 bd 65 c1 3a bd 66 6c 9e bd 68 58 37 3d
       -0.08840811 -0.04559459 -0.07735519 0.044762045
000080 44 ee 44 bd f6 52 4a bd d6 93 26 be 6a 78 20 bd
       -0.04807879 -0.049395524 -0.16267332 -0.039177336
000090 ef 89 9f bb 10 5b 9a bd 82 40 63 bd 06 1e b3 bd
       -0.004868738 -0.075369 -0.05548144 -0.08745961
0000a0 dc 9f dc bb b7 e9 06 bd 6d 81 60 bd e8 c6 a0 3d
       -0.006732924 -0.03293773 -0.05481093 0.07850438
0000b0 c0 69 4e bd 45 fc 21 be 46 0d 56 bb 99 7a 26 be
       -0.05039382 -0.1581889 -0.003266172 -0.16257705
0000c0 a1 31 27 be b5 7f 58 bd 6e e6 55 3a 0a ab cb bc
       -0.16327526 -0.052856166 0.0008159642 -0.024861831
0000d0 f1 fc a6 bd fa 2f 50 3e 92 07 ff 3c 3c 84 b1 bd
       -0.081537135 0.20330802 0.03113154 -0.086678
0000e0 b8 73 85 bd 8e b2 f1 bd 94 36 e1 bd 3e ca b7 bd
       -0.06516212 -0.11801635 -0.10996738 -0.089741215
0000f0 d4 00 fa b8 09 73 ab bd 5a bc 21 be 99 58 cb 3d
       -0.00011921083 -0.083715506 -0.15794507 0.09929008
000100 18 55 22 bc 4a a8 4e be e5 33 c5 bd 36 41 75 bd
       -0.009907983 -0.20181385 -0.09629039 -0.059876643
000110 7b cb 2c be 1d da 0e be 55 af 1e be a0 ec da bd
       -0.16874497 -0.13950391 -0.15496571 -0.10689664
000120 bf 0d 22 bd 16 3d c3 bd 6f 54 1e bd 22 be 93 bd
       -0.03956389 -0.095331356 -0.03865474 -0.07213999
000130 26 52 cd bd ce f1 6c bd ac 30 a2 3c a5 f2 c0 bd
       -0.10025434 -0.05784779 0.0197986 -0.09421281
000140 50 83 3e be 9b 3c 16 be 16 82 93 bc a0 c7 81 bc
       -0.18604779 -0.14671557 -0.018006366 -0.015842259
000150 cd 14 e3 bd 0c 5a cd bd 9d 1d 0c be 55 d6 19 be
       -0.11087952 -0.10026941 -0.13683172 -0.15023167
000160 42 15 02 be fb 8a c7 bd 32 59 56 be 81 73 06 bb
       -0.12703422 -0.09743305 -0.20932463 -0.0020515623
000170 4d a5 76 bd 6c b5 24 bc f6 4a 1d be 3f d4 b1 bd
       -0.060216237 -0.01005302 -0.15360627 -0.08683061
000180 75 26 0d be bc 85 5c 3c ac 38 c0 3d 9e 99 92 3e
       -0.13784201 0.013459619 0.09385809 0.28632826
000190 eb 00 ab be 18 01 19 be 54 fc 69 be c1 5d f0 bd
       -0.33399138 -0.14941823 -0.22850162 -0.11736632
0001a0 cd 77 5f be 1e 1b 64 be ec 25 2e bd bf 99 46 bd
       -0.21823044 -0.2227597 -0.042516634 -0.048486467
0001b0 3a 57 89 bd 67 3c 81 bd 76 08 5d be d4 27 7c be
       -0.0670609 -0.06310349 -0.21585259 -0.24624568
0001c0 9f e2 e4 bd 1b e8 7a be 84 2e 47 be 8c fa 23 be
       -0.11176037 -0.24502604 -0.19451338 -0.16013545
0001d0 fb 8c 68 3c 21 81 50 bd bc c9 b4 bd 0e 03 62 3d
       0.014193769 -0.050904397 -0.0882754 0.055178694
0001e0 90 95 52 be 37 a9 8b be 56 12 7f be 49 1f 3e be
       -0.20564866 -0.27277538 -0.24909338 -0.18566622
0001f0 d1 4e 0d be a9 a5 31 bd f1 96 04 3e 05 30 a4 3d
       -0.13799597 -0.043370876 0.12948205 0.080169715
000200 df fa b4 bd 1c e0 46 3c d5 10 8e be a2 56 62 bd
       -0.08836912 0.012138393 -0.27747217 -0.0552584
000210 67 f1 43 be b0 40 8d be 85 4e 5d be 0b e5 21 be
       -0.19135056 -0.27588415 -0.21611984 -0.15810029
000220 82 b3 3d bd fe c1 eb bd 50 0a 8c bd 63 9f 39 bd
       -0.04631377 -0.115116104 -0.068379045 -0.04531802
000230 5f 0e 0d be 96 29 88 bd 7e 4d 43 be 78 78 d3 bd
       -0.13775013 -0.06648557 -0.1907253 -0.10325712
000240 af 8e 86 be 7d 15 d1 bc dd b2 df bd b6 a2 c7 bc
       -0.26280734 -0.025522942 -0.10922787 -0.024369579
000250 a6 2d e2 bd 41 c5 05 3d 81 22 7d 3e 63 76 a3 bd
       -0.11043863 0.03265882 0.24720193 -0.07981565
000260 48 c8 64 be 99 e9 55 bd 29 ee c1 bd 93 25 1b be
       -0.22342026 -0.05222473 -0.094692536 -0.15151052
000270 1d b4 58 be 5a a1 06 be 72 b7 06 be d0 0c df 3c
       -0.21162458 -0.13147488 -0.13155916 0.02722779
000280 89 a4 2f 3e 47 6e 32 3e 2e a7 63 3e 8c 8e 52 bd
       0.17152609 0.1742488 0.22231743 -0.051405475
000290 d2 b5 3c be eb fa a0 be a9 3e 28 be 49 d9 00 be
       -0.18428734 -0.31441435 -0.16430153 -0.12582888
0002a0 2d e4 3b be c4 d2 27 be c8 0f 4b 3e 9f 50 a0 3e
       -0.18348761 -0.16388994 0.19830239 0.3131151
0002b0 33 98 7e 3e 17 4d 61 3e 5e df 90 3e d8 d7 5c be
       0.24862747 0.22002064 0.28295416 -0.21566713
0002c0 ef 93 6d be 38 64 d8 bd 73 6e 7e be e0 dc 27 be
       -0.23200963 -0.1056599 -0.2484682 -0.16392851
0002d0 e6 9c 94 3e 4b e2 8e 3e 52 2d 46 3e 73 d5 37 3e
       0.29025954 0.27907023 0.19353226 0.17952518
0002e0 3d b1 4c 3e f1 ea 59 3c fb 05 99 3c f9 9a 4b be
       0.19989486 0.013300643 0.01867961 -0.19883336
0002f0 6b 4a 91 be 1d d5 23 be e0 58 ac 3e ab a9 83 3e
       -0.2837709 -0.15999265 0.33661556 0.25715384
000300 3b e5 20 3e 92 54 88 3e f4 7f 36 3e 08 a1 1b 3d
       0.15712444 0.26627022 0.17822248 0.03799537
000310 01 80 6d 3d e8 d8 d1 bd aa a4 5b 3d ac 3d 49 be
       0.057983402 -0.1024645 0.053623833 -0.19652432
000320 f2 fd 1a be ba 88 a4 bd 58 ac db bd d9 93 ff bd
       -0.15135935 -0.08033891 -0.10726231 -0.124793716
000330 b8 1a 31 be 6b cf a5 bd 41 34 42 3d 46 25 d5 bd
       -0.17295349 -0.080962025 0.047413114 -0.104075
000340 1d dd 88 3e 49 0b 6b 3e 8c b4 d7 bd ae 5c 9d bc
       0.26731196 0.22953524 -0.105324835 -0.019209232
000350 5f df 18 be 7c a8 47 be 30 d8 5e be 29 b8 0a be
       -0.1492896 -0.19497865 -0.21762156 -0.13546814
000360 66 6a 8a 3d 30 fc eb 3c 2e ee 04 bc 2e 87 7a bd
       0.06758575 0.028806776 -0.008113427 -0.061164074
000370 66 26 c8 bd 00 e1 0d be 82 e7 34 be 31 d5 7f bd
       -0.09772949 -0.13855362 -0.17666438 -0.062459175
000380 43 20 41 be 68 09 2b be 72 fd 88 3d 40 cc 64 bc
       -0.18859963 -0.16702807 0.06688966 -0.013964713
000390 ca 2d 33 bc fa 6e 35 bd 39 98 0a be c2 50 0c bd
       -0.01093621 -0.04429529 -0.13534631 -0.034256704
0003a0 02 a0 b8 bc de 61 93 bd 6e 72 8e bd 5d d8 b4 bd
       -0.022537235 -0.07196401 -0.069554195 -0.088303305
0003b0 d6 57 13 be 8d 19 db bd a5 80 85 bb 3e d4 0c be
       -0.14388976 -0.10698233 -0.0040741735 -0.13752839
0003c0 c3 86 20 be 05 66 3b be f9 81 a0 bd a6 d5 54 bd
       -0.15676408 -0.18300636 -0.0783729 -0.051961564
0003d0 88 82 ac bd e3 c0 f2 bd ce cd 18 bd ab 7d 06 bd
       -0.08423334 -0.118531965 -0.037305646 -0.03283469
0003e0 2b fc 10 be d2 24 ba bc d6 94 1f bd af a8 8e bd
       -0.14158694 -0.022722635 -0.0389603 -0.069657676
0003f0 35 55 8d bd 9e 78 2e bd 16 ac a9 bd f3 f3 b7 bc
       -0.069010176 -0.0425955 -0.08284776 -0.022455191

conv.bias f4 [5]
000000 88 e5 95 3e 4c 16 1c bc 3b e3 82 3e dc e2 fb bd
       0.2927668 -0.0095268 0.25563988 -0.12299129
000010 de b8 8c bd
       -0.06871198

fc1.weight f4 [64, 180]
000000 4a 38 58 bd fc f2 0d bd a1 b5 76 bd ba ad 7f bd
       -0.052788056 -0.034655556 -0.06023181 -0.062421538
000010 ce 35 cb bc c4 55 ad bc f6 e4 31 3d aa 2d f8 bc
       -0.02480593 -0.02115906 0.043431245 -0.030295212
000020 b3 66 68 bd e4 30 76 bd 4c cd d0 bc ea 05 27 3d
       -0.056738567 -0.06010522 -0.025488518 0.040777124
000030 44 92 40 3d 2f 9e 28 bd 53 06 68 bd 18 3a 08 3c
       0.04701449 -0.04116648 -0.056646656 0.008314632
000040 72 ec 18 bd 62 0e 92 bd 7d 79 80 3d aa bc 2a 3d
       -0.037334867 -0.071316496 0.06273172 0.04168383
000050 e7 9c 85 3d 20 51 1b bb 92 0b 41 3d 96 9a 13 3d
       0.06524067 -0.0023699477 0.047130175 0.036036097
000060 48 d9 41 3d 66 57 fb bc 88 ea 86 3c 3c 88 b3 bc
       0.047326356 -0.030681323 0.016469255 -0.021915548
000070 f4 4a 83 bc c2 0c 10 3d 78 f5 86 bd f6 54 5e bd
       -0.016026951 0.035168417 -0.06589788 -0.054280244
000080 90 03 fe 3b 20 38 bb bb 50 55 b3 bc 0a 6d 1b 3d
       0.0077518895 -0.0057134777 -0.021891266 0.037945785
000090 14 eb 51 bd 36 29 89 bd 1c a9 43 3d e5 37 81 3d
       -0.05124958 -0.066973135 0.047768697 0.06309489
0000a0 88 94 3b 3c 28 8c 4a 3c 94 ee fa 3c d8 50 00 bc
       0.011448987 0.012362517 0.030631341 -0.007831775
0000b0 78 37 18 bc 75 50 8f bd b8 df 0b 3c 74 21 e0 3c
       -0.0092905685 -0.06997768 0.008537225 0.027359702
0000c0 94 97 45 bc 10 65 31 bd 21 54 85 bd 44 75 38 3d
       -0.012060065 -0.04330927 -0.06510187 0.04503371
0000d0 90 5d ba 3b 5e fd 63 3d fd b7 8b 3d e5 e7 2a bd
       0.005687423 0.05566155 0.06822202 -0.041725058
0000e0 b7 47 28 bd 12 e5 53 3d f0 f9 9a 3c b2 d0 0b bd
       -0.041084018 0.05173213 0.018918008 -0.034134574
0000f0 00 97 7d 3b 26 98 79 bd d4 a2 b5 bc 7e 78 45 3d
       0.003869474 -0.060936116 -0.022172369 0.048210613
000100 82 a9 69 3d 89 a0 20 bd 76 ab 4f 3d 6e 34 74 3d
       0.05704642 -0.0392156 0.050700627 0.059620313
000110 38 67 02 bd 08 49 44 bd 10 76 e2 3c 84 51 42 bd
       -0.03183672 -0.04792121 0.027644187 -0.04744102
000120 6e cd 4b bd 3c 26 4e bd 40 1d 31 3c 6c 20 18 3d
       -0.04975646 -0.050329432 0.010810196 0.037140295
000130 40 2d 00 3c 98 8d aa 3c be 4e 6e 3d 60 67 4a bb
       0.007823288 0.02081947 0.058180563 -0.003088437
000140 58 7a f6 3c 32 cd 4b 3d f8 92 39 3d 18 a5 70 bc
       0.030087635 0.049756236 0.045306176 -0.014687799
000150 40 fa 7a bc a1 43 08 bd e0 d6 6b bb 36 08 11 3d
       -0.015318453 -0.03326762 -0.003598623 0.03540822
000160 e6 9e 31 3d 66 3b 81 bd 42 25 7c bd 6c dc b3 bc
       0.043364428 -0.063101575 -0.06155897 -0.021955691
000170 fe 4b 00 3d 7c 29 91 bd 1e 1a 51 3d 3e 10 b2 bc
       0.03132247 -0.07087991 0.051050298 -0.02173626
000180 30 c3 56 3c bc 8b b6 bc 80 4a b3 3a a0 16 3e 3c
       0.01310806 -0.022283427 0.0013678819 0.011602074
000190 ef c6 2c bd fe f1 d0 bc f2 d7 63 3d 50 b2 b3 bc
       -0.042181905 -0.025506016 0.055625863 -0.021935612
0001a0 b0 5d 7c bd 00 35 b2 bb 00 17 2a 3b 48 6d 8f bd
       -0.061612785 -0.005438447 0.002595365 -0.070032656
0001b0 f6 13 12 3d 62 45 6c 3d 40 1c 0c 3c 00 d3 26 bc
       0.035663567 0.057683356 0.008551657 -0.010182142
0001c0 8e 25 d0 bc 58 2b 69 3c 84 66 ee 3c 98 ad 00 3d
       -0.025408532 0.014231525 0.029101618 0.031415552
0001d0 e2 b1 29 bd 80 fe a7 bc 46 98 af bc 90 08 1d bc
       -0.041429408 -0.020507097 -0.021434914 -0.009584561
0001e0 20 a8 07 3b 5a e2 5a 3d ff 16 93 3d 69 78 86 3d
       0.0020699576 0.053438522 0.071821205 0.06565935
0001f0 b3 28 51 bd 34 b4 a5 3c b0 c7 00 bc f6 04 7b 3d
       -0.051064204 0.02022753 -0.007860109 0.061284028
000200 b8 bd 40 bd fa f6 33 3d c0 8b 21 3c e0 2b 37 bb
       -0.04705593 0.043936707 0.009859979 -0.0027949736
000210 b2 de c2 bc 1c f7 80 3c aa 74 ca bc 5c 4e 2a bd
       -0.02378783 0.015742831 -0.024713833 -0.041578636
000220 dc f6 26 3d 8b fd 94 bd 08 61 72 bc 5c 3b 27 3d
       0.040762767 -0.07274922 -0.014793642 0.040828094
000230 da 24 5e 3d 4e 65 7b 3d 98 97 27 bd e4 fe 72 bd
       0.054234363 0.06137591 -0.040916055 -0.059325114
000240 de 38 51 3d d7 ac 86 bd 91 c9 96 3d a0 32 38 bc
       0.051079623 -0.06575935 0.073626645 -0.011242539
000250 42 b3 1b 3d 18 42 85 bd b4 fc d2 3c aa 62 4b 3d
       0.03801275 -0.06506747 0.025755264 0.04965464
000260 3d 77 8f 3d a0 2b 89 bd 68 ff 83 bd 5e 15 5b bd
       0.07005165 -0.06697774 -0.06445199 -0.053487174
000270 e0 3b 75 bb d6 05 b5 bc 36 60 44 bd 19 10 2b bd
       -0.0037419721 -0.02209751 -0.047943316 -0.0417634
000280 4b 60 91 3d 40 64 a3 3b 0e 3f 7c 3d e6 da ae bc
       0.070984446 0.004986316 0.06158357 -0.021344613
000290 36 34 6c 3d af 70 8b 3d ba e3 45 3d bd 97 97 bd
       0.05766698 0.06808602 0.04831288 -0.07401989
0002a0 9c 9b 81 3c 2c 0d 2d 3d f1 41 8f bd 26 32 23 3d
       0.01582127 0.04224889 -0.06994999 0.039842747
0002b0 1c 94 41 bd 90 f5 4a 3c e0 f8 2b 3b 93 98 1e bd
       -0.04726039 0.012387648 0.002624087 -0.038719725
0002c0 3c fa 29 3d 10 83 82 bd 4e f0 6a 3d 18 ac 91 3c
       0.041498408 -0.063726544 0.05735808 0.017782256
0002d0 7c 34 bd bd a6 89 b1 bd 6b d9 08 bd 71 71 30 bd
       -0.09238526 -0.086688325 -0.03341047 -0.043076936
0002e0 d8 42 74 bc 8a b9 5d 3c 5f b3 6b bd 5d d7 8c bd
       -0.014908515 0.0135330055 -0.05754411 -0.06877015
0002f0 fc 3a aa bd 21 01 8a bd b5 f1 b2 bd 59 4b dd bb
       -0.083120316 -0.067384966 -0.08737508 -0.006753367
000300 c5 08 52 bd 23 8e c8 bd 1b e4 79 bd 29 5d d2 bd
       -0.051277895 -0.097927354 -0.061008554 -0.10271675
000310 5b 09 a7 bd 53 c6 f5 bd 5d 2b 1b bd 4a 4c 37 3a
       -0.08156081 -0.12000718 -0.03788315 0.0006992264
000320 17 9a ad bd db 45 5b 3c 9a 57 96 bd 1a 2d 25 bd
       -0.08476656 0.013383354 -0.073409274 -0.040326215
000330 4c ff 6b bc 3d 72 0d bb 2c 17 01 be d8 18 ce bc
       -0.014404129 -0.0021582984 -0.12606496 -0.02515833
000340 9a 24 a7 ba a1 a9 ab bc 7d da 2f bb 55 88 d7 bd
       -0.0012751997 -0.020954909 -0.002683311 -0.1052405
000350 72 49 0a ba f0 24 e1 bb df 73 d5 bc 0f ea be bc
       -0.00052752264 -0.0068708584 -0.026056228 -0.023304967
000360 43 f2 8b bd e0 ef 11 bc 38 2d 6a bd 74 57 33 3d
       -0.06833317 -0.008907288 -0.05717203 0.043784574
000370 c0 8b 28 bc 60 e0 e2 bc 68 88 02 3c 74 7b 9f bc
       -0.010287225 -0.027694881 0.007967092 -0.019468047
000380 6f e8 ad 3c 05 16 92 3d c0 e0 c3 3c e7 b6 88 3d
       0.021228997 0.07133106 0.02391088 0.06675511
000390 70 48 4d bc b1 a5 9a bd 49 13 26 bb d2 12 84 bd
       -0.0125294775 -0.075511344 -0.0025341085 -0.06448902
0003a0 e3 1e ac bd a9 bd 75 bd 9b ba 95 bd ed 31 92 bc
       -0.08404329 -0.059995327 -0.07310983 -0.017846072
0003b0 7b 57 dc bd 10 07 01 bd 48 fc 3b bd a0 60 32 bb
       -0.10758873 -0.031500876 -0.04589489 -0.0027218238
0003c0 d8 f4 66 bc 6f a1 fb bd 73 df 85 bd 5b 3c d0 bd
       -0.014096461 -0.122866504 -0.0653676 -0.10167762
0003d0 bc e3 a0 bd 48 7d bf 3c 1d a8 87 bd dc 59 04 3d
       -0.07855937 0.023375168 -0.06623862 0.03231226
0003e0 28 9e 50 bd df 4a 73 bd d1 cf 1e bd 92 cb 28 3d
       -0.05093208 -0.059397575 -0.038772408 0.041209765
0003f0 ba e6 fd bc f6 da 15 bc ee cc 7f bd 55 e0 47 3b
       -0.030993808 -0.009146443 -0.062451296 0.0030498703

fc1.bias f4 [64]
000000 e0 b1 6e 3b 4b 1a d5 bc 05 5a 40 bd 60 c2 f1 bc
       0.003642194 -0.026013514 -0.04696085 -0.02951163
000010 10 31 a0 bd a9 a7 99 3c 8c 33 b4 bd 74 48 cb 3e
       -0.07821858 0.018756704 -0.08798894 0.39703715
000020 77 ef 9c 3d 2e cd 0a bd 07 ca 08 3e 65 72 8b 3b
       0.07662862 -0.03388708 0.13358317 0.0042555803
000030 cb f6 bf bd e1 3d fd 3d b5 15 27 be 57 63 b7 bd
       -0.09373244 0.12365318 -0.16316874 -0.089544944
000040 83 67 ab bc c5 93 ee bd 4a e0 80 bd 43 7b b8 bc
       -0.020923382 -0.116492786 -0.0629278 -0.022519713
000050 fc 6a a8 3c 81 7b 5a bc 6a 83 a3 bc 4a 31 9d bc
       0.020558827 -0.01333511 -0.019960124 -0.019188542
000060 12 03 71 bd 01 1a dc bd f4 b9 a8 bd 82 3d 88 bd
       -0.05884082 -0.10747147 -0.08238593 -0.06652357
000070 4a c1 89 bd 9f 3c 52 3d 35 fc d7 bd 92 9a 63 bc
       -0.0672632 0.051327344 -0.105461515 -0.013891833
000080 cd ce aa bd 18 36 c1 bd 59 da b4 bc 10 af 93 3b
       -0.08340225 -0.09434146 -0.022076773 0.004506953
000090 38 02 e5 3d d5 0c 38 bd f8 93 25 bd 04 1d 62 bd
       0.11182064 -0.044934113 -0.040424317 -0.055203453
0000a0 f8 3a ca bd 15 99 bd bc 41 2c f9 bb d0 bc 8b bc
       -0.09874529 -0.023144284 -0.0076041524 -0.017057806
0000b0 e9 b1 8e bd c7 5e b8 3d d5 43 16 3e 97 30 b8 bd
       -0.069675274 0.09002452 0.14674313 -0.08993643
0000c0 66 c3 aa bd b8 e7 43 bd e1 e7 15 3a 25 65 ed bd
       -0.083380505 -0.047828406 0.00057184516 -0.115915574
0000d0 7e 41 b5 bd 9e 09 13 be c3 71 35 bd 5c f4 77 bd
       -0.08850382 -0.14359137 -0.044297945 -0.060535774
0000e0 32 d3 58 bd 46 ed 83 bc 55 f7 f6 bc 23 51 eb bc
       -0.052935787 -0.016104352 -0.030147234 -0.028725212
0000f0 67 f4 14 3c 15 dd dd bd a8 76 56 bd cd cd 7d bd
       0.009091473 -0.10833184 -0.052359253 -0.061963845
