src/flatland/flat_game/results/ourmethod_reg8/rep_learner.pth (torch_old, 312926 bytes, 33 tensors)

representations f4 [6]
0	0x3baff0f1	0.0053692986
1	0x3afb5d9e	0.001917768
2	0x3afa5590	0.0019098986
3	0x3f7bf2c2	0.98417294
4	0xbf3c83c6	-0.7363857
5	0xbf67cf26	-0.9055046

representations f4 [6]
0	0xba6800d2	-0.000885022
1	0xbb04f1b3	-0.0020285666
2	0x3b0b94d2	0.002129842
3	0xbef8e053	-0.48608646
4	0x3f8c1856	1.0944927
5	0x3e57521c	0.21027416

representations f4 [6]
0	0xbe7c2599	-0.24623717
1	0x3f075536	0.52864397
2	0x3e849d2e	0.2590117
3	0xbd91fd8f	-0.071284406
4	0xbd0589db	-0.032602172
5	0x3d949776	0.072554514

representations f4 [6]
0	0x3e808622	0.25102335
1	0xbf07281a	-0.52795565
2	0xbe84e687	-0.25957128
3	0xbd99ea1f	-0.07515358
4	0xbcfa40b2	-0.030548427
5	0x3d85eff0	0.06539905

fc1.weight f4 [64, 4]
0	0x3f9acbfa	1.2093499
1	0x3ff0f378	1.8824301
2	0x3e97c3b7	0.29641506
3	0x3eb2c4d3	0.3491579
4	0x3d81339c	0.06308672
5	0x3e962755	0.29326883
6	0xc02d5fcf	-2.7089727
7	0x3f8a6cdf	1.0814475
8	0x3ede0ff4	0.43371546
9	0xc0149102	-2.3213506
10	0x3f35f3ee	0.7107533
11	0xbfc21c81	-1.5164949
12	0x3ebd7b43	0.37008104
13	0xbf1094e9	-0.5647722
14	0x3dedd31c	0.116125315
15	0x3dc6441f	0.09680962
16	0x3e858b0d	0.2608265
17	0x3f7c6619	0.9859329
18	0xc01e3e2b	-2.4725444
19	0xbfa3d790	-1.280016
20	0xbe802215	-0.25026003
21	0x3e97fba7	0.29684183
22	0xbdf0ad96	-0.11751859
23	0x3fdf4324	1.7442365
24	0xbd3fdf21	-0.04684365
25	0x3d9de04f	0.07708799
26	0x3fea11ea	1.8286717
27	0xc033722b	-2.8038433
28	0xbe505d56	-0.20348105
29	0xbe624d54	-0.22099811
30	0x3e33669a	0.17519608
31	0x3e4c208f	0.19934295
32	0x3a6418e2	0.00087012176
33	0x3fd9e444	1.7022786
34	0xbf844bff	-1.0335692
35	0xbee63ac0	-0.44966698
36	0x3cfd2c75	0.030904988
37	0x3f01c6ec	0.50694156
38	0x3fc5bbab	1.5447897
39	0xc03e7fba	-2.9765458
40	0x3c541b10	0.012945905
41	0x3fc1c72a	1.5138905
42	0x3d9f2afe	0.07771872
43	0x3f89c831	1.0764219
44	0xbfbb14e2	-1.4615748
45	0x3f5bb25d	0.85819036
46	0xbff5f25d	-1.9214588
47	0xbfa845c1	-1.3146287
48	0xbd2dd76a	-0.042441763
49	0xbffa471f	-1.9552954
50	0xbfc78ce1	-1.5589868
51	0x3f9fd658	1.2487288
52	0xbeee1d58	-0.46506763
53	0xc00051f9	-2.0050032
54	0x408e11ab	4.4396567
55	0x401a8c0f	2.4147985
56	0xbfadaebc	-1.356895
57	0x3f8a18e9	1.0788852
58	0xbfee4852	-1.861582
59	0xbf76c88e	-0.9639977
60	0x3e786ba9	0.24259819
61	0x3ed78de9	0.42100456
62	0x3f8067fd	1.0031735
63	0xc045280a	-3.0805688
64	0xbfca4149	-1.5801173
65	0xbf32417b	-0.69631165
66	0xbfd9ad0e	-1.7005937
67	0x3c2f15c4	0.010686342
68	0xbeea4e2c	-0.45762765
69	0xbded9d04	-0.11602214
70	0xbec31c84	-0.38107693
71	0x40420ce8	3.0320377
72	0xbdfab896	-0.12242238
73	0x3dde7d6a	0.108637646
74	0x3f02d075	0.5109933
75	0x3fcb9fb1	1.5908109
76	0x40091a33	2.142224
77	0xbfc12b68	-1.5091372
78	0x4043c93f	3.059158
79	0x400dd98b	2.2164028
80	0xbcb8ace6	-0.022543382
81	0x3f64f982	0.8944322
82	0x3e8d7d51	0.2763467
83	0x3e96d974	0.2946278
84	0x3d82434b	0.06360491
85	0x3f7d37cd	0.9891327
86	0xbf851c5e	-1.0399282
87	0xbf8da6a3	-1.1066478
88	0x3e556520	0.20839357
89	0x3fc69abb	1.551597
90	0x3f82c185	1.0215307
91	0xbf7098bc	-0.93983054
92	0x3fafa1c5	1.3721243
93	0x3f433554	0.7625325
94	0x3fe1a8c0	1.7629623
95	0x3f9a32bc	1.2046733
96	0x3e706b30	0.23478389
97	0xbe3699c0	-0.17832088
98	0xbd3a6710	-0.045508444
99	0xbcd9de00	-0.026595116
100	0x3fd5bff4	1.6699204
101	0x3f80ce7d	1.0063015
102	0xc008d159	-2.1377776
103	0xbf8f7e4f	-1.1210421
104	0x3e8b6c99	0.2723129
105	0xbf387a7d	-0.720619
106	0x3d55e22c	0.052217647
107	0x3e969575	0.29410902
108	0xbdf33285	-0.1187487
109	0x3fdeaac0	1.7395859
110	0x3f1055d2	0.5638095
111	0x3f83d4ce	1.0299318
112	0x3cca4e85	0.024695644
113	0x3f09fef2	0.5390464
114	0x3f303e62	0.6884519
115	0x3ebb7750	0.36614466
116	0xbf0cab72	-0.54949105
117	0x3ed501ed	0.41603032
118	0x3f88529c	1.065021
119	0x3f9e66bf	1.2375106
120	0x3ed4f3f7	0.4159238
121	0xbf10719c	-0.56423354
122	0xbf9888f5	-1.1916796
123	0xbe6ef6ad	-0.23336287
124	0xbeda627f	-0.42653272
125	0xbfd29e8a	-1.6454632
126	0xbf057d46	-0.5214428
127	0x3f95a6dc	1.1691546
128	0xbd7e660b	-0.062109035
129	0xbfb2ce3b	-1.3969187
130	0x3f801eb2	1.0009367
131	0xc036d95b	-2.8570163
132	0xbfa2e8da	-1.2727311
133	0x3f9c18f6	1.2195117
134	0xbf308a41	-0.6896096
135	0x3f81e147	1.0146874
136	0x4051257d	3.267913
137	0x3f13a985	0.5768054
138	0xbf8d11ea	-1.1021092
139	0xbf67a1f6	-0.9048151
140	0x3f114f43	0.5676157
141	0x3fb2cd3d	1.3968884
142	0xbffc877d	-1.9728848
143	0x3ee3c3c4	0.44485295
144	0x3c9dab49	0.019246714
145	0xc0894766	-4.2899656
146	0xc00c1c43	-2.189225
147	0x3f2bf7f4	0.6717522
148	0xbe43d6e0	-0.19124937
149	0x3f5fb571	0.8738623
150	0x3ef264ee	0.47342628
151	0x3eb0be5b	0.3452023
152	0x3e7f0e67	0.24907838
153	0x3f0ed021	0.5578633
154	0xbfcfd61c	-1.6237216
155	0xbf7712a5	-0.96512824
156	0xbfbc10bf	-1.469261
157	0xc00bbba9	-2.1833289
158	0x3e028a98	0.12748182
159	0xbeffb087	-0.49939367
160	0x3de4837b	0.111578904
161	0x3c06f2cb	0.008236597
162	0xbdd35f7c	-0.103209466
163	0xbeca9fd4	-0.39575064
164	0x3d92d473	0.07169428
165	0xbfbfd11b	-1.4985689
166	0xbeccb5c2	-0.3998242
167	0xc004b092	-2.073277
168	0x3e6b8522	0.23000005
169	0x3ef93085	0.4866983
170	0xbfe92d3a	-1.8216927
171	0xbdf9c0d2	-0.12194981
172	0x3e84536e	0.25844902
173	0x3ec11c74	0.3771702
174	0x3e1a0f76	0.1504496
175	0x3f29a11d	0.66261464
176	0x3ec740ad	0.3891653
177	0x3f4eec17	0.80828995
178	0xbf94053f	-1.1564101
179	0x3ec90010	0.3925786
180	0x3e2247ab	0.15847652
181	0xbdda79c0	-0.10667753
182	0xbf66e6d0	-0.9019594
183	0x3fb75a93	1.4324516
184	0xbfd7e1a7	-1.6865739
185	0x3f93c510	1.1544514
186	0xbf9fc52c	-1.2482047
187	0xbe6cdebd	-0.23131843
188	0xbe9bf1e3	-0.30457982
189	0xbf6fc107	-0.9365391
190	0xc0098236	-2.1485724
191	0xbe7fbd3d	-0.24974532
192	0x4023124a	2.5479913
193	0xbfa19ce1	-1.2626001
194	0x4072720b	3.7882106
195	0x3ff0f04d	1.8823334
196	0x3f9523c2	1.1651537
197	0xbffa403f	-1.9550856
198	0xbef48abc	-0.47762096
199	0x3f73b473	0.9519722
200	0xbccea2a1	-0.025224032
201	0x3ff4d65a	1.9127915
202	0xbff67247	-1.9253625
203	0xbf3f84a4	-0.7481177
204	0xbf6cbcbc	-0.92475486
205	0x3f9e7b7c	1.2381434
206	0x3f6fc940	0.9366646
207	0x3e31d62a	0.17366853
208	0xc01c43ff	-2.4416502
209	0x3ebb9134	0.3663422
210	0xbf76160c	-0.9612739
211	0xbf093747	-0.5359997
212	0x3e2b45c1	0.16725828
213	0xbe0c266a	-0.13686529
214	0x3e80d41a	0.2516182
215	0xbeab3294	-0.33437026
216	0xbfb4a5ad	-1.411306
217	0x3f8373af	1.0269679
218	0xc0080f55	-2.1259358
219	0xbf89bb36	-1.0760257
220	0x3ce221ee	0.02760407
221	0xbdc8790d	-0.097887136
222	0xbf2b5224	-0.6692221
223	0x3f953221	1.1655923
224	0x3ea91840	0.33026314
225	0x3fa4195b	1.2820238
226	0xc03a37cd	-2.9096558
227	0xbfcb046e	-1.5860727
228	0xbf5f41b3	-0.87209624
229	0x3f381073	0.719001
230	0xc00ab63a	-2.1673722
231	0xbfbe9300	-1.4888611
232	0x3c5a3570	0.013318405
233	0x3f76f58e	0.96468437
234	0x3d7db5e5	0.061941046
235	0x3f2e6165	0.6811736
236	0x3f969733	1.1764892
237	0xbf5aaab8	-0.85416746
238	0xbf93d88f	-1.1550463
239	0x3f894eee	1.0727212
240	0xbcbb2abb	-0.022847524
241	0xbf9d66c8	-1.2296991
242	0x3f879808	1.0593271
243	0xc04017fe	-3.0014644
244	0xc02a20dc	-2.6582556
245	0xbe4b39ff	-0.19846343
246	0x3f093d3a	0.5360905
247	0xbfb8b811	-1.4431173
248	0xbf9a9a8b	-1.2078413
249	0x3f80b2e1	1.005459
250	0xbfebe859	-1.8430282
251	0xbf51362f	-0.817233
252	0x3e4783bb	0.19483845
253	0x3f938978	1.1526327
254	0xc01b6c24	-2.4284754
255	0xbfb5e5d5	-1.4210764

fc1.bias f4 [64]
0	0x3eff1dbc	0.49827373
1	0xbed40741	-0.41411784
2	0x3f266518	0.64998007
3	0x3eb9a25c	0.36256683
4	0xbd94de54	-0.07268968
5	0x3f0d667d	0.5523451
6	0x3dd2cccd	0.10292969
7	0x3f012417	0.50445694
8	0xbf17d0c4	-0.59302926
9	0x3e1b4642	0.1516352
10	0x3f58203c	0.84424186
11	0x3e03d9be	0.12876031
12	0x3ea2a7e3	0.31768712
13	0xbdb14b95	-0.08656994
14	0xbe4f4a67	-0.20243226
15	0xbebcb5c2	-0.3685742
16	0xbeb143f5	-0.3462216
17	0x3f281326	0.6565422
18	0x3f381f4c	0.71922755
19	0xbe3365d2	-0.1751931
20	0x3f041eec	0.51609683
21	0xbee6a1ed	-0.45045415
22	0x3f3ae1b8	0.7300067
23	0x3f120b93	0.5704891
24	0xbe9e10ce	-0.30872196
25	0xbeed7162	-0.46375567
26	0x3f1a09a4	0.6017096
27	0x3f60bce1	0.87788206
28	0x3eae6c63	0.34067068
29	0x3f5c9849	0.8616987
30	0x3e967ee4	0.29393685
31	0x3ef0f480	0.4706154
32	0xbf3bdd4b	-0.7338454
33	0xbe00d00f	-0.12579368
34	0xbea3bbf2	-0.31979328
35	0xbf04d3aa	-0.51885474
36	0xbeeec988	-0.4663813
37	0x3f16bbde	0.5888041
38	0xbdbb6c68	-0.09151536
39	0x3e6757b1	0.22592045
40	0xbefc10c0	-0.4923153
41	0x3e00bee8	0.12572825
42	0xbedaaf11	-0.4271169
43	0x3ef754d9	0.4830692
44	0x3e5a6830	0.21328807
45	0x3f169d84	0.588341
46	0xbf3f20da	-0.746595
47	0xbf919550	-1.1373692
48	0xbdd7e243	-0.10541203
49	0x3dcb0df6	0.09914772
50	0xbf2ef270	-0.6833868
51	0x3f3ff30f	0.74980253
52	0xbe1e3367	-0.15449296
53	0xbf089abe	-0.5336112
54	0xbd99c6e0	-0.075086355
55	0x3f0e03eb	0.5547473
56	0xbdb5d9e4	-0.0887945
57	0xbf4c9992	-0.7992183
58	0x3f046a71	0.51724917
59	0x3ddb3db5	0.10705129
60	0xbf54e772	-0.8316566
61	0xb8c16780	-9.2222355e-05
62	0xbe0169b8	-0.12637985
63	0xbd42617e	-0.047456257

fc2.weight f4 [180, 64]
0	0x3f243828	0.6414819
1	0x3eb2bbb8	0.34908843
2	0x3f2c4a65	0.6730102
3	0x3ebd806e	0.37012047
4	0x3ec07e7c	0.375965
5	0x3ea2391d	0.316842
6	0x40212afa	2.518248
7	0x3f5f51e6	0.8723434
8	0x3dbc0d1c	0.09182188
9	0x3f3643b0	0.7119703
10	0x3ec45645	0.38347068
11	0x3f88ac80	1.0677643
12	0x3ec6af72	0.3880573
13	0x3e95ec64	0.29281914
14	0x3f12bddd	0.5732096
15	0x3ca51ac9	0.020154374
16	0x3f6cceda	0.9250313
17	0x3ea69b7a	0.32540494
18	0x3f036830	0.5133085
19	0x3fa30c67	1.273816
20	0x3f264617	0.649507
21	0x3eb95824	0.36200058
22	0x3fa7c157	1.3105878
23	0x3fcdbb7e	1.6072843
24	0xba72d800	-0.0009263754
25	0x3fbe228e	1.4854295
26	0x3eeeb4df	0.4662237
27	0x3f248dd9	0.6427894
28	0x3f2d566b	0.6770999
29	0x3f14ce13	0.58126944
30	0x3e858970	0.2608142
31	0x3ec03bde	0.37545675
32	0x3f96b453	1.177378
33	0x3f0cd7fb	0.5501706
34	0x3f533a52	0.82510865
35	0x3f5f574f	0.872426
36	0xbedb17b7	-0.4279153
37	0x3f355552	0.70833313
38	0x3e32ccae	0.17460892
39	0x3f58dbb1	0.8471022
40	0xbd26d481	-0.040730003
41	0x3f4ade41	0.7924538
42	0x3f0431c3	0.5163843
43	0x3eb0a83d	0.34503356
44	0x3ec172a9	0.3778279
45	0x3eac90e4	0.33704293
46	0x3fbcadba	1.4740517
47	0x3f2dbef4	0.67869496
48	0x3f66bb53	0.90129584
49	0x3df0075d	0.117201544
50	0x3ef9695f	0.48713204
51	0x3f4014a9	0.75031525
52	0xbdfd773f	-0.1237626
53	0x3d88ec80	0.06685734
54	0x3f83f196	1.0308101
55	0x3e9791b0	0.29603338
56	0x3d588be8	0.0528678
57	0x3e81dd31	0.25364068
58	0x3ed6c372	0.41945988
59	0x3e9a28e8	0.30109334
60	0x3f4e96ed	0.80699044
61	0x3f58ed8d	0.84737474
62	0x3f70e4e7	0.9409928
63	0x3d932765	0.07185248
64	0xbe99dc4f	-0.30050895
65	0x3f2ca14f	0.6743364
66	0xbfaf5210	-1.3696918
67	0x3e858f5f	0.26085946
68	0x3fb42b94	1.4075799
69	0x3f3e7945	0.7440379
70	0x3f057c10	0.5214243
71	0x3ec75137	0.3892915
72	0xbfb8f038	-1.4448309
73	0xbfafe53e	-1.3741834
74	0x3e804072	0.25049168
75	0xbf176c9d	-0.59150106
76	0x3f1ec805	0.62023956
77	0x402e3797	2.722143
78	0xbe7948ea	-0.24344221
79	0xbfab41e8	-1.3379488
80	0x3d5eb88e	0.054375224
81	0x3f2aa459	0.66657025
82	0x3f2941ea	0.661162
83	0xbf9268e8	-1.1438265
84	0x3ea3a2b4	0.3196007
85	0x3d722dd2	0.05912573
86	0xc004b598	-2.0735836
87	0x3fe16596	1.7609127
88	0x3dc5a15a	0.09649916
89	0x3f889fa5	1.067372
90	0x3e97dac7	0.296591
91	0x3e1eac39	0.15495385
92	0x3f3c638e	0.7358941
93	0x3e668a5a	0.22513714
94	0x3e76eae3	0.2411304
95	0x3ecd5821	0.401063
96	0xbc99d094	-0.018776216
97	0x3ed48d07	0.41513845
98	0xbfc66863	-1.5500606
99	0x3e7727ab	0.24136226
100	0xbf0f9f75	-0.5610269
101	0x3edd2f27	0.43200037
102	0x3f25622d	0.6460293
103	0x3d98b60e	0.07456599
104	0x3dd4dd3e	0.10393761
105	0xbe190b09	-0.14945616
106	0x3f08a6ca	0.533795
107	0x3ec2ed48	0.38071656
108	0x3e2196d7	0.15780197
109	0x3f40c0e3	0.7529432
110	0xbfa52aa5	-1.2903639
111	0x3f3d2f2c	0.73900104
112	0xbf98595a	-1.1902268
113	0x3e6b9743	0.2300692
114	0xbe91e94c	-0.28498304
115	0xbe4f5802	-0.20248416
116	0x3e5aa499	0.21351852
117	0xbdffb934	-0.124864966
118	0xbee61cbb	-0.44943795
119	0x3f0d9102	0.5529939
120	0x3fb9ab52	1.4505408
121	0x3f82c3d7	1.0216016
122	0x3ebe19e0	0.37129116
123	0x3f2c3e3f	0.6728248
124	0xbdbbc41b	-0.091682635
125	0xbebe5081	-0.37170795
126	0xbf5ab801	-0.8543702
127	0x3f2d72f3	0.67753524
128	0x3e236121	0.1595502
129	0x3f18a5bb	0.59627885
130	0x3f636efa	0.8884121
131	0x3f1ad3f0	0.6047964
132	0x3fbe5f0a	1.4872754
133	0x3ee8c52a	0.45462924
134	0xbf8988dd	-1.0744892
135	0x3f13d3d4	0.577451
136	0x3f19ff5e	0.60155284
137	0xbfd86d57	-1.6908368
138	0x3dcce3f9	0.1000442
139	0x3f7f8142	0.99806607
140	0x3f0426ce	0.5162171
141	0x3e4e37ed	0.20138521
142	0x3f622b6a	0.88347495
143	0xbfda82d3	-1.7071174
144	0x3f962ef1	1.1733075
145	0x3ec0c904	0.37653363
146	0x3f068ee6	0.52561796
147	0x3f944e5c	1.1586413
148	0x3ea83ff0	0.3286128
149	0x3f8f562e	1.1198175
150	0xbf3f75fd	-0.7478941
151	0x3faf53c9	1.3697444
152	0x3c504ef0	0.012714133
153	0xbda97f22	-0.08276202
154	0x3f253dce	0.6454743
155	0x3ef7ce5f	0.48399636
156	0x3f1269f5	0.5719293
157	0x3f24ab97	0.64324325
158	0x3eb3eb9a	0.35140687
159	0x3ef3e377	0.4763448
160	0x3f0bb4a2	0.545725
161	0x3f019d5c	0.50630736
162	0x3e91c8a8	0.284734
163	0x3f718baf	0.94353765
164	0x3e4bef7d	0.19915576
165	0x3eeae07f	0.45874402
166	0x3e91274d	0.28350297
167	0x3f853ef2	1.0409834
168	0xbdd81954	-0.10551706
169	0x3f98cbf1	1.1937238
170	0x3f372118	0.7153487
171	0x3f081976	0.5316385
172	0x3ee74b99	0.45174864
173	0x3ee94f44	0.45568287
174	0xbfa7c319	-1.3106414
175	0x3f3cf0e6	0.7380508
176	0x3fe5e9ab	1.7961935
177	0x3f135a5c	0.5755975
178	0x3f911607	1.1334847
179	0x3f1ea040	0.6196327
180	0xbd80e873	-0.06294336
181	0x3e0fa6af	0.14028428
182	0x3f90a621	1.1300699
183	0x3eeeef01	0.4666672
184	0x3fa45baf	1.284048
185	0x3fc32294	1.5244927
186	0x3e3b6116	0.18298754
187	0x3e81e9c5	0.25373664
188	0x3ee542bd	0.4477748
189	0x3e09dd25	0.13463266
190	0x3f39df07	0.7260594
191	0x3f279c97	0.6547331
192	0xbf2a2a27	-0.6647057
193	0x3e5c5f09	0.21520628
194	0x3f0e6a32	0.5563079
195	0x3ef3f381	0.47646716
196	0x3f2f3901	0.68446356
197	0x3d37ccf0	0.044873178
198	0xbfc3a8c6	-1.528588
199	0x3ea8c1a1	0.32960227
200	0x3e2abb24	0.16672951
201	0xc02cb98b	-2.6988246
202	0x3b500ae8	0.0031744782
203	0x3f5832e0	0.8445263
204	0x3ef3787d	0.47552863
205	0x3ec1d171	0.37855104
206	0x3ec4292c	0.38312662
207	0xbfe5ec02	-1.7962649
208	0x3f5b7d77	0.8573832
209	0x3dae73f6	0.085182115
210	0x3e172dd5	0.14763577
211	0x3f2d3a57	0.67667145
212	0xbb12a6b8	-0.0022377204
213	0x3ee8a165	0.45435634
214	0xbfdf4176	-1.7441852
215	0x3f411859	0.75427777
216	0xbd24b47c	-0.040211186
217	0xbe26b384	-0.16279417
218	0x3ed6d30a	0.41957885
219	0xbea4b42d	-0.32168713
220	0x3e33b3fe	0.1754913
221	0x3ec091b8	0.37611175
222	0x3ef79793	0.4835783
223	0x3ec360fa	0.38159925
224	0x3f11f799	0.5701843
225	0x3e2863b0	0.16444278
226	0x3ec3eb5a	0.38265496
227	0x3e9ae7fb	0.30255112
228	0x3d5b7ab0	0.0535838
229	0xbd5f2eb9	-0.054487918
230	0x3e881f86	0.2658655
231	0x3ef87077	0.48523304
232	0x3c01e23f	0.007927476
233	0x3fbcd340	1.4751968
234	0x3efa66d3	0.48906574
235	0x3e2e4df4	0.17021924
236	0x3e37e05a	0.17956677
237	0x3e85df40	0.2614689
238	0xbd4fa83b	-0.050697546
239	0x3f184d41	0.5949288
240	0x3fc58371	1.5430738
241	0x3e13677b	0.14394943
242	0x3ed0c604	0.40776074
243	0x3e6a84c0	0.22902203
244	0x3f38017a	0.71877253
245	0x3cff2765	0.031146714
246	0x3f71530e	0.94267356
247	0x3e94bda6	0.2905094
248	0xbe1e1f04	-0.15441519
249	0x3f528402	0.8223268
250	0x3dfb1e7b	0.12261673
251	0x3eae0fce	0.33996433
252	0x3e46fd94	0.1943267
253	0xbf4ac2fb	-0.79203767
254	0x3f28f111	0.6599284
255	0x3ea250b1	0.31702188

fc2.bias f4 [180]
0	0x3f155981	0.583397
1	0x3e4d9fc9	0.20080484
2	0x3f15523a	0.5832859
3	0x3ee3ae6a	0.44469005
4	0x3eacfe22	0.33787638
5	0xbc1f8f32	-0.00973873
6	0xbe01e792	-0.12685993
7	0xbdcb1903	-0.0991688
8	0x3d0f6341	0.035006765
9	0xbd2ce34a	-0.042208947
10	0xbc806b66	-0.015676212
11	0xbdb130bf	-0.08651876
12	0x3d760cca	0.06007079
13	0xbe49a71c	-0.19692653
14	0xbcc685eb	-0.024233779
15	0xbd855f95	-0.065123715
16	0xbe38192d	-0.17978354
17	0xbd192502	-0.03738881
18	0x3e3f4c7b	0.18681519
19	0xbdb1f546	-0.0868936
20	0xbd85b966	-0.065295026
21	0x3cb533a8	0.022119358
22	0x3aeb4b05	0.0017951435
23	0xbdca8126	-0.09887914
24	0x3efb68f7	0.4910352
25	0xbddee4a0	-0.108834505
26	0xbcbc11bf	-0.02295768
27	0xbc163316	-0.009167453
28	0xbe33b1ed	-0.17548342
29	0x3dba11d2	0.0908543
30	0x3d3f79ca	0.046747006
31	0x3d9a8858	0.07545537
32	0xbd9cd416	-0.0765764
33	0xbe2e9bf7	-0.17051683
34	0xbe300827	-0.1719061
35	0x3c9f7d06	0.019468796
36	0xbe02c736	-0.12771305
37	0xbdbb9151	-0.09158576
38	0x3c34db1f	0.011038571
39	0xbd6f5338	-0.058428973
40	0xbe331c7d	-0.17491336
41	0xbed6e270	-0.41969633
42	0x3e67f1f5	0.22650893
43	0xbda2c106	-0.079469725
44	0x3cad6365	0.021165559
45	0xbd1f8d72	-0.038953252
46	0xbd8674c4	-0.0656524
47	0x3e51d954	0.2049306
48	0xbde1cb98	-0.110251606
49	0xbd640230	-0.05566615
50	0xbb98e7c2	-0.0046662996
51	0xbb8064fe	-0.003918289
52	0xbd380ced	-0.044934202
53	0x3f23313d	0.63747007
54	0xbd4d2b53	-0.050090145
55	0xbe0fa5ea	-0.14028135
56	0xbe22f513	-0.15913801
57	0xbd14afea	-0.036300577
58	0x3d124cd9	0.03571782
59	0xbe333ebf	-0.17504404
60	0xbe5d3eab	-0.21605937
61	0x3d30bee6	0.043150805
62	0x3b8ac486	0.004234853
63	0xbe52f356	-0.20600638
64	0xbe1e24bd	-0.15443702
65	0x3f6736b5	0.9031785
66	0xbb82375a	-0.0039738836
67	0x3e8c9f00	0.27465057
68	0x3e12452f	0.14284204
69	0xbe3a76b3	-0.18209343
70	0x3d4b12c9	0.04957846
71	0x3f218a58	0.6310172
72	0x3ebe411f	0.37159058
73	0xbdb48d28	-0.08815986
74	0xbcddcd26	-0.027075361
75	0x3de7fbaf	0.11327302
76	0x3e18f2bc	0.14936346
77	0x3e412b09	0.18864073
78	0x3d36ec1e	0.044658773
79	0xbc2fe3dd	-0.010735479
80	0xbdbcb35e	-0.09213899
81	0xbe528a1e	-0.205605
82	0x3c312d6c	0.010814052
83	0x3e6ddaab	0.23227946
84	0x3e158980	0.14603233
85	0xbe4cab10	-0.1998713
86	0xbe1c7871	-0.1528032
87	0xbdc0919f	-0.09402775
88	0xbd0229c0	-0.031778097
89	0x3df0d468	0.11759263
90	0x3e036a6c	0.12833565
91	0x3bbb0285	0.0057070875
92	0xbe158d15	-0.146046
93	0xbd516da2	-0.051129945
94	0xbd1d8b75	-0.038463075
95	0xbc65b817	-0.014020941
96	0x3e87a1f9	0.26490763
97	0xbe498741	-0.19680502
98	0xbd9da30d	-0.07697115
99	0x3f21777f	0.6307296
100	0xbe40a23e	-0.1881189
101	0x3e838bd4	0.25692618
102	0x3eda60b0	0.42651892
103	0x3ee09a19	0.43867567
104	0x3ce5e825	0.028064797
105	0x3f3bf463	0.7341978
106	0x3e9d9d86	0.30784243
107	0x3d98dadd	0.0746362
108	0x3e86b33b	0.26308617
109	0x3e9ff8f8	0.31244636
110	0x3ec0d273	0.3766056
111	0x3f397c0e	0.7245492
112	0x3f25141a	0.644838
113	0x3e9d552a	0.30729038
114	0x3c3a64f7	0.011376611
115	0xbdd922e5	-0.10602359
116	0xbe367821	-0.17819263
117	0xbd9e77b4	-0.07737675
118	0x3d10bcc5	0.035336275
119	0x3e6d18e0	0.2315402
120	0x3e15c0b3	0.1462429
121	0x3d204cbf	0.03913569
122	0xbd4c5edc	-0.049895152
123	0xbc809e2a	-0.015700419
124	0xbe05029f	-0.12989281
125	0x3dd6b345	0.10483412
126	0xbcdbd54c	-0.026835106
127	0xbe15d08e	-0.14630339
128	0xbe0e67ef	-0.13906835
129	0xbdf6eab6	-0.12056486
130	0xbddd117d	-0.10794351
131	0xbe08448f	-0.13307403
132	0xbe6b59f2	-0.2298353
133	0xbc1e5e48	-0.009666033
134	0x3d1550dd	0.03645407
135	0xbe1a74b8	-0.15083587
136	0xbe2a9d5e	-0.16661593
137	0x3ed8811e	0.4228601
138	0x3edafbb7	0.42770168
139	0x3eade1e4	0.33961403
140	0x3d92fd46	0.07177214
141	0x3efa0de8	0.48838735
142	0xbcbc807d	-0.023010487
143	0x3e725816	0.23666415
144	0x3e584ef5	0.2112387
145	0x3e4b2fd6	0.19842467
146	0xbe29c0e5	-0.1657749
147	0x3d43f30c	0.04783921
148	0x3e93c33a	0.28859884
149	0x3eb10960	0.34577465
150	0xbe75b070	-0.23993087
151	0xbe393d26	-0.18089733
152	0xbd222c76	-0.039593183
153	0x3ec1c961	0.37848952
154	0x3d1c1d5c	0.038113937
155	0x3e40a3aa	0.18812433
156	0xbe2fdba1	-0.17173626
157	0xbd583994	-0.052789286
158	0xbdabd880	-0.083909035
159	0xbddc74ab	-0.1076444
160	0xbd2cf850	-0.042228997
161	0x3edaa687	0.42705175
162	0xbe249675	-0.1607302
163	0xbe1199c7	-0.14218818
164	0xbe54de86	-0.20788011
165	0xbdb4e70b	-0.088331304
166	0x3a1be81d	0.00059473683
167	0xbc225c09	-0.009909638
168	0xbdcb9b83	-0.09941771
169	0xbe111452	-0.14167908
170	0xbe423186	-0.18964204
171	0xbe7615e9	-0.24031796
172	0xbe3ef0f1	-0.186466
173	0x3ee8398f	0.45356414
174	0xbe2669c3	-0.16251282
175	0x3efb62d6	0.49098843
176	0x3e04b808	0.12960827
177	0xbd0dd4c1	-0.034626726
178	0x3e40a4e6	0.18812904
179	0x3eea1156	0.4571635

conv.weight f4 [5, 1, 34, 34]
0	0xbe446fc4	-0.1918326
1	0xbe3ee856	-0.18643317
2	0xbe42fc59	-0.19041575
3	0xbe41ced3	-0.18926553
4	0xbe637f16	-0.22216448
5	0xbe49b497	-0.19697796
6	0xbe65aa85	-0.2242833
7	0xbe5e4bd5	-0.21708615
8	0xbe38f980	-0.18063927
9	0xbe51ccd1	-0.20488288
10	0xbe04364e	-0.1291134
11	0xbdb5412e	-0.08850323
12	0xbda3c3a3	-0.07996299
13	0xbd79ed3d	-0.061017264
14	0x3d515e9b	0.051115613
15	0x3e10059e	0.14064643
16	0x3e03a2d5	0.12855084
17	0x3e44557c	0.19173235
18	0x3df4a1a2	0.119448915
19	0x3dd80b40	0.10549021
20	0x3eaab333	0.33339843
21	0x3e957bb0	0.2919593
22	0x3ea4d09c	0.32190406
23	0x3e9f52ad	0.31117764
24	0x3e8604ce	0.2617554
25	0x3e20a895	0.15689309
26	0x3dd99db6	0.10625784
27	0x3e05787f	0.13034247
28	0x3d78415f	0.060609218
29	0x3d83cb4f	0.064352624
30	0x3d493672	0.04912419
31	0x3d906722	0.07050921
32	0x3c5fec77	0.013667217
33	0x3cb39bd6	0.021924894
34	0xbe45680a	-0.19277969
35	0xbe346d19	-0.17619742
36	0xbe35e864	-0.17764431
37	0xbe435b67	-0.19077836
38	0xbe67fe82	-0.22655681
39	0xbe5b63d2	-0.21424797
40	0xbe64cda3	-0.22344069
41	0xbe4f979e	-0.20272681
42	0xbe2e5b17	-0.17026936
43	0xbe41aad5	-0.18912823
44	0xbe059efb	-0.13048927
45	0xbdb17964	-0.086657315
46	0xbdb7662d	-0.08955035
47	0xbca2077f	-0.019778965
48	0x3dccfbe6	0.10008983
49	0x3dc759d7	0.097339325
50	0x3dd2381b	0.102646075
51	0x3e6b525c	0.22980636
52	0x3dfbe556	0.12299602
53	0x3e2a324f	0.16620754
54	0x3ea270ca	0.31726676
55	0x3eb23de4	0.34812844
56	0x3eb19310	0.34682512
57	0x3eb9b138	0.3626802
58	0x3e8ae7cc	0.27129972
59	0x3e737d5d	0.23778291
60	0x3e689ad6	0.22715315
61	0x3e004158	0.12524927
62	0x3cd524e0	0.02601856
63	0x3d17bbd7	0.037044372
64	0x3dcbc95d	0.099505164
65	0x3dc3b18b	0.09555348
66	0x3d81d96a	0.063402966
67	0xbc24ad8f	-0.010051145
68	0xbe4a1495	-0.19734414
69	0xbe35331d	-0.1769528
70	0xbe442dca	-0.19158092
71	0xbe469354	-0.19392139
72	0xbe70ddf7	-0.23522173
73	0xbe5ef309	-0.21772398
74	0xbe4df8d2	-0.20114449
75	0xbe5d12ea	-0.21589246
76	0xbe4af789	-0.1982099
77	0xbe381ffa	-0.17980948
78	0xbe03071b	-0.1279568
79	0xbd77215a	-0.06033454
80	0x3b0f9dea	0.0021914192
81	0x3bdef542	0.0068041394
82	0xbd459de8	-0.048246294
83	0x3de76228	0.11298019
84	0x3e0632cf	0.1310532
85	0x3e778adf	0.24174069
86	0x3e5aacca	0.21354976
87	0x3e73601c	0.23767132
88	0x3ecf9a6d	0.40547505
89	0x3ed642c0	0.418478
90	0x3ed01219	0.40638807
91	0x3ecfe00c	0.40600622
92	0x3ebed111	0.3726888
93	0x3e9ce627	0.30644342
94	0x3e8a5243	0.27015886
95	0x3e39a305	0.18128593
96	0x3e2859e4	0.1644054
97	0x3d459120	0.048234105
98	0x3e2e88c5	0.17044361
99	0x3dd89e7a	0.10577102
100	0x3ca2c354	0.01986853
101	0x3c871c6b	0.016493043
102	0xbe3922d9	-0.180797
103	0xbe41c041	-0.18920995
104	0xbe55c440	-0.20875645
105	0xbe4101bf	-0.18848322
106	0xbe55b87d	-0.20871158
107	0xbe64f6d3	-0.22359781
108	0xbe4bbc30	-0.19896007
109	0xbe4ca708	-0.19985592
110	0xbe67602f	-0.22595285
111	0xbe3f9843	-0.18710427
112	0xbd7b1088	-0.061295062
113	0x3b0159c6	0.0019737347
114	0x3da88c4c	0.082298845
115	0xbdd59b0d	-0.10429964
116	0x3c9bef4c	0.019035004
117	0x3e5de6e8	0.21670115
118	0x3e58bc0c	0.21165484
119	0x3e6f4ecb	0.23369901
120	0x3ea179fe	0.31538385
121	0x3e3c84a7	0.18409978
122	0x3ec407de	0.38287252
123	0x3f034a5c	0.5128534
124	0x3f05b86c	0.5223453
125	0x3f0873dd	0.53301793
126	0x3ee296e1	0.44255736
127	0x3ec1050c	0.37699163
128	0x3e9b9ceb	0.30393156
129	0x3e858112	0.26075035
130	0x3e53a1fd	0.20667262
131	0x3e35756c	0.17720574
132	0x3e6b13a2	0.22956708
133	0x3dd43088	0.10360819
134	0xbb80e98a	-0.00393409
135	0x3e04d0ea	0.1297032
136	0xbe3d6491	-0.18495394
137	0xbe25bbc8	-0.16184914
138	0xbe2aa745	-0.16665371
139	0xbe36c412	-0.17848232
140	0xbe44910a	-0.19195953
141	0xbe605001	-0.21905519
142	0xbe311ee9	-0.17296948
143	0xbe3fbfbf	-0.18725489
144	0xbe3913a8	-0.18073905
145	0xbe24b142	-0.16083243
146	0xbc5fefdd	-0.013668028
147	0xbd4a5b72	-0.049403615
148	0xbc3aeea2	-0.011409434
149	0x3c63be55	0.013900359
150	0x3dc24123	0.0948508
151	0x3e282630	0.16420817
152	0x3e57309d	0.21014638
153	0x3e58430f	0.21119331
154	0x3e6c4de9	0.23076595
155	0x3e865423	0.26236066
156	0x3ea2afb1	0.31774667
157	0x3ee4ce1c	0.446885
158	0x3f11c49d	0.56940633
159	0x3f14fb70	0.58196163
160	0x3ebee32c	0.37282693
161	0x3ea285b9	0.31742647
162	0x3e901191	0.28138402
163	0x3e3279a5	0.17429216
164	0x3e5d7626	0.21627101
165	0x3e47a88e	0.19497892
166	0x3e53419f	0.20630501
167	0xbb3ca9e9	-0.0028787798
168	0xbdc88ad6	-0.09792106
169	0xbd814ce8	-0.06313497
170	0xbe327b8b	-0.1742994
171	0xbe2f5a70	-0.17124343
172	0xbe35f090	-0.17767549
173	0xbe31c491	-0.1736014
174	0xbe7d4bd2	-0.24735954
175	0xbe53ca9f	-0.20682763
176	0xbe2eb9bf	-0.17063044
177	0xbe3a4ad1	-0.18192603
178	0xbe1d0cd5	-0.15336926
179	0xbe2444be	-0.16041848
180	0xbd86f464	-0.065895826
181	0xbdf16f67	-0.117888264
182	0x3d6e146e	0.058124952
183	0x3d85f530	0.065409064
184	0x3e339c9e	0.17540213
185	0x3e46cd29	0.194142
186	0x3e60d1e5	0.21955068
187	0x3e68f8d4	0.2275117
188	0x3e8a04d4	0.2695681
189	0x3eba4322	0.36379343
190	0x3ee692c6	0.45033854
191	0x3f182667	0.594336
192	0x3f210db7	0.6291155
193	0x3f1d6570	0.61482906
194	0x3eee2b92	0.46517617
195	0x3ecaa38b	0.39577898
196	0x3eb504ad	0.3535513
197	0x3e794a9f	0.24344872
198	0x3e68d6d5	0.22738202
199	0x3e3f8b72	0.18705538
200	0x3e3cad48	0.18425477
201	0x3e32ce04	0.17461401
202	0xbc8996a5	-0.016795466
203	0x3a410b3e	0.0007364041
204	0xbe409051	-0.18805052
205	0xbe3dbf77	-0.1853007
206	0xbe2920d2	-0.16516426
207	0xbe3cf945	-0.18454464
208	0xbe5587d2	-0.20852593
209	0xbe254f7a	-0.16143599
210	0xbe4f15c4	-0.20223147
211	0xbe75fdfc	-0.24022669
212	0xbe37b852	-0.17941406
213	0xbe3f62e6	-0.1869007
214	0xbd488acd	-0.048960496
215	0x3d904be8	0.07045728
216	0x3c2127dc	0.009836163
217	0x3cbbca18	0.022923514
218	0x3e25a151	0.16174819
219	0x3e57ce6e	0.2107484
220	0x3e6cfe44	0.2314387
221	0x3e95ccaf	0.29257724
222	0x3ed0b83c	0.4076556
223	0x3ee8d9ca	0.4547866
224	0x3f0b65bb	0.54452103
225	0x3f280224	0.65628266
226	0x3f23c821	0.6397725
227	0x3f3059d7	0.68887085
228	0x3f0db85c	0.55359435
229	0x3ef65b0c	0.48116338
230	0x3ebec913	0.37262782
231	0x3e9d14aa	0.30679828
232	0x3e5e6f42	0.21722129
233	0x3e59ff74	0.21288854
234	0x3e471a3c	0.19443601
235	0x3e73e99d	0.23819585
236	0x3d996b0a	0.07491119
237	0x3d8ef2c9	0.06979901
238	0xbe3687da	-0.17825261
239	0xbe55ae1f	-0.20867203
240	0xbe3e35e0	-0.18575239
241	0xbe588b79	-0.21146955
242	0xbe615f61	-0.2200904
243	0xbe3b83c3	-0.18311982
244	0xbe6852cc	-0.22687835
245	0xbe3a544a	-0.18196216
246	0xbe1de047	-0.15417586
247	0xbe4e6931	-0.20157315
248	0xbd93c217	-0.07214754
249	0x3d8611d0	0.06546366
250	0xbb06e68b	-0.0020584192
251	0x3e0bcfcb	0.13653485
252	0x3e4918ee	0.19638416
253	0x3e999841	0.29998973
254	0x3ea07b8d	0.31344262
255	0x3eac6044	0.33667195

conv.weight f4 [5, 1, 10, 10]
0	0xbcfac994	-0.030613698
1	0xbd0ba677	-0.0340943
2	0xbd089897	-0.033348646
3	0x3ad4c0db	0.0016231792
4	0x3ca33da8	0.01992686
5	0xbe12cbf1	-0.1433561
6	0xbc2f938c	-0.01071633
7	0x3e1ff892	0.15622166
8	0xbd3b86bd	-0.045782793
9	0xbd4f5a83	-0.050623428
10	0x3d555d19	0.052090738
11	0xbe6a857a	-0.2290248
12	0xbda41343	-0.080114864
13	0xbdc9f026	-0.09860258
14	0xbca3a8a6	-0.019977879
15	0xbe12967e	-0.1431522
16	0xbc5a082a	-0.0133076105
17	0xbe0f11ee	-0.13971683
18	0xbbe94f20	-0.007120028
19	0xbbe2a680	-0.006916821
20	0x3d91f075	0.07125942
21	0xbdf693c5	-0.120399036
22	0xbc0e3a9a	-0.008680964
23	0xbdfdb246	-0.123875186
24	0x3cdf67d6	0.027271193
25	0x3bd19100	0.006395459
26	0xbdc31149	-0.09524781
27	0x3c3ebba4	0.011641417
28	0xbd781666	-0.060568236
29	0xbe08ad61	-0.13347389
30	0x3d85a329	0.06525261
31	0xbdf21c9d	-0.11821864
32	0xbdaf440f	-0.08557903
33	0x3c70ba03	0.014692786
34	0xbd5c370b	-0.05376343
35	0xbd19767a	-0.037466504
36	0xbca9b6df	-0.020717083
37	0xbe1237d6	-0.14279112
38	0x3c683bca	0.014174411
39	0xbe0bec49	-0.13664354
40	0x3c90a905	0.01765872
41	0xbdaef674	-0.08543101
42	0xbd9ec8e4	-0.077531606
43	0xbdfe2e3d	-0.12411163
44	0xbc1bcd8e	-0.009509457
45	0xbd080786	-0.0332103
46	0xbde0a7ce	-0.10969506
47	0x3ca536de	0.020167764
48	0x3ca8b653	0.020594751
49	0xbd8d5c18	-0.06902331
50	0x3d06b740	0.032889605
51	0xbdb05987	-0.08610826
52	0xbe060cae	-0.13090774
53	0xbe1d6bee	-0.15373203
54	0xbc309f3e	-0.010780154
55	0xbd8cbab1	-0.06871546
56	0xbc4dbc63	-0.012557122
57	0xbe0af409	-0.13569655
58	0x3c40b36d	0.011761528
59	0xbe01c399	-0.12672271
60	0xbd325037	-0.04353353
61	0xbd8ecc47	-0.069725566
62	0x3c087ede	0.008331029
63	0x3cdc73d4	0.0269107
64	0xbd3b172f	-0.045676406
65	0xbc376745	-0.011194055
66	0xbe1991fd	-0.14997096
67	0xbdc64fa6	-0.096831605
68	0xbc314e74	-0.010821927
69	0xbdb0935a	-0.08621855
70	0x3d8aa5f0	0.06769931
71	0x3c0b2afe	0.008494137
72	0x3d0ebb19	0.0348464
73	0x3cfee7d9	0.031116413
74	0x3bdeef5b	0.0068034357
75	0xbe0d9f3b	-0.13830273
76	0x3ca4c8ea	0.020115335
77	0xbca11f7a	-0.01966833
78	0x3cbf3966	0.0233428
79	0xbddf279b	-0.10896226
80	0xbd10c96e	-0.03534835
81	0xbe16fde5	-0.1474529
82	0x3cf5d93f	0.030010818
83	0xbdb849c8	-0.08998448
84	0xbe1ebe88	-0.1550237
85	0xbde309c9	-0.11085851
86	0xbc9ca362	-0.019120876
87	0xbd09ed4e	-0.033673577
88	0xbe2046a4	-0.15651947
89	0xbe1a0e31	-0.15044476
90	0x3dfa6254	0.12225786
91	0xbdfe8c60	-0.12429118
92	0xbd9b577c	-0.07585046
93	0xbe20d0ff	-0.15704726
94	0x3ca53c5c	0.020170383
95	0xbe070c67	-0.13188325
96	0xbd407740	-0.046988726
97	0xbe068a2a	-0.13138643
98	0xbdfcf73e	-0.12351845
99	0xbd88124c	-0.06644115
100	0xbcd58a78	-0.026067004
101	0xbe086e1a	-0.1332325
102	0xbdc2984a	-0.09501703
103	0xbdd1bbb6	-0.10240881
104	0xbe3bec49	-0.18351854
105	0xbcef2e2b	-0.02919682
106	0xbbf75cac	-0.007548889
107	0xbdad5d02	-0.084650055
108	0xbded3dd0	-0.115840554
109	0xbe1a75ba	-0.15083972
110	0xbde3bd11	-0.11120046
111	0xb9ec6636	-0.0004508958
112	0xbd486d2c	-0.04893224
113	0xbb502272	-0.0031758812
114	0xbdf64a5b	-0.12025901
115	0xbd844f72	-0.064604655
116	0xbcb5a656	-0.022174042
117	0xbcc1a1a9	-0.023636656
118	0xba27902a	-0.00063920266
119	0xbdc22294	-0.094792515
120	0xbdec1099	-0.11526603
121	0x3c5268da	0.012842381
122	0xbca26ac3	-0.019826299
123	0xbcdb44d4	-0.026766218
124	0xbcd16b34	-0.025563814
125	0xbdaba54e	-0.08381139
126	0xbe01a25e	-0.12659594
127	0xbdaa0c34	-0.08303109
128	0xbbab4bf6	-0.005227561
129	0xbd9c2d57	-0.076258354
130	0xbe033aae	-0.12815353
131	0xbd5e11a7	-0.054216053
132	0xbd844d3d	-0.064600445
133	0x3bf9ddf6	0.0076253368
134	0x3d10bd4a	0.03533677
135	0x3cca4988	0.024693266
136	0xbe0ca8d3	-0.13736276
137	0xbe09864f	-0.13430141
138	0xbc5e994b	-0.013586353
139	0xbc4aa6dc	-0.012368884
140	0xbd01f78c	-0.03173022
141	0xbe29a0a8	-0.16565192
142	0xbc24cbed	-0.010058385
143	0xbe21720e	-0.15766165
144	0xbd5e09a4	-0.054208413
145	0xbdde95eb	-0.10868438
146	0xbdbb066d	-0.09132085
147	0xbd6014ad	-0.054707218
148	0xbdac65a0	-0.08417821
149	0x3c9f22f4	0.019425847
150	0xbcac11ea	-0.021004636
151	0xbe247953	-0.16061907
152	0xbdb737b5	-0.08946172
153	0x3cf8bcb0	0.03036341
154	0xbda1d31a	-0.079015926
155	0xbd895858	-0.06706303
156	0xbde1f4d2	-0.11033024
157	0xbc90e7ee	-0.017688718
158	0xbcce384f	-0.025173334
159	0xbcc41a83	-0.023938423
160	0xbcb981f2	-0.02264497
161	0xbdf9bda4	-0.12194374
162	0xbc939773	-0.018016553
163	0xbd2dc4a8	-0.042423874
164	0xbe082052	-0.13293579
165	0xbbf2a433	-0.007404828
166	0xbd936e6d	-0.071987964
167	0x3d32e13b	0.043671828
168	0xbdf5c3ad	-0.12000213
169	0xbd16040a	-0.036624946
170	0xbe052b48	-0.13004792
171	0xbdbf8b23	-0.0935271
172	0xbdc3d984	-0.09562972
173	0xbdd96bd5	-0.106162705
174	0xbd6b04cf	-0.057377633
175	0xbd61002f	-0.054931816
176	0x3d4d21a2	0.050080903
177	0x3d07dadd	0.03316771
178	0xbe0a31af	-0.13495515
179	0xbc9ad0e0	-0.018898427
180	0xbbbeeef0	-0.0058268234
181	0xbd410d7d	-0.047132004
182	0x3d416645	0.047216672
183	0xbd226cee	-0.039654665
184	0xbe06c71e	-0.13161895
185	0x3d10f60f	0.03539091
186	0x3c069020	0.008213073
187	0xbb0b8a0d	-0.0021292001
188	0xbe08598a	-0.13315406
189	0x3c46ba44	0.01212937
190	0xbdc5f03a	-0.0966496
191	0xbdb1cc81	-0.08681584
192	0xbdbcef83	-0.09225371
193	0xbdb05307	-0.08609586
194	0xbd0dbaeb	-0.034602087
195	0xbce9732f	-0.028497307
196	0xbe073d8d	-0.13207074
197	0xbd8c4d8a	-0.06850727
198	0xbd950289	-0.07275874
199	0xbdebcb92	-0.11513437
200	0xbdf70051	-0.12060607
201	0xbc74dc4e	-0.014945103
202	0xbce6f60d	-0.028193498
203	0xbd88d35b	-0.06680938
204	0x3c648d9d	0.013949779
205	0xbbad1656	-0.0052822037
206	0xbd1e4406	-0.03863909
207	0xbd450a23	-0.04810537
208	0x3c266b49	0.010157415
209	0xbd156a2a	-0.0364782
210	0xbbbb6eef	-0.0057200114
211	0xbd02f46c	-0.03197138
212	0xbd20dcfb	-0.039273243
213	0xbd99a3bb	-0.07501932
214	0xbbc9213e	-0.006137996
215	0x3c59df88	0.013297923
216	0xbe0df695	-0.13863595
217	0xbd4c1980	-0.049829006
218	0x3c945cd8	0.018110678
219	0xbc6f1e32	-0.0145946015
220	0x3b749280	0.0037318766
221	0xbcbe279a	-0.023212243
222	0xbe3139f7	-0.17307268
223	0xbdccd2da	-0.10001154
224	0xbdb7c275	-0.089726366
225	0xbdd8e51c	-0.10590574
226	0xbe2520fc	-0.16125864
227	0xbe1ed1b6	-0.15509686
228	0xbe0a87dc	-0.13528389
229	0xbc1c6319	-0.009545111
230	0xbd4fba50	-0.05071479
231	0xbc13c03f	-0.009018003
232	0xbe064d8f	-0.13115524
233	0xbd4df9d2	-0.050287075
234	0x3ca7235b	0.020402601
235	0xbda95f2e	-0.08270107
236	0xbdb887d2	-0.09010281
237	0x3dc02ce7	0.093835644
238	0xbda8e38e	-0.082465276
239	0xbd054b41	-0.03254247
240	0xbe158222	-0.14600423
241	0xbdb180cf	-0.086671464
242	0xbd756b24	-0.05991663
243	0xbe1e41d2	-0.15454796
244	0xbcf60859	-0.030033277
245	0xbe20b2f8	-0.15693271
246	0xbc494f5f	-0.01228699
247	0xbc50cb9c	-0.012743857
248	0x3d5f08b3	0.054451656
249	0x3d1ab634	0.03777142
250	0xbda3ea14	-0.08003631
251	0xbc07d5d0	-0.008290723
252	0xbe0b686b	-0.13614051
253	0xbd1ead0a	-0.03873924
254	0xbd5c7464	-0.053821936
255	0xbcf55d22	-0.029951636

conv.bias f4 [5]
0	0x3e4ebe49	0.20189776
1	0x3d8261d3	0.06366315
2	0xbe38e65f	-0.1805663
3	0xbd921c7c	-0.07134339
4	0x3d95dbd8	0.073173225

fc1.weight f4 [64, 180]
0	0xbc821ca8	-0.015882805
1	0xbd30ba64	-0.043146506
2	0xbd3df96b	-0.04638044
3	0x3d13d29e	0.036089532
4	0xbd976b48	-0.07393509
5	0xbd035b4c	-0.03206949
6	0xbd866a7f	-0.06563281
7	0xbd94795a	-0.072497085
8	0xbd69d8b6	-0.057091437
9	0xbd873bb1	-0.06603182
10	0x3bed3410	0.0072388723
11	0x3d882745	0.06648115
12	0xbcf64d86	-0.030066263
13	0xbcf266ee	-0.029590096
14	0xbd3ce795	-0.04611929
15	0xbcd671d2	-0.02617732
16	0x3c344458	0.011002623
17	0xbc5e1310	-0.01355435
18	0xbbe276a0	-0.006911114
19	0xbcc771d6	-0.024346273
20	0x3d8ec597	0.06971281
21	0x3be5c5e0	0.007012114
22	0xbcc327c2	-0.023822669
23	0x3d2ccc80	0.042187214
24	0xbd6eb484	-0.058277622
25	0xbcb9ea14	-0.022694625
26	0xbd352381	-0.044223312
27	0xbd3b28d6	-0.04569324
28	0xbd446560	-0.04794824
29	0xbc3fad28	-0.0116989985
30	0x3cb7c858	0.022434399
31	0xbd9813ad	-0.07425628
32	0xbd220396	-0.0395542
33	0x3cde4280	0.027131319
34	0xbc965a0e	-0.018353488
35	0x3d835bc5	0.06413988
36	0x3bf9acb0	0.007619463
37	0xbd93b893	-0.07212939
38	0x3d0bfe52	0.034178086
39	0x3d64eb1e	0.055888288
40	0xbd006d5d	-0.031354297
41	0x3d80f129	0.06295998
42	0x3d5c35ea	0.053762354
43	0xbd2190a0	-0.039444566
44	0xbc78dbd8	-0.015189134
45	0x3d1331fa	0.035936333
46	0xbcbc893a	-0.023014653
47	0x3d7e7cee	0.06213086
48	0xbd823848	-0.06358391
49	0x3d3fdd6a	0.046842016
50	0x3c8a8a0c	0.016911529
51	0x3b604840	0.0034222752
52	0xbcab4b7e	-0.02091002
53	0xbd613f2c	-0.054991886
54	0x3d5b47fe	0.053535454
55	0x3d6ad002	0.057327278
56	0xbd23081b	-0.03980265
57	0x3c9d5158	0.019203827
58	0x3c107e88	0.00881923
59	0xbd3b5f65	-0.045745272
60	0xbd54bdb6	-0.051938735
61	0xbd201c84	-0.039089695
62	0xbd62af0b	-0.055342715
63	0xbd67f12c	-0.056626484
64	0x3d239858	0.03994021
65	0xbcf622f6	-0.030045968
66	0xbd8dc14e	-0.069216356
67	0x3d21d348	0.039508134
68	0x3d178eda	0.03700147
69	0x3cc0a2c4	0.023515113
70	0x3d728096	0.05920466
71	0x3d746716	0.059668623
72	0xbd38548c	-0.045002505
73	0xbd53eee7	-0.051741507
74	0x3d816af7	0.0631923
75	0x3ccd6990	0.02507475
76	0xbd81aaf4	-0.06331435
77	0xbd8db2cf	-0.06918871
78	0x3d92325f	0.07138514
79	0x3d36a8ec	0.04459469
80	0xbc76037c	-0.015015479
81	0xbc12f6a8	-0.00896994
82	0x3c997df8	0.018736824
83	0xbd2e667d	-0.04257821
84	0xbd8a3a11	-0.067493565
85	0xbc383510	-0.01124312
86	0x3d86dae1	0.065847166
87	0x3c1e0fa0	0.00964728
88	0xbd6b9a36	-0.057520114
89	0x3d89932d	0.06717525
90	0xba32ef00	-0.0006825775
91	0xba8dfd80	-0.0010832995
92	0xbd01ef4d	-0.031722356
93	0xbd0e6d39	-0.03477213
94	0xbd89a926	-0.06721716
95	0xbd7f88e3	-0.062386405
96	0xbc13e560	-0.009026855
97	0xbd61e7e4	-0.05515279
98	0xbcd97e0e	-0.026549365
99	0xbd5f48f8	-0.054512948
100	0xbbdbba50	-0.00670556
101	0x3d6e66ba	0.058203436
102	0xbc5246e0	-0.012834281
103	0xbd414d6f	-0.047192987
104	0x3d251180	0.040299892
105	0xbd83fc10	-0.064445615
106	0xbd7d656a	-0.061864294
107	0xbd7f703c	-0.062362894
108	0xbc19d688	-0.009389527
109	0x3d63b97a	0.055596806
110	0x3cd8e9b0	0.026478618
111	0x3d7a20fa	0.061066605
112	0xbd390e77	-0.04517981
113	0x3d85fca1	0.06542326
114	0x3d54e87a	0.05197952
115	0x3d87c33b	0.06629034
116	0xbd5f8562	-0.054570563
117	0x3d4134e2	0.047169574
118	0xbd10167f	-0.035177704
119	0xbd4d1bda	-0.05007539
120	0xbd45a353	-0.04825146
121	0x3b9330e0	0.0044919103
122	0xbd305cf9	-0.043057416
123	0xbd4c62ee	-0.049899034
124	0xbb1121e0	-0.0022145435
125	0xbcc93504	-0.024561413
126	0xbc2f1720	-0.010686666
127	0x3d3b897a	0.045785405
128	0x3c12fe60	0.008971781
129	0x3d1b5bc2	0.037929304
130	0x3bf0c380	0.007347524
131	0xbd431f8b	-0.047637504
132	0x3c271810	0.010198608
133	0x3cc1c794	0.023654737
134	0xbd32cfb6	-0.04365512
135	0xbc6c4aa4	-0.014422093
136	0xbc0a3ac8	-0.008436866
137	0x3c648728	0.013948239
138	0x3d7492e2	0.05971039
139	0xbd83e97e	-0.064410195
140	0x3d529ad6	0.051417194
141	0xbccc6898	-0.024952218
142	0xbd8ff61a	-0.07029362
143	0x3bcd8be0	0.006272778
144	0x3bed3410	0.0072388723
145	0xbb6a4de0	-0.0035751984
146	0x3d6f4aba	0.058420874
147	0xbb9b0520	-0.0047308356
148	0x3ada67c0	0.0016663
149	0xbcfd87a6	-0.030948471
150	0x3b0091c0	0.0019618124
151	0x3d3f5892	0.046715327
152	0xbd97a4a8	-0.074044526
153	0xbc737ad8	-0.014860831
154	0x3c53d610	0.012929454
155	0x3d83f307	0.06442838
156	0xbd41faae	-0.047358207
157	0xbcb9837e	-0.022645708
158	0xbc670ff0	-0.014102921
159	0xbd7b845c	-0.061405525
160	0xbd0ddac0	-0.034632444
161	0x3d22b894	0.03972681
162	0xbd0cf9e3	-0.034417998
163	0xbd70a6f6	-0.058752976
164	0x3d34142a	0.043964542
165	0xbb920ab0	-0.0044568405
166	0xbd7ecf17	-0.062209215
167	0x3c5813e0	0.013188332
168	0x3c5764e8	0.0131466165
169	0xbd37e6f0	-0.044897974
170	0x3d7d2c4a	0.061809815
171	0x3d35f5c4	0.044423833
172	0xbd47d34d	-0.048785497
173	0xbd5be35d	-0.053683627
174	0x3c940e6c	0.018073283
175	0x3d090dca	0.033460416
176	0x3d451eb8	0.048125
177	0xbc07e278	-0.00829374
178	0xbd866f90	-0.065642476
179	0x3bc12520	0.005894318
180	0xbcdc18aa	-0.02686723
181	0xbc5aa9e8	-0.013346173
182	0xbcb8363e	-0.022486802
183	0x3d8b2207	0.067935996
184	0xbcc127aa	-0.023578484
185	0x3b9d9fa0	0.0048102885
186	0xbb97a580	-0.0046278834
187	0xbd36ed1b	-0.044659715
188	0xbd4463a9	-0.047946606
189	0x3d5a77ae	0.05333679
190	0xbd582ba0	-0.05277598
191	0xbca98758	-0.02069442
192	0xbd8a1ab6	-0.06743376
193	0x3cdc555c	0.026896171
194	0xbd59ca3e	-0.05317139
195	0xbc8629a6	-0.016377281
196	0xbcba9230	-0.022774786
197	0xbcf7bc5a	-0.03024118
198	0x3cadca04	0.021214493
199	0xbd27a7e9	-0.040931616
200	0x3d41ced4	0.047316387
201	0x3d8a0f63	0.06741216
202	0x3d26ad66	0.04069271
203	0x3c6d4bc8	0.0144834
204	0x3d8b123d	0.06790588
205	0x3c58b980	0.01322782
206	0xbc70b834	-0.014692355
207	0xbd2fc7b7	-0.042915072
208	0xbccb9a90	-0.024853975
209	0xbc898b40	-0.016790032
210	0x3d87e649	0.0663572
211	0xbca78bde	-0.020452436
212	0xbd86012e	-0.06543194
213	0x3d321b1e	0.043482892
214	0x3d6a98f2	0.057274766
215	0xbd0a1565	-0.03371181
216	0xbcd82998	-0.026387021
217	0xba85c680	-0.0010206252
218	0x3c4ed7b8	0.012624674
219	0xbd4694d0	-0.048481762
220	0x3c5432c0	0.012951553
221	0x3d762eae	0.06010311
222	0xbc0dd7d8	-0.008657418
223	0xbd1f5f88	-0.038909465
224	0x3d832173	0.06402864
225	0xbca18336	-0.019715887
226	0xbd813ab4	-0.06310025
227	0xbd51c2c6	-0.05121114
228	0x3d7e978a	0.062156238
229	0x3d65667e	0.056005947
230	0x3d97c6e5	0.07410983
231	0xbcefa704	-0.029254444
232	0x3d7605de	0.06006419
233	0x3d710c3e	0.058849566
234	0xbd0310e9	-0.03199855
235	0xbd7e71b0	-0.06212014
236	0xbd4b2a46	-0.049600862
237	0x3d7c928e	0.061663203
238	0x3cf352b8	0.02970253
239	0x3d93c727	0.0721572
240	0x3d7e3016	0.062057577
241	0x3d3371d4	0.043809727
242	0xbd1b61ed	-0.037935186
243	0x3d1814be	0.037129156
244	0xbd8828a2	-0.06648375
245	0xbd2346cf	-0.03986245
246	0x3b7c8c00	0.0038535595
247	0x3bfa25b0	0.007633887
248	0xbd93d212	-0.07217802
249	0xbcda4232	-0.026642893
250	0xbd5f7888	-0.054558307
251	0x3d71bd0a	0.059018172
252	0xbd3a3b94	-0.045466974
253	0xbd8a6fa8	-0.06759578
254	0xbd3cf372	-0.046130605
255	0x3d5bd956	0.053674065

fc1.bias f4 [64]
0	0xbd6b4054	-0.057434395
1	0xbd42d55c	-0.047566757
2	0xbd3d9bbb	-0.046291094
3	0x3dcfb379	0.101416536
4	0xb9bc028a	-0.00035860046
5	0xbd5ab2b8	-0.053393096
6	0x3aebcf8f	0.0017990934
7	0x3cce1e81	0.02516103
8	0xbbcb4c96	-0.006204198
9	0xbd892805	-0.06697086
10	0xbdc66aae	-0.09688316
11	0x3e67f289	0.22651114
12	0xbd7bf530	-0.061513126
13	0xbd71b00c	-0.059005782
14	0xbd884abd	-0.0665488
15	0xbd2e5e56	-0.042570435
16	0x3c1deab2	0.009638475
17	0xbd7aed04	-0.061261192
18	0x3c939ffd	0.018020624
19	0xbd983d8c	-0.07433614
20	0xbe00ed24	-0.12590462
21	0xbdc09bc1	-0.09404708
22	0xbd27fe39	-0.04101393
23	0xbd8532d7	-0.065038376
24	0xbde4cf80	-0.1117239
25	0x3b959e70	0.0045660064
26	0xbdaca76d	-0.084303714
27	0xbe06902a	-0.13140932
28	0x3c3dbc41	0.011580528
29	0xbddc7dd6	-0.10766189
30	0xbdb1c385	-0.086798705
31	0x3ca2c5f5	0.019869784
32	0x3d395ed5	0.045256454
33	0xbc31463c	-0.010819968
34	0xbc8698d8	-0.016430303
35	0xbd0d63cd	-0.034519006
36	0x3ce889e2	0.02838606
37	0x3db4db81	0.088309295
38	0xbd798270	-0.06091541
39	0xbc16b617	-0.009198687
40	0xbd54902f	-0.051895317
41	0xbc99763e	-0.01873314
42	0x3c367d86	0.011138326
43	0xbd42248b	-0.04739813
44	0xbc7ca86a	-0.015421012
45	0xbd41ef5d	-0.047347415
46	0x3d85fe43	0.06542637
47	0x3e597a67	0.21238099
48	0xbc0e6ae8	-0.008692481
49	0xbcd2341e	-0.025659617
50	0xbd63d4bb	-0.055622797
51	0xbe088a2d	-0.1333396
52	0xbd495d46	-0.049161218
53	0xbd4c845d	-0.04993092
54	0x3d664583	0.056218635
55	0x3bfc3c37	0.007697608
56	0x3c11aec0	0.008891761
57	0x3cccd9ad	0.02500614
58	0x3d2e2acf	0.042521294
59	0xbd822145	-0.06354002
60	0xbcf5b148	-0.02999176
61	0xbd81e62a	-0.063427284
62	0x3dabdc56	0.08391635
63	0xbd8e4ded	-0.06948457

fc2.weight f4 [4, 64]
0	0xbdc5d69e	-0.096600756
1	0xbde33b8c	-0.11095342
2	0x3d8b48d0	0.06800997
3	0xbe094773	-0.13406162
4	0xbc853fcf	-0.016265778
5	0x3b8e4c80	0.0043426156
6	0xbc3f3c69	-0.011672118
7	0xbd3e2f7a	-0.046431996
8	0xbd0304b1	-0.031986896
9	0x3e2c56b1	0.16829945
10	0x3e2386f6	0.15969452
11	0xbe1099dd	-0.14121194
12	0x3dfd0238	0.12353939
13	0x3d0bb067	0.034103777
14	0xbcd6dc01	-0.026227953
15	0x3dd4e186	0.10394578
16	0xbc7b0dd1	-0.015323118
17	0x3dd5f99a	0.10447998
18	0xbdc38894	-0.095475346
19	0xbd107794	-0.03527029
20	0x3bfaa848	0.007649455
21	0xbe0f6e51	-0.14006926
22	0xbdd8e0f0	-0.105897784
23	0x3df62aa6	0.12019853
24	0xbd8a2792	-0.06745829
25	0x3d80ffae	0.06298767
26	0xbcf7c412	-0.03024486
27	0xbd3dff6e	-0.046386175
28	0xbdbe1889	-0.092820235
29	0x3d7c5db7	0.06161281
30	0x3d5a532c	0.053301975
31	0x3d782909	0.06058601
32	0xbe095cb9	-0.13414277
33	0x3c901b2b	0.01759108
34	0x3d24e17a	0.040254094
35	0xbe217271	-0.15766312
36	0x3cb9959d	0.022654349
37	0x3d3fda2e	0.04683893
38	0xbd9c33c3	-0.0762706
39	0xbcc6d83f	-0.024273036
40	0xbd288bdd	-0.04114901
41	0x3d2d7650	0.04234916
42	0x3ce88e13	0.028388059
43	0x3daa70c0	0.083222866
44	0xbdb00414	-0.08594528
45	0xbcb695ee	-0.022288289
46	0xbad14d03	-0.0015968386
47	0xbe2772a0	-0.1635232
48	0x3d9c17ec	0.0762175
49	0x3d650990	0.055917323
50	0xbbabf7c4	-0.005248042
51	0x3d8b2571	0.06794251
52	0x3cd7c75e	0.026340183
53	0xbdce3683	-0.10068991
54	0xbd9594d9	-0.07303781
55	0xbd68e704	-0.05686094
56	0x3bf5f6e5	0.0075062388
57	0x3bb56d8b	0.00553674
58	0xbded8f90	-0.11599648
59	0xbe0396c7	-0.12850486
60	0xbcbff3e0	-0.023431718
61	0x3dc1ed6d	0.094691135
62	0xbe0ac421	-0.1355138
63	0xbdf753fa	-0.12076564
64	0x3daf9b9e	0.085746035
65	0xbdc58230	-0.09643972
66	0xbd1490d1	-0.03627092
67	0x3f1db26d	0.6160038
68	0xbbb8dc64	-0.005641507
69	0x3d3aefd8	0.04563889
70	0x3e0bec18	0.13664281
71	0x3ea1cdcc	0.31602323
72	0x3d086da0	0.03330767
73	0xbda7772a	-0.081770256
74	0xbd46f9f0	-0.048578203
75	0x3f26e9c6	0.6520046
76	0xbcf9f358	-0.030511543
77	0xbc852007	-0.016250623
78	0x3ccb1dd2	0.024794493
79	0xbd891176	-0.066927835
80	0x3d6a5e2e	0.057218723
81	0xbdcdf132	-0.1005577
82	0xbca4e199	-0.020127105
83	0x3dc6b25c	0.09701988
84	0x3c1e8d55	0.009677251
85	0x3f14ecf6	0.58174074
86	0x3e2e80dc	0.17041343
87	0xbdd76bf6	-0.10518639
88	0x3b727a2d	0.0036999092
89	0x3c62d030	0.013843581
90	0x3caeeb6e	0.021352496
91	0x3b860b16	0.004090677
92	0x3cf9c2db	0.030488422
93	0xbcf17b86	-0.029477846
94	0xbd597f2e	-0.053099804
95	0x3d15171c	0.036398992
96	0x3f1dd0ed	0.6164692
97	0xbd21eb24	-0.03953089
98	0x3d6d9c55	0.058010418
99	0xbdc87ef8	-0.09789842
100	0x3db306c0	0.08741522
101	0x3da891b7	0.08230918
102	0xbda2078c	-0.07911596
103	0x3ce691c4	0.028145678
104	0x3d2b75af	0.04186028
105	0x3c85a3d0	0.016313463
106	0x3d6269a0	0.055276513
107	0x3d9e4cb4	0.07729474
108	0xbcf4c9bc	-0.02988135
109	0xbc8ee7dc	-0.017444544
110	0x3dfc342c	0.123146385
111	0x3f406468	0.7515321
112	0x3d78c930	0.060738742
113	0x3dfedc2c	0.12444338
114	0xbcc90f28	-0.02454336
115	0xbc1c1857	-0.009527287
116	0xbd952b43	-0.07283642
117	0x3c817908	0.015804783
118	0x3ea89db2	0.32932812
119	0x3ed5f4e8	0.4178841
120	0x3cae8be7	0.021306945
121	0x3dd5458f	0.10413658
122	0x3f087bbe	0.53313816
123	0x3d06ed82	0.03294135
124	0xbbe7fb2f	-0.007079504
125	0x3bed8460	0.0072484463
126	0x3f1f640c	0.62262034
127	0xbb9d6309	-0.0048030657
128	0x3d95a2fe	0.07306479
129	0x3d791830	0.060814083
130	0x3985f2ab	0.00025548539
131	0xbf00dc1a	-0.5033585
132	0xbdf32a1d	-0.11873267
133	0xbdac5a0e	-0.08415614
134	0xbe1d86ac	-0.15383404
135	0xbdf5a29e	-0.119939074
136	0xbe1d4658	-0.15358865
137	0x3d3f70c6	0.04673841
138	0xbc440d1f	-0.011966019
139	0xbf07f486	-0.5310749
140	0xbd37f7f4	-0.0449142
141	0x3ca081ff	0.019593237
142	0xbe01da60	-0.1268096
143	0x3dfaaf8a	0.12240513
144	0xbdb9b0f2	-0.09066953
145	0xbdc787ee	-0.097427234
146	0xbd473114	-0.04863079
147	0x3dfed502	0.12442972
148	0x3db47b53	0.08812585
149	0xbe81a53c	-0.25321376
150	0x3bbb2125	0.0057107382
151	0x3d460840	0.04834771
152	0xbd6aa579	-0.057286713
153	0xbde7a50a	-0.113107756
154	0xbc97c3b3	-0.018525934
155	0xbdd0f0d2	-0.10202183
156	0xbdb21217	-0.086948566
157	0xbe1c4086	-0.15258989
158	0xbdaed619	-0.0853693
159	0xbd58b240	-0.052904367
160	0xbf00eca1	-0.5036107
161	0x3e1eedcc	0.155204
162	0xbd14a183	-0.036286842
163	0xbdaa203c	-0.083069295
164	0xbd05cff3	-0.03266902
165	0xbdb8905d	-0.0901191
166	0xbbe358e8	-0.0069380887
167	0x3d0ebaa5	0.034845967
168	0xbe05ed8f	-0.13078903
169	0xbd3e9ad0	-0.04653436
170	0xbdbcba55	-0.092152275
171	0xbcf000f8	-0.029297337
172	0xbd738a67	-0.059458163
173	0x3df571a5	0.119845666
174	0xbe1d1fc4	-0.15344149
175	0xbf1cea90	-0.61295414
176	0x3cafd578	0.021464095
177	0xbdbc57bc	-0.091964215
178	0xbc14592a	-0.0090544615
179	0xbd842d61	-0.06453968
180	0xbda31822	-0.07963587
181	0xbd8d1b83	-0.06890013
182	0xbe86d74e	-0.2633614
183	0xbedc36d6	-0.43010587
184	0xbdd0dc8d	-0.10198317
185	0xbcb01144	-0.021492608
186	0xbedefa05	-0.43550125
187	0x3d6c947a	0.057758786
188	0x3ccb85fa	0.024844158
189	0xbd826d30	-0.06368482
190	0xbf02484c	-0.50891566
191	0xbc74140c	-0.014897358
192	0x3dbfbc54	0.093620926
193	0xbd42485c	-0.04743229
194	0xbd5834ce	-0.052784733
195	0x3c917c89	0.017759578
196	0x3d935d46	0.07195525
197	0xbd3bcf30	-0.045851886
198	0xbd3cd116	-0.046097837
199	0x3d5390ee	0.051651888
200	0xbcd5451f	-0.026033936
201	0x3ca6f34e	0.020379689
202	0xbcca50d5	-0.024696747
203	0x3c6a6d49	0.014308282
204	0xbd8297b0	-0.06376588
205	0x3d03a6fd	0.032141674
206	0xbc5c0dca	-0.013431022
207	0x3d143efc	0.03619288
208	0x3bb5bb76	0.0055460287
209	0x3de290dc	0.11062786
210	0xbb799789	-0.0038084707
211	0xbd992bae	-0.07479034
212	0x3c10e37a	0.008843297
213	0xbd62def5	-0.05538841
214	0x3d6e1e48	0.058134347
215	0xba9c0a80	-0.0011904985
216	0x3da957e0	0.08268714
217	0x3db7b564	0.089701444
218	0x3d7f9a67	0.06240311
219	0xbb56140f	-0.0032665764
220	0x3d99a857	0.075028114
221	0xbd0a38a8	-0.033745438
222	0x3c49e0ed	0.012321693
223	0x3c1826ea	0.009286622
224	0x3c90d7df	0.01768106
225	0x3dcb3d4a	0.09923799
226	0xbd8ed330	-0.069738746
227	0xbd5760a1	-0.052582387
228	0xbbb75bfb	-0.0055956817
229	0x3e2af2ef	0.16694234
230	0x3d015225	0.03157248
231	0x3bd84a7f	0.0066006775
232	0x3dbb5072	0.09146203
233	0x3d93bdb2	0.07213916
234	0x3d160a73	0.03663106
235	0xbcc97f28	-0.024596766
236	0xbcbdb921	-0.023159565
237	0x3d214886	0.039375804
238	0xbcd920be	-0.02650487
239	0x3cb280cd	0.021789933
240	0x3d01dde0	0.031705737
241	0x3cc55880	0.024090052
242	0x3bce8142	0.00630203
243	0x3dff7059	0.124726005
244	0xbbbea36d	-0.0058178217
245	0x3a243d7b	0.0006265265
246	0xbca9d05b	-0.020729234
247	0x3dc07e2f	0.093990676
248	0x3d0f5785	0.034995575
249	0x3e051afc	0.12998575
250	0x3c7a0935	0.015260984
251	0x3d2ec323	0.042666566
252	0xbcb2d408	-0.02182962
253	0xbce8719f	-0.028374491
254	0x3c93c025	0.018035958
255	0x3da11e2c	0.07867083

fc2.bias f4 [4]
0	0xbd8eb03c	-0.06967208
1	0x3e79de59	0.24401225
2	0xbea880a6	-0.3291065
3	0x3dd8c742	0.105848804
