src/flatland/flat_game/results/ourmethod_reg12/rep_learner.pth (torch_old, 312902 bytes, 33 tensors)

representations f4 [6]
0	0x3fa26333	1.2686523
1	0xbb3d63d9	-0.0028898625
2	0x3bcf9a24	0.0063355137
3	0x3a227b70	0.0006198203
4	0xbb59acf2	-0.0033214656
5	0xbaf4a385	-0.0018664455

representations f4 [6]
0	0xbfa1571c	-1.2604709
1	0xbc01009e	-0.007873682
2	0xbbc102a4	-0.0058902074
3	0xbb020a98	-0.001984274
4	0xbacacc55	-0.0015472273
5	0x3bb1dcfa	0.005427954

representations f4 [6]
0	0xba81dbec	-0.0009907461
1	0x3b20a138	0.0024510156
2	0x3ac60fce	0.0015110911
3	0xbab10970	-0.0013506841
4	0x3b4598b1	0.0030150826
5	0x3fa1c3f8	1.263793

representations f4 [6]
0	0x3bb277d5	0.005446414
1	0xbbeced69	-0.00723045
2	0x3b15a859	0.0022835939
3	0x39da72d0	0.00041665742
4	0xbad9b40d	-0.0016609445
5	0xbfa11094	-1.2583184

fc1.weight f4 [64, 4]
0	0xbf930c27	-1.1488084
1	0xbf2b2f9b	-0.66869515
2	0xbdc90c57	-0.09816807
3	0x3ff5b306	1.9195259
4	0xbef63f38	-0.48095107
5	0x40128876	2.289579
6	0xbf9e90fc	-1.2387996
7	0xbf5f5adc	-0.87248015
8	0x402ef8ab	2.7339275
9	0xbf14ec6c	-0.5817325
10	0xbcaf3175	-0.021385888
11	0x3d5b1a5d	0.05349194
12	0xbffcdbdf	-1.9754599
13	0x3f337ff1	0.701171
14	0x40074860	2.1137924
15	0xbe89142c	-0.26773202
16	0xbf8911f0	-1.0708599
17	0x404fd3f8	3.2473125
18	0x3e344834	0.17605668
19	0x3cf99eeb	0.030471286
20	0x3c718b86	0.014742738
21	0x3c9f7053	0.01946274
22	0xbc0ff6d5	-0.008786877
23	0x3dc1ab2a	0.09456475
24	0x3f692d90	0.9108515
25	0x3fdc5368	1.7212954
26	0xbfe326d8	-1.7746229
27	0x3ee9c99a	0.45661622
28	0xbfd9a899	-1.7004577
29	0xbf224a55	-0.6339467
30	0x3daadd6d	0.08343015
31	0x3f460f11	0.7736674
32	0x40335b2c	2.8024397
33	0x3fc3206c	1.5244269
34	0x3a381aa8	0.0007023015
35	0xbccaecbd	-0.024771089
36	0xbcfec55a	-0.031099964
37	0x3da1afa9	0.07894833
38	0x3e8fb097	0.28064415
39	0xbeb9dee9	-0.3630288
40	0x3f0c574e	0.54820716
41	0xbf27d408	-0.6555791
42	0x3fd8ef0b	1.694795
43	0x3efd97c5	0.49529853
44	0xc00573ab	-2.0851848
45	0x3e8da5a5	0.2766544
46	0x3e94a6ff	0.29033658
47	0xbffbf2df	-1.9683493
48	0xbea0e5aa	-0.3142522
49	0xbf46c694	-0.77646756
50	0x3f09abb2	0.5377761
51	0xbf4aae3e	-0.7917212
52	0x3e89f1cc	0.2694229
53	0xbf97f1ef	-1.1870707
54	0x3f6cabb6	0.9244951
55	0xbf80764e	-1.0036104
56	0x3cea1460	0.028574169
57	0x3e1d8a30	0.15384746
58	0xbea0d24c	-0.31410444
59	0xbe2648f0	-0.16238761
60	0xbfa86bc5	-1.3157889
61	0x3f135c8b	0.57563084
62	0xbee4e1f2	-0.44703633
63	0xc022ca23	-2.5435874
64	0xbe23e02c	-0.16003484
65	0x3d8b4df6	0.06801979
66	0x3efc0326	0.49221152
67	0x3ede3c67	0.43405458
68	0x40233da6	2.5506377
69	0x3df9fa87	0.122059874
70	0xbfc0721d	-1.5034825
71	0xbf406156	-0.7514852
72	0x3d7ad4a0	0.06123793
73	0xbf6536ed	-0.89536935
74	0x3ebe6b36	0.3719117
75	0xbf8902da	-1.0703995
76	0x40181839	2.3764784
77	0xbe688d31	-0.2271011
78	0x40233473	2.5500762
79	0xbe127a26	-0.14304408
80	0x3dd1be0f	0.10241329
81	0x40044fc0	2.0673676
82	0x3f4f583b	0.80994004
83	0xbfb8db2d	-1.4441887
84	0xbfdf71c3	-1.7456592
85	0x3fd9e0b3	1.7021698
86	0x3ea9022b	0.33009467
87	0x3c31f428	0.010861434
88	0xbcae99a0	-0.021313488
89	0x3d897518	0.06711787
90	0xbea2c178	-0.3178823
91	0x3d7d4bd0	0.06183988
92	0xbfe03875	-1.7517229
93	0x404ad776	3.1694007
94	0x3d89052b	0.06690439
95	0xbcfb34ed	-0.030664885
96	0xbffa3fb4	-1.9550691
97	0x3f918088	1.136735
98	0x3ea761a5	0.32691684
99	0x3fe68266	1.8008544
100	0xbf3a2b62	-0.72722447
101	0x3efa79da	0.4892109
102	0x3f9b0d16	1.2113369
103	0xbec9ab32	-0.39388424
104	0x3f73b338	0.9519534
105	0x4024c8f2	2.5747647
106	0xbf3b3bf0	-0.7313833
107	0x3fa5845b	1.2931017
108	0x3fbd3baa	1.4783833
109	0x3f1b16cf	0.6058168
110	0x3f8ff2fd	1.1246029
111	0xbe7c44bb	-0.24635594
112	0xbd35569d	-0.044272054
113	0xbda32011	-0.079651006
114	0xc064c737	-3.574659
115	0x404c4598	3.1917477
116	0x3e95954b	0.29215464
117	0x4027026c	2.6095228
118	0x3fdc587b	1.7214502
119	0xbfb6775d	-1.4255177
120	0x4000955b	2.009116
121	0xbf0db68a	-0.5535666
122	0x3d688068	0.056763083
123	0xbbc21bfa	-0.005923745
124	0xbe4136d2	-0.18868569
125	0xc00d099b	-2.2037113
126	0xbf8f1b23	-1.1180156
127	0x3fb8fae3	1.4451565
128	0xbf8ed68a	-1.1159222
129	0xbf20ae88	-0.62766314
130	0x3ef0c064	0.47021782
131	0xbf151f09	-0.5825048
132	0x3e118e62	0.14214471
133	0xbfa05acb	-1.2527708
134	0xbe9afa7b	-0.30269226
135	0xc0429da2	-3.0408711
136	0xbdfe891b	-0.124284945
137	0x3e2f26ea	0.17104688
138	0x3e96b76e	0.2943682
139	0x3c6a7a7d	0.01431143
140	0xbeafa2e0	-0.3430395
141	0xbf8e9314	-1.1138635
142	0x3f1fc862	0.62415135
143	0xbfb31b85	-1.3992773
144	0x40128f25	2.2899868
145	0xbf27e462	-0.6558286
146	0x3f47ccfa	0.78047144
147	0x3fefab68	1.8724184
148	0xbf8d376a	-1.1032536
149	0xbf92c6c5	-1.146691
150	0xc0328754	-2.7895098
151	0xbfa5a728	-1.2941637
152	0x4026471a	2.5980897
153	0x3f402f4d	0.75072175
154	0xbf18c1e6	-0.59670866
155	0x3fd29411	1.6451436
156	0xbeefbdf7	-0.4682462
157	0xbf20dfab	-0.6284129
158	0x3f2075e4	0.62679887
159	0x3ec87e09	0.39158657
160	0xbfcb1af8	-1.5867605
161	0x3ea9a1c6	0.33131236
162	0xbfedad56	-1.8568523
163	0x3fde7bcb	1.7381529
164	0x3e028eac	0.12749738
165	0xbe9f2a95	-0.31087175
166	0xc00c3e82	-2.1913152
167	0xc050f661	-3.2650378
168	0x3f91a4d6	1.1378429
169	0xbf4ba08e	-0.7954186
170	0xbf4063c6	-0.7515224
171	0x3f175ed9	0.591291
172	0xbf3f1fdd	-0.74657995
173	0xbec5bbd8	-0.38619876
174	0x3f79f03e	0.97632205
175	0xbf4f4c6b	-0.8097598
176	0xbe4d2f35	-0.2003754
177	0xbe57ff5b	-0.21093504
178	0xbe658a6a	-0.22416082
179	0xbe84df48	-0.259516
180	0xc00992a9	-2.1495764
181	0x3eb4c1f5	0.35304227
182	0xbff0b9a5	-1.8806654
183	0xbf847aa1	-1.0349923
184	0xbd38f04f	-0.04515105
185	0x3e15fe86	0.14647874
186	0x3f162fd6	0.5866674
187	0x3eaa2b7c	0.332363
188	0x3e3e5c78	0.18589962
189	0xbdb0b238	-0.086277425
190	0x3ebbdc3c	0.36691463
191	0x3e2ee3ed	0.17079134
192	0x3f843dd5	1.033137
193	0xbf7a1b9a	-0.97698367
194	0x3fb117cb	1.3835386
195	0xbe440e0d	-0.19145985
196	0xbee0dd06	-0.43918628
197	0xbf77617a	-0.9663311
198	0x3fe68efc	1.8012385
199	0x3f719673	0.9437019
200	0x3e019db6	0.12657818
201	0x3c9eb5a5	0.019373724
202	0x3d355942	0.044274576
203	0xbf25798d	-0.64638597
204	0x3fc5a31a	1.54404
205	0x3ed5de0f	0.4177098
206	0x3e91588c	0.28387868
207	0xc0280b26	-2.6256804
208	0xbebe69a2	-0.37189966
209	0xbf5a004b	-0.851567
210	0x3f475934	0.7787049
211	0x3ee56da6	0.44810218
212	0x3f74b85a	0.955938
213	0x400e8f9c	2.2275152
214	0x400f79d7	2.2418115
215	0x3f8db8dc	1.107204
216	0xbf0edd1f	-0.55806154
217	0x3db64899	0.08900566
218	0x3ba652b1	0.0050757756
219	0x404d1699	3.2045043
220	0x3ccb9043	0.024849063
221	0xbf88dd02	-1.0692446
222	0xbef61fed	-0.48071232
223	0xbe0e36dd	-0.13888116
224	0x3f5a7675	0.85337
225	0xbf44975d	-0.7679346
226	0x3ef23bc2	0.47311217
227	0x3f8a396d	1.0798775
228	0xbf44e6ce	-0.7691468
229	0x3d855c79	0.065117784
230	0x3fb93836	1.4470279
231	0x3f05ae6f	0.5221929
232	0x3b782d30	0.003786873
233	0xbe6e2c54	-0.23259097
234	0xbe10e4f5	-0.1414984
235	0x3e5c495e	0.21512362
236	0x3fb7f177	1.4370564
237	0xbfab9148	-1.3403711
238	0x3ea7450c	0.32669866
239	0xbfd27d3a	-1.6444466
240	0xbfcd7571	-1.6051465
241	0xbedd7b9e	-0.43258375
242	0xbf77ed60	-0.9684658
243	0x3f781e7a	0.96921504
244	0x3c10e04f	0.008842542
245	0xbb6ccc06	-0.003613235
246	0xc0329674	-2.790433
247	0xc037f005	-2.8740246
248	0x3f8a4aa4	1.0804029
249	0xbe3b6103	-0.18298726
250	0xbfc33ab0	-1.5252285
251	0xbe935356	-0.28774518
252	0x401fb498	2.4953976
253	0xbf24f775	-0.6444009
254	0x3cb4704d	0.022026205
255	0xbd6e0900	-0.05811405

fc1.bias f4 [64]
0	0x3f03cbd2	0.5148288
1	0x3e0adc71	0.13560654
2	0x3e8b89f0	0.27253675
3	0x3ed21419	0.41030958
4	0xbf225863	-0.6341612
5	0x3e1f8859	0.15579356
6	0x3eb50731	0.3535705
7	0x3f34be31	0.7060271
8	0xbf656f83	-0.8962328
9	0xbef71697	-0.48259422
10	0x3f09d115	0.5383466
11	0x3f283f16	0.6572126
12	0x3eca2f6e	0.3948931
13	0x3f981455	1.1881205
14	0xbef78464	-0.48343194
15	0xbd6761a5	-0.056489605
16	0x3eecd4e6	0.4625618
17	0xbed7eae7	-0.42171404
18	0x3f03dc78	0.51508284
19	0xbe182f55	-0.14861806
20	0xbe4ebb49	-0.20188631
21	0x3e5db267	0.21650086
22	0xbeb4ba18	-0.35298228
23	0xbe0c27b4	-0.1368702
24	0x3d2c1bbe	0.042018645
25	0x3ea64b70	0.3247943
26	0xbea681ae	-0.32520813
27	0x3ec31e62	0.38109118
28	0xbfb3e60f	-1.4054583
29	0x3edf2ed4	0.43590415
30	0x3e281008	0.16412365
31	0x3f68376a	0.90709555
32	0x3ef0ef1c	0.47057426
33	0x3eeb5ce8	0.4596932
34	0x3e98412f	0.2973723
35	0x3f0b32bf	0.5437431
36	0xbeda9bb3	-0.42696914
37	0x3c8ed083	0.01743341
38	0x3d9c918f	0.076449506
39	0x3ed53068	0.41638494
40	0x3e6ff137	0.2343186
41	0x3d7ea62a	0.062170185
42	0x3eaae66d	0.33378926
43	0x3eae0070	0.3398471
44	0x3eaadecf	0.33373114
45	0x3f22a28d	0.6352928
46	0x3efab887	0.48968908
47	0xbf10dda8	-0.5658822
48	0x3f0a37f2	0.53991616
49	0x3f9124be	1.1339338
50	0x3ebbc29f	0.36671922
51	0x3e877ff0	0.26464796
52	0x3f31396b	0.6922824
53	0x3e508efd	0.20367046
54	0x3f0b4417	0.5440077
55	0x3f32ff57	0.6992087
56	0x3ee0d2e9	0.43910912
57	0x3ee64969	0.44977883
58	0xbefdf227	-0.4959881
59	0x3f08d3e1	0.534483
60	0x3f5cd254	0.86258435
61	0xbe7d0194	-0.24707633
62	0x3eb735e4	0.35783303
63	0x3e5d300c	0.2160036

fc2.weight f4 [180, 64]
0	0x3eb0c06a	0.345218
1	0x3f89e6f8	1.0773611
2	0x3de00a73	0.10939493
3	0x3e9f9339	0.3116701
4	0x3f0c6065	0.54834586
5	0x3ee2af97	0.4427459
6	0x3f2bbc8b	0.6708457
7	0x3ef7cd90	0.4839902
8	0x3f8e324c	1.1109099
9	0x3e8ce33a	0.2751711
10	0x3f220c03	0.6329958
11	0x3f27a06b	0.65479153
12	0x3e91d34e	0.28481525
13	0x3fb4a5f2	1.4113142
14	0x3c737e40	0.014861643
15	0x3f178971	0.59194094
16	0x3f121976	0.570701
17	0x3edd78b2	0.43256146
18	0x3f11ca41	0.5694924
19	0x3f37fe09	0.71872
20	0x3f84b094	1.0366387
21	0x3f3ba762	0.7330228
22	0xbd8a2244	-0.06744817
23	0x3e9dd51b	0.3082665
24	0x3cc4519b	0.023964694
25	0x3ef73b6f	0.48287532
26	0x3e47674c	0.19472998
27	0x3e995bf7	0.29952976
28	0xbe4d982c	-0.2007758
29	0x3ec19062	0.37805468
30	0x3ec831f8	0.39100623
31	0x3f560510	0.83601475
32	0x3e870a30	0.2637496
33	0x3f7e319f	0.99294466
34	0x3edc7b8a	0.43063003
35	0x3f005e7c	0.5014417
36	0x3f97686c	1.1828742
37	0x3e4d331b	0.20039026
38	0x3f98f34b	1.1949247
39	0x3ead76e2	0.33879763
40	0x3de6bda4	0.1126664
41	0x3f40912c	0.75221515
42	0x3ef5beac	0.47997034
43	0x3ebf9ecb	0.37425837
44	0x3ede00d2	0.4336
45	0x3f4bb412	0.7957164
46	0x3ee73c72	0.45163304
47	0x3d935f9f	0.07195973
48	0x3f026478	0.50934553
49	0x3eb1a8a8	0.34698987
50	0x3ef7b96f	0.48383662
51	0x3f4b53e2	0.7942487
52	0x3eca57c5	0.39520088
53	0xbf25b145	-0.64723617
54	0xbe61ebe4	-0.22062641
55	0x3eede4e3	0.4646369
56	0x3fb4a549	1.4112941
57	0x3eea7bdf	0.4579763
58	0x3c057f47	0.008148021
59	0x3f4a4269	0.79007584
60	0x3e5f19b6	0.21787152
61	0x400cdf31	2.2011225
62	0x3ec42077	0.3830602
63	0xbe484116	-0.19556078
64	0xbd24168e	-0.040060572
65	0x3d9bcf2b	0.076078735
66	0x3f428bc1	0.759945
67	0x3e4f8cd9	0.20268573
68	0xbed3b215	-0.41346803
69	0x3c3ddc4f	0.01158817
70	0xbd687675	-0.056753594
71	0x3e30514d	0.17218514
72	0xbfe3348d	-1.7750412
73	0x3e345db9	0.17613877
74	0xbeb81513	-0.35953578
75	0x3ed902d2	0.42384964
76	0xbd261c83	-0.040554535
77	0xbf873bd7	-1.0565137
78	0x3d14b4b0	0.03630513
79	0x3e515ef0	0.20446372
80	0x3df6fa40	0.1205945
81	0xbe940750	-0.2891183
82	0xbe980099	-0.29687956
83	0x3e419887	0.18905841
84	0xbd18c9fc	-0.037302002
85	0xbc966f48	-0.01836361
86	0xbdd34ae6	-0.1031702
87	0xbefe9eed	-0.49730626
88	0xbe9e03ed	-0.3086237
89	0x3e2a786a	0.16647497
90	0xbdc7d71c	-0.09757826
91	0x3ed83b59	0.4223278
92	0x3f1c3827	0.6102318
93	0x3db0ebd5	0.086387314
94	0x3f0e322d	0.5554531
95	0x3f5f71ac	0.87282825
96	0xbe89a7fe	-0.2688598
97	0xbe96ebd1	-0.2947679
98	0x3d9d5e07	0.0768395
99	0xbe34cd5c	-0.17656463
100	0x3f90a6a3	1.1300853
101	0x3dad1740	0.084517
102	0xbf42b8d1	-0.7606326
103	0xbe5108d3	-0.20413522
104	0x3dcb6760	0.099318266
105	0xbe2cba9b	-0.1686806
106	0xbe521081	-0.20514108
107	0xbdb8afdb	-0.09017917
108	0xbd376e72	-0.044783063
109	0xbe171108	-0.1475259
110	0x3db7306e	0.08944784
111	0x3df9225b	0.12164756
112	0xbe03eb12	-0.12882641
113	0xbf3cd328	-0.737597
114	0xbd5cb9c4	-0.053888097
115	0x3f1dbb43	0.61613864
116	0xbe5f7066	-0.2182022
117	0x3f89a81c	1.0754428
118	0x3f07467a	0.52841914
119	0x3c8b85fd	0.017031664
120	0xbef88aa1	-0.48543265
121	0xbddc30eb	-0.10751518
122	0x3d8b4b2e	0.06801449
123	0x3d1ec7c2	0.038764723
124	0x3d0f9f1a	0.03506384
125	0xbe1c65df	-0.15273236
126	0x3d96da66	0.07365875
127	0x3d391c21	0.04519284
128	0xbe0a5c99	-0.13511886
129	0x3ee3952d	0.4444975
130	0xbf1d4216	-0.61428964
131	0xbf1dd87b	-0.6165845
132	0x3de79562	0.113077894
133	0xbc7fda2c	-0.015615981
134	0x3f25882f	0.64660925
135	0xbe8b1472	-0.27164036
136	0xbfd7fc59	-1.6873885
137	0x3c594284	0.0132604875
138	0x3e07eda3	0.13274245
139	0xbeafdb68	-0.3434708
140	0xbe79be61	-0.2438903
141	0xbf274222	-0.65335286
142	0xbd017940	-0.031609774
143	0xbca0d0f6	-0.01963089
144	0xbe4bd207	-0.19904338
145	0x3f866637	1.0499943
146	0xbef489ad	-0.47761288
147	0x3d80770c	0.062727064
148	0x3d93958f	0.072062604
149	0xbe1b3144	-0.15155512
150	0x3dd0943e	0.10184525
151	0x3cd435e0	0.025904596
152	0x3daeae94	0.08529392
153	0xbebd1015	-0.36926332
154	0x3ef20862	0.4727202
155	0xbe387bc4	-0.18015963
156	0x3ee800d5	0.45313135
157	0x3f2a32d8	0.6648383
158	0xbe994979	-0.29938868
159	0xbcf63924	-0.030056544
160	0xbeea2f49	-0.457392
161	0xbd48f9e5	-0.049066443
162	0xbe2b4409	-0.16725172
163	0xbf006339	-0.501514
164	0x3f5ddea6	0.8666786
165	0xbec3a462	-0.38211352
166	0x3e9ce37f	0.30642316
167	0xbe72676a	-0.23672262
168	0x3e0bf11e	0.13666198
169	0x3e363df0	0.17797065
170	0x3e45b045	0.19305523
171	0x3d93a224	0.0720866
172	0xbd82f3db	-0.06394168
173	0xbbe025af	-0.0068404297
174	0xbda61ede	-0.08111356
175	0x3e01bacc	0.12668914
176	0xbcb6e121	-0.022324147
177	0x3c89ddd9	0.016829418
178	0x3da985a7	0.08277445
179	0x3fcfa901	1.6223451
180	0xbed4ef7a	-0.41588956
181	0xbf9699f7	-1.1765736
182	0x3e867b37	0.2626588
183	0xbe8205cb	-0.25395045
184	0x3f28d30a	0.6594702
185	0xbde27823	-0.110580705
186	0xbd5ced82	-0.053937443
187	0xbdf597ce	-0.11991845
188	0xbe09acdf	-0.13444851
189	0x3f84c9f3	1.037413
190	0x3e8b4a4d	0.27205124
191	0xbf5869ca	-0.8453642
192	0x3d78f159	0.060777042
193	0xbdab7b73	-0.083731554
194	0x3da83bec	0.08214554
195	0xbdf7a06d	-0.12091146
196	0xbd7174b8	-0.058949202
197	0xbdfa1293	-0.12210574
198	0xbd467b70	-0.048457563
199	0xbdbd0918	-0.0923025
200	0x3d55a38d	0.052157927
201	0xbdf36b80	-0.118857384
202	0x3dc5a663	0.096508764
203	0x3d9e9fd0	0.077453256
204	0x3d9e10c7	0.07718044
205	0x3dbdae62	0.092617765
206	0x3cb2e430	0.021837324
207	0xbdfb6f0b	-0.12277039
208	0xbd5b91fc	-0.05360602
209	0xbb861760	-0.004092142
210	0xbdf93be3	-0.121696256
211	0xbd84725d	-0.064671256
212	0xbd9169cb	-0.071002565
213	0xbdcfe85f	-0.10151743
214	0x3cb853c8	0.022500888
215	0x3da378b8	0.0798201
216	0xbd2c1c40	-0.04201913
217	0x3d5fc88a	0.05463461
218	0xbdf8414f	-0.121218316
219	0xbe107185	-0.14105804
220	0xbdd2ad26	-0.10286932
221	0xbc9afc08	-0.018919006
222	0xbd695ccb	-0.05697326
223	0xbdb31fd6	-0.087463066
224	0xbc22c039	-0.009933525
225	0xbd6baf80	-0.057540417
226	0xbe078d14	-0.13237411
227	0xbd1ff3a7	-0.039050724
228	0xbd0805af	-0.033208545
229	0xbd680da8	-0.05665365
230	0x3c874ef5	0.016517142
231	0x3da619f6	0.081104204
232	0xbd3bf4be	-0.0458877
233	0x3bc907ee	0.0061349785
234	0xbe1e3c8f	-0.15452789
235	0x3dc0b553	0.09409585
236	0xbd3564d2	-0.044285603
237	0xbe33f94c	-0.17575568
238	0xbc94531a	-0.018106032
239	0xbd3932e9	-0.045214567
240	0x3d16ceb7	0.036818232
241	0x3d977cb9	0.07396836
242	0xbdc9ba9f	-0.09850048
243	0xbd436eab	-0.047712963
244	0xbd001884	-0.03127338
245	0x3d9b8db4	0.07595387
246	0xbc0791ac	-0.008274477
247	0xbdb4de88	-0.08831507
248	0xbbaf2216	-0.0053446395
249	0xbdba56e5	-0.09098605
250	0x3d5d3986	0.054009937
251	0xbcb57df1	-0.02215478
252	0x3d30b644	0.043142572
253	0x3d37f76c	0.044913694
254	0xbd89c7ad	-0.06727538
255	0x3d0be610	0.03415495

fc2.bias f4 [180]
0	0x3f166adc	0.58756804
1	0x3d408478	0.047001332
2	0x3e0187e7	0.12649499
3	0xbcb99fe0	-0.022659242
4	0x3d13c3e4	0.036075488
5	0xbdcc6837	-0.09980815
6	0x3e5cdf47	0.21569549
7	0x3d1e5146	0.038651727
8	0xbe210cb7	-0.15727507
9	0xbe2f95c6	-0.17146978
10	0xbe42d26f	-0.19025587
11	0x3d3fc783	0.04682113
12	0xbd03db69	-0.032191668
13	0xbd937219	-0.07199497
14	0xbc41b571	-0.011823044
15	0xbdb1900a	-0.086700514
16	0xbdd439a9	-0.1036256
17	0x3cad0f79	0.021125542
18	0x3ec925fd	0.39286795
19	0xbdf9262d	-0.121654846
20	0xbe1392c0	-0.1441145
21	0xbd4748de	-0.048653476
22	0xbd720cd3	-0.05909426
23	0xbe00205b	-0.12512343
24	0xbe23c7e8	-0.15994227
25	0xbe2b9110	-0.16754556
26	0xbdeef27a	-0.116673425
27	0xbe10008b	-0.14062707
28	0xbdcad5be	-0.09904049
29	0x3ce68564	0.028139777
30	0x3ef8134f	0.4845223
31	0xbd9823a1	-0.07428671
32	0xbde383bd	-0.111091115
33	0xbd388e0f	-0.045057353
34	0xbdb92e35	-0.090420164
35	0xbe3509d1	-0.17679526
36	0x3cc598a8	0.024120644
37	0x3e5148c5	0.20437916
38	0x3ee0460c	0.43803442
39	0x3f059951	0.5218707
40	0xbe400c99	-0.18754806
41	0x3e28b0d9	0.16473712
42	0x3e953867	0.29144594
43	0x3f0ccdf6	0.5500177
44	0xbc5b4d07	-0.013385064
45	0xbdfd8942	-0.123796955
46	0x3d4aad80	0.04948187
47	0x3e5ce2ec	0.21570939
48	0x3d88c124	0.06677464
49	0xbe13cac1	-0.14432813
50	0xbe245cfc	-0.16051096
51	0xbe554a5c	-0.20829147
52	0xbe1922c6	-0.14954671
53	0x3f0ef18b	0.55837315
54	0x3d529eca	0.051420964
55	0x3cf32c3f	0.029684184
56	0xbe3a3f96	-0.18188319
57	0xbe2f476c	-0.17117089
58	0xbe2dd9f3	-0.16977672
59	0xbddd65de	-0.10810445
60	0x3eb969a4	0.3621341
61	0xbd27e078	-0.040985554
62	0x3af9b88b	0.001905219
63	0xbe426b3f	-0.18986224
64	0xbd81681f	-0.06318688
65	0x3daf9238	0.08572811
66	0x3e8871b6	0.26649255
67	0xbd060919	-0.03272352
68	0x3e003a54	0.1252225
69	0xbcaad0d8	-0.020851538
70	0x3d3edec4	0.046599165
71	0x3e954b17	0.29158852
72	0x3d49fdb3	0.049314212
73	0x3ea137c1	0.3148785
74	0x3e03604f	0.12829708
75	0x3e36d3b4	0.17854196
76	0x3e73ff25	0.23827799
77	0x3e3d3f45	0.18481167
78	0x3ed79466	0.42105407
79	0x3dfa68fa	0.12227054
80	0xbe4c91d7	-0.19977508
81	0xbe306b57	-0.17228447
82	0x3ce723fc	0.0282154
83	0x3ec183d3	0.37795886
84	0xbe4201ea	-0.18946043
85	0xbd1e8ff5	-0.038711507
86	0xbd7ecced	-0.06220715
87	0x3c22151c	0.009892728
88	0xbe06b9f2	-0.1315687
89	0x3e914034	0.28369296
90	0x3dab372b	0.08360132
91	0x3e42d676	0.19027123
92	0xbd96d2ce	-0.073644266
93	0xbdedba76	-0.1160783
94	0xbe358cba	-0.17729464
95	0x3ebab710	0.3646779
96	0x3e3f9c65	0.18712004
97	0x3cc4c6cf	0.02402058
98	0xbe07cc89	-0.13261618
99	0xbe4c73aa	-0.19965997
100	0xbd0719e9	-0.032983694
101	0x3e86239c	0.26199043
102	0x3eb61e81	0.35570148
103	0x3ef69393	0.48159465
104	0x3ed79bc6	0.42111033
105	0x3e8509bd	0.25983992
106	0x3d3e3896	0.046440683
107	0x3e5ad7e9	0.21371426
108	0x3df13437	0.11777537
109	0xbe78fbc2	-0.24314788
110	0x3edd3431	0.4320388
111	0x3f04f39a	0.51934206
112	0xbd7a0212	-0.06103713
113	0xbe0e42b8	-0.13892639
114	0x3cdcd36b	0.02695628
115	0xbcb50d3e	-0.02210104
116	0x3c9cf592	0.019160066
117	0xbde08068	-0.109619915
118	0x3e6e5fde	0.23278758
119	0x3db63b55	0.088980354
120	0xbe33d9dc	-0.17563576
121	0xbcd472c8	-0.025933638
122	0xbbef8a24	-0.007310169
123	0xbd9f3e47	-0.0777555
124	0xbd156ded	-0.036481787
125	0xbdd2d273	-0.10294046
126	0xbe0ae368	-0.13563311
127	0xbe46e57c	-0.19423479
128	0xbdc9c723	-0.098524354
129	0xbdc3e7fa	-0.095657304
130	0x3c0ac0a8	0.008468784
131	0xbd2dac5e	-0.04240071
132	0xbc200514	-0.009766836
133	0xbdbb3668	-0.091412365
134	0xbb3e6f3d	-0.0029058002
135	0xbd067623	-0.032827508
136	0x3cb68289	0.02227904
137	0xbe327bba	-0.1743001
138	0x3c96dded	0.01841637
139	0x3db67021	0.08908106
140	0x3e27648b	0.16346948
141	0xbda74f46	-0.08169417
142	0x3e99968d	0.29997674
143	0x3ef6c223	0.4819499
144	0xbe04c012	-0.12963894
145	0xbd78256c	-0.060582563
146	0x3ec319da	0.3810566
147	0x3e91b69b	0.2845963
148	0x3e65936b	0.22419517
149	0x3f0bc512	0.5459758
150	0x3dfbf4be	0.1230254
151	0x3e90b760	0.28264904
152	0xbd61c39d	-0.055118192
153	0x3cad563b	0.021159282
154	0x3ce239a3	0.027615374
155	0x3efb857f	0.49125287
156	0x3b80d98f	0.003932185
157	0x3c031126	0.007999694
158	0xbe5ddcbb	-0.21666233
159	0xbe19a2c9	-0.15003504
160	0x3d3f3632	0.046682544
161	0x3e144cab	0.14482372
162	0x3e1930ee	0.14960071
163	0xbf024ed0	-0.5090151
164	0xbdd51a5d	-0.10405419
165	0xbd150db9	-0.03639004
166	0xbdccd9bb	-0.10002466
167	0xbd900f49	-0.070341654
168	0x3dee6049	0.11639459
169	0xbd27f4b8	-0.041004866
170	0xbcda25a1	-0.026629271
171	0xbe08611f	-0.13318299
172	0xbe0ba294	-0.13636237
173	0xbe01eac9	-0.1268722
174	0xbda34c8b	-0.07973584
175	0xbc9b39f8	-0.01894854
176	0xbdae028b	-0.08496579
177	0xbe4aaa8f	-0.19791625
178	0xbcf38a3f	-0.029729007
179	0xbdc401c4	-0.09570649

conv.weight f4 [5, 1, 34, 34]
0	0xbea86e8f	-0.3289685
1	0xbeb49639	-0.3527086
2	0xbeb19ce7	-0.3469002
3	0xbebf852c	-0.3740629
4	0xbeaf97a1	-0.3429537
5	0xbeb5a5d6	-0.35478085
6	0xbec60aa8	-0.38680005
7	0xbed0a6ae	-0.40752167
8	0xbede93c6	-0.43472117
9	0xbed14fd3	-0.40881214
10	0xbf2797f6	-0.6546625
11	0xbf26768c	-0.6502464
12	0xbf345986	-0.704491
13	0xbf1f9cae	-0.6234845
14	0xbee9fa58	-0.4569881
15	0xbf0b01fb	-0.54299897
16	0xbf1e601e	-0.61865413
17	0xbf04e33a	-0.5190922
18	0xbf05c945	-0.5226024
19	0xbeecdcab	-0.46262106
20	0xbf1864da	-0.5952889
21	0xbf017d05	-0.5058139
22	0xbf16c9f9	-0.58901936
23	0xbed6e610	-0.419724
24	0xbea13235	-0.31483617
25	0xbe89a1cc	-0.26881254
26	0xbe752739	-0.23940744
27	0xbe760ed0	-0.24029088
28	0xbcbae030	-0.022811979
29	0x3d1ee597	0.038793173
30	0xbcff512c	-0.031166635
31	0xbdea560e	-0.11442195
32	0xbddc3c1b	-0.10753652
33	0xbe6ba921	-0.23013736
34	0xbea5670b	-0.32305178
35	0xbeb5f19b	-0.35535893
36	0xbecfc511	-0.40580037
37	0xbec708cf	-0.38873908
38	0xbeb4c701	-0.35308078
39	0xbebabbde	-0.36471456
40	0xbebf7a40	-0.37397957
41	0xbec4d8c8	-0.3844664
42	0xbee8aaf1	-0.45442918
43	0xbeec6362	-0.46169573
44	0xbf2154b9	-0.630199
45	0xbf1e7d05	-0.61909515
46	0xbf38e7d9	-0.7222877
47	0xbf30ae33	-0.69015807
48	0xbf05935e	-0.5217799
49	0xbf08f9fa	-0.53506434
50	0xbf136971	-0.57582766
51	0xbf1b72fb	-0.6072232
52	0xbf18a2e9	-0.5962358
53	0xbf0276dc	-0.50962615
54	0xbf0f58e6	-0.55995023
55	0xbecc4ad9	-0.39900854
56	0xbece01cd	-0.4023575
57	0xbebbe289	-0.3669627
58	0xbeae08c2	-0.33991057
59	0xbec64118	-0.38721538
60	0xbe6501be	-0.22363946
61	0xbe2581f0	-0.16162848
62	0xbcfe941b	-0.031076482
63	0x3c5d236d	0.013497216
64	0xbd920cb8	-0.07131332
65	0xbe3b1610	-0.18270135
66	0xbe8a8860	-0.2705717
67	0xbe079171	-0.13239075
68	0xbeaa1e55	-0.33226267
69	0xbec33ca7	-0.38132212
70	0xbecb3db8	-0.39695525
71	0xbecfd6df	-0.4059362
72	0xbeb8ab8a	-0.36068374
73	0xbec898e8	-0.39179158
74	0xbed23c15	-0.41061464
75	0xbee94c31	-0.45565942
76	0xbee7a94d	-0.45246354
77	0xbee4c31c	-0.44680107
78	0xbf302a45	-0.688145
79	0xbf363e44	-0.7118876
80	0xbf3e4710	-0.7432718
81	0xbf407544	-0.75178933
82	0xbf162466	-0.5864929
83	0xbf1cdc42	-0.61273587
84	0xbf287389	-0.6580129
85	0xbf372ea5	-0.7155555
86	0xbf136b57	-0.5758566
87	0xbf0c0946	-0.5470165
88	0xbf0684f0	-0.52546597
89	0xbf3789fe	-0.71694934
90	0xbefeb615	-0.49748293
91	0xbefb59b9	-0.4909189
92	0xbec702ac	-0.38869226
93	0xbe9ca9f3	-0.3059841
94	0xbe876d26	-0.2645046
95	0xbe53c21d	-0.20679517
96	0xbdf5939f	-0.11991047
97	0xbdc8f57a	-0.09812446
98	0xbe00a118	-0.12561452
99	0xbe9079a5	-0.28217807
100	0xbda5e8d5	-0.0810105
101	0xbdd1f3b1	-0.102515586
102	0xbec10834	-0.3770157
103	0xbecc3526	-0.398843
104	0xbed2846b	-0.41116652
105	0xbeeb4dad	-0.459577
106	0xbecb5b0f	-0.3971791
107	0xbed4c4d0	-0.41556406
108	0xbed26ccb	-0.41098627
109	0xbef809f1	-0.48445085
110	0xbef9b9d4	-0.48774588
111	0xbeeed7de	-0.4664907
112	0xbf3d9108	-0.74049425
113	0xbf45a00c	-0.7719734
114	0xbf35f591	-0.7107783
115	0xbf4e2db3	-0.8053848
116	0xbf25d9d8	-0.6478553
117	0xbf1ce20b	-0.61282414
118	0xbf1bcdbd	-0.60860807
119	0xbf3b99e0	-0.7328167
120	0xbf19e5df	-0.6011638
121	0xbf0c3bd8	-0.54778814
122	0xbf24dd33	-0.64400023
123	0xbf25e0b2	-0.6479598
124	0xbf05f369	-0.5232454
125	0xbf224f3b	-0.63402146
126	0xbf0d602f	-0.5522489
127	0xbef83d6e	-0.48484367
128	0xbec728d6	-0.38898343
129	0xbe77e127	-0.24206983
130	0xbe02a1f9	-0.127571
131	0xbe275225	-0.1633993
132	0xbe9ad3cf	-0.30239722
133	0xbe90ace7	-0.28256914
134	0xbebd8a11	-0.370194
135	0xbea625d9	-0.3245075
136	0xbec857a6	-0.3912937
137	0xbec51229	-0.38490418
138	0xbed6e5a5	-0.4197208
139	0xbeee558e	-0.46549648
140	0xbec2a563	-0.38016805
141	0xbeba5ebb	-0.364004
142	0xbec0fd59	-0.3769329
143	0xbed7090c	-0.4199909
144	0xbef57903	-0.47943887
145	0xbeed357f	-0.46329877
146	0xbf50711f	-0.8142261
147	0xbf622c05	-0.8834842
148	0xbf6239eb	-0.88369626
149	0xbf6ab509	-0.9168249
150	0xbf22f9b6	-0.6366228
151	0xbf0ba28c	-0.545449
152	0xbf0ee0e2	-0.55811894
153	0xbf23cdf8	-0.6398616
154	0xbf4098c7	-0.7523312
155	0xbf021a44	-0.5082133
156	0xbf06021b	-0.5234696
157	0xbf056ea9	-0.5212198
158	0xbed9b880	-0.42523575
159	0xbf01bd3f	-0.5067939
160	0xbe9342c6	-0.28761882
161	0xbec4b8a5	-0.38422123
162	0xbe8bd8f2	-0.27313954
163	0xbe6d2c73	-0.23161487
164	0xbe2454e8	-0.16048014
165	0xbd345a05	-0.04403116
166	0xbd92b2fe	-0.07163046
167	0xbbcd7d7c	-0.0062710624
168	0x3d7a5c0b	0.061122935
169	0x3d2fabab	0.042888325
170	0xbec0a287	-0.37624
171	0xbec93f41	-0.3930607
172	0xbedf4cb3	-0.43613204
173	0xbed9ebea	-0.425628
174	0xbebb919e	-0.36634535
175	0xbec51c08	-0.3849795
176	0xbecaf86e	-0.39642662
177	0xbee14e76	-0.44005173
178	0xbf025164	-0.5090544
179	0xbeec2015	-0.46118227
180	0xbf46b55d	-0.7762049
181	0xbf53431b	-0.8252427
182	0xbf67fe79	-0.9062267
183	0xbf653f59	-0.89549786
184	0xbf16c18c	-0.5888908
185	0xbf0e068d	-0.55478746
186	0xbf2fbadc	-0.686445
187	0xbf3b81fa	-0.73245203
188	0xbf407134	-0.75172734
189	0xbf21dd9d	-0.6322878
190	0xbf15bd81	-0.58492285
191	0xbee6f809	-0.4511111
192	0xbee7ac25	-0.45248523
193	0xbeb31a17	-0.34980842
194	0xbebb7641	-0.36613658
195	0xbee86bd5	-0.4539477
196	0xbe932c66	-0.2874481
197	0xbe6f6100	-0.23376846
198	0xbe07416a	-0.13208547
199	0xbe6158ac	-0.22006482
200	0xbddc261f	-0.107494585
201	0xbe413d35	-0.18871005
202	0x3bc076fa	0.005873558
203	0x3e012acc	0.12613982
204	0xbec85e45	-0.39134422
205	0xbed01955	-0.40644327
206	0xbee12768	-0.43975377
207	0xbee35085	-0.4439737
208	0xbed01b29	-0.40645722
209	0xbecf1a89	-0.40449932
210	0xbec73ad4	-0.3891207
211	0xbee7a3e4	-0.45242226
212	0xbf0120b8	-0.5044055
213	0xbefc8880	-0.4932289
214	0xbf55cfd0	-0.8352022
215	0xbf5b07e0	-0.8555889
216	0xbf67aea7	-0.90500873
217	0xbf675436	-0.9036287
218	0xbf3fbce0	-0.74897575
219	0xbf2ca129	-0.6743341
220	0xbf24e7b0	-0.6441603
221	0xbf488142	-0.7832223
222	0xbf3d60d3	-0.7397587
223	0xbf405c09	-0.75140435
224	0xbf487864	-0.783087
225	0xbf416beb	-0.75555295
226	0xbf26e058	-0.6518607
227	0xbef036cc	-0.46916807
228	0xbf00b62a	-0.5027796
229	0xbe860a2f	-0.26179644
230	0xbe6133c0	-0.21992397
231	0xbe254749	-0.16140474
232	0xbe2dd633	-0.16976242
233	0xbe59ab8a	-0.21256843
234	0xbe5cdb68	-0.21568072
235	0xbde36d66	-0.111048505
236	0x3c951a33	0.01820097
237	0x3d181a17	0.037134256
238	0xbeca049c	-0.39456642
239	0xbed0d9b8	-0.40791106
240	0xbef12b2e	-0.47103256
241	0xbee8ff20	-0.45507145
242	0xbed77324	-0.42080033
243	0xbee0d126	-0.43909568
244	0xbefde933	-0.4959198
245	0xbeeb1b1c	-0.4591912
246	0xbf02a9ee	-0.5104054
247	0xbf024adb	-0.5089547
248	0xbf76a0d3	-0.9633915
249	0xbf5c548e	-0.8606652
250	0xbf8ef07d	-1.1167141
251	0xbf88e606	-1.0695198
252	0xbf36329a	-0.7117096
253	0xbf49ec63	-0.7887632
254	0xbf600da9	-0.87520844
255	0xbf5f02af	-0.8711347

conv.weight f4 [5, 1, 10, 10]
0	0x3e065ed4	0.13122112
1	0xbe3f666d	-0.18691416
2	0xbe0e2d77	-0.13884531
3	0xbe43bda4	-0.19115311
4	0xbdbeef7c	-0.09323022
5	0xbe18e742	-0.14931968
6	0xbddf2329	-0.10895378
7	0xbdfaaec9	-0.12240369
8	0xbdf86b7a	-0.121298745
9	0xbdf298b9	-0.11845536
10	0x3e3629ef	0.17789434
11	0x3d81c146	0.06335692
12	0xbe7799cb	-0.24179761
13	0xbe555599	-0.20833434
14	0xbe301765	-0.17196424
15	0xbe4646d8	-0.19362962
16	0xbe004a2e	-0.12528297
17	0xbe0da36d	-0.13831873
18	0xbd5168b8	-0.05112526
19	0xbd9e12b8	-0.07718414
20	0x3e0011c1	0.12506773
21	0x3ded15b5	0.11576406
22	0x3e457665	0.19283445
23	0xbd544e24	-0.051832333
24	0xbcb8e4e5	-0.022570083
25	0xbe126587	-0.14296542
26	0xbe4d00e9	-0.20019878
27	0x3c023130	0.0079462975
28	0xbd2b933a	-0.041888453
29	0x3c0aa684	0.008462552
30	0x3e06be57	0.13158546
31	0x3e07a470	0.13246322
32	0x3c2c4060	0.010513395
33	0xbe191335	-0.14948733
34	0xbd86b032	-0.06576575
35	0xbdc953f9	-0.0983047
36	0xbaf93076	-0.0019011635
37	0xbd8c07d2	-0.06837429
38	0xbd93a530	-0.072092414
39	0xbe098939	-0.13431253
40	0x3e15f2bc	0.14643377
41	0x3d95eb20	0.07320237
42	0x3d5359f1	0.051599447
43	0xbe05ab40	-0.13053608
44	0xbde3ff94	-0.11132732
45	0xbe0d11ce	-0.13776323
46	0xbddb4531	-0.107065566
47	0x3ae4656d	0.0017425247
48	0xbdcf69c3	-0.10127594
49	0x3cdc6795	0.02690486
50	0x3e47b099	0.1950096
51	0x3dbb1c6e	0.09136282
52	0x3e2e4e49	0.17022051
53	0xbe16f946	-0.14743528
54	0xbe140031	-0.14453198
55	0xbe386b4e	-0.18009683
56	0xbdc7a297	-0.097478084
57	0xbdaab9e1	-0.08336235
58	0x3b39efd1	0.0028371701
59	0x3d0608ef	0.032723363
60	0x3e203a61	0.1564727
61	0x3e2c27e4	0.16812092
62	0x3e0bca82	0.1365147
63	0x3dae634d	0.08515034
64	0xbe35f501	-0.17769243
65	0xbdd03e00	-0.101680756
66	0xbc8c24d5	-0.017107407
67	0xbc8c339a	-0.01711445
68	0xbde2a315	-0.11066262
69	0xbdd383f1	-0.103279
70	0x3e6dfdfa	0.23241416
71	0x3e74f575	0.2392176
72	0x3d9da0c4	0.07696679
73	0xbcde10a0	-0.027107537
74	0xbe38461c	-0.17995495
75	0xbe31afdd	-0.17352243
76	0xbe445aef	-0.19175313
77	0xbd876e3d	-0.06612823
78	0x3ca0b15f	0.019615827
79	0x3d2dcf74	0.04243417
80	0x3e3d2cd3	0.1847413
81	0x3e744269	0.23853458
82	0x3e38aba5	0.18034227
83	0x3dc8d6eb	0.09806617
84	0xbdc09292	-0.09402956
85	0xbd6b7bd9	-0.057491157
86	0xbe66c0ee	-0.22534534
87	0xbe138b20	-0.1440854
88	0xbe062e7b	-0.13103668
89	0xbdf5391a	-0.11973782
90	0x3e3a71e5	0.1820751
91	0x3dded791	0.1088096
92	0x3e76a56d	0.24086542
93	0x3e81cda4	0.25352204
94	0xbd2a8203	-0.041627895
95	0xbc061dcd	-0.008185816
96	0xbdf4958c	-0.11942586
97	0xbe0ea02a	-0.13928285
98	0xbdfef362	-0.12448765
99	0xbddd2fc0	-0.10800123
100	0xbd2ac165	-0.04168834
101	0xbc594a86	-0.013262397
102	0xbd7799de	-0.060449474
103	0x3c87a2b8	0.016557083
104	0xbd820b80	-0.0634985
105	0xbdf68ad1	-0.12038196
106	0x3c1dc56c	0.009629589
107	0xbe00f8a8	-0.12594855
108	0xbd83ffc9	-0.064452715
109	0xbd97cdb9	-0.07412285
110	0xbd3a4bd3	-0.045482468
111	0xbde93967	-0.11387902
112	0x3d881b04	0.06645778
113	0xbc947f1a	-0.018127013
114	0xbd8b2b3b	-0.06795355
115	0x3d5de146	0.054169916
116	0x3c2ebecf	0.0106656095
117	0xbc1a002a	-0.009399453
118	0xbe1edde1	-0.15514328
119	0xbdddaf6b	-0.10824474
120	0x3d29d233	0.041460227
121	0xbdd13212	-0.10214628
122	0xbd29eecd	-0.041487504
123	0x3db00da8	0.08596355
124	0x3d45efa4	0.048324242
125	0xbdd196e4	-0.10233858
126	0xbe21d20a	-0.1580278
127	0x3ba6b817	0.005087863
128	0xbd70db3c	-0.05880283
129	0xbd7739bc	-0.060357794
130	0xbd3be068	-0.045868307
131	0xbdcac714	-0.099012524
132	0x3d77f789	0.060538802
133	0xbd8d34b2	-0.068948165
134	0xbe1008a2	-0.14065793
135	0xbd5dca1c	-0.054147825
136	0x3c735900	0.014852762
137	0xbda742de	-0.08167051
138	0x3c921adb	0.017835071
139	0xbddf7425	-0.10910825
140	0x3d248d22	0.040173657
141	0x3cfd40bf	0.030914662
142	0x3d1af99d	0.037835706
143	0x3c4b2943	0.012399974
144	0x3bd1dfc7	0.00640485
145	0xbd33ed2f	-0.043927368
146	0xbcff9a4e	-0.031201508
147	0xbe1751e1	-0.14777328
148	0xbbef554c	-0.0073038694
149	0xbd5c2adc	-0.05375181
150	0xbc07d5a7	-0.008290685
151	0x3d13c77d	0.03607892
152	0xbd9bfdba	-0.07616754
153	0x3cc21779	0.023692833
154	0x3d2bbe79	0.041929696
155	0x3d3dd37d	0.04634427
156	0xbd1c0d7c	-0.038098797
157	0xbe096dd7	-0.13420807
158	0xbe18348a	-0.14863792
159	0xbddd0082	-0.107911125
160	0xbd7edc78	-0.062221974
161	0xbdc71f15	-0.09722725
162	0xbda077a5	-0.078353204
163	0xbd3a0b03	-0.045420658
164	0x3cb64b72	0.022252772
165	0xbd9352c5	-0.071935214
166	0x3c810bb3	0.015752649
167	0xbca9ca0b	-0.020726224
168	0xbca76536	-0.020434003
169	0xbd9656b2	-0.073407546
170	0x3c4d881f	0.012544661
171	0xbe19957e	-0.14998433
172	0xbcba98f9	-0.022778021
173	0x3a4d884d	0.000784044
174	0x3b5a5590	0.003331516
175	0xbc04099a	-0.00805893
176	0xbd944dbb	-0.072413884
177	0xbdc81dce	-0.0977131
178	0x3c0545db	0.008134331
179	0xbcd8931c	-0.026437335
180	0xbda09adb	-0.07842036
181	0xbdf00276	-0.117192194
182	0xbdee18e5	-0.11625842
183	0xbd66d9e8	-0.056360155
184	0xbdcd77e5	-0.10032634
185	0xbdc36208	-0.09540182
186	0xbd9c5176	-0.07632725
187	0x3c9e79fe	0.01934528
188	0xbe1d572e	-0.15365288
189	0xbe048aa3	-0.1294351
190	0xbe0d2c0e	-0.13786337
191	0xbdd92539	-0.10602803
192	0xbd753edf	-0.05987441
193	0xbd95236b	-0.07282146
194	0xbdd2efc7	-0.1029964
195	0xbdbefd9e	-0.093257174
196	0xbd722ad6	-0.059122883
197	0xbdd9a395	-0.10626904
198	0xbc89abd9	-0.016805576
199	0xbcd7075a	-0.026248623
200	0xbe211edd	-0.1573443
201	0xbe2f4ca4	-0.1711908
202	0x3e07e7df	0.13272046
203	0x3df6a28d	0.12042723
204	0x3d8e79e9	0.06956846
205	0xbdb0c921	-0.08632112
206	0x3d10deed	0.03536885
207	0xbe11fa14	-0.14255553
208	0x3e907f57	0.28222153
209	0x3e8b0047	0.2714865
210	0xbde05ec2	-0.109555736
211	0xbde1030b	-0.109869085
212	0xbe3aa82f	-0.1822822
213	0x3b1d380f	0.0023989712
214	0x3d441027	0.047866967
215	0xbd04702d	-0.03233354
216	0xbd4b31aa	-0.04960791
217	0xbdc6165f	-0.09672236
218	0x3dfba5ab	0.12287458
219	0x3de5ee34	0.11227074
220	0xbdd10f62	-0.10208012
221	0xbdfc1721	-0.12309099
222	0xbde676f1	-0.11253155
223	0xbdae18b9	-0.08500809
224	0xbe2bdb6d	-0.16782923
225	0xbe34b1e0	-0.17645979
226	0x3ccf6ebb	0.025321355
227	0x3e10321b	0.14081614
228	0x3d5b30bf	0.053513285
229	0x3e4edf14	0.20202285
230	0xbe172250	-0.14759183
231	0xbcf629d2	-0.030049238
232	0xbd282a70	-0.041056097
233	0xbbd0dc12	-0.0063738907
234	0xbe358d0b	-0.17729585
235	0xbe70598d	-0.23471661
236	0xbe5b7323	-0.2143064
237	0x3dbb3bd3	0.0914227
238	0x3e1414da	0.14461079
239	0x3d472bb0	0.048625648
240	0xbd92949f	-0.071572535
241	0xbd3499b7	-0.044091906
242	0xbcb2fc61	-0.02184886
243	0xbd657ba2	-0.05602611
244	0xbdc0c7ff	-0.09413146
245	0xbe6e7eef	-0.23290609
246	0x3d74ac79	0.059734795
247	0x3cd9bf2a	0.026580412
248	0x3dceec75	0.10103694
249	0xbc82c7a8	-0.015964344
250	0x3c9459e4	0.01810927
251	0x3c8123cb	0.015764138
252	0xbe25fbf4	-0.16209394
253	0xbdadd345	-0.08487562
254	0xbdb142af	-0.08655297
255	0x3e2ad8cf	0.16684268

conv.bias f4 [5]
0	0x3e0b6284	0.136118
1	0x3e23e9f4	0.16007215
2	0xbd1fde3a	-0.03903029
3	0xbdae5992	-0.08513178
4	0x3e03f328	0.12885725

fc1.weight f4 [64, 180]
0	0xbd8619c4	-0.06547883
1	0xbca2418e	-0.01980665
2	0xbd714dd0	-0.0589121
3	0xbc8855ba	-0.01664244
4	0xbd5d947b	-0.05409668
5	0xbd0d3df2	-0.034482904
6	0x3d93f5df	0.072246306
7	0xbd839eec	-0.06426796
8	0x3d3d1278	0.04616019
9	0xbd0cd85b	-0.03438602
10	0xbccdc922	-0.025120322
11	0xbd848758	-0.06471127
12	0x3d963247	0.073338084
13	0x3bc2d880	0.005946219
14	0xbd7f465b	-0.062322956
15	0xbd4e01dc	-0.050294742
16	0xbd626d7d	-0.055280197
17	0x3c928dd4	0.017889895
18	0x3d417526	0.047230862
19	0xbd97b0b9	-0.07406754
20	0x3d3f0628	0.04663673
21	0xbcfb3b0a	-0.0306678
22	0xbd32ceb2	-0.04365415
23	0xbd86eea4	-0.06588486
24	0x3b5043a0	0.003177859
25	0x3d2dafd4	0.04240401
26	0xbb4270a0	-0.002966918
27	0x3c817d14	0.015806712
28	0xbd80205f	-0.06256174
29	0xbb98c140	-0.004661709
30	0x3d875e13	0.0660974
31	0xbcc80ed0	-0.024421126
32	0x3d798eca	0.06092719
33	0x3cf3b918	0.029751346
34	0x3d193b80	0.03741026
35	0xbd58ca5e	-0.052927367
36	0xbd04dc88	-0.032436877
37	0xbd720b7a	-0.059092976
38	0x3d80464f	0.0626341
39	0x3d82b479	0.06382079
40	0x3d050dae	0.03248375
41	0xb98af800	-0.00026506186
42	0x3c94b5bc	0.018153064
43	0xbce57e14	-0.02801422
44	0xbcac0a1a	-0.02100091
45	0x3cfa0dfc	0.030524246
46	0x3d32a622	0.043615468
47	0xbbcd6700	-0.006268382
48	0xbcb1a5d8	-0.021685526
49	0xbc4d5f70	-0.012534961
50	0x3d7e8962	0.062142737
51	0x3bbfdba0	0.0058550388
52	0x3d461920	0.048363805
53	0x3c92248c	0.017839693
54	0xbd868fdc	-0.06570408
55	0xbccb99cc	-0.02485361
56	0xbcc3d46c	-0.023905002
57	0xbd8dc096	-0.069214985
58	0x3bd458e0	0.0064803213
59	0xbcf0ee10	-0.029410392
60	0xbd8ad1e3	-0.06778314
61	0x3d1c4a46	0.03815677
62	0x3d3b5c72	0.04574246
63	0x3cc6d674	0.024272181
64	0x3cf3b3ac	0.02974876
65	0x39ae4400	0.0003323853
66	0xbd3a043f	-0.045414206
67	0x3c404a70	0.011736497
68	0x3d851cd7	0.064996414
69	0x3d4dfeaa	0.050291695
70	0xbd0258bb	-0.0318229
71	0x3d6b60aa	0.057465233
72	0xbc8d95c0	-0.01728332
73	0xbcc92680	-0.024554491
74	0xbd2c042c	-0.041996166
75	0x3d0d0e7c	0.03443764
76	0xbd1e47cc	-0.03864269
77	0xbd93f798	-0.07224959
78	0x3d738a96	0.059458338
79	0x3d27c1b0	0.0409562
80	0xbcf892e2	-0.030343477
81	0x3b9168f0	0.0044375584
82	0x3d967c03	0.07347872
83	0x3d44a5c2	0.04800964
84	0xbd2b3511	-0.041798655
85	0xbbe08620	-0.0068519264
86	0xbd92dfc3	-0.071715854
87	0x3d58013a	0.052735545
88	0xbca7ea7e	-0.020497557
89	0x3d6e6e66	0.058210753
90	0x3d8b6df7	0.068080835
91	0xbd5e1e7e	-0.0542283
92	0x3d258aca	0.040415563
93	0xbd476c42	-0.048687227
94	0x3ce126d8	0.027484342
95	0x3d25d232	0.04048366
96	0x3bafcff0	0.0053653643
97	0x3d17918a	0.03700403
98	0xbd625c3a	-0.055263735
99	0xbcb01cb0	-0.021498054
100	0x3cc81934	0.02442608
101	0xbc4ed2c8	-0.012623496
102	0x3c1dc110	0.009628549
103	0xbce94c9c	-0.028478913
104	0x3d7e314a	0.062058724
105	0x3d22d1ce	0.039750867
106	0x3b2f6f20	0.0026769117
107	0x3d9156c3	0.070966266
108	0xbd9894de	-0.07450269
109	0xbd92b573	-0.07163515
110	0x3d15ed24	0.036603108
111	0xbd12c20d	-0.035829592
112	0x3c0a9ff8	0.008460991
113	0xbce1878a	-0.02753045
114	0xbc644024	-0.013931308
115	0xbc231840	-0.009954512
116	0xbd8f45fb	-0.069957696
117	0xbd82e706	-0.063917205
118	0x3d1f50a4	0.038895264
119	0x3cdeb78c	0.027187131
120	0xbc9a0378	-0.018800482
121	0xbb389ea0	-0.002817072
122	0xbd34ff62	-0.044188865
123	0x3c04b268	0.008099176
124	0xbd5be8e1	-0.053688888
125	0x3d319dfa	0.04336355
126	0xbd77a6e0	-0.06046188
127	0x3b825ec0	0.0039785802
128	0xbd702e26	-0.05863776
129	0xbd525818	-0.051353544
130	0xbd92ecde	-0.07174085
131	0xbcaf4728	-0.021396235
132	0x3d81e377	0.063422136
133	0xbd35563e	-0.0442717
134	0x3d2d6d14	0.042340353
135	0xbcf6a10a	-0.030106086
136	0x3d4b4e90	0.04963547
137	0xbac16440	-0.0014754608
138	0x3ceeca1c	0.029149108
139	0xbcbe319e	-0.023217019
140	0xbd8bcad0	-0.06825793
141	0xbd43c6d4	-0.04779704
142	0x3d84ea9f	0.06490063
143	0xbd59a9fc	-0.053140625
144	0x3d0d01f6	0.0344257
145	0xbcda3992	-0.02663878
146	0x3cdab6a4	0.026698418
147	0xbc9de2a0	-0.019273102
148	0x3cf82a60	0.030293643
149	0xbd78a72a	-0.060706295
150	0x3cbb1fec	0.02284237
151	0xbd14ec40	-0.036358118
152	0x3d0f3f5a	0.034972526
153	0xbb8044f0	-0.003914468
154	0x3d7798d6	0.06044849
155	0x3c0b25a8	0.008492865
156	0xbd8133c8	-0.063087046
157	0xbd0939ef	-0.033502515
158	0x3d3de1fc	0.046358094
159	0xbd34b8f0	-0.044121683
160	0x3d9759f7	0.07390206
161	0x3c2b5628	0.010457553
162	0x3c94e46c	0.018175326
163	0xbd0b8c18	-0.03406915
164	0xbcbceac8	-0.023061171
165	0x3bed35f0	0.007239096
166	0x3d275cbc	0.040859923
167	0x3d7a57c2	0.06111885
168	0x3d2fda5c	0.042932853
169	0xbcbbd47c	-0.022928469
170	0xbcaf85ea	-0.02142616
171	0x3d166ab8	0.03672287
172	0xbd1ae9aa	-0.037820496
173	0x3cde87c0	0.02716434
174	0x3d3be73c	0.04587482
175	0x3d5dd166	0.054154776
176	0x3d2c61d4	0.042085484
177	0xbcd48134	-0.025940515
178	0xbd43ba15	-0.047784884
179	0x3d94a65f	0.07258295
180	0xbc75bfce	-0.014999343
181	0xbc13c3c8	-0.009018846
182	0xbde80143	-0.11328366
183	0xbda86ff9	-0.08224482
184	0xbd9aa626	-0.075512215
185	0xbdd831d9	-0.10556383
186	0xbdb7f6c6	-0.08982615
187	0xbdcabaf4	-0.0989894
188	0xbd65a9eb	-0.05607025
189	0xbc7d9198	-0.015476607
190	0xbdcad4d0	-0.09903872
191	0xbca81a26	-0.020520281
192	0xbe02120d	-0.12702198
193	0xbc39034d	-0.011292291
194	0x3c194cbb	0.009356673
195	0xbbf064d5	-0.007336239
196	0xbdbb4131	-0.09143294
197	0xbb6d878d	-0.0036244125
198	0xbdf28d92	-0.11843409
199	0x3c5b7ccb	0.013396452
200	0xbd6bb608	-0.057546645
201	0x3d64db02	0.055872925
202	0xbc9c65d7	-0.01909153
203	0xbda7dd88	-0.081965506
204	0x3c28e019	0.010307335
205	0xbda98b1b	-0.082784854
206	0xbd85a421	-0.06525446
207	0xbd9dc874	-0.07704249
208	0x39b3f4b0	0.00034323847
209	0x3a4d39d5	0.0007828747
210	0xbcd13a42	-0.025540475
211	0xbd3b7df7	-0.045774426
212	0xbd8f46ed	-0.0699595
213	0xbdfa5d0e	-0.1222478
214	0xbcb92ea6	-0.022605252
215	0xbc9f0f42	-0.019416455
216	0x3d83e8c1	0.06440879
217	0xbd58f75a	-0.052970268
218	0x3d946a47	0.07246833
219	0x3d0ae6d4	0.03391154
220	0xbcaa350c	-0.020777248
221	0xbd67955b	-0.05653892
222	0x3c8ddfac	0.01731857
223	0x3d07951e	0.033101194
224	0xbdb2c042	-0.087280765
225	0x3d742d02	0.059613235
226	0x3d4abeb0	0.04949826
227	0x3d893263	0.06699064
228	0xbc4212e8	-0.011845328
229	0xbdb4a441	-0.088203914
230	0xbd7a2889	-0.061073814
231	0xbc83962c	-0.016062818
232	0xbd5cca5a	-0.053903915
233	0x3ccddbb4	0.025129177
234	0x3d3a7ee4	0.04553117
235	0xbd7c8670	-0.061651647
236	0xbde406e3	-0.11134126
237	0xbe02ec75	-0.12785514
238	0xbd0ebc75	-0.034847695
239	0xbd60791d	-0.054803003
240	0xbc889940	-0.016674638
241	0x3d652fa2	0.05595363
242	0xbddedea2	-0.108823076
243	0xbdc20f70	-0.09475601
244	0xbd683f40	-0.056700945
245	0x3d8386c9	0.064221926
246	0xbd91dcc1	-0.071221836
247	0xbccc7f6c	-0.024963103
248	0xbd1247d0	-0.035713017
249	0x3bed7450	0.0072465315
250	0xbc7b2df8	-0.015330784
251	0x3d8ef757	0.0698077
252	0x3bcdf58a	0.006285374
253	0xbc882a63	-0.016621774
254	0xbad75d82	-0.0016431066
255	0xbcc47b7c	-0.023984663

fc1.bias f4 [64]
0	0xbce6848a	-0.028139371
1	0xbbd99d36	-0.0066410555
2	0x3e2a07d5	0.1660455
3	0x3e63d79d	0.22250219
4	0x3cc781d4	0.024353899
5	0x3badd843	0.0053053214
6	0xbad13430	-0.0015960988
7	0x3d86973b	0.06571814
8	0x3d4b5d44	0.049649492
9	0x3cae3a03	0.021267897
10	0xbdb841dd	-0.089969374
11	0xbd44baf3	-0.04802985
12	0xbd74cc93	-0.05976541
13	0x3eb9df0f	0.36302993
14	0xbcf04136	-0.02932797
15	0xbde9f8df	-0.114244215
16	0xbd74614d	-0.059663106
17	0xbdd82a4f	-0.10554945
18	0xbddb6a6e	-0.10713659
19	0xbcbd5648	-0.023112431
20	0xbcada139	-0.021195041
21	0x3d94e355	0.07269923
22	0xbda09027	-0.07839995
23	0xbb600060	-0.003417991
24	0xbd94e3f1	-0.07270039
25	0x3c1de4d0	0.009637073
26	0xbd023e60	-0.031797767
27	0xbd3142ab	-0.04327647
28	0xbdf07836	-0.117416784
29	0xbd3f2710	-0.046668112
30	0xbd15d126	-0.036576413
31	0x3bfeaf25	0.0077723437
32	0xbd85c26f	-0.06531226
33	0xbc92e60a	-0.017931957
34	0xbe15f593	-0.1464446
35	0x3c4bc1da	0.0124363545
36	0x3d1caba7	0.038249638
37	0xbde328f2	-0.11091794
38	0xbb6ab620	-0.0035814121
39	0xbd5e2659	-0.05423579
40	0xbd87b004	-0.06625369
41	0xbd6885d1	-0.056768242
42	0xbe021445	-0.12703045
43	0x3c3048d0	0.010759547
44	0xbc72029a	-0.014771128
45	0xbdfc6ad9	-0.12325067
46	0x3e8aee4c	0.2713493
47	0xbd336e7a	-0.04380653
48	0x3d8e3965	0.06944541
49	0xbd22e495	-0.039768774
50	0xbdb63aa7	-0.08897906
51	0xbdf029e8	-0.11726743
52	0x3c2d398f	0.010572805
53	0xbd87c97d	-0.06630228
54	0xbd7be035	-0.061493117
55	0xbc47b0b0	-0.012188122
56	0xbdb1c090	-0.086793065
57	0xbcfb9e7f	-0.030715225
58	0xbcfdf772	-0.03100178
59	0x3d450d6a	0.048108496
60	0x3c27be50	0.010238245
61	0xbe0598de	-0.13046595
62	0xbd5a6d40	-0.053326845
63	0xbd12cf62	-0.035842307

fc2.weight f4 [4, 64]
0	0x3ca5ad68	0.020224288
1	0x3d8f84b4	0.07007733
2	0xbe8634fa	-0.26212293
3	0xbe7da605	-0.24770363
4	0x3d190054	0.03735383
5	0x3d8e3c3b	0.06945082
6	0xbe203546	-0.15645322
7	0x3d46c020	0.04852307
8	0xbd9c63e5	-0.07636241
9	0xbe45a18e	-0.1929991
10	0x3bc5a0e0	0.0060311407
11	0x3cd6d77a	0.026225794
12	0xbd1f4318	-0.038882345
13	0xbe8442f9	-0.25832346
14	0xbd65b7cc	-0.056083485
15	0xbd8fd091	-0.07022203
16	0x3cca553a	0.024698842
17	0xbc434e8a	-0.011920581
18	0x3c6ad0b8	0.014331989
19	0xbd70d068	-0.0587925
20	0xbdad6b18	-0.08467692
21	0xbbba1160	-0.005678341
22	0x3c4ceefe	0.012508152
23	0x3d89bf2e	0.06725918
24	0xbddc3b0f	-0.10753452
25	0xbcc69c70	-0.024244517
26	0x3c36f64e	0.011167122
27	0xbcd8efa6	-0.02648146
28	0x3d5d6f96	0.054061495
29	0xbce4fa50	-0.02795139
30	0xbd2e70a0	-0.042587876
31	0x3c5b4d2c	0.013385098
32	0xbc817019	-0.015800523
33	0xbdd839a6	-0.105578706
34	0x3d97085f	0.073746435
35	0xbd8e3d85	-0.06945328
36	0xbe6d5087	-0.2317525
37	0x3d297484	0.041370884
38	0xbd5be868	-0.053688437
39	0xbd7349df	-0.05939662
40	0xbaa60480	-0.0012666136
41	0xbd514a48	-0.05109623
42	0xbd9ef075	-0.07760707
43	0xba185f00	-0.0005812496
44	0xbe4320ec	-0.19055527
45	0x3dea4d14	0.11440483
46	0xbe716772	-0.23574618
47	0xbe0db7cd	-0.13839646
48	0x3d8a4cb8	0.06752914
49	0xbd73d714	-0.059531286
50	0xbd74b4ec	-0.059742853
51	0xbd04caa5	-0.03241982
52	0x3d19ec66	0.037578963
53	0x3d00e24a	0.031465806
54	0x3dd7f6ce	0.10545121
55	0xbd80b2d6	-0.0628411
56	0x3c1a5926	0.009420669
57	0xbd871633	-0.06596031
58	0xbd20115a	-0.039079048
59	0x3c09d060	0.008411497
60	0x3dff61c0	0.12469816
61	0x3dd3e2dc	0.10346004
62	0x3d8f3774	0.06992999
63	0xbdf66fa8	-0.120330155
64	0x3de2dc16	0.11077134
65	0xbd6a868b	-0.057257216
66	0xbf0c0cbf	-0.5470695
67	0xbf02f7dd	-0.5115946
68	0x3d23c7c8	0.039985448
69	0xbda88550	-0.08228552
70	0xbe3e0bd9	-0.18559207
71	0x3df7de4c	0.12102947
72	0xbd1458c5	-0.03621747
73	0xbecd3bd7	-0.40084717
74	0xbe06a624	-0.13149315
75	0xbc2e86b7	-0.010652236
76	0xbdd84290	-0.10559571
77	0xbf09737c	-0.5369184
78	0x3dcf3af2	0.10118665
79	0x3d86db5e	0.0658481
80	0x3d6e6b39	0.058207724
81	0x3c881aaf	0.016614286
82	0xbd2d2921	-0.04227555
83	0x3cbe7a29	0.02325161
84	0xbe04c905	-0.12967308
85	0x3d8c03da	0.06836672
86	0xbd01f775	-0.031730134
87	0x3cb0e878	0.021595225
88	0xbc1d6754	-0.009607155
89	0xbd8a8d36	-0.06765215
90	0xbb885d17	-0.004161488
91	0xbda770d2	-0.08175816
92	0xbc46b028	-0.01212696
93	0xbd94638c	-0.072455496
94	0x3d7e5066	0.062088393
95	0xbc9daf39	-0.019248592
96	0xbd7aa75b	-0.06119476
97	0xbe20848a	-0.1567556
98	0x3d683128	0.056687504
99	0xbdfc5994	-0.12321773
100	0xbef66fae	-0.4813208
101	0x3d6e78b0	0.058220565
102	0xbd427ebc	-0.047484145
103	0xbdebcbbf	-0.11513471
104	0x3da052ca	0.07828291
105	0x3da31570	0.07963073
106	0x3c2f7a90	0.0107103735
107	0xbd688a8c	-0.056772754
108	0xbec9e13e	-0.3942966
109	0xbd2af834	-0.04174061
110	0xbefac0ad	-0.48975125
111	0x3d38a385	0.04507782
112	0xbb04b680	-0.002025038
113	0xbdc03f7c	-0.09387109
114	0xbc572043	-0.01313025
115	0xbe1ceea7	-0.15325414
116	0xbd7ecf20	-0.06220925
117	0xbce11985	-0.027477989
118	0xbd5a7b48	-0.053340226
119	0x3def18ca	0.1167465
120	0xbc7988b9	-0.015230351
121	0x3c13f88f	0.009031429
122	0xbd444a32	-0.04792232
123	0xbdfbaa6e	-0.12288366
124	0xbda07c60	-0.07836223
125	0xbd2c9ce5	-0.042141814
126	0x3d89599c	0.06706545
127	0x3d5b93c0	0.053607702
128	0xb89e5800	-7.5504184e-05
129	0x3c08da0c	0.008352768
130	0x3f174ccb	0.5910155
131	0x3f0dbfa2	0.55370533
132	0xbd54edf0	-0.051984727
133	0x3d3e8dff	0.046522137
134	0x3d811bd1	0.06304134
135	0xbd118530	-0.035527408
136	0x3e625f79	0.22106732
137	0x3eddf327	0.43349573
138	0xbcb44dbe	-0.022009727
139	0x3df67349	0.12033708
140	0x3d96b44a	0.07358606
141	0x3f1499cd	0.5804718
142	0x3dc4fed4	0.09618917
143	0x3ce70f38	0.028205499
144	0x3cc1ef87	0.023673786
145	0x3d003439	0.031299803
146	0xbda09e9d	-0.07842753
147	0x3d14f907	0.036370303
148	0x3e468aa9	0.19388832
149	0xbdfb8300	-0.12280846
150	0x3e08677d	0.13320728
151	0xbde3d070	-0.11123741
152	0x3cec3276	0.028832655
153	0x3d233ee8	0.039854914
154	0xbe1c03cd	-0.15235825
155	0x3ac86843	0.0015289861
156	0xbdb77344	-0.08957532
157	0x3d66bd40	0.056332827
158	0x3aa6cb33	0.0012725353
159	0x3d678995	0.056527693
160	0xbc9a13a7	-0.0188082
161	0x3dc76b52	0.097372666
162	0x3d21071f	0.03931343
163	0x3e4559c1	0.1927252
164	0x3f053b2b	0.5204341
165	0xbd3c0ea5	-0.045912404
166	0x3dfbbc68	0.12291795
167	0x3e034797	0.12820278
168	0x3cef82e8	0.029237226
169	0xbdeb61fc	-0.114932984
170	0x3d3daff3	0.046310376
171	0xbb4cf400	-0.0031273365
172	0x3ed9dfe5	0.4255363
173	0xbbafbc2a	-0.005363007
174	0x3f078acc	0.5294616
175	0xbca122b1	-0.019669862
176	0x3de7d4e6	0.11319904
177	0x3d33eafc	0.04392527
178	0x3e674965	0.22586592
179	0xbca78d30	-0.020453066
180	0xbd7f4e0e	-0.062330298
181	0xbd67950a	-0.05653862
182	0x3c94d2f0	0.01816699
183	0xbdd34f58	-0.10317868
184	0xbe0cb7c2	-0.13741973
185	0xbd42adaa	-0.0475289
186	0xbe043fd8	-0.1291498
187	0xbd01dd8c	-0.031705424
188	0x3db0c212	0.08630766
189	0xbd3524b3	-0.044224452
190	0xbd636e64	-0.0555252
191	0x3dee63f2	0.11640157
192	0x3ca5c3c0	0.020234942
193	0xbd89b14d	-0.067232706
194	0xbda7e965	-0.08198813
195	0xbd9d308d	-0.07675276
196	0x3dc4a2da	0.09601374
197	0xbcfa9e0c	-0.03059294
198	0xbc8ad077	-0.016945107
199	0x3d8adc4c	0.067802995
200	0x3daa4d30	0.083155036
201	0xbd774c35	-0.06037541
202	0xbbeabfcd	-0.0071639777
203	0x3dfbb497	0.12290304
204	0x3d010be4	0.03150548
205	0xbda57e7b	-0.08080765
206	0xbd0378a4	-0.032097474
207	0x3dd6a0ea	0.10479911
208	0xbd820a53	-0.063496254
209	0xbd5d940e	-0.054096274
210	0x3df5e1e8	0.12005979
211	0x3dde2efd	0.10848806
212	0x3d849e1b	0.06475469
213	0xbbdcdec0	-0.006740421
214	0x3e4b0380	0.19825554
215	0xbdbec02a	-0.09313996
216	0x3cd64b2f	0.026158897
217	0xbdcdffe2	-0.100585714
218	0x3d3e6773	0.046485376
219	0x3e33e143	0.175664
220	0xbd241c98	-0.04006633
221	0x3df9fc6e	0.1220635
222	0x3d040e70	0.03224033
223	0x3dfb2434	0.122627646
224	0x3e2d8ebc	0.1694898
225	0x3db5411e	0.08850311
226	0xbd578159	-0.05261359
227	0x3c7c6221	0.015404255
228	0xbd9489c3	-0.072528385
229	0x3dbacd26	0.0912116
230	0x3d54591c	0.051842794
231	0x3d8d4789	0.0689841
232	0x3de7d494	0.11319843
233	0xbc5f2013	-0.013618487
234	0x3e17939a	0.148024
235	0xbd84403c	-0.06457564
236	0xbd73fbf9	-0.05956647
237	0xbd7bdaff	-0.061488148
238	0xbd97ae2b	-0.07406267
239	0x3d76706b	0.060165804
240	0xbc4908a0	-0.012270123
241	0xbd8a8fe0	-0.06765723
242	0x3d55072c	0.052008793
243	0x3dc824a2	0.09772612
244	0xbd56b135	-0.05241509
245	0x3d634ae8	0.055491358
246	0x3cb187d0	0.021671206
247	0x3da2de3a	0.079525426
248	0x3c15ebca	0.009150455
249	0x3dd215b8	0.10258049
250	0x3e001103	0.1250649
251	0xbcfe8468	-0.031068996
252	0x3d708ecc	0.05872993
253	0xbd6e1351	-0.05812389
254	0xbdc6067a	-0.09669204
255	0x3d524c68	0.051342398

fc2.bias f4 [4]
0	0xbe5708b8	-0.2099942
1	0xbed5ef5c	-0.4178418
2	0x3eea54d0	0.45767832
3	0xbd80410b	-0.06262406
