src/flatland/flat_game/results/ourmethod_noreg5/rep_learner.pth (torch_old, 312910 bytes, 33 tensors)

representations f4 [6]
00000000: 2690 4e3f e0b8 5a3d 3f1d cebe db3d 533f
00000010: 6c5d 0cbf 7e64 103e
0.80688703 0.053398967 -0.40256688 0.8251626 -0.5483005 0.14100835

representations f4 [6]
00000000: ac85 c8be ca08 3bbf 4ade c63e 9af0 2bbf
00000010: 674e 6fbd 17d0 10bf
-0.39164484 -0.73060286 0.38841468 -0.67164004 -0.05842438 -0.5656752

representations f4 [6]
00000000: 86b7 26bf fa39 b83d 4b8d 15bf 39ab d53e
00000010: ef41 4e3f 0295 00bf
-0.65123785 0.08995433 -0.5841872 0.41732195 0.80569357 -0.5022737

representations f4 [6]
00000000: c5cb 123e 045d 223f 5be5 133f 0385 27bf
00000010: e0d3 b0bd be8b 673f
0.14335544 0.6342318 0.57771844 -0.65437335 -0.08634162 0.90447605

fc1.weight f4 [64, 4]
00000000: 4bd0 6fbe d54d fb3f 7ab7 303f 26f0 5f3f
00000010: aecd bd3f 13b0 0740 b74b 09bf 88aa c9bf
00000020: 49bb 263f 33cd 0140 a9fa 2540 6597 acbe
00000030: 8433 d73d 80a0 a4bf 648a 873e 8efd 96bf
00000040: 4e6b 8d3e 19f8 5c3f a7ba 0740 2629 143e
00000050: 2a10 f93c de6e 54be 0ab9 70be 5479 4f3e
00000060: d890 023d 4f34 813f fa62 633f 0d70 0040
00000070: bd88 e8bf 25c2 9bbf ffc0 bd3f ba3c 84bf
00000080: 7ff4 f63e f7b3 e1bf e25d 45bd eda2 763e
00000090: 4ac9 94bf 39e1 d43f a257 e8bf 9bca 73bf
000000a0: 12f4 813e 0c0e dfbe 6da4 93bf 426f 5a3f
000000b0: c9d9 f33f 537d 0040 3a78 27bf 6fc3 21bf
000000c0: e3cc b1bd da6a 97be 7ea7 653c d04d 8a3d
000000d0: 155b 20be 04b6 7a3f abab 243f be65 e13f
000000e0: 1d32 1f3f dadd 5bbd a174 8d3f 401e a3bf
000000f0: 57be 33be f4e1 0e3f eb09 ab3f 16c5 ef3f
00000100: cbea d03f 4fb6 75bf b7a1 1fbf e234 de3e
00000110: c757 40c0 c32f 983f 0941 983f f33a 1a40
00000120: 8a1b c3be 0831 12bf 9ff0 623f 4e59 66bf
00000130: a967 4ec0 4241 d83f 08a3 3fc0 4021 57bf
00000140: d53f 3b3e 7280 afbf d7c8 9bbf 71a5 c2be
00000150: de9e 923f 1fc1 14bf 0992 7cbf 857c 1abe
00000160: 46e2 d83f 2532 a63c 1540 a23e 2bdb e03f
00000170: 6a84 8a3f 1fa5 9a3f 3b16 9bbf 52d2 2bc0
00000180: 43a3 23c0 0821 b6bd 1434 0ebf 07a6 82be
00000190: b488 bd3e 400e 4cbe 00f1 c43d e04e f23c
000001a0: cd2e 173e 7913 cc3e 1b06 783f a1d4 e53d
000001b0: 012e 2840 bf7b c7be 2030 883e fb5a d4be
000001c0: ffb2 09c0 bcde 153f bbdc 4d40 bd71 b6bf
000001d0: bb57 68bf 6c2f 1fbf 1dad fc3f e4ed 993f
000001e0: 7594 f23f c96f 983f a502 b7bf 1fdf 83be
000001f0: cc16 1cbe 8c9b 2640 c0a8 34bf 1a78 0d40
00000200: 2a0f 773d 1569 bfbf 04f8 543e 238e 64bf
00000210: 4c91 7fbf af83 37be a0f0 d7bf fa54 c7bf
00000220: af77 bebd da8f 0bbe 420d 223e 4079 2ebe
00000230: 3254 b4bf d777 59bf 688f 913f cb65 fbbc
00000240: 2a1e 9cbe d372 dcbd a03e 74bc 5736 5ebf
00000250: f3a9 1cbf bf40 09bf fa91 69bf 6a07 43be
00000260: 3af6 1fbf 99e6 863f dfb2 ef3f 63e2 4ec0
00000270: d77f 0dbf e6a9 c2bf 7233 7f3f 0e10 9a3e
00000280: 5085 46bf 3e00 c2be a00b 963e 1218 943f
00000290: 4c53 0c40 6f92 e83f 3a30 a43f bd4b dfbe
000002a0: d9c8 6b3d 7a47 02be c14b 0ebc 7be1 c4be
000002b0: 4ea6 733f 61cb 333e 7b64 793e 9774 643f
000002c0: 0545 e8bf ac24 923f 76ef 89bf b01f 0c40
000002d0: 158d 143f 3b7f 49be 5c2a 2cbf 6641 663f
000002e0: 32b7 5abf d618 babd ceea ffbd c386 4dbf
000002f0: d14c edbf 4134 dcbe 41b5 03c0 e883 d53e
00000300: 8713 b73f 216a d7bf fd90 04be b7e6 83bd
00000310: 4376 bf3e c53b 27bf a318 25bf 9eb1 913e
00000320: 5e72 fe3f 776e 533e aa87 1dbe c4f4 e13f
00000330: c9b6 1f3f 36d7 03bf f5a5 f6be 4454 76bf
00000340: c8c5 a0be 1ef3 8cbf b4e1 3c40 92b4 9bbf
00000350: 5db9 ed3e 6009 7fbf f239 9f3e 3e79 d23f
00000360: 38f6 333e 5003 51bd 60f2 293e 28ae 7ebe
00000370: 30ea 6a3e b750 14bf 53e0 6c3d d998 78bc
00000380: abd3 253f be28 aabf b7dd a23e 5eeb 0a40
00000390: c02b c33e 5731 24bf cec3 98be 06cb b83e
000003a0: 43e6 f83f 6e3a 1540 be49 b4be 17a8 d73f
000003b0: 57ba dabe 586b 763f b390 1340 13af 373f
000003c0: 026d 7dbf 3b8b 8ebf 6d86 00c0 50c0 dcbf
000003d0: af41 323f fa9f c0be 9110 f1be 0ac5 303f
000003e0: 2d36 9a3e ba4c 2fbf a004 373e a066 8d3f
000003f0: a696 c53f d0e0 9cbf 7aee 9abf 5076 51be
-0.23419301 1.9633127 0.69029963 0.8747581 1.4828393 2.1201217 -0.53631157 -1.5755167
0.65129524 2.0281494 2.593424 -0.33709255 0.10507873 -1.2861481 0.2647277 -1.1796129
0.2762093 0.86316067 2.1207674 0.14468822 0.030403215 -0.20745417 -0.23508087 0.20261127
0.031876415 1.0094088 0.888229 2.006839 -1.8166729 -1.2168623 1.4824523 -1.0331032
0.4823341 -1.7633046 -0.048185237 0.24085589 -1.1623929 1.6631233 -1.8151743 -0.95231026
0.25381523 -0.43565404 -1.1534554 0.85326016 1.9050838 2.0076492 -0.65417826 -0.63188833
-0.08681657 -0.2957371 0.014016984 0.06753123 -0.15659745 0.97933984 0.64324445 1.7609174
0.6218584 -0.05367837 1.1051217 -1.2743607 -0.17553078 0.5581353 1.3362402 1.8732021
1.6321653 -0.95981306 -0.6235613 0.4339972 -3.0053575 1.1889576 1.1894847 2.409848
-0.38106948 -0.57106066 0.8864841 -0.8998002 -3.225077 1.6894915 -2.9943256 -0.8403511
0.18286069 -1.3711073 -1.2170666 -0.38016847 1.1454732 -0.5810718 -0.9866033 -0.15086563
1.6944053 0.020287583 0.31689516 1.7566885 1.082166 1.2081641 -1.2116159 -2.684712
-2.5568397 -0.08893019 -0.55548215 -0.25517294 0.3701836 -0.19927311 0.096162796 0.029578626
0.14763947 0.39858606 0.96884316 0.11222196 2.6278079 -0.38961598 0.26599216 -0.41475663
-2.15155 0.5854299 3.2165973 -1.425346 -0.90758866 -0.62181735 1.974033 1.2025723
1.8951555 1.1909114 -1.4297682 -0.25756165 -0.15243071 2.6032438 -0.7056999 2.2104554
0.060317196 -1.4953943 0.20797735 -0.89279383 -0.9983108 -0.17921327 -1.6870308 -1.5572808
-0.093001716 -0.13629094 0.1582537 -0.1703844 -1.4088194 -0.84948486 1.1371889 -0.030688187
-0.30491763 -0.107640885 -0.014907509 -0.86801666 -0.6119682 -0.5361442 -0.9123837 -0.19045797
-0.62485087 1.0539123 1.8726462 -3.2325675 -0.55273193 -1.5208099 0.99687874 0.30090374
-0.7754717 -0.3789081 0.29305744 1.1569846 2.192584 1.8169688 1.2827218 -0.4361247
0.05756459 -0.12722579 -0.008685053 -0.38453278 0.95175636 0.17558052 0.24354737 0.892404
-1.8146063 1.1417441 -1.0776203 2.189434 0.58027774 -0.19677441 -0.67252135 0.8994354
-0.85435784 -0.09086768 -0.12495957 -0.80283755 -1.8539068 -0.43008617 -2.0579379 0.417022
1.4302834 -1.6829263 -0.12945934 -0.0644049 0.37394914 -0.65325576 -0.6449072 0.28455824
1.9878652 0.20647608 -0.15383783 1.7652822 0.62388283 -0.5150026 -0.4817349 -0.9622233
-0.31400895 -1.1011693 2.9512758 -1.2164481 0.46430483 -0.9962368 0.31098896 1.644325
0.17574394 -0.05102855 0.16596365 -0.24871123 0.22940898 -0.5793566 0.05783112 -0.0151731605
0.64776105 -1.3293684 0.3180978 2.1706157 0.38119316 -0.64137787 -0.29836887 0.36092395
1.944527 2.3316913 -0.3521251 1.6848172 -0.4272029 0.96257544 2.3057067 0.7175152
-0.9899446 -1.113624 -2.0082047 -1.7246189 0.69631475 -0.37622052 -0.47082952 0.6905066
0.30119458 -0.6847645 0.17872858 1.1046944 1.5436599 -1.2256107 -1.2104027 -0.20455289

fc1.bias f4 [64]
00000000: fe1b ba3c c183 f7be 011f 95be 927c 363f
00000010: 75b3 f63e a051 7d3e d85e 8a3e 83c6 433f
00000020: 2504 c03e 4606 02be 0990 ca3e d8e1 c5be
00000030: b1c9 8a3e 5f56 8b3d 3c84 b33e f041 d73d
00000040: 3b81 05be 90eb 753e 1768 d63e 3739 b8bf
00000050: 6dd4 483f a8c3 4b3e 54e5 4e3e f4c2 e93e
00000060: d63e 8d3e 942f f5be 2812 773e be56 c63c
00000070: 0f47 aa3d 8950 f93e 990f bf3e 0c7f 23bf
00000080: e538 133f 0b02 9d3e c72a 433e a2e2 703f
00000090: 6b51 a13e 4498 093f 4016 bcbd 8df7 363f
000000a0: f16f 1f3e 12f6 da3e 4d0c fcbe b515 1a3e
000000b0: 3ec3 e13e 185e d83e 3bdb 9a3e 090c 4a3e
000000c0: 4ed2 a73e 5672 bf3e d8ec 103f 6633 e93e
000000d0: 0f0f 42be f41a bb3e e0ea d5be 6c4a 4d3e
000000e0: c52d 193f c2c1 803e 387f 91bf 9cd2 eb3e
000000f0: 4b95 dc3e ae66 c83e b594 5a3e 9d10 7e3f
0.022718426 -0.48342708 -0.29125217 0.7128383 0.4818379 0.24738169 0.27025485 0.7647478
0.37503162 -0.12697706 0.39563015 -0.38648868 0.27107003 0.06803583 0.35061824 0.105106235
-0.13037579 0.24015641 0.4187629 -1.439246 0.78449136 0.19898856 0.20204669 0.4565655
0.27587003 -0.47887862 0.2412802 0.024211284 0.083143346 0.48694256 0.37316588 -0.63865733
0.5750869 0.3066562 0.19059287 0.94095814 0.3150743 0.53747964 -0.09183931 0.7147148
0.15570046 0.42765862 -0.49228135 0.15047343 0.4409427 0.42259288 0.30245385 0.19731154
0.32777637 0.3739192 0.56611395 0.45547026 -0.18951057 0.36544 -0.41780758 0.20047921
0.59835464 0.25147825 -1.1366949 0.4605912 0.43082651 0.39140838 0.2134579 0.992441

fc2.weight f4 [180, 64]
00000000: 136a 8f3d 9b0e 4b3d d462 9a3d 9307 d83c
00000010: 1fc1 0dbe 4992 1abe d809 b2bd 664a f8bd
00000020: 0717 b8bd f63c e6bd 47e5 96bc e1b3 fabd
00000030: 48d5 4d3c 865c 803d cef7 683d 0969 2abd
00000040: b2d7 9abc 897d f8bd 22c7 05be 768a 83bd
00000050: 3c63 13be bf0a acbd 01f7 35be cbdc fcbd
00000060: 3bc0 93bd 281a a4bd 5003 76bd 4868 ab3d
00000070: 0e80 333d f80a aabd da06 07be 0781 c6bc
00000080: 6204 693d 0004 1abe d3f7 b13d 15a7 89bd
00000090: c0f6 36bd 43bb b7bd b7b7 1cbd e47e f2ba
000000a0: 91f6 91bd 1c47 b0bd fce8 963d 8f89 403d
000000b0: de97 4dbd c3a1 dcbc fd29 a3bd 8cff 60bd
000000c0: 9031 a9bc 6811 ca3a 3f38 b43b 4545 993d
000000d0: a4e1 533d c0f1 edbd 3cdf febd 9df6 b4bd
000000e0: 387f 1dbe fea0 0ebd 4e07 633d 7eb9 97bd
000000f0: e3a3 20bc 5c85 b5bd 1c40 6c3d 90cb efbd
00000100: d0ad adbc c8a0 e6bd f4b9 5dbd 1757 37be
00000110: ba9d a23c 8369 20be ef37 7dbd 84ea 27be
00000120: ee3d c6bd 464e f4bd 6b29 f33b 6c12 2dbd
00000130: eaed 24be 38cc f0bd 5263 e4bc c65e 09be
00000140: c680 c0bd d716 b1bc 5a47 383b 9b1a 823b
00000150: 1abc 8ebd 5514 573d ec2a 4f3d 6c8c 523d
00000160: 42a9 2d3d 12e1 f53d 5838 8fbd 9c53 ffbd
00000170: c1e9 05be 6ff3 4c3d b225 a8bd ff7f 6e3d
00000180: c93d cdbd 659b 883d eedc bcbd ebee f3bd
00000190: c973 bc3c e425 13be c078 80bb d7ea 85bd
000001a0: 1432 673d 8ed2 9a3d 6877 ebbc 167d 26be
000001b0: 898e 26be be01 343d d2d8 e6bc e496 c2bd
000001c0: 801e 4d3d 08b5 1e3d 3cc9 34bd 2637 b2bd
000001d0: 7082 febc b591 bfbd 2e85 bebd f840 bebd
000001e0: e495 80bd e97a 523d fdac 8abd 8172 8abd
000001f0: fa23 ac3d a7c2 2dbe ad03 633d b8cd fe3d
00000200: 9adc 19be dba8 7c3f 1a76 66be 3cda 1f3e
00000210: d205 1f3e ce6c 233e 2200 7d3e f0a5 9b3e
00000220: 1d27 153f 85a0 ebbd fc54 713e 0756 053f
00000230: 1dd3 a23e 6a2a 02bd 6b26 21be 7374 5fbe
00000240: 1d98 e9bd 7d9f ff3e 2c9b 533e d372 673f
00000250: becf 2f3e 9d8c 793e 9105 0b3f a0ff 8bbe
00000260: 813c b73d fe07 c83d 6683 043e 1654 0abf
00000270: 2bee 69bd c6fb 053e 8b79 553f 101a 6dbd
00000280: 6397 cd3e a490 363f 3186 433e f4a6 5e3e
00000290: 2cd0 cd3d d267 5ebd 355d 1dbe 6377 9b3e
000002a0: f674 ab3e 71f3 91bd 155d bdbc 418b 293e
000002b0: d1c0 f2be 6112 4d3e 6e66 213e 570b e13e
000002c0: c191 4a3f 9adc 923e 6987 7f3e 1c13 80bb
000002d0: b364 65bf 8a0f 0a3f c007 bbbd 0aad 6c3e
000002e0: 90ac a53e 4a68 2c3f 053e 8fbe c46a 873d
000002f0: de4a fa3e d0be e03e cd61 c53d acc3 6abe
00000300: 6e06 4cbe 3a1e 583f 6923 b6bf 2417 3a3e
00000310: 6b84 143f b598 a83e 0e33 843e 1d29 383f
00000320: 82db 0cbe 450d e2be 2a45 483f 5983 5a3d
00000330: 05a1 6d3e de28 8f3e 6beb 4dbe 7d61 383f
00000340: e51b f23e 8358 c93e 7815 d43d 0fed 2fbf
00000350: ec99 a43d f1d6 943f f4fb 5c3e 0800 153f
00000360: abbd efbd 1023 163c 0aab ea3e e801 e3be
00000370: a4da 95be 4e6e 68be 51f7 55be 2c89 6bbf
00000380: 8668 00be ca44 993e 403a 233d 35bd 563e
00000390: 3247 183b c20d 043f f1e9 56bf 72ed d63e
000003a0: deaa 5f3f 5f83 bbbf 0d37 1b3e 4562 46bd
000003b0: 5bfa 0d3f df84 023f 7935 dc3d 70aa 33bf
000003c0: 0cc4 acbe d8f6 7a3e 1737 0cbf 37d8 f63e
000003d0: b642 3a3f 12bb 513f 6e48 ba3d 0272 50bd
000003e0: 280b e63f fe97 083f 6675 4ebf 9866 e53d
000003f0: 34cd c03e 5f6c 243f 3358 543f 71d2 c73e
0.07002654 0.049574476 0.07538381 0.0263708 -0.13843201 -0.15094866 -0.08693284 -0.121235654
-0.08988767 -0.11242096 -0.018419875 -0.122413404 0.012563057 0.062676474 0.05687695 -0.041604076
-0.01890168 -0.12133319 -0.13064244 -0.06422894 -0.14393324 -0.08400487 -0.17770006 -0.123468004
-0.072143994 -0.080128014 -0.060061753 0.083694994 0.043823294 -0.083028734 -0.13186207 -0.024231447
0.056888945 -0.15040588 0.08689847 -0.067213215 -0.044668913 -0.08971264 -0.03826114 -0.0018500951
-0.07127107 -0.08607313 0.07368657 0.047006186 -0.05019366 -0.026932603 -0.07966993 -0.05493121
-0.020653516 0.0015416564 0.005499869 0.07483915 0.05172886 -0.11618376 -0.12444922 -0.088361
-0.15380561 -0.034821503 0.05542689 -0.07408427 -0.009804699 -0.08863327 0.057678327 -0.11708748
-0.021201044 -0.11261135 -0.054132417 -0.17904316 0.0198506 -0.1566525 -0.06182092 -0.16398054
-0.09679781 -0.11928992 0.007420709 -0.042253897 -0.16106382 -0.11757702 -0.02787939 -0.1341506
-0.093995616 -0.021617336 0.00281187 0.003970457 -0.06969471 0.052509625 0.050578043 0.051403448
0.042397745 0.120058194 -0.069931686 -0.12467119 -0.13077451 0.050036844 -0.08210315 0.058227535
-0.1002155 0.06670264 -0.092218265 -0.11910804 0.02300443 -0.14369923 -0.0039206445 -0.06538933
0.056444243 0.07559691 -0.02874346 -0.16258654 -0.1626531 0.043946974 -0.02817956 -0.09501436
0.050077915 0.038746864 -0.044137225 -0.08701925 -0.031068057 -0.09353963 -0.09302746 -0.092897356
-0.06278589 0.051386748 -0.06771276 -0.06760121 0.084052995 -0.16968785 0.055423427 0.124415815
-0.15025559 0.98695153 -0.2250599 0.15610594 0.15529564 0.15959474 0.24707082 0.30400038
0.5826281 -0.11505226 0.23567575 0.5208439 0.31801692 -0.03177873 -0.15737312 -0.21821766
-0.114059664 0.49926367 0.20664662 0.9040958 0.17169091 0.24370046 0.5430537 -0.27343464
0.08947087 0.097671494 0.1294075 -0.54034555 -0.0571119 0.13084325 0.83388585 -0.057886183
0.4015456 0.71314454 0.19094159 0.21743375 0.10049471 -0.05429823 -0.15367587 0.30364522
0.33487672 -0.07126511 -0.023115674 0.16557027 -0.47412732 0.20026542 0.1576173 0.43953964
0.7912865 0.2868393 0.24953999 -0.003908528 -0.8960678 0.5392996 -0.091323376 0.23112884
0.32358217 0.6734663 -0.27977005 0.06612161 0.48885244 0.43895578 0.09637795 -0.22926205
-0.19924328 0.8442112 -1.4229556 0.1817289 0.58014554 0.32929006 0.25820202 0.71937734
-0.1375561 -0.4415075 0.78230536 0.05334792 0.23205955 0.27960867 -0.20109336 0.72023755
0.47286907 0.39325342 0.10355657 -0.687211 0.08037171 1.1628095 0.21580487 0.5820317
-0.11706098 0.009163633 0.45833617 -0.44337392 -0.29268372 -0.22698328 -0.20895125 -0.9200618
-0.12539873 0.29935294 0.039850473 0.20970614 0.0023235795 0.5158349 -0.83950716 0.4197803
0.873701 -1.4649466 0.15157719 -0.04843356 0.5546014 0.50983995 0.107523866 -0.7018194
-0.33743322 0.24508226 -0.5477156 0.48211834 0.7275804 0.8192607 0.09095846 -0.050889976
1.7972155 0.5335692 -0.80647886 0.11201209 0.37656558 0.6422786 0.8294708 0.39027742

fc2.bias f4 [180]
00000000: 4d63 04bd a003 25be eada 9a3e 348c 253e
00000010: 411e 253e d345 c33e f6f2 2b3e 6c15 033c
00000020: 7772 08bd 4e2a 04be 3f31 31be b66c e13e
00000030: ecd8 b4bc 549c 87bb d60e 883b 4096 b83c
00000040: fbb2 c7bd bf1c 18be 2899 f03c fcb9 3ebe
00000050: 130f 9b3b e1a4 58bd cca1 82bd f32d cb3e
00000060: 5363 643e f71d f4bd 2860 4ebe dcef 26be
00000070: 80b8 3fbe 544b 003f 4a3f 933e 4f37 113f
00000080: 90e0 2ebd a83c d03e adc8 b13e c530 e53e
00000090: cf91 283e 520d 2abe ae8e c43e be5e 1bbe
000000a0: f8ed 2c3f 5027 283e 653f 503e 3da0 573d
000000b0: 3460 9dbc f145 4fbd 04a9 dd3a 0b6d 603e
000000c0: a3c5 893e 2c7c 02be 6c56 9abd f318 2fbd
000000d0: 366a 503c a4b8 a93d 81c7 cf3d 3e71 19be
000000e0: 0922 d2be 114f fabd 4204 e3bd 906e f53e
000000f0: 5cdb dfbd e780 b4bc 4bee babc 8ce0 3cbe
00000100: 0395 a2bd 0974 ae3e dc1b 143f 01d4 2b3e
00000110: e26f ed3e d3db a93e 3d07 943e f33d dc3e
00000120: 5cdd 25be 7d26 a33e 01ea 633e 0e79 893e
00000130: 2255 473d 3cc9 5e3e 9da1 053e c9d1 283e
00000140: db88 19be c7b6 10bc fe36 c4bd 6a19 223e
00000150: e314 0fbd d395 2abe bc44 74be 1ce5 84bd
00000160: e19b 42bd 1498 a53d 0ee9 1f3e a2c0 cbbc
00000170: 6105 733e bfb5 d0bd 4a51 4d3f 1b09 eb3c
00000180: 306d 18be 1e1e 50bd 4358 1fbe 8fb3 55be
00000190: c94c ecbd e28d 9e3e aeee 34be 7dff 943c
000001a0: acc3 b5bd 5a5b 64bd 1ab4 5bbd 7f72 02be
000001b0: e623 d5bd f3d1 c6be 5606 dfbd 01bf 89bd
000001c0: ecf9 f63d e453 303e 3f8f d63c a382 0d3f
000001d0: 45db 31bd 88d0 6abd a44f 2bbe babc a73e
000001e0: 21ab e4bd dc13 28bd 5164 093c 0eaf 6bbd
000001f0: 6e80 36be bb43 963e 65c2 b3bd 0749 0dbe
00000200: 5ca0 c8be ef57 5dbd 0149 36be 2f40 153f
00000210: 236a b23d 131e d6bd 5094 fb3d 5ddf 02be
00000220: 4983 30bd 9d16 a53e 6308 3cbe f06f 41bd
00000230: e7b0 d3bc f075 99bd 348b f5bd 2aa8 663e
00000240: fba5 163f d967 223e a04a 49bd d634 583e
00000250: 5c34 043d c80e 153e ab9c 883e 08e5 093d
00000260: ce43 01bd 9bd2 01be bbc6 8fbd 9857 c53c
00000270: 257e d83d b202 59be 831a 0bbe dfd3 17be
00000280: a595 3dbe 2827 4a3e 1c47 c23e 3cc9 1bbe
00000290: 4371 d1bc 0f45 6a3d 53d9 03be 9688 b2bc
000002a0: 90b1 1fbd 0917 dabd 20a1 14bd 0ddf 30be
000002b0: 65ec 33be c159 3d3e 218d 8b3e e7fd a83d
000002c0: acf7 1dbe 22ad 03be acd2 333e b642 e7bd
-0.032321263 -0.16114664 0.30245143 0.16166764 0.16124822 0.3813921 0.16791901 0.008000713
-0.033312287 -0.12906763 -0.17303942 0.44028252 -0.022076093 -0.004138509 0.004152159 0.022532582
-0.09750935 -0.14854716 0.029369906 -0.18625635 0.0047320216 -0.052891616 -0.063785166 0.39683494
0.22303514 -0.11919778 -0.20153868 -0.16302437 -0.18722725 0.5011494 0.28759223 0.5672502
-0.04269463 0.40671277 0.34723416 0.4476377 0.16461872 -0.16606644 0.38390106 -0.1517286
0.6755061 0.16421247 0.20336683 0.05264305 -0.019210912 -0.05060381 0.0016911332 0.21916597
0.26908597 -0.1274268 -0.07536015 -0.042748403 0.012720635 0.082871705 0.10145474 -0.14984605
-0.41041592 -0.12222112 -0.110847965 0.47935915 -0.10930511 -0.022034122 -0.022818705 -0.18445033
-0.07938578 0.34072903 0.5785501 0.16780092 0.46374422 0.33175525 0.28911772 0.43016014
-0.16197723 0.31865302 0.22257234 0.2685017 0.048665173 0.21756452 0.13049932 0.16486277
-0.14993612 -0.00883264 -0.095808014 0.15830007 -0.03493203 -0.16658716 -0.23854345 -0.06489012
-0.04751194 0.08085647 0.15616247 -0.024872128 0.2373252 -0.10190915 0.8020216 0.028690865
-0.14885402 -0.050809972 -0.15561013 -0.20869277 -0.11538083 0.30967623 -0.17669174 0.018188233
-0.08875212 -0.055751182 -0.053638555 -0.1273899 -0.10407238 -0.38832054 -0.1088988 -0.06725884
0.120593876 0.17219502 0.026191352 0.5527746 -0.043422002 -0.057327777 -0.16729599 0.32761174
-0.11165453 -0.041034564 0.008385734 -0.057539992 -0.1782243 0.2934855 -0.08777312 -0.13797389
-0.39184844 -0.054038938 -0.17801286 0.5830106 0.0871165 -0.10454955 0.12284148 -0.12780519
-0.043093953 0.32243815 -0.18362574 -0.047225893 -0.02584119 -0.07493198 -0.119894415 0.22525087
0.58847016 0.15859927 -0.049143434 0.21113905 0.032276496 0.1455642 0.26682028 0.033665687
-0.031558804 -0.12677996 -0.07020327 0.02408962 0.10570935 -0.21192434 -0.13584332 -0.14826916
-0.18514116 0.197415 0.37944877 -0.15213484 -0.025566703 0.057194766 -0.12875871 -0.021793645
-0.038987696 -0.10648925 -0.036286473 -0.17272587 -0.17570646 0.1849127 0.2725611 0.08251553
-0.1542651 -0.12859014 0.17560834 -0.11292021

conv.weight f4 [5, 1, 34, 34]
00000000: 60af 11bd 6b8c c33d 9758 863d 62d0 5f3d
00000010: 0ba6 383d 993b 013d 28ab 52bd cdbb 4ebe
00000020: 449e 8abe d962 92be db71 24bd cb08 a4be
00000030: c705 6dbd 213f 01be 30f4 5cbe fac9 23be
00000040: ebe1 8ebd 956e 33bd 181e bcbd 90e1 0c3d
00000050: baa0 dbbd 8a86 66be ada5 efbd 7519 29bc
00000060: a8cb bcbc 1573 a5bc 18a0 5fbc bc84 0d3d
00000070: 8a3e c03c 4e6d ba3d bc67 9e3c f065 c73c
00000080: 18ca 7f3b cafe df3c b223 293e 7b9e 513d
00000090: d130 a93c 2cf9 0cbd a644 823d a373 d7bd
000000a0: 682a b5bd 512e 08be 370d d7be 2043 e0be
000000b0: 0d31 d5be 933b bfbe 3594 d8bd ffa1 c3bd
000000c0: 0a2e 9bbe 6705 62be 6073 8abe 1c5a 89be
000000d0: 84d3 5ebd f0fa 31bc 8661 57be 8b31 75be
000000e0: 8f4f 42be 6307 0dbe b597 dbbd f035 173b
000000f0: 98a8 89bc 0366 afbb d996 e03c 82bb 263d
00000100: 47e9 afbc c3b6 1e3d 9e97 f43c 6693 7c3d
00000110: eba7 3b3e a80e 833d 9043 c6bd a62e dabd
00000120: 03fc 56bd a61a 17be 3698 21be 9aa0 17be
00000130: aa43 ecbe e006 11bf f04b 00bf 441d f0be
00000140: 6821 c2be b596 cbbe b860 a2be 2c6f a3be
00000150: c439 a3be e8ed b5be c889 8cbe bf92 9abe
00000160: d84d e7be 844b a3be b415 40be abd5 30be
00000170: fda2 80bd 68d5 e4bd 1c71 ebbd 262d 11be
00000180: 7ce4 083d 66c0 653d 052f 98bc 7570 bf3a
00000190: d2dc 59bc 8ae1 d9bb a894 af3d c6be b73b
000001a0: 5b7e 1bbe ec46 11be d7d8 20be a196 3ebe
000001b0: c40c 47be 12f4 a1be 20bc cebe 0bd4 0abf
000001c0: f788 0ebf 5da5 dfbe 4f85 cebe 9eba bcbe
000001d0: 6780 08bf fafe 31bf 806a 19bf cedb 44bf
000001e0: 81fa 0fbf aeca cebe 3414 f6be 37b2 b1be
000001f0: b0dc 0cbf 0b81 19bf e6d8 eabd f94a d5bd
00000200: aaae 0bbe 4632 4ebe 3e80 23be 091f a6bd
00000210: c00d 02be 2e05 46bd 2d82 863c dbd7 57bc
00000220: a307 123e d8cd fb3d c243 84bc 1d55 1ebd
00000230: a5d8 85be 8c70 8ebe 55a9 a5be a5c2 c3be
00000240: 06b8 d2be cd84 26bf b03a 17bf 3fef 3fbf
00000250: 3a53 1bbf a4cd 1fbf 1e45 21bf dc9a 1ebf
00000260: 094c 37bf 7599 42bf a450 39bf 706e f8be
00000270: f62b 0fbf 7975 20bf b264 38bf 9dbf 35bf
00000280: eaec 05be 022f 93bd 5bb0 c5bd 5817 1fbe
00000290: d1c0 22be 536a f7bd 0040 1ebe 2e90 a7bd
000002a0: c0f5 a2bd a11b 89bd d32f db3d c702 1f3e
000002b0: 5914 8fbd 2759 b0bd 4dda 8dbe 929c b4be
000002c0: 2878 dabe 05b2 cebe 8c0a 08bf 58e6 49bf
000002d0: dca3 27bf e4c6 5cbf 3649 8dbf 3f67 8bbf
000002e0: 86ec 37bf b0eb 63bf efef 6cbf 0163 57bf
000002f0: da4b 74bf 5a30 69bf ed1d 68bf c614 44bf
00000300: 70b0 35bf a545 30bf a347 0fbe a0d5 65be
00000310: dd55 64be d393 1bbe 8d13 4fbe 8f56 aebd
00000320: d0d9 09be 5b37 0ebe 55be dbbd 1ba3 78bd
00000330: c559 be3d 081f 8fbc 70ee 47be 8aac 81be
00000340: 0e7e 92be 7f06 adbe 67aa d8be c6df 32bf
00000350: 1480 45bf f920 50bf 123d 8dbf aa46 85bf
00000360: 44fb 90bf b2ea 81bf 795f 9dbf 5991 bbbf
00000370: 66d8 84bf 5ec9 a0bf 1c24 8bbf f1d1 63bf
00000380: 6155 84bf ae4f 8abf e2b1 84bf a31e 49bf
00000390: bbe1 96be aa1d cebe 5628 8cbe 2a4a 7ebe
000003a0: 5d56 63be d3e3 7fbd 8505 43be 1149 51be
000003b0: d755 1bbe d4d2 c7bd 37a7 8dbc c6fc e6bc
000003c0: cb7b 44bd 0cb3 87be 9a70 96be b720 05bf
000003d0: 47c7 1bbf c2db 22bf edca 89bf c700 8dbf
000003e0: d42d babf b656 88bf a44a 97bf 5fd4 bdbf
000003f0: 634f c5bf b8d2 c2bf 032b c0bf 2625 c7bf
-0.03556764 0.09548267 0.06559866 0.05464209 0.045080226 0.031550977 -0.05143276 -0.20188828
-0.27073872 -0.2859104 -0.040147644 -0.32037959 -0.057866838 -0.12621738 -0.21577525 -0.15995017
-0.06976684 -0.04380663 -0.091854274 0.0343948 -0.107240155 -0.2251226 -0.11701522 -0.010321011
-0.02304633 -0.020196477 -0.013649009 0.034550413 0.023467321 0.091028795 0.019336574 0.0243406
0.003903037 0.027343173 0.16517523 0.05117653 0.02065316 -0.034417316 0.0636075 -0.10520103
-0.08845979 -0.13298918 -0.4200227 -0.43801212 -0.41638985 -0.3735014 -0.10575143 -0.09552383
-0.30308563 -0.22072373 -0.2704115 -0.2682656 -0.054400936 -0.010863051 -0.21033296 -0.2394468
-0.18975662 -0.13772349 -0.10722295 0.002307292 -0.016804025 -0.005352737 0.02741568 0.040706165
-0.02147354 0.038748514 0.029857453 0.061664008 0.18325774 0.0639928 -0.09680855 -0.10653429
-0.05248643 -0.1475626 -0.1578072 -0.14807358 -0.46145374 -0.56651115 -0.5011587 -0.46897328
-0.37916112 -0.39763418 -0.31714416 -0.31920755 -0.3188001 -0.3553307 -0.2744887 -0.30190083
-0.45176578 -0.3189355 -0.18758279 -0.17269008 -0.062810875 -0.111735165 -0.11496183 -0.14177379
0.033421025 0.05609169 -0.018577108 0.0014605658 -0.013297277 -0.006649201 0.08573276 0.0056074588
-0.1518492 -0.14187211 -0.15707718 -0.18612148 -0.19438463 -0.31631523 -0.40377903 -0.542298
-0.5567774 -0.4368085 -0.4033608 -0.36861128 -0.53320926 -0.6952969 -0.5992813 -0.76897895
-0.56241614 -0.40389007 -0.4806229 -0.3470628 -0.5502424 -0.5996253 -0.11467151 -0.104146905
-0.13640848 -0.20136365 -0.1596689 -0.08111388 -0.12700558 -0.048344783 0.016419495 -0.013174023
0.14260726 0.12295121 -0.01614559 -0.03865539 -0.2614185 -0.2782024 -0.32355753 -0.3823444
-0.41156024 -0.6504639 -0.59073925 -0.74974436 -0.6067387 -0.6242316 -0.6299609 -0.61955047
-0.71600395 -0.76015407 -0.7238867 -0.48521757 -0.55926454 -0.6267925 -0.7202865 -0.70995504
-0.13078657 -0.071867004 -0.09652778 -0.15536249 -0.15893866 -0.120808266 -0.15454102 -0.08181797
-0.07957029 -0.06694723 0.10702481 0.15528403 -0.06986303 -0.086107545 -0.27705613 -0.35275704
-0.42669797 -0.40370193 -0.53141093 -0.788671 -0.65484405 -0.86240983 -1.1037967 -1.0890883
-0.7184528 -0.89031506 -0.9255361 -0.8413544 -0.9542824 -0.91089404 -0.90670663 -0.765942
-0.7097235 -0.6885627 -0.13992171 -0.22444773 -0.22298379 -0.15193109 -0.20222302 -0.085126035
-0.13461995 -0.13888304 -0.10729662 -0.060702424 0.09294466 -0.017470852 -0.1952455 -0.2532695
-0.28611797 -0.3379402 -0.42317507 -0.698727 -0.77148557 -0.8130031 -1.1034262 -1.041219
-1.132668 -1.0149748 -1.2294761 -1.4653732 -1.037854 -1.2561452 -1.0870395 -0.8899222
-1.0338556 -1.0805566 -1.0366786 -0.7856237 -0.29469094 -0.40257007 -0.27374524 -0.24832979
-0.22200914 -0.06247313 -0.19045074 -0.20438029 -0.15169464 -0.09757009 -0.017291648 -0.028196704
-0.04796962 -0.2650379 -0.29382783 -0.52003044 -0.6085095 -0.63616574 -1.0765053 -1.1015862
-1.4545236 -1.0651462 -1.1819654 -1.4830436 -1.5414852 -1.5220556 -1.5013126 -1.5558212

conv.weight f4 [5, 1, 10, 10]
00000000: fcdc 543e d20b 443e d38d 2a3e bea9 ac3e
00000010: d43b 703e 423c c73e 7421 913e b685 c73e
00000020: 8280 5b3e 95a2 713e a1eb 743e 577e 1a3e
00000030: 3b16 6c3e 1319 9b3e 6e9d 8f3e 78a2 bb3e
00000040: 4e3f b93e c453 c43e 7a83 823e 9cd1 cc3e
00000050: fc89 523e 9f3a 5f3e 7d89 133e f358 2f3e
00000060: e22f 973e 1a71 843e 52e4 463e d75f ac3e
00000070: c206 6b3e 5ea4 bd3e 9ce2 7e3d 81ce 533e
00000080: 5192 2b3e a160 783e 10cc 813e a5a7 ac3e
00000090: c3b1 953e 025d 603e 1c74 833e 2069 703e
000000a0: 290a 173e 2f75 653e 1526 7a3e def6 023e
000000b0: 29fb 6c3e 6066 d23e 7979 9b3e cf98 cf3e
000000c0: 6a05 9d3e b289 c23e 480f 4f3e 0278 4f3e
000000d0: 1040 053e 749a 9e3e 67e2 9f3e 260b 733e
000000e0: 83cd b83e 3580 303e 840b 6b3e a546 8a3e
000000f0: 2fea 043e 7c09 a93d 7acf 393e 28f6 a03e
00000100: deb2 4b3e 5886 b73e 29ec 963e 0f39 6a3e
00000110: 5c14 a63e cb40 c33e b7a6 733e 10da 9f3e
00000120: ae07 f13d fe4b 403e 0c3a 953e deae 753e
00000130: b81a b83e da15 ae3e ea70 9d3e 2fc5 513e
00000140: deda d13e f62b cc3e 7a76 b73e 610f 8b3e
00000150: 77c4 973e 4f05 3b3e 442d 743e fa4b 883e
00000160: 6dc8 b53e b162 c33e fcfb 933e ea94 5b3e
00000170: ee7f be3e 04e8 bd3e 558c 593e 0bf5 523e
00000180: 2831 b13e b7dd 743e d538 873e e375 b63e
00000190: 698d a73d 8327 e2bd eb83 cbbd a90a 92bd
000001a0: 6e34 733d 7146 c7bd 81f9 17bd d658 8d3d
000001b0: 45bb 5ebd 9bac 69bd 980d b73d 0890 03bc
000001c0: 5180 99bd 25f0 c9bd f833 e83c 1da8 44bd
000001d0: 3aea ebbd 82e0 0e3d 6dd9 c9bd 02d4 b13c
000001e0: 6a56 043c 2587 8bbd 6348 9bbd c1c3 073d
000001f0: dc50 00bd d151 9abd d45b c7bd 963f f0bd
00000200: 05a2 efbd d64a 523d ef1f e8bd a786 f7bd
00000210: cb7f 0fbe d9be babd 09a6 9abd e1ab 17bc
00000220: 8281 e6bb dcf0 14be 3d1e 883b e2f8 af3c
00000230: 42a0 02be d720 bb3a 36ce d8bd 31cd c1bd
00000240: 1da1 a03d ea42 133d 38b8 f0bc a80b 25bc
00000250: a887 e3bd e116 233b 7ba1 463e 34dc 98bc
00000260: 7a84 15be 31a5 c4bd eb82 c2bd 7ab3 a9bd
00000270: f484 c53c c2df 0d3d 79a8 13be f0c7 ddbd
00000280: a61b 583e c2a4 12bd cc26 3dbe 011d 2cbc
00000290: ac0f d9bc 3e49 d5bd 0d80 80bd 2987 68bd
000002a0: 85c3 12be bc21 c9bd 1472 343e 31a7 ea3d
000002b0: 8fcc c0bd 62b8 adbd acbe d3bd f68c b2bd
000002c0: f991 f8bb fd1b 00be 8e02 aebb 32ce 6d3e
000002d0: 6f7d 893d e511 683d 687e 053d 40a0 72bd
000002e0: 6ca5 95bd 2090 11bd c947 87bc 86b7 b73b
000002f0: 21f1 423e cf42 fe3d 93ff c63d 3982 5a3e
00000300: cc92 893e 33a5 8dbd 5e16 38be 644b 1e3d
00000310: c4df b0bb ca8e a9bc 5587 523e dc62 8c3d
00000320: f9f4 b8bc c251 e5bd 0c92 cb3c 613d 22be
00000330: 841d c1bc 2295 d6bd 754b c53c 308d f83c
00000340: e51e 8ebc ad3d 0cbe 23fb 14be 2c0c 93bd
00000350: d190 fbbd 1d23 2d3d 2adb d7bc b0e6 15be
00000360: 95b6 d33a 9d63 333d 0453 babd d052 32bd
00000370: 9faa e8bc 229f 8abd 3de1 e7bc 6190 d8bd
00000380: 99c4 8cbd 0543 f2bc 25df fcbd d44b eabd
00000390: 02d0 903c 2279 9cbc 509d adbd 6abf dfbd
000003a0: 2bb7 833c d5e0 12bd 4bad fabd 8711 09be
000003b0: 8f98 d23c 7675 1abe 6af5 213d db9e e4bd
000003c0: 7f71 0bbe 4a8d 0cbd 9408 11be 8063 0fbe
000003d0: 0822 73bd ce98 04be c8ca 65bd 0988 dabd
000003e0: cb9e 923c c8cc 27be 69c2 02be b085 66bd
000003f0: 74c9 a3bd 4fcb 1fbe 7e05 103c 5e75 f7bd
0.20787424 0.19145134 0.16655664 0.33723253 0.23460323 0.3891316 0.28345835 0.389692
0.2143574 0.23597176 0.2391801 0.15087257 0.23055355 0.30292568 0.28049797 0.3664739
0.3618111 0.38345158 0.25490934 0.4000367 0.2056045 0.21799706 0.14407916 0.17123775
0.2952872 0.2586754 0.19423035 0.3366687 0.22951797 0.37039465 0.06222783 0.20684244
0.16755034 0.24255611 0.25351 0.33721653 0.29237184 0.2191048 0.25674522 0.23477602
0.1474997 0.22407983 0.2442859 0.12789485 0.23142685 0.4109373 0.30366114 0.4054627
0.30668193 0.37995678 0.20220673 0.20260623 0.13012719 0.30977213 0.3122742 0.23734722
0.36094293 0.17236407 0.22953612 0.27007023 0.12979959 0.08253762 0.18145552 0.31437802
0.19892451 0.35844684 0.2947705 0.22873329 0.32437408 0.3813537 0.23794065 0.31221056
0.11769043 0.18778989 0.2914585 0.23992488 0.35957885 0.34001046 0.3075021 0.20485376
0.40987295 0.3987729 0.35832578 0.2716017 0.29642078 0.18263744 0.23845392 0.26620466
0.35504475 0.38161233 0.28903186 0.21443525 0.37206978 0.37091076 0.21244939 0.20601289
0.34607816 0.23912703 0.26410547 0.35636815 0.08181269 -0.110426925 -0.09937271 -0.071309395
0.059376173 -0.097302325 -0.03710318 0.0690171 -0.054377813 -0.057049375 0.0893814 -0.008029945
-0.074951775 -0.09860257 0.028345093 -0.048011888 -0.115192845 0.034882076 -0.09855924 0.021707539
0.008077243 -0.06812886 -0.07582166 0.03314567 -0.031327114 -0.075351365 -0.09734312 -0.11730878
-0.11700825 0.0513409 -0.11334216 -0.1208623 -0.14013593 -0.091184326 -0.075512 -0.009257288
-0.0070344815 -0.14545006 0.0041539953 0.021480981 -0.12756446 0.0014276755 -0.105862066 -0.09462965
0.0784323 0.035952486 -0.029384717 -0.01007358 -0.11109859 0.0024885463 0.19397537 -0.018659689
-0.14601317 -0.0960182 -0.09497627 -0.082861856 0.024111249 0.03463722 -0.14419736 -0.10829151
0.21104297 -0.035801657 -0.18471831 -0.010504962 -0.02649673 -0.104143605 -0.06274424 -0.056769524
-0.14332397 -0.098208874 0.17621642 0.114576705 -0.094140165 -0.08482434 -0.10339102 -0.087182924
-0.0075857607 -0.12510677 -0.005310363 0.23223189 0.06713378 0.05665769 0.032591254 -0.059234858
-0.07306942 -0.03553784 -0.016513722 0.0056065945 0.19037296 0.124150865 0.09716716 0.21338739
0.2686981 -0.06916275 -0.17977282 0.038646117 -0.0053977687 -0.02069797 0.20559438 0.068547934
-0.02257775 -0.11197235 0.024849914 -0.15843727 -0.023573644 -0.104776636 0.024083832 0.030340761
-0.017348716 -0.13695402 -0.14548926 -0.07180056 -0.12283481 0.042269815 -0.026349623 -0.14638782
0.0016152436 0.04379617 -0.09097865 -0.043536007 -0.028401671 -0.067686334 -0.028305644 -0.10574413
-0.068734355 -0.029572973 -0.12347249 -0.11440244 0.01767731 -0.01910073 -0.084772706 -0.10925181
0.016078552 -0.035858948 -0.12240084 -0.13385592 0.025707511 -0.1508387 0.039540686 -0.11163112
-0.13617514 -0.03431443 -0.14163429 -0.140028 -0.059358627 -0.12948915 -0.05610159 -0.10670478
0.017897984 -0.16386712 -0.12769474 -0.056279838 -0.079974085 -0.156049 0.008790372 -0.12082933

conv.bias f4 [5]
00000000: b6c2 a03e 7cc6 843e c831 db3d 0d98 30be
00000010: fa8b 9d3c
0.31398553 0.25932682 0.107028544 -0.17245503 0.019231785

fc1.weight f4 [64, 180]
00000000: 19a4 06bd d87d a6bc 8119 58bd 45e8 d5bc
00000010: d429 46bd 3d32 5dbc 1e10 febd c09c e9bd
00000020: 58b5 e5bd 24ba d2bd 659d ca3c 7c8d f3bd
00000030: 0df8 0ebc 703e 703c 6a10 e839 9369 c7bd
00000040: ed15 bcbd 79cc 93bd 477c 69bd 2f4b 47bd
00000050: a31d 763c d13f 7cbd bf4e a7bd 9cc0 1dbd
00000060: 6d73 7dbc 1179 8fbd b850 f3bd c36b c1bd
00000070: 958b bfbd 6d96 bbbd e6ec 8cbd 62c5 e9bc
00000080: 2aa4 963c d764 7abd 8b22 34bd d47f e7bd
00000090: 78d9 86bd ee5c 8cbd cb0a 3a3c c9f4 b6bc
000000a0: 2611 cebd 1987 21bd f081 42bb ffe2 fbbc
000000b0: 25e6 f9bd 9fa2 1bbd 1f60 3abd 13a5 45bd
000000c0: d948 aabd 9db4 aebd f383 9f3b 6059 debd
000000d0: fda0 91bc 72db 26bd 07d4 0dbd f359 b0bb
000000e0: d1cf 963d 08da 01bd 66de 91bd 3a23 26bd
000000f0: 955a 9c3c bcec 793c bb69 80bd de8b c7bd
00000100: 3f99 6bbd 8c63 d4bd d8a7 8ebb 5857 18bd
00000110: d882 89bd 754d 3b3c e4d4 82bd 766e 6fbd
00000120: a186 c5b8 687c d4bd d62d 73bc 4dfb 69bd
00000130: c4d0 56bd 043a 58bd e8c8 29bc 0cb8 4fbc
00000140: 9d64 eabc e89c f1bd 4a4f edbd f3cf 603c
00000150: b760 a13b 8b28 923c c076 44bd 10e9 80bc
00000160: c11c 88bd 803d 8ebd f1a7 1a3c 098e 7abd
00000170: 82cc 47bd 5897 653c 2f08 8cbd 5be9 8a3c
00000180: c132 343c 2386 24bd 94e0 49bd 622e d7bd
00000190: cb75 15bd 7ec5 aabd 1ccd 5cbd 7b13 bd3c
000001a0: 8be1 89bb 52bd a6bd 6308 923c 6280 1fbd
000001b0: dfe3 5ebd c0c0 e1ba 14da 3d3d e0ff f93c
000001c0: 2890 a4bc fd9d 8d3d 1093 803b 6247 85bc
000001d0: 3601 5e3d 73c3 823d e03a cd3b 285c 1f3c
000001e0: 9a22 363d 7347 8bbd a06f 193d d491 9a3c
000001f0: 1059 2ebd d88d 4f3c c015 08bc 9cb5 1abd
00000200: 0472 96bd e0a9 85bb 95e0 813d 7493 9dbc
00000210: 1e1f 96bc 5713 27bd 7779 8ebd 40bb eeba
00000220: d083 7a3c fedd 3fbd a970 0ebd 7941 6bbd
00000230: 8c7e 42bd 2c38 133d 1e08 683d 5007 bf3b
00000240: e877 abbb 92e7 86bd 7cec 803c c6fa c5bd
00000250: 56f3 b0bd 321f 60bd be39 5dbd d688 e6bc
00000260: e589 c5bd 48a7 f7bd ba57 9ebc abb9 afbd
00000270: ecc0 c5bd e073 ccbb 5e05 19bd 6ad6 5dbd
00000280: f6e3 14bd 2e8b bbbc f493 83bd c866 18bd
00000290: 7169 52bd 7254 2ebd fdce c1bd 307f b93b
000002a0: f8e9 e8bd 18dd b7bd 72b2 01bc e6ca 06bd
000002b0: 39a0 e2bd a4e0 a9bd 3df1 0ebd 1cc8 fbbd
000002c0: 255f c6bc 6ace 00bd b381 e9bd 79e6 ac3c
000002d0: 5e38 523d 0800 afbc c15b 2dbd 0a27 773d
000002e0: 364c e8bc 24c7 0dbd 60ba 453d 00a2 443a
000002f0: fc88 54bd d82d 16bd c0f1 8bba e0b5 e5bb
00000300: a08a 463b 6834 02bc c4f7 19bd c0e7 dfbb
00000310: 9c91 ad3c deb9 83bd 2ade 6e3d 84e8 5fbc
00000320: 3450 55bd fcc3 3dbd 6ce5 40bd 32be 553d
00000330: 18b8 473c e049 14bc 7efb 3bbd d892 5d3c
00000340: 103d a03b 4051 343b d98a 803d 8be2 883d
00000350: 5cb1 79bc 1c13 41bd 765f 493d e852 713c
00000360: 8697 9ebc 284b 7b3c d424 86bd 54bc 57bd
00000370: f0f7 5cbd d288 0d3d b0d1 05bc 8caa 8bbd
00000380: e4c0 393d e596 80bd bd5d 27bd f51f 3bbd
00000390: 0c08 f0bc a0f3 52bb 6009 c5bb 7e9f a4bc
000003a0: 902b 1cbd d8de 23bd 8395 8cbd 6947 923d
000003b0: 887d 51bd dcee df3c d446 a4bc d8d0 7fbc
000003c0: 50c5 5ebd 7279 81bd 1d30 22bd b48b ca3c
000003d0: e23c 003d 002d 223c 088e db3c d8fb 753c
000003e0: 3a4b 293d d94b 6dbd 807a 04ba d64d 683d
000003f0: c611 633d 0437 5ebd 0096 65b9 9532 943d
-0.03287134 -0.020323679 -0.052758697 -0.026111731 -0.048379734 -0.013500747 -0.12405418 -0.11406851
-0.11216229 -0.1028941 0.024733255 -0.118922204 -0.008726132 0.014663324 0.00044262718 -0.097369336
-0.091838695 -0.072167344 -0.057003286 -0.048655685 0.015021714 -0.061584298 -0.081693165 -0.038513765
-0.015469414 -0.070055135 -0.1188063 -0.09444382 -0.09352795 -0.09159551 -0.06881122 -0.028536502
0.018388826 -0.061131325 -0.043978255 -0.11303678 -0.065844476 -0.068536624 0.011355112 -0.02233352
-0.100618646 -0.03943548 -0.00296795 -0.030747889 -0.122021 -0.037996884 -0.045501824 -0.04825313
-0.08314676 -0.08530543 0.0048680245 -0.10856891 -0.01777696 -0.040736623 -0.034626033 -0.0053818165
0.073638566 -0.03170207 -0.07122497 -0.04056094 0.019086162 0.015254196 -0.062701665 -0.097434744
-0.057519194 -0.103705496 -0.0043535046 -0.037192672 -0.067144096 0.011432041 -0.06388262 -0.058454953
-9.4187686e-05 -0.10375291 -0.014842471 -0.057124425 -0.05244519 -0.052789703 -0.010362841 -0.012678158
-0.02861243 -0.117975056 -0.11587389 0.013721454 0.0049248594 0.017841598 -0.04796481 -0.015736133
-0.06646109 -0.06945324 0.009439454 -0.06117061 -0.04877902 0.014013134 -0.068374984 0.016956976
0.010998429 -0.040166985 -0.04928644 -0.10506894 -0.03648929 -0.0833845 -0.053906545 0.023080578
-0.004207795 -0.08141579 0.017826265 -0.038940795 -0.054416534 -0.0017223582 0.046350554 0.030517519
-0.02008827 0.069148995 0.003923781 -0.01626939 0.054200374 0.06384935 0.006263122 0.009726562
0.044466592 -0.06800737 0.03745997 0.018868364 -0.042565405 0.0126680955 -0.008305967 -0.037770852
-0.073459655 -0.0040790886 0.06341664 -0.01923535 -0.018325385 -0.04078993 -0.06956761 -0.0018213764
0.015290216 -0.046842568 -0.03477541 -0.057435486 -0.047483966 0.03594224 0.056648366 0.005829729
-0.0052328 -0.06587137 0.015737765 -0.09666972 -0.08640163 -0.05471725 -0.054010145 -0.02814142
-0.09645442 -0.12092453 -0.01932894 -0.08580335 -0.096559376 -0.0062393993 -0.037358634 -0.05415956
-0.036350213 -0.022893514 -0.06424704 -0.037207395 -0.051370088 -0.042561002 -0.09463308 0.005660914
-0.11372751 -0.08977717 -0.00791608 -0.032908343 -0.11065716 -0.082948 -0.03489803 -0.12294027
-0.02421529 -0.03144685 -0.11401691 0.021105992 0.051323287 -0.02136232 -0.04232383 0.060339965
-0.028356653 -0.034613743 0.048273444 0.00075009465 -0.05188845 -0.036664814 -0.0010676906 -0.0070102066
0.003029503 -0.007947065 -0.037589803 -0.0068330467 0.021187596 -0.06431936 0.05831734 -0.013666276
-0.05207844 -0.046329483 -0.047093794 0.052183338 0.012189887 -0.009050816 -0.04589414 0.01352378
0.0048900917 0.002751425 0.06276483 0.06683835 -0.01524004 -0.047137365 0.049163304 0.014729239
-0.019359361 0.015337743 -0.06549993 -0.052669838 -0.05394739 0.03455431 -0.008167669 -0.068196386
0.04534997 -0.06278781 -0.04086088 -0.045684773 -0.029300712 -0.003218867 -0.0060130805 -0.020095583
-0.038127482 -0.040007442 -0.068644546 0.07142527 -0.051145107 0.027335577 -0.020053305 -0.015613757
-0.05438739 -0.06321992 -0.039596666 0.024724819 0.031308062 0.009898424 0.026801124 0.0150136575
0.041331507 -0.057933662 -0.00050536543 0.056714855 0.055436872 -0.054251686 -0.00021895021 0.0723621

fc1.bias f4 [64]
00000000: f6f4 b9bc e013 05bb 86b6 8cbd ac86 24bd
00000010: df0d de3b 7027 efbb 51b3 83bc 74bb dcbd
00000020: 6bc9 01bd 389a 95bc 60bf a33c e0cc 213b
00000030: b4d4 61bd 41e3 413c 4efa 5d3d 3eb9 ecbc
00000040: a336 63bd 560e bbbc b1a7 28bd faae 45bc
00000050: 825a 6fbd c69e b1bd 6451 7cbd 1c32 e0bc
00000060: bbdd af3d 2952 bdbd 179e b7bd 743d a1bd
00000070: 208d b2bd 6e9e 39bb 0fab 18bd 47c7 433e
00000080: 1451 08be d8f2 ff3d b6dc 4d3e d085 8d3b
00000090: bec2 cdbd f673 32bd e60a 3c3d 3264 89bd
000000a0: d01c 25bd 1fa8 683e 0f86 91bd 26e1 bcbd
000000b0: 746e bbbc 12b7 6fbd 2b48 6b39 4dd0 423e
000000c0: 8423 b3bc bced a7bc d3c6 a73e 3295 41bd
000000d0: 6662 0bbe 6565 91bc 1822 14bd 60eb 89bd
000000e0: 3e0d 83bd bf37 673d ec87 b4bd 42b0 d1bd
000000f0: ddb3 f6bd 70db cabd b88b 62bb 560c 523d
-0.022699814 -0.0020306036 -0.06870751 -0.040167496 0.006776556 -0.0072984025 -0.016076716 -0.10777941
-0.031686228 -0.018262014 0.019988716 0.0024688765 -0.05513449 0.011833967 0.054193787 -0.028896924
-0.055472028 -0.022833984 -0.041175548 -0.012065643 -0.058435924 -0.08672862 -0.061601058 -0.027367644
0.085872136 -0.092441864 -0.089657 -0.078730494 -0.08718324 -0.0028323191 -0.03727251 0.19118987
-0.13312179 0.12497491 0.20103726 0.00431893 -0.1004691 -0.04356762 0.04590883 -0.06708564
-0.04031068 0.22720383 -0.07105648 -0.09222631 -0.022879817 -0.0585242 0.00022438231 0.19024773
-0.021867521 -0.020499103 0.32768878 -0.047261424 -0.13611755 -0.017748544 -0.036165327 -0.06734347
-0.0639901 0.056449648 -0.088149875 -0.10238697 -0.12046025 -0.09905136 -0.0034568142 0.051281296

fc2.weight f4 [4, 64]
00000000: cc9a 4bbd e0c9 7d3d 3677 5f3c d455 82bd
00000010: 7c6f 40bd e85e 193d c00e 003e a9f3 2c3e
00000020: f03f 183d 0ae7 85bd 9eda f2bd 9445 e0bc
00000030: 36ca 82bd 8fcf 183d 6d20 843e 8295 833d
00000040: 5d2e 95bc b690 273d 0e79 fc3d d757 dc3d
00000050: 7f35 963d 5585 edbc f049 303e dac6 ea3d
00000060: 601d 8a3e 85c6 c93d eab2 183e 004a cd3d
00000070: 5dd5 133e 9cc7 7e3c 9781 db3d bbfc a43e
00000080: 2015 09bd 0dee b03e a960 a23e c49e 34bd
00000090: d122 343d 55ee 5e3d b287 aabd 59d3 963d
000000a0: bfd6 d13d 9f25 b23e e271 983c 78ec 0c3e
000000b0: fce3 463e 34c9 63bd 1288 45bd 37c0 a83e
000000c0: d8c3 a13d 7e30 a93d 89de b53e 605b 9a3c
000000d0: 1252 473d 255e 6ebd 0e7d 373e 46dc eb3d
000000e0: 6ec4 c43d a833 f13d 76fd 8e3c 838d c93d
000000f0: d979 10bd 74ef 833d 1ea0 d23d 689e 0a3d
00000100: b880 3cbd 64b6 6f3d a2ca d6bd 1c0c 5d3d
00000110: 32c0 fbbd 5812 89bd 55b5 24be 9a54 a6bd
00000120: c471 3cbd 3a65 d33d 001c 15bc d65e fbbc
00000130: 5cab f5bd 37a8 a5bd d2fc 33bf a0e4 7fbd
00000140: 0050 c13c fb52 e4bd cd9a 94bd ce83 0ebe
00000150: 1614 e5bc c9ae c9bd 2fda fd3b fcb1 45bd
00000160: 841d 3cbf 7a33 d4bc 0bce e0bd a63c 713d
00000170: d8c2 833d 6dc9 bcbd 800e 56bc bdb9 60bf
00000180: 437e 473d eef9 70bf 342a 5dbf 1451 bbbd
00000190: 83ba 5f3b 17ce 35bd d09c d63d d5af 8dbd
000001a0: 3e85 96bd d9bf 72bf de8a 18be aa8e b7bd
000001b0: bd80 07bf 802f cf3c daf4 93bd 13d8 65bf
000001c0: 40ca b0bd 00e7 cb3d c7a8 77bf f667 93bd
000001d0: fbe9 37be 62d4 13be 7ba3 61bc 9aec d93d
000001e0: 9903 89bb da54 49be 46ad 17be c668 53bd
000001f0: 675c dfbd b73d 47be dc95 f8bc 64f7 96bd
00000200: 30bf a5bd 4c1e f13d 2d18 6c3c 9cb7 ec3d
00000210: 4a6f c6bc 8a2a 9cbd 4234 c3bc c11b 38bd
00000220: 9080 253d d8c0 983d e09a 5f3d 1495 823d
00000230: 28f6 8dbc ecdb 703b b18d 103d a036 fabb
00000240: cae0 c0bb bfb0 b73b fc14 a13d 2bb5 fe3d
00000250: 7d59 7d3c 5271 6d3d f8a5 653c 487c cdbd
00000260: 06cb 163d 4a4e 703d 36b4 403d 95c8 92bd
00000270: 4dac 5b3d b34f 663d 43e3 933c 314c 343d
00000280: 8984 fe3c c83a 413d 6859 313d 243b fbbd
00000290: 5433 52bb f122 c4bd e248 a73d cbdd 1dbd
000002a0: 672d 613b a988 433d 1b2a a4bd d70e 0c3d
000002b0: 35e8 d93c 5cb5 26bd 9f00 953c db58 383d
000002c0: ec96 a0bd c0a3 753b c941 463d 801f 4ebb
000002d0: 0aa8 e93d 5722 c13d 8005 463d 6a5b d63d
000002e0: 7abb 2bbd 98d1 00bd 0ed2 973d 7890 86bc
000002f0: 4197 dabc 9630 2f3e ca07 8fbc a8c4 f1bd
00000300: b047 9d3c 8cac a4bd aa1b 443d 0835 d2bc
00000310: 4235 80bd e07e 9ebb 887d 253d 514b 18bd
00000320: 5c96 973d 0080 3eb8 8823 ed3d f660 11be
00000330: 0838 d03c ce7e 283d 3cee d93d 1053 923c
00000340: f8e0 abbd d393 8a3c e6ec d3ba cbb4 acbc
00000350: dcb3 683d bd46 93bd 699b 10bc 1e8e af3d
00000360: 81ab e33d a2f6 dfbd 70e6 9abc 161d 44bc
00000370: b7ab 31be 5345 41bd 25ab c23c 5ff6 073e
00000380: b6b4 04be a5c1 113e edcb 053e e816 843c
00000390: 71b6 3abc ebfe ab3b ec7d 123d 1ef7 0fbd
000003a0: a8ac 983c 55ea 123e 0a77 d53d 43a2 21bd
000003b0: d53b a43d c08f 943d 31c7 973d fa0b 0b3e
000003c0: 6223 c83d 36a9 813d e9bf 153e c8ca d6bc
000003d0: dea2 8bba 0923 353d 5887 3fbd 58d3 9cbd
000003e0: 0b42 0b3e b1b2 a03c 1464 54bd fe31 733d
000003f0: f8b6 edbd f2e1 58bd 4ab9 df3c e4c7 28bd
-0.049708173 0.0619601 0.013639262 -0.06364027 -0.04698132 0.037444025 0.12505627 0.16889824
0.03717035 -0.06538208 -0.11858104 -0.027376927 -0.06386225 0.03730732 0.2580599 0.06425001
-0.018210584 0.04090949 0.12327777 0.107589416 0.07334422 -0.028994242 0.17215705 0.11463709
0.26975536 0.09852318 0.14912 0.1002388 0.1443686 0.01555052 0.10718077 0.32224068
-0.033467412 0.34556618 0.3171437 -0.044096723 0.043978516 0.05442651 -0.08326663 0.0736453
0.10246038 0.34794328 0.018608991 0.1376208 0.19422907 -0.055611804 -0.04822547 0.32959148
0.07898682 0.08261202 0.35521343 0.0188424 0.048662253 -0.058195252 0.17918798 0.11516623
0.096077785 0.11777431 0.017454844 0.09841444 -0.035272453 0.064421564 0.10284446 0.033842474
-0.046021193 0.05852355 -0.10487868 0.053966627 -0.12292518 -0.06692952 -0.16084798 -0.08121605
-0.046006933 0.10322042 -0.009100914 -0.03068487 -0.11995575 -0.08088725 -0.7030765 -0.062473893
0.023597717 -0.1114864 -0.072560884 -0.13917467 -0.02796368 -0.09847791 0.007746957 -0.048265442
-0.7348254 -0.025903452 -0.109767996 0.05889573 0.06433648 -0.092181064 -0.0130649805 -0.87783414
0.048704397 -0.9413136 -0.8639252 -0.09146324 0.003413827 -0.044385996 0.10479128 -0.06918303
-0.07349633 -0.94823986 -0.14896724 -0.08962758 -0.52930814 0.025291204 -0.07224436 -0.8978283
-0.08632326 0.09956169 -0.9674191 -0.07197563 -0.1796035 -0.14436486 -0.013771887 0.10640831
-0.004181337 -0.19661275 -0.14812192 -0.05161359 -0.10906296 -0.19457136 -0.030344896 -0.07371405
-0.08093107 0.11773357 0.014410061 0.11558458 -0.024222989 -0.07625301 -0.02382863 -0.044948343
0.04040581 0.07458657 0.05459106 0.06376091 -0.01732929 0.0036752177 0.035291377 -0.0076359063
-0.005886172 0.0056057866 0.078653306 0.12436899 0.01546323 0.0579694 0.014016621 -0.100334704
0.036814712 0.058668412 0.047046863 -0.07167164 0.053631116 0.05622835 0.018052703 0.044017974
0.031069057 0.0471752 0.043298155 -0.122671396 -0.003207405 -0.09576977 0.08168198 -0.038541596
0.0034359337 0.04773775 -0.080158435 0.03419384 0.026599983 -0.0407003 0.018188773 0.045006614
-0.07841286 0.0037481636 0.04840258 -0.003145188 0.11409004 0.09430378 0.04834509 0.104666546
-0.04192684 -0.031449884 0.074131116 -0.01642631 -0.026683452 0.17108378 -0.017459769 -0.11805087
0.019199222 -0.08040723 0.047877945 -0.025660053 -0.06260158 -0.004836902 0.04040292 -0.037181202
0.07401726 -4.541874e-05 0.11579043 -0.14197144 0.025417343 0.041136555 0.10641143 0.017861873
-0.08392519 0.016916191 -0.0016168624 -0.021082303 0.056812152 -0.07191227 -0.008826115 0.085720286
0.11116696 -0.10935713 -0.01890871 -0.011969825 -0.1735066 -0.047185253 0.023763249 0.13277577
-0.12959561 0.14234026 0.13066073 0.016124204 -0.0113960365 0.0052488944 0.03576462 -0.03514778
0.018637016 0.14347203 0.104230955 -0.039461385 0.080192246 0.07253981 0.074110396 0.13578787
0.09772374 0.063311026 0.14623989 -0.02621974 -0.0010653397 0.044222865 -0.046759933 -0.07657498
0.13599412 0.019616457 -0.051853254 0.05937385 -0.11607164 -0.052949853 0.027310032 -0.041206256

fc2.bias f4 [4]
00000000: c753 1a3e 3509 e3be 0322 663d 1f43 d23d
0.15071021 -0.44342962 0.05618478 0.102667086
