src/flatland/flat_game/results/ourmethod_reg1/rep_learner.pth (torch_old, 312892 bytes, 33 tensors)

representations f4 [6]
0.001485185 -0.6273961 0.003028228 -0.0036309464 0.0036366591 -0.0059872093
00000000: 8aaa c23a 089d 20bf 3c75 463b 2cf5 6dbb
00000010: 0455 6e3b 5a30 c4bb

representations f4 [6]
0.008022397 0.6306465 -0.0016511965 -0.0030118746 -0.0021304805 -0.004116912
00000000: 5f70 033c 0d72 213f f66c d8ba df62 45bb
00000010: 889f 0bbb 29e7 86bb

representations f4 [6]
-0.0010938523 0.001091554 -0.0028611892 0.004519325 -1.2743597 0.0011257338
00000000: 985f 8fba 7912 8f3a ca82 3bbb d916 943b
00000010: 381e a3bf 5c8d 933a

representations f4 [6]
-0.0019096743 0.00029499026 0.0032325888 0.006252894 1.267529 -0.0062619564
00000000: 094e faba eca8 9a39 d7d9 533b 14e5 cc3b
00000010: 643e a23f 1931 cdbb

fc1.weight f4 [64, 4]
1.2587556 -1.1135253 1.4314317 0.79500544 1.0997696 0.87935966 -1.314433 0.456598
1.0223336 -0.122264706 2.3161242 0.10380591 -0.9885108 1.0805237 -1.6447084 1.2201546
-0.16929775 -0.047891498 0.27718633 0.3022701 1.1322459 0.49891686 2.0994408 -0.028354652
0.20383672 -0.8977297 -0.5680098 -1.0231689 0.9336602 0.09964085 2.5106149 2.0874743
1.1441184 0.18698998 -0.77626634 -0.5137899 2.6789496 -0.728158 0.8120976 0.05015493
-0.22220737 -1.0343707 1.0148592 -0.07037125 -0.06654568 0.13608295 -0.04098111 -0.17524156
-1.6212459 0.9364666 1.1019095 0.5030752 0.1687633 -0.85923356 0.04447256 0.30350533
1.3208845 1.7741301 -0.08811379 0.1766551 0.12818478 -0.42172512 -0.70852774 -0.13134062
-0.18211031 0.24054326 1.2402632 -0.08052559 -0.46789798 1.0818347 -0.16155934 0.4146382
-0.35727975 -0.37027517 -0.4061362 -0.07577977 0.114844896 1.1484865 -1.0808548 -1.8574479
0.032576263 0.11700398 0.14298892 -0.044526696 -1.2540343 -0.29532048 -2.952388 0.30306923
-0.9037883 0.50927544 1.4625361 0.75191534 -0.9293028 0.9776253 -0.048049748 -0.11019007
1.0839907 -0.15041655 2.4852607 0.08547349 -0.009664599 -1.9066838 -0.029232226 -1.0520982
-0.7744388 -0.84114337 1.4129754 0.99100125 0.25433367 -1.2920022 0.83623475 0.77762705
0.29808018 -1.6514797 -1.7776823 1.2144568 -0.8536587 -0.28863358 0.7488055 1.2067465
-0.3610813 -0.004609999 0.28998214 0.0076914635 -1.2320104 -0.21234038 -2.9114406 -0.16248822
-0.054631673 4.15779 0.2889948 0.22392736 -0.30206618 -0.01392924 -0.6297754 1.1499269
-1.2746807 -1.1376286 -0.9234511 1.0384333 1.0302802 -0.124705136 2.5186002 0.029567953
1.5382644 -0.102400325 -2.5894501 -0.07408284 -0.3971337 0.018655589 2.6457965 -0.026830565
-0.41067132 0.010497909 2.6931646 -0.032838564 -0.8599432 -0.09514102 1.6922883 0.76756394
0.9793582 0.07944121 1.6497834 1.6141582 0.3647196 -0.99960274 2.013006 -0.3616934
1.3757595 1.4314659 0.43990985 0.36783457 -1.5758568 -0.0722998 -1.2380633 -1.3253405
1.0139644 0.054566547 2.253987 -0.029412055 -0.117004454 -0.13293451 -0.32759798 0.117363214
0.47193262 -1.3331605 -2.2961955 -1.4320877 -0.400301 -0.07861863 2.409447 0.023448737
1.3639706 -2.5281672 2.955411 1.1227571 -0.059719555 -0.055550594 0.018678859 0.8773596
0.5169146 0.06565932 0.8229735 1.9069067 0.25096232 -0.35058588 0.3024634 -3.1919188
0.121910326 0.005634528 -0.34032643 1.8092983 -0.44962746 -1.0289888 1.2067957 0.28248778
-0.15581854 0.6294222 0.95348233 -3.2833595 -0.08393304 -0.98402417 -0.035136394 -2.4392037
-0.49053463 0.015252605 2.8648608 -0.0734294 0.10143771 0.054006804 -0.37435287 -0.14011283
0.007826614 3.248419 0.03587512 1.8274215 -0.88045764 2.243251 -1.9143268 0.91614616
1.4259017 0.2892094 -4.3664675 0.9183898 0.25315577 0.13066147 2.4379117 -0.018116737
-1.3832481 -1.3625008 0.87377787 -0.33724248 -0.06437946 1.7788136 0.013977845 -4.4650335
00000000: e71e a13f ff87 8ebf 2739 b73f 7a85 4b3f
00000010: 40c5 8c3f b71d 613f 573f a8bf 37c7 e93e
00000020: d4db 823f eb65 fabd 613b 1440 3198 d43d
00000030: 0b0f 7dbf 9a4e 8a3f ce85 d2bf 072e 9c3f
00000040: 645c 2dbe e029 44bd 5eeb 8d3e 26c3 9a3e
00000050: 6fed 903f 0872 ff3e 3d5d 0640 0448 e8bc
00000060: 93ba 503e 9dd1 65bf 1769 11bf 33f7 82bf
00000070: 5b04 6f3f 8110 cc3d eaad 2040 2e99 0540
00000080: 7972 923f 4d7a 3f3e 64b9 46bf bc87 03bf
00000090: e973 2b40 9068 3abf a1e5 4f3f 426f 4d3d
000000a0: 548a 63be 4266 84bf e8e6 813f cd1e 90bd
000000b0: 1a49 88bd 5459 0b3e cfdb 27bd 8672 33be
000000c0: fc84 cfbf 46bc 6f3f 5f0b 8d3f 89c9 003f
000000d0: 49d0 2c3e bbf6 5bbf dc28 363d 0d65 9b3e
000000e0: be12 a93f b216 e33f 0175 b4bd 13e5 343e
000000f0: df42 033e 5bec d7be 1362 35bf 287e 06be
00000100: 207b 3abe f950 763e f2c0 9e3f 9aea a4bd
00000110: 5390 efbe 8f79 8a3f d06f 25be 754b d43e
00000120: 5fed b6be b594 bdbe 16f1 cfbe 6d32 9bbd
00000130: cd33 eb3d 9b01 933f 7359 8abf dac0 edbf
00000140: b06e 053d c89f ef3d b06b 123e a061 36bd
00000150: 3284 a0bf 3f34 97be edf3 3cc0 e42b 9b3e
00000160: ac5e 67bf e05f 023f 6234 bb3f 867d 403f
00000170: cae6 6dbf a745 7a3f d0cf 44bd 55ab e1bd
00000180: 35c0 8a3f cc06 1abe 830e 1f40 ba0c af3d
00000190: 4458 1ebc 370e f4bf 6c78 efbc 27ab 86bf
000001a0: 9f41 46bf 2c55 57bf 61dc b43f 42b2 7d3f
000001b0: 0638 823e 5460 a5bf 7b13 563f 9112 473f
000001c0: f79d 983e b063 d3bf 188b e3bf 5273 9b3f
000001d0: 6089 5abf c8c7 93be b8b1 3f3f ab76 9a3f
000001e0: a6df b8be 790f 97bb 8a78 943e ac08 fc3b
000001f0: 84b2 9dbf c26f 59be 0b55 3ac0 5063 26be
00000200: 76c5 5fbd 9e0c 8540 20f7 933e 374d 653e
00000210: 6ba8 9abe 7837 64bc f638 21bf ce30 933f
00000220: bd28 a3bf d09d 91bf 4b67 6cbf 62eb 843f
00000230: 39e0 833f 6865 ffbd bf30 2140 7e38 f23c
00000240: d9e5 c43f 43b7 d1bd 8db9 25c0 beb8 97bd
00000250: 1c55 cbbe 9bd3 983c bb54 2940 c6cb dbbc
00000260: 8343 d2be 6cff 2b3c cf5c 2c40 bb81 06bd
00000270: 3d25 5cbf 4cd9 c2bd e79c d83f 127f 443f
00000280: 38b7 7a3f 13b2 a23d 1a2c d33f bc9c ce3f
00000290: 87bc ba3e f7e5 7fbf 17d5 0040 e12f b9be
000002a0: e318 b03f 463a b73f dd3b e13e d054 bc3e
000002b0: adb5 c9bf eb11 94bd dc78 9ebf c2a4 a9bf
000002c0: 96c9 813f 2c81 5f3d 5341 1040 8df1 f0bc
000002d0: 08a0 efbd fc1f 08be ecba a7be 205c f03d
000002e0: 27a1 f13e 01a5 aabf def4 12c0 a64e b7bf
000002f0: 41f4 ccbe ce02 a1bd 6134 1a40 9117 c03c
00000300: 9796 ae3f 7ecd 21c0 7425 3d40 81b6 8f3f
00000310: 7e9c 74bd 0589 63bd 6804 993c a49a 603f
00000320: 8454 043f 6578 863d 64ae 523f 8515 f43f
00000330: 227e 803e fe7f b3be 7cdc 9a3e 6648 4cc0
00000340: 1fac f93d d9a1 b83b 443f aebe 1697 e73f
00000350: 9235 e6be e8b5 83bf 4878 9a3f 3da2 903e
00000360: e58e 1fbe d021 213f 6b17 743f 9022 52c0
00000370: 16e5 abbd 02e9 7bbf 2eeb 0fbd ea1b 1cc0
00000380: 5b27 fbbe 10e6 793c e159 3740 2762 96bd
00000390: 93be cf3d 3d36 5d3d 2eab bfbe bd79 0fbe
000003a0: 333b 003c 19e6 4f40 caf1 123d f3e8 e93f
000003b0: ac65 61bf 6d91 0f40 a908 f5bf 8e88 6a3f
000003c0: f283 b63f 4113 943e 1aba 8bc0 981b 6b3f
000003d0: a29d 813e 1fcc 053e bf06 1c40 8d69 94bc
000003e0: 460e b1bf 6d66 aebf e8af 5f3f 0cab acbe
000003f0: 61d9 83bd 2ab0 e33f 5503 653c 8ee1 8ec0

fc1.bias f4 [64]
-0.6846542 0.7393751 -0.027011165 0.7764974 -0.4796582 -0.25164953 0.31428486 -0.9607563
0.65950197 0.09391983 0.067360654 -0.30261725 -0.26961356 0.39617822 0.41502154 0.5308455
-0.10824446 0.43522108 0.25022513 1.0843427 -0.49398172 -0.061469752 -0.070307694 0.5527636
-0.020008655 0.9200945 -0.7466586 0.17300764 0.914994 0.15558353 -0.515832 -0.120251074
-0.7344277 0.62980497 0.83756095 -0.027669944 0.8362381 -0.039647575 -0.038514007 -0.78600717
-0.69010776 -0.8622899 -0.73469996 0.8311587 -0.06752551 -0.46557355 0.6993237 -0.07206921
-1.6804051 0.13053502 0.21046211 -0.36552504 0.41126457 0.100904405 -1.4258683 0.28259003
-0.07943948 -0.5265589 0.47189608 0.24577321 -0.046358276 -0.6797997 0.13717741 -0.6631077
00000000: 7f45 2fbf b047 3d3f 8546 ddbc 89c8 463f
00000010: c295 f5be 35d8 80be f2e9 a03e 20f4 75bf
00000020: 1fd5 283f 0a59 c03d 62f4 893d a6f0 9abe
00000030: ca0a 8abe dfd7 ca3e b47d d43e 7ee5 073f
00000040: 45af ddbd 4cd5 de3e 821d 803e becb 8a3f
00000050: 2ceb fcbe b5c7 7bbd 7bfd 8fbd ea81 0d3f
00000060: 31e9 a3bc 508b 6b3f 0525 3fbf ea28 313e
00000070: 0c3d 6a3f 4a51 1f3e 910d 04bf 3246 f6bd
00000080: 7403 3cbf e63a 213f 656a 563f 14ac e2bc
00000090: b313 563f 7f65 22bd ddc0 1dbd c437 49bf
000000a0: e7aa 30bf 08bf 5cbf 4c15 3cbf d1c6 543f
000000b0: d14a 8abd a85f eebe e106 333f 0699 93bd
000000c0: 8417 d7bf f9aa 053e 6183 573e 1926 bbbe
000000d0: 4591 d23e f8a6 ce3d da82 b6bf a4af 903e
000000e0: 2bb1 a2bd 90cc 06bf 5d9c f13e f9ab 7b3e
000000f0: 2de2 3dbd 5a07 2ebf 3c78 0c3e 6dc1 29bf

fc2.weight f4 [180, 64]
0.29300943 -0.07321654 -0.1696885 0.17079587 -0.09924032 -0.20735571 -0.038136225 0.06488178
-0.1193127 0.012449641 0.252072 0.10191951 0.15176027 -0.22903346 0.10015308 -0.19376639
0.23482627 0.06707849 -0.015874904 0.15756565 0.07525353 -0.01736163 0.2888688 0.24508142
-0.1449255 -0.5023378 0.6323883 0.41768315 0.10065795 0.15327623 -0.11581719 -0.53315085
-0.114756845 0.2158134 0.111106 -0.22148634 0.11903824 0.27263823 0.1566844 0.19871922
0.5660232 0.5322285 0.076488435 -0.35462645 0.022437802 0.10214259 0.6822819 0.1618619
-0.24461687 0.22688298 0.1635578 -0.09460071 0.20400414 0.25006437 0.9058865 0.16770655
0.24632567 -0.0973877 0.028479472 -0.28807262 0.3322929 0.3532236 0.25103775 -0.2634871
-0.044009164 -0.12936497 -0.023969695 -0.055800214 0.08879472 -0.04594928 -0.16777207 0.09071708
-0.101243496 -0.054611385 -0.07694332 0.062632516 0.035904035 0.023869682 -0.19320488 -0.16954751
-0.08346301 -0.0303666 -0.058833625 -0.06695236 -0.09104177 0.16668093 -0.054163646 -0.19175357
-0.14469297 0.017646518 -0.04767621 -0.07587541 0.031609714 0.026534226 0.04478991 0.038960345
0.120665535 -0.067159384 -0.13609952 -0.05828919 -0.16258706 -0.12657669 -0.0031120817 -0.075561956
0.08548859 -0.05556432 -0.1102408 -0.020457858 -0.10889892 0.033863455 0.022659102 -0.029345972
-0.18614128 -0.07776873 -0.046113297 -0.097320445 -0.14804107 -0.11036445 -0.0478063 -0.12107419
0.022944886 -0.05843824 -0.088933654 0.031777162 -0.08942544 0.0059019774 -0.025924204 -0.0472897
-0.12695758 -0.05225806 -0.13059625 0.040462825 0.0007958263 -0.07454814 -0.12876418 -0.10615812
0.05029753 -0.17881034 0.0030723677 0.14288157 -0.21505223 -0.16489166 -0.18705152 -0.035532475
-0.11499569 -0.17174873 -0.047625568 -0.1339227 0.084891096 0.01361993 -0.2670238 -0.2243951
-0.06670941 -0.008574072 -0.049087062 -0.089627184 -0.2319475 -0.0787013 -0.04497984 -0.15701489
-0.13236086 -0.022000764 -0.019122628 -0.10526963 -0.03817847 -0.08737347 -0.15247941 -0.2678041
-0.0426173 -0.01789349 -0.0941822 -0.21301877 -0.11702355 0.10032228 -0.103391245 -0.1306542
-0.07760393 -0.020692209 -0.06291575 -0.07463331 -0.062753394 -0.0926662 -0.13385193 -0.027153216
-0.15129355 -0.036810055 -0.021544231 -0.030154785 -0.19222325 -0.050863255 -0.2145321 0.025903858
-0.06134287 -0.026078116 -0.10416934 -0.025324885 0.055278152 0.07298111 -0.10218878 0.06667993
-0.0047862437 -0.1555668 -0.07790687 -0.044363987 -0.069736004 -0.2674436 -0.007625096 -0.16908206
-0.023178011 -0.0673122 -0.23577777 -0.09928558 -0.0036327094 -0.1505394 -0.317328 -0.008653573
-0.114449315 -0.107140645 -0.08967482 -0.206403 -0.05882816 -0.2418685 -0.039798006 -0.06635851
-0.008577195 -0.042205546 -0.29447508 -0.11504051 -0.023123514 0.054928496 -0.063899435 -0.10817876
-0.03681041 -0.22813816 0.15108176 -0.22537963 -0.032774795 -0.036971495 -0.07983672 -0.25050628
-0.13413389 -0.055444628 -0.15386738 -0.18032192 0.012179864 -0.024815775 -0.0025625871 -0.19539258
-0.06542334 -0.028839465 -0.015628206 -0.096686795 -0.09361801 -0.15003319 -0.037331954 -0.06470776
00000000: 5505 963e 8ef2 95bd d2c2 2dbe 1de5 2e3e
00000010: 823e cbbd 0e55 54be bb34 1cbd bde0 843d
00000020: 385a f4bd 94f9 4b3c 950f 813e 2dbb d03d
00000030: 0b67 1b3e bf87 6abe 0f1d cd3d b26a 46be
00000040: 4c76 703e 7360 893d 160c 82bc e458 213e
00000050: 861e 9a3d fa39 8ebc 9de6 933e a0f6 7a3e
00000060: 5a67 14be 3699 00bf 33e4 213f 91da d53e
00000070: c125 ce3d 72f4 1c3e 9031 edbd 937c 08bf
00000080: a305 ebbd 30fe 5c3e 8b8b e33d 51cd 62be
00000090: 52ca f33d 3d97 8b3e e071 203e 0d7d 4b3e
000000a0: e5e6 103f 2140 083f f8a5 9c3d 9991 b5be
000000b0: 7bcf b73c 2230 d13d 07aa 2e3f 20bf 253e
000000c0: d87c 7abe 0354 683e b27b 273e 04be c1bd
000000d0: 76e6 503e 7008 803e 2de8 673f 44bb 2b3e
000000e0: cc3c 7c3e 3473 c7bd c84d e93c 417e 93be
000000f0: 4c22 aa3e b9d9 b43e 0588 803e c8e7 86be
00000100: f442 34bd 4078 04be 185c c4bc c48e 64bd
00000110: 02da b53d 5035 3cbd 71cc 2bbe e0c9 b93d
00000120: c058 cfbd 30b0 5fbd 7694 9dbd 7a45 803d
00000130: 1c10 133d 5a8a c33c 80d7 45be dd9d 2dbe
00000140: a8ee aabd 60c3 f8bc 87fb 70bd 521e 89bd
00000150: 1c74 babd 68ae 2a3e b3da 5dbd 0c5b 44be
00000160: 652a 14be 6e8f 903c 2148 43bd 9164 9bbd
00000170: 3079 013d 4e5e d93c a075 373d e294 1f3d
00000180: 7e1f f73d dc8a 89bd ac5d 0bbe a5c0 6ebd
00000190: 397d 26be 529d 01be 11f4 4bbb 3ac0 9abd
000001a0: a414 af3d 6a97 63bd eec5 e1bd 3d97 a7bc
000001b0: 6606 dfbd 68b4 0a3d 959f b93c f766 f0bc
000001c0: d29b 3ebe 3645 9fbd 4ce1 3cbd f14f c7bd
000001d0: 1498 17be c206 e2bd 8ad0 43bd bff5 f7bd
000001e0: eaf6 bb3c f05c 6fbd d922 b6bd c528 023d
000001f0: af24 b7bd 6065 c13b ff5e d4bc d8b2 41bd
00000200: 2b01 02be 8c0c 56bd 06bb 05be 59bc 253d
00000210: 009f 503a b2ac 98bd c2da 03be 6e69 d9bd
00000220: c804 4e3d 0f1a 37be c759 493b 8c4f 123e
00000230: a736 5cbe 5cd9 28be 6f8a 3fbe 808a 11bd
00000240: dc82 ebbd e6de 2fbe 0713 43bd 0823 09be
00000250: 62db ad3d 2026 5f3c 58b7 88be d4c7 65be
00000260: f19e 88bd 447a 0cbc 840f 49bd 758e b7bd
00000270: a583 6dbe 262e a1bd c83c 38bd 83c8 20be
00000280: 9b89 07be f23a b4bc 0fa7 9cbc 9b97 d7bd
00000290: 0761 1cbd ddf0 b2bd 9023 1cbe 9e1d 89be
000002a0: 7a8f 2ebd 5e95 92bc 99e2 c0bd 9821 5abe
000002b0: 0baa efbd c475 cd3d cabe d3bd 37ca 05be
000002c0: cfee 9ebd b582 a9bc f9d9 80bd 59d9 98bd
000002d0: da84 80bd c7c7 bdbd 7b10 09be 6c70 debc
000002e0: b2ec 1abe 24c6 16bd 877d b0bc 2b07 f7bc
000002f0: 2cd6 44be fd55 50bd 4eae 5bbe 5434 d43c
00000300: a942 7bbd c6a1 d5bc bc56 d5bd 2276 cfbc
00000310: 586b 623d 1f77 953d 5a48 d1bd 7d8f 883d
00000320: ecd5 9cbb e74c 1fbe a38d 9fbd 03b7 35bd
00000330: c0d1 8ebd 5eee 88be f1db f9bb d923 2dbe
00000340: d0df bdbc fbda 89bd ba6f 71be 3d56 cbbd
00000350: c012 6ebb 0027 1abe d178 a2be b7c7 0dbc
00000360: 6764 eabd 8e6c dbbd 6fa7 b7bd 4f5b 53be
00000370: ccf5 70bd 60ac 77be 3c03 23bd f8e6 87bd
00000380: 5d87 0cbc b9df 2cbd 70c5 96be 5c9a ebbd
00000390: 866d bdbc b4fc 603d b5dd 82bd d38c ddbd
000003a0: 83c6 16bd 0d9d 69be 2db5 1a3e ebc9 66be
000003b0: dd3e 06bd 6c6f 17bd 6f81 a3bd 5c42 80be
000003c0: 655a 09be e819 63bd 698f 1dbe 4fa6 38be
000003d0: 0d8e 473c 744a cbbc 14f1 27bb fe14 48be
000003e0: acfc 85bd be40 ecbc b906 80bc ba03 c6bd
000003f0: cdba bfbd 4da2 19be 64e9 18bd 8185 84bd

fc2.bias f4 [180]
-0.116758645 -0.17976482 -0.041770104 -0.120593384 0.13078496 -0.032106493 0.036745127 -0.12955472
-0.079325885 -0.20787704 -0.100491524 -0.05680308 0.06207828 -0.13728507 -0.06545798 -0.0543107
-0.123788044 0.11344954 -0.036975794 -0.1331864 -0.06963455 -0.006893125 -0.16068038 -0.18758002
0.27592185 -0.101351 -0.044980958 -0.14341211 -0.09508642 -0.20038365 -0.08053589 0.3961843
0.06489659 -0.0474982 0.14918803 -0.16555521 -0.10071903 0.12484449 0.02169425 -0.07090831
0.12690285 0.34481445 0.15406275 -0.07183512 -0.13910264 -0.19365849 -0.13012438 0.23912397
0.14821723 -0.030586006 -0.08493676 0.03885655 0.008671521 0.21504906 -0.13704886 -0.080017224
-0.080073 -0.17425072 -0.18351977 0.24873564 0.07964088 -0.17335197 -0.19856566 -0.14313485
-0.11993011 0.11656992 0.046623655 0.14417315 -0.01026234 0.13023272 0.25200716 0.048916116
-0.04474461 0.36794728 -0.010932175 0.29628262 0.4506979 0.4839796 0.4210936 0.015287024
0.1988984 -0.122381076 0.11518065 0.20498066 -0.080125794 -0.049439277 -0.19370526 0.00702174
-0.18546928 -0.09795987 0.072269686 -0.10000579 -0.16335493 -0.0005830433 -0.054819684 -0.2058642
0.16048644 -0.1769093 -0.0664273 -0.12840918 -0.073257685 0.30134144 -0.066744685 0.4712094
-0.16942883 0.2964703 -0.106835164 -0.11433082 0.4826541 0.21249026 -0.06531888 0.35555515
0.47248724 0.3296026 0.056475427 -0.15462707 -0.27844647 -0.054545827 0.0031781124 -0.1410376
-0.029955592 -0.010246846 -0.06749271 -0.22988817 0.017699953 0.027857523 0.076943815 -0.1427909
-0.16249855 0.2816288 -0.0107176425 -0.04911718 0.12765905 -0.11023971 -0.07520864 -0.083260946
0.02657351 0.026082255 0.108652934 -0.06496581 -0.12302184 -0.17985237 0.44739628 -0.42478317
0.38321304 0.32368788 0.012939262 0.3234868 0.14939764 -0.15215172 -0.062373992 -0.09100381
-0.021867596 -0.124258384 0.06076954 0.28716367 0.6677254 -0.0549259 -0.090588234 -0.16785158
-0.0156012755 0.11833668 -0.08058252 -0.067040615 0.019220866 -0.15424587 -0.09381258 0.26851052
0.14555657 -0.22216599 -0.26902977 -0.07972122 -0.053456508 -0.14606826 0.3378804 -0.06265119
-0.037455175 -0.15705334 -0.09839908 0.4528153
00000000: 281f efbd 4514 38be 2117 2bbd aaf9 f6bd
00000010: 7eec 053e 1982 03bd 0f82 163d fea9 04be
00000020: 9c75 a2bd b8dd 54be 80ce cdbd 59aa 68bd
00000030: cb45 7e3d 7594 0cbe d50e 86bd e674 5ebd
00000040: 9684 fdbd 3c58 e83d ee73 17bd 0462 08be
00000050: 8f9c 8ebd b9df e1bb 6689 24be fa14 40be
00000060: a145 8d3e 1d91 cfbd f43d 38bd a0da 12be
00000070: abbc c2bd 5f31 4dbe 00f0 a4bd abd8 ca3e
00000080: 81e8 843d 798d 42bd bfc4 183e 4e87 29be
00000090: c745 cebd 78ae ff3d 24b8 b13c 6038 91bd
000000a0: d2f2 013e 858b b03e a0c2 1d3e 4b1e 93bd
000000b0: ec70 0ebe 694e 46be 533f 05be eadc 743e
000000c0: 42c6 173e 818f fabc 53f3 adbd 0c28 1f3d
000000d0: ff12 0e3c d235 5c3e 8956 0cbe 12e0 a3bd
000000e0: 50fd a3bd c86e 32be 9bec 3bbe 8eb4 7e3e
000000f0: c21a a33d 2e83 31be cc54 4bbe f191 12be
00000100: eb9d f5bd 36bc ee3d 72f8 3e3d 20a2 133e
00000110: 6023 28bc ba5b 053e 1507 813e 445c 483d
00000120: 2046 37bd 9663 bc3e de1c 33bc 5bb2 973e
00000130: e0c1 e63e 2dcc f73e 9599 d73e 6d76 7a3c
00000140: 06ac 4b3e eea2 fabd d5e3 eb3d 73e6 513e
00000150: fe18 a4bd d780 4abd ac5a 46be a016 e63b
00000160: a9eb 3dbe 2f9f c8bd 2102 943d d6cf ccbd
00000170: 8446 27be 60d7 18ba 9b8a 60bd 11ce 52be
00000180: 8f56 243e b627 35be 090b 88bd b27d 03be
00000190: 2008 96bd 6d49 9a3e 70b1 88bd 5c42 f13e
000001a0: c07e 2dbe f5ca 973e 65cc dabd 4726 eabd
000001b0: 701e f73e 0c97 593e e8c5 85bd 530b b63e
000001c0: d9e9 f13e acc1 a83e c752 673d 8f56 1ebe
000001d0: 8990 8ebe 726b 5fbd e147 503b 296c 10be
000001e0: 6e65 f5bc 63e2 27bc 9e39 8abd ce67 6bbe
000001f0: 7eff 903c 7635 e43c b894 9d3d c737 12be
00000200: 0566 26be a631 903e 0d99 2fbc 192f 49bd
00000210: 0eb9 023e 5bc5 e1bd fd06 9abd b784 aabd
00000220: b1b0 d93c 74aa d53c 6e85 de3d cb0c 85bd
00000230: e0f2 fbbd 382b 38be 2011 e53e 2e7d d9be
00000240: 8034 c43e 6bba a53e 33ff 533c 10a0 a53e
00000250: b2fb 183e a9cd 1bbe df7b 7fbd 3560 babd
00000260: ac23 b3bc 2e7b febd 7be9 783d 1e07 933e
00000270: 0df0 2a3f fbf9 60bd 5386 b9bd 49e1 2bbe
00000280: 7e9c 7fbc 805a f23d 7308 a5bd 974c 89bd
00000290: 1475 9d3c a1f2 1dbe cf20 c0bd 367a 893e
000002a0: c80c 153e 7b7f 63be 45be 89be e144 a3bd
000002b0: 36f5 5abd eb92 15be a9fe ac3e 444f 80bd
000002c0: 996a 19bd 97d2 20be 7585 c9bd 68d7 e73e

conv.weight f4 [5, 1, 34, 34]
-0.21234398 -0.08004881 -0.1743116 -0.114784054 -0.10750654 -0.039367698 -0.13187963 -0.026991993
0.1861796 0.13303594 0.530518 0.91861194 1.0979079 1.1837919 0.95673037 1.0356572
1.3758281 1.4075661 1.2816359 1.1857388 1.1183172 1.2780653 1.1187215 0.885505
0.65092415 0.32733104 0.26790407 0.331205 -0.06572096 -0.17400767 0.15593241 -0.18455988
-0.37610385 -0.20699818 -0.1332875 -0.06752165 -0.12834094 -0.09465271 -0.0981005 -0.015953582
-0.07737686 -0.053328365 0.23361929 0.24676102 0.6846256 1.0824558 1.3421311 1.3681977
0.9298934 1.2240559 1.5156494 1.3787775 1.3874636 1.3170646 1.4954467 1.3818818
1.3181322 1.2162182 0.6609646 0.5243125 0.40717003 0.32750952 0.06872122 -0.08060797
0.17588463 0.005350879 -0.18377247 -0.2854573 -0.13563503 -0.09490373 -0.07619287 -0.06738106
-0.31168726 -0.026355252 0.07938082 0.013356822 0.24539208 0.35918507 0.7853891 1.2560915
1.6764705 1.6535921 1.4617159 1.4000584 1.462851 1.4909303 1.3780148 1.4886937
1.7930756 1.7163813 1.5340369 1.5080888 0.92424625 0.5381142 0.56522185 0.37563875
0.16712159 0.12664825 0.27295706 0.13752908 -0.11512301 -0.11720948 -0.2134376 -0.16431488
0.016507188 0.022963349 -0.3724241 -0.05253757 0.043510675 0.046092644 0.13635051 0.43466076
0.99840266 1.1819817 1.5670034 1.5737975 1.5820158 1.3351227 1.3847319 1.5813785
1.2774078 1.354969 1.9370345 1.4641151 1.4769212 1.5863928 0.75529957 0.67696124
0.764418 0.41038626 0.18932548 0.12373086 0.25684014 0.11427854 0.089141116 -0.0028768303
-0.15134487 -0.2197471 -0.1477459 -0.027891178 -0.3759986 -0.04378094 0.080315165 0.08347227
0.02498326 0.4353606 0.84112424 1.0818084 1.5769256 1.6372836 1.5581653 1.5780056
1.5204654 1.553762 1.5652626 1.6106622 1.7301182 1.4937987 1.6840185 1.7019472
0.74351287 0.6860223 0.63957614 0.37892622 0.24289207 0.17277844 0.2954917 0.113182984
0.047395047 0.054534942 -0.11230849 -0.24177442 -0.12900697 0.043666754 -0.36711422 -0.15140384
-0.06522888 0.15560505 0.19338766 0.47333533 0.8080077 1.3078631 1.590537 1.4608222
1.4976631 1.5727599 1.6227717 1.5122585 1.723191 1.5209427 1.8503411 2.0047333
1.4539254 1.2786018 0.7844269 0.68881136 0.7408654 0.4200831 0.29247412 0.24880448
0.20759305 0.20894454 0.3606738 0.1132884 -0.075272836 0.027447835 0.048857465 0.15385413
-0.18150449 -0.18590505 -0.028054032 0.20093139 0.32575366 0.50892043 0.9813074 1.1372212
1.5086173 1.8332072 1.4576639 1.5996038 1.755019 1.6995219 1.6415098 1.774926
1.965111 1.882151 1.8909819 1.742176 0.99483645 0.81144744 0.8050636 0.6075191
0.2432045 0.2569344 0.44997123 0.12553458 0.26654634 0.29926184 -0.019405354 0.007746801
-0.03490525 -0.007866339 -0.16553925 -0.044685878 -0.12995255 0.15628822 0.44165817 0.53353727
0.93710744 1.1198449 1.5798467 1.9706734 1.4134837 1.6329559 1.963741 1.7674446
00000000: b370 59be a1f0 a3bd bd7e 32be e713 ebbd
00000010: 642c dcbd 0640 21bd 740b 07be 501e ddbc
00000020: dda5 3e3e 933a 083e 07d0 073f 272a 6b3f
00000030: 3f88 8c3f 7e86 973f 48ec 743f 6a90 843f
00000040: 231b b03f 202b b43f a50c a43f 4ac6 973f
00000050: 0525 8f3f a597 a33f 4432 8f3f 75b0 623f
00000060: f7a2 263f ef97 a73e b92a 893e b493 a93e
00000070: b698 86bd 112f 32be bfac 1f3e 44fd 3cbe
00000080: af90 c0be 55f7 53be 857c 08be ca48 8abd
00000090: cf6b 03be 48d9 c1bd eae8 c8bd 16b1 82bc
000000a0: c277 9ebd d86e 5abd e539 6f3e ecae 7c3e
000000b0: a043 2f3f e98d 8a3f f4ca ab3f 1a21 af3f
000000c0: 7e0d 6e3f ddad 9c3f cd00 c23f c87b b03f
000000d0: 6898 b13f 9395 a83f cc6a bf3f 81e1 b03f
000000e0: 8eb8 a83f 0aad 9b3f fa34 293f 5839 063f
000000f0: 9778 d03e 54af a73e b6bd 8c3d cb15 a5bd
00000100: 1a1b 343e 6d56 af3b da2e 3cbe 7627 92be
00000110: e9e3 0abe e35c c2bd 020b 9cbd 15ff 89bd
00000120: 7995 9fbe f8e6 d7bc 6992 a23d 92d6 5a3c
00000130: 1048 7b3e 1be7 b73e 430f 493f 9bc7 a03f
00000140: 9696 d63f e8a8 d33f 8219 bb3f 1d35 b33f
00000150: b43e bb3f ced6 be3f ca62 b03f 848d be3f
00000160: 8083 e53f 62b2 db3f 525b c43f 0e09 c13f
00000170: 679b 6c3f dac1 093f 61b2 103f b953 c03e
00000180: ec21 2b3e 14b0 013e 07c1 8b3e 6cd4 0c3e
00000190: 9dc5 ebbd 860b f0bd 638f 5abe 2942 28be
000001a0: 153a 873c a21d bc3c 5fae bebe a331 57bd
000001b0: 4038 323d a4cb 3c3d 789f 0b3e db8b de3e
000001c0: 5197 7f3f 2d4b 973f 9193 c83f 3272 c93f
000001d0: 7e7f ca3f 4de5 aa3f e53e b13f 9c6a ca3f
000001e0: 1982 a33f a06f ad3f bff0 f73f 2068 bb3f
000001f0: c10b bd3f eb0e cb3f 505b 413f 554d 2d3f
00000200: e6b0 433f 261e d23e 8ade 413e 9b66 fd3d
00000210: 8d80 833e de0a ea3d 9e8f b63d 3489 3cbb
00000220: 26fa 1abe 6205 61be b44a 17be 0a7c e4bc
00000230: e382 c0be a553 33bd 477c a43d 82f3 aa3d
00000240: b2a9 cc3c 96e7 de3e eb53 573f b378 8a3f
00000250: b3d8 c93f 8292 d13f f671 c73f 16fc c93f
00000260: 9c9e c23f ace1 c63f 865a c83f 2e2a ce3f
00000270: 8374 dd3f cc34 bf3f eb8d d73f 68d9 d93f
00000280: dc56 3e3f 289f 2f3f 43bb 233f 9e02 c23e
00000290: b3b8 783e d5ec 303e b04a 973e 7bcc e73d
000002a0: 4f21 423d 0860 5f3d fe01 e6bd b793 77be
000002b0: 671a 04be e9db 323d 65f6 bbbe 9c09 1bbe
000002c0: b896 85bd ee56 1f3e 6a07 463e 0259 f23e
000002d0: 98d9 4e3f 0f68 a73f b796 cb3f 39fc ba3f
000002e0: 6db3 bf3f 3250 c93f fcb6 cf3f b091 c13f
000002f0: 8691 dc3f 40ae c23f fad7 ec3f 8d4d 0040
00000300: 3a1a ba3f 39a9 a33f 34d0 483f f155 303f
00000310: 5ba9 3d3f 2215 d73e 2bbf 953e 9ac6 7e3e
00000320: 4693 543e 8ff5 553e 3caa b83e c003 e83d
00000330: a528 9abd 48da e03c c41e 483d f08b 1d3e
00000340: 50dc 39be e55d 3ebe 92d1 e5bc f5c0 4d3e
00000350: 2fc9 a63e 9c48 023f f636 7b3f 7790 913f
00000360: 5f1a c13f 89a6 ea3f bb94 ba3f d1bf cc3f
00000370: 76a4 e03f ef89 d93f fe1c d23f c630 e33f
00000380: c288 fb3f 53ea f03f b20b f23f a0ff de3f
00000390: 9aad 7e3f 05bb 4f3f a618 4e3f 5f86 1b3f
000003a0: 9a0a 793e e88c 833e a162 e63e 238c 003e
000003b0: c378 883e d938 993e faf7 9ebc e0d8 fd3b
000003c0: cff8 0ebd d1e1 00bc 1f83 29be 8a08 37bd
000003d0: 4812 05be 050a 203e 0521 e23e e695 083f
000003e0: 46e6 6f3f 1457 8f3f 6b38 ca3f 073f fc3f
000003f0: 09ed b43f b304 d13f dd5b fb3f a03b e23f

conv.weight f4 [5, 1, 10, 10]
-0.032446686 -0.04897198 -0.05894122 -0.041969165 -0.043860782 -0.01885701 -0.074863054 0.02227921
-0.1006311 -0.10462962 -0.06985588 -0.08463965 -0.09395593 -0.16371642 -0.12744805 -0.15107757
-0.007273174 -0.02274152 -0.10682659 0.004351783 -0.057582375 -0.079685524 -0.1343294 -0.032949965
-0.11778518 -0.16116486 -0.049601085 -0.16302185 -0.10697515 -0.18121815 -0.13116094 -0.13299303
-0.0089622075 -0.03603186 -0.07858919 -0.034490038 -0.09280672 -0.16515075 -0.16562809 -0.013781208
0.018530462 -0.10680676 -0.091825165 -0.1291321 -0.009935759 -0.028144976 -0.11492149 0.018813485
-0.17489609 -0.14896108 -0.07723377 -0.116439275 -0.000630542 0.11174068 0.07589085 0.1655097
0.0444008 0.03512025 0.07218843 -0.018736782 0.083801836 0.10081236 0.106190026 0.06662274
0.17889518 0.07675002 0.055283587 0.03469627 0.06489559 0.1263322 0.104759976 0.11374655
0.05828384 0.042481583 -0.0057304916 0.017780378 0.0701619 0.055872608 0.17813087 0.12807475
0.106849335 -0.03569886 0.034839462 -0.038417477 -0.033631746 0.11173794 0.10281937 0.15293337
0.012022917 0.083444886 0.05152536 0.08625861 0.041582447 0.14099292 0.04045971 0.013224707
-0.03466092 0.15773076 0.078260474 0.050515022 -0.12781715 -0.1520607 -0.030929442 -0.16062416
-0.118204504 0.16198076 0.05802632 0.17582837 -0.04481532 0.048365373 -0.038755957 -0.040019725
-0.012319185 -0.062007435 -0.022492997 -0.06300098 -0.11472027 -0.1830378 0.050107684 0.10031016
-0.07163808 -0.08383289 -0.0608724 -0.14003038 -0.046380762 -0.07363593 -0.15513194 -0.03777275
-0.03816534 0.05662366 -0.004946439 -0.066075526 -0.06182595 0.03288835 -0.017258508 0.0011331426
-0.108521506 -0.04638509 -0.024728417 0.06902452 0.057496905 -0.10065888 0.0052840523 -0.07521882
-0.10310332 0.013280566 -0.070757076 0.028535618 0.056071624 -0.08628938 0.08831275 -0.10105117
-0.144475 -0.009560859 -0.0137530025 -0.11246065 0.022136454 -0.16582796 -0.1632485 0.058508776
0.002077013 -0.026211651 -0.10103795 -0.15711063 0.010523087 -0.034639496 -0.12488795 -0.017249266
-0.15255071 -0.09327769 -0.16373394 -0.13285443 -0.14472526 0.033094555 -0.013973226 -0.03259673
-0.09602461 -0.041990865 -0.031914607 -0.026744964 -0.02116086 -0.07533357 -0.09937157 -0.03204984
-0.043055058 -0.07903457 -0.026363982 -0.06334653 -0.04892113 0.0007980245 -0.14894223 -0.089444436
0.0012689524 -0.07959536 -0.03579326 -0.011984981 -0.11266828 -0.17278989 -0.0783729 -0.051076815
0.10861418 -0.029768895 -0.015175209 -0.039702646 0.12557797 0.05878465 0.07507761 0.19431487
0.22157572 0.27070016 -0.09847924 -0.09732429 0.076440334 -0.0050568692 0.06274337 0.11469565
0.28996462 0.31946442 0.19333969 0.17750464 0.06960493 0.016929472 0.0018366114 0.090619616
0.062776916 0.16488563 0.2162088 0.30385727 0.18616115 0.14288522 -0.06255828 -0.105861254
-0.05533834 -0.052870233 0.0089878645 0.2872722 0.21315192 0.33591506 0.25849938 0.14158188
-0.03234803 0.024542455 0.021057202 0.10763104 -0.047303442 0.30170348 0.25550878 0.18557465
0.22975677 0.27970293 0.022649623 -0.11805394 -0.041462094 0.04786815 0.074401185 0.10295812
00000000: d1e6 04bd d896 48bd 596c 71bd dce7 2bbd
00000010: 5da7 33bd 047a 9abc cd51 99bd e482 b63c
00000020: ae17 cebd 0e48 d6bd 9a10 8fbd 8e57 adbd
00000030: f76b c0bd 47a5 27be be81 02be 14b4 1abe
00000040: ce53 eebb 6d4c babc e6c7 dabd 6799 8e3b
00000050: 7fdb 6bbd 2a32 a3bd a58d 09be 8bf6 06bd
00000060: 5b39 f1bd 6708 25be 822a 4bbd 33ef 26be
00000070: ca15 dbbd 4091 39be 0e4f 06be 532f 08be
00000080: 39d6 12bc 2596 13bd 5ff3 a0bd 6d45 0dbd
00000090: 7311 bebd 471d 29be 699a 29be 93ca 61bc
000000a0: 32cd 973c 81bd dabd d50e bcbd 353b 04be
000000b0: 98c9 22bc 4b90 e6bc f55b ebbd bd1e 9a3c
000000c0: f617 33be 4189 18be bd2c 9ebd b777 eebd
000000d0: f54a 25ba 4cd8 e43d a96c 9b3d 607b 293e
000000e0: 9ddd 353d 40da 0f3d 87d7 933d e17d 99bc
000000f0: 4ca0 ab3d b676 ce3d 287a d93d 8171 883d
00000100: 4c30 373e 1d2f 9d3d 0b71 623d ad1d 0e3d
00000110: fbe7 843d 3a5d 013e 668c d63d f4f3 e83d
00000120: 09bb 6e3d 2b01 2e3d d9c6 bbbb 28a8 913c
00000130: 0bb1 8f3d adda 643d f067 363e 0726 033e
00000140: d3d3 da3d f838 12bd d3b3 0e3d a55b 1dbd
00000150: 71c1 09bd dcd6 e43d f692 d23d 919a 1c3e
00000160: c5fb 443c 27e5 aa3d 420c 533d 5ba8 b03d
00000170: 5b52 2a3d 7360 103e 15b9 253d 71ac 583c
00000180: 9cf8 0dbd 2c84 213e 0747 a03d d7e8 4e3d
00000190: 80e2 02be cdb5 1bbe be5f fdbc a97a 24be
000001a0: 3415 f2bd 49de 253e 02ad 6d3d 5a0c 343e
000001b0: 4590 37bd c51a 463d 91be 1ebd b9eb 23bd
000001c0: 68d6 49bc 82fb 7dbd 3c43 b8bc a806 81bd
000001d0: 76f2 eabd 436e 3bbe b73d 4d3d 6a6f cd3d
000001e0: fcb6 92bd 94b0 abbd 5655 79bd 2064 0fbe
000001f0: c1f9 3dbd 6fce 96bd e8da 1ebe 99b7 1abd
00000200: 4253 1cbd 36ee 673d bd15 a2bb 9b52 87bd
00000210: 353d 7dbd efb5 063d b761 8dbc f585 943a
00000220: 8640 debd 4bfe 3dbd 4093 cabc ba5c 8d3d
00000230: e081 6b3d 3e26 cebd d825 ad3b 530c 9abd
00000240: d527 d3bd bb96 593c 16e9 90bd 87c3 e93c
00000250: 5cab 653d 7db8 b0bd 51dd b43d eaf3 cebd
00000260: 41f1 13be 26a5 1cbc 4654 61bc c551 e6bd
00000270: 8257 b53c cece 29be 9d2a 27be e6a6 6f3d
00000280: 7f1e 083b d1b9 d6bc fcec cebd 9ce1 20be
00000290: 0769 2c3c 25e2 0dbd 41c5 ffbd 554e 8dbc
000002a0: 4136 1cbe 6008 bfbd dfa9 27be fe0a 08be
000002b0: dc32 14be 288e 073d f5ef 64bc 2684 05bd
000002c0: 8da8 c4bd 9dfe 2bbd e4b8 02bd 4118 dbbc
000002d0: 8a59 adbc 7d48 9abd 5283 cbbd b146 03bd
000002e0: 805a 30bd e0dc a1bd 47f9 d7bc d3bb 81bd
000002f0: 8661 48bd 8532 513a 5084 18be a52e b7bd
00000300: fa52 a63a e402 a3bd f49b 12bd a75c 44bc
00000310: a1be e6bd d5ef 30be f981 a0bd ec35 51bd
00000320: 1c71 de3d e6dd f3bc 71a1 78bc 3e9f 22bd
00000330: 8397 003e 2cc8 703d 4ac2 993d 7afa 463e
00000340: bfe4 623e 3699 8a3e 7caf c9bd f551 c7bd
00000350: c08c 9c3d 18b4 a5bb 997f 803d 8ee5 ea3d
00000360: 3e76 943e d790 a33e d7fa 453e c7c3 353e
00000370: 088d 8e3d adaf 8a3c 74ba f03a c796 b93d
00000380: 2f91 803d c7d7 283e d765 5d3e 2e93 9b3e
00000390: 07a1 3e3e 8150 123e 8e1e 80bd c9cd d8bd
000003a0: 75aa 62bd 758e 58bd d641 133c 5815 933e
000003b0: 7f44 5a3e 0ffd ab3e 085a 843e d7fa 103e
000003c0: 5e7f 04bd 420d c93c 2780 ac3c aa6d dc3d
000003d0: 41c1 41bd e178 9a3e 0cd2 823e 4807 3e3e
000003e0: 5c45 6b3e 3935 8f3e b48b b93c 44c6 f1bd
000003f0: 28d4 29bd 6511 443d a65f 983d b5db d23d

conv.bias f4 [5]
-0.015884485 0.2497502 0.331494 0.08014471 0.12563735
00000000: 2e20 82bc 84be 7f3e 95b9 a93e e922 a43d
00000010: 14a7 003e

fc1.weight f4 [64, 180]
0.03139562 0.06002929 -0.029980492 -0.040187106 0.020336479 0.06252781 -0.07348756 -0.0016332641
0.27180788 0.17413951 -0.020967197 -8.415431e-05 -0.052705012 0.29272243 0.4020748 0.3196228
0.29411513 0.024036534 0.054625623 0.061754372 0.0034681372 -0.120248295 0.2353806 -0.045700785
-0.035613243 -0.07217251 0.034035288 -0.017889991 -0.028487239 0.054649763 -0.029738668 0.004082702
0.055002607 -0.06905659 0.025718115 -0.04514329 0.3358087 0.32185346 0.2885695 0.20316827
0.25159332 0.27710578 0.22567184 0.3366871 0.23270918 0.3362086 0.3428651 0.3234628
0.30854127 0.1869818 0.13224867 0.12812042 0.22195497 0.2516985 0.28521305 0.26343334
0.06668939 0.07797579 0.29249576 0.22182839 0.2987747 0.26665545 0.2455588 0.21665263
0.3206826 0.23168655 0.29811108 0.27690816 0.29529223 0.34761688 0.32785374 0.3399627
0.23656116 0.33681285 0.3186345 0.2753524 0.3645277 0.26439676 0.29865664 0.31088358
0.45617425 0.19919717 0.324054 0.30886805 0.32962227 0.3780774 0.41899136 0.3586303
0.061008606 0.36281717 0.30745953 0.4938003 0.4207766 0.40147036 0.13854188 0.3682354
0.2615504 0.535612 0.37075564 0.36375752 0.11453512 0.30611777 0.3255335 0.3335524
0.277202 0.24421827 0.29851595 0.3606519 0.32124487 0.20073877 0.32675093 0.20657824
0.29455733 0.27313048 0.26428357 0.2833366 0.32966188 0.33116743 0.2638659 0.18570791
0.2635321 0.43360052 0.37528515 0.49474835 0.3780389 0.18897568 0.27987528 0.4781292
0.44461876 0.48044947 0.34414232 0.30390146 0.30129164 0.55960816 0.40343824 0.42324418
0.4084193 0.2874997 0.27499455 0.31077003 0.19441289 0.20448446 0.23545006 0.28680235
0.267138 0.30575082 0.29590353 0.31206563 0.25427413 0.2771623 0.26259133 0.23100133
0.32186964 0.3996562 0.31249633 0.2485103 0.28496128 0.27417275 0.34207132 0.3555073
0.5638494 0.22555128 0.29126588 0.27084523 0.31601232 0.29250628 0.3526234 0.26816052
0.25895348 0.16453084 0.26345667 0.29738837 0.29155982 0.2974046 0.34670094 0.26741558
0.3540206 0.30010977 0.2984538 0.3257613 -0.054597273 0.052011468 0.04265713 -0.0024826303
0.06182707 -0.0057408214 0.027146302 -0.047256142 -0.031503618 -0.053989217 -0.04066031 -0.054584056
0.057109646 -0.021732347 -0.08324608 -0.064393446 -0.0008332825 -0.06930101 0.039519563 0.015850969
0.010787323 -0.04018413 -0.027634513 -0.01611559 -0.065010004 -0.011188611 -0.03722085 -0.009209022
0.05471077 -0.012055758 0.03169728 -0.05679033 0.06704325 -0.06266005 -0.0732822 -0.039284326
-0.06906511 -0.06471548 -0.03312874 -0.1132332 -0.08597317 0.0066253734 -0.02970505 -0.021550333
-0.014797911 -0.10192719 -0.010101691 -0.0011414351 -0.035887707 -0.0811527 -0.093490034 -0.04878276
-0.07327267 -0.026543241 0.006791204 -0.11306437 -0.02008602 -0.02806462 -0.050838128 -0.022750547
-0.072953545 -0.07306608 -0.06501912 0.019308353 -0.016227957 -0.11931454 -0.0015366679 -0.059974283
-0.03727476 -0.00690452 -0.11502331 -0.0197985 -0.0056676944 -0.08664174 -0.048956882 -0.05660406
00000000: b298 003d 46e1 753d a699 f5bc 3c9b 24bd
00000010: b098 a63c 950e 803d a580 96bd 4013 d6ba
00000020: 672a 8b3e a151 323e 66c3 abbc 007c b0b8
00000030: 36e1 57bd b7df 953e c0dc cd3e 9aa5 a33e
00000040: 4296 963e 44e8 c43c 1ebf 5f3d 27f2 7c3d
00000050: b049 633b bd44 f6bd 9d07 713e bf30 3bbd
00000060: 31df 11bd 2ecf 93bd 9668 0b3d 088e 92bc
00000070: 125e e9bc 6ed8 5f3d 829e f3bc 30c8 853b
00000080: 6a4a 613d 8b6d 8dbd ccae d23c 2ce8 38bd
00000090: 1eef ab3e fac9 a43e 62bf 933e 580b 503e
000000a0: d7d0 803e cfe0 8d3e 8516 673e 4062 ac3e
000000b0: 514b 6e3e 8923 ac3e 048c af3e eb9c a53e
000000c0: 1ff9 9d3e 2878 3f3e 326c 073e 0032 033e
000000d0: 2a48 633e a0de 803e 7207 923e bce0 863e
000000e0: 7294 883d c5b1 9f3d 01c2 953e fb26 633e
000000f0: fff8 983e 1087 883e c473 7b3e 30da 5d3e
00000100: 8230 a43e 3d3f 6d3e 04a2 983e e8c6 8d3e
00000110: 8b30 973e d7fa b13e 72dc a73e 970f ae3e
00000120: 173d 723e bc72 ac3e 1024 a33e fdfa 8c3e
00000130: 60a3 ba3e 035f 873e 86e9 983e 222c 9f3e
00000140: ac8f e93e 58fa 4b3e 68ea a53e f423 9e3e
00000150: 40c4 a83e 5c93 c13e 0986 d63e 649e b73e
00000160: 29e4 793d 2cc3 b93e 566b 9d3e 65d3 fc3e
00000170: 0870 d73e 868d cd3e ecdd 0d3e 5a89 bc3e
00000180: efe9 853e de1d 093f afd3 bd3e 6d3e ba3e
00000190: 6491 ea3d 78bb 9c3e 54ac a63e 61c7 aa3e
000001a0: 6ced 8d3e 5b14 7a3e 15d7 983e 5ea7 b83e
000001b0: 357a a43e 778e 4d3e e64b a73e 3f89 533e
000001c0: 38d0 963e c2d7 8b3e 2d50 873e 7f11 913e
000001d0: 71c9 a83e c78e a93e 6e19 873e 372a 3e3e
000001e0: aeed 863e e300 de3e 6025 c03e a84f fd3e
000001f0: 518e c13e d782 413e d04b 8f3e 5acd f43e
00000200: 12a5 e33e 79fd f53e 6c33 b03e f998 9b3e
00000210: e642 9a3e 7b42 0f3f 758f ce3e 76b3 d83e
00000220: 561c d13e 2933 933e 16cc 8c3e 401d 9f3e
00000230: 2c14 473e 6064 513e d219 713e c2d7 923e
00000240: 50c6 883e 5f8b 9c3e ab80 973e 11c7 9f3e
00000250: 3830 823e 38e8 8d3e 5f72 863e 9d8b 6c3e
00000260: 19cc a43e bd9f cc3e 85ff 9f3e 7c79 7e3e
00000270: 72e6 913e 5f60 8c3e f923 af3e 0e05 b63e
00000280: 6f58 103f eaf6 663e cd20 953e 3aac 8a3e
00000290: 5ecc a13e 62c3 953e 0e8b b43e 564c 893e
000002a0: 8d95 843e c67a 283e cbe3 863e 4a43 983e
000002b0: 5447 953e 6a45 983e c982 b13e b2ea 883e
000002c0: 3042 b53e fda7 993e f0ce 983e 2fca a63e
000002d0: 64a1 5fbd fa09 553d 3eb9 2e3d a0b3 22bb
000002e0: 623e 7d3d 801d bcbb ec61 de3c a88f 41bd
000002f0: f009 01bd cc23 5dbd 6d8b 26bd 8893 5fbd
00000300: ceeb 693d 0908 b2bc ec7c aabd b6e0 83bd
00000310: a470 5aba b0ed 8dbd 44df 213d e4d9 813c
00000320: 50bd 303c 1d98 24bd c661 e2bc d804 84bc
00000330: f723 85bd 7050 37bc e474 18bd 70e1 16bc
00000340: 6618 603d 8485 45bc 02d5 013d fa9c 68bd
00000350: f94d 893d ea53 80bd fa14 96bd 9ae8 20bd
00000360: 0272 8dbd 8d89 84bd 00b2 07bd cfe6 e7bd
00000370: b412 b0bd a919 d93b 0158 f3bc 538a b0bc
00000380: f072 72bc 34bf d0bd 9081 25bc 359c 95ba
00000390: fdfe 12bd 6333 a6bd b477 bfbd 6ed0 47bd
000003a0: fb0f 96bd 3671 d9bc c088 de3b 4b8e e7bd
000003b0: 708b a4bc c6e7 e5bc a43b 50bd 5b5f babc
000003c0: ab68 95bd aba3 95bd bf28 85bd 8d2c 9e3c
000003d0: 7ef0 84bc 2e5b f4bd 056a c9ba 98a7 75bd
000003e0: 6bad 18bd 503f e2bb 5791 ebbd 7730 a2bc
000003f0: 11b8 b9bb 3971 b1bd 0387 48bd a9d9 67bd

fc1.bias f4 [64]
0.12809506 -0.044399817 -0.0016788021 -0.10024842 -0.048802998 -0.045351446 -0.06816886 0.003851071
-0.022966728 -0.029117696 -0.115142755 0.17441058 0.050781924 0.22977977 -0.011695733 0.0068132826
-0.077935465 -0.016118696 0.022099495 0.02154503 -0.006773148 0.14234897 -0.019265052 0.02686283
0.009982382 -0.045211636 0.019826906 -0.15276721 -0.043255433 -0.10598183 -0.10922796 0.015253981
-0.065542385 -0.055053346 0.10489538 -0.056357652 0.05201006 -0.0679973 -0.03758311 -0.10832291
0.14963177 0.020908795 0.0007357523 -0.021963593 -0.10512578 -0.062421422 -0.02794303 -0.0002596762
0.063046224 -0.017112963 -0.051540885 -0.08724844 0.0085764425 -0.039442796 -0.06339206 0.11359975
-0.0289782 0.036090635 0.029515093 -0.004896 -0.029887863 -0.0795158 0.06371602 0.21160881
00000000: 5a2b 033e 95dc 35bd 400b dcba 0b4f cdbd
00000010: a7e5 47bd 70c2 39bd 1e9c 8bbd 4062 7c3b
00000020: b824 bcbc 3c88 eebc f7cf ebbd b098 323e
00000030: b500 503d 634b 6b3e 769f 3fbc f541 df3b
00000040: a19c 9fbd 5b0b 84bc 000a b53c 347f b03c
00000050: 49f1 ddbb eec3 113e bed1 9dbc 700f dc3c
00000060: 258d 233c d62f 39bd 096c a23c 026f 1cbe
00000070: 9c2c 31bd 000d d9bd e9b2 dfbd d5eb 793c
00000080: 163b 86bd 9e7f 61bd 64d3 d63d 48d7 66bd
00000090: 8008 553d 2b42 8bbd bff0 19bd 67d8 ddbd
000000a0: 1239 193e ec48 ab3c 80df 403a feec b3bc
000000b0: 2f4c d7bd 9bad 7fbd c8e8 e4bc 2625 88b9
000000c0: 611e 813d 7c30 8cbc 891c 53bd 4faf b2bd
000000d0: 3584 0c3c c58e 21bd b2d3 81bd fca6 e83d
000000e0: b163 edbc c6d3 133d a3c9 f13c a06e a0bb
000000f0: 64d7 f4bc 2ed9 a2bd 8b7d 823d fbaf 583e

fc2.weight f4 [4, 64]
0.07834405 -0.03237958 0.044344425 0.005540678 -0.0016895686 -0.057453826 0.009240821 0.18259998
0.16768374 0.0127054 0.04713584 0.07010886 -0.08430703 0.074861005 0.15846413 0.05553552
0.1228503 0.009851268 -0.08090921 0.003282696 -0.031310692 0.07678024 0.006949254 0.09840725
0.084471725 0.08979524 -0.09723123 -0.04928143 -0.112019196 0.002197676 -0.104492195 0.077324346
-0.052688688 0.11527984 0.075933926 0.10590273 -0.028717382 0.10223022 -0.020145474 -0.07206803
0.06774761 0.059748303 -0.024303883 0.0009659976 0.044957638 0.009798244 -0.0053652776 0.11212179
0.100598246 -0.12222305 -0.09264965 0.11406493 0.10278765 0.048112556 0.025614345 0.06667241
-0.04856796 -0.02680251 -0.018562522 0.03770514 0.15160446 0.15541802 0.08109388 0.07396899
-0.36331892 -0.023915399 -0.056865737 -0.0337044 -0.1382023 0.05555969 0.0032632053 -0.04412185
0.030217554 -0.09468864 -0.11633722 -0.32467055 -0.12965819 -0.34690502 -0.13373339 -0.25700638
0.03918033 -0.0074214544 0.06486927 -0.062481552 -0.0074198954 -0.35584137 0.056928754 -0.057997048
-0.11181061 -0.153764 -0.022065211 0.023412807 0.0955822 -0.026210736 0.043995652 -0.15833652
-0.079803705 -0.0017131269 -0.35261983 0.10777691 -0.16504544 -0.109036684 0.038474973 -0.05347357
-0.31361526 -0.2762456 0.055033848 0.11322729 0.024747347 0.047492713 -0.12651314 0.025013978
0.07616325 0.107394174 0.10187478 0.02256547 0.02195174 -0.09869608 -0.040193714 -0.30859005
0.023488058 -0.09857419 -0.06752801 -0.050309047 -0.023554511 -0.020074012 0.003697127 -0.3427096
0.7024359 0.15857257 -0.12423746 -0.018620797 0.10909744 0.071375236 -0.058695585 0.122478604
0.092259854 0.075097546 -0.0870597 0.6278064 0.0017863853 0.67078346 -0.06579758 0.49700373
-0.06627246 0.04275118 0.0015778393 0.08466144 0.069281325 0.6881327 0.07224679 0.02116844
0.07561381 0.12623726 0.034089953 -0.083970025 0.022137031 0.07954951 0.1155322 0.10587591
0.021645293 -0.07389121 0.6812963 0.024594545 0.025419548 -0.04571271 0.028143764 0.043119088
0.60646296 0.53416294 -0.014701188 0.04003635 -0.057049893 0.095515534 0.006689079 0.1197977
-0.004232824 0.058825746 0.048490897 -0.086708 -0.03868911 0.079645306 -0.11290592 0.596586
0.0672537 -0.004196644 0.1124175 -0.0060925484 -0.050256494 0.03139841 -0.05767034 0.66265434
0.34051174 -0.024136962 0.02571173 -0.00043071515 0.16090685 0.013106744 0.10466619 0.029176587
-0.054373667 0.020610176 0.049011122 0.30437404 0.10830812 0.3251872 -0.05183004 0.24095482
0.115624495 -0.04421452 0.09562415 0.0980172 -0.0003177839 0.33355936 0.17640927 0.04643391
-0.02845009 -0.0624821 0.14071064 0.11912781 -0.02712807 0.040606346 0.018000206 -0.02581056
-0.1029001 0.05304721 0.33014777 0.07087819 0.14662492 0.016988248 -0.0650245 0.15389454
0.2940398 0.25897077 0.10756689 -0.12302272 0.19894044 -0.11437845 0.13768375 0.08110931
0.117550224 -0.11138284 0.11431962 0.005461102 0.02769558 -0.011311248 -0.045450486 0.28929672
0.0867789 0.038625225 0.1595285 0.05608107 0.052800916 -0.033138014 0.06944245 0.32126266
00000000: d872 a03d 73a0 04bd 80a2 353d 938e b53b
00000010: 8474 ddba b454 6bbd d066 173c 7dfb 3a3e
00000020: 49b5 2b3e 4f2a 503c 8311 413d 3c95 8f3d
00000030: 2aa9 acbd ba50 993d 6c44 223e 3779 633d
00000040: f098 fb3d 3667 213c bab3 a5bd 8022 573b
00000050: a43f 00bd f53e 9d3d 91b6 e33b be89 c93d
00000060: 83ff ac3d 91e6 b73d 2b21 c7bd 53db 49bd
00000070: 526a e5bd e306 103b 0100 d6bd 3a5c 9e3d
00000080: 18d0 57bd d617 ec3d 3f83 9b3d 88e3 d83d
00000090: b740 ebbc 145e d13d 1f08 a5bc 6798 93bd
000000a0: 42bf 8a3d a3ba 743d f018 c7bc 003b 7d3a
000000b0: 8025 383d d088 203c 36cf afbb 1ca0 e53d
000000c0: 7406 ce3d 1450 fabd 1abf bdbd e09a e93d
000000d0: 5582 d23d ac11 453d 2dd5 d13c 8b8b 883d
000000e0: 32ef 46bd f090 dbbc 6e10 98bc b470 1a3d
000000f0: 333e 1b3e e725 1f3e 8c14 a63d 0e7d 973d
00000100: f004 babe 3aea c3bc 0cec 68bd a00d 0abd
00000110: e784 0dbe 8f92 633d 80db 553b 1db9 34bd
00000120: ce8a f73c 1eec c1bd 3542 eebd 383b a6be
00000130: 1ec5 04be 899d b1be 68f1 08be 5796 83be
00000140: 8e7b 203d ac2f f3bb 2eda 843d a8ec 7fbd
00000150: 9822 f3bb d730 b6be 202e 693d 508e 6dbd
00000160: f6fc e4bd 4f74 1dbe 1ac2 b4bc 37cc bf3c
00000170: 9ac0 c33d e6b7 d6bc c934 343d f822 22be
00000180: 2070 a3bd 008b e0ba 968a b4be 24ba dc3d
00000190: ac01 29be a04e dfbd ef97 1d3d 1a07 5bbd
000001a0: 2e92 a0be 1070 8dbe 2c6b 613d b6e3 e73d
000001b0: f3ba ca3c b887 423d a98c 01be 1dea cc3c
000001c0: 7afb 9b3d 7af1 db3d baa3 d03d 38db b83c
000001d0: 23d4 b33c 2c21 cabd 2aa2 24bd 84ff 9dbe
000001e0: 076a c03c 44e1 c9bd 204c 8abd dc10 4ebd
000001f0: 64f5 c0bc 4172 a4bc 804b 723b a277 afbe
00000200: d7d2 333f d960 223e 3670 febd a48a 98bc
00000210: 7b6e df3d 2e2d 923d c86a 70bd 10d6 fa3d
00000220: bcf2 bc3d becc 993d 5b4c b2bd ecb7 203f
00000230: 2525 ea3a 77b8 2b3f e2c0 86bd 4677 fe3e
00000240: dbb9 87bd dc1b 2f3d 80cf ce3a fa62 ad3d
00000250: 5ee3 8d3d 7729 303f 20f6 933d 7069 ad3c
00000260: 6adb 9a3d 5744 013e e8a1 0b3d 7af8 abbd
00000270: b858 b53c daea a23d 259c ec3d 78d5 d83d
00000280: 7851 b13c 4654 97bd 6f69 2e3f 807a c93c
00000290: a83c d03c 403d 3bbd c08d e63c a49d 303d
000002a0: 2841 1b3f e7be 083f 40dd 70bc 28fd 233d
000002b0: 26ad 69bd a69d c33d 1030 db3b 7f58 f53d
000002c0: 80b3 8abb 44f3 703d 649e 463d f793 b1bd
000002d0: 7978 1ebd 141d a33d 383b e7bd dcb9 183f
000002e0: 4fbc 893d 0084 89bb 253b e63d 00a4 c7bb
000002f0: c1d9 4dbd 9f9b 003d bc37 6cbd b7a3 293f
00000300: 8e57 ae3e e1ba c5bc 68a1 d23c 9cd1 e1b9
00000310: c4c4 243e abbd 563c 3a5b d63d bd03 ef3c
00000320: ecb6 5ebd acd6 a83c e3bf 483d ead6 9b3e
00000330: a6d0 dd3d f07e a63e bc4b 54bd dcbc 763e
00000340: 89cc ec3d 491a 35bd 98d6 c33d 3ebd c83d
00000350: 3c9c a6b9 4bc8 aa3e a2a4 343e 7c31 3e3d
00000360: 2a10 e9bc 3bed 7fbd 7316 103e 48f9 f33d
00000370: b03b debc d752 263d 2b75 933c ab70 d3bc
00000380: 4abd d2bd 0848 593d 2109 a93e 9628 913d
00000390: d824 163e f02a 8b3c 912b 85bd 8896 1d3e
000003a0: 628c 963e d197 843e 084c dc3d 56f3 fbbd
000003b0: 0bb7 4b3e 403f eabd f8fc 0c3e a31c a63d
000003c0: 2cbe f03d b01c e4bd 6820 ea3d 0bf3 b23b
000003d0: d7e1 e23c d052 39bc 4a2a 3abd b31e 943e
000003e0: 23b9 b13d 7c35 1e3d 705b 233e 44b5 653d
000003f0: c645 583d babb 07bd d837 8e3d 8a7c a43e

fc2.bias f4 [4]
0.05714276 -0.16138017 0.36759982 0.20785893
00000000: 870e 6a3d d840 25be 0b36 bc3e f9d8 543e
