src/flatland/flat_game/results/ourmethod_reg4/rep_learner.pth (torch_old, 312912 bytes, 33 tensors)

representations f4 [6]
0.004957331 0.006597969 -0.0059346966 -0.0022257993 0.0060027563 1.272505
00000000: 1b71 a23b c733 d83b d877 c2bb b7de 11bb
00000010: c5b2 c43b 72e1 a23f

representations f4 [6]
0.00017925975 0.0030180356 0.0038169161 -0.006365939 0.0022326359 -1.2665772
00000000: acf7 3b39 3cca 453b 3a25 7a3b 5e99 d0bb
00000010: 6a51 123b 341f a2bf

representations f4 [6]
-1.2756782 0.0004397922 -0.0049273204 0.004242655 -0.0051858854 0.000117566204
00000000: 6c49 a3bf e993 e639 5c75 a1bb f805 8b3b
00000010: 5cee a9bb e08d f638

representations f4 [6]
1.2680475 -0.006950779 0.006559312 0.0011937007 0.0015561762 -0.0038027791
00000000: 614f a23f 5cc3 e3bb 7fef d63b f375 9c3a
00000010: 9cf8 cb3a 0c38 79bb

fc1.weight f4 [64, 4]
-1.5211213 -0.74991226 -2.736682 -0.11510429 -0.120085716 0.008611977 -0.3989334 -0.26579893
-0.39344567 0.023159496 0.27515614 0.28223193 -0.8156855 0.35026085 0.88968116 -0.7165874
-1.4893023 0.32239816 -1.1431812 2.0654578 -0.4681971 0.36222318 0.633402 -0.8439171
-0.76783246 1.0312585 0.31616077 -0.6245014 -0.28231943 -0.018266883 0.41060397 -0.005328378
1.2916827 -2.7834342 -0.022438962 0.09008245 -0.80977803 -1.165956 1.5158014 -0.29427692
0.4053956 -2.5129838 0.27465072 -0.59334016 1.9157522 1.8732666 0.06538111 -0.78252155
0.22474176 -0.13239211 -0.1696142 -0.09136015 -0.31173298 0.09356092 0.63347965 0.23592576
-1.1757056 0.37380096 0.06990356 -0.66718787 0.46495017 -0.22102897 -0.06312662 -0.14019082
-1.3372091 -2.0394924 -1.8472612 -2.0111423 -0.19710569 -0.19820464 0.28240648 -0.32771307
-1.3763318 -0.44554535 0.5292419 -2.1023793 -0.4047101 -0.24064982 0.88361853 0.29668623
-0.73273903 0.7712852 -1.9576322 -1.7527802 -0.38093844 -3.0668018 0.39046767 -0.8591008
1.6879199 -1.0021682 2.22186 1.6368009 0.35692665 0.9886981 -0.42198396 -1.5068251
-1.4625211 0.13449185 1.2769059 1.4529926 -0.62528807 -0.12006476 0.788691 0.13781445
0.41157112 -2.0402942 -1.3946143 1.9254203 -1.0018255 1.3123956 0.3627546 -0.8983181
2.6393652 -1.0500022 0.738849 -0.35930687 -0.853518 1.2402097 -1.8350956 0.21986076
-1.302325 -1.9941839 0.0054558474 0.05285509 0.12804085 0.49487635 -1.5236872 -1.181367
0.6697686 0.71688205 0.40596756 -0.7334032 -1.2549444 0.25139022 1.2469838 -0.46518984
-0.9480612 0.840123 -1.4517066 -1.5660323 -0.54688656 1.4217829 0.9304132 2.030991
0.49397093 1.7868491 -1.4530953 1.3296558 -0.14949657 -0.19569428 -4.319724 -0.7793439
-1.0825003 -0.41176212 0.85856456 -1.6086183 -1.4167963 -2.2054808 -0.711173 1.5713558
2.144716 1.4024928 -0.58137447 1.0932332 -0.4158539 -0.45386243 0.35891372 2.1124618
0.379341 0.6022662 1.1786568 0.33406112 -0.65081024 0.8602234 0.32447997 -0.14612208
0.9999623 1.7074374 0.3274713 0.23779532 0.56413794 0.3035757 -0.20024502 2.5922337
-0.12720641 2.3058684 0.88108575 0.9320557 1.8486885 -0.6205605 -0.90033466 0.4221145
0.060944043 -0.050966974 0.6336868 -0.12870939 -0.16735311 1.919896 -0.2595011 -1.6125156
-0.64127576 0.8326632 0.32048905 -0.17269264 -0.40976351 0.042749815 0.027745869 -0.03420009
-0.30265057 -0.29926363 0.53359514 1.8961674 -0.13370031 -0.1513375 -0.06293267 0.31612968
1.1889205 -1.5779397 -1.6910868 -2.5324259 0.25482702 -0.06202986 -0.9712603 -1.008401
-0.7883644 -0.5179952 0.46149987 -0.0076986365 1.3005376 2.2182682 0.2319447 0.7867148
-0.00072192843 -0.9640784 0.98000604 2.6659434 -0.037307255 0.05687319 -0.34802216 0.07451586
-0.48891744 0.5356265 1.6518205 -1.0395005 0.53422225 -0.22481328 -0.1255691 -0.18965058
1.8242923 -1.66367 1.6729212 -0.6873907 0.4120497 1.3048419 0.9458278 -1.0924228
00000000: 1ab4 c2bf 40fa 3fbf cc25 2fc0 ccbb ebbd
00000010: 80ef f5bd 4019 0d3c 0041 ccbe cc16 88be
00000020: b671 c9be fcb8 bd3c 44e1 8c3e b480 903e
00000030: c4d0 50bf 6455 b33e 25c2 633f 4672 37bf
00000040: 75a1 bebf 5f11 a53e c353 92bf 7630 0440
00000050: 88b7 efbe 5175 b93e a226 223f f30a 58bf
00000060: ab90 44bf 4700 843f d3df a13e 53df 1fbf
00000070: 2c8c 90be 6ea4 95bc af3a d23e ad99 aebb
00000080: dc55 a53f c923 32c0 ead1 b7bc 267d b83d
00000090: 9d4d 4fbf 0c3e 95bf c805 c23f 77ab 96be
000000a0: 0390 cf3e bad4 20c0 059f 8c3e 24e5 17bf
000000b0: 5e37 f53f 33c7 ef3f 88e6 853d 5553 48bf
000000c0: b422 663e cc91 07be 58af 2dbe 081b bbbd
000000d0: 779b 9fbe de9c bf3d b92b 223f 8696 713e
000000e0: 857d 96bf d762 bf3e 9929 8f3d d3cc 2abf
000000f0: f30d ee3e 6b55 62be 8848 81bd 2f8e 0fbe
00000100: ab29 abbf 0b87 02c0 0e73 ecbf 8eb6 00c0
00000110: 13d6 49be 28f6 4abe 9597 903e 02ca a7be
00000120: a42b b0bf 851e e4be 667c 073f 628d 06c0
00000130: 2a36 cfbe e86c 76be d334 623f 42e7 973e
00000140: c994 3bbf f272 453f b193 fabf 1a5b e0bf
00000150: 5d0a c3be 7b46 44c0 61eb c73e 08ee 5bbf
00000160: c20d d83f 0c47 80bf f432 0e40 b182 d13f
00000170: 17bf b63e 521b 7d3f 480e d8be a5df c0bf
00000180: e433 bbbf 3bb8 093e a771 a33f a9fb b93f
00000190: e112 20bf 83e4 f5bd a7e7 493f 3b1f 0d3e
000001a0: 73b9 d23e 2e94 02c0 b982 b2bf 2c74 f63f
000001b0: d13b 80bf 94fc a73f f9ba b93e 2df8 65bf
000001c0: 5ceb 2840 7966 86bf 3525 3d3f 12f7 b7be
000001d0: 2880 5abf 31bf 9e3f 6ae4 eabf 2e23 613e
000001e0: 96b2 a6bf 6b41 ffbf f7c6 b23b 947e 583d
000001f0: 241d 033e 6f60 fd3e 2f08 c3bf 0937 97bf
00000200: f475 2b3f 9585 373f fbda cf3e 50c0 3bbf
00000210: 05a2 a0bf 38b6 803e 2a9d 9f3f 5d2d eebe
00000220: 24b4 72bf 4d12 573f 86d1 b9bf bf73 c8bf
00000230: c200 0cbf fbfc b53f 8f2f 6e3f c2fb 0140
00000240: c2e9 fc3e 79b7 e43f 07ff b9bf 2932 aa3f
00000250: a115 19be 1564 48be 2e3b 8ac0 1583 47bf
00000260: 5f8f 8abf 7cd2 d2be e3ca 5b3f 34e7 cdbf
00000270: 9559 b5bf 9926 0dc0 6f0f 36bf 3022 c93f
00000280: 0743 0940 e284 b33f f5d4 14bf 11ef 8b3f
00000290: cdea d4be a860 e8be 8ac3 b73e 9332 0740
000002a0: fc38 c23e 1e2e 1a3f 3ade 963f 0f0a ab3e
000002b0: 809b 26bf 9a37 5c3f 3d22 a63e 07a1 15be
000002c0: 87fd 7f3f 4f8d da3f 51aa a73e 9e80 733e
000002d0: 586b 103f 466e 9b3e 080d 4dbe 28e7 2540
000002e0: 6642 02be 5993 1340 d68e 613f 349b 6e3f
000002f0: d3a1 ec3f 0edd 1ebf 557c 66bf 641f d83e
00000300: 76a0 793d bfc2 50bd 4c39 223f 65cc 03be
00000310: 9d5e 2bbe 27bf f53f 54dd 84be e966 cebf
00000320: a62a 24bf 6a29 553f 2417 a43e 57d6 30be
00000330: 86cc d1be 6e1a 2f3d 4e4b e33c 6515 0cbd
00000340: 04f5 9abe 1539 99be b199 083f 9db5 f23f
00000350: bce8 08be 38f8 1abe d8e2 80bd c0db a13e
00000360: 8c2e 983f eef9 c9bf 8875 d8bf 4413 22c0
00000370: b078 823e 0613 7ebd 84a4 78bf 4913 81bf
00000380: 40d2 49bf 559b 04bf b649 ec3e d844 fcbb
00000390: 0478 a63f 1bf8 0d40 e982 6d3e 2466 493f
000003a0: cc3f 3dba d8cd 76bf ade1 7a3f d19e 2a40
000003b0: 7ecf 18bd ddf3 683d f62f b2be c59b 983d
000003c0: 6353 fabe d11e 093f db6e d33f 5a0e 85bf
000003d0: cac2 083f 7435 66be 3095 00be c333 42be
000003e0: 6982 e93f 23f3 d4bf 4822 d63f d6f8 2fbf
000003f0: 2ef8 d23e 0f05 a73f c521 723f 83d4 8bbf

fc1.bias f4 [64]
-0.10714616 -0.49675632 0.39709127 0.39213017 0.20752203 0.34146202 0.4361151 0.4083852
-0.3134289 0.67736846 -0.08151468 0.3531505 -0.4601413 0.36175779 0.22245766 -0.5187075
-0.3474791 0.39254743 0.32150352 0.30283424 -0.3216971 0.34176415 0.39274088 0.22037178
0.30761802 0.3430203 0.10159695 0.49725774 0.039221484 0.22704963 1.1908814 0.13164517
0.18778022 0.43210402 -0.4111304 0.13693665 0.010881205 -1.3037366 0.54018635 0.2455075
-0.25950623 -0.061921097 0.4050697 0.431544 0.062023364 0.2689966 0.26700732 0.46648854
0.34361085 0.6109431 0.4365882 0.20336334 0.3920483 -0.46308059 -0.3707656 0.070030145
0.41116008 -0.085080825 0.29502127 -0.45013934 1.0935887 -0.58342355 0.4555694 -0.08248858
00000000: 726f dbbd d856 febe 8c4f cb3e 49c5 c83e
00000010: a880 543e 1cd4 ae3e 7a4a df3e dd17 d13e
00000020: c179 a0be 0568 2d3f 2bf1 a6bd 24d0 b43e
00000030: a497 ebbe 5138 b93e f1cb 633e 04ca 04bf
00000040: c8e8 b1be fafb c83e 1c9c a43e 170d 9b3e
00000050: 7bb5 a4be b6fb ae3e 5515 c93e 24a9 613e
00000060: 1c80 9d3e 5ba0 af3e 1012 d03d 9198 fe3e
00000070: b5a6 203d b37f 683e cd6e 983f fecd 063e
00000080: 7549 403e bd3c dd3e af7f d2be 1f39 0c3e
00000090: 1547 323c d7e0 a6bf a749 0a3f 5166 7b3e
000000a0: 00de 84be faa0 7dbd 4c65 cf3e 56f3 dc3e
000000b0: 360c 7e3d ecb9 893e 2fb5 883e 96d7 ee3e
000000c0: c3ed af3e c466 1c3f 7d88 df3e 7b3e 503e
000000d0: 8eba c83e e618 edbe fdd4 bdbe f76b 8f3d
000000e0: 9383 d23e db3e aebd 070d 973e aa78 e6be
000000f0: b7fa 8b3f 3f5b 15bf 6440 e93e c6ef a8bd

fc2.weight f4 [180, 64]
0.11151638 -0.0021009296 0.2772044 0.015308123 0.11053874 0.14556214 -0.030419791 0.18678382
0.26911864 -0.28460488 0.3490117 0.3288216 -0.08320007 0.20822565 0.30993256 0.17932297
-0.17962316 0.15866318 0.3000297 -0.025300322 -0.0833207 -0.064344116 -0.0052350536 0.08645258
0.29219243 0.15609993 0.056942545 0.24341144 0.08546528 0.21423902 0.29881155 0.075596236
0.2217496 0.052422766 0.13493554 0.2185002 -0.11096983 -0.022700297 0.113415435 -0.003774825
0.116899304 0.017007424 0.4181771 0.24639213 0.32279742 0.12765166 -0.48597747 0.3589345
0.29454505 -0.18060827 0.24773076 0.256157 0.028366834 -0.045915917 0.16472633 0.18354525
0.08109231 0.21876286 -0.07591185 0.005789208 -0.71053326 0.4124037 0.17923175 0.15383363
-0.15165637 -0.099350244 -0.039091386 -0.033142243 -0.024721518 -0.032365657 -0.171113 -0.14595604
0.07217911 -0.120520405 -0.14871064 -0.15007563 -0.0033559203 -0.048935015 -0.045762654 0.027513992
0.034625098 -0.16762555 -0.022431167 -0.108451866 0.004576648 -0.07731316 -0.11632262 -0.091589846
-0.06010489 -0.14503802 -0.08854098 -0.08393391 0.060142513 -0.13133013 0.041525155 -0.11528981
0.0015246061 -0.049981687 0.0074328645 -0.12562628 -0.042783264 -0.086467765 0.049106486 -0.06322424
0.060138296 -0.1459433 0.017118445 0.061077166 -0.13225812 0.0012259035 0.0003774166 -0.018590784
-0.1782872 -0.008458003 -0.00955204 -0.13972382 0.10627198 0.1081468 0.046482958 -0.13461666
-0.08438911 -0.053864956 -0.10746345 -0.026274439 0.048408754 -0.047542546 -0.009637475 -0.14495395
0.039419264 0.09366922 -0.13646168 -0.09468415 -0.07166238 0.030149084 -0.008069799 -0.17745627
-0.013626188 -0.056261644 -0.018380653 0.025370112 0.119021416 -0.12261711 -0.17292093 -0.056751177
-0.054565966 -0.026750384 -0.10365605 -0.05009726 -0.09305221 0.08543356 0.020189218 -0.10206905
-0.023349483 -0.075471126 -0.08794141 -0.103213385 -0.05731029 -0.012435183 -0.115427226 -0.10844326
-0.07263251 -0.137239 -0.08522691 0.039180573 -0.07997412 -0.12574741 0.035384044 0.008582711
0.0646223 -0.08697188 0.053649385 0.0016605244 -0.109091245 -0.16707407 0.09175058 -0.03638189
-0.1664117 0.072199166 -0.0111827515 0.03788788 -0.10322618 0.03045544 -0.08725008 -0.030541763
-0.0743208 -0.010879447 -0.031345442 0.023963377 -0.14728741 0.015461624 0.022782803 0.058210783
-0.5892177 -0.04461746 0.045414604 -0.08600943 0.25367233 -0.18804792 -0.34272206 -0.14491837
0.5319437 0.0908297 -0.21028844 -0.32596567 0.08249436 -0.101411074 -0.15769266 -0.2507039
-0.27241272 -0.15336825 -0.10758835 -0.11371211 -0.49863663 0.100049764 -0.6056107 -0.12047307
0.117554314 -0.1946055 0.15358062 -0.11878296 -0.043595042 0.28733552 -0.0889132 -0.33461973
-0.17747842 -0.05792127 -0.24326535 -0.0058155935 0.009865228 -0.3652458 -0.0804437 0.5372737
0.39261913 0.017395627 -0.122493446 -0.13525832 0.10223089 0.03843094 0.09445771 0.16352469
-0.011049636 -0.07700139 -0.037974432 -0.101314634 -0.37469655 0.07730703 -0.14306772 -0.110593565
-0.030260537 0.20802753 -0.12716562 -0.15976167 0.7677904 -0.12846656 -0.42015705 -0.2227475
00000000: b362 e43d c0af 09bb bced 8d3e ecce 7a3c
00000010: 2362 e23d 3e0e 153e ed32 f9bc 4244 3f3e
00000020: ebc9 893e bbb7 91be a9b1 b23e 4e5b a83e
00000030: cc64 aabd 1b39 553e 7baf 9e3e 71a0 373e
00000040: 22ef 37be 9a78 223e 7e9d 993e 9f42 cfbc
00000050: 0ba4 aabd d9c6 83bd d08a abbb 0d0e b13d
00000060: 3f9a 953e a9d8 1f3e 963c 693d d940 793e
00000070: 6c08 af3d 7961 5b3e d4fd 983e 33d2 9a3d
00000080: 5412 633e 41b9 563d 8b2c 0a3e 84be 5f3e
00000090: 2644 e3bd f9f5 b9bc 5a46 e83d 0e63 77bb
000000a0: e768 ef3d 2753 8b3c 4f1b d63e 384e 7c3e
000000b0: b445 a53e 1eb7 023e 0ad2 f8be 43c6 b73e
000000c0: 9cce 963e 60f1 38be 22ad 7d3e 0327 833e
000000d0: 9061 e83c 5412 3cbd 05ae 283e 49f3 3b3e
000000e0: ba13 a63d 5f03 603e ac77 9bbd 66b3 bd3b
000000f0: 82e5 35bf 9426 d33e 8788 373e 9086 1d3e
00000100: cf4b 1bbe 2478 cbbd 4a1e 20bd 29c0 07bd
00000110: c884 cabc da91 04bd 3f38 2fbe 8075 15be
00000120: a4d2 933d 67d3 f6bd 9a47 18be 6dad 19be
00000130: 00ef 5bbb 1570 48bd 9f71 3bbd 0665 e13c
00000140: 0cd3 0d3d 08a6 2bbe 91c1 b7bc 031c debd
00000150: b5f7 953b 5d56 9ebd 8e3a eebd 7593 bbbd
00000160: 8c30 76bd d984 14be f954 b5bd 8be5 abbd
00000170: ff57 763d 687b 06be 4816 2a3d 101d ecbd
00000180: 4bd5 c73a 99b9 4cbd 638f f33b 2da4 00be
00000190: 813d 2fbd 0316 b1bd e223 493d b67b 81bd
000001a0: 9353 763d 2972 15be fb3b 8c3c 0d2c 7a3d
000001b0: ac6e 07be 7fae a03a 00e0 c539 b34b 98bc
000001c0: eb90 36be 7093 0abc 2980 1cbc c313 0fbe
000001d0: 20a5 d93d 127c dd3d ea64 3e3d f3d8 09be
000001e0: 33d4 acbd 80a1 5cbd cc15 dcbd 7e3d d7bc
000001f0: 4248 463d f9bb 42bd 80e6 1dbc cf6e 14be
00000200: 1876 213d a6d5 bf3d 9cbc 0bbe c3e9 c1bd
00000210: bac3 92bd 36fb f63c 3137 04bc 19b7 35be
00000220: 6040 5fbc 9c72 66bd 0693 96bc fbd4 cf3c
00000230: 80c1 f33d ae1e fbbd 2f12 31be ec73 68bd
00000240: 9080 5fbd 9f23 dbbc a049 d4bd c932 4dbd
00000250: 2892 bebd caf7 ae3d dc63 a53c 9409 d1bd
00000260: 6a47 bfbc 9b90 9abd a01a b4bd 8a61 d3bd
00000270: 32be 6abd f0bc 4bbc 1c65 ecbd 8017 debd
00000280: 5ac0 94bd 6188 0cbe 728b aebd cf7b 203d
00000290: 79c9 a3bd eec3 00be dcee 103d 809e 0c3c
000002a0: b258 843d 501e b2bd 75bf 5b3d f4a5 d93a
000002b0: 3b6b dfbd 7715 2bbe bae7 bb3d 2d05 15bd
000002c0: d467 2abe 28dd 933d dc37 37bc 5230 1b3d
000002d0: 3f68 d3bd b07d f93c 2cb0 b2bd b832 fabc
000002e0: 8135 98bd b53f 32bc 1464 00bd d84e c43c
000002f0: 83d2 16be c052 7d3c 00a3 ba3c 6e6e 6e3d
00000300: f9d6 16bf ccc0 36bd aa04 3a3d b625 b0bd
00000310: 57e1 813e a28f 40be 4479 afbe 7b65 14be
00000320: 762d 083f ec04 ba3d da55 57be f9e4 a6be
00000330: cef2 a83d 9cb0 cfbd 2f7a 21be 435c 80be
00000340: ae79 8bbe 910c 1dbe 4857 dcbd e5e1 e8bd
00000350: 4d4d ffbe e4e6 cc3d 4e09 1bbf 96ba f6bd
00000360: 51c0 f03d aa46 47be 3d44 1d3e 7b44 f3bd
00000370: b790 32bd a41d 933e 2018 b6bd 4753 abbe
00000380: e7bc 35be db3e 6dbd 8d1a 79be bc90 bebb
00000390: c4a1 213c 7f01 bbbe abbf a4bd c58a 093f
000003a0: 6005 c93e 4681 8e3c d8dd fabd 2881 0abe
000003b0: 6e5e d13d c369 1d3d 0b73 c13d 0473 273e
000003c0: 8809 35bc e8b2 9dbd 148b 1bbd 0c7e cfbd
000003d0: 3ad8 bfbe 2653 9e3d 5880 12be e17e e2bd
000003e0: f2e4 f7bc 2b05 553e b437 02be 9098 23be
000003f0: e98d 443f bd8c 03be d31e d7be ec17 64be

fc2.bias f4 [180]
0.2500195 0.035364747 0.0019854591 -0.09653093 0.10376773 -0.15087676 -0.03002872 -0.05036388
-0.07431168 0.13267231 0.9230927 0.42875224 -0.07704759 -0.22948217 0.0199174 -0.00067564263
-0.15230522 -0.024202041 -0.1423401 -0.24702483 -0.31502593 -0.027920134 -0.044613488 -0.06673011
0.14791127 -0.17219768 -0.13346745 -0.15179698 -0.081986435 0.26735586 0.042657245 0.16224295
0.05071978 -0.06625007 -0.2538884 -0.09140607 0.0793991 0.14305557 0.2640407 -0.29043126
0.1382351 0.39931527 0.048161127 -0.1048014 0.044466786 -0.13256353 -0.099943615 0.36426264
-0.041899152 0.011645497 -0.17979361 -0.07278959 -0.13036531 0.33536756 0.0041090986 -0.039916757
-0.15193178 0.009478971 -0.09382401 0.088382944 -0.08749165 0.13414674 -0.17848846 -0.19266984
-0.111326806 0.22884032 0.1863635 0.56744146 0.23012868 -0.06734636 0.31870106 0.40400538
0.16190818 0.021784924 0.3517985 -0.18591174 0.17383787 0.25431713 0.39961115 0.015240063
-0.062380806 -0.13110678 0.14528473 -0.09248766 -0.054556396 -0.031375732 -0.0679 -0.18871261
0.6720542 -0.06632474 0.23223253 -0.17137231 -0.009218094 -0.044981696 -0.0018914021 0.03185186
0.110496245 -0.05115082 -0.061364997 -0.08134542 -0.2813565 0.07233537 0.24392976 -0.1954237
-0.11293749 -0.118940845 0.29202354 0.26259652 0.0057055387 -0.09238166 -0.0014831228 -0.053272396
-0.03699005 0.12983009 0.059942774 -0.1585364 -0.06503758 -0.22180986 -0.01940984 0.06505592
-0.076219 -0.13764964 -0.15430589 -0.45657447 -0.1452317 -0.17371176 0.0699176 0.028979808
-0.01742235 0.41160154 -0.19970378 -0.19384079 -0.19972289 0.047834873 -0.18626893 0.043749996
-0.193424 -0.09937478 0.23805389 0.14877416 0.11654569 0.28124976 0.2831065 -0.07782201
0.32488903 0.33199602 0.012274016 0.34019443 0.23989269 0.3971138 0.32328975 0.0007278311
-0.14695281 -0.018952234 0.28500083 -0.15342233 0.3009866 0.021238998 -0.0458293 -0.041380033
-0.16394064 -0.119816214 0.1962162 -0.123040825 -0.010409028 -0.17660618 -0.11233908 -0.091200374
0.19860293 -0.05808781 -0.10804069 0.035880763 -0.2423789 -0.08338152 -0.28459585 0.04478131
-0.09657104 -0.04053724 0.0317081 -0.011790664
00000000: 8e02 803e a0da 103d 7a1e 023b 02b2 c5bd
00000010: 2d84 d43d 707f 1abe cafe f5bc 5b4a 4ebd
00000020: b930 98bd 40db 073e ce4f 6c3f 6a85 db3e
00000030: 20cb 9dbd 60fd 6abe d129 a33c 9c1d 31ba
00000040: e6f5 1bbe 5c43 c6bc 9ac1 11be 14f4 7cbe
00000050: 144b a1be c4b8 e4bc a2bc 36bd cca9 88bd
00000060: 0d76 173e 9754 30be b1ab 08be ab70 1bbe
00000070: 81e8 a7bd dee2 883e 5db9 2e3d 0423 263e
00000080: 8bbf 4f3d 1eae 87bd a9fd 81be 1b33 bbbd
00000090: ff9b a23d 297d 123e 5830 873e 68b3 94be
000000a0: 818d 0d3e 0d73 cc3e 9a44 453d 1ea2 d6bd
000000b0: ce22 363d bcbe 07be 3daf ccbd a280 ba3e
000000c0: 729e 2bbd c1cc 3e3c d11b 38be b512 95bd
000000d0: 7c7e 05be 4cb5 ab3e 9ea5 863b c17f 23bd
000000e0: 0194 1bbe b04d 1b3c cd26 c0bd 1e02 b53d
000000f0: d22e b3bd c35d 093e aec5 36be 3e4b 45be
00000100: 4fff e3bd 1e55 6a3e 13d6 3e3e d843 113f
00000110: daa6 6b3e e3ec 89bd c92c a33e cbd9 ce3e
00000120: 42cb 253e 4c76 b23c ef1e b43e a65f 3ebe
00000130: 8e02 323e db35 823e d599 cc3e 75b1 793c
00000140: 0483 7fbd db40 06be 85c5 143e 2c6a bdbd
00000150: 8776 5fbd d783 00bd 280f 8bbd e13d 41be
00000160: be0b 2c3f 44d5 87bd 5dce 6d3e 397c 2fbe
00000170: 7d07 17bc ba3e 38bd ece8 f7ba 1977 023d
00000180: db4b e23d 8683 51bd dd59 7bbd 6d98 a6bd
00000190: f60d 90be 9124 943d b9c8 793e 271d 48be
000001a0: c54b e7bd 4297 f3bd 1c84 953e 0d73 863e
000001b0: 87f5 ba3b 9932 bdbd 5865 c2ba 2834 5abd
000001c0: e182 17bd 2ef2 043e 8e86 753d 5e57 22be
000001d0: 6c32 85bd 2022 63be 6301 9fbc 0a3c 853d
000001e0: b518 9cbd 07f4 0cbe 5d02 1ebe 21c4 e9be
000001f0: 9eb7 14be 7fe1 31be f530 8f3d 1067 ed3c
00000200: 51b9 8ebc 70bd d23e 267f 4cbe 337e 46be
00000210: 2884 4cbe 80ee 433d 48bd 3ebe 3233 333d
00000220: f110 46be 0185 cbbd 66c4 733e 4158 183e
00000230: 82af ee3d f8ff 8f3e 56f3 903e 2561 9fbd
00000240: db57 a63e 62fb a93e f418 493c f72d ae3e
00000250: 6ea6 753e 8052 cb3e 3c86 a53e ebcb 3e3a
00000260: cc7a 16be b741 9bbc a1eb 913e be1a 1dbe
00000270: ea1a 9a3e 68fd ad3c 81b7 3bbd 1c7e 29bd
00000280: 0ee0 27be 3462 f5bd e6ec 483e d4fc fbbd
00000290: a18a 2abc 40d8 34be 0812 e6bd 43c7 babd
000002a0: 915e 4b3e 7ced 6dbd 7044 ddbd b5f7 123d
000002b0: 2d32 78be eec3 aabd 8cb6 91be 9b6c 373d
000002c0: 0ac7 c5bd 610a 26bd 5ae0 013d a12d 41bc

conv.weight f4 [5, 1, 34, 34]
-0.72330433 -1.092133 -1.0441741 -0.99185556 -0.79506886 -1.0256287 -0.9822892 -1.010618
-1.0687952 -0.9913007 -0.84141374 -1.0973924 -0.7956218 -0.5298928 -0.34447128 0.07500409
-0.048230477 0.037765086 -0.022410361 -0.10749181 0.026736617 0.2392805 0.16402109 0.16299872
0.22260436 0.2289714 0.19288065 0.14751977 0.080044694 -0.090808235 -0.002142875 0.025185931
-0.0046726973 -0.05382692 -0.8208893 -1.1641077 -1.1834637 -1.1270838 -1.0423661 -0.9010588
-0.86819106 -1.0870318 -1.1583471 -1.1074829 -1.3861854 -1.0223107 -0.5474475 -0.680804
-0.4466261 0.05132927 -0.13109703 -0.059231203 0.20125696 0.037078578 -0.05247822 0.40111968
0.1137208 -0.0001008563 0.3253761 0.2525898 0.1274327 0.18224564 -0.014975555 -0.0907879
0.06590514 -0.035286315 -0.033996522 -0.08012611 -0.81128657 -1.0950347 -1.2747753 -1.3091638
-0.99805355 -1.1576391 -1.0055977 -0.97399414 -0.8492295 -0.8528634 -1.3491081 -0.8295139
-0.63487387 -0.7344301 -0.73440313 0.16414732 -0.01192287 -0.32385874 0.36936638 -0.043149848
0.0940284 0.6390274 0.07653775 0.082983814 0.22959335 0.2506131 0.1961819 0.16024794
0.004210737 -0.04265723 0.073134355 0.069888346 0.04449679 0.046618387 -0.6999881 -1.1849226
-1.6895347 -1.3240203 -1.4133663 -1.3157617 -1.2249978 -0.8175831 -0.85718286 -0.7040394
-1.0251368 -0.7773663 -0.38862467 -0.4669364 -0.24997592 -0.14210504 -0.33157876 -0.47852147
-0.03283869 -0.14673503 0.37222242 0.6543289 -0.032434035 -0.283395 0.21598375 0.26952988
0.25879833 0.17098404 0.13444416 -0.06445546 0.07045462 0.15540123 0.11037238 0.04145749
-0.9280571 -1.4348798 -1.4957306 -1.8578345 -1.5737525 -1.6554612 -1.5819274 -1.43444
-0.8150817 -0.9080248 -0.893362 -0.66857857 -0.47331035 -0.30406484 0.11754938 0.055230822
0.20688972 0.13971221 0.11453211 0.064358704 0.060003217 0.09978314 0.08748153 0.08045937
0.17963919 0.22396785 0.20914945 0.13419895 0.14991075 0.05331411 0.10359389 0.12017644
0.0901086 0.03561953 -0.6925525 -1.2265627 -1.2653769 -1.3011029 -1.4741039 -1.4998891
-1.4089808 -1.3469739 -1.3327703 -0.88530153 -1.1584307 -0.7780826 -0.3929645 -0.5244225
0.003484584 0.019535039 0.11826816 0.30339476 0.21337709 0.088539936 0.29740325 0.13094714
0.21743442 0.19196114 0.28412104 0.32156846 0.29014048 0.24284361 0.13861006 0.077344194
0.18516193 0.15156095 0.12152103 0.053701133 -0.69453496 -0.9061909 -0.9803949 -1.0455239
-1.3335686 -1.3021115 -1.4446819 -1.4609362 -1.5090758 -1.3263456 -1.6857948 -1.2524743
-0.62330973 -0.38775843 0.022710726 0.18232341 0.20133278 0.4051687 0.023417447 0.21424209
0.43735656 0.44656667 0.47630757 0.48686698 0.3520039 0.2487665 0.2596209 0.27341408
0.26391837 0.15044978 0.20130336 0.100007005 0.020457335 0.005479764 -0.5091884 -0.9003267
-1.0945987 -1.1212941 -1.1605417 -1.3219671 -1.5022233 -1.5652102 -1.4208391 -1.3310121
-1.6696231 -1.3113083 -0.9629732 -0.80503577 -0.3637317 -0.038802058 0.038695935 0.32932255
00000000: 792a 39bf 04cb 8bbf 7fa7 85bf 3fea 7dbf
00000010: a289 4bbf cd47 83bf 4e77 7bbf ee5b 81bf
00000020: 48ce 88bf e2c5 7dbf e466 57bf 5b77 8cbf
00000030: dfad 4bbf 0ea7 07bf 8a5e b0be bf9b 993d
00000040: 528d 45bd 90af 1a3d ef95 b7bc ab24 dcbd
00000050: c006 db3c f305 753e 25f5 273e 23e9 263e
00000060: 66f2 633e 7b77 6a3e 8182 453e 6c0f 173e
00000070: 79ee a33d abf9 b9bd 7a6f 0cbb ba52 ce3c
00000080: 6d1d 99bb 9e79 5cbd cd25 52bf 7b01 95bf
00000090: bd7b 97bf 4844 90bf 416c 85bf caab 66bf
000000a0: c541 5ebf dc23 8bbf b844 94bf 00c2 8dbf
000000b0: 866e b1bf 14db 82bf 8525 0cbf 2c49 2ebf
000000c0: 2dac e4be a43e 523d 4d3e 06be 6b9c 72bd
000000d0: 4e16 4e3e b5df 173d 67f3 56bd 8f5f cd3e
000000e0: 73e6 e83d d082 d3b8 b297 a63e 7353 813e
000000f0: b87d 023e 9a9e 3a3e 085c 75bc 02ef b9bd
00000100: 46f9 863d 6288 10bd f03f 0bbd 2819 a4bd
00000110: 7ab0 4fbf 192a 8cbf d62b a3bf ae92 a7bf
00000120: 7080 7fbf 852d 94bf 6db7 80bf ae57 79bf
00000130: 1b67 59bf 4155 5abf 93af acbf 065b 54bf
00000140: 1887 22bf 9c03 3cbf d801 3cbf 3c16 283e
00000150: 2458 43bc d0d0 a5be 971d bd3e e5bd 30bd
00000160: f691 c03d 4d97 233f d3bf 9c3d 6bf3 a93d
00000170: 851a 6b3e 5c50 803e e8e3 483e 0918 243e
00000180: 39fa 893b 59b9 2ebd 77c7 953d 9f21 8f3d
00000190: 4442 363d ecf2 3e3d 6c32 33bf 8bab 97bf
000001a0: ac42 d8bf 7f79 a9bf 30e9 b4bf e16a a8bf
000001b0: bacc 9cbf 204d 51bf 5670 5bbf ed3b 34bf
000001c0: af37 83bf 7a01 47bf d0f9 c6be 4a12 efbe
000001d0: b0f9 7fbe fc83 11be b1c4 a9be c400 f5be
000001e0: dd81 06bd b541 16be f093 be3e 1982 273f
000001f0: 8dd9 04bd 2619 91be d82a 5d3e d2ff 893e
00000200: 3781 843e 7116 2f3e bbab 093e 3901 84bd
00000210: 834a 903d 8021 1f3e ea0a e23d 54cf 293d
00000220: 2695 6dbf 24aa b7bf 1a74 bfbf 85cd edbf
00000230: b970 c9bf 27e6 d3bf 997c cabf bb9b b7bf
00000240: 32a9 50bf 5074 68bf 5fb3 64bf f727 2bbf
00000250: bc55 f2be 63ae 9bbe bbbd f03d b739 623d
00000260: e6da 533e b810 0f3e d08f ea3d 7fce 833d
00000270: efc5 753d 1a5b cc3d 8429 b33d e2c7 a43d
00000280: 56f3 373e d457 653e 462b 563e 736b 093e
00000290: 3482 193e e55f 5a3d 0929 d43d 111f f63d
000002a0: dc8a b83d c9e5 113d 1f4b 31bf 0200 9dbf
000002b0: dff7 a1bf 8a8a a6bf 70af bcbf 5efc bfbf
000002c0: 7c59 b4bf a469 acbf 3898 aabf 1fa3 62bf
000002d0: 7547 94bf 6c30 47bf a532 c9be 8e40 06bf
000002e0: 9e5d 643b f207 a03c 9436 f23d 8f56 9b3e
000002f0: 867f 5a3e 6d54 b53d 3d45 983e 0217 063e
00000300: 21a7 5e3e 7691 443e 5078 913e 9fa4 a43e
00000310: 4b8d 943e ffab 783e ccef 0d3e a266 9e3d
00000320: 179b 3d3e cb32 1b3e 05e0 f83d b8f5 5b3d
00000330: 0bcd 31bf 20fc 67bf 29fb 7abf bad3 85bf
00000340: 60b2 aabf 97ab a6bf 56eb b8bf f5ff babf
00000350: 6529 c1bf b1c5 a9bf 20c8 d7bf 1451 a0bf
00000360: 3a91 1fbf 4688 c6be d80b ba3c fdb2 3a3e
00000370: 2e2a 4e3e 4672 cf3e f2d5 bf3c 4762 5b3e
00000380: 33ed df3e 63a4 e43e 96de f33e a146 f93e
00000390: db39 b43e a5bc 7e3e 08ed 843e eefc 8b3e
000003a0: 4f20 873e 820f 1a3e 7822 4e3e 79d0 cc3d
000003b0: 2496 a73c 988f b33b 2c5a 02bf d07b 66bf
000003c0: cf1b 8cbf 9186 8fbf a18c 94bf 3836 a9bf
000003d0: da48 c0bf cf58 c8bf 0ede b5bf 9b5e aabf
000003e0: 36b6 d5bf f3d8 a7bf 6985 76bf d316 4ebf
000003f0: 0b3b babe e8ee 1ebd a17f 1e3d f79c a83e

conv.weight f4 [5, 1, 10, 10]
-0.17891434 -0.045267455 -0.031516977 0.014053476 -0.1856383 -0.14469443 -0.20702706 0.08842345
0.17660308 0.102850616 -0.12257759 -0.0036584167 -0.14771183 -0.116928376 -0.1721726 -0.17733842
-0.13271949 0.064180054 0.09856685 0.06213251 -0.055222742 0.0073653692 -0.18254593 -0.045190796
-0.053424966 -0.09044842 -0.025056938 -0.0046353713 0.23904066 0.034041177 -0.1277063 -0.065250926
-0.18437459 -0.063085765 -0.0074601616 -0.076799564 -0.11418009 0.047175582 0.11208383 0.2125154
-0.0134159615 0.008646495 -0.035238232 -0.13085255 -0.04919493 -0.18799987 -0.07453394 -0.12317412
0.03215357 0.039925747 -0.14844286 -0.07928456 -0.038587235 -0.14551836 -0.06067336 -0.00852126
0.0009277681 -0.08235438 0.0073823095 0.106307745 -0.019513538 -0.10147153 -0.1134773 -0.13983001
-0.09043158 -0.15098226 -0.07101267 -0.17389089 0.20134829 0.13354717 -0.104374416 -0.086529374
-0.114171736 -0.17565976 -0.1671328 -0.045533095 -0.16920544 -0.028511653 0.25126234 0.25269368
-0.13160168 -0.13550772 -0.08313962 -0.16268037 -0.21984038 -0.17981184 -0.0009733704 0.18674651
0.13860986 0.082051955 0.09739556 -0.026761487 -0.13454637 -0.060510423 -0.061974037 -0.073686294
-0.07451146 0.07207574 0.08907089 0.1318063 0.081839204 0.080515325 0.09776317 0.028808607
0.034050386 0.002164631 0.08101744 0.040921766 0.08863808 0.21963885 -0.038194455 -0.026776476
0.082255475 -0.08863654 0.071019605 -0.037406575 0.1268215 0.11745683 0.11703454 0.06506091
-0.0640088 -0.01850903 -0.0749238 -0.058358196 -0.025065776 0.0930667 0.12862739 0.21358836
0.16434287 0.13397437 -0.038648363 0.01927591 0.023167295 0.05177385 0.0821777 0.02799873
-0.058200404 0.07944092 0.1810129 0.123291716 0.0030920324 -0.025604978 -0.024895325 -0.07202359
0.13589716 0.113479026 0.19167344 0.057325106 0.22079691 0.12068545 -0.049455713 -0.057375807
-0.06656987 -0.049592096 0.09749252 0.03984588 0.1756727 0.056859888 0.068626374 0.11410379
0.0101403175 -0.014274681 -0.05678981 -0.09122509 0.052213464 0.16075645 0.13666704 0.075848974
0.11100201 0.24051258 -0.098344624 -0.05589763 -0.040247124 -0.040717646 0.0824277 0.111714266
0.1510534 0.12082047 0.072835095 0.15683414 0.10123478 -0.041804645 0.07910407 0.029610194
0.08316851 0.2251806 0.26050314 0.10784292 0.08803959 0.072514385 0.07658303 0.072669044
-0.033159368 0.08570979 0.20341404 0.088296644 0.2133319 0.120445624 0.12349032 0.14486276
0.15424362 0.1165332 0.13786967 0.07955009 -0.006824415 0.08270482 -0.1369321 -0.06682729
-0.051583573 -0.1441085 0.068086594 0.10657759 0.14314649 0.08562391 0.06414891 0.01171938
-0.15277128 -0.1452139 -0.10463452 -0.16000624 0.17429397 0.19235468 0.13393992 0.13555287
-0.05124828 -0.14711395 -0.20107485 -0.13127962 -0.04996019 -0.13463426 0.09731092 0.16445833
0.088263035 0.07296406 -0.12432604 -0.20575304 -0.1265053 -0.08322036 -0.10781761 -0.16159543
0.021780308 0.04356514 0.11762184 0.16028976 -0.008264547 -0.20692308 -0.07163977 -0.049218826
-0.14576988 -0.09799942 0.08365078 0.07575719 0.097355396 -0.03186276 0.07939647 -0.042398732
00000000: 5235 37be 5e6a 39bd f217 01bd 8d40 663c
00000010: f717 3ebe c72a 14be e7fe 53be 5b17 b53d
00000020: 70d7 343e 58a3 d23d f609 fbbd 0cc2 6fbb
00000030: c541 17be 2578 efbd 044e 30be 3498 35be
00000040: 9ee7 07be d570 833d 6bdd c93d a97e 7e3d
00000050: 3e31 62bd 3259 f13b 52ed 3abe fc19 39bd
00000060: 23d4 5abd 053d b9bd 3544 cdbc 50e4 97bb
00000070: 13c7 743e c36e 0b3d 71c5 02be 47a2 85bd
00000080: b1cc 3cbe 1c33 81bd 5f74 f4bb 1749 9dbd
00000090: 40d7 e9bd 2f3b 413d 358c e53d a39d 593e
000000a0: 9fce 5bbc 07aa 0d3c f755 10bd 36fe 05be
000000b0: 9f80 49bd 0a83 40be 40a5 98bd b742 fcbd
000000c0: 76b3 033d 2e89 233d 6801 18be f25f a2bd
000000d0: a60d 1ebd c402 15be a184 78bd c19c 0bbc
000000e0: 7735 733a 6aa9 a8bd 4de7 f13b e0b7 d93d
000000f0: dbda 9fbc 4ed0 cfbd c966 e8bd 992f 0fbe
00000100: 3134 b9bd 189b 1abe 176f 91bd 7410 32be
00000110: 3f2e 4e3e 97c0 083e 41c2 d5bd 5036 b1bd
00000120: dfd2 e9bd 27e0 33be dc24 2bbe e980 3abd
00000130: 3144 2dbe 4591 e9bc 75a5 803e 1161 813e
00000140: 97c2 06be 89c2 0abe 1b45 aabd af95 26be
00000150: d61d 61be 9820 38be c829 7fba 7a3a 3f3e
00000160: beef 0d3e db0a a83d 5377 c73d e83a dbbc
00000170: 86c6 09be c7d9 77bd 7dd8 7dbd d7e8 96bd
00000180: 7799 98bd 729c 933d cc6a b63d 3bf8 063e
00000190: 509b a73d 38e5 a43d 0f38 c83d 0700 ec3c
000001a0: 6b78 0b3d 7bdc 0d3b 79ec a53d 959d 273d
000001b0: e287 b53d 02e9 603e ca71 1cbd 575a dbbc
000001c0: 8f75 a83d 1387 b5bd ba72 913d a337 19bd
000001d0: 7fdd 013e 358d f03d ceaf ef3d a83e 853d
000001e0: 0c17 83bd 40a0 97bc a671 99bd 0109 6fbd
000001f0: be56 cdbc c199 be3d e6b6 033e e8b6 5a3e
00000200: 7f49 283e 9430 093e bf4d 1ebd 83e8 9d3c
00000210: 57c9 bd3c d110 543d c84c a83d 985d e53c
00000220: 8c63 6ebd ecb1 a23d 725b 393e 5e80 fc3d
00000230: b2a3 4a3b 88c1 d1bc 48f1 cbbc 1b81 93bd
00000240: a028 0b3e b167 e83d 0b46 443e bbcd 6a3d
00000250: 9618 623e ef29 f73d 1392 4abd e502 6bbd
00000260: c955 88bd 1521 4bbd 29aa c73d 6f35 233d
00000270: 8be3 333e eae5 683d fc8b 8c3d 3faf e93d
00000280: 9323 263c 5ae0 69bc 6f9c 68bd 38d4 babd
00000290: c9dd 553d 579d 243e 72f2 0b3e b556 9b3d
000002a0: 0655 e33d ee48 763e e868 c9bd eaf4 64bd
000002b0: 2bda 24bd 8cc7 26bd dbcf a83d 73ca e43d
000002c0: bead 1a3e b970 f73d 912a 953d 2199 203e
000002d0: 2e54 cf3d 593b 2bbd 5101 a23d 1491 f23c
000002e0: 4054 aa3d be95 663e ab60 853e c0dc dc3d
000002f0: 1a4e b43d 6c82 943d 90d7 9c3d 82d3 943d
00000300: 1ed2 07bd 9d88 af3d c54b 503e dfd4 b43d
00000310: ad73 5a3e 32ac f63d 7ee8 fc3d e756 143e
00000320: 0af2 1d3e f5a8 ee3d b52d 0d3e 28eb a23d
00000330: 589f dfbb 2561 a93d ee37 0cbe bfdc 88bd
00000340: 4c49 53bd 2e91 13be fc70 8b3d 5a45 da3d
00000350: fe94 123e 975b af3d 8160 833d a402 403c
00000360: 1370 1cbe f4b2 14be a04a d6bd add8 23be
00000370: 1e7a 323e a0f8 443e 8c27 093e 5fce 0a3e
00000380: b7e9 51bd 0aa5 16be 91e6 4dbe 2a6e 06be
00000390: 0ea3 4cbd 90dd 09be f34a c73d c467 283e
000003a0: 40c3 b43d 2e6e 953d a79e febd edb0 52be
000003b0: 9b8a 01be 706f aabd 7bcf dcbd 4679 25be
000003c0: 9e6c b23c 5c71 323d b8e3 f03d 0023 243e
000003d0: 0668 07bc a5e3 53be dfb7 92bd ae99 49bd
000003e0: b344 15be ebb3 c8bd 1a51 ab3d 9626 9b3d
000003f0: 4462 c73d 8782 02bd 9e9a a23d 4baa 2dbd

conv.bias f4 [5]
-0.010280896 0.0439513 -0.069977604 -0.17507704 0.120993175
00000000: 3471 28bc 4706 343d 6b50 8fbd 6547 33be
00000010: 45cb f73d

fc1.weight f4 [64, 180]
-0.093600705 -0.06454919 -0.01823651 -0.021536173 -0.10293517 -0.01419738 -0.015517288 -0.10863928
-0.09290867 -0.08403417 -0.10779183 -0.012748028 -0.0842752 -0.0717637 0.020642288 -0.011987865
-0.06575579 -0.045567036 -0.023663105 -0.06757641 0.035889238 0.008063726 -0.122856 -0.12570727
-0.010182518 -0.105459325 0.008630671 -0.022410586 -0.021545054 -0.017433433 -0.126546 -0.092413105
-0.110995136 -0.120315395 -0.11195574 -0.07546818 -0.046573833 -0.058143668 -0.044497974 -0.064717956
0.020867482 -0.015504193 -0.006619498 0.045884512 -0.09886281 -0.025735749 0.018004581 -0.0076052696
-0.023875237 -0.09969164 -0.1248889 -0.070571996 -0.006093751 0.044355676 -0.061712526 -0.06881404
-0.099860534 -0.010156556 -0.068408914 0.045025364 -0.022530004 -0.035227895 -0.038559426 -0.0054569254
-0.037896343 -0.02417222 -0.07151786 0.06933401 0.050328873 0.0245203 -0.026384667 0.019961886
0.04679738 -0.033845622 -0.02864014 0.037983254 0.049496464 -0.004988216 0.06548939 0.045594558
-0.06938843 -0.013976082 0.053997763 0.041888095 -0.013750687 -0.04148913 -0.104033485 -0.12967892
-0.12087934 -0.025645435 0.0566509 -0.026423264 -0.12292571 -0.0017836741 -0.062011223 -0.054156303
0.07268158 -0.023927666 -0.01617785 -0.093052246 -0.11532091 -0.031046119 -0.04397424 -0.0013575256
-0.069935426 0.017738372 -0.02292033 -0.020744327 0.0062482953 -0.073885664 -0.06741644 -0.054431666
0.047783516 0.059776954 0.07196062 -0.04251809 0.055825613 0.052341484 0.024074718 -0.0014441535
0.006099567 -0.083595805 -0.0625749 -0.015284583 -0.026818585 0.041777365 -0.058804147 -0.038196247
-0.054097913 0.037107453 0.009161741 -0.018541493 -0.07446342 -0.06089748 -0.043145396 0.017159648
0.0156869 -0.04540684 0.059328802 0.068162926 0.058423527 -0.032608535 -0.040497772 -0.057109095
-0.08071069 -0.11438467 -0.118387274 -0.08191938 -0.016535312 -0.02256298 -0.107025355 -0.118469454
-0.12135442 0.010072626 -0.0782898 -0.06450573 -0.12522042 -0.078592904 -0.004638344 -0.0537218
-0.07617315 -0.07638113 -0.09263397 -0.12562637 0.0089633865 -0.0024265973 -0.06273799 -0.08301319
-0.063005336 -0.07111133 -0.08127651 -0.052761614 -0.076900035 -0.09494178 -0.12775707 -0.08310375
-0.0042401846 0.016722409 -0.024637775 -0.1160659 -0.08024685 -0.023374867 -0.086406924 -0.10959617
-0.11263608 -0.090523675 0.008897314 -0.100503154 0.0074450723 -0.09339953 -0.024485946 -0.049733542
-0.117343545 -0.015274831 -0.03682568 -0.10162979 -0.11331278 0.009172921 -0.07462564 -0.0061334725
-0.038533162 -0.033226162 -0.019363336 -0.07681433 -0.037031125 -0.07953253 -0.060593743 -0.09152835
0.008195767 -0.13256828 -0.02191862 -0.039368972 -0.049054287 -0.076961584 -0.0650478 -0.026854014
-0.042274527 0.02784922 -0.032476544 0.04824438 0.024441764 0.0017628223 0.002368316 -0.004687324
0.011241805 -0.012393126 -0.017510794 -0.014320921 -0.0652405 0.01465369 -0.08292105 -0.0034412015
-0.087570466 -0.012951061 -0.07316594 0.011634636 0.0080915075 -0.1301801 -0.09181241 0.047047064
0.04520859 -0.06586546 -0.061008945 -0.10647742 -0.056350183 -0.07309564 -0.055860117 -0.06548667
-0.02181708 0.06826294 -0.07304609 -0.07344486 -0.0450124 -0.017177656 -0.048727438 -0.03895587
00000000: bab1 bfbd 5e32 84bd bc64 95bc a16c b0bc
00000010: adcf d2bd 219c 68bc 393c 7ebc 457e debd
00000020: e746 bebd 1b1a acbd f7c1 dcbd 1bdd 50bc
00000030: 7a98 acbd d9f8 92bd 041a a93c c068 44bc
00000040: f9aa 86bd 80a4 3abd 21d9 c1bc 8065 8abd
00000050: 9800 133d b81d 043c ed9b fbbd 68b9 00be
00000060: 93d4 26bc 0ffb d7bd a867 0d3c 6896 b7bc
00000070: 417f b0bc 8fd0 8ebc 4695 01be 1543 bdbd
00000080: 6b51 e3bd eb67 f6bd 0d49 e5bd 108f 9abd
00000090: 34c4 3ebd 0e28 6ebd 8243 36bd d98a 84bd
000000a0: 48f2 aa3c 4c05 7ebc 60e8 d8bb 66f1 3b3d
000000b0: 9678 cabd c7d3 d2bc 587e 933c a035 f9bb
000000c0: 0096 c3bc 212b ccbd c0c5 ffbd 0d88 90bd
000000d0: 17ae c7bb 4cae 353d 46c6 7cbd 60ee 8cbd
000000e0: ae83 ccbd af67 26bc f919 8cbd 846c 383d
000000f0: d890 b8bc 204b 10bd 7df0 1dbd 02d0 b2bb
00000100: 3239 1bbd d204 c6bc f577 92bd fdfe 8d3d
00000110: a625 4e3d ccde c83c a824 d8bc 1c87 a33c
00000120: 9cae 3f3d b5a1 0abd ba9e eabc 5494 1b3d
00000130: cebc 4a3d 3074 a3bb 4d1f 863d 5cc1 3a3d
00000140: 851b 8ebd f0fb 64bc c22c 5d3d da92 2b3d
00000150: 904a 61bc 82f0 29bd 820f d5bd 8dca 04be
00000160: 968f f7bd 6016 d2bc c60a 683d 9a75 d8bc
00000170: 7ac0 fbbd 2cca e9ba 7bff 7dbd 00d3 5dbd
00000180: 15da 943d f403 c4bc 6987 84bc 2d92 bebd
00000190: 5f2d ecbd 6e54 febc 551e 34bd 00ef b1ba
000001a0: 4e3a 8fbd 1050 913c 6ac3 bbbc 02f0 a9bc
000001b0: 80be cc3b 5e51 97bd a111 8abd bdf3 5ebd
000001c0: a6b8 433d aed8 743d 1760 933d 7327 2ebd
000001d0: 66a9 643d 0664 563d 5838 c53c c049 bdba
000001e0: e0de c73b 4734 abbd 4527 80bd 306c 7abc
000001f0: a6b2 dbbc be1e 2b3d 9edc 70bd ab73 1cbd
00000200: c695 5dbd fcfd 173d 201b 163c 54e4 97bc
00000210: 4780 98bd a36f 79bd 3ab9 30bd 6492 8c3c
00000220: d081 803c 86fc 39bd c202 733d 0199 8b3d
00000230: 824d 6f3d 8790 05bd fee0 25bd 3aeb 69bd
00000240: a54b a5bd 8342 eabd 0775 f2bd 59c5 a7bd
00000250: 1075 87bc 00d6 b8bc 1c30 dbbd 1da0 f2bd
00000260: ab88 f8bd a807 253c 6756 a0bd 951b 84bd
00000270: c839 00be 51f5 a0bd 40fd 97bb 640b 5cbd
00000280: ab00 9cbd b66d 9cbd e1b6 bdbd 33a4 00be
00000290: 2bdb 123c 8c07 1fbb c67c 80bd d202 aabd
000002a0: f108 81bd d1a2 91bd 4d74 a6bd 901c 58bd
000002b0: c47d 9dbd d670 c2bd c0d2 02be 4d32 aabd
000002c0: 3ff1 8abb 6ffd 883c 29d5 c9bc f5b3 edbd
000002d0: 7658 a4bd a67c bfbc 1df6 b0bd f573 e0bd
000002e0: bfad e6bd 7a64 b9bd 0ac6 113c 99d4 cdbd
000002f0: cbf5 f33b 4148 bfbd c096 c8bc 66b5 4bbd
00000300: d051 f0bd 4943 7abc 86d6 16bd 4823 d0bd
00000310: 8810 e8bd 054a 163c 54d5 98bd 4cfb c8bb
00000320: f3d4 1dbd 2818 08bd dc9f 9ebc d550 9dbd
00000330: f3ad 17bd f3e1 a2bd 2531 78bd 3773 bbbd
00000340: 8a47 063c fbbf 07be ae8e b3bc 5c41 21bd
00000350: 26ed 48bd 099e 9dbd c837 85bd f3fc dbbc
00000360: 0e28 2dbd 0c24 e43c 2006 05bd e69b 453d
00000370: 183a c83c 800e e73a c035 1b3b 2098 99bb
00000380: 8c2f 383c 8a0c 4bbc cc72 8fbc 4ca2 6abc
00000390: d09c 85bd 0816 703c 83d2 a9bd c885 61bb
000003a0: 2558 b3bd b030 54bc 06d8 95bd 339f 3e3c
000003b0: 3e92 043c ef4d 05be 2508 bcbd 6cb4 403d
000003c0: a42c 393d 78e4 86bd 84e4 79bd d510 dabd
000003d0: 73cf 66bd 2bb3 95bd 94cd 64bd e01d 86bd
000003e0: bcb9 b2bc 71cd 8b3d 3099 95bd 426a 96bd
000003f0: ec5e 38bd 28b8 8cbc 6c96 47bd 3190 1fbd

fc1.bias f4 [64]
-0.057167 -0.013715315 0.12995769 -0.09544612 -0.018944949 -0.020547926 -0.0401937 -0.083386265
0.10323611 -0.1401254 -0.035090007 0.02525758 -0.06279356 -0.018534632 -0.051744375 -0.030174231
0.011039957 -0.044942357 -0.12240622 -0.056165293 -0.049545307 0.00019811252 0.031370364 -0.014690101
0.0807952 -0.0824558 -0.09363426 -0.11459677 -0.06908439 -0.112035744 -0.0021303368 -0.059039943
-0.016361948 -0.059995204 -0.00036293638 0.039871074 -0.10315147 -0.081413366 -0.13058849 -0.07345477
0.0077881063 -0.06737107 -0.13345271 -0.04479456 0.027904898 0.0586129 -0.07075503 0.00070055574
-0.032317717 -0.013225947 -0.043038353 0.1271666 0.007790245 -0.031017508 -0.051022008 -0.12873887
-0.0690046 -0.03350513 0.14201164 -0.05537922 0.1075238 -0.060130302 -0.101382874 -0.0122904265
00000000: f227 6abd 33b6 60bc a113 053e 4179 c3bd
00000010: 7032 9bbc 2054 a8bc 26a2 24bd 6bc6 aabd
00000020: 746d d33d 087d 0fbe 8aba 0fbd fce8 ce3c
00000030: e999 80bd f1d5 97bc e9f1 53bd f32f f7bc
00000040: f0e0 343c 7a15 38bd 1db0 fabd 940d 66bd
00000050: 05f0 4abd 6dbc 4f39 367e 003d c0ae 70bc
00000060: f477 a53d 96de a8bd 52c3 bfbd b6b1 eabd
00000070: 1e7c 8dbd ff72 e5bd 1f9d 0bbb ded3 71bd
00000080: 7e09 86bc 88bd 75bd 7f48 beb9 da4f 233d
00000090: 1441 d3bd 0dbc a6bd fdb8 05be 746f 96bd
000000a0: 5f33 ff3b d8f9 89bd d4a7 08be 807a 37bd
000000b0: d098 e43c 1514 703d 03e8 90bd 80a5 373a
000000c0: 955f 04bd a4b1 58bc fc48 30bd f637 023e
000000d0: 5045 ff3b 6e18 febc 74fc 50bd 1fd4 03be
000000e0: 4952 8dbd ad3c 09bd 806b 113e 52d5 62bd
000000f0: 7035 dc3d 314b 76bd d3a1 cfbd c95d 49bc

fc2.weight f4 [4, 64]
-0.105746455 -0.046936087 -0.5465592 0.06233064 -0.033424392 -0.031620666 0.06834507 -0.012364445
-0.49440128 -0.15852451 -0.02461776 -0.021827891 0.073985964 -0.036111712 -0.020842627 -0.041743148
-0.069866255 0.06379501 -0.04124322 -0.06085369 -0.4477217 -0.06324491 0.08497378 -0.09194803
-0.54603493 -0.020068612 -0.007417736 -0.062711224 -0.070852034 0.042595 0.044299148 -0.056057934
-0.06685932 -0.13549931 0.06456684 -0.022181451 -0.034531694 -0.039304074 0.021765376 -0.003650086
-0.10167287 0.059848577 0.10656109 -0.10676798 0.0064590126 -0.5324632 -0.102445796 -0.026619285
0.06749517 0.111420736 -0.057004936 -0.5445818 -0.10173756 -0.065891795 -0.005904067 0.05580858
-0.033110805 -0.13219523 -0.55719674 -0.0053043766 -0.5330313 -0.0020099664 -0.004942996 -0.046042714
-0.0673088 -0.12530072 0.14122187 -0.09324238 0.092715114 -0.08868781 0.042163756 0.097586796
0.12761277 -0.1599215 0.05404057 -0.056316197 0.017754644 0.11070263 0.06992009 0.06838742
-0.060661536 0.10544719 0.07322307 0.053089768 0.11546325 -0.09553624 0.09117907 0.11482674
0.1410498 0.14291103 -0.09749193 0.08243266 0.034086123 0.05864125 -0.04713176 0.040426362
0.020886585 -0.04446385 -0.01917907 -0.080512375 -0.08016006 -0.09017146 -0.050402448 0.14025685
0.02573601 -0.08151066 0.060798492 -0.06601596 -0.09267232 0.13742195 -0.10456137 -0.095164165
0.02605154 -0.10895091 -0.022119747 0.14068663 0.078101724 -0.08645868 0.0794739 0.060030293
-0.02989962 -0.0037822223 0.14401372 0.07007393 0.13765341 0.0049411915 0.019128641 -0.026831511
-0.053431317 -0.11019956 0.50399506 0.014191867 -0.104806334 0.016698956 -0.12557672 0.06626788
0.45602384 -0.1133837 0.02473027 -0.12355085 0.0989078 0.16954713 -0.14902264 -0.05924554
0.05625442 0.018191284 -0.062289476 0.003149256 0.41299683 0.059355292 -0.06427792 -0.0037074983
0.50353295 -0.01455497 -0.16277505 0.19549154 0.038586643 -0.05701195 -0.038834848 0.03149305
0.0022645742 0.07904459 0.061648924 -0.0972964 0.036136653 -0.09444727 -0.069505766 0.11794069
0.105084196 0.037438646 -0.06508258 -0.054715306 0.07160056 0.49109697 0.0514661 0.09172717
-0.019196842 -0.11183907 -0.15395969 0.5021749 0.0003490895 0.058297615 0.18378262 -0.13706297
0.18060459 -0.06637085 0.51374424 -0.08314339 0.49157646 0.13913976 -0.057866096 -0.12021035
0.13103811 0.051484406 -0.23857224 0.009601313 0.057361618 -0.10413498 0.037841726 0.058032013
-0.21561706 0.02187859 0.029061861 -0.00069473684 -0.021031752 -0.02532024 -0.06276477 0.12683402
0.15118831 0.05377709 0.13004841 -0.048831895 -0.19510868 0.059016384 -0.09777124 -0.04461555
-0.23828886 0.06730309 0.056357816 -0.02522844 0.053013027 0.04353501 0.025601262 0.06879662
0.021051288 0.054271933 0.0011101115 -0.051097915 -0.15718676 0.0071204742 -0.044347174 0.1753719
0.14006568 0.10777272 -0.058539335 0.06971587 -0.1234269 -0.23217161 0.073592216 0.09049523
-0.17250435 -0.08989385 0.05068509 -0.23767945 -0.10195103 -0.08445872 0.05434061 -0.0031188363
0.004670874 -0.032981984 -0.2432902 0.059141677 -0.23254712 0.0011674929 0.039188553 0.026997948
00000000: 9991 d8bd 0e40 40bd 4eeb 0bbf 6a4e 7f3d
00000010: 04e8 08bd ac84 01bd 80f8 8b3d 3e94 4abc
00000020: 2a22 fdbe 4054 22be 2fab c9bc 68d0 b2bc
00000030: f485 973d e0e9 13bd 28be aabc ddfa 2abd
00000040: 0a16 8fbd f5a6 823d a7ee 28bd b841 79bd
00000050: c73b e5be 8c86 81bd bc06 ae3d 404f bcbd
00000060: f2c8 0bbf ee66 a4bc 7b10 f3bb be6e 80bd
00000070: df1a 91bd 1878 2e3d 0673 353d 019d 65bd
00000080: 8aed 88bd 55c0 0abe 9f3b 843d e0b5 b5bc
00000090: 1b71 0dbd 4ffd 20bd 4d4d b23c 4836 6fbb
000000a0: de39 d0bd c823 753d b33c da3d 2ca9 dabd
000000b0: 20a6 d33b 824f 08bf 1acf d1bd b010 dabc
000000c0: e83a 8a3d 8e30 e43d 027e 69bd b669 0bbf
000000d0: c85b d0bd 47f2 86bd e776 c1bb 8a97 643d
000000e0: 329f 07bd 305e 07be 72a4 0ebf 56d0 adbb
000000f0: bd74 08bf a4b9 03bb dbf8 a1bb 4997 3cbd
00000100: 32d9 89bd d54e 00be 779c 103e dcf5 bebd
00000110: 6ce1 bd3d f4a1 b5bd e7b3 2c3d 96db c73d
00000120: ecac 023e 76c2 23be a559 5d3d d0ab 66bd
00000130: 3072 913c 0fb8 e23d 4432 8f3d b40e 8c3d
00000140: 3b78 78bd b2f4 d73d faf5 953d a874 593d
00000150: ff77 ec3d 81a8 c3bd 18bc ba3d 482a eb3d
00000160: 5c6f 103e 4557 123e d9a9 c7bd 74d2 a83d
00000170: e49d 0b3d cf31 703d 3b0d 41bd 1d96 253d
00000180: 581a ab3c ba1f 36bd 6d1d 9dbc ace3 a4bd
00000190: f52a a4bd d0ab b8bd cc72 4ebd 7e9f 0f3e
000001a0: 53d4 d23c 10ef a6bd d707 793d 6033 87bd
000001b0: fcca bdbd 57b8 0c3e 4624 d6bd 6ee5 c2bd
000001c0: 0a6a d53c a821 dfbd 7934 b5bc 2810 103e
000001d0: ccf3 9f3d 4011 b1bd 36c3 a23d 53e2 753d
000001e0: 0cf0 f4bc 29df 77bb 5578 133e ec82 8f3d
000001f0: 04f5 0c3e b8e9 a13b abb3 9c3c c2cd dbbc
00000200: ccda 5abd 4fb0 e1bd d205 013f 0185 683c
00000210: b4a4 d6bd 40cc 883c 2f97 00be 74b7 873d
00000220: f57b e93e b735 e8bd 2397 ca3c 3a08 fdbd
00000230: 2c90 ca3d c39d 2d3e 6499 18be 74ab 72bd
00000240: 096b 663d e305 953c 4023 7fbd c063 4e3b
00000250: 5274 d33e 891e 733d 24a4 83bd 80f9 72bb
00000260: 89e7 003f f877 6ebc 81ae 26be ef2e 483e
00000270: 070d 1e3d 5d85 69bd 4a11 1fbd dbfe 003d
00000280: 4069 143b 21e2 a13d 9583 7c3d 5643 c7bd
00000290: 0704 143d 926d c1bd 0a59 8ebd e38a f13d
000002a0: 6236 d73d 4459 193d 044a 85bd 281d 60bd
000002b0: 50a3 923d 1071 fb3e 1ece 523d 74db bb3d
000002c0: b242 9dbc e20b e5bd 9ca7 1dbe 898e 003f
000002d0: 0006 b739 7bc9 6e3d 8331 3c3e 3c5a 0cbe
000002e0: 69f0 383e 71ed 87bd be84 033f 1547 aabd
000002f0: e9af fb3e a77a 0e3e 0005 6dbd d830 f6bd
00000300: db2e 063e 50e1 523d 484c 74be d34e 1d3c
00000310: 04f4 6a3d b844 d5bd edff 1a3d fab2 6d3d
00000320: b8ca 5cbe bb3a b33c 2413 ee3c 001f 36ba
00000330: c84a acbc 646c cfbc d18a 80bd c7e0 013e
00000340: 1cd1 1a3e 5e45 5c3d 692b 053e f403 48bd
00000350: 92ca 47be 2abb 713d 4a3c c8bd ccbe 36bd
00000360: ff01 74be 34d6 893d 74d7 663d e0ab cebc
00000370: 3024 593d c451 323d bdb9 d13c 3ee5 8c3d
00000380: c073 ac3c 3f4c 5e3d 2981 913a 0c4c 51bd
00000390: 91f5 20be de52 e93b 62a5 35bd b194 333e
000003a0: 616d 0f3e f2b7 dc3d f1c6 6fbd 32c7 8e3d
000003b0: 3ec7 fcbd 65be 6dbe 84b7 963d 9055 b93d
000003c0: fba4 30be 441a b8bd 2b9b 4f3d 3e62 73be
000003d0: b4cb d0bd b2f8 acbd 4294 5e3d 6465 4cbb
000003e0: 220e 993b 1e18 07bd 1121 79be 8b3e 723d
000003f0: d520 6ebe 9006 993a 2d84 203d cd2a dd3c

fc2.bias f4 [4]
-0.37088302 0.06546474 0.36170083 -0.11524505
00000000: 61e4 bdbe 6112 863d da30 b93e 9905 ecbd
