src/flatland/flat_game/results/ourmethod_noreg18/rep_learner.pth (torch_old, 312930 bytes, 33 tensors)

representations f4 [6]
0.31037447 0.5400381 -1.1760759 0.06694847 -0.04252273 -0.19380018
00000000: 67e9 9e3e f03f 0a3f a889 96bf 481c 893d
00000010: 502c 2ebd 8e73 46be

representations f4 [6]
-0.63510805 -0.72503173 1.0048465 0.41890422 -0.40772006 -0.65773696
00000000: 7196 22bf ae9b 39bf cf9e 803f 9d7a d63e
00000010: afc0 d0be 7361 28bf

representations f4 [6]
-0.0526627 0.16801444 0.043403275 1.2063603 0.40345436 0.027236337
00000000: d8b4 57bd fa0b 2c3e a2c7 313d 046a 9a3f
00000010: 9291 ce3e bd1e df3c

representations f4 [6]
0.1922457 -0.019972501 0.025456427 -1.2274914 -0.1674178 0.3686002
00000000: 0fdc 443e 5f9d a3bc ff89 d03c 701e 9dbf
00000010: 926f 2bbe 2ab9 bc3e

fc1.weight f4 [64, 4]
-0.33765802 -0.01075385 -0.13986391 0.026456302 -1.460249 0.8739418 1.1051232 0.104541786
-1.1956983 -1.2330737 0.29170477 0.54053813 -1.6680375 1.4193476 -1.5640279 0.38061887
0.5414633 3.8970206 0.7802859 0.9124662 0.83253294 1.4340742 0.76817787 1.3591075
0.5280057 -0.31461215 -1.70335 -2.016709 0.6486924 0.54732066 0.16636428 -1.1327049
-2.3971431 -0.8153058 -0.8286692 -1.360646 -1.7445073 -1.1569359 0.962637 -0.9558318
1.2595061 -1.7028989 -0.35693204 -1.3002245 0.46568364 1.342912 0.92771876 1.4274703
1.2975093 0.047287576 0.8672435 -0.9050075 -0.04330039 0.12458491 0.24964333 0.026992798
1.7830185 1.72881 0.18555754 1.5614086 1.4652808 -2.24298 -0.67198277 1.8028213
1.7517123 0.88677615 1.2780375 -0.2965876 0.5871456 -1.1077367 -1.7986906 -0.5434141
1.0707078 0.042963445 0.12888177 2.0755205 -0.5923502 0.72790176 -2.3989272 0.5981962
-0.5287262 -1.3209468 -2.207352 -1.1571486 0.28603786 0.3616413 1.0551451 -1.5062038
0.9617655 -0.027792389 -1.0855048 -0.93489385 1.1578029 -0.7839188 0.1370444 0.0058471714
0.6191046 0.08791598 1.3188434 0.6262378 -0.24803211 -1.5168574 1.3369395 -0.902941
3.0691235 -0.7958929 -0.5681558 1.232174 0.82705474 0.5974106 0.6382512 -1.7036548
0.1852749 1.1267583 -2.1101148 -1.5422028 -0.12573244 0.0047717197 0.047044795 0.034733232
-0.9722248 -1.5182518 -2.3058615 1.1258758 -1.2502905 -0.18296441 0.29683846 -1.1233773
0.4871927 -0.15664954 1.966617 -2.0876625 -1.359538 1.9038901 -0.48906896 -1.2453963
1.2844954 2.7462437 -0.85256743 -1.1875192 -0.24213898 -0.05224192 0.093995035 -0.03400749
0.3560348 -1.0069691 -0.19996157 1.2903618 -1.2697586 -0.15453567 0.9390854 2.643063
0.08489603 -0.19959909 0.015317917 0.03642279 -1.7639352 -1.4163866 -0.84928477 2.9253306
0.8287475 -1.0151874 -0.4517629 -1.4645087 -0.5634409 2.6567407 -0.870901 2.151824
3.5182443 -0.63594186 -0.59777236 0.7266099 1.6246245 1.6243438 -1.2602621 1.5275868
1.1036655 1.5993187 -1.1484741 -0.46029952 0.16262798 -0.8041221 2.2521286 -1.3660301
-1.4014745 2.0363584 1.2596326 -1.170085 -0.9833719 0.8996088 2.1381583 1.023863
-0.40760884 -1.1557846 -2.2034452 -0.9761108 0.21682417 0.21327594 -0.3064583 0.1509345
1.731571 -1.2565155 0.95525205 -0.098979175 0.8806178 1.8301072 0.9751147 -0.58001333
1.242793 -0.37995753 -1.5313815 1.7607186 -1.4726778 -0.059954025 -0.12592845 0.4262708
-0.20613985 -0.43227184 0.6767088 0.39009705 -2.5285668 0.112581745 -0.018272767 1.5457635
1.1816815 0.362577 -2.4686594 -0.3145011 -0.71940535 -1.6787411 0.25047767 0.3251341
1.1281487 -1.6495991 -0.3161962 -0.7087901 -0.46282163 -1.0421535 0.6298266 -1.038256
0.32042274 0.081183925 0.069472566 -0.26510334 -2.1664457 0.5387581 -0.85482955 -1.7433106
-3.4280834 0.15637416 -0.10097441 2.231452 -1.1706494 -0.36283025 0.8404242 -0.8946196
00000000: 83e1 acbe eb30 30bc 7c38 0fbe e3ba d83c
00000010: 70e9 babf a6ba 5f3f ad74 8d3f 011a d63d
00000020: a40c 99bf 5cd5 9dbf 545a 953e b560 0a3f
00000030: 4182 d5bf 2fad b53f 1132 c8bf 7ae0 c23e
00000040: 579d 0a3f c968 7940 d1c0 473f 6397 693f
00000050: e120 553f be8f b73f 4ea7 443f 3cf7 ad3f
00000060: 622b 073f d814 a1be 5f07 dabf c311 01c0
00000070: b510 263f 351d 0c3f 665b 2a3e 79fc 90bf
00000080: cb6a 19c0 e2b7 50bf aa23 54bf a629 aebf
00000090: 044c dfbf 7a16 94bf 616f 763f 65b1 74bf
000000a0: 7f37 a13f 97f8 d9bf ccbf b6be c26d a6bf
000000b0: 166e ee3e 8ae4 ab3f fa7e 6d3f 59b7 b63f
000000c0: c914 a63f 9eb0 413d ac03 5e3f 92ae 67bf
000000d0: c05b 31bd 6026 ff3d 80a2 7f3e 0020 dd3c
000000e0: f339 e43f a549 dd3f cc02 3e3e 3ddc c73f
000000f0: 528e bb3f fc8c 0fc0 1007 2cbf d9c2 e63f
00000100: 1c38 e03f c303 633f bc96 a33f 54da 97be
00000110: 2d4f 163f 51ca 8dbf 7e3b e6bf 301d 0bbf
00000120: f40c 893f 70fa 2f3d 95f9 033e 54d5 0440
00000130: 43a4 17bf c557 3a3f 0688 19c0 6323 193f
00000140: 9a5a 07bf c914 a9bf 4145 0dc0 721d 94bf
00000150: 8e73 923e 0c29 b93e ff0e 873f 49cb c0bf
00000160: 4436 763f ddac e3bc d2f1 8abf 3455 6fbf
00000170: e332 943f e7ae 48bf 5e55 0c3e a199 bf3b
00000180: a47d 1e3f 4b0d b43d dccf a83f 1f51 203f
00000190: 21fc 7dbe 6228 c2bf d520 ab3f 2427 67bf
000001a0: 856c 4440 a3bf 4bbf a972 11bf e1b7 9d3f
000001b0: dcb9 533f e7ef 183f 6e64 233f 5c11 dabf
000001c0: b4b8 3d3e 9e39 903f 1f0c 07c0 e766 c5bf
000001d0: 01c0 00be 165c 9c3b 0bb2 403d 6f44 0e3d
000001e0: b9e3 78bf 1356 c2bf 3c93 13c0 b31c 903f
000001f0: 8509 a0bf 065b 3bbe 36fb 973e d4ca 8fbf
00000200: 5271 f93e bd68 20be 1bba fb3f 439c 05c0
00000210: 5705 aebf acb2 f33f 3f67 fabe 2569 9fbf
00000220: 586a a43f 75c2 2f40 dc41 5abf a100 98bf
00000230: 48f3 77be a0fb 55bd 7880 c03d 704b 0bbd
00000240: 314a b63e 5de4 80bf bac2 4cbe 932a a53f
00000250: 7387 a2bf 993e 1ebe e767 703f f227 2940
00000260: f8dd ad3d b463 4cbe 00f8 7a3c 1030 153d
00000270: a1c8 e1bf 284c b5bf ba6a 59bf 9e38 3b40
00000280: cc28 543f a9f1 81bf 784d e7be 0575 bbbf
00000290: aa3d 10bf 0a08 2a40 5ef3 5ebf 7cb7 0940
000002a0: ea2a 6140 16cd 22bf 9c07 19bf 1b03 3a3f
000002b0: b2f3 cf3f 7fea cf3f 4550 a1bf f787 c33f
000002c0: e944 8d3f 7ab6 cc3f 3301 93bf 61ac ebbe
000002d0: f387 263e f2da 4dbf e022 1040 13da aebf
000002e0: 8463 b3bf b253 0240 a43b a13f 58c5 95bf
000002f0: 43be 7bbf c34c 663f 96d7 0840 f10d 833f
00000300: 1bb2 d0be c0f0 93bf 3f05 0dc0 66e2 79bf
00000310: 2807 5e3e 0265 5a3e 1ae8 9cbe 938e 1a3e
00000320: 1ea4 dd3f 80d5 a0bf 668b 743f 98b5 cabd
00000330: 2b70 613f f440 ea3f 1ea1 793f c17b 14bf
00000340: d713 9f3f cb89 c2be 4f04 c4bf 3a5f e13f
00000350: b580 bcbf 5a92 75bd 63f3 00be 2b40 da3e
00000360: 5316 53be bc52 ddbe ca3c 2d3f cdba c73e
00000370: 0ad4 21c0 4291 e63d c5b0 95bc 94db c53f
00000380: 5741 973f b1a3 b93e 84fe 1dc0 4a06 a1be
00000390: f32a 38bf fde0 d6bf 9c3e 803e fa77 a63e
000003a0: 2d67 903f 1026 d3bf 78e4 a1be 4573 35bf
000003b0: f5f6 ecbe 4965 85bf 513c 213f 93e5 84bf
000003c0: 730e a43e c243 a63d a247 8e3d a0bb 87be
000003d0: 0ca7 0ac0 0dec 093f 1cd6 5abf cd24 dfbf
000003e0: b865 5bc0 8c20 203e accb cebd 1cd0 0e40
000003f0: d7d7 95bf e3c4 b9be 0a26 573f ca05 65bf

fc1.bias f4 [64]
-0.38753211 0.379623 0.5078843 -0.8353999 0.32900763 0.5764133 0.043606754 0.57406795
0.4326246 0.42239797 0.60970324 0.42622834 0.8661375 -0.49979967 0.28648472 0.17726259
0.5140342 -0.41334888 0.32749552 0.41176045 0.13166535 0.70047086 0.38599652 0.42468977
0.4216154 0.57454675 -0.059410263 0.6218253 0.21603782 -0.2729464 -0.36726785 0.6655356
0.49070692 0.026695257 -0.13625646 -0.4048425 0.5645683 -0.06766702 -0.475491 -0.35285512
0.31020305 -0.22262073 0.3581105 0.62172943 0.42054996 0.42020348 0.7859804 0.89345986
0.06973709 -0.57868046 0.054224685 0.38522992 0.12895 0.19866586 0.53821737 0.2790612
0.03814963 0.4973591 0.28251714 0.77027804 -0.44597974 -0.38953352 0.3593878 0.71640325
00000000: 9c6a c6be f25d c23e b504 023f c5dc 55bf
00000010: b073 a83e d28f 133f ff9c 323d 1ef6 123f
00000020: f980 dd3e 8c44 d83e 8315 1c3f 9a3a da3e
00000030: 30bb 5d3f bee5 ffbe 20ae 923e 5384 353e
00000040: bf97 033f 77a2 d3be 7ead a73e 44d2 d23e
00000050: 48d3 063e 0f52 333f 56a1 c53e f070 d93e
00000060: f9dd d73e 7f15 133f 2d58 73bd f12f 1f3f
00000070: 0539 5d3e a1bf 8bbe 880a bcbe 8b60 2a3f
00000080: f03d fb3e 03b0 da3c d086 0bbe 8447 cfbe
00000090: 8c87 103f 0295 8abd 8e73 f3be 6da9 b4be
000000a0: efd2 9e3e b0f6 63be 425a b73e a929 1f3f
000000b0: 5352 d73e e924 d73e 0336 493f c9b9 643f
000000c0: 52d2 8e3d 6724 14bf b41a 5e3d db3c c53e
000000d0: 780b 043e 106f 4b3e 9dc8 093f 1ce1 8e3e
000000e0: c942 1c3d daa5 fe3e 16a6 903e f130 453f
000000f0: 7557 e4be f070 c7be ad01 b83e 3466 373f

fc2.weight f4 [180, 64]
0.2575902 -0.04296401 0.2728064 0.45177382 0.056983836 0.061543986 0.0732418 -0.0052734064
0.46466136 -0.15250792 -0.0035268534 0.06655052 0.119151875 0.0034593642 -0.23637135 0.41017196
0.43508574 0.17362116 0.32137382 -0.088567935 0.10926184 0.015789503 -0.15074481 0.14091092
0.12323953 -0.018246034 0.092499204 -0.0068149487 -0.3457796 -0.09717825 0.13312997 -0.12018055
-0.07989466 0.13238256 -0.32207155 -0.050375387 0.194757 -0.25096178 -0.06711434 0.37674132
0.02433377 -0.95204073 0.29998177 -0.24915296 -0.004872139 -0.08906073 0.21935423 -0.38439503
0.060685176 0.054369666 0.21600914 -0.047597736 0.1128479 -0.053799696 0.19560334 -0.106415644
0.23028871 0.020810097 0.11640366 0.092603005 0.12841819 0.14208192 -1.2274306 -0.037825078
0.08105868 -0.1262249 -0.3036619 0.48914853 0.87267655 0.03791847 -0.14702202 0.14287555
0.73632175 0.31845725 -0.11744046 0.17845444 0.5406801 -0.08924544 0.2832302 0.39793658
0.99962467 0.07253515 -0.27981997 -0.16019294 0.1206169 -0.0015393817 0.25615266 0.22795112
0.18939121 0.1296228 0.28396997 0.09220914 -0.2415134 0.020949751 -0.4812842 0.34935236
0.12708765 -0.53329045 -0.41222972 -0.05412829 0.110498995 0.10906934 -0.081579804 0.1822532
0.14505348 0.51587844 0.39144844 -0.47467193 -0.04911253 -0.06322904 -0.71098787 -0.9121244
-0.115172416 0.12833059 0.25056934 0.5382796 -0.15358806 -0.10621134 0.14350839 0.27362362
-0.145038 -0.24156696 0.074947365 0.07652074 0.08600567 0.081668176 -0.08280174 0.15871823
0.057511315 -0.16061229 0.11335562 -0.1328276 0.08055502 -0.15260652 0.002722227 0.0041553453
0.028718958 0.008480012 -0.1793864 0.008822106 -0.12609419 0.062103137 -0.02525741 -0.037148282
-0.16361834 -0.060047448 -0.15367633 -0.06386229 0.06310342 0.0010366999 0.030816047 -0.10631923
0.03466101 -0.12576441 -0.012442803 0.054593757 -0.028907994 -0.031355068 0.064763814 -0.16414425
-0.041059874 -0.16010715 -0.10235392 -0.070742995 -0.14462188 0.0009121878 0.039064616 0.09640896
-0.05695413 0.0611863 -0.008953609 -0.14071365 0.04785649 -0.06768519 -0.047560293 0.005025089
0.006340891 -0.11207819 -0.100597784 0.033742692 -0.013837174 -0.14269674 -0.083606124 0.06398608
-0.09526468 -0.031450186 -0.101874575 -0.07396447 -0.08328076 0.05680963 -0.036682025 -0.14921233
0.16737255 0.43148434 0.4697961 1.0743059 0.8245418 0.093764484 0.88264966 -0.015538861
-0.13510929 0.04464997 0.6556632 0.061447017 -0.29291007 0.04985486 -0.14979936 -0.22750998
-0.36653873 0.28203934 -0.19942325 0.59883475 0.19667295 0.07552496 0.11839824 0.3227785
-0.085415386 0.38954166 -0.24049027 0.21489498 -0.3894187 -0.09103407 0.5763489 0.11532308
0.7939252 0.34613368 0.7072265 -0.05123949 -0.15677367 0.0042579765 0.072880775 1.2723671
0.35550296 1.4165015 -0.6394348 0.030039351 0.005080714 0.35946777 0.90768325 -0.03773878
0.39251885 -0.008332345 0.15531766 0.24885811 0.020387286 0.44222358 0.08004619 0.77682775
1.2689266 0.43179253 0.32515225 0.15235196 -0.11542895 0.0711191 1.6630877 0.29579026
00000000: dde2 833e 08fb 2fbd 48ad 8b3e e64e e73e
00000010: e267 693d 8c15 7c3d ccff 953d 8acc acbb
00000020: 18e8 ed3e 092b 1cbe c822 67bb a44b 883d
00000030: e605 f43d 80b6 623b 550b 72be 0f02 d23e
00000040: 8fc3 de3e bfc9 313e 1c8b a43e 1b63 b5bd
00000050: acc4 df3d fd58 813c d95c 1abe f44a 103e
00000060: 0265 fc3d b578 95bc 3970 bd3d ef4f dfbb
00000070: 060a b1be 6405 c7bd 3953 083e 3821 f6bd
00000080: d09f a3bd 4b8f 073e 90e6 a4be 6c56 4ebd
00000090: 616e 473e 107e 80be 3e73 89bd 3de4 c03e
000000a0: 9d57 c73c f1b8 73bf 3697 993e f421 7fbe
000000b0: 77a6 9fbb 7965 b6bd 659e 603e 6dcf c4be
000000c0: 0591 783d bab2 5e3d 8031 5d3e d8f5 42bd
000000d0: cd1c e73d 125d 5cbd 3e4c 483e 72f0 d9bd
000000e0: ced0 6b3e f079 aa3c 0b65 ee3d a5a6 bd3d
000000f0: 0f80 033e ec7d 113e 721c 9dbf 78ee 1abd
00000100: 1802 a63d 1a41 01be 9379 9bbe ad71 fa3e
00000110: bb67 5f3f 6650 1b3d f18c 16be f84d 123e
00000120: 957f 3c3f d40c a33e a084 f0bd c3bc 363e
00000130: 036a 0a3f 50c6 b6bd 8c03 913e 58be cb3e
00000140: 67e7 7f3f 4f8d 943d 9044 8fbe 9e09 24be
00000150: fe05 f73d 14c5 c9ba 7126 833e 056c 693e
00000160: c5ef 413e d7bb 043e 8364 913e 25d8 bc3d
00000170: 4a4f 77be d09e ab3c e26a f6be 50de b23e
00000180: 4423 023e b985 08bf c60f d3be a0b5 5dbd
00000190: 4c4d e23d bf5f df3d 5013 a7bd 95a0 3a3e
000001a0: e688 143e 9c10 043f ee6b c83e 3308 f3be
000001b0: 382a 49bd 3a7e 81bd 4d03 36bf fc80 69bf
000001c0: 84df ebbd 1869 033e a04a 803e b1cc 093f
000001d0: 3046 1dbe 5585 d9bd ddf3 123e 6518 8c3e
000001e0: d784 14be 545d 77be 017e 993d e8b6 9c3d
000001f0: be23 b03d a541 a73d f593 a9bd 0887 223e
00000200: fc90 6b3d 8c77 24be fe26 e83d f503 08be
00000210: 08fa a43d e244 1cbe 6467 323b 9029 883b
00000220: 0544 eb3c c0ef 0a3c 12b1 37be 988a 103c
00000230: d61e 01be dc5f 7e3d a1e8 cebc cc28 18bd
00000240: 918b 27be 50f4 75bd 545d 1dbe 3bca 82bd
00000250: 5e3c 813d e0e1 873a ef71 fc3c e5bd d9bd
00000260: b4f8 0d3d 63c8 00be e6dc 4bbc b49d 5f3d
00000270: 75d0 ecbc 2c6e 00bd e4a2 843d 6e15 28be
00000280: 662e 28bd 21f3 23be ef9e d1bd b4e1 90bd
00000290: c217 14be e31f 6f3a 3802 203d 1072 c53d
000002a0: bc48 69bd 7c9e 7a3d 28b2 12bc 3d17 10be
000002b0: 2b05 443d 889e 8abd 95ce 42bd 80a9 a43b
000002c0: 40c7 cf3b 4089 e5bd 3606 cebd c735 0a3d
000002d0: 50b5 62bc 181f 12be b039 abbd 220b 833d
000002e0: 211a c3bd e9d1 00bd 9ea3 d0bd af7a 97bd
000002f0: 1a8f aabd 37b1 683d e43f 16bd 1ecb 18be
00000300: b663 2b3e 84eb dc3e 1d89 f03e db82 893f
00000310: 2c15 533f 9807 c03d 54f5 613f b596 7ebc
00000320: 175a 0abe e3e2 363d 8bd9 273f deaf 7b3d
00000330: 4ff8 95be 9c34 4c3d 0165 19be 60f8 68be
00000340: f7aa bbbe 7667 903e 9c35 4cbe 3c4d 193f
00000350: a264 493e d5ac 9a3d c77a f23d 3943 a53e
00000360: 43ee aebd 0172 c73e 1543 76be 6e0d 5c3e
00000370: e361 c7be 1270 babd 9a8b 133f 822e ec3d
00000380: af3e 4b3f 6f38 b13e cc0c 353f 80e0 51bd
00000390: 4789 20be 7f86 8b3b 8442 953d eddc a23f
000003a0: 7c04 b63e ec4f b53f 00b2 23bf 1615 f63c
000003b0: 1e7c a63b 290c b83e ee5d 683f fb93 1abd
000003c0: 3bf8 c83e 6384 08bc 980b 1f3e a9d4 7e3e
000003d0: 3d03 a73c 216b e23e 42ef a33d 2fde 463f
000003e0: 306c a23f e913 dd3e 5b7a a63e 2702 1c3e
000003f0: 0366 ecbd e4a6 913d 0fe0 d43f d271 973e

fc2.bias f4 [180]
0.22511004 0.0950824 -0.17241392 -0.015094584 -0.25273278 0.09978787 0.15929441 -0.10160887
-0.14347279 0.27894947 0.012657055 0.30787754 -0.20008455 -0.22264904 -0.06535325 0.27298677
-0.12984544 0.18434438 -0.09029338 -0.03808837 -0.034286458 -0.17608516 -0.1249645 0.09341092
0.12510669 -0.13010794 -0.105137184 -0.19072512 -0.1035313 0.35762525 0.4822485 0.3556599
0.31128496 0.277034 0.3073938 0.4243592 -0.03258363 -0.031813093 -0.10119415 0.37189186
-0.06629961 0.5975159 0.5447884 -0.10643801 -0.038630888 -0.123140484 -0.0750326 0.30683255
-0.124590084 0.000812279 -0.0366709 -0.008642351 -0.011896184 0.1370848 0.12652853 -0.010509045
-0.20279628 -0.16439654 -0.19261812 0.17416091 0.17018457 0.008392528 -0.017702943 -0.12373744
0.021787582 0.13038938 0.4593157 -0.1166577 0.3183132 0.06320604 0.17229535 0.36363536
0.6602815 0.38818362 0.26333544 0.06247499 -0.09816119 0.41714084 0.30510715 -0.19343111
-0.10492165 -0.006423207 0.41392678 -0.0032910833 -0.16919903 -0.14032541 -0.028904568 -0.106405966
-0.10154531 -0.12078977 -0.06570786 -0.05867651 -0.12318673 0.01007955 -0.18906116 -0.08159001
0.61601025 -0.17013617 -0.05412612 -0.08436895 -0.10191814 0.2797634 0.2805563 -0.13681005
-0.09171704 -0.076845445 -0.18397497 -0.1454358 0.13232376 0.1220798 0.06417948 0.11055157
0.337749 0.43253177 0.1618488 0.037537906 -0.105743766 -0.091840856 -0.15717536 0.29362202
-0.0011743763 -0.18187447 -0.06310829 -0.09184842 -0.22012936 0.17896605 -0.11245361 -0.06625747
-0.10365596 -0.07891788 -0.07069206 0.4839537 0.23294197 -0.1895413 -0.07693817 -0.12319071
-0.07757161 0.51802254 -0.016355515 0.4295845 0.06610197 0.4047133 0.09739255 0.4771275
-0.120041 -0.28590173 0.25056267 0.14549394 0.63087404 0.15106969 0.49889204 -0.055381857
0.00406263 0.008269561 -0.1160816 0.018603187 0.43416497 0.016964747 -0.11923149 -0.06754094
0.019657385 -0.18599683 0.107261874 -0.023320088 -0.17181478 -0.023162669 -0.0657664 -0.1336749
0.43286538 -0.11750321 -0.058533393 -0.15798719 -0.10433378 0.16100049 0.30348194 0.16689777
0.013240128 -0.15591899 -0.12858655 0.063219294
00000000: 3f83 663e 90ba c23d 468d 30be 464f 77bc
00000010: 3166 81be 955d cc3d 131e 233e 5018 d0bd
00000020: 88ea 12be 77d2 8e3e 895f 4f3c 20a2 9d3e
00000030: f7e2 4cbe 1cfe 63be edd7 85bd ecc4 8b3e
00000040: 34f6 04be c6c4 3c3e bceb b8bd 8d02 1cbd
00000050: f56f 0cbd ab4f 34be 63ed ffbd 394e bf3d
00000060: f81b 003e 043b 05be 2a52 d7bd 724d 43be
00000070: 3808 d4bd a81a b73e 47e9 f63e 0e19 b63e
00000080: be60 9f3e 67d7 8d3e b862 9d3e 9c45 d93e
00000090: 6a76 05bd 724e 02bd e13e cfbd 9c68 be3e
000000a0: 17c8 87bd cdf6 183f 4177 0b3f 2cfc d9bd
000000b0: 6c3b 1ebd 1431 fcbd b1aa 99bd 2819 9d3e
000000c0: 1629 ffbd 1fef 543a 3a34 16bd a698 0dbc
000000d0: 36e8 42bc f55f 0c3e b290 013e 212e 2cbc
000000e0: d4a9 4fbe 9157 28be af3d 45be 3d57 323e
000000f0: dd44 2e3e d080 093c c305 91bc 0e6a fdbd
00000100: df7b b23c cb84 053e 6d2b eb3e 3bea eebd
00000110: f3f9 a23e 2b72 813d 316e 303e 6a2e ba3e
00000120: 3508 293f 01c0 c63e e7d3 863e c6e5 7f3d
00000130: bc08 c9bd 7c93 d53e 0137 9c3e ce12 46be
00000140: 29e1 d6bd c479 d2bb 36ee d33e 37af 57bb
00000150: 8342 2dbe 77b1 0fbe 46c9 ecbc 5feb d9bd
00000160: fdf6 cfbd a060 f7bd d891 86bd c856 70bd
00000170: 5349 fcbd b224 253c 4099 41be aa18 a7bd
00000180: d9b2 1d3f 2d38 2ebe 5ab3 5dbd a1c9 acbd
00000190: 75ba d0bd 263d 8f3e 13a5 8f3e ef17 0cbe
000001a0: 25d6 bbbd 2561 9dbd ef63 3cbe 1fed 14be
000001b0: e17f 073e f904 fa3d 8870 833d dd68 e23d
000001c0: 70ed ac3e ce74 dd3e b1bb 253e 59c1 193d
000001d0: 3090 d8bd 0f17 bcbd 94f2 20be a055 963e
000001e0: 88ed 99ba 4d3d 3abe eb3e 81bd 061b bcbd
000001f0: 9769 61be e042 373e 144e e6bd ffb1 87bd
00000200: 9349 d4bd b39f a1bd 00c7 90bd c8c8 f73e
00000210: 5788 6e3e 1d17 42be c291 9dbd 694b fcbd
00000220: dddd 9ebd 209d 043f 00fc 85bc 80f2 db3e
00000230: 7860 873d 9536 cf3e bf75 c73d 0e4a f43e
00000240: 0ed8 f5bd b661 92be c049 803e 5dfc 143e
00000250: f680 213f 03b2 1a3e c76e ff3e 16d8 62bd
00000260: cf1f 853b 0e7d 073c 31bc edbd b665 983c
00000270: df4a de3e a7f9 8a3c a42f f4bd e852 8abd
00000280: 8608 a13c f475 3ebe 1dac db3d c509 bfbc
00000290: 37f0 2fbe a3bf bdbc 89b0 86bd 13e2 08be
000002a0: 88a0 dd3e 86a5 f0bd b6c0 6fbd 65c7 21be
000002b0: f3ac d5bd 50dd 243e fc61 9b3e 40e7 2a3e
000002c0: 1fed 583c 3aa9 1fbe 31ac 03be 1e79 813d

conv.weight f4 [5, 1, 34, 34]
-0.05211111 -0.041262515 -0.08848493 -0.08897742 -0.030380342 -0.018801663 -0.20337966 -0.14095232
-0.23789735 -0.21951304 0.4728206 0.4206167 0.58408254 0.699289 0.816998 0.8644889
0.99684536 1.2331921 1.1635303 0.8975906 1.2588254 1.6071638 1.7443708 1.3055086
1.4086044 1.1075329 0.93438226 1.0271499 0.6144126 0.22647668 0.42498845 0.33087906
0.11395152 0.11686022 -0.04377438 -0.08955091 -0.118126534 -0.1365076 -0.021282049 -0.10075951
-0.1679156 -0.12244232 -0.22855921 -0.25246474 -0.098245285 0.4289707 0.6203551 0.6348267
0.61743736 0.99147445 0.9388484 1.0847913 1.2744875 1.0757185 1.4897344 1.4894491
1.6598285 1.7807469 1.5427444 1.1113236 0.9669594 1.0911697 0.50754356 0.3487517
0.44878456 0.3651468 0.042375173 0.10383791 0.00746141 0.004237757 -0.019193126 -0.07225196
-0.014705383 -0.0762772 -0.09183962 -0.15371263 -0.1750139 -0.20225102 0.07585864 0.63847065
0.61848295 0.63135785 0.9996723 1.1063589 1.1809174 1.187959 1.248165 1.2501804
1.720654 2.2064667 1.8685354 1.84376 1.7414415 1.3815671 1.3567876 1.1862825
0.58914125 0.45153797 0.6842048 0.5627143 0.28342256 0.3082861 0.008491259 0.0023246282
-0.028110698 -0.036953524 -0.10186857 -0.016847122 -0.016921798 -0.2979909 -0.30482042 -0.22740088
0.24581943 0.6095592 0.5871986 0.7074149 1.0424373 1.1318288 1.3085674 1.2642334
1.3343453 1.2840074 1.3827567 1.8189659 1.812478 1.6043713 1.8346347 1.6205146
1.5246767 1.0340143 0.783477 0.47095594 0.76227164 0.66595846 0.24515264 0.35127977
0.0037434828 -0.0490839 -0.12131849 -0.082242236 -0.1206125 -0.17622307 -0.1833703 -0.26029405
-0.31438226 -0.30022308 0.021141965 0.1620065 0.3357579 0.46456957 0.88280183 1.0547239
1.0073962 0.92689776 1.0720924 1.1438376 1.0883113 1.3405856 1.6358736 1.6650515
1.6617849 1.425179 1.2187704 0.7866 0.7184531 0.5442125 0.6042273 0.2874041
0.19351934 0.08435483 -0.00752745 -0.03248111 -0.042613726 -0.08496732 -0.06768691 -0.19846268
-0.17747582 -0.19586457 -0.33963147 -0.31964532 0.05077555 0.23122635 0.35505542 0.48299074
0.77095896 0.8323569 1.1221367 1.1981786 1.0991327 1.4937694 1.1890287 1.5934123
1.7283726 1.66724 1.5948764 1.6347024 1.5083507 0.9491918 0.6578354 0.4466324
0.42053938 0.3381626 0.28066924 0.353722 0.0080097085 -0.020286812 -0.1158965 -0.06622318
-0.08280132 -0.19266604 -0.16217418 -0.25274017 -0.4014916 -0.3345714 0.039050024 0.044243023
0.2646667 0.72274673 0.74829715 0.8710818 1.0207931 1.2749188 1.3267963 1.4155879
1.4112648 1.7191709 1.9757057 1.8838013 1.7639316 1.5761831 1.3963354 1.2051675
0.9457752 0.5173112 0.5609156 0.4274744 0.17065305 0.21667601 -0.025281375 -0.02709063
-0.021342915 -0.059167624 -0.11166177 -0.118107304 -0.22742087 -0.29136953 -0.39676532 -0.4503598
-0.047967587 0.07327583 0.3489596 0.5096291 0.52960914 0.8993175 1.1053365 1.2187219
00000000: 7672 55bd e202 29bd 9637 b5bd cb39 b6bd
00000010: 32e0 f8bc f205 9abc c242 50be ce55 10be
00000020: 5d9b 73be 07c8 60be 8b15 f23e 125b d73e
00000030: 6f86 153f 9b04 333f c826 513f 254f 5d3f
00000040: 4231 7f3f 3dd9 9d3f 90ee 943f 7fc8 653f
00000050: 3121 a13f 8bb7 cd3f 8b47 df3f e81a a73f
00000060: 264d b43f a3c3 8d3f ad33 6f3f a679 833f
00000070: 254a 1d3f 81e9 673e 1698 d93e fb68 a93e
00000080: 6a5f e93d 6954 ef3d c44c 33bd 7866 b7bd
00000090: 53ec f1bd a6c8 0bbe b157 aebc 015b cebd
000000a0: 11f2 2bbe 0ac3 fabd 6d0b 6abe 0f43 81be
000000b0: d334 c9bd 0ca2 db3e 98cf 1e3f 0184 223f
000000c0: 6010 1e3f 45d1 7d3f 5e58 703f 71da 8a3f
000000d0: 6822 a33f 25b1 893f 9eaf be3f 45a6 be3f
000000e0: 4375 d43f 84ef e33f a678 c53f da3f 8e3f
000000f0: a78a 773f 73ab 8b3f 60ee 013f 958f b23e
00000100: 17c7 e53e 85f4 ba3e 9791 2d3d f8a8 d43d
00000110: d87e f43b e2dc 8a3b e73a 9dbc d6f8 93bd
00000120: d9ee 70bc 3837 9cbd 6916 bcbd d866 1dbe
00000130: d836 33be e41a 4fbe c65b 9b3d d072 233f
00000140: e654 1e3f aba0 213f 86ea 7f3f 2b9d 8d3f
00000150: 4d28 973f 0a0f 983f dfc3 9f3f e905 a03f
00000160: 643e dc3f c036 0d40 2b2c ef3f 5400 ec3f
00000170: 8ee7 de3f 31d7 b03f 37ab ad3f 1bd8 973f
00000180: f6d1 163f fc2f e73e 0c28 2f3f 0b0e 103f
00000190: c31c 913e add7 9d3e ec1e 0b3c ca58 183b
000001a0: 6848 e6bc 945c 17bd 78a0 d0bd fa02 8abc
000001b0: 959f 8abc 4392 98be 6c11 9cbe c7db 68be
000001c0: 17b8 7b3e 120c 1c3f a652 163f 2519 353f
000001d0: 966e 853f c4df 903f 237f a73f 66d2 a13f
000001e0: d4cb aa3f 5b5a a43f 2cfe b03f e0d3 e83f
000001f0: 47ff e73f 0a5c cd3f 4fd5 ea3f 066d cf3f
00000200: 9b28 c33f 955a 843f f391 483f 2321 f13e
00000210: 3c24 433f 417c 2a3f 4b09 7b3e f1da b33e
00000220: 3855 753b 330c 49bd d475 f8bd 9e6e a8bd
00000230: b003 f7bd d273 34be 6dc5 3bbe 4345 85be
00000240: b6f6 a0be d7b6 99be ea31 ad3c 08e5 253e
00000250: 76e8 ab3e 10dc ed3e 4dff 613f 3101 873f
00000260: 5cf2 803f 2c49 6d3f 533a 893f 4569 923f
00000270: c94d 8b3f 4f98 ab3f 4e64 d13f 6820 d53f
00000280: 5eb5 d43f 446c b63f ab00 9c3f 9e5e 493f
00000290: 8bec 373f 8351 0b3f a4ae 1a3f a126 933e
000002a0: ef29 463e 3ac2 ac3d d4a8 f6bb ea0a 05bd
000002b0: bb8b 2ebd 5903 aebd 6f9f 8abd cd39 4bbe
000002c0: 39bc 35be b990 48be 2de4 adbe 8da8 a3be
000002d0: 06fa 4f3d 9ac6 6c3e d3c9 b53e 904a f73e
000002e0: 915d 453f 5815 553f 2da2 8f3f eb5d 993f
000002f0: 61b0 8c3f d633 bf3f 1832 983f eff4 cb3f
00000300: 503b dd3f 1f68 d53f e924 cc3f ee3d d13f
00000310: a311 c13f 3cfe 723f e767 283f 00ad e43e
00000320: f050 d73e a623 ad3e e1b3 8f3e 0d1b b53e
00000330: 273b 033c 8730 a6bc 255b edbd 05a0 87bd
00000340: bd93 a9bd 3f4a 45be fd10 26be 2967 81be
00000350: 4f90 cdbe f14c abbe ebf2 1f3d 2c38 353d
00000360: 6582 873e ee05 393f 6790 3f3f 38ff 5e3f
00000370: 59a9 823f 8a30 a33f 76d4 a93f fc31 b53f
00000380: 53a4 b43f cb0d dc3f ede3 fc3f 6720 f13f
00000390: 83c8 e13f 5ec0 c93f 1ebb b23f ee42 9a3f
000003a0: 531e 723f 826e 043f 2a98 0f3f eddd da3e
000003b0: acbf 2e3e 51e0 5d3e e31a cfbc 2bed ddbc
000003c0: 56d7 aebc c059 72bd edae e4bd 3ee2 f1bd
000003d0: 04e1 68be 632e 95be d324 cbbe 8f95 e6be
000003e0: a979 44bd a311 963d d5aa b23e 0d77 023f
000003f0: 7794 073f ac39 663f ab7b 8d3f 14ff 9b3f

conv.weight f4 [5, 1, 10, 10]
-0.09143659 -0.15096101 0.03954393 -0.051432803 0.029514182 -0.016269824 0.04438556 -0.016528448
-0.082768746 0.0069992314 0.0027126023 -0.06394952 -0.070772655 -0.09405506 -0.09107107 -0.0968639
-0.072308525 -0.09884518 -0.10844903 -0.14475401 -0.14755496 0.027920734 0.03474164 -0.08809572
-0.022091761 0.046179198 -0.07541603 0.069996975 -0.010051332 0.04231208 -0.040866915 -0.08827462
-0.10335588 -0.036926106 -0.0012322664 -0.065033704 -0.012793958 0.090569265 -0.0034372956 -0.06440202
-0.023754613 -0.066265695 -0.01846988 0.012352635 0.059525795 0.06570008 0.011811934 0.051349826
-0.026966669 -0.051045027 -0.04721817 -0.06741388 -0.13086173 0.03326164 0.06938533 -0.026436351
-0.03335674 -0.060314216 -0.059520222 0.044595547 -0.08015453 -0.12761897 -0.090583675 0.032570288
-0.07112418 -0.099494755 0.09036245 -0.089472905 0.024249814 0.009473085 -0.014904052 -0.121517695
0.011019562 -0.012397133 -0.0062051415 -0.09164411 -0.034270346 -0.07434175 -0.046143364 0.04778642
-0.056044098 -0.14396864 0.007765187 0.045174487 -0.034943365 0.03113813 0.047259696 -0.056725644
0.019129757 -0.072079435 -0.08491596 -0.08700345 -0.09577907 -0.025535405 0.03071151 -0.022710197
0.037607387 -0.08561522 -0.0921953 -0.11221674 0.34453133 0.2290717 0.31775257 0.28301197
0.26431376 0.22928715 0.25320286 0.3668165 0.25158942 0.37223715 0.2182965 0.2910368
0.2951136 0.36531115 0.25630277 0.30673203 0.22825007 0.18022549 0.3713091 0.4182841
0.3397854 0.2719836 0.18120405 0.18889865 0.23207477 0.19643135 0.24921918 0.29401168
0.42343545 0.33292118 0.16383675 0.22653094 0.18189341 0.31082973 0.19719575 0.33104247
0.24743278 0.321317 0.36900347 0.26639274 0.32459813 0.26929057 0.294576 0.32989195
0.19448641 0.2292089 0.49781975 0.3917506 0.35985127 0.3342232 0.24400836 0.1841269
0.2785281 0.33009344 0.2560371 0.24775045 0.40871027 0.37840065 0.32581377 0.23633374
0.24893728 0.33941525 0.19996086 0.30481464 0.23636934 0.4021281 0.48365965 0.344195
0.38081145 0.2713132 0.34558785 0.24479349 0.34001184 0.28396127 0.26462337 0.38634974
0.37244466 0.5888553 0.46387002 0.4224179 0.16592622 0.34425157 0.25236544 0.26410407
0.24896479 0.43600443 0.43727142 0.5528887 0.4800614 0.5752477 0.28416574 0.23412113
0.3877985 0.21286368 0.4821408 0.35346356 0.3596127 0.48822892 0.56108063 0.51009065
0.07160583 0.047947794 0.16683334 0.07554212 0.08800069 0.07964348 0.04143113 -0.077995405
0.071934775 -0.03853502 0.08274608 0.025695119 0.031335134 0.024824306 0.0809079 0.013835023
0.11319052 -0.08743693 -0.16465844 -0.13089292 -0.050201386 0.18271324 0.0714699 0.106092125
-0.07124327 0.059735604 0.09816975 -0.109400816 -0.15313092 -0.12221626 0.009275025 0.19185117
0.09332414 0.18657695 -0.041347176 0.08241747 0.10625827 -0.14676416 -0.04027738 -0.20834349
0.114556566 0.0023482179 0.1520557 0.12213355 0.095949925 -0.011542609 -0.055081837 -0.13383964
-0.023409843 -0.22081693 0.18190454 0.023532819 0.1365002 0.087511785 0.13730273 0.1216363
00000000: 1b43 bbbd 8695 1abe d1f8 213d 34ab 52bd
00000010: bac7 f13c 4b48 85bc a2cd 353d ab66 87bc
00000020: a982 a9bd cf59 e53b eac5 313b f7f7 82bd
00000030: 41f1 90bd f09f c0bd 7883 babd 9560 c6bd
00000040: 7e16 94bd 576f cabd 861a debd 653a 14be
00000050: a618 17be 06ba e43c 404d 0e3d 876b b4bd
00000060: c8f9 b4bc 6626 3d3d b873 9abd 935a 8f3d
00000070: 58ae 24bc 6e4f 2d3d 1164 27bd 53c9 b4bd
00000080: 3fac d3bd d43f 17bd 0084 a1ba 6430 85bd
00000090: c09d 51bc 617c b93d 4044 61bb 35e5 83bd
000000a0: 0999 c2bc 4fb6 87bd 254e 97bc b562 4a3c
000000b0: 52d1 733d c38d 863d d886 413c 3254 523d
000000c0: 34e9 dcbc 9714 51bd d767 41bd 4a10 8abd
000000d0: 9e00 06be 5c3d 083d e519 8e3d 0c91 d8bc
000000e0: 14a1 08bd 0a0c 77bd 7acb 73bd d2a9 363d
000000f0: 0f28 a4bd 8cae 02be ef83 b9bd 6c68 053d
00000100: 8ea9 91bd e8c3 cbbd f30f b93d 923d b7bd
00000110: 8ca7 c63c 0035 1b3c 2030 74bc 45de f8bd
00000120: 658b 343c 581d 4bbc 8054 cbbb e8af bbbd
00000130: 105f 0cbd 7d40 98bd d300 3dbd b1bb 433d
00000140: 7f8e 65bd 846c 13be 1c73 fe3b e208 393d
00000150: c620 0fbd 6415 ff3c 6293 413d 2659 68bd
00000160: 02b6 9c3c 629e 93bd 6be8 adbd dd2e b2bd
00000170: d127 c4bd a02f d1bc b496 fb3c bc0a babc
00000180: 340a 1a3d 0857 afbd e4d0 bcbd e4d1 e5bd
00000190: 6966 b03e c691 6a3e 77b0 a23e f2e6 903e
000001a0: 2254 873e 40ca 6a3e cea3 813e 5fcf bb3e
000001b0: 54d0 803e de95 be3e 1e89 5f3e c702 953e
000001c0: 2119 973e 100a bb3e 1e3a 833e fb0b 9d3e
000001d0: 63ba 693e 088d 383e 3a1c be3e 5529 d63e
000001e0: 5af8 ad3e 6f41 8b3e 8e8d 393e a66e 413e
000001f0: 02a5 6d3e 4d25 493e 5033 7f3e b388 963e
00000200: 88cc d83e a574 aa3e d2c4 273e baf7 673e
00000210: 4442 3a3e 1325 9f3e afed 493e 667e a93e
00000220: 055f 7d3e a983 a43e 06ee bc3e a164 883e
00000230: ba31 a63e 74e0 893e aad2 963e 99e7 a83e
00000240: 7227 473e bdb5 6a3e 3be2 fe3e 8993 c83e
00000250: 6d3e b83e 4e1f ab3e 54dd 793e c38b 3c3e
00000260: 3c9b 8e3e 0202 a93e 4b17 833e 4bb2 7d3e
00000270: 7942 d13e bbbd c13e 10d1 a63e 7901 723e
00000280: 6ae9 7e3e d6c7 ad3e 8ac2 4c3e aa10 9c3e
00000290: ce0a 723e bce3 cd3e 3da2 f73e 543a b03e
000002a0: b8f9 c23e 90e9 8a3e e4f0 b03e 25ab 7a3e
000002b0: 0816 ae3e 5f63 913e b77c 873e a2cf c53e
000002c0: 11b1 be3e 39bf 163f 5f80 ed3e 2947 d83e
000002d0: 90e8 293e be41 b03e 0b36 813e a638 873e
000002e0: a0f0 7e3e f93b df3e 0ae2 df3e 1d8a 0d3f
000002f0: 9cca f53e 6f43 133f 2c7e 913e 73bd 6f3e
00000300: 868d c63e f0f8 593e 29db f63e 2df9 b43e
00000310: 281f b83e 24f9 f93e fba2 0f3f 4d95 023f
00000320: 14a6 923d e864 443d 5cd6 2a3e d4b5 9a3d
00000330: b539 b43d 1f1c a33d b0b3 293d 0ebc 9fbd
00000340: 8a52 933d e6d6 1dbd c776 a93d 927e d23c
00000350: 4559 003d 585c cb3c 0bb3 a53d 4bac 623c
00000360: 6ed0 e73d 2212 b3bd 399c 28be cb08 06be
00000370: f89f 4dbd 2e19 3b3e d05e 923d d446 d93d
00000380: fee7 91bd 52ad 743d 390d c93d 890d e0bd
00000390: 5ace 1cbe 854c fabd 46f6 173c a274 443e
000003a0: ba20 bf3d 070e 3f3e a85b 29bd 7eca a83d
000003b0: f09d d93d 5849 16be e5f9 24bd ff57 55be
000003c0: a29c ea3d 8fe4 193b 7db4 1b3e 2821 fa3d
000003d0: 6581 c43d 361d 3dbc 7e9d 61bd 420d 09be
000003e0: 00c6 bfbc d51d 62be 2f45 3a3e e6c7 c03c
000003f0: b5c6 0b3e 6139 b33d 1699 0c3e 741c f93d

conv.bias f4 [5]
0.23281613 0.39812192 -0.022408696 0.6010135 -0.057886526
00000000: 5a67 6e3e a3d6 cb3e 7192 b7bc 05dc 193f
00000010: 6c1a 6dbd

fc1.weight f4 [64, 180]
-0.027861312 -0.12553957 -0.02758161 -0.03939534 -0.10530912 -0.06896546 0.016533034 -0.09339411
-0.061946552 0.017649181 -0.096587785 -0.12669726 0.009306951 -0.013823704 -0.025888793 -0.024737496
-0.015886188 -0.060690094 -0.013099772 -0.019654587 -0.05112671 0.06844515 -0.0075863693 -0.032884106
0.018212967 -0.013956984 -0.09251374 -0.04271295 -0.099103644 -0.09992344 0.011835544 -0.07197777
-0.05367733 -0.07987466 -0.04161064 -0.08301576 -0.098792076 -0.09307518 -0.026998129 -0.0593304
-0.10805046 -0.07521101 0.015261343 -0.048745498 0.010775421 -0.020242643 -0.0068756714 -0.095917776
-0.023655735 0.005677852 -0.08165143 -0.13340129 -0.09047683 -0.076876625 -0.022190318 -0.08695085
0.0015804684 -0.057569195 -0.020686809 -0.0854488 -0.10311444 -0.12070008 -0.05191212 -0.0033600286
-0.1323294 -0.08156761 -0.103415824 -0.10981896 0.0020115522 -0.025688924 -0.053815886 -0.074927405
0.0054920954 -0.003398318 -0.042515144 -0.040917024 -0.0884414 -0.071847245 -0.09846714 -0.091121994
-0.13123736 -0.12684399 -0.05292881 -0.10169803 -0.11806485 -0.1291302 -0.038897384 -0.05909686
-0.098031685 -0.053056385 -0.08341002 -0.093755655 -0.03870455 0.0074117733 -0.11625901 -0.11354352
-0.0106361285 -0.10514152 -0.12898856 -0.038168352 -0.056638654 -0.08368735 -0.11132375 -0.0319287
-0.058090597 -0.114743434 -0.077944614 -0.004348408 -0.030491859 -0.103298 -0.0659363 0.011952139
-0.0709942 -0.035240795 0.016946685 0.008960209 -0.02582111 -0.057111792 0.027066465 -0.006207118
-0.0056952294 -0.012087299 -0.006616664 0.011395282 0.002876717 -0.072342806 -0.08645224 -0.052423336
-0.07134397 -0.09771323 -0.1251919 -0.09012841 -0.101837605 -0.06639296 -0.0030959982 -0.09358752
-0.012323921 -0.08857678 0.0061539365 -0.017768137 -0.03993811 -0.05518296 -0.09741401 -0.06850923
-0.011945359 -0.057676397 0.025236137 -0.072595224 0.07366239 0.06919389 -0.05954541 -0.0304505
-0.048874393 -0.031851504 -0.019430451 0.0024615377 0.013189964 -0.042806573 0.058804773 -0.053019423
-0.085236855 -0.027847577 0.047573537 -0.02318442 -0.037952058 -0.046663202 -0.015790395 0.043936566
0.068871446 -0.031974405 -0.014830922 -0.034511693 -0.02285429 -0.05459354 0.025749572 0.0744941
-0.03052853 -0.023764223 0.037615716 -0.06161889 -0.013125844 -0.019942943 -0.06689754 0.027129762
0.0036014542 0.03692948 0.030606493 -0.002142273 0.019151285 0.054176785 -0.053814635 0.00816828
-0.018727116 0.047840506 -0.057643518 0.0617987 0.0020386055 -0.009552173 0.039085306 0.037636638
-0.029800892 -0.06714358 0.04772801 -0.038967922 0.049560964 -0.07048544 0.007254213 -0.056170136
-0.016635295 0.06704397 0.010639869 -0.059677996 0.031159602 -0.052392073 -0.007637255 0.06403916
0.068736486 -0.0156087205 -0.0019868165 0.058436193 0.045405 -0.029444538 -0.050312422 0.023850016
0.051717974 0.002928242 -0.060560968 0.0034552515 -0.0131640695 0.049395166 -0.064618886 -0.06775292
0.016860731 -0.03788034 -0.0641934 0.01558844 0.04282648 0.06324408 -0.06360742 0.028888509
-0.042857803 -0.030038923 -0.02225728 -0.019861367 -0.0120186135 -0.06056753 0.03336578 0.06992336
-0.0071379393 -0.06866174 -0.064649016 0.04521448 -0.038971998 0.025567003 0.0019957796 0.008309744
00000000: 683d e4bc 728d 00be d4f2 e1bc 025d 21bd
00000010: 4fac d7bd c33d 8dbd 4970 873c 6945 bfbd
00000020: abbb 7dbd 0495 903c d1cf c5bd edbc 01be
00000030: 2f7c 183c d17c 62bc bc14 d4bc 4aa6 cabc
00000040: c023 82bc 2d96 78bd 6da0 56bc a802 a1bc
00000050: 3e6a 51bd f92c 8c3d 1497 f8bb 7cb1 06bd
00000060: 5c33 953c d5ab 64bc d877 bdbd c6f3 2ebd
00000070: daf6 cabd a9a4 ccbd dfe9 413c 1569 93bd
00000080: c3dc 5bbd 5395 a3bd eb6f 2abd 2b04 aabd
00000090: 8053 cabd 339e bebd 2e2b ddbc 6f04 73bd
000000a0: 8f49 ddbd 3b08 9abd b60a 7a3c 5ca9 47bd
000000b0: 648b 303c e6d3 a5bc 504d e1bb 8a70 c4bd
000000c0: acc9 c1bc 460d ba3b dd38 a7bd 599a 08be
000000d0: eb4b b9bd 7e71 9dbd 78c8 b5bc 4a13 b2bd
000000e0: b827 cf3a adcd 6bbd 6277 a9bc c8ff aebd
000000f0: aa2d d3bd 9b31 f7bd cea1 54bd ed33 5cbb
00000100: 5c81 07be eb0c a7bd adcb d3bd c3e8 e0bd
00000110: 3fd4 033b 9471 d2bc 0c6e 5cbd 8a73 99bd
00000120: 09f7 b33b 51b6 5ebb 5c24 2ebd 9c98 27bd
00000130: c420 b5bd a624 93bd 24a9 c9bd 2b9e babd
00000140: 1663 06be 64e3 01be e1cb 58bd 0f47 d0bd
00000150: fccb f1bd b53a 04be dd52 1fbd 8d0f 72bd
00000160: d6c4 c8bd a751 59bd dfd2 aabd f702 c0bd
00000170: aa88 1ebd 76de f23b 3419 eebd 8189 e8bd
00000180: 2843 2ebc 7054 d7bd 9415 04be 6b56 1cbd
00000190: effd 67bd 4664 abbd b5fd e3bd abc7 02bd
000001a0: 68f0 6dbd 9bfe eabd 6da1 9fbd 177d 8ebb
000001b0: 10ca f9bc e78d d3bd 9c09 87bd e8d2 433c
000001c0: 6865 91bd a758 10bd c6d3 8a3c d7cd 123c
000001d0: cb86 d3bc 0eee 69bd 7eba dd3c 1465 cbbb
000001e0: 0c9f babb ce09 46bc 9ad0 d8bb 47b3 3a3c
000001f0: 4d87 3c3b 7728 94bd df0d b1bd dab9 56bd
00000200: ca1c 92bd e01d c8bd 4e32 00be 3e95 b8bd
00000210: 3c90 d0bd 08f9 87bd 3be6 4abb d0aa bfbd
00000220: 45ea 49bc be67 b5bd f6a6 c93b 7c8e 91bc
00000230: 2596 23bd 8707 62bd ff80 c7bd 914e 8cbd
00000240: 78b6 43bc 163e 6cbd 04bc ce3c ceac 94bd
00000250: 4fdc 963d 87b5 8d3d e3e5 73bd 5473 f9bc
00000260: 8430 48bd b976 02bd 9c2c 9fbc c051 213b
00000270: b81a 583c f255 2fbd 46dd 703d e52a 59bd
00000280: a990 aebd 9a20 e4bc 78dc 423d 41ed bdbc
00000290: 9e73 1bbd ea21 3fbd dc5a 81bc d4f6 333d
000002a0: 790c 8d3d 98f7 02bd 65fd 72bc 225c 0dbd
000002b0: ec38 bbbc 7a9d 5fbd c4f0 d23c 5d90 983d
000002c0: f816 fabc 30ad c2bc f012 1a3d 1764 7cbd
000002d0: c80d 57bc 625f a3bc 9401 89bd 3c3f de3c
000002e0: 6006 6c3b 5e43 173d 78ba fa3c 6065 0cbb
000002f0: 28e3 9c3c 7ae8 5d3d bc6c 5cbd 40d4 053c
00000300: 9c69 99bc 68f4 433d 9c1b 6cbd a220 7d3d
00000310: 209a 053b b880 1cbc ea17 203d e028 1a3d
00000320: 0021 f4bc 9382 89bd 727e 433d d49c 1fbd
00000330: 7000 4b3d ac5a 90bd c0b4 ed3b a812 66bd
00000340: be46 88bc 594e 893d d852 2e3c ea70 74bd
00000350: 6c42 ff3c 1299 56bd f041 fabb f726 833d
00000360: b7c5 8c3d b8bb 7fbc 4035 02bb ca5a 6f3d
00000370: 98fa 393d ac35 f1bc 6614 4ebd 1c61 c33c
00000380: 3ad6 533d c0e7 3f3b c70e 78bd 8071 623b
00000390: 1cae 57bc 9652 4a3d e856 84bd 0bc2 8abd
000003a0: 841f 8a3c 6a28 1bbd d477 83bd a866 7f3c
000003b0: d26a 2f3d 1d86 813d 9b44 82bd 98a7 ec3c
000003c0: aa8b 2fbd 3014 f6bc e654 b6bc 4eb4 a2bc
000003d0: b8e9 44bc a915 78bd 8eaa 083d fb33 8f3d
000003e0: 60e5 e9bb 879e 8cbd b466 84bd d232 393d
000003f0: 1aa1 1fbd e471 d13c a0cb 023b 9825 083c

fc1.bias f4 [64]
-0.06081771 -0.07203536 -0.060262516 0.04737046 0.019644596 0.06521472 -0.017204704 -0.036403295
0.0006608163 -0.12862368 0.024400696 -0.085071184 -0.05847493 -0.07058563 -0.08187962 -0.094324745
-0.097901575 -0.08668135 -0.0066194544 -0.008053564 -0.101142935 -0.037422635 0.13757308 0.029448241
-0.010496509 0.03615153 -0.09684694 -0.028667025 -0.09893031 0.07013207 -0.056333467 -0.034628004
-0.027203528 0.002080967 -0.025809156 -0.009045267 -0.08299763 -0.031049054 0.062267013 0.2554593
-0.10046306 0.07702482 -0.11647171 -0.018448062 0.0045578843 0.040030308 -0.10639061 -0.0028134491
0.011104224 -0.08760931 -0.12528725 -0.07652955 -0.0014726663 -0.040322065 0.06500176 0.015431881
0.19095008 -0.042673558 0.003422022 -0.05482253 0.10195583 -0.09431173 -0.12187119 -0.08754583
00000000: fe1b 79bd 4687 93bd d4d5 76bd 8707 423d
00000010: b4ed a03c 4c8f 853d e1f0 8cbc 9f1b 15bd
00000020: a23a 2d3a edb5 03be f8e3 c73c cd39 aebd
00000030: 6883 6fbd 338f 90bd 81b0 a7bd 552d c1bd
00000040: 9f80 c8bd fe85 b1bd 02e8 d8bb 18f3 03bc
00000050: 0724 cfbd 7a48 19bd f5df 0c3e 703d f13c
00000060: 8df9 2bbc a013 143d b057 c6bd 1cd7 eabc
00000070: f99b cabd 67a1 8f3d ecbd 66bd 18d6 0dbd
00000080: efd9 debc d560 083b b96d d3bc 9932 14bc
00000090: a9fa a9bd 965a febc b20b 7f3d 90cb 823e
000000a0: 94bf cdbd 30bf 9d3d b888 eebd 6420 97bc
000000b0: 4e5a 953b d2f6 233d 52e3 d9bd d861 38bb
000000c0: 7eee 353c 836c b3bd 4d4b 00be 86bb 9cbd
000000d0: 7b06 c1ba c028 25bd a51f 853d 00d6 7c3c
000000e0: 6b88 433e 78ca 2ebd 0144 603b 978d 60bd
000000f0: 38ce d03d 8226 c1bd 9a97 f9bd 3a4b b3bd

fc2.weight f4 [4, 64]
0.03849357 -0.036939383 -0.018339247 -0.07594964 -0.069692284 -0.052623507 0.008503405 0.14721136
-0.018254297 -0.02064187 0.051698 0.0030421864 -0.0050100987 0.046984173 -0.057684712 0.023412095
0.02900761 0.03793125 0.047382064 0.015704557 0.055672776 0.07483716 -0.07150951 -0.049823552
-0.095912874 0.10208206 -0.118649624 0.04187773 -0.049447704 -0.008031994 -0.08995293 0.020387232
-0.03342016 0.059644926 0.082582235 -0.14150503 0.030124234 0.03150623 -0.055037014 -0.07574448
0.008450658 -0.06945604 0.052373763 -0.026282325 0.02225942 -0.105691016 0.032065645 -0.007971694
-0.056400593 -0.055567954 -0.17959231 -0.042272385 -0.15151271 -0.075593516 0.09227389 0.061982423
-0.068286225 -0.038373128 -0.049439684 -0.05141507 -0.065308385 0.09708817 -0.039880224 0.06538559
0.117577314 0.08935043 0.07319416 -0.08946424 -0.00874787 -0.1957559 0.12320617 -0.009431335
-0.04382371 0.14043993 -0.10425663 -0.009401316 -0.022289393 0.019372784 0.013961908 0.15447843
-0.045704816 0.072307795 0.08796445 0.09650983 0.14458576 0.030572519 -0.26557478 -0.03468311
0.034205727 -0.061889052 -0.0509103 0.049869597 0.04968054 -0.04968947 0.0018680692 -0.0055018216
0.083374165 0.16620149 0.0356275 -0.017827244 -0.008596015 0.04240052 -0.2043924 -0.28119192
0.07890871 -0.18278244 -0.013889556 0.05401969 0.015623924 0.010837913 0.13418238 -0.0072544077
0.06169023 0.010526304 0.10267515 -0.25802693 0.014642072 -0.07361238 -0.09153183 -0.0074864477
-0.2539573 -0.06328283 0.001860825 0.027904704 -0.24282135 0.031223258 -0.012749 -0.06468207
-0.013949373 0.024527177 -0.099709764 0.33360806 0.09039122 0.57443684 0.03405737 0.062585235
0.048842862 0.0072355988 0.08290924 0.18039085 0.20278946 0.011840226 0.18570341 -0.041564394
-0.0111654755 -0.016203057 0.02912739 -0.014718652 0.022116845 -0.110924765 0.7786289 -0.029037759
-0.034765717 0.124434024 0.047912445 0.10769741 0.03907621 0.090824515 -0.061428204 0.062250257
0.01136825 -0.040603954 0.14632702 0.049440924 0.1350645 0.0357416 0.5999645 0.8243342
0.058844227 0.5256257 0.1324159 0.104576096 0.099143595 -0.06650263 0.030879388 -0.056444
-0.034930084 0.13372204 -0.006041108 0.5520233 -0.036148466 0.010033488 0.10335019 -0.017511204
0.74496156 -0.079821914 -0.038354117 -0.011520437 0.7121453 0.18628086 0.07711732 -0.023853734
-0.04088419 -0.060591355 -0.01464279 -0.30054823 0.07208413 -0.40033153 -0.06394084 -0.022874763
-0.0701326 -0.05009775 -0.07720095 -0.013924713 -0.024598446 -0.058458846 0.106680304 -0.10684492
-0.028611852 -0.03845935 -0.117988735 0.066147625 0.041903406 0.018503249 -0.5430971 0.019529551
0.10015895 0.11774056 -0.0073450063 -0.0054356605 -0.03148612 0.07469837 -0.1078127 0.007683471
-0.1547343 0.0044427216 -0.0042819516 -0.041340113 0.046420194 0.08611968 -0.41887745 -0.57564735
0.044874262 -0.39463025 0.098911956 0.008779481 0.057821237 -0.12062377 -0.055391524 -0.12263289
-0.18284713 -0.00030758054 0.029197566 -0.42630643 0.062417023 0.026050583 -0.008236885 -0.021314293
-0.51999086 -0.0056821853 -0.0046188575 0.05066747 -0.4965404 0.043795448 0.021665066 -0.0075547923
00000000: 6fab 1d3d c04d 17bd 303c 96bc 7c8b 9bbd
00000010: d4ba 8ebd bf8b 57bd de51 0b3c 93be 163e
00000020: 098a 95bc 2419 a9bc 48c1 533d 6b5f 473b
00000030: c12b a4bb 7a72 403d ce46 6cbd b9ca bf3c
00000040: 5ea1 ed3c cc5d 1b3d b213 423d d8a6 803c
00000050: 2309 643d 3a44 993d 9473 92bd c813 4cbd
00000060: f86d c4bd 6610 d13d 93fe f2bd fc87 2b3d
00000070: ad89 4abd a098 03bc 3e39 b8bd 2003 a73c
00000080: 94e3 08bd 3d4e 743d e020 a93d b2e6 10be
00000090: 19c7 f63c ad0c 013d 7e6e 61bd ec1f 9bbd
000000a0: a174 0a3c f83e 8ebd df85 563d 084e d7bc
000000b0: 6359 b63c 8874 d8bd 4457 033d b59b 02bc
000000c0: 4f04 67bd 399b 63bd 0ce7 37be cf25 2dbd
000000d0: 2626 1bbe c6d0 9abd 18fa bc3d 48e1 7d3d
000000e0: a6d9 8bbd 242d 1dbd 4481 4abd 9c98 52bd
000000f0: 67c0 85bd 2ad6 c63d 7259 23bd e1e8 853d
00000100: 60cc f03d 5cfd b63d d2e6 953d 0739 b7bd
00000110: 3a53 0fbc 3c74 48be 8453 fc3d e385 1abc
00000120: 7e80 33bd 7ccf 0f3e 8084 d5bd fa07 1abc
00000130: 3f98 b6bc acb3 9e3c 7dc0 643c 982f 1e3e
00000140: f934 3bbd 1c16 943d b526 b43d f2a6 c53d
00000150: 4a0e 143e 3873 fa3c 6bf9 87be e00f 0ebd
00000160: 4e1b 0c3d 607f 7dbd 5287 50bd 1044 4c3d
00000170: d27d 4b3d 3087 4bbd 00da f43a a048 b4bb
00000180: 13c0 aa3d b930 2a3e 24ee 113d 710a 92bc
00000190: 4dd6 0cbc 2bac 2d3d 3e4c 51be 63f8 8fbe
000001a0: e49a a13d 522b 3bbe 0591 63bc c043 5d3d
000001b0: 7dfb 7f3c 8091 313c 1b67 093e 62b6 edbb
000001c0: e5ae 7c3d 8576 2c3c 5947 d23d 1b1c 84be
000001d0: 4de5 6f3c 16c2 96bd 0a75 bbbd e050 f5bb
000001e0: b106 82be 6e9a 81bd ede6 f33a 6898 e43c
000001f0: 29a6 78be ebc7 ff3c 2fe1 50bc 0878 84bd
00000200: e98b 64bc 38ed c83c a234 ccbd adce aa3e
00000210: 081f b93d 4b0e 133f be7f 0b3d b02c 803d
00000220: 740f 483d 9a18 ed3b 52cc a93d 61b8 383e
00000230: 0aa8 4f3e 82fd 413c 0929 3e3e 6d3f 2abd
00000240: 66ef 36bc 46bc 84bc 909c ee3c 8026 71bc
00000250: 632e b53c 862c e3bd 3954 473f 98e0 edbc
00000260: 7f66 0ebd 44d7 fe3d d73f 443d 7690 dc3d
00000270: 600e 203d 3402 ba3d 249c 7bbd 20fa 7e3d
00000280: e541 3a3c 5550 26bd c0d6 153e 9182 4a3d
00000290: 594e 0a3e c965 123d 4697 193f 9107 533f
000002a0: a506 713d 688f 063f 0998 073e fe2b d63d
000002b0: cc0b cb3d 8832 88bd c5f6 fc3c d331 67bd
000002c0: d912 0fbd 6eee 083e 7df4 c5bb 6651 0d3f
000002d0: 6a10 14bd 8063 243c 44a9 d33d a873 8fbc
000002e0: cdb5 3e3f ac79 a3bd 3519 1dbd 37c0 3cbc
000002f0: 284f 363f 69c0 3e3e afef 9d3d e868 c3bc
00000300: 2e76 27bd a42e 78bd 50e8 6fbc 75e1 99be
00000310: d8a0 933d 41f8 ccbe 6af3 82bd db63 bbbc
00000320: aea1 8fbd 4c33 4dbd 881b 9ebd 7b24 64bc
00000330: ae82 c9bc 8b72 6fbd 347b da3d 82d1 dabd
00000340: 6763 eabc 8d87 1dbd 14a4 f1bd 6878 873d
00000350: e8a2 2b3d 2094 973c 6908 0bbf 70fc 9f3c
00000360: 2320 cd3d f621 f13d 61ae f0bb a01d b2bb
00000370: 97f7 00bd 76fb 983d e8cc dcbd a0c5 fb3b
00000380: ab72 1ebe 4094 913b 9d4f 8cbb 4054 29bd
00000390: 1a23 3e3d 845f b03d 1b77 d6be a05d 13bf
000003a0: 13ce 373d fa0c cabe 5a92 ca3d d0d7 0f3c
000003b0: f6d5 6c3d 9809 f7bd 39e2 62bd f426 fbbd
000003c0: 473c 3bbe c342 a1b9 bc2f ef3c d644 dabe
000003d0: fea8 7f3d 0868 d53c 00f4 06bc 509b aebc
000003e0: 1f1e 05bf a031 babb c959 97bb b188 4f3d
000003f0: 8b3a febe db62 333d f07a b13c 318e f7bb

fc2.bias f4 [4]
0.025141995 -0.070662245 0.3679666 -0.16165008
00000000: 96f6 cd3c 5eb7 90bd 1e66 bc3e 9987 25be
