src/flatland/flat_game/results/ourmethod_noreg19/rep_learner.pth (torch_old, 312936 bytes, 33 tensors)

representations f4 [6]
1.0782849 0.05682826 -0.039856218 -0.596492 0.31344455 -0.10049665
00000000: 3d05 8a3f c0c4 683d 4640 23bd b3b3 18bf
00000010: ce7b a03e 30d1 cdbd

representations f4 [6]
-0.9753761 0.47449768 -0.25862005 0.35705036 -0.19337349 -0.10379808
00000000: 40b2 79bf 5cf1 f23e d969 84be 4ecf b63e
00000010: b303 46be 1694 d4bd

representations f4 [6]
-0.1032181 -0.018616233 0.599897 0.016091095 -0.31317917 -1.1068627
00000000: 0364 d3bd 1281 98bc da92 193f 79d1 833c
00000010: 0559 a0be adad 8dbf

representations f4 [6]
-0.10219713 -0.5416725 -0.26603064 0.28728417 0.12912166 1.1844354
00000000: bb4c d1bd 0dab 0abf 2b35 88be e916 933e
00000010: 7838 043e 949b 973f

fc1.weight f4 [64, 4]
-0.40366662 2.453392 0.23750874 -1.1714501 0.64536536 -0.5980896 0.5556632 -0.10749972
1.1120958 -2.2160769 -0.7223303 0.27241588 -0.24977614 1.3180965 -2.5182884 -0.022088168
0.2180873 0.5317869 0.26328152 -0.60562384 -0.61209106 0.9446958 0.49598557 -0.5215147
-0.04673051 -0.97524047 0.75878054 -1.8790056 0.47619593 1.4728711 0.46522057 -2.4542446
2.1260533 3.0475 0.5037294 -0.39412117 0.36634013 2.0400882 -0.96334606 -1.2694887
1.6024938 1.5411322 -0.38258356 1.0954037 1.5708035 -1.2182839 -1.0234331 -0.93790895
0.26970103 -0.26420632 0.66472584 2.7561316 0.63987464 -0.18182424 -0.7250701 0.016043866
0.11793232 -0.23861825 0.02041626 0.19951147 -2.1490207 -1.711794 -3.191669 -0.5224733
-2.0478878 -0.6176594 -0.024206014 1.1544863 -1.2476597 -2.0982132 -0.7181334 0.5408566
1.3497648 0.215985 -0.43458068 -0.6122474 -2.116216 1.0671488 1.7855966 1.2556325
-0.04728368 -0.42527005 -1.6967671 0.008195985 0.9557885 0.6544672 2.1773655 0.1098925
0.6605038 -1.3898375 -0.96937025 -1.8479518 -0.63449746 -0.17419472 -0.3906722 1.97531
-0.17714664 -1.1304575 1.418738 -1.6542975 -0.16181353 0.27039126 -0.02411297 -0.12220604
-0.021249793 0.16756935 -0.29164392 0.091796726 -1.7169328 -0.48580313 -0.96341825 0.9961301
-0.963294 -0.68068826 0.9147014 -0.99135816 -3.8083668 -0.9340746 0.49873406 -1.1193935
-0.0020289498 0.013743738 0.37487 -1.5525111 -0.09423148 -0.13077605 0.14201514 0.04149324
-3.3732157 0.48034808 -1.852322 1.0737026 -2.1587465 -0.60044724 1.3105001 -1.0696737
-0.9183308 -0.1952112 1.0994043 -0.88127416 1.231833 -1.7135352 -1.3563374 3.1568377
1.2991531 1.8251649 -1.5727898 1.3800173 -2.1120906 1.2864971 0.60240436 0.9871848
-2.6418488 1.4916862 -1.7209527 -1.0506194 -2.0345693 -1.6327592 1.0339327 2.412739
0.21190304 0.17229515 0.075948894 0.103314996 -0.7143768 -0.36543262 -0.3138168 -1.7333533
0.4180767 -0.36467835 -0.32805037 -0.16118088 1.349176 -1.0674784 1.4872497 0.4895794
-0.46459657 -0.052575152 0.15802936 -0.42633653 0.61545193 -0.32232204 0.5950877 0.095188335
0.039095648 -3.1274707 -0.8068604 1.7721877 1.2450608 0.3155632 0.51075035 -1.3280816
-0.1614537 -0.06679613 0.2575675 -0.047766037 0.47793588 -0.5848417 -0.62116617 -0.22694796
-0.4828777 -1.2146003 1.6428784 1.3444221 -1.518333 1.3293812 1.2883828 -1.111113
-1.9338285 0.82271016 3.1758256 -0.4270226 0.11867402 0.13938518 -0.07381916 -0.112940036
0.44001785 -1.0950845 0.75118446 -0.13104834 -1.5807866 -0.8521004 -2.113421 1.1730958
1.1224997 1.042616 1.2227237 0.5947882 0.80137193 -0.9459977 -0.611832 0.16276732
1.3729328 -2.185247 -0.6700616 0.7200037 -0.75282955 -0.25793922 -0.18452771 -0.6082807
2.557586 0.90368503 -1.349395 -0.37450558 0.23895988 -0.48747557 1.1729741 -0.5148092
1.1635698 -1.727178 -1.2225972 -1.2101262 1.3281163 -0.92562073 -1.1423578 2.5257978
00000000: 64ad cebe 6004 1d40 7e35 733e 14f2 95bf
00000010: aa36 253f 661c 19bf f23f 0e3f d028 dcbd
00000020: 2859 8e3f 34d4 0dc0 a3ea 38bf 187a 8b3e
00000030: 51c5 7fbe 63b7 a83f a32b 21c0 3ff2 b4bc
00000040: 4752 5f3e 3023 083f d6cc 863e 2a0a 1bbf
00000050: 00b2 1cbf 95d7 713f d2f1 fd3e fd81 05bf
00000060: 7e68 3fbd 5ca9 79bf 713f 423f 4183 f0bf
00000070: f4cf f33e 0a87 bc3f 6431 ee3e 5812 1dc0
00000080: 4211 0840 3d0a 4340 69f4 003f 40ca c9be
00000090: ef90 bb3e ce90 0240 d99d 76bf 9b7e a2bf
000000a0: 841e cd3f d243 c53f fee1 c3be 3036 8c3f
000000b0: 1710 c93f baf0 9bbf dbff 82bf cd1a 70bf
000000c0: 4116 8a3e 0d46 87be 792b 2a3f 7664 3040
000000d0: d3ce 233f 2230 3abe 329e 39bf 6d6e 833c
000000e0: 8086 f13d 5858 74be 0040 a73c bc4c 4c3e
000000f0: 8e89 09c0 111c dbbf 4e44 4cc0 cfc0 05bf
00000100: 9810 03c0 ed1e 1ebf b14b c6bc 35c6 933f
00000110: 50b3 9fbf 2049 06c0 97d7 37bf 9475 0a3f
00000120: 18c5 ac3f 2c2b 5d3e 5c81 debe 3fbc 1cbf
00000130: 1570 07c0 5598 883f 6e8e e43f 91b8 a03f
00000140: 88ac 41bd ffbc d9be aa2f d9bf 7448 063c
00000150: 8eae 743f 2a8b 273f f559 0b40 520f e13d
00000160: c716 293f 32e6 b1bf a628 78bf af89 ecbf
00000170: 6d6e 22bf 1a60 32be 3006 c8be f5d6 fc3f
00000180: ee65 35be d5b2 90bf 3599 b53f 05c0 d3bf
00000190: 72b2 25be b970 8a3e 9088 c5bc 2947 fabd
000001a0: 0c14 aebc 4d97 2b3e 5a52 95be ecff bb3d
000001b0: 74c4 dbbf 30bb f8be 94a2 76bf 6202 7f3f
000001c0: 709a 76bf 9641 2ebf df29 6a3f a6c9 7dbf
000001d0: 48bc 73c0 831f 6fbf 125a ff3e 4948 8fbf
000001e0: 21f8 04bb 6a2d 613c f6ee bf3e afb8 c6bf
000001f0: 6ffc c0bd 28ea 05be 6b6c 113e d1f4 293d
00000200: c4e2 57c0 2ff0 f53e e318 edbf 166f 893f
00000210: e728 0ac0 e9b6 19bf 78be a73f 11eb 88bf
00000220: ba17 6bbf 72e5 47be 48b9 8c3f 2f9b 61bf
00000230: b4ac 9d3f 1f55 dbbf 779c adbf a109 4a40
00000240: a64a a63f 019f e93f 2d51 c9bf 68a4 b03f
00000250: 7e2c 07c0 f0ab a43f 2c37 1a3f 25b8 7c3f
00000260: 0d14 29c0 93ef be3f 2e48 dcbf b27a 86bf
00000270: 6236 02c0 41fe d0bf e857 843f 516a 1a40
00000280: 1cfd 583e 246e 303e 188b 9b3d d096 d33d
00000290: 66e1 36bf fc19 bbbe 98ac a0be 85de ddbf
000002a0: 260e d63e 1fb7 babe 38f6 a7be 9a0c 25be
000002b0: cdb1 ac3f 22a3 88bf 335e be3f 27aa fa3e
000002c0: 9adf edbe 0b59 57bd 73d2 213e c848 dabe
000002d0: 428e 1d3f 6507 a5be ab57 183f 1af2 c23d
000002e0: c222 203d 7b28 48c0 678e 4ebf 0cd7 e23f
000002f0: 275e 9f3f 8091 a13e 89c0 023f 94fe a9bf
00000300: 1e54 25be 69cc 88bd e3df 833e 52a6 43bd
00000310: 03b4 f43e 30b8 15bf bf04 1fbf 0c65 68be
00000320: bf3b f7be 0678 9bbf d749 d23f 0616 ac3f
00000330: bc58 c2bf 2a29 aa3f bae9 a43f f338 8ebf
00000340: b187 f7bf 229d 523f ba40 4b40 b5a2 dabe
00000350: 5d0b f33d fdba 0e3e 802e 97bd 1b4d e7bd
00000360: 054a e13e bb2b 8cbf a04d 403f 8931 06be
00000370: 3757 cabf 4023 5abf 4a42 07c0 0128 963f
00000380: 12ae 8f3f 7174 853f 3682 9c3f 0a44 183f
00000390: b626 4d3f e82c 72bf 06a1 1cbf 7aac 263e
000003a0: 43bc af3f 16db 0bc0 2889 2bbf 2a52 383f
000003b0: 70b9 40bf 9c10 84be d5f4 3cbe 49b8 1bbf
000003c0: 7daf 2340 e757 673f fab8 acbf 32bf bfbe
000003d0: e6b1 743e 6696 f9be 0424 963f 89ca 03bf
000003e0: dbef 943f 2b14 ddbf 117e 9cbf 6ae5 9abf
000003f0: b7ff a93f 7bf5 6cbf c838 92bf aca6 2140

fc1.bias f4 [64]
0.17892973 0.49750906 0.15920004 0.42812824 0.045021567 -0.00040008465 0.762338 0.29817995
0.118231006 0.12182017 -0.79035425 0.8126225 -0.7717439 0.16899046 -0.4940974 -0.045537084
0.8884965 0.9115394 -0.042223234 0.2564562 0.45940003 0.46705675 0.20770323 0.43690407
0.5904084 -0.33781752 -0.58882797 0.3725851 0.105280586 0.29220566 0.55340654 -0.26346287
-0.20087297 -0.28998002 0.1456676 -0.054298267 0.07321042 0.58859104 -0.37827417 -0.14626345
-0.37221128 0.58934146 0.28294858 0.6085285 0.4417451 0.2989251 0.52835643 0.3275917
0.09933436 0.4686517 0.5674243 0.18270373 -0.10071592 0.07806825 0.5536862 0.05116256
0.33575937 0.3474641 0.1657477 0.45226562 0.19963627 0.59980863 1.0278484 0.32565483
00000000: 5b39 373e 82b9 fe3e 5605 233e a033 db3e
00000010: 8968 383d 74c2 d1b9 9528 433f 0bab 983e
00000020: 1923 f23d da7c f93d a854 4abf 0708 503f
00000030: 0291 45bf d60b 2d3e 56fa fcbe 1885 3abd
00000040: 8274 633f a55a 693f 45f2 2cbd 3a4e 833e
00000050: 7b36 eb3e 1022 ef3e 28b0 543e e4b1 df3e
00000060: 0125 173f 6bf6 acbe 6ebd 16bf 79c3 be3e
00000070: 599d d73d fb9b 953e 0dac 0d3f 9be4 86be
00000080: a5b1 4dbe 4378 94be e329 153e dc67 5ebd
00000090: 58ef 953d e7ad 163f 27ad c1be 16c6 15be
000000a0: 7a92 bebe 15df 163f a3de 903e 86c8 1b3f
000000b0: 6a2c e23e b60c 993e 5e42 073f 19ba a73e
000000c0: d06f cb3d 1ef3 ef3e b842 113f b016 3b3e
000000d0: 2644 cebd 3fe2 9f3d 61be 0d3f d58f 513d
000000e0: a7e8 ab3e d1e6 b13e c4b9 293e 5c8f e73e
000000f0: 736d 4c3e 0f8d 193f 8990 833f 3bbc a63e

fc2.weight f4 [180, 64]
4.012377 0.7644652 0.93864775 -0.08070301 0.18994905 0.502683 0.3226293 -1.0869067
1.9716705 0.7164456 3.902588 1.2125832 -0.7491387 0.38897058 0.109467655 1.6048695
0.26180723 0.60621107 0.09311679 0.021846429 0.2152574 0.9223416 0.4562185 -0.024984874
-0.35629892 0.1629468 -0.007597265 -0.21527272 0.39490992 1.4469554 -0.45950037 -0.014844148
-0.38540298 1.08387 0.81098115 -0.43625283 -1.4526905 0.018998437 0.79885125 -0.16079082
-0.07690576 0.7827514 0.48905924 1.0529656 0.5740681 0.5365669 0.5593071 -1.1294961
0.24578667 0.6357503 0.3871317 1.2688746 1.519097 0.33703187 0.6227409 -0.79357296
0.5375549 0.9692606 1.7434088 0.5009388 1.1864318 0.008651578 0.4834088 0.39825812
1.6417097 0.58553857 0.825823 0.37275654 -0.03418604 0.37610555 0.8972379 -1.4175066
0.39061972 -1.3143547 0.46629497 1.4087228 -0.70656455 0.2074148 -0.07425961 0.46322447
-0.28685609 -0.19090745 -0.04001749 0.12179452 0.078722894 2.2053027 0.38192734 0.13877457
0.8149565 0.18183284 -0.07111534 -0.45291588 0.28520614 0.38559362 0.072648965 0.088636674
0.027812585 0.37154853 0.70558447 -0.22085328 -0.11355058 0.012052649 0.7319699 -0.46727183
0.064365044 0.25689477 0.50020605 0.8044809 0.05873093 0.66496146 0.16108699 0.2640467
0.30735922 0.43241325 0.358382 0.6449523 1.5251894 0.30541703 0.515935 -0.8919253
1.5279804 0.660262 0.89526534 0.022765733 -0.19264571 0.49566746 0.761472 0.9107312
-1.5947711 0.95740217 0.65978706 -0.42871118 -0.014248755 -0.40808827 1.7622658 -0.428221
7.3343163 -0.5042339 1.9460638 1.447419 0.2837973 0.07217609 -0.06330679 0.61016446
0.29055992 1.2771794 -0.31282848 0.15592383 0.24560043 1.8175533 0.2335103 0.7183631
1.2508979 -0.0681835 -0.088208154 0.106627524 0.4357014 1.4355898 0.0720492 0.030667879
-1.7316296 0.62777436 0.16436522 0.2697896 -0.9949707 -0.7674033 -1.4023908 1.5185106
0.0035294741 0.30445585 0.2984223 1.5076703 0.3044274 0.5408745 1.3182904 0.037322555
0.1867519 0.36355785 1.3611175 -0.082077615 0.34351277 -0.033745453 1.0561929 0.15502982
0.5537156 0.6405206 2.112198 0.4093924 -0.3903675 0.9535824 0.82918644 0.69313896
-0.13720489 0.8100296 0.56079537 -0.27960786 0.34660757 0.33334985 1.4213325 0.31890622
3.1930468 0.46368515 2.3604236 0.58000916 -0.36147672 0.4108618 0.055700913 -1.4614456
-0.21710014 0.16359562 0.6334836 0.6219785 -0.6736836 1.1116173 -0.10181061 0.15806329
1.6357242 0.07018445 0.0419171 -0.86989117 0.5544028 0.52279747 0.3266933 0.069687195
-1.0315001 0.48463535 0.31560284 -0.47484538 2.0094445 0.3464409 -1.0944332 0.56642836
-0.062061965 0.015560315 0.3466787 1.6820271 0.10605802 0.79503953 0.09711595 1.5573593
0.4113042 0.41417876 0.83002275 0.52777845 1.0419303 0.4186897 0.82713485 -1.4646173
0.42271498 0.5437485 0.4614334 0.01563367 2.396684 1.1005648 0.26277754 0.47850385
00000000: 6465 8040 feb3 433f 384b 703f 9f47 a5bd
00000010: 0182 423e d5af 003f ab2f a53e c21f 8bbf
00000020: b35f fc3f fb68 373f 00c4 7940 ed35 9b3f
00000030: 8ec7 3fbf 2727 c73e 9430 e03d 5d6c cd3f
00000040: 990b 863e a630 1b3f 04b4 be3d 48f7 b23c
00000050: 706c 5c3e 941e 6c3f 7995 e93e 14ad ccbc
00000060: d06c b6be 87db 263e 7af2 f8bb 7470 5cbe
00000070: a231 ca3e d635 b93f a243 ebbe df34 73bc
00000080: 8a53 c5be 41bc 8a3f 769c 4f3f 885c dfbe
00000090: c3f1 b9bf 9ca2 9b3c 8481 4c3f 59a6 24be
000000a0: c480 9dbd 6562 483f f965 fa3e 94c7 863f
000000b0: 21f6 123f 735c 093f c02e 0f3f 5493 90bf
000000c0: 80af 7b3e 88c0 223f 2036 c63e 7c6a a23f
000000d0: c571 c23f 718f ac3e f36b 1f3f 9927 4bbf
000000e0: 339d 093f 7621 783f 0528 df3f 863d 003f
000000f0: ffdc 973f 59bf 0d3c 5c81 f73e 7de8 cb3e
00000100: 8b23 d23f dbe5 153f 2369 533f f2d9 be3e
00000110: a906 0cbd e890 c03e 62b1 653f db70 b5bf
00000120: 4fff c73e c63c a8bf 37be ee3e 0751 b43f
00000130: 6ae1 34bf 8c64 543e 6c15 98bd c22b ed3e
00000140: cdde 92be 3e7d 43be 61e9 23bd 686f f93d
00000150: 7839 a13d ae23 0d40 fb8b c33e ec1a 0e3e
00000160: fda0 503f 6332 3a3e eba4 91bd 97e4 e7be
00000170: 8a06 923e 876c c53e fbc8 943d 2587 b53d
00000180: 38d7 e33c 9c3b be3e 2fa1 343f 5d27 62be
00000190: 358d e8bd 7978 453c 6162 3b3f 413e efbe
000001a0: d2d1 833d b687 833e 810d 003f 76f2 4d3f
000001b0: d88f 703d ea3a 2a3f fdf3 243e 2131 873e
000001c0: 305e 9d3e 4565 dd3e d87d b73e 981b 253f
000001d0: 6839 c33f 9f5f 9c3e 5114 043f 3755 64bf
000001e0: dd94 c33f ee06 293f 1c30 653f 347f ba3c
000001f0: eb44 45be 20c8 fd3e d4ef 423f ae25 693f
00000200: 7621 ccbf 4f18 753f cee7 283f 0880 dbbe
00000210: 9c73 69bc f2f0 d0be ed91 e13f c83f dbbe
00000220: b8b2 ea40 7915 01bf 9e18 f93f 0745 b93f
00000230: e14d 913e 0fd1 933d fea6 81bd bd33 1c3f
00000240: 45c4 943e 9d7a a33f 0e2b a0be 7faa 1f3e
00000250: ae7e 7b3e 96a5 e83f 531d 6f3e a5e6 373f
00000260: 6c1d a03f caa3 8bbd 7aa6 b4bd 885f da3d
00000270: 4114 df3e 68c1 b73f 888e 933d 343b fb3c
00000280: 0aa6 ddbf d2b5 203f 5b4f 283e dd21 8a3e
00000290: 66b6 7ebf 8b74 44bf 8b81 b3bf 8e5e c23f
000002a0: c04e 673b a3e1 9b3e cfca 983e 57fb c03f
000002b0: e8dd 9b3e c076 0a3f bdbd a83f 89df 183d
000002c0: e43b 3f3e 4124 ba3e 1939 ae3f 4f18 a8bd
000002d0: e8e0 af3e ac38 0abd 5431 873f 23c0 1e3e
000002e0: 4ec0 0d3f 28f9 233f 412e 0740 e19b d13e
000002f0: 40de c7be fa1d 743f 9045 543f 8e71 313f
00000300: 707f 0cbe 1a5e 4f3f 4990 0f3f c328 8fbe
00000310: 8c76 b13e d5ac aa3e 39ee b53f ad47 a33e
00000320: e15a 4c40 2468 ed3e 2e11 1740 7b7b 143f
00000330: 7a13 b9be 7a5c d23e a426 643d a610 bbbf
00000340: 804f 5ebe 9c85 273e fb2b 223f fc39 1f3f
00000350: 8776 2cbf 7a49 8e3f 1582 d0bd 58db 213e
00000360: 695f d13f ddbc 8f3d 44b1 2b3d 30b1 5ebf
00000370: 58ed 0d3f 0ed6 053f 5844 a73e 29b8 8e3d
00000380: 3208 84bf 2022 f83e b296 a13e ef1e f3be
00000390: bd9a 0040 b460 b13e 6316 8cbf 7301 113f
000003a0: b034 7ebd b1f0 7e3c df7f b13e aa4c d73f
000003b0: f234 d93d b687 4b3f bae4 c63d 8d57 c73f
000003c0: 7796 d23e 3d0f d43e 5f7c 543f 7d1c 073f
000003d0: f95d 853f 7f5e d63e 1cbf 533f 9478 bbbf
000003e0: 196e d83e 1a33 0b3f 0041 ec3e 2f12 803c
000003f0: 4563 1940 4fdf 8c3f c78a 863e 75fe f43e

fc2.bias f4 [180]
0.44367865 0.24446471 0.25091663 0.18929175 0.019646764 -0.015649445 0.46949962 -0.11907864
0.036012363 -0.11987915 0.7412412 -0.13954681 0.121617965 -0.06247883 -0.09578316 -0.20840943
-0.07402766 -0.053058997 0.16348425 -0.107351914 0.04066526 -0.07799795 -0.14387086 0.0050090295
0.26710293 -0.0997175 -0.23652884 -0.054137513 -0.07392302 0.0023962022 0.45100296 0.26134968
0.13307685 0.037384633 0.20127343 0.21934158 0.28452438 0.31564996 0.071142696 0.18047512
-0.07588649 0.322437 0.07696158 0.015294725 -0.15250939 -0.08256048 -0.07169822 -0.18292074
0.018533543 -0.15518013 -0.029697383 0.2595861 -0.09696059 0.07348373 -0.1426165 -0.45123157
-0.09491715 0.04139792 -0.019660773 0.05342486 0.021400744 0.041326005 0.1354331 -0.10753817
-0.060989033 -0.0772873 -0.118572384 -0.17550531 0.014244574 -0.0006268878 0.0058148773 0.052861203
0.5692632 0.15352774 0.14564036 0.3142125 0.21986957 0.14247577 0.357058 -0.075774565
-0.35806477 -0.09142929 -0.065413244 -0.13937402 0.16131218 -0.059113905 -0.1697277 -0.19883092
-0.012697783 -0.17482209 0.024765829 -0.059733972 0.015308487 -0.0686157 -0.13411725 0.013170874
0.4263652 -0.22361897 -0.007333027 -0.16678955 -0.19429037 -0.05505147 0.4392764 -0.10851498
-0.10669051 0.023847513 0.24329194 -0.06585507 0.109371595 0.12898895 0.0013092594 -0.34892175
0.13014475 0.15686432 0.13217035 -0.112830356 -0.16135536 -0.008450357 0.022561278 0.0820203
-0.10399881 -0.21940742 -0.21930094 -0.013156688 0.0015065923 0.26667583 -0.12496255 -0.119765244
-0.19812681 -0.11275754 0.051197995 0.1539324 0.026653187 -0.15682964 0.009042721 -0.022592006
-0.06368056 0.21324542 0.31305054 0.54478395 0.033799786 0.077748075 0.29530978 0.5006145
0.35371405 0.19439948 0.27113533 0.12190461 0.15638049 0.36908337 0.076163225 -0.052439384
0.029510705 -0.1734257 0.029498454 0.35381523 -0.37438586 -0.16332282 -0.1976832 -0.06364853
-0.049747843 0.13439648 -0.10187071 -0.12003364 -0.19591092 -0.15478374 -0.03271077 0.25620753
0.00021531456 -0.21958494 -0.13165487 0.022772647 -0.1591263 0.36579454 0.31296068 0.22883439
0.36156458 0.25847888 0.27030748 0.32931727
00000000: d929 e33e f554 7a3e 2578 803e b2d5 413e
00000010: 40f2 a03c 4433 80bc 4162 f03e 81df f3bd
00000020: b381 133d 3383 f5bd fcc1 3d3f 5ce5 0ebe
00000030: d712 f93d cde9 7fbd f629 c4bd 4869 55be
00000040: d09b 97bd 6454 59bd 6a68 273e 52db dbbd
00000050: 9e90 263d 64bd 9fbd e252 13be c922 a43b
00000060: b7c1 883e b038 ccbd 9e34 72be 4cbf 5dbd
00000070: f464 97bd 9a09 1d3b dce9 e63e a0cf 853e
00000080: 4c45 083e a120 193d 9f1a 4e3e 149b 603e
00000090: 2ead 913e df9c a13e 43b3 913d 78ce 383e
000000a0: 606a 9bbd 7616 a53e 089e 9d3d ba96 7a3c
000000b0: 6c2b 1cbe 7815 a9bd 84d6 92bd 934f 3bbe
000000c0: a8d3 973c 8ae7 1ebe ed47 f3bc 78e8 843e
000000d0: 4693 c6bd a37e 963d 0f0a 12be d307 e7be
000000e0: ec63 c2bd de90 293d a10f a1bc 07d4 5a3d
000000f0: 9d50 af3c 7545 293d f9ae 0a3e f93c dcbd
00000100: a3cf 79bd ce48 9ebd 14d6 f2bd aab7 33be
00000110: 1362 693c ba55 24ba ba8a be3b fd84 583d
00000120: 3cbb 113f 6036 1d3e bf22 153e 76e0 a03e
00000130: 7d25 613e 2be5 113e 4ed0 b63e b22f 9bbd
00000140: 4454 b7be 483f bbbd 61f7 85bd 10b8 0ebe
00000150: 052f 253e 6c21 72bd 19cd 2dbe 559a 4bbe
00000160: 5d0a 50bc 9004 33be b5e1 ca3c 9cab 74bd
00000170: 73d0 7a3c 6386 8cbd 0856 09be a6ca 573c
00000180: 8a4c da3e 5ffc 64be e449 f0bb e1ca 2abe
00000190: 0ef4 46be a67d 61bd d6e8 e03e 1a3d debd
000001a0: 8e80 dabd dc5b c33c 8621 793e 06df 86bd
000001b0: 37fe df3d ae15 043e 759b ab3a dfa5 b2be
000001c0: aa44 053e 0aa1 203e aa57 073e 9a13 e7bd
000001d0: 573a 25be 5e73 0abc 6ed2 b83c 42fa a73d
000001e0: 54fd d4bd 57ac 60be 6d90 60be 268f 57bc
000001f0: d978 c53a bc89 883e 5eec ffbd 7b47 f5bd
00000200: c1e1 4abe 6ded e6bd fdb4 513d 74a0 1d3e
00000210: c957 da3c f397 20be ec27 143c df12 b9bc
00000220: f46a 82bd 025d 5a3e 2948 a03e f676 0b3f
00000230: a571 0a3d 623a 9f3d d832 973e 4628 003f
00000240: 021a b53e a810 473e 40d2 8a3e 20a9 f93d
00000250: 3522 203e 7ff8 bc3e 77fb 9b3d aeca 56bd
00000260: 6fc0 f13c 8296 31be bea6 f13c 4527 b53e
00000270: 81af bfbe 193e 27be 776d 4abe 295a 82bd
00000280: 65c4 4bbd 3b9f 093e 97a1 d0bd 32d4 f5bd
00000290: df9c 48be a17f 1ebe bafb 05bd a22d 833e
000002a0: 10c6 6139 e0da 60be 89d0 06be b48d ba3c
000002b0: 01f2 22be 6c49 bb3e 623c a03e 9053 6a3e
000002c0: fe1e b93e 5857 843e be65 8a3e 469c a83e

conv.weight f4 [5, 1, 34, 34]
-0.071065016 -0.056180857 -0.057046775 -0.07741495 -0.08563156 -0.01000949 -0.069675915 -0.022330388
-0.033702035 -0.10633562 0.020031944 0.12207497 0.14006023 0.0926483 0.06599451 0.016075643
0.0111181475 -0.022443537 0.16128425 0.1413618 0.2961193 0.21537027 0.18187338 0.22789723
0.26159683 0.24599977 0.30686706 0.32120177 0.2694156 0.24299866 0.119911715 0.2296235
0.23347469 0.18086071 -0.010179358 -0.01361232 -0.06748619 -0.026875688 -0.0783181 -0.016548641
-0.040519472 -0.021711828 -0.03859451 -0.082490675 -0.053529836 0.12575117 0.16228501 0.06792087
0.06697318 0.076790094 0.04097513 -0.01548328 0.16819388 0.14081725 0.32474086 0.19256659
0.15926859 0.20094936 0.25407282 0.22344494 0.19766587 0.336577 0.24345775 0.22514811
0.15390705 0.23871915 0.21963596 0.23767754 0.01297515 -0.004286104 -0.009556108 0.008970419
-0.083253175 -0.051769763 -0.07115118 -0.01331307 -0.04571045 -0.03643855 0.09735957 0.16123971
0.09708693 0.088589616 0.074785985 0.09532631 0.07461537 0.02895988 0.16099826 0.15391901
0.30431882 0.24903679 0.29524684 0.2997751 0.21615276 0.27688602 0.29087475 0.35224888
0.29867077 0.3390355 0.2692623 0.31561232 0.24801685 0.24917114 0.027726306 0.0027445056
0.0011255215 0.037880816 0.052336354 -0.04930426 -0.07112075 -0.09002218 -0.19006777 -0.1457234
0.053153686 0.16363958 0.05842232 0.09683013 0.058343906 0.01928365 0.062379 0.103472546
0.09518774 0.18288395 0.1973505 0.27927125 0.35753974 0.3275471 0.23895335 0.2900508
0.26227343 0.29191548 0.3995528 0.43601635 0.3610312 0.31371543 0.1860011 0.2142877
-0.044689182 -0.06209422 -0.03700457 -0.047692467 -0.03588391 -0.11949993 -0.023416713 -0.034650803
-0.07407831 -0.04424564 0.13149148 0.20545109 0.26441976 0.26713818 0.11355836 0.045583874
0.038431965 0.03498739 0.13000539 0.15655701 0.17099077 0.14201811 0.09091158 0.10756829
0.20249094 0.26404727 0.30464384 0.3301218 0.23478784 0.29680684 0.21369663 0.21629316
0.28823316 0.2681066 0.016748311 0.03140922 0.07449216 -0.036641825 -0.032907303 -0.05975903
0.009841186 -0.043752138 0.003513568 0.030532068 0.13594264 0.24778901 0.27087036 0.26661533
0.11533616 0.072181486 0.093224175 0.1082795 0.04335134 0.12518711 0.17714162 0.17403813
0.16327696 0.21262413 0.23215942 0.24976425 0.3708947 0.2735537 0.43675077 0.39513162
0.28097507 0.2274992 0.38550416 0.34109885 0.00038800656 0.06890876 0.12323119 0.09617373
0.10558821 0.076718286 0.10344914 0.054260377 0.051601883 -0.007979478 0.13879026 0.14673609
0.23954551 0.35816145 0.10088085 0.09210432 0.07100197 0.10075573 0.01978542 0.11587391
0.17166439 0.17677176 0.17817676 0.16468197 0.25181723 0.3609797 0.3766177 0.36238402
0.44927272 0.41634998 0.39110768 0.37789968 0.4029547 0.4403722 0.045358885 0.095972575
0.103946425 0.18596151 0.14941932 0.07631018 0.0570884 0.111245215 0.14426865 0.10404785
0.17615175 0.11349422 0.27401656 0.22081876 0.076022364 0.15614729 0.07383813 0.020109259
00000000: 898a 91bd e61d 66bd e1a9 69bd bb8b 9ebd
00000010: 995f afbd d8fe 23bc 3fb2 8ebd 38ee b6bc
00000020: 250b 0abd 7dc6 d9bd 081a a43c 7102 fa3d
00000030: f36b 0f3e 64be bd3d 2128 873d 11b1 833c
00000040: e428 363c 82db b7bc b327 253e 26c1 103e
00000050: f39c 973e 068a 5c3e 043d 3a3e e45d 693e
00000060: 05f0 853e 5de7 7b3e ae1d 9d3e 8f74 a43e
00000070: d7f0 893e a4d4 783e 4694 f53d 6c22 6b3e
00000080: fd13 6f3e 8d33 393e 52c7 26bc 3506 5fbc
00000090: 3336 8abd 672a dcbc 3d65 a0bd 0491 87bc
000000a0: bff7 25bd 01dd b1bc 4715 1ebd dff0 a8bd
000000b0: 1a42 5bbd eac4 003e 0b2e 263e 191a 8b3d
000000c0: 3c29 893d 2044 9d3d 8ad5 273d 95ad 7dbc
000000d0: 043b 2c3e 6632 103e 6f44 a63e 2d30 453e
000000e0: 4e17 233e abc5 4d3e d515 823e c0ce 643e
000000f0: ec68 4a3e d253 ac3e fd4c 793e 3a8d 663e
00000100: cf99 1d3e cb72 743e 40e8 603e be61 733e
00000110: b995 543c 7272 8cbb 3991 1cbc aaf8 123c
00000120: a480 aabd 880c 54bd b6b7 91bd 101f 5abc
00000130: e13a 3bbd 9740 15bd 7464 c73d 061c 253e
00000140: 83d5 c63d 796e b53d 6529 993d 713a c33d
00000150: f1cf 983d 453d ed3c badc 243e f29c 1d3e
00000160: adcf 9b3e 8003 7f3e 982a 973e 1f7c 993e
00000170: 2657 5d3e 01c4 8d3e 89ed 943e f759 b43e
00000180: 60eb 983e 1096 ad3e c0dc 893e f097 a13e
00000190: 21f8 7d3e b826 7f3e 4722 e33c 2add 333b
000001a0: 3c86 933a ea28 1b3d a55e 563d 44f3 49bd
000001b0: c1a7 91bd 8c5d b8bd 20a1 42be 8438 15be
000001c0: aeb7 593d 2291 273e 3e4c 6f3d e04e c63d
000001d0: 05fa 6e3d bff8 9d3c 1f81 7f3d 6ae9 d33d
000001e0: caf1 c23d ee45 3b3e 4016 4a3e a4fc 8e3e
000001f0: 730f b73e 41b4 a73e 30b0 743e 8a81 943e
00000200: b448 863e f275 953e 2f92 cc3e 893d df3e
00000210: 15d9 b83e 4f9f a03e 1377 3e3e 3c6e 5b3e
00000220: 010c 37bd 8256 7ebd 1b92 17bd 2d59 43bd
00000230: 02fb 12bd 61bc f4bd 68d4 bfbc 00ee 0dbd
00000240: 5eb6 97bd eb3a 35bd b4a5 063e c561 523e
00000250: 0762 873e 56c6 883e 4991 e83d 28b6 3a3d
00000260: d66a 1d3d f04e 0f3d 2220 053e 7b50 203e
00000270: 3418 2f3e 326d 113e da2f ba3d c34c dc3d
00000280: c959 4f3e 3431 873e 47fa 9b3e b905 a93e
00000290: 396c 703e 11f7 973e 4ad3 5a3e f47b 5d3e
000002a0: 4c93 933e 4545 893e c133 893c f4a6 003d
000002b0: 588f 983d bd15 16bd cfc9 06bd e2c5 74bd
000002c0: ed3c 213c 7135 33bd e443 663b 631e fa3c
000002d0: 8c34 0b3e 67bc 7d3e 85af 8a3e ce81 883e
000002e0: 5d35 ec3d e3d3 933d 51ec be3d a4c1 dd3d
000002f0: 2d91 313d 0d31 003e 9d64 353e 0d37 323e
00000300: 1332 273e 24ba 593e 33bb 6d3e 33c2 7f3e
00000310: e9e5 bd3e 3b0f 8c3e cc9d df3e b14e ca3e
00000320: f7db 8f3e 8df5 683e cd60 c53e 82a4 ae3e
00000330: 5c6d cb39 0920 8d3d a260 fc3d bcf6 c43d
00000340: a23e d83d 7a1e 9d3d 25dd d33d 2140 5e3d
00000350: 7f5c 533d 5bbc 02bc 091f 0e3e fc41 163e
00000360: 6b4b 753e f060 b73e 9e9a ce3d 31a1 bc3d
00000370: 7b69 913d 0559 ce3d 0815 a23c 4d4f ed3d
00000380: cac8 2f3e a803 353e f873 363e 64a2 283e
00000390: 30ee 803e 55d2 b83e 09d4 c03e 668a b93e
000003a0: 1307 e63e d32b d53e 443f c83e 117c c13e
000003b0: 1450 ce3e 7778 e13e 3dca 393d 458d c43d
000003c0: dde1 d43d b26c 3e3e 6101 193e 8348 9c3d
000003d0: 87d5 693d 88d4 e33d 29bb 133e 0a17 d53d
000003e0: 2061 343e a86f e83d e64b 8c3e 501e 623e
000003f0: 9db1 9b3d 13e5 1f3e 7238 973d 2cbc a43c

conv.weight f4 [5, 1, 10, 10]
-0.102295615 -0.08337335 -0.050058484 -0.061154254 -0.09189039 -0.074014686 -0.03916376 -0.078723975
0.06482152 0.043384258 -0.03152172 -0.041407526 -0.07150022 0.002208164 0.0006569899 -0.009748772
0.027138634 -0.13597156 0.024748243 -0.073190674 -0.04430233 -0.15704836 -0.05158688 -0.18610825
-0.058342136 -0.13143891 -0.10636126 0.046380304 -0.14481394 0.057732113 -0.18147232 -0.15157373
-0.17967592 -0.065306 -0.085180156 -0.058358647 -0.124649264 -0.021474713 -0.046588104 -0.07755901
-0.0063929283 -0.11935175 -0.081883 -0.15743579 -0.030447967 -0.03597934 -0.07018578 -0.13208443
-0.1279546 -0.08588823 -0.09850334 -0.09864265 -0.057685304 -0.014871583 -0.034607645 -0.13001077
-0.07126034 -0.059661433 -0.0104344785 -0.089863025 -0.0004402129 -0.06281123 -0.016630735 -0.05156609
-0.107473455 -0.15881783 0.018274475 -0.17795825 -0.0708997 -0.15065822 -0.03887543 -0.121268705
-0.09021907 -0.14709926 -0.15560801 -0.10644177 -0.1505992 -0.12701558 -0.049346425 -0.059024606
-0.052692056 -0.018035522 -0.10904494 -0.11179802 -0.03823694 -0.057276454 -0.11152889 0.00064378366
-0.04260663 -0.05374431 -0.03619818 -0.09389694 -0.082069464 -0.0009982756 -0.04841875 -0.13194285
-0.100276545 -0.020385066 -0.1585534 -0.045417026 -0.15391538 -0.0553802 -0.06578498 0.033316858
-0.116335936 -0.061069824 -0.032007035 -0.0815131 -0.036522154 -0.062078886 -0.08243428 -0.12799989
0.031095156 0.059484407 -0.014412945 0.052604213 0.009700805 -0.013699108 -0.11506849 0.0010269912
0.037612543 -0.033492696 -0.027416106 -0.10203397 0.03022736 -0.031988904 0.013033167 -0.008834268
-0.0828324 -0.039700706 -0.03635987 -0.12701108 -0.13311635 -0.14233372 0.114026025 -0.03855462
-0.06462455 0.03135771 -0.09834452 0.06059009 -0.13361579 -0.109896384 -0.05660661 -0.101554684
0.01407777 0.08358197 0.03939813 -0.06546706 0.022409104 -0.008574144 -0.11585295 0.0071108383
0.03227334 -0.07158144 0.06426464 -0.0058493903 -0.017385647 0.043310016 -0.009421206 0.030293968
-0.016003046 -0.0348927 0.05089126 0.001235732 0.07039468 0.036605395 -0.011725832 -0.09637665
0.012302691 -0.076155245 -0.13124953 -0.021980245 0.019192344 0.07386671 0.078157246 0.01426646
-0.026360642 0.002953195 0.05155211 -0.050959207 0.016552376 -0.11683261 0.04048042 0.004132735
-0.022192962 -0.15293762 0.014783847 -0.032186538 -0.117985055 -0.029745545 -0.06271921 0.004123402
-0.009883978 -0.1497916 -0.04820793 -0.027660303 0.009700195 -0.018712321 -0.032067567 -0.09152794
0.23996453 0.13870016 0.18034957 0.16542017 0.19553594 0.17672396 0.23113774 0.2190839
0.17836297 0.12611216 0.14519195 0.13238281 0.18371715 0.20369793 0.2053273 0.18186964
0.13591063 0.11616295 0.23351178 0.119148746 0.19597778 0.13195194 0.13825655 0.20651224
0.27833068 0.2594999 0.21123189 0.12314269 0.10815166 0.11665737 0.19877751 0.16988146
0.22000962 0.20778333 0.11603591 0.09756951 0.1752141 0.2528063 0.2513767 0.19050002
0.16279562 0.14285651 0.19894254 0.16530792 0.2494944 0.095188364 0.102673426 0.20626825
0.122534424 0.2343389 0.20306252 0.30497044 0.28577477 0.13775124 0.1836029 0.11278
00000000: 5d80 d1bd a6bf aabd 200a 4dbd e27c 7abd
00000010: 0731 bcbd 0395 97bd 2e6a 20bd 093a a1bd
00000020: 25c1 843d b1b3 313d eb1c 01bd f09a 29bd
00000030: b56e 92bd d8b6 103b d939 2c3a 50b9 1fbc
00000040: d751 de3c 213c 0bbe d4bc ca3c fee4 95bd
00000050: 5c76 35bd 49d1 20be c44c 53bd 2993 3ebe
00000060: 2af8 6ebd ec97 06be efd3 d9bd 46f9 3d3d
00000070: 1b4a 14be 8278 6c3d e1d3 39be 2536 1bbe
00000080: f7fc 37be 27bf 85bd ef72 aebd 7a09 6fbd
00000090: 1d48 ffbd bdeb afbc 2bd3 3ebd 42d7 9ebd
000000a0: c57b d1bb b16e f4bd 46b2 a7bd d936 21be
000000b0: 046e f9bc 135f 13bd 90bd 8fbd 2441 07be
000000c0: 8806 03be 2be6 afbd 1ebc c9bd 2805 cabd
000000d0: 6d47 6cbd f1a7 73bc bfc0 0dbd 8b21 05be
000000e0: f1f0 91bd 8c5f 74bd 60f5 2abc 1b0a b8bd
000000f0: 60cc e6b9 2da3 80bd 2e3d 88bc f736 53bd
00000100: 0b1b dcbd 24a1 22be 5ab4 953c b03a 36be
00000110: dd33 91bd 2646 1abe d83b 1fbd ba5b f8bd
00000120: c7c4 b8bd 30a1 16be b557 1fbe 25fe d9bd
00000130: ad36 1abe 5f10 02be 7a1f 4abd c9c3 71bd
00000140: a0d3 57bd 3bbf 93bc f452 dfbd 5cf6 e4bd
00000150: 569e 1cbd b79a 6abd 4269 e4bd 97c3 283a
00000160: 4a84 2ebd fe22 5cbd 8b44 14bd 0a4d c0bd
00000170: 0914 a8bd 92d8 82ba bd52 46bd 071c 07be
00000180: ca5d cdbd 95fe a6bc d35b 22be 3407 3abd
00000190: fe9b 1dbe 59d6 62bd 47ba 86bd 4277 083d
000001a0: 8941 eebd 5a24 7abd cf19 03bd 57f0 a6bd
000001b0: 4198 15bd 6e46 7ebd 4ed3 a8bd 6712 03be
000001c0: 45bb fe3c eca5 733d 4624 6cbc 8477 573d
000001d0: 20f0 1e3c 3972 60bc 07a9 ebbd 1b9c 863a
000001e0: 9c0f 1a3d a32f 09bd be97 e0bc 30f7 d0bd
000001f0: 5e9f f73c cc06 03bd 1189 553c 9bbd 10bc
00000200: 09a4 a9bd 359d 22bd 16ee 14bd 310f 02be
00000210: a74f 08be eebf 11be 7a86 e93d 73eb 1dbd
00000220: e059 84bd f170 003d da68 c9bd 502d 783d
00000230: 94d2 08be 5b11 e1bd 55dc 67bd e7fb cfbd
00000240: 72a6 663c 062d ab3d ef5f 213d 9813 86bd
00000250: 4c93 b73c 917a 0cbc 5044 edbd 0902 e93b
00000260: 0d31 043d 4a99 92bd 2e9d 833d 3eac bfbb
00000270: 586c 8ebc d865 313d 675b 1abc 0e2b f83c
00000280: d218 83bc a6eb 0ebd 5b73 503d 49f8 a13a
00000290: 162b 903d 8aef 153d b41d 40bc 1f61 c5bd
000002a0: 3a91 493c 48f7 9bbd 4766 06be ea0f b4bc
000002b0: 4339 9d3c 6e47 973d e810 a03d dfbd 693c
000002c0: 46f2 d7bc 648a 413b 4e28 533d 9aba 50bd
000002d0: d998 873c ef45 efbd ccce 253d e56b 873b
000002e0: 04ce b5bc ae9b 1cbe f337 723c 08d6 03bd
000002f0: 26a2 f1bd eeac f3bc ee72 80bd 9a1d 873b
00000300: 69f0 21bc f862 19be ae75 45bd dc97 e2bc
00000310: 91ed 1e3c 954a 99bc 4859 03bd 0073 bbbd
00000320: 43b9 753e 6a07 0e3e 8fad 383e e863 293e
00000330: 933a 483e 20f7 343e 5faf 6c3e 8857 603e
00000340: c8a4 363e 8c23 013e 33ad 143e 5c8f 073e
00000350: 5920 3c3e 3196 503e 5241 523e 093c 3a3e
00000360: 282c 0b3e d7e6 ed3d b61d 6f3e 4204 f43d
00000370: 66ae 483e 691e 073e 2093 0d3e f277 533e
00000380: 5c81 8e3e 2cdd 843e 2c4d 583e 3c32 fc3d
00000390: 9e7e dd3d 0fea ee3d 558c 4b3e 68f5 2d3e
000003a0: 344a 613e 27c5 543e 3ca4 ed3d 86d2 c73d
000003b0: 536b 333e d46f 813e 72b4 803e 7012 433e
000003c0: e5b3 263e fa48 123e 98b7 4b3e 7b46 293e
000003d0: 767b 7f3e 1ef2 c23d 7246 d23d fc37 533e
000003e0: 54f3 fa3d 89f6 6f3e 9fef 4f3e 1625 9c3e
000003f0: 1251 923e a90e 0d3e 6602 3c3e 33f9 e63d

conv.bias f4 [5]
-0.11850792 -0.122660846 0.22581959 -0.04393859 0.19123101
00000000: 48b4 f2bd 9c35 fbbd 403d 673e f3f8 33bd
00000010: 10d2 433e

fc1.weight f4 [64, 180]
-0.0031734484 0.07455126 0.08132829 -0.021221278 -0.009250879 -0.017261976 0.10919328 0.011544824
-0.08186542 -0.10460071 -0.01114215 0.023618318 0.0425218 0.009468429 0.061516296 -0.040579673
-0.047028717 0.05815827 0.018533755 0.063503765 0.0678915 -0.0034024525 -0.06204908 0.050861053
0.105341285 -0.048843283 -0.00026392846 -0.09695016 -0.06498454 -0.0013272837 -0.0021492022 0.09374624
0.09169593 0.02468588 -0.0017671102 0.049613204 0.039415188 -0.06222926 -0.030670162 0.05975675
0.015053719 0.00435929 0.054037787 -0.018656168 -0.049615245 -0.096626066 -0.005493544 -0.009775326
-0.03760004 -0.11192073 -0.0035621955 -0.11763182 -0.025909135 -0.02408126 -0.030064505 -0.042888388
0.0067721186 -0.029701384 -0.05584902 -0.04505963 -0.023734909 -0.041998494 -0.10397866 -0.055020582
-0.0016510439 0.07366315 -0.06614444 0.016933061 0.043822065 0.04684309 -0.018901438 -0.011148028
0.06584325 -0.033303946 -0.057126056 -0.03704006 0.0011786744 0.046515055 -0.027599532 -0.052128807
-0.023171933 0.010062587 0.028383628 0.02782531 0.010425858 -0.05795292 -0.005978762 0.02047557
-0.05775497 -0.025388088 -0.054009877 -0.08683804 -0.015158313 -0.063196525 -0.045395948 0.055757187
0.008343719 -0.068541475 -0.107725516 -0.06791898 0.06749223 -0.05723723 -0.05835753 -0.07374402
-0.04172518 0.008483909 0.06633065 0.012401469 0.002491265 -0.070682846 -0.027904421 0.009392041
-0.08108812 -0.12707944 -0.043787636 -0.08269026 -0.007414155 0.019643841 -0.01909492 0.008730944
-0.07336315 -0.0709631 -0.07382624 -0.011337049 -0.08406562 -0.05195563 -0.012183368 -0.023685401
-0.07444946 -0.044850424 -0.0803509 -0.10544454 -0.026540613 -0.04526243 -0.070980005 0.017397339
-0.017377181 -0.079409555 -0.07638967 -0.0009174968 -0.08572195 -0.058545664 -0.060032606 -0.11242404
-0.0044745654 0.050402828 -0.022636168 -0.06814824 -0.004829794 -0.018388852 -0.024654496 0.032918252
0.009921341 -0.10207937 0.060823463 -0.049734347 0.0030559525 0.016373146 -0.061099194 -0.025067845
-0.06685008 0.023663402 -0.0679715 -0.03577815 -0.03865542 0.014069515 -0.015261606 -0.010305792
-0.07001735 -0.120927595 -0.028106196 -0.07446582 -0.0840579 -0.046750247 -0.03042413 -0.040283464
0.041602723 -0.03343702 -0.049014367 -0.06202805 -0.05691902 -0.0072813574 -0.004387265 -0.01249142
0.04496427 -0.046598785 -0.057984035 -0.064462796 0.07500264 0.10925531 -0.0039691776 0.036563702
0.06747914 0.1461432 0.12516974 0.1508928 0.02193662 -0.04524233 -0.04122507 -0.013537462
0.043335564 0.06074664 0.016623821 -0.07197068 -0.05757625 -0.03757533 0.03552612 0.049942035
0.055421345 -0.07026569 0.06343114 0.06811383 0.06624912 0.031661067 0.012530084 0.041611873
-0.04354971 -0.050790116 0.009029746 -0.057331253 0.027118392 0.06706106 -0.03902875 0.060997568
0.08778383 -0.0635653 0.013936639 -0.031600397 -0.049872078 -0.023170184 0.023808558 -0.033806402
-0.017293504 -0.04342998 0.008561999 -0.0012213403 0.00800835 0.049390636 -0.043986302 0.050233617
-0.036096588 -0.025333524 0.044102605 -0.04520372 -0.08156092 -0.032339174 0.059609957 0.0076907724
-0.04458023 0.055246346 -0.048441574 0.024687558 -0.23322141 -0.23346528 -0.21969843 -0.11854061
00000000: a1f9 4fbb 55ae 983d 728f a63d 3fd8 adbc
00000010: 0091 17bc fd68 8dbc baa0 df3d 8026 3d3c
00000020: 0fa9 a7bd e638 d6bd 908d 36bc 347b c13c
00000030: 572b 2e3d 7821 1b3c 83f8 7b3d df36 26bd
00000040: 2fa1 40bd 5e37 6e3d 1ad4 973c 430e 823d
00000050: b30a 8b3d aefb 5ebb 2d27 7ebd ae53 503d
00000060: 2cbd d73d e50f 48bd e15f 8ab9 ce8d c6bd
00000070: 9d16 85bd 40f8 adba a1d9 0cbb 07fe bf3d
00000080: 13cb bb3d 0b3a ca3c 619e e7ba 3737 4b3d
00000090: d271 213d 1ce4 7ebd fe3f fbbc 7ec3 743d
000000a0: e0a3 763c 60d8 8e3b ba56 5d3d d2d4 98bc
000000b0: 5b39 4bbd e3e3 c5bd 3003 b4bb b028 20bc
000000c0: 8002 1abd b236 e5bd b973 69bb f4e8 f0bd
000000d0: 653f d4bc 1046 c5bc d649 f6bc bcab 2fbd
000000e0: a6e8 dd3b 5150 f3bc f1c1 64bd 7290 38bd
000000f0: b66f c2bc 9d06 2cbd c4f2 d4bd 435d 61bd
00000100: d767 d8ba b5dc 963d bc76 87bd 34b7 8a3c
00000110: c47e 333d 8ade 3f3d 30d7 9abc 38a6 36bc
00000120: d3d8 863d b869 08bd 03fd 69bd 51b7 17bd
00000130: c07d 9a3a 9286 3e3d 6a18 e2bc 0485 55bd
00000140: 11d3 bdbc 8ddd 243c c884 e83c e8f1 e33c
00000150: 38d1 2a3c 0b60 6dbd 7ee9 c3bb 62bc a73c
00000160: 7a90 6cbd aefa cfbc 7639 5dbd 24d8 b1bd
00000170: 935a 78bc 2e6d 81bd 1af1 39bd a661 643d
00000180: 18b4 083c 795f 8cbd 329f dcbd 1b19 8bbd
00000190: 5e39 8a3d 9671 6abd 4e08 6fbd 1b07 97bd
000001a0: 06e8 2abd 1800 0b3c 5dd8 873d 882f 4b3c
000001b0: 7e44 233b 2bc2 90bd d097 e4bc 13e1 193c
000001c0: 8711 a6bd 1d21 02be aa5a 33bd 8359 a9bd
000001d0: 71f2 f2bb 1fec a03c f36c 9cbc 3c0c 0f3c
000001e0: 6b3f 96bd 1a55 91bd 3632 97bd 08bf 39bc
000001f0: 992a acbd 6dcf 54bd c09c 47bc e307 c2bc
00000200: f578 98bd 14b5 37bd 038f a4bd 4ff3 d7bd
00000210: b36b d9bc 1965 39bd f75d 91bd dd84 8e3c
00000220: 975a 8ebc 7aa1 a2bd 3072 9cbd 2b84 70ba
00000230: fd8e afbd 94cd 6fbd c0e4 75bd 933e e6bd
00000240: 609f 92bb 3273 4e3d 7c6f b9bc 4e91 8bbd
00000250: 4043 9ebb 38a4 96bc 3af8 c9bc 4ad5 063d
00000260: 1f8d 223c fd0e d1bd 0622 793d 3eb6 4bbd
00000270: 6046 483b fa20 863c 2643 7abd 155b cdbc
00000280: b2e8 88bd c0d9 c13c a434 8bbd 1c8c 12bd
00000290: 2555 1ebd d383 663c d10b 7abc a0d9 28bc
000002a0: 4265 8fbd e3a8 f7bd f73e e6bc 8981 98bd
000002b0: 8c26 acbd 307d 3fbd 063c f9bc 4600 25bd
000002c0: 9e67 2a3d 42f5 08bd 4ac3 48bd 2011 7ebd
000002d0: eb23 69bd 7498 eebb 0cc3 8fbb d0a8 4cbc
000002e0: 742c 383d 5ede 3ebd ab80 6dbd 1205 84bd
000002f0: fc9a 993d 3fc1 df3d e00f 82bb d2c3 153d
00000300: 8132 8a3d 90a6 153e 7f2c 003e a483 1a3e
00000310: 6db4 b33c 0550 39bd 9edb 28bd 3bcc 5dbc
00000320: a280 313d 78d1 783d ae2e 883c 5d65 93bd
00000330: 13d5 6bbd 97e8 19bd d683 113d 0590 4c3d
00000340: 7e01 633d 75e7 8fbd 2fe8 813d 447f 8b3d
00000350: 9ead 873d 09af 013d fb4a 4d3c 3671 2a3d
00000360: 2e61 32bd 4c09 50bd 80f1 133c 2dd4 6abd
00000370: 6427 de3c 4f57 893d 9cdc 1fbd 96d8 793d
00000380: 02c8 b33d 862e 82bd 8056 643c 6b6f 01bd
00000390: aa46 4cbd 66cf bdbc 2a0a c33c 9578 0abd
000003a0: 1bab 8dbc a2e3 31bd a047 0c3c 6115 a0ba
000003b0: 7435 033c d64d 4a3d fb2a 34bd c4c1 4d3d
000003c0: 04da 13bd 4088 cfbc efa4 343d 8927 39bd
000003d0: 6909 a7bd 1576 04bd 9229 743d e002 fc3b
000003e0: c299 36bd fe49 623d ac6a 46bd 903d ca3c
000003f0: 98d1 6ebe 8611 6fbe a0f8 60be 6bc5 f2bd

fc1.bias f4 [64]
-0.023684913 0.012154599 -0.13148992 0.21422313 -0.001264751 0.04740178 0.25577414 -0.055065397
0.06964152 -0.080564186 -0.022188423 0.24092051 -0.016502727 -0.012765715 -0.024443887 -0.022142097
-0.08473587 0.0022172055 0.08158311 -0.06712126 -0.12863587 0.002319187 0.026597 -0.06456067
-0.05479378 0.0053891786 -0.06354747 -0.1025561 -0.042546015 -0.07407251 -0.09534536 -0.07318708
-0.030378085 -0.034965593 -0.065190375 -0.020477824 0.0007434711 0.13684994 -0.082621515 -0.08334118
-0.104330264 -0.047894277 -0.07046366 -0.1004201 -0.08690969 -0.02614387 0.07460542 -0.033640098
-0.0071705133 -0.06670843 -0.025341563 -0.11461656 0.13865054 -0.035758976 -0.012385519 0.028576136
0.010721157 -0.009278832 0.020123381 0.0003021747 0.05047346 -0.02547331 -0.079714105 0.018881015
00000000: dd06 c2bc 1524 473c 4ba5 06be 4f5d 5b3e
00000010: 00c6 a5ba 5e28 423d d4f4 823e 418c 61bd
00000020: 37a0 8e3d d6fe a4bd 7fc4 b5bc deb3 763e
00000030: ba30 87bc 4a27 51bc 8c3e c8bc 5863 b5bc
00000040: 008a adbd 894e 113b 0c15 a73d df76 89bd
00000050: 1fb9 03be 80fd 173b f4e1 d93c 6238 84bd
00000060: 716f 60bd b597 b03b 2d25 82bd ef08 d2bd
00000070: bb44 2ebd 54b3 97bd 6e44 c3bd 1ce3 95bd
00000080: 76db f8bc 1538 0fbd 8882 85bd 1cc1 a7bc
00000090: 80e5 423a 6422 0c3e 7835 a9bd c8ae aabd
000000a0: 1bab d5bd ca2c 44bd 404f 90bd 0ea9 cdbd
000000b0: b5fd b1bd ab2b d6bc baca 983d 33ca 09bd
000000c0: a0f6 eabb 6e9e 88bd 1c99 cfbc 16bc eabd
000000d0: 68fa 0d3e 0178 12bd a2ec 4abc 8018 ea3c
000000e0: cba7 2f3c 3e06 18bc cad9 a43c 346d 9e39
000000f0: 42bd 4e3d 67ad d0bc 2641 a3bd 5cac 9a3c

fc2.weight f4 [4, 64]
0.152091 0.06026095 0.046922795 0.27125174 0.009411514 0.07773055 0.28539726 0.15769862
0.10259628 0.06820704 0.1518881 0.29816258 0.0019321556 0.14027256 -0.07372494 -0.020878002
0.16328353 -0.036763813 0.19326033 0.054553088 -0.04546795 0.00761909 0.056870416 0.14143944
0.17636625 0.025717093 0.054400276 -0.033905238 0.009677192 -0.012197044 0.016232176 -0.025773678
-0.055638544 0.03451449 0.062810816 -0.035230156 -0.09305525 0.2513066 0.086340785 -0.016832104
0.08114871 -0.052883733 -0.028014913 0.025080709 0.16455705 0.012351404 0.16642848 0.041764706
0.07208653 0.030101277 0.046412837 -0.038912717 0.24978323 -0.004303467 0.0461875 0.19252351
-0.018824518 0.017216071 -0.047783773 0.0002896279 0.08837524 0.0475758 -0.04078364 -0.104134515
0.022212137 -0.1576706 0.04220769 -0.57738674 -0.11445457 0.057676062 -0.60186625 0.04866121
-0.08396684 -0.07554904 0.10546656 -0.62922186 0.14609148 0.0064749797 0.04218787 0.112984374
0.019194957 0.117595516 -0.40868106 0.012738917 0.051651053 -0.039414953 -0.06221278 -0.10649422
-0.061858945 0.021750705 0.12969737 0.16233364 -0.027931005 -0.0029298686 0.0050791297 0.052717324
-0.035701066 0.17129628 -0.087623246 0.029856892 0.10130042 -0.53022766 -0.0025252474 -0.037420396
-0.09337538 -0.0062549007 0.12029213 0.03811432 -0.023729745 0.029485665 -0.35216072 -0.07879632
-0.032697305 0.07475829 -0.1307642 0.082267724 -0.5276249 -0.047520604 0.013166616 -0.40753812
0.125178 -0.03401234 -0.26155904 0.0744796 -0.12136912 -0.052380722 0.02771698 0.079439744
0.01437243 0.06362533 0.008797087 -0.17246829 -0.063375756 0.048614874 -0.17941335 0.02897193
0.0582712 0.05972736 -0.005121635 -0.18779431 -0.16065316 -0.090338446 0.11140677 0.038419917
0.02510387 -0.17362735 -0.121799745 0.06523487 -0.13935913 0.06029244 0.071976066 -0.049549185
0.019562433 -0.011874887 -0.04255981 -0.059322778 0.057091128 0.15766902 -0.04896608 0.022541724
0.016810695 -0.07741711 -0.0024052418 0.1436436 0.12396777 -0.15805742 0.09511601 0.011558316
0.06218061 -0.10806144 0.026251227 -0.11553424 -0.007173639 -0.013842556 -0.10477764 0.13747267
0.01425688 0.044580616 0.17627645 -0.019835547 -0.15726076 0.10286392 0.014714728 -0.12121907
-0.07888785 0.12833951 0.13035046 -0.025756964 0.11974862 0.05006965 -0.052349575 0.122146174
-0.092738606 -0.046450302 -0.08428493 -0.58855766 -0.048805296 -0.0069907904 -0.6099393 -0.12567876
0.03237407 -0.03803941 -0.18933514 -0.6381507 0.027561497 -0.0701882 0.11387476 0.029215842
0.037196286 -0.022571178 -0.41472867 -0.07571914 -0.06801604 -0.096358106 0.06676817 -0.03544836
0.04160699 -0.16485117 0.020788914 -0.010923206 -0.04427857 0.012568995 -0.11022227 -0.07158483
-0.1798772 -0.030614523 -0.025575345 -0.022072932 0.015411824 -0.53750956 0.038792524 -0.051470596
0.02294483 0.015675401 0.107456714 -0.055147514 -0.11966416 -0.05064099 -0.35725164 -0.042314198
0.019367814 -0.10984557 -0.041779898 -0.13953444 -0.5351236 -0.0083679715 -0.07269038 -0.41324812
-0.12841529 -0.10352883 -0.090447515 -0.1255195 0.026296198 0.03560754 -0.044884283 -0.08580877
00000000: bebd 1b3e 30d4 763d 1e32 403d 82e1 8a3e
00000010: c032 1a3c 3231 9f3d 971f 923e bf7b 213e
00000020: 001e d23d 22b0 8b3d 8e88 1b3e c4a8 983e
00000030: 6240 fd3a 9ca3 0f3e 1afd 96bd 5808 abbc
00000040: cc33 273e a795 16bd 09e6 453e 0f73 5f3d
00000050: 9a3c 3abd 8fa9 f93b f4f0 683d 80d5 103e
00000060: 5b99 343e a7ac d23c d3d2 5e3d 38e0 0abd
00000070: 168d 1e3c 1cd6 47bc 57f9 843c 5223 d3bc
00000080: 3ee5 63bd 115f 0d3d f5a2 803d 7f4d 10bd
00000090: c093 bebd 42ab 803e 70d3 b03d 7be3 89bc
000000a0: 4b31 a63d 9d9c 58bd 887f e5bc 0f76 cd3c
000000b0: a581 283e 8b5d 4a3c 3a6c 2a3e 7811 2b3d
000000c0: 1aa2 933d f496 f63c 631b 3e3d f162 1fbd
000000d0: 2dc7 7f3e 1904 8dbb 1b2f 3d3d e224 453e
000000e0: e035 9abc b808 8d3c ebb8 43bd 33d9 9739
000000f0: 14fe b43d d8de 423d bf0c 27bd 7a44 d5bd
00000100: 3af6 b53c 6774 21be f9e1 2c3d 9ecf 13bf
00000110: 2867 eabd bc3d 6c3d e813 1abf fa50 473d
00000120: cef6 abbd 75b9 9abd dafe d73d af14 21bf
00000130: 0199 153e 112c d43b 30cd 2c3d 5a64 e73d
00000140: be3e 9d3c ebd5 f03d a53e d1be e4b6 503c
00000150: 0e90 533d 9371 21bd d4d2 7ebd a419 dabd
00000160: ce5f 7dbd 892e b23c 63cf 043e ca3a 263e
00000170: 90cf e4bc 0a03 40bb d46e a63b 1fee 573d
00000180: 483b 12bd 4b68 2f3e d173 b3bd 7196 f43c
00000190: 9876 cf3d 00bd 07bf 9f7e 25bb 2146 19bd
000001a0: 973b bfbd e9f5 ccbb b85b f63d c31d 1c3d
000001b0: e264 c2bc ec8b f13c 694e b4be f75f a1bd
000001c0: 9ced 05bd e01a 993d 0de7 05be fb7b a83d
000001d0: 6d12 07bf f7a4 42bd cab8 573c d6a8 d0be
000001e0: a92e 003e 8650 0bbd 11eb 85be c388 983d
000001f0: 6090 f8bd 2b8d 56bd b80e e33c 4eb1 a23d
00000200: 577a 6b3c ff4d 823d a821 103c 879b 30be
00000210: 26cb 81bd 6420 473d 22b8 37be 8a56 ed3c
00000220: c8ad 6e3d ada4 743d 63d3 a7bb 274d 40be
00000230: 4382 24be 5d03 b9bd 3c29 e43d 345e 1d3d
00000240: a2a6 cd3c 5ecb 31be 2572 f9bd dc99 853d
00000250: 29b4 0ebe 35f5 763d 3068 933d 16f4 4abd
00000260: 6541 a03c e38e 42bc 3253 2ebd 71fc 72bd
00000270: 63d8 693d fd73 213e a890 48bd 6ca9 b83c
00000280: 95b6 893c dd8c 9ebd 43a1 1dbb 4f17 133e
00000290: d0e2 fd3d ced9 21be 2fcc c23d 175f 3d3c
000002a0: 18b1 7e3d 514f ddbd d00c d73c 379d ecbd
000002b0: d810 ebbb e3cb 62bc a995 d6bd a3c5 0c3e
000002c0: b095 693c 2a9a 363d d081 343e 287e a2bc
000002d0: f708 21be 52aa d23d 0b16 713c b441 f8bd
000002e0: f48f a1bd 6f6b 033e 977a 053e 4500 d3bc
000002f0: c43e f53d d515 4d3d 826c 56bd c627 fa3d
00000300: bded bdbd ac42 3ebd 949d acbd b7ab 16bf
00000310: 10e8 47bd 0013 e5bb fb24 1cbf efb1 00be
00000320: ac9a 043d 36cf 1bbd 12e1 41be d85d 23bf
00000330: a6c8 e13c d5be 8fbd 2c37 e93d 1056 ef3c
00000340: 225b 183d 31e7 b8bc 5157 d4be a312 9bbd
00000350: fe4b 8bbd 6657 c5bd c0bd 883d 4d32 11bd
00000360: 176c 2a3d bfce 28be 834d aa3c 3ff7 32bc
00000370: 725d 35bd 30ee 4d3c 37bc e1bd 119b 92bd
00000380: bb31 38be 4fcb fabc 6383 d1bc 4bd2 b4bc
00000390: e081 7c3c 3a9a 09bf e9e4 1e3d d5d2 52bd
000003a0: ccf6 bb3c b369 803c 4412 dc3d 5ce2 61bd
000003b0: 7c12 f5bd ed6c 4fbd b0e9 b6be a751 2dbd
000003c0: 40a9 9e3c b7f6 e0bd 6621 2bbd 1ee2 0ebe
000003d0: dcfd 08bf d119 09bc b2de 94bd 4295 d3be
000003e0: 4c7f 03be ec06 d4bd 8c3c b9bd 2f88 00be
000003f0: 206b d73c 36d9 113d 95d8 37bd 82bc afbd

fc2.bias f4 [4]
0.102349274 -0.3543927 -0.04176422 -0.30513954
00000000: 7f9c d13d f672 b5be f510 2bbd 403b 9cbe
