src/flatland/flat_game/results/ourmethod_reg15/rep_learner.pth (torch_old, 312924 bytes, 33 tensors)

representations f4 [6]
0	0x3b09be25	0.0021017876
1	0x3b5802e2	0.0032960703
2	0x3a0841e3	0.0005197806
3	0x3b27b6df	0.0025591177
4	0x3fa2f717	1.2731656
5	0xbb84aad5	-0.004048685

representations f4 [6]
0	0x3ac6475e	0.001512747
1	0xbaa58386	-0.0012627698
2	0xbb0bed9d	-0.0021351345
3	0xbbbd8384	-0.0057835
4	0xbfa28215	-1.2695948
5	0xbb65ab59	-0.0035044758

representations f4 [6]
0	0xbb4efb02	-0.0031582718
1	0x3fa2cda4	1.2719007
2	0x3bf14288	0.0073626675
3	0x3bd4c3d4	0.006493071
4	0x3baa51f8	0.0051977597
5	0x3b5938af	0.0033145358

representations f4 [6]
0	0x3b949218	0.0045340173
1	0xbfa35161	-1.275921
2	0x3aa69f31	0.0012712238
3	0x3b66590f	0.0035148298
4	0xbbf2ffa3	-0.007415728
5	0x3b3753dc	0.0027973568

fc1.weight f4 [64, 4]
0	0x3d593e25	0.05303778
1	0x3f153070	0.58277035
2	0x40005126	2.004953
3	0xbf97ca60	-1.1858635
4	0xbe2a8b71	-0.16654755
5	0x3e3a2a6c	0.18180245
6	0xbf7eca60	-0.9952755
7	0x3f6f1f3d	0.9340704
8	0xbeebb085	-0.4603311
9	0xbdfc50c4	-0.12320092
10	0xbf268720	-0.65049934
11	0x3e7ca1ba	0.24671069
12	0x3d1ae8f5	0.03781982
13	0xbf0f4875	-0.55969936
14	0x3fcb0087	1.5859536
15	0x3ed2cc31	0.4117141
16	0x3e8cb643	0.27482805
17	0x3e3d9e43	0.18517403
18	0x3d1942e6	0.037417315
19	0x3d926be1	0.071494825
20	0x3e5949fc	0.21219629
21	0xbf3ed912	-0.74549973
22	0xbfbe1264	-1.4849362
23	0xbfc9fa89	-1.5779582
24	0xbf01e3ff	-0.5073852
25	0xbfef17a8	-1.8679094
26	0x3d723cdd	0.059140075
27	0x3fb99170	1.4497509
28	0xbebc82fc	-0.36818683
29	0x3d97ec7f	0.07418155
30	0x3fc4a8cc	1.5364013
31	0x401079f2	2.257443
32	0x3ddbebda	0.107383445
33	0xc01a9411	-2.4152873
34	0x3ef89f3d	0.4855899
35	0xbfed63be	-1.8546064
36	0x3f5242ee	0.82133377
37	0xbf86454e	-1.04899
38	0x3fc39211	1.5278951
39	0xc0284598	-2.6292477
40	0x3f272731	0.65294176
41	0x3fe38e52	1.7777808
42	0xc036e6ed	-2.8578446
43	0xbe4a29c7	-0.197425
44	0xbfa46541	-1.28434
45	0xbd48230c	-0.04886155
46	0xc022f65a	-2.546286
47	0x3d0b7657	0.034048405
48	0xbf0bb4d1	-0.5457278
49	0x3f12c1ef	0.5732717
50	0x3f0be518	0.54646444
51	0x3f07f289	0.53104454
52	0x3db551a7	0.088534646
53	0x3beb5f63	0.007183002
54	0xbdf1ce81	-0.118069656
55	0x3e3ad08d	0.18243618
56	0xbfa70ee5	-1.305142
57	0x400481ba	2.070418
58	0x3f9dc3c3	1.2325367
59	0x3fc18d6d	1.5121285
60	0x3f4feef3	0.8122398
61	0x3fafb943	1.3728412
62	0x3fbaee09	1.4603893
63	0x3f9a84c1	1.2071763
64	0x3f3c5cd3	0.7357914
65	0x3fe6996e	1.8015573
66	0x3f0eb141	0.5573922
67	0xbf4ae9ba	-0.7926289
68	0x3f4a5cc2	0.7904779
69	0x3ee63bab	0.44967398
70	0xbe5017c4	-0.20321566
71	0xc01eec59	-2.4831755
72	0x3ef6316b	0.48084578
73	0x3f829a02	1.020325
74	0xbe19a9d2	-0.15006188
75	0xbd914b1e	-0.070944056
76	0xbfecb9b0	-1.8494167
77	0xbeb1db59	-0.3473766
78	0xbf8da387	-1.106553
79	0xc00b918b	-2.1807582
80	0xbe34de7b	-0.17662995
81	0xbf13c496	-0.5772184
82	0x3f956862	1.167248
83	0xbeda81c4	-0.42677128
84	0xbf6b6863	-0.91956156
85	0x3f9852a2	1.1900218
86	0x3e347bf6	0.17625412
87	0x3f4e1eac	0.8051555
88	0x3ea27376	0.31728715
89	0xbbbded80	-0.0057961345
90	0x3ead1ea6	0.33812445
91	0xbd8080d8	-0.06274575
92	0x4072048a	3.781527
93	0x3de5f25c	0.11227867
94	0x3fa23e1c	1.2675204
95	0x3d50dc10	0.050991118
96	0xbfbbadb3	-1.4662384
97	0x3fd2b971	1.6462842
98	0x3fadf584	1.359055
99	0xbf982f17	-1.1889371
100	0x3f019761	0.5062161
101	0xbe862ade	-0.2620458
102	0xbf02bd98	-0.5107055
103	0x3fe01113	1.7505211
104	0x3d896608	0.06708914
105	0x3dddd6d6	0.10831992
106	0xbda14cf7	-0.07876008
107	0xbe80ba38	-0.25142074
108	0x3f22b75a	0.6356102
109	0x3fd5b23e	1.669502
110	0x3fe5e68f	1.7960986
111	0xbfa6dbb6	-1.30358
112	0x3fe5a150	1.7939854
113	0x3f58ae09	0.84640557
114	0xbee2b9c4	-0.44282353
115	0x3fbe48e5	1.4865996
116	0x3ec37f82	0.38183218
117	0x3f7fd3ac	0.9993236
118	0x3f813c63	1.0096554
119	0xc06760eb	-3.6152904
120	0xbe84d7e4	-0.2594596
121	0xbb658c00	-0.0035026073
122	0x3d5a27c0	0.053260565
123	0x3dd75440	0.10514116
124	0x3e6abac0	0.22922802
125	0x3db84de0	0.089992285
126	0xbeb627ec	-0.35577333
127	0x3e524d4c	0.20537299
128	0xbf80f7b2	-1.0075591
129	0xbff9fb2c	-1.9529777
130	0x3e510b73	0.20414524
131	0x3f474c10	0.7785044
132	0x4017b8c1	2.3706515
133	0xbf81dcc3	-1.0145496
134	0x3db2fc5a	0.087395385
135	0x3f2f4120	0.6845875
136	0xbf450451	-0.7695971
137	0x3f8c56b9	1.0963966
138	0x3f492994	0.7857907
139	0x3fd5c7a1	1.6701547
140	0xbe995c8d	-0.29953423
141	0xbd1c71ff	-0.038194653
142	0x3cd41d23	0.0258928
143	0x3c901c8c	0.017591737
144	0x3ed5707a	0.41687375
145	0x3e5c133b	0.21491711
146	0x3e4496b3	0.19198112
147	0x3f8e62c7	1.1123894
148	0xbf173639	-0.5906711
149	0xbf8d90f8	-1.1059866
150	0x3f3a9244	0.72879434
151	0x3fc3e865	1.5305296
152	0xbf9456ea	-1.1589024
153	0x402ffa59	2.749655
154	0x3d92eb91	0.07173837
155	0xbf80c005	-1.00586
156	0xc011e5b6	-2.2796454
157	0x3e70318c	0.234564
158	0x3f524ed6	0.82151544
159	0xbe1f6c9b	-0.15568773
160	0x3ffce3e9	1.9757053
161	0x3f58cff8	0.84692335
162	0xbdd725f5	-0.105052866
163	0xbec92ee8	-0.392936
164	0x3ef991f4	0.48744166
165	0x3f14421c	0.57913375
166	0xbf23fdc8	-0.64059114
167	0x3f8d570c	1.104219
168	0x3f891781	1.0710298
169	0xc035572e	-2.833446
170	0x3fecd321	1.8501931
171	0x3fbb466c	1.4630866
172	0xbe84a473	-0.25906715
173	0x3d4e999c	0.050439462
174	0x3fee389c	1.8611026
175	0xbcecd7df	-0.02891153
176	0x4055765f	3.3353498
177	0x3feca83b	1.848884
178	0xbefea33c	-0.49733913
179	0xbebae410	-0.36502123
180	0xbf66b85b	-0.90125054
181	0x3f11969b	0.5687043
182	0x3e0e9b3e	0.13926408
183	0xbf5ca19a	-0.86184084
184	0xbe636b50	-0.22208905
185	0xbfe1b9ed	-1.7634865
186	0x3fa87416	1.3160427
187	0x3ece833e	0.40334505
188	0xbfb7268b	-1.4308637
189	0x3e12c628	0.14333403
190	0x3f6fa13d	0.93605405
191	0x3f5ecf1c	0.87034774
192	0xbe2cad23	-0.16862921
193	0xbf62b8d7	-0.88563293
194	0xbf95d60a	-1.1705945
195	0x3f8be60b	1.0929579
196	0x3fd06a72	1.6282485
197	0xbfd7a5ed	-1.6847512
198	0x3ef1b6ae	0.47209686
199	0x3ec146f7	0.37749454
200	0xbfbbd02b	-1.4672903
201	0x3f0d5f4d	0.5522354
202	0xbf96f7e7	-1.1794404
203	0xbf3f0fb7	-0.74633354
204	0xbfa1369d	-1.2594792
205	0xbfac1930	-1.3445187
206	0x3e7ac9ec	0.2449109
207	0xc01b6800	-2.4282227
208	0xbd50a77e	-0.050940983
209	0x3ec07022	0.3758555
210	0xbb1e2d44	-0.0024135867
211	0xc01daf04	-2.463807
212	0xbfb5b515	-1.4195887
213	0xc012993d	-2.290603
214	0xbfb09337	-1.3794926
215	0xbf90e02e	-1.1318414
216	0x3f8fec23	1.1243938
217	0x3fc30912	1.5237143
218	0x3f2d0af1	0.6759482
219	0xbf96db4a	-1.1785672
220	0xbfa4d46c	-1.2877326
221	0xbf251c87	-0.64496654
222	0xbf41c5e8	-0.75692606
223	0x3fb8c3bc	1.4434733
224	0x3f6399c6	0.88906515
225	0xbf051842	-0.5199014
226	0x3ef5dd9c	0.48020637
227	0xbe29003c	-0.16503996
228	0x40136a00	2.3033447
229	0xbf2a0d28	-0.66426325
230	0xbfc4a076	-1.5361469
231	0x3f0b1015	0.54321414
232	0x3ef4eb17	0.4783561
233	0xc05b7eec	-3.4296217
234	0xbedc97d2	-0.4308458
235	0x3d0f961a	0.035055257
236	0xbf7da1a9	-0.990748
237	0xbd83b902	-0.06431772
238	0xc00829eb	-2.1275585
239	0x3d42e213	0.047578882
240	0xbf7ff484	-0.99982476
241	0xbc64d200	-0.0139660835
242	0xbff318cf	-1.8991946
243	0x3d8808f0	0.0664233
244	0x3fd536f0	1.665739
245	0x3e1c0a5c	0.15238327
246	0x3f2d96e4	0.67808366
247	0x3eca3a02	0.3949738
248	0xbf8aae8a	-1.0834515
249	0xbfc9f39d	-1.577747
250	0x3d8e79ae	0.06956802
251	0x3ec01b78	0.37520957
252	0xbfdb8433	-1.7149719
253	0xbd8533d1	-0.06504024
254	0xbf50360f	-0.81332487
255	0x3e9ae461	0.30252364

fc1.bias f4 [64]
0	0x3e8cdf9f	0.2751436
1	0x3e7ab3b4	0.24482614
2	0x3e39c2c8	0.1814071
3	0x3f185d9c	0.59517837
4	0xbeaeef36	-0.34166878
5	0x3efe0aca	0.49617606
6	0x3e17232e	0.14759514
7	0x3f122006	0.57080114
8	0x3e082a7b	0.13297455
9	0x3ea8cab7	0.3296716
10	0xbeb7b213	-0.35878047
11	0x3ed41b05	0.41426864
12	0x3e937f14	0.2880789
13	0x3e108e6f	0.14116834
14	0x3e903250	0.28163385
15	0x3f175795	0.59118015
16	0x3f19ab05	0.6002658
17	0x3de53e1e	0.111934885
18	0x3ef61de5	0.48069683
19	0xbee71c00	-0.4513855
20	0x3eaf7c55	0.34274545
21	0x3e7d31f5	0.24726088
22	0xbef38606	-0.4756319
23	0x3e6d3432	0.23164442
24	0x3f29eb13	0.6637432
25	0x3eb4596e	0.3522448
26	0xbeb0d9ff	-0.34541318
27	0x3ec012e9	0.37514427
28	0x3dbdde86	0.092709586
29	0xbe0744b0	-0.13209796
30	0xbea751d2	-0.3267961
31	0xbefaaabc	-0.48958385
32	0x3e278275	0.16358359
33	0xbd539632	-0.05165691
34	0x3f1943e3	0.5986921
35	0x3e2c6c3e	0.16838166
36	0x3efe89fd	0.49714652
37	0x3ec9b4d2	0.39395767
38	0x3f954b38	1.166358
39	0x3f80fd97	1.007739
40	0x3e824a07	0.25447103
41	0x3f03e5f8	0.5152278
42	0xbf1ae665	-0.60507804
43	0x3e7dc4f9	0.2478217
44	0xbf3efb84	-0.7460253
45	0x3e1de4e5	0.15419348
46	0x3daae436	0.08344309
47	0x3ec84a7f	0.39119336
48	0x3e0520c7	0.13000785
49	0x3d913a38	0.070911825
50	0x3e552af1	0.20817162
51	0xbdec0f64	-0.11526373
52	0x3e224855	0.15847905
53	0xbf17373f	-0.59068674
54	0x3f070b58	0.52751684
55	0x3efaddf5	0.48997465
56	0x3edbef71	0.42956117
57	0x3e72fab5	0.2372845
58	0xbf4051b8	-0.7512469
59	0x3e8ee8c1	0.27911952
60	0x3ea48255	0.32130685
61	0x3dd12cc4	0.102136165
62	0x3dc28106	0.094972655
63	0x3f42c4fc	0.76081824

fc2.weight f4 [180, 64]
0	0x3d6f6474	0.05844541
1	0x3ed2bb2c	0.41158426
2	0x3ed5b15b	0.41736874
3	0x3f4fe72e	0.8121213
4	0x3e094233	0.13404159
5	0x3ef0abeb	0.47006163
6	0x3f4b2dfd	0.7936705
7	0x3effc404	0.49954236
8	0x3f154416	0.58307016
9	0xbec5c485	-0.38626495
10	0x3f219840	0.6312294
11	0x3ea72f38	0.32653213
12	0x3ebc2534	0.36747134
13	0x3ec53128	0.38514066
14	0x3f36e4ef	0.71443075
15	0x3f6f9e76	0.9360117
16	0x3f36f098	0.71460867
17	0x3e821c32	0.25412136
18	0x3f14ac1b	0.5807511
19	0xbec659ff	-0.38740537
20	0x3e25e6a4	0.16201264
21	0x3f240301	0.64067084
22	0xbcd17a00	-0.02557087
23	0x3f766d19	0.9626022
24	0x3ce8bafb	0.028409472
25	0x3e49eef8	0.19720066
26	0x3d4d7053	0.05015595
27	0x3f076427	0.52887195
28	0x3e12378b	0.14279
29	0x3ed1f45b	0.4100674
30	0x3d98974c	0.074507326
31	0x3d613fe0	0.054992557
32	0x3f6494ed	0.8928974
33	0xbdd96fb5	-0.106170096
34	0x3f01017e	0.503929
35	0x3ead24e4	0.33817208
36	0x3e810269	0.2519715
37	0x3f4e603d	0.806156
38	0x3e46323e	0.19355103
39	0x3d90cd02	0.07070352
40	0x3f30298d	0.688134
41	0x3ec95324	0.39321244
42	0x3f414725	0.7549918
43	0x3e9190b4	0.28430712
44	0x3fc419c5	1.5320364
45	0xbd087dab	-0.03332297
46	0x3f682213	0.90676993
47	0x3ee884a8	0.4541371
48	0x3f372aa2	0.7154943
49	0x3ed7b125	0.42127338
50	0x3e6a1275	0.22858603
51	0xbf4136e0	-0.7547436
52	0xbe95e084	-0.29272854
53	0xbf28f082	-0.65991986
54	0x3f0ed8c4	0.5579951
55	0x3f634718	0.88780355
56	0x3efb0578	0.4902761
57	0xbdb75abb	-0.08952852
58	0x405e9697	3.4779413
59	0x3f05d613	0.52279776
60	0x3ed2b95b	0.4115704
61	0x3f1f75f7	0.62289375
62	0x3f6eb10b	0.93238896
63	0x3f086d07	0.5329136
64	0x3c124957	0.008928618
65	0x3f0cb550	0.5496416
66	0x3e7ab3ed	0.24482699
67	0xbe7be9d7	-0.24600922
68	0xbcb90dfd	-0.022589678
69	0xbef86e03	-0.48521432
70	0x3f6669a8	0.9000497
71	0xbf6aa118	-0.9165206
72	0xbc17454b	-0.009232829
73	0xbdb75025	-0.08950833
74	0x3de3a25d	0.11114953
75	0x3eb7a1d6	0.3586566
76	0x3db0f790	0.08640969
77	0x3d98e47f	0.07465457
78	0x3e706ef6	0.23479828
79	0xbded483b	-0.115860425
80	0x3dcc9fad	0.09991393
81	0xbf16de5b	-0.5893304
82	0x3e9ce170	0.30640745
83	0xbf63319f	-0.8874759
84	0x3e92b1f5	0.28651395
85	0x3e14d6a9	0.14535011
86	0x3dfa6f70	0.12228286
87	0x3e2822ed	0.16419573
88	0xbe3f8791	-0.18704058
89	0x3f4ec6c3	0.80772036
90	0x3d8f75fc	0.070049256
91	0x3e01e3e3	0.12684588
92	0x3eff817b	0.49903473
93	0x3e2f2739	0.17104806
94	0x3d3c0a28	0.045908123
95	0x3ae8c900	0.0017760098
96	0x3feef8af	1.8669642
97	0xbebd27ec	-0.3694452
98	0x3ecd50b2	0.40100628
99	0xbd327c18	-0.043575376
100	0x3de97706	0.11399655
101	0x3d989d21	0.07451845
102	0x3e189559	0.14900722
103	0xbe581840	-0.21103
104	0x3e4996b0	0.19686389
105	0x3e449fc8	0.19201577
106	0x3ecb478f	0.39703032
107	0x3e29de2b	0.16588657
108	0xbf2817ae	-0.6566113
109	0xbd7b161e	-0.06130039
110	0x3f72a114	0.94777036
111	0xbf13d15d	-0.5774134
112	0x3f3f32a1	0.7468663
113	0x3f122224	0.57083344
114	0x3d36798b	0.044549506
115	0x3cd9bd0c	0.026579402
116	0xbe8029cd	-0.2503189
117	0xbf0c084f	-0.5470018
118	0x3e9d81e8	0.30763173
119	0x3f771e13	0.96530265
120	0x3ed1c3d8	0.4096973
121	0xbe788ec4	-0.24273211
122	0x3fed785b	1.8552355
123	0x3e832bdc	0.256194
124	0x3f1e5625	0.61850196
125	0x3e03192b	0.1280257
126	0x3e859c55	0.26095834
127	0x3e934b20	0.28768253
128	0x3e92ff56	0.2871043
129	0x3df6076a	0.12013133
130	0x3edadb0a	0.4274524
131	0x3ef52f0a	0.4788745
132	0x3d4495b2	0.047994323
133	0xbf6467c1	-0.89220816
134	0x3f05ef42	0.52318203
135	0x3fcb1ca6	1.5868118
136	0xbf777e5c	-0.96677184
137	0xbf3f1f2e	-0.7465695
138	0x3df40ec2	0.11916877
139	0x3ec03cb4	0.37546313
140	0x3f8d074d	1.1017853
141	0x3ec3a299	0.3820999
142	0x3fd9f390	1.7027454
143	0x402b9d89	2.6814902
144	0x3f47972a	0.77965033
145	0xbf20fe62	-0.6288816
146	0x3f87ddfd	1.061462
147	0xbf998780	-1.1994476
148	0x3dec0dbf	0.11526059
149	0x3f806e6e	1.00337
150	0x3cfd62f0	0.030930966
151	0x3f8a8850	1.0822849
152	0x3f11e10f	0.5698404
153	0x3e02b2b3	0.12763481
154	0x3e13dc2f	0.14439462
155	0x3f4035a4	0.7508185
156	0x3ea17828	0.31536984
157	0xbd8a0499	-0.06739158
158	0x3ddeceb4	0.10879269
159	0xbdc289c0	-0.0949893
160	0x3fe9af3c	1.8256602
161	0xbdb5cd87	-0.08877092
162	0x3fb9136c	1.4459052
163	0x3da5c62f	0.08094441
164	0x3f78c97f	0.9718246
165	0x3f8cbeed	1.0995766
166	0x3fa52a45	1.2903525
167	0x3f19d9d3	0.60098
168	0x3f3ef42f	0.74591345
169	0x3e71dbb8	0.23618972
170	0x3ea19faa	0.31567127
171	0x3ee28751	0.44243863
172	0x404c7f54	3.1952715
173	0x3d56d67c	0.052450642
174	0xbf45dfe2	-0.77294743
175	0x3f404199	0.75100094
176	0x3f72a0a8	0.9477639
177	0xbe90fc9b	-0.28317723
178	0x3e0c78c5	0.13717945
179	0xbfac1bc6	-1.3445976
180	0xbf484a22	-0.7823812
181	0xbf9710d4	-1.180201
182	0x3ed4454f	0.41459128
183	0x3f9bc2e0	1.2168846
184	0x3ed3640d	0.4128727
185	0x3f3572b9	0.7087818
186	0x40840027	4.1250186
187	0x3e421c80	0.18956184
188	0x3f098eaa	0.53733313
189	0x3f71d9db	0.94473046
190	0x3f00ca8d	0.5030907
191	0x3ea0d297	0.31410667
192	0xbe90281b	-0.28155598
193	0x3e0d3b4c	0.13792151
194	0x3ed60646	0.4180166
195	0x3ed3aeb0	0.41344213
196	0x3dc3df23	0.09564044
197	0x3dbd8328	0.09253532
198	0x3f40265d	0.7505854
199	0x3f98d049	1.1938564
200	0xbed2fa1d	-0.41206446
201	0xbf2e59b3	-0.6810562
202	0x3fc39148	1.5278711
203	0x3fafb72f	1.3727778
204	0x3e0028e3	0.12515597
205	0x3e57144e	0.2100384
206	0x3f2f0c53	0.6837818
207	0x3ef6ac51	0.48178342
208	0x3e3a7a00	0.18210602
209	0xbd47e2ee	-0.0488004
210	0x3ec8b92a	0.3920377
211	0x3ed86173	0.42261848
212	0x3ee3ed5c	0.44517028
213	0x3f08f7b3	0.5350296
214	0xbda76642	-0.08173801
215	0xbf87f6d8	-1.0622206
216	0x3f31690f	0.6930093
217	0x3ea42d07	0.32065603
218	0x3debc133	0.11511459
219	0x3e06caf3	0.13163356
220	0x3e6bdca8	0.23033392
221	0xbedf9dac	-0.43674982
222	0x3cbf24b0	0.023332924
223	0xbdabc7e4	-0.083877355
224	0x3f9f64c5	1.2452627
225	0x3d214b51	0.039378468
226	0x3f02b329	0.51054627
227	0x3e77aa66	0.24186096
228	0x3eb5c24e	0.35499805
229	0x3f547cf9	0.83003193
230	0x3fa76284	1.307694
231	0xbd903338	-0.07041019
232	0x3d92d3cb	0.071693026
233	0x3eae2af4	0.34017146
234	0x401935d3	2.3939102
235	0x3eb9a47a	0.36258298
236	0xbf062bf2	-0.52410805
237	0x3e942d63	0.28940877
238	0x3d326e77	0.04356238
239	0x3cf1b57e	0.029505488
240	0x3d21b827	0.039482262
241	0x3fdabc41	1.70887
242	0x3f9a1b43	1.203957
243	0xbf4c8159	-0.7988487
244	0x3e071b2b	0.13193958
245	0xbebacfdc	-0.3648671
246	0x3dde130f	0.10843479
247	0x3d617e2a	0.05505196
248	0xbed6bd2c	-0.41941202
249	0x3f950dbc	1.1644816
250	0x403ecac7	2.9811265
251	0x3fc49a5d	1.5359608
252	0x3f8edf41	1.1161882
253	0xbecbdb0e	-0.39815563
254	0xbe23147b	-0.15925781
255	0x3e1aab81	0.15104486

fc2.bias f4 [180]
0	0x3e99d4bc	0.30045116
1	0x3dae2483	0.08503058
2	0x3e83e0e0	0.25757504
3	0x3e638db8	0.2222203
4	0x3dc49481	0.09598637
5	0x3f246316	0.64213693
6	0x3cd5e6e9	0.026111083
7	0xbc1f298f	-0.009714498
8	0x3d005659	0.031332348
9	0xbe79345c	-0.2433638
10	0xbdc896ea	-0.097944096
11	0x3ebc17d2	0.36736923
12	0xbce502cc	-0.027955435
13	0xbdd71b98	-0.1050331
14	0xbe1a6d9e	-0.15080878
15	0xbd8b1db5	-0.067927755
16	0xbd4e7e73	-0.05041356
17	0x3e8bb51d	0.27286616
18	0xbd82e3a3	-0.063910745
19	0xbe286679	-0.1644534
20	0x3ca05c5b	0.019575289
21	0xbdd06d3e	-0.10177086
22	0xbd5cd8e9	-0.0539178
23	0xba743b32	-0.0009316682
24	0x3e5039ac	0.203345
25	0xbd7c3e3b	-0.061582785
26	0xbe2b1285	-0.16706283
27	0xbe02ed7f	-0.1278591
28	0xbe200821	-0.15628101
29	0x3ea3ddff	0.32005307
30	0x3d851642	0.06498386
31	0x3e21a1f7	0.15784441
32	0x3d144348	0.036196977
33	0xbe2f6db7	-0.17131697
34	0xbc46ddaf	-0.012137814
35	0x3ddf4a6a	0.10902865
36	0x3e814e91	0.25255254
37	0x3ebc1e08	0.36741662
38	0x3e39fdf4	0.18163282
39	0x3e454474	0.19264394
40	0x3e18831c	0.14893764
41	0x3eea0637	0.45707867
42	0x3e192c5d	0.1495833
43	0xbd93b491	-0.07212175
44	0xbe12e0cd	-0.14343567
45	0x3c0f0e64	0.008731458
46	0xbe1a21e4	-0.15051991
47	0x3e452fde	0.19256541
48	0xbdd21429	-0.102577515
49	0xbcd74d17	-0.026281876
50	0x3d0e4da5	0.034742016
51	0xbe3f264b	-0.18666951
52	0xbe1fe143	-0.15613274
53	0x3e75d068	0.24005282
54	0xbd6ab6ca	-0.057303227
55	0xbd895f02	-0.067075744
56	0xbc56f27b	-0.013119335
57	0xbcfc02f0	-0.03076312
58	0xbcff0c7f	-0.031133888
59	0x3e5d83e2	0.2163234
60	0x3e0cda95	0.13755257
61	0xbe0cff4e	-0.13769266
62	0x3bc2f30f	0.005949385
63	0xbc11b8dd	-0.0088941725
64	0xbd8d51ed	-0.06900392
65	0x3ec72083	0.38891992
66	0xbdf34524	-0.11878422
67	0x3e852886	0.2600748
68	0x3f085bb3	0.5326492
69	0x3bcf009a	0.0063172104
70	0x3eb4693d	0.3523654
71	0x3f0b7670	0.54477596
72	0x3e7042e6	0.2346302
73	0xbb480da7	-0.0030525716
74	0x3e4393d8	0.19099367
75	0x3e99c62c	0.30034006
76	0xbbea497e	-0.007149874
77	0x3eb1aad1	0.34700635
78	0x3e28002a	0.16406313
79	0xbd5880f2	-0.052857347
80	0xbe371474	-0.17878896
81	0xbe5b5bd4	-0.21421748
82	0x3e5113a2	0.20417646
83	0x3c291343	0.010319534
84	0x3d849046	0.064728305
85	0x3abf965b	0.0014616953
86	0xbda269fc	-0.07930371
87	0xbdab063a	-0.08350797
88	0xbdc0801e	-0.093994364
89	0xbc23c351	-0.0099952975
90	0x3e9dae6e	0.30797142
91	0xbe2be9cd	-0.16788407
92	0xbe569cd3	-0.20958261
93	0xbd7674dc	-0.06017004
94	0xbda27718	-0.079328716
95	0xbe137a56	-0.14402136
96	0xbd3a7fd2	-0.045532055
97	0xbe3b776c	-0.18307275
98	0xbe497d74	-0.19676763
99	0xbd9c1a14	-0.076221615
100	0xbd2a14d9	-0.041523788
101	0x3cb86cc0	0.022512794
102	0x3d284278	0.041079015
103	0xbe1fabd0	-0.15592885
104	0x3cd55c71	0.026045056
105	0xbe06ace1	-0.13151886
106	0xbd1ffcb2	-0.03905935
107	0x3e10b8e1	0.14133026
108	0x3ebb9675	0.36638227
109	0x3bd23b18	0.006415736
110	0x3e478e2e	0.19487831
111	0x3e2da8d2	0.16958931
112	0xbccd83de	-0.025087293
113	0x3e76fb73	0.24119358
114	0x3ef53c56	0.47897595
115	0xbdcf34a6	-0.10117464
116	0xbe3f778c	-0.18697947
117	0x3985bdc2	0.00025509117
118	0xbe14f324	-0.14545876
119	0x3e3b6d79	0.18303479
120	0x3e683063	0.22674708
121	0xbe282751	-0.16421248
122	0xbdfb2060	-0.122620344
123	0xbe145999	-0.14487304
124	0xbd2f3dbf	-0.042783495
125	0x3d847f27	0.06469565
126	0x3e56b728	0.20968306
127	0xbd8e666c	-0.06953129
128	0xbd30035f	-0.042971965
129	0xbdba9bd4	-0.09111753
130	0xbce3a643	-0.02778924
131	0x3c3ee310	0.011650816
132	0x3e8322a0	0.25612354
133	0xbde823a2	-0.113349214
134	0xbdb967ea	-0.09053023
135	0xbe15cd67	-0.14629136
136	0xbd6ce333	-0.05783386
137	0x3e4defe4	0.20111042
138	0x3f0b0af1	0.5431357
139	0xbe6b12b6	-0.22956356
140	0x3ea53333	0.32265624
141	0x3eea76b8	0.457937
142	0x3e6feebb	0.23430912
143	0x3ee7e17a	0.45289212
144	0x3ec73a06	0.38911456
145	0x3e533524	0.2062574
146	0x3db9cbca	0.09072073
147	0xbd9f55ca	-0.07780035
148	0x3df445a3	0.11927345
149	0xbcb138c7	-0.021633519
150	0x3d099940	0.033593416
151	0xbd0c8710	-0.034308493
152	0xbdf08ba5	-0.11745385
153	0xbd921b7d	-0.07134149
154	0xbdd49079	-0.103791185
155	0x3ec7db11	0.39034322
156	0x3d00a86a	0.031410612
157	0xbe3e5337	-0.18586431
158	0xbcf51550	-0.02991739
159	0x3c61c258	0.013779245
160	0xbc6755ba	-0.01411956
161	0xbe44cd09	-0.1921884
162	0x3c907779	0.017635094
163	0x3c98b342	0.018640164
164	0xbe1496ca	-0.14510646
165	0xbd542721	-0.05179513
166	0xbe021795	-0.12704308
167	0xbdb0a631	-0.086254485
168	0x3e5b62d7	0.21424423
169	0xbc6f208a	-0.01459516
170	0xbe2de021	-0.1698003
171	0xbe2f74a4	-0.17134339
172	0xbd1cff90	-0.03832966
173	0x3e79ed4b	0.24406926
174	0x3ef08713	0.46978053
175	0x3eff8389	0.4990504
176	0x3e785263	0.24250178
177	0x3ee2d914	0.44306242
178	0x3f1f698b	0.6227042
179	0x3e64eeeb	0.22356765

conv.weight f4 [5, 1, 34, 34]
0	0xbe977cdd	-0.2958745
1	0xbe9454f4	-0.28971064
2	0xbeb1b171	-0.3470569
3	0xbeb503cd	-0.35354462
4	0xbee03bdb	-0.43795666
5	0xbebd1466	-0.36929625
6	0xbf00c9d4	-0.50307965
7	0xbf07f598	-0.5310912
8	0xbf259fd8	-0.6469703
9	0xbf130fe8	-0.57446146
10	0xbf39ef51	-0.7263079
11	0xbf5d1e8b	-0.8637473
12	0xbf30ac46	-0.6901287
13	0xbf165cc7	-0.58735317
14	0xbf485583	-0.7825548
15	0xbf0ce3df	-0.55035204
16	0xbef635c4	-0.48087895
17	0xbf0db772	-0.5535804
18	0xbed1abc4	-0.4095136
19	0xbe5af24a	-0.21381488
20	0xbe48dd70	-0.19615722
21	0xbe864c1a	-0.26229936
22	0xbdb79632	-0.08964194
23	0xbcb39b81	-0.021924736
24	0xbe03c966	-0.12869796
25	0xbe1be82a	-0.15225282
26	0xbda2689d	-0.0793011
27	0xbe0bbc10	-0.13645959
28	0xbdb49cea	-0.088189915
29	0xbd1252d4	-0.035723522
30	0xbe1e0fcf	-0.15435718
31	0xbe15b810	-0.14620996
32	0xbdec27bc	-0.11531016
33	0xbdf1f0c1	-0.11813498
34	0xbdf028ce	-0.11726533
35	0xbedddb1c	-0.4333123
36	0xbedf40fe	-0.43604273
37	0xbedaef26	-0.4276058
38	0xbed9fa0d	-0.42573586
39	0xbf060c0c	-0.5236213
40	0xbf05fe6e	-0.52341354
41	0xbef70b25	-0.4825069
42	0xbf48a578	-0.78377485
43	0xbf3be8fe	-0.7340239
44	0xbf644f22	-0.8918325
45	0xbf526098	-0.8217864
46	0xbf455795	-0.77086765
47	0xbf63044c	-0.8867843
48	0xbf58b0f3	-0.84645003
49	0xbf21c899	-0.6319671
50	0xbf1c621e	-0.61087215
51	0xbf23372a	-0.6375605
52	0xbebd3f78	-0.36962485
53	0xbe860d1d	-0.2618188
54	0xbedabebc	-0.42723644
55	0xbe9d3536	-0.3070466
56	0xbe10ab6e	-0.14127895
57	0xbd8a916b	-0.067660175
58	0xbdfd5e3d	-0.1237149
59	0xbdaad2a8	-0.08340961
60	0xbd8c6247	-0.068546824
61	0xbe2148a7	-0.15750371
62	0xbda175bb	-0.078837834
63	0xbd4e1d87	-0.05032113
64	0xbdff61aa	-0.124698
65	0xbe160dd6	-0.14653715
66	0xbde81ca5	-0.113335885
67	0xbe0b2b9f	-0.13590859
68	0xbe2eea69	-0.17081608
69	0xbf025ced	-0.50923043
70	0xbf129aac	-0.5726726
71	0xbf14b57b	-0.5808942
72	0xbf423cd6	-0.7587408
73	0xbf62e861	-0.8863583
74	0xbf5483bb	-0.83013505
75	0xbf2ceec8	-0.6755185
76	0xbf5d2068	-0.86377573
77	0xbf5bf1da	-0.8591591
78	0xbf7326ed	-0.9498127
79	0xbf82f5a1	-1.023121
80	0xbf935c53	-1.151255
81	0xbfa27502	-1.2691958
82	0xbf84fcda	-1.0389664
83	0xbf61fb5a	-0.8827416
84	0xbf62b67c	-0.885597
85	0xbf32abba	-0.69793284
86	0xbef0b708	-0.47014642
87	0xbeed6889	-0.46368816
88	0xbed6857f	-0.41898724
89	0xbea2bd35	-0.31784979
90	0xbdb1f23a	-0.08688779
91	0xbdd0d79b	-0.101973735
92	0xbe312494	-0.1729911
93	0xbe01bc41	-0.1266947
94	0xbe324972	-0.1741083
95	0xbdf87004	-0.1213074
96	0xbdd90b90	-0.105979085
97	0xbd9c083f	-0.0761876
98	0xbdd9c3ee	-0.10633074
99	0xbe174efb	-0.14776222
100	0xbe276d57	-0.16350304
101	0xbe2361ee	-0.15955326
102	0xbe666ad1	-0.22501685
103	0xbeeface1	-0.46811584
104	0xbf17bc75	-0.5927194
105	0xbf13cdb7	-0.5773577
106	0xbf735aaf	-0.9506025
107	0xbf6a22db	-0.91459435
108	0xbf6ced11	-0.92549235
109	0xbf671e79	-0.9028087
110	0xbf2f41f6	-0.68460023
111	0xbf794850	-0.97375965
112	0xbf83e657	-1.0304669
113	0xbf83fe13	-1.0311912
114	0xbf9abe05	-1.2089239
115	0xbfad2110	-1.3525715
116	0xbf8f8e78	-1.1215353
117	0xbf841343	-1.0318378
118	0xbf82739b	-1.019153
119	0xbf577e6e	-0.8417729
120	0xbef34042	-0.47509962
121	0xbf15d0b5	-0.58521587
122	0xbec6213f	-0.3869724
123	0xbe78c92c	-0.24295491
124	0xbe5b7396	-0.21430811
125	0xbe85cad9	-0.26131323
126	0xbe20b8a9	-0.15695442
127	0xbdf584cb	-0.11988219
128	0xbe17984a	-0.14804187
129	0xbdd687a4	-0.1047509
130	0xbe09ea73	-0.13468342
131	0xbd441d8d	-0.047879744
132	0xbe0074dc	-0.12544578
133	0xbde56949	-0.11201722
134	0xbdfd7cd6	-0.12377326
135	0xbe145278	-0.14484584
136	0xbe55a90b	-0.20865266
137	0xbebf9b4e	-0.37423176
138	0xbf298800	-0.66223145
139	0xbf5414c7	-0.82844204
140	0xbf7b8252	-0.9824573
141	0xbf5fd257	-0.8743033
142	0xbf777174	-0.9665749
143	0xbf6128d1	-0.87952906
144	0xbf5ee638	-0.87070036
145	0xbf93c4e9	-1.1544467
146	0xbf85601e	-1.0419958
147	0xbf62497a	-0.88393366
148	0xbf9e4149	-1.2363673
149	0xbf9cdd40	-1.225502
150	0xbf7f56a8	-0.997416
151	0xbf5622ea	-0.83647025
152	0xbf6e52e2	-0.9309522
153	0xbf2c66dd	-0.67344457
154	0xbec83f6a	-0.3911088
155	0xbf19e03f	-0.601078
156	0xbec96b4b	-0.3933967
157	0xbe938e8a	-0.28819686
158	0xbdd9efd6	-0.10641448
159	0xbe8b1ef4	-0.27172053
160	0xbddb2d53	-0.10702004
161	0xbda0764f	-0.078350656
162	0xbde64380	-0.11243343
163	0xbdfb3d2b	-0.12267526
164	0xbd81ec8c	-0.06343946
165	0xbd79c0f2	-0.060975023
166	0xbd7f2dd9	-0.062299583
167	0xbd85bf25	-0.065305986
168	0xbe09cc01	-0.13456728
169	0xbe212058	-0.15734994
170	0xbe603cdc	-0.21898216
171	0xbea031be	-0.3128795
172	0xbf255630	-0.64584637
173	0xbf1f12f1	-0.6213828
174	0xbf5b7390	-0.8572321
175	0xbf82bfd9	-1.0214797
176	0xbf8a241a	-1.0792267
177	0xbf8e4e90	-1.1117725
178	0xbf819405	-1.0123297
179	0xbfa5c783	-1.2951511
180	0xbf8e4eab	-1.1117758
181	0xbf8b1213	-1.0864891
182	0xbf84fbf3	-1.0389389
183	0xbf951334	-1.1646485
184	0xbf802f8f	-1.0014514
185	0xbf861dd4	-1.0477853
186	0xbf81eb1f	-1.0149878
187	0xbf342810	-0.7037363
188	0xbee9be08	-0.45652795
189	0xbf199bb1	-0.6000319
190	0xbee79f28	-0.45238614
191	0xbebd97df	-0.3702993
192	0xbdd60b1c	-0.10451338
193	0xbcf16ea6	-0.029471707
194	0xbe01ad1e	-0.12663695
195	0xbd9cc79d	-0.07655261
196	0xbe4bfeaf	-0.19921373
197	0xbe3b4680	-0.18288612
198	0xbde69db1	-0.11260546
199	0xbc976671	-0.018481465
200	0xbd9a09b3	-0.07521381
201	0xbdb457f6	-0.0880584
202	0xbe337639	-0.17525567
203	0xbe28c588	-0.16481602
204	0xbeb18e52	-0.34678894
205	0xbf08b896	-0.53406656
206	0xbf41ddd8	-0.7572913
207	0xbf4e45c4	-0.80575204
208	0xbf749731	-0.955432
209	0xbf812021	-1.008793
210	0xbf83e95e	-1.0305593
211	0xbfb20d12	-1.3910239
212	0xbfac2c86	-1.3451087
213	0xbfa7cf40	-1.3110123
214	0xbfba4e5b	-1.4555162
215	0xbfb1d099	-1.3891784
216	0xbfb25bb4	-1.3934236
217	0xbfa59a2b	-1.2937673
218	0xbf8c1720	-1.0944557
219	0xbf881dc4	-1.0634084
220	0xbf702254	-0.9380238
221	0xbf384130	-0.7197447
222	0xbf2ef50b	-0.68342656
223	0xbf1a1599	-0.60189205
224	0xbee1661c	-0.44023216
225	0xbe82375b	-0.25432858
226	0xbdddf81f	-0.10838341
227	0xbe2aab40	-0.16666889
228	0xbddf71cf	-0.10910379
229	0xbe3a45f7	-0.18190752
230	0xbe515208	-0.20441449
231	0xbe41552b	-0.18880145
232	0xbdd9eea0	-0.10641217
233	0xbd2e19cd	-0.042505074
234	0xbdba82b2	-0.091069594
235	0xbe2c40a1	-0.16821529
236	0xbe4ac88b	-0.19803064
237	0xbe557203	-0.20844273
238	0xbeda9296	-0.4268996
239	0xbf1db14a	-0.61598647
240	0xbf2e5a66	-0.6810669
241	0xbf5789a6	-0.8419441
242	0xbf807e7a	-1.0038598
243	0xbf82f2cd	-1.0230347
244	0xbf8466f6	-1.0343921
245	0xbf95af78	-1.1694174
246	0xbfb470a9	-1.4096881
247	0xbfa75bc8	-1.3074884
248	0xbfccd672	-1.6002944
249	0xbfb5c688	-1.4201212
250	0xbf9b7433	-1.2144836
251	0xbf9edb52	-1.2410681
252	0xbfa4878f	-1.2853869
253	0xbf861044	-1.0473714
254	0xbf5e4e6d	-0.8683842
255	0xbf68ae7c	-0.9089124

conv.weight f4 [5, 1, 10, 10]
0	0xbd8f1d3b	-0.06987997
1	0xbbbe4683	-0.0058067455
2	0xbd05cb03	-0.03266431
3	0x3d81bce1	0.06334854
4	0xbda82ec6	-0.08212046
5	0x3d84db65	0.06487159
6	0x3daf06a5	0.08546189
7	0x3d2e41ba	0.04254315
8	0x3e00119a	0.12506714
9	0x3e2dcd1f	0.16972779
10	0xbdb4c76f	-0.088271014
11	0xbb912454	-0.0044293795
12	0xbbabd4a0	-0.0052438527
13	0xbd990198	-0.07471007
14	0xbd3c0c28	-0.04591003
15	0xbe01e3e9	-0.12684597
16	0xbe4b95dd	-0.19881387
17	0x3ce7dbb1	0.028303
18	0x3e325ed3	0.17418985
19	0x3d93f174	0.07223788
20	0xbd64ec4c	-0.055889413
21	0xbddc1f56	-0.10748164
22	0xbddc052e	-0.107431754
23	0xbc074cad	-0.008258027
24	0xbe21413a	-0.15747538
25	0xbdb1ed66	-0.08687858
26	0xbe3bd75f	-0.18343876
27	0xbd4d0286	-0.050051235
28	0x3d88dee3	0.06683137
29	0x3d7e46f6	0.062079392
30	0xbdc70b14	-0.0971891
31	0xbbf9582a	-0.007609387
32	0xbe2847eb	-0.16433685
33	0xbd4959a7	-0.049157765
34	0xbc3c6134	-0.011497784
35	0xbd9d300e	-0.07675181
36	0xbe1985b1	-0.14992405
37	0xbdc147d8	-0.09437531
38	0x3d8edfaf	0.06976258
39	0x3c645bef	0.013937934
40	0xbd723ce8	-0.059140116
41	0xbde68292	-0.11255373
42	0xbd12ebb6	-0.035869323
43	0xbe022f73	-0.12713413
44	0xbe0c3608	-0.13692486
45	0xbe18bbc1	-0.14915372
46	0xbda9287e	-0.082596764
47	0xbe0fbfa6	-0.14037952
48	0xbdca7555	-0.098856606
49	0xbd19e0c3	-0.037567865
50	0xbe32e862	-0.1747146
51	0xbda1cab8	-0.07899994
52	0xbd4dbe48	-0.050230294
53	0x3db370bf	0.08761739
54	0x3cf84668	0.03030701
55	0x3c1c7143	0.009548488
56	0xbe03728c	-0.12836665
57	0xbe13a57b	-0.14418595
58	0xbe2f09b3	-0.17093544
59	0xbe06ef09	-0.13177122
60	0x3c16c672	0.0092025865
61	0x3da04bf0	0.07826984
62	0xba268a8a	-0.00063530414
63	0x3c22777c	0.009916183
64	0x3df9d3e8	0.12198621
65	0x3db2bfd6	0.08727996
66	0xbd0968c6	-0.033547185
67	0xbb6beccb	-0.0035999294
68	0x3da92e20	0.08260751
69	0xbe7827a8	-0.24233878
70	0x3da4f79c	0.0805504
71	0xbdb31672	-0.087445155
72	0x3ce2109e	0.027595814
73	0x3db4b8a8	0.08824283
74	0x3cf22514	0.029558696
75	0x3d2adb83	0.04171325
76	0xbd6249d1	-0.055246178
77	0x3dc3a9bc	0.09553859
78	0xbaa072a1	-0.0012241193
79	0x3a978b50	0.0011561904
80	0xbd96e4b3	-0.0736784
81	0x3d14bf27	0.03631511
82	0xbd016961	-0.031594638
83	0x3d5d5ea7	0.054045346
84	0xbd4de38e	-0.05026584
85	0x3e097411	0.13423182
86	0x3d83d3cf	0.06436884
87	0xbd8b3023	-0.06796291
88	0x3d47494e	0.048653893
89	0x3d9ea12b	0.07745584
90	0xbc9f8818	-0.019474074
91	0x3d01012a	0.03149525
92	0x3d67488a	0.056465663
93	0xb9a0da95	-0.00030680434
94	0x3db66bc0	0.089072704
95	0x3e04d5a1	0.12972118
96	0x3ced5005	0.02896882
97	0xbd22fee9	-0.039793883
98	0x3e11d1da	0.14240208
99	0x3d0527b4	0.032508567
100	0x3e82c694	0.25542128
101	0x3e143abd	0.14475532
102	0x3e8fe6d9	0.2810581
103	0x3e6aa26a	0.22913519
104	0x3e312ef4	0.17303067
105	0x3e84074e	0.25786823
106	0x3e807a40	0.2509327
107	0x3e51daa5	0.20493563
108	0x3e90b625	0.28263965
109	0x3e94b06d	0.29040852
110	0x3e2df678	0.16988552
111	0x3e92eabf	0.28694722
112	0x3e441570	0.19148803
113	0x3e4a7142	0.19769767
114	0x3e757aa6	0.23972568
115	0x3e7e71df	0.24848126
116	0x3e5b059d	0.2138886
117	0x3e5cd81f	0.21566819
118	0x3e8819b0	0.26582098
119	0x3e89879d	0.26861277
120	0x3e408e8e	0.1880438
121	0x3e777edf	0.24169491
122	0x3e334bd7	0.175094
123	0x3e82914b	0.25501475
124	0x3e323240	0.17401981
125	0x3e2089eb	0.15677612
126	0x3e82ddd3	0.25559863
127	0x3e20f5e3	0.15718798
128	0x3e425cdf	0.1898074
129	0x3de6aaf7	0.11263078
130	0x3e7fc2b6	0.2497662
131	0x3e00a787	0.12563907
132	0x3e80990e	0.2511677
133	0x3e06c823	0.13162284
134	0x3e7b3d25	0.24535044
135	0x3e83b3b3	0.25723037
136	0x3e40deeb	0.18835036
137	0x3e3b14c5	0.18269642
138	0x3e4a8145	0.19775875
139	0x3e9195ac	0.28434503
140	0x3e2a5abd	0.16636176
141	0x3dd811f3	0.105502985
142	0x3e7ed1d5	0.24884732
143	0x3e7df2d9	0.2479967
144	0x3e410c43	0.18852334
145	0x3e264f0d	0.16241093
146	0x3d6a6c4b	0.057232182
147	0x3e7dc19b	0.24780886
148	0x3e4e0c54	0.2012189
149	0x3e2bbac2	0.16770461
150	0x3e0cd297	0.13752209
151	0x3e7213e4	0.236404
152	0x3e076765	0.13223036
153	0x3e75c9c1	0.24002744
154	0x3e877cd4	0.26462424
155	0x3e7ec0cc	0.24878234
156	0x3e0a6024	0.13513237
157	0x3e71b217	0.23603092
158	0x3de52c32	0.1119007
159	0x3e9dd53a	0.3082674
160	0x3e7c7582	0.246542
161	0x3e89791c	0.26850212
162	0x3e93e6e2	0.28887087
163	0x3e8a03c8	0.2695601
164	0x3e5aed07	0.21379481
165	0x3e5e2b44	0.21696192
166	0x3dd582b6	0.10425322
167	0x3db9b8e8	0.09068471
168	0x3e2b1b7a	0.167097
169	0x3e314782	0.17312434
170	0x3e05fa6b	0.13083808
171	0x3e027912	0.12741497
172	0x3e96acb7	0.29428646
173	0x3e1a2ff5	0.15057357
174	0x3e53fd3b	0.20702069
175	0x3e861a77	0.26192066
176	0x3dfc0387	0.1230536
177	0x3e0d4067	0.13794099
178	0x3e6caa7c	0.2311191
179	0x3e71448a	0.23561302
180	0x3e5a1ea7	0.21300755
181	0x3e7cae4a	0.24675861
182	0x3e4ae055	0.19812138
183	0x3de59c87	0.11211496
184	0x3e79e634	0.24404222
185	0x3d2a8798	0.04163322
186	0x3dc6da90	0.09709656
187	0x3dc0023e	0.09375428
188	0x3e59160a	0.21199813
189	0x3e669c62	0.22520593
190	0x3db20ab3	0.08693447
191	0x3e04e8ad	0.12979384
192	0x3db7c653	0.08973374
193	0x3dd5e74d	0.10444508
194	0x3e44d7d2	0.19222954
195	0x3e3fafc3	0.18719392
196	0x3cf1fda1	0.029539885
197	0x3d9484a4	0.07251862
198	0x3e174f8c	0.14776438
199	0x3dd08bde	0.101829275
200	0xbde2b7a4	-0.11070183
201	0xbd922b74	-0.07137194
202	0x3d8865ed	0.06660066
203	0x3e024cdf	0.12724636
204	0x3e055e2e	0.13024208
205	0x3dff3215	0.12460724
206	0x3d8a3c85	0.067498244
207	0xbcbc9343	-0.023019439
208	0x3dc216b6	0.09476988
209	0xbd7962e9	-0.060885344
210	0xbd3d1ab0	-0.04616803
211	0x3db8141b	0.0898821
212	0x3de526c3	0.11189034
213	0xbd1c7ba9	-0.03820387
214	0xbd97ae23	-0.07406261
215	0xbccd7122	-0.02507836
216	0x3d15f704	0.036612526
217	0x3d857a47	0.06517463
218	0xbc41ec64	-0.011836145
219	0x3cc9de38	0.024642095
220	0xbdcd4202	-0.100223556
221	0xbdb1375a	-0.086531356
222	0x3dd3e62f	0.103466384
223	0xbcab44e0	-0.020906866
224	0x3db72eb8	0.08944458
225	0xbdb42855	-0.08796755
226	0xbce605be	-0.02807891
227	0xbe169cec	-0.14708298
228	0xbda06e30	-0.078335166
229	0xbcee3bed	-0.02908131
230	0xbd32f658	-0.043691963
231	0xbd0a939c	-0.033832178
232	0x3ba77779	0.005110678
233	0xbc7250ac	-0.0147897415
234	0x3d78c4b8	0.06073448
235	0xbbf61453	-0.007509747
236	0xbdbeefd7	-0.093230896
237	0xbc09e945	-0.008417432
238	0xb9996b55	-0.00029262403
239	0xbe21d831	-0.15805127
240	0xbd432bde	-0.047649257
241	0xbdf52068	-0.119690716
242	0x3d86a8b5	0.06575147
243	0xbd4bb969	-0.049737368
244	0x3c250b3f	0.010073482
245	0xbda4e8db	-0.08052226
246	0xbdadb25b	-0.08481284
247	0xbb9b221e	-0.0047342917
248	0xbdaa963b	-0.083294354
249	0xbe0c59f0	-0.13706183
250	0xbde5d1de	-0.112216696
251	0x3d7eae88	0.062178165
252	0xbdd9e871	-0.10640038
253	0xbdbb4098	-0.0914318
254	0xbdbd9256	-0.09256427
255	0xbe1e8461	-0.15480186

conv.bias f4 [5]
0	0xbd1a8e7b	-0.037733536
1	0x3e569ff8	0.2095946
2	0xbd953a56	-0.07286517
3	0xbd5fd0d7	-0.054642525
4	0x3dcf6659	0.10126943

fc1.weight f4 [64, 180]
0	0x3d245ff8	0.040130585
1	0xbcb78dbe	-0.022406455
2	0xbd69e720	-0.057105184
3	0x3c5cfbd0	0.013487771
4	0xbc81f5ce	-0.01586428
5	0x3d929e13	0.071590565
6	0xbd9897ce	-0.074508294
7	0xbc19e330	-0.009392545
8	0x3d88aa0b	0.06673058
9	0xbc5f8330	-0.013642117
10	0xbcd59646	-0.026072633
11	0x3d954859	0.0728919
12	0x3c2011a8	0.009769835
13	0x3d7267e6	0.059181117
14	0xbc90e576	-0.01768754
15	0x3d867f53	0.06567254
16	0x3ca41218	0.020028159
17	0x3d0f4c46	0.03498485
18	0xbd718140	-0.058961153
19	0xbc8331ee	-0.01601502
20	0x3ceb56b8	0.028727874
21	0xbc973c2e	-0.018461313
22	0x3c1f0b40	0.009707272
23	0x3d02f6ee	0.03197377
24	0xbd7766f3	-0.060400914
25	0x3d361c0e	0.04446035
26	0x3d3213c6	0.04347589
27	0xbca44168	-0.02005072
28	0x3d32375a	0.04350982
29	0xbc809c2e	-0.015699472
30	0xbcdec7e2	-0.02719492
31	0x3d94e7e5	0.07270793
32	0xbd7dd88b	-0.06197409
33	0xbcbff05e	-0.023430046
34	0xbce7244e	-0.028215554
35	0xbd8d84ee	-0.0691012
36	0x3d158032	0.03649921
37	0xbd6b1f56	-0.05740293
38	0x3cb8c3ac	0.022554241
39	0x3d371dea	0.044706263
40	0xbd0a12b1	-0.03370923
41	0x3d21ea3e	0.03953003
42	0xbca6ccc6	-0.020361315
43	0x3b5c9180	0.003365606
44	0x3d6da78e	0.05802112
45	0x3d4f3036	0.050583087
46	0xbc9bb092	-0.019005094
47	0x3d7dcd66	0.06196346
48	0xbc1916c8	-0.00934381
49	0xbd5e7d48	-0.054318696
50	0xbc6e7964	-0.014555309
51	0xbd750057	-0.059814777
52	0x3a662980	0.00087799877
53	0x3c95894c	0.018253945
54	0xbce5cfd4	-0.028053202
55	0x3c879c34	0.016553976
56	0x3d6be982	0.057595737
57	0xbd4cfb34	-0.050044253
58	0xbd25cd53	-0.040479016
59	0x3c7304b8	0.014832668
60	0x3b178040	0.0023117214
61	0xbce8f80e	-0.028438594
62	0x3d83bd5b	0.06432601
63	0xbd8a133e	-0.067419514
64	0xbbfad430	-0.0076546893
65	0xbd33bc13	-0.043880533
66	0x3c88a158	0.016678497
67	0x3d748812	0.05970008
68	0xbd40f181	-0.047105316
69	0x3d2f3314	0.04277332
70	0x3d8093d3	0.06278195
71	0xbb73a420	-0.0037176684
72	0xbd604cff	-0.05476093
73	0x3c5d49f0	0.013506398
74	0xbcca7b30	-0.024716944
75	0xbd6ab683	-0.057302963
76	0x3c942d4c	0.018088005
77	0xbd1a975e	-0.03774201
78	0x3c4afb28	0.012388982
79	0xbcd51972	-0.02601311
80	0x3d8c6aab	0.06856283
81	0x3cbe8454	0.023256458
82	0x3d8c3a37	0.06847041
83	0x3d91ef9d	0.07125781
84	0xbd97b90e	-0.07408343
85	0xbb23d420	-0.0024998263
86	0x3d3b8374	0.04577966
87	0xbb40fea0	-0.0029448643
88	0x3d2cb934	0.04216881
89	0xbd17ae32	-0.03703136
90	0xbd1d64e9	-0.038426314
91	0x3d17c62a	0.03705422
92	0xbd4d2731	-0.050086204
93	0x3d866ff7	0.06564324
94	0xbd86cba9	-0.06581814
95	0xbc6c4454	-0.014420588
96	0x3bb1fb60	0.0054315776
97	0xbc8a8ba2	-0.016912285
98	0xbd05ce21	-0.032667283
99	0xbc90c82c	-0.017673574
100	0x3cd96698	0.026538178
101	0x3c117d68	0.008879997
102	0xbd0a317e	-0.033738606
103	0xbc8f5fb2	-0.017501686
104	0x3c4a9f60	0.0123670995
105	0x3d1ce8f4	0.0383081
106	0x3d182704	0.037146583
107	0xbd105985	-0.035241622
108	0x3d486dea	0.048932947
109	0x3d9732ed	0.0738276
110	0x3d2c27b8	0.042030066
111	0xbc768d30	-0.01504831
112	0x3d232c1a	0.03983698
113	0xbd1c3260	-0.03813398
114	0xbcf703d6	-0.030153196
115	0xbcf6546a	-0.030069549
116	0xbcfb6a12	-0.030690227
117	0xbcb79ae0	-0.022412717
118	0x3d157074	0.036484197
119	0xbd4f9e34	-0.050687984
120	0x3d2a0ee0	0.041518092
121	0xbd3c079d	-0.045905698
122	0x3c54fa68	0.012999155
123	0xbcfe6ab2	-0.031056736
124	0x3cb29334	0.021798708
125	0x3d8bbe95	0.0682346
126	0x3d70e522	0.058812268
127	0x3d5791ee	0.052629404
128	0xbd52e60a	-0.051488914
129	0x3d67b91e	0.056573026
130	0x3d6399e2	0.055566676
131	0x3a4a1a80	0.0007709637
132	0xbce3c816	-0.02780537
133	0x3d59ef9e	0.053207032
134	0xbd3b44f9	-0.045720074
135	0x3d8f73d9	0.07004518
136	0x3b99a840	0.0046892464
137	0x3d0b5aae	0.034022026
138	0x3d056790	0.032569468
139	0x3d96c7b5	0.0736231
140	0xbcb34514	-0.021883525
141	0xbd83dd11	-0.064386494
142	0xbd5c7d8c	-0.05383067
143	0xbd465fb2	-0.048431106
144	0x3bcbad00	0.0062156916
145	0x3d6c7556	0.057729088
146	0xbd57ac27	-0.05265441
147	0xbae90d80	-0.0017780513
148	0xbd97f5e2	-0.07419945
149	0xbd949f4b	-0.07256945
150	0xbd801f46	-0.06255965
151	0x3d52d64a	0.051473893
152	0xbcae8850	-0.021305233
153	0x3d8e28c9	0.06941373
154	0xbd87e6b0	-0.06635797
155	0xbd6fc993	-0.058541846
156	0x3d47a7f0	0.048744142
157	0xbba27b40	-0.00495854
158	0xbd89c592	-0.06727137
159	0xbd8dea58	-0.06929463
160	0x3d815a1f	0.06316017
161	0xbd39bf6c	-0.04534857
162	0x3d3bf258	0.045885414
163	0x3cc14a88	0.02359511
164	0xbd815080	-0.06314182
165	0xbcf51d4a	-0.029921193
166	0xbd05513d	-0.032548178
167	0x3ccea83c	0.025226705
168	0xbc5710bc	-0.013126548
169	0xbcda344c	-0.026636265
170	0x3cbdfd70	0.023192137
171	0xbce2bb08	-0.027677074
172	0xbd26bbc1	-0.0407064
173	0x3d288fd6	0.041152798
174	0x3d0ddae2	0.03463257
175	0x3d24377a	0.04009197
176	0xbc730c50	-0.0148344785
177	0x3d73758e	0.05943828
178	0x3b7c6fe0	0.003851883
179	0x3d748ad2	0.059702702
180	0xbcdbc9ca	-0.026829619
181	0x3cae90a0	0.021309197
182	0x3d78181e	0.060569875
183	0xbd557340	-0.052111864
184	0xbb9c2bc0	-0.0047659576
185	0xbb878d00	-0.0041366816
186	0xbc4262d0	-0.011864379
187	0xbd44842d	-0.047977615
188	0x3c01f390	0.007931605
189	0x3d2a4840	0.04157281
190	0x3d386322	0.045016415
191	0xbd5985e0	-0.05310619
192	0x3b57d440	0.0032932907
193	0x3d135d02	0.03597737
194	0xbd60f6ab	-0.05492274
195	0xbd4b239a	-0.0495945
196	0x3bf83a80	0.007575333
197	0x3d16e4ee	0.036839418
198	0x3c2e8040	0.010650694
199	0x3cfc41a4	0.030793019
200	0xbbd79ec0	-0.006580204
201	0x3d08de1e	0.033414952
202	0x3d10ed36	0.035382472
203	0x3d94fd17	0.072748356
204	0x3be26b40	0.006909758
205	0x3c92226c	0.01783868
206	0x3d5ffdae	0.054685287
207	0xbd940292	-0.07227053
208	0xbd139ef7	-0.036040273
209	0x3d31c3e4	0.043399706
210	0xbd3a375c	-0.04546295
211	0xba6be300	-0.0008998364
212	0xbd8d2ae4	-0.06892946
213	0x3d51fa42	0.051264055
214	0x3d01c0d6	0.031678043
215	0xbd904a0e	-0.07045375
216	0x3c719f28	0.014747418
217	0x3d28f3f8	0.04124829
218	0x3d3c82b2	0.04602308
219	0xbd816fae	-0.06320129
220	0xba9f3500	-0.0012146533
221	0xbc2010d0	-0.009769633
222	0xbabb7700	-0.0014302433
223	0x39bdc900	0.00036198646
224	0xbc1a2e08	-0.009410389
225	0xbd467d72	-0.048459478
226	0x3d315740	0.0432961
227	0x3d153276	0.036425076
228	0x3c8bd07c	0.017067187
229	0xbc82612c	-0.015915476
230	0xbd8030a5	-0.06259278
231	0x3c4a6928	0.012354173
232	0xbd6162c8	-0.055025846
233	0x3b4867e0	0.0030579492
234	0xbd2ed38b	-0.04268221
235	0xbd2c0aa4	-0.042002335
236	0x3d70eb9e	0.058818452
237	0xbcf2a302	-0.029618744
238	0xbd8b3a67	-0.06798249
239	0x3d8eab8b	0.06966313
240	0x3bf32e40	0.007421285
241	0xbcbfb382	-0.023401026
242	0x3d68f69a	0.056875803
243	0x3d8a9b51	0.067679055
244	0xbd5165d2	-0.051122494
245	0x3bfba2b0	0.007679306
246	0xbd3d312e	-0.04618948
247	0x3b8daf90	0.004323907
248	0x3bdd6480	0.0067563653
249	0x3d2a23ba	0.041537978
250	0x3d17fae8	0.037104517
251	0xbcf19894	-0.0294917
252	0xbcdab848	-0.0266992
253	0x3c9aec48	0.018911496
254	0xbd76f19a	-0.060289003
255	0x3aa87ac0	0.0012853965

fc1.bias f4 [64]
0	0x3cb63d9c	0.022246175
1	0x3ba5a320	0.0050548464
2	0xbd32dfdc	-0.04367052
3	0xbc8d1338	-0.017221078
4	0x3be685c6	0.00703499
5	0x3da04402	0.078254715
6	0xbd77d78c	-0.060508296
7	0x3dbdc6e0	0.09266448
8	0x3dc9f6f6	0.09861557
9	0xbd89617e	-0.06708048
10	0xbc922d22	-0.017843787
11	0xbdac964b	-0.084271036
12	0x3d9214e3	0.0713289
13	0xbeb36a10	-0.35041857
14	0xbcf388ac	-0.029728256
15	0x3ca5eb5c	0.02025383
16	0xbdc92bd8	-0.09822816
17	0xbccb2b26	-0.024800848
18	0xbd7d8a74	-0.061899617
19	0xbc145d69	-0.009055474
20	0x3c3ef6a0	0.01165548
21	0xbca0487c	-0.019565813
22	0xbc94a086	-0.01814295
23	0x3c7d4176	0.015457502
24	0x3c7a98e6	0.015295243
25	0x3bd04b49	0.006356631
26	0xbcecb27e	-0.028893705
27	0xbdc54903	-0.096330665
28	0xbbd8c6b3	-0.0066154837
29	0xbdcc3789	-0.0997153
30	0xbcc06f6f	-0.023490636
31	0x3cf5ee92	0.030020986
32	0xbcdc31e1	-0.026879253
33	0x3c589031	0.013217972
34	0x3c04b980	0.008100867
35	0x3c21419f	0.009842305
36	0x3e401ae3	0.18760256
37	0x3cee9ae9	0.029126601
38	0x3c4e0808	0.012575157
39	0xbd2f3612	-0.042776175
40	0xbd4f11c0	-0.050554037
41	0x3d0cee0f	0.034406718
42	0xbbff7045	-0.007795366
43	0xbd44c22a	-0.04803673
44	0x3d921153	0.071322106
45	0xbce6e33c	-0.028184526
46	0xbcd0970a	-0.025462646
47	0xbd34951c	-0.044087514
48	0xbd3f1a21	-0.046655778
49	0xbd0b47d6	-0.034004055
50	0xbd5b9e1c	-0.05361758
51	0x3d084aa8	0.033274323
52	0x3cfe4d58	0.03104274
53	0x3a3fdb31	0.0007318734
54	0x3e8efc03	0.27926645
55	0xbd17cbb9	-0.03705952
56	0x3b3d9acb	0.0028931375
57	0x3e0b9698	0.13631666
58	0xbdff0d2e	-0.12453686
59	0xbd499648	-0.049215585
60	0xbc648f00	-0.0139501095
61	0xbba65da6	-0.0050770817
62	0x3d1909d2	0.03736288
63	0xbe01a068	-0.12658846

fc2.weight f4 [4, 64]
0	0x3a674b00	0.00088231266
1	0xbd7654e0	-0.060139537
2	0xbccbc708	-0.024875179
3	0x3d23f218	0.0400258
4	0xbda15f41	-0.07879496
5	0xbec92d2b	-0.39292273
6	0x3c57ed60	0.013179153
7	0xbeba46b4	-0.36382067
8	0xbead030e	-0.33791393
9	0xbd9069c8	-0.07051426
10	0xbd5beabf	-0.05369067
11	0xbceb4068	-0.028717235
12	0xbe780d3e	-0.24223801
13	0xbbe36604	-0.0069396514
14	0xbd2a6fd8	-0.04161057
15	0xbe0aeccf	-0.13566898
16	0x3d397034	0.04527302
17	0xbd61ba44	-0.055109277
18	0xbd14f90b	-0.03637032
19	0xbabcb956	-0.0014398496
20	0x3d9087ea	0.070571736
21	0xbdf46e72	-0.11935128
22	0xbead88f3	-0.33893546
23	0xbda35db8	-0.0797686
24	0xbe6d9040	-0.23199558
25	0xbdf4da70	-0.11955726
26	0x3b1c6da1	0.0023869055
27	0xbe02b196	-0.12763056
28	0xbd1d92c3	-0.03847004
29	0xbe5d24ba	-0.21596041
30	0x3cf393aa	0.029733498
31	0xbeb28c19	-0.3487251
32	0xbe5e15d3	-0.21688013
33	0xbe32f3b4	-0.17475778
34	0x3ca95830	0.020671934
35	0xbe9ce61b	-0.30644307
36	0xbed082c4	-0.40724766
37	0xbdd60cf6	-0.10451691
38	0xbca226f0	-0.019793957
39	0x3b87e160	0.00414674
40	0xbd5b4fcf	-0.05354291
41	0xbe9c1ba0	-0.30489826
42	0x3d48e319	0.049044702
43	0xbd0c2c50	-0.034221947
44	0xbd448c90	-0.047985613
45	0xbd6d3d44	-0.057919756
46	0xbc6aab7b	-0.014323111
47	0xbdc60f41	-0.09670878
48	0xbd59d0eb	-0.053177755
49	0x3d970798	0.07374495
50	0x3da29e60	0.07940364
51	0x3c4e89f0	0.012606129
52	0x3d433d3c	0.04766582
53	0xbe0fbd37	-0.14037023
54	0xbedc02a3	-0.42970762
55	0xbe957f9a	-0.29198915
56	0xbdc7b2db	-0.09750911
57	0xbedaf340	-0.4276371
58	0xbe1d7e0c	-0.15380114
59	0xbc5d2750	-0.013498142
60	0xbdcc4afa	-0.09975238
61	0x3b74629e	0.0037290226
62	0xbd6dbbf5	-0.058040578
63	0xbe13c85f	-0.14431904
64	0xbdb6de92	-0.08929171
65	0x3d8a2688	0.067456305
66	0xbcfc5af0	-0.030805081
67	0x3df0488c	0.11732587
68	0x3dd375a2	0.10325171
69	0x3ef0574a	0.46941596
70	0xbdb5c858	-0.08876103
71	0x3ede8caf	0.43466708
72	0x3ece62c9	0.40309742
73	0xbdf61640	-0.120159626
74	0xbd7a063c	-0.0610411
75	0xbcb84f4f	-0.022498755
76	0xbd5b7ab0	-0.0535838
77	0x3eb30d33	0.34971008
78	0xbd39cfa8	-0.045364052
79	0x3c9c1b06	0.019055855
80	0x3c7119f7	0.014715663
81	0x3da5f03b	0.08102461
82	0xbdbeaf35	-0.09310762
83	0xbd582ba9	-0.052776013
84	0x3db1b0a6	0.08676271
85	0xbcbba21d	-0.02290445
86	0x3ecf8227	0.40528986
87	0x3dabeb84	0.083945304
88	0x3e8e3cb0	0.27780676
89	0xbc2985fc	-0.010346886
90	0xbd6e23b8	-0.058139533
91	0x3d05050f	0.032475527
92	0xbd80656e	-0.06269346
93	0x3db159ce	0.08659707
94	0x3d122a78	0.035685033
95	0x3ed5537b	0.41665253
96	0x3aeaab53	0.0017903842
97	0xbd2a2ed4	-0.041548565
98	0xbcba4e58	-0.022742435
99	0x3e0905f5	0.13381179
100	0x3ef96481	0.4870949
101	0x3bcec228	0.0063097663
102	0xbbfecca0	-0.007775858
103	0x3c6509a0	0.013979346
104	0xbd478fc9	-0.04872111
105	0x3eba6ad0	0.36409616
106	0x3dfbec4c	0.123009294
107	0x3d04d610	0.03243071
108	0x3bc9bba0	0.0061564
109	0x3d990dcc	0.07473335
110	0xbd686d47	-0.05674484
111	0xbd223d2b	-0.039609116
112	0xbcba74a3	-0.022760695
113	0x3b103280	0.0022002757
114	0xbdbbd8ac	-0.09172186
115	0xbd7055f4	-0.05867572
116	0x3d2462ac	0.040133163
117	0x3d5a8b1b	0.053355318
118	0x3f033e10	0.51266575
119	0x3eb2eb49	0.34945133
120	0x3a265348	0.00063448073
121	0x3f02c898	0.5108733
122	0x3bb603ff	0.0055546756
123	0x3db4a354	0.08820215
124	0xbd6a99d4	-0.05727561
125	0x3d12b8df	0.035820838
126	0x3c2c1495	0.010502954
127	0xbc81edb4	-0.015860416
128	0xbdb102d8	-0.086431205
129	0xbdb39070	-0.08767784
130	0x3c1b2ff0	0.009471878
131	0x3dc2a2d2	0.09503712
132	0xbc93eb8c	-0.018056653
133	0x3ec92ec8	0.39293504
134	0x3dc36cf0	0.095422626
135	0x3eba4b96	0.36385792
136	0x3ead03cf	0.33791968
137	0xbd121f64	-0.035674468
138	0x3d31a4cb	0.04337005
139	0xbd939fc5	-0.07208208
140	0x3d59c5da	0.0531672
141	0xbd94f216	-0.07272737
142	0x3dc32980	0.095294
143	0x3da25b66	0.07927589
144	0x3dd7f3af	0.10544526
145	0x3d19b0eb	0.037522238
146	0xbd69d050	-0.057083428
147	0x3ceec639	0.029147254
148	0x3d91fbbe	0.07128094
149	0x3e30218d	0.17200299
150	0x3ead9410	0.33902025
151	0xbb5897ef	-0.0033049544
152	0x3e6da597	0.23207699
153	0x3d6defbb	0.058089953
154	0x3dc435d3	0.09580579
155	0x3ac10efd	0.0014729198
156	0x3e17605a	0.14782849
157	0xbd99dfd6	-0.075133964
158	0x3c33f672	0.01098405
159	0x3eb28fe8	0.34875417
160	0xbc0bab15	-0.008524676
161	0x3d993a1c	0.074817866
162	0x3d9a104a	0.07522638
163	0x3e6c2c15	0.23063691
164	0x3ed0821c	0.40724266
165	0x3e2eadad	0.1705844
166	0x3d2d7e58	0.04235682
167	0x3d9a3202	0.075290695
168	0xbce6f5cc	-0.028193377
169	0x3e9c1f2b	0.3049253
170	0xbc813222	-0.015770976
171	0x3de59296	0.112096
172	0x3d913cc2	0.07091667
173	0x3d9a6442	0.07538654
174	0xbcae5a41	-0.02128327
175	0x3cefbfcb	0.029266259
176	0x3df66125	0.120302476
177	0xbda746fc	-0.08167836
178	0x3d6cbbb0	0.05779618
179	0xbdb1141c	-0.08646414
180	0xbd247388	-0.04014924
181	0xbcfe9f08	-0.031081691
182	0x3edbeaa7	0.42952463
183	0x3e958cc9	0.29208973
184	0xbc28c42c	-0.010300677
185	0x3edae9a2	0.42756373
186	0x3cf68bb7	0.030095918
187	0x3dbf4c18	0.093406856
188	0x3dd39398	0.10330886
189	0x3d67c2c3	0.056582224
190	0xbac6e6c5	-0.0015174976
191	0x3a27ef15	0.00064061704
192	0xbdfe2a9a	-0.12410469
193	0xbd0d399c	-0.03447877
194	0xbd55fcec	-0.05224316
195	0xbcbe6480	-0.023241282
196	0x3cd419ab	0.025891146
197	0x3eacaf5e	0.33727545
198	0xbbf23440	-0.0073914826
199	0x3e9fe6b3	0.31230697
200	0x3e947167	0.2899277
201	0xbd7c8da4	-0.061658517
202	0x3c8db87e	0.017299887
203	0x3cf6494f	0.030064253
204	0xbcc706db	-0.024295261
205	0xbde32b7e	-0.1109228
206	0x3d306748	0.043067247
207	0x3ddc561a	0.1075861
208	0x3cd95b18	0.026532695
209	0x3da49c39	0.080376096
210	0x3deeacc0	0.11654043
211	0xbd3333ee	-0.043750696
212	0x3d1b6d48	0.037946016
213	0xbc58d63c	-0.013234671
214	0x3e950c8d	0.29111138
215	0xbc6358b9	-0.013876134
216	0x3e4c3e95	0.19945748
217	0x3e37d811	0.17953517
218	0x3e1b7aa8	0.15183508
219	0x3ce77092	0.02825192
220	0x3e0c1e3b	0.13683407
221	0x3db1c3ec	0.08679947
222	0x3d5abd8b	0.05340342
223	0x3e99465c	0.29936492
224	0x3d14a9c6	0.03629472
225	0x3c009875	0.007848849
226	0xbd082018	-0.033233732
227	0x3c7856e4	0.015157435
228	0x3eb2d457	0.34927627
229	0xbb923666	-0.004462051
230	0x3d48c4f4	0.049015954
231	0x3dcd1034	0.10012856
232	0x3dd7c325	0.10535268
233	0x3e8600e9	0.2617257
234	0x3b2ec2ca	0.0026666396
235	0xbdc69f6c	-0.09698376
236	0x3d0746b0	0.033026397
237	0xbd2c3958	-0.042046875
238	0x3dcb068f	0.0991336
239	0xbd228a4b	-0.039682668
240	0x3c755f1f	0.014976292
241	0x3d349bc8	0.044093877
242	0x3ceca888	0.028888956
243	0xbdcac0f2	-0.09900083
244	0xbd981120	-0.07425141
245	0x3dbb3a2c	0.09141955
246	0x3ebd0deb	0.3692468
247	0x3e80732e	0.25087875
248	0x3db15b63	0.08660009
249	0x3ebbf205	0.36708084
250	0x3cc888bf	0.024479268
251	0xbc7dc220	-0.015488178
252	0x3df97a34	0.121815115
253	0x3c7cd824	0.015432391
254	0x3de1c3e1	0.11023689
255	0x3d23b368	0.039966017

fc2.bias f4 [4]
0	0xbe1ef463	-0.15522914
1	0x3eb2e6b7	0.34941646
2	0x3e412248	0.18860734
3	0x3e1dc092	0.15405491
