src/flatland/flat_game/results/ourmethod_noreg3/rep_learner.pth (torch_old, 312908 bytes, 33 tensors)

representations f4 [6]
0	0x3ec9aff4	0.39392054
1	0xbeacea42	-0.33772475
2	0x3d068668	0.032843024
3	0x3f7997fe	0.97497547
4	0xbf074e67	-0.5285401
5	0x3d64d128	0.05586353

representations f4 [6]
0	0xbee07526	-0.43839377
1	0xbe1c6bf7	-0.1527556
2	0x3e4c4e26	0.19951686
3	0xbf87abf1	-1.0599347
4	0x3e3d68dd	0.18497033
5	0xbee95ea1	-0.4558001

representations f4 [6]
0	0x3f0f875c	0.56065917
1	0x3f5ba134	0.8579285
2	0x3f332920	0.69984627
3	0x3e88bc43	0.26706132
4	0x3eaa8163	0.3330184
5	0x3f6b0f96	0.9182066

representations f4 [6]
0	0xbee7d270	-0.4527774
1	0xbe55ace0	-0.20866728
2	0xbf87c517	-1.0607022
3	0x3e4ded75	0.20110114
4	0x3e19e040	0.15026951
5	0xbed6b6de	-0.41936392

fc1.weight f4 [64, 4]
0	0xc0520ed4	-3.282155
1	0x3f8f90cc	1.1216063
2	0xbdef048b	-0.116707884
3	0x3faedbf1	1.3660871
4	0x3f3d0c1d	0.7384661
5	0x3ebe4a31	0.3716598
6	0xbf826b75	-1.0189043
7	0xbe33249e	-0.17494437
8	0xbff7fe8a	-1.9374554
9	0xbf12852a	-0.5723444
10	0xbf89d97e	-1.0769498
11	0xbe5da2c8	-0.21644127
12	0x3d85669d	0.065137126
13	0xbeb63597	-0.3558776
14	0x3f07db1f	0.5306873
15	0xbfb63014	-1.4233422
16	0xbfaf40f4	-1.3691697
17	0x3f3edf93	0.745599
18	0x3f55861e	0.8340777
19	0x40393ef3	2.894467
20	0xc01ed1d2	-2.4815564
21	0x3f2ce4b5	0.6753648
22	0xbe3f2a4a	-0.18668476
23	0xbe3e38d3	-0.18576364
24	0xbf81ec69	-1.0150272
25	0xbfa26501	-1.2687074
26	0xbfc0326d	-1.5015389
27	0xbebd3b7f	-0.36959454
28	0x3f4af52e	0.79280365
29	0x402ef507	2.7337053
30	0xbe1016a3	-0.14071135
31	0xbfa292c5	-1.270104
32	0xc01e81d4	-2.476674
33	0xbee94da5	-0.4556705
34	0xbfc45022	-1.5336955
35	0x3eeef2a6	0.466695
36	0xbfaa84dd	-1.3321797
37	0x3f491a8b	0.78556126
38	0x3f294203	0.6611635
39	0x400c2181	2.189545
40	0x3e898d88	0.26865792
41	0xbd86d040	-0.06582689
42	0x3c7308c0	0.014833629
43	0x3d77a6c0	0.06046176
44	0x3eb3068a	0.34965926
45	0xbd066ce0	-0.032818675
46	0x3fa4b5ad	1.2867943
47	0xbf91f1d4	-1.1401925
48	0x3d492042	0.04910303
49	0x3f30b1ce	0.6902131
50	0x3f199f95	0.6000913
51	0xbfc9151b	-1.5709566
52	0x3f844fe5	1.0336882
53	0xbe05f92a	-0.1308333
54	0x40180284	2.3751535
55	0xbf05fc15	-0.5233777
56	0x3d08eb41	0.03342748
57	0x3e3a88a3	0.18216185
58	0xbe4e4527	-0.20143567
59	0x3e9f2516	0.31082982
60	0x3f2496fe	0.64292896
61	0xbf3aed66	-0.7301849
62	0xbef00172	-0.46876103
63	0x3fbad798	1.4597044
64	0xbf397df9	-0.72457844
65	0x3fe43b0f	1.7830523
66	0x402a94e9	2.6653388
67	0x3f8ec5c0	1.1154099
68	0x3e28fa75	0.16501792
69	0x3d1f8c44	0.038952127
70	0xbef48ad2	-0.47762161
71	0xbf04c27b	-0.51859254
72	0x3d82d771	0.063887484
73	0xc03cdf2d	-2.9511216
74	0x400dbabf	2.214523
75	0x3fd2ef50	1.6479282
76	0x3f535403	0.82550067
77	0xbf9e6f0d	-1.237764
78	0xbe9e2c62	-0.30893236
79	0x3f41d1f5	0.75710994
80	0x3efb9428	0.49136472
81	0xbe3ee5ac	-0.186423
82	0xbdd19820	-0.10234094
83	0xbeebbc91	-0.46042302
84	0xbfd62f7c	-1.6733241
85	0x3ff143c0	1.8848801
86	0xbfcb7c6a	-1.5897343
87	0x3f6d7957	0.92763275
88	0x3f0ffe45	0.5624736
89	0x401c9756	2.4467368
90	0xbf4ee53c	-0.80818534
91	0xbf7f00b9	-0.9961048
92	0xc00de145	-2.2168744
93	0x3edeeca0	0.43539906
94	0x3ec97d2e	0.39353317
95	0xbfa022ce	-1.2510622
96	0xbfcd512a	-1.6040394
97	0x401334cf	2.3000982
98	0xbee2687a	-0.44220334
99	0xbfc2745f	-1.5191764
100	0xbfaba8a4	-1.341084
101	0x3f247b0d	0.6425026
102	0x3e242a61	0.16031791
103	0xbf7cee36	-0.9880098
104	0xbe1fff07	-0.15624629
105	0x3de65a69	0.11247713
106	0xbd637260	-0.055529
107	0xbf98c65a	-1.1935532
108	0xbe859572	-0.2609058
109	0xbe9bc18c	-0.30421102
110	0x3ceebad5	0.029141823
111	0xbdeb8969	-0.11500818
112	0x3f68fc82	0.91010296
113	0x3e6ed033	0.23321609
114	0x3f77891b	0.9669358
115	0x3fa35715	1.276095
116	0x3ffafd79	1.9608604
117	0xc007fa10	-2.1246376
118	0x3f0d271b	0.55137795
119	0xbf7658d3	-0.96229285
120	0xbb64f22e	-0.003493439
121	0x3f699102	0.9123689
122	0xbf34c11d	-0.7060717
123	0xbf81e617	-1.0148343
124	0xbfb04db1	-1.377371
125	0x3f1eac3c	0.6198156
126	0xbfc3a428	-1.5284472
127	0xbfd3aa04	-1.653626
128	0xbed1fcd8	-0.41013217
129	0xbc629bd7	-0.0138311
130	0xbda04ad7	-0.078267746
131	0xbfc51455	-1.539683
132	0x3f0a4406	0.54010046
133	0xbea91622	-0.33024698
134	0xbec5e9ea	-0.38655025
135	0xbfaabd58	-1.3339033
136	0x3f27d97c	0.6556623
137	0x3fd11404	1.6334233
138	0x3fcb3014	1.5874047
139	0xbfb5be3f	-1.4198684
140	0x3fa3d9d0	1.2800846
141	0x3fef2023	1.8681682
142	0xbe996325	-0.29958454
143	0x3fb2ed05	1.3978583
144	0xbfc7d62b	-1.5612234
145	0xbf50261a	-0.8130814
146	0xbea8f8b2	-0.3300224
147	0xbde67efe	-0.112546906
148	0xbf1577cf	-0.5838594
149	0x3f298141	0.6621285
150	0x400b5766	2.1772094
151	0x3d768691	0.060186926
152	0x3eaa0ef6	0.3321454
153	0xbf130753	-0.5743305
154	0x3e94fd35	0.29099432
155	0x3e29c279	0.16578092
156	0xc0107cc1	-2.2576144
157	0xbfb40cf8	-1.4066458
158	0x3e979539	0.29606035
159	0x3fb06cbc	1.3783183
160	0xbe35e04c	-0.17761344
161	0xbf6d66b6	-0.9273485
162	0x3f4675a7	0.77523273
163	0xbfa993ac	-1.3248191
164	0xbeed2aee	-0.46321815
165	0x3f4d575b	0.8021142
166	0xbf81fd48	-1.015542
167	0xbe466606	-0.19374856
168	0xbe41c51c	-0.18922848
169	0xbf9edeb3	-1.2411712
170	0x3f971d54	1.1805825
171	0xbffd1fcf	-1.9775332
172	0x3f97d608	1.1862192
173	0xbf90f537	-1.1324834
174	0xbf738b91	-0.95134836
175	0xbe5acd7c	-0.21367449
176	0x3fab76d6	1.3395641
177	0x3edf0d6a	0.43564922
178	0x3f9c6ef6	1.2221363
179	0x3f87a048	1.0595789
180	0x3fb7a2f9	1.434661
181	0xbf40be08	-0.75289965
182	0x3e97a2e9	0.29616478
183	0xbe9805d6	-0.29691952
184	0x3e735834	0.23764116
185	0x40397eb4	2.8983583
186	0xbf96ae4f	-1.1771945
187	0xbe2b94ed	-0.1675603
188	0x3f896d6b	1.0736517
189	0xbe6065f0	-0.21913886
190	0x3c9d33d4	0.019189753
191	0xbf06094d	-0.5235794
192	0xc039cb4e	-2.9030337
193	0xbfb5be71	-1.4198743
194	0x3f41d6bc	0.75718284
195	0xc006a9e5	-2.1041195
196	0x3f9b5fe7	1.2138642
197	0xbe083aad	-0.13303633
198	0x3febe5da	1.842952
199	0xbe21a27e	-0.15784642
200	0x3fb43fa7	1.4081925
201	0xc00e992a	-2.2280984
202	0xbf818e78	-1.0121603
203	0x3f5185f6	0.81845033
204	0x4000bdf8	2.0115948
205	0xbfad7a88	-1.3553019
206	0x3ef2cd83	0.47422418
207	0x3f5b0959	0.8556114
208	0xbed6058e	-0.41801113
209	0x3e47d070	0.19513106
210	0x3cadbc80	0.021208048
211	0x3dec65e8	0.115428746
212	0x4003a182	2.0567327
213	0x3ed91bda	0.42404062
214	0x40191507	2.3919084
215	0x400810c4	2.1260233
216	0xbf68c6ff	-0.90928644
217	0xbf241a26	-0.641024
218	0xbf75de3f	-0.96042246
219	0x3f6d5579	0.92708546
220	0x3ead704c	0.33874738
221	0x3f4781e1	0.77932554
222	0x3e726a73	0.2367342
223	0x3eda4a70	0.42634916
224	0x3f56c552	0.83894837
225	0xc055c49d	-3.3401253
226	0xbf715533	-0.9427063
227	0x3faf5092	1.3696463
228	0xbfadda40	-1.358223
229	0xbffa93c3	-1.9576343
230	0xbf93fedf	-1.1562155
231	0xbeb9e296	-0.36305684
232	0x3ebd81cf	0.370131
233	0x3f4741a1	0.77834517
234	0x3f2db003	0.678467
235	0xbef81c02	-0.48458868
236	0x3fd7ed03	1.6869205
237	0x3fb3e31c	1.4053683
238	0xc06575b2	-3.5853086
239	0x3f974941	1.181923
240	0x3e95bbbf	0.292448
241	0xbe265633	-0.1624382
242	0x3ea01327	0.31264612
243	0xbde78b01	-0.1130581
244	0x3f2f931b	0.6858384
245	0x400e8825	2.2270596
246	0x400efdeb	2.234248
247	0x40055788	2.0834675
248	0xbfb0fa2b	-1.3826345
249	0xc01b359b	-2.4251468
250	0xbf61eef7	-0.88255256
251	0xbf0a7150	-0.5407915
252	0xc012a6ad	-2.291423
253	0xbe863e38	-0.26219344
254	0xbf8d0d0e	-1.1019609
255	0xbd9dd18b	-0.07705983

fc1.bias f4 [64]
0	0xbf9ac9f7	-1.2092885
1	0x3ea2e361	0.318141
2	0x3e85897e	0.2608146
3	0x3ecaca6a	0.39607555
4	0x3e419d0a	0.18907562
5	0xbe4a3902	-0.19748309
6	0x3e3b22d6	0.18275008
7	0x3ea808a0	0.3281908
8	0x3e185db7	0.148795
9	0x3e25909d	0.16168447
10	0xbec02a12	-0.37532097
11	0x3f636ab2	0.8883468
12	0x3f2abf97	0.6669859
13	0x3f1744ec	0.5908954
14	0xbf056497	-0.5210661
15	0x3e3028ac	0.17203015
16	0xbdda558c	-0.10660848
17	0x3e67461f	0.22585343
18	0x3f437af1	0.7635947
19	0x3dcad278	0.09903425
20	0x3edcbd86	0.43113345
21	0x3e804f3e	0.25060457
22	0x3ece30fc	0.40271747
23	0x3eef04ab	0.4668325
24	0x3f44f0c4	0.7692988
25	0x3ef1eabe	0.47249407
26	0x3eaffe6f	0.34373805
27	0xbf10a599	-0.5650268
28	0xbb739a6a	-0.0037170895
29	0x3f84ed19	1.0384856
30	0x3ebad760	0.36492443
31	0x3ef0914e	0.4698586
32	0x3ee4ae96	0.44664448
33	0x3f1f0115	0.62111026
34	0x3f6e6a59	0.93131024
35	0x3eaa8d95	0.33311144
36	0x3f0e429e	0.555704
37	0x3fa27710	1.2692585
38	0x3f026600	0.5093689
39	0x3f11f5ef	0.5701589
40	0x3f16a87c	0.58850837
41	0x3dd69066	0.104767606
42	0x3f57cb22	0.8429433
43	0x3ede88ea	0.43463832
44	0x3e772c61	0.24138023
45	0x3f01bf1f	0.5068225
46	0x3d555396	0.052081667
47	0x3ef9a83c	0.48761165
48	0x3f9b052c	1.2110953
49	0x3e5ff653	0.21871309
50	0x3eb567ea	0.35430843
51	0x3cf6f975	0.030148247
52	0xbef844a4	-0.4848987
53	0x3e7f04ef	0.24904226
54	0xbd688164	-0.05676402
55	0x3df369ff	0.118854515
56	0x3f12ad25	0.5729545
57	0x3e15aff7	0.14617907
58	0x3ea2f2c4	0.3182584
59	0x3c1efcbb	0.00970381
60	0x3ea8831f	0.32912537
61	0xbf1bd745	-0.6087535
62	0x3ebd5865	0.36981502
63	0x3eadb71d	0.33928767

fc2.weight f4 [180, 64]
0	0x3e5f694c	0.21817511
1	0x3e2bac2f	0.16764902
2	0x3c6c5598	0.014424704
3	0x3edd7c2c	0.43258798
4	0x3ecab7b2	0.39593273
5	0xbdfe7b97	-0.12425917
6	0xbe21f7a4	-0.15817124
7	0xbef492e3	-0.47768316
8	0xbe36acd7	-0.1783937
9	0x3f5d71ec	0.86501956
10	0x3d5af9b8	0.053460807
11	0xbe0a5782	-0.13509944
12	0xbed61808	-0.4181521
13	0xbe0e705f	-0.13910054
14	0x3e0ff534	0.14058381
15	0x3f3c218f	0.73488706
16	0x3eff5baf	0.49874637
17	0x3e8cdb21	0.27510932
18	0x3e252449	0.16127123
19	0x3eac06ac	0.3359884
20	0x3e877b47	0.2646124
21	0x3e8edf34	0.27904665
22	0x3e4b7034	0.19867021
23	0x3e755c39	0.23960961
24	0x3f178cfc	0.591995
25	0x3e6fffd2	0.23437431
26	0x3f0170e2	0.5056287
27	0x3da6a004	0.08135989
28	0x3eced8f9	0.40399912
29	0x3d935df6	0.07195656
30	0x3f264626	0.6495079
31	0xbd7dae7d	-0.061933983
32	0x3ebf6093	0.37378368
33	0x3e47544d	0.19465752
34	0xbedcaf04	-0.43102276
35	0xbe18a672	-0.14907244
36	0xbed54453	-0.4165369
37	0x3ecd8307	0.40139028
38	0x3ed11e59	0.40843466
39	0x3f4cc4b5	0.7998765
40	0x3eb1db96	0.34737843
41	0x3eb002d9	0.34377173
42	0x3e7af58c	0.24507731
43	0x3c10b033	0.008831072
44	0x3ec9ad3a	0.39389974
45	0x3e1032a5	0.1408182
46	0x3eebb9ae	0.460401
47	0x3edb40ae	0.42822784
48	0xbed8a60c	-0.42314184
49	0x3e0361a1	0.12830211
50	0x3e5302f5	0.20606597
51	0xbe9e0d65	-0.30869594
52	0xbca319a8	-0.019909695
53	0x3ea6fef8	0.326164
54	0x3e98c839	0.29840258
55	0x3eb14bac	0.34628046
56	0x3e949fab	0.29028067
57	0x3ebbd35b	0.3668469
58	0x3e9eca46	0.31013697
59	0x3e859e2d	0.2609724
60	0x3ea5b128	0.32361722
61	0xbecfafa0	-0.4056368
62	0x3f0725d5	0.527921
63	0xbf84ba05	-1.0369269
64	0x3faf8a98	1.371417
65	0x3e929fcb	0.28637537
66	0x3c87758f	0.016535548
67	0x3e036f48	0.12835419
68	0x3ec312cd	0.3810028
69	0x3f2f30b8	0.68433714
70	0xbb933bf7	-0.0044932324
71	0x3e6526ae	0.22378036
72	0x3f8afc05	1.085816
73	0x3f20f16c	0.6286838
74	0x3d15c280	0.036562443
75	0x3f29a66f	0.6626958
76	0x3f1981cb	0.59963673
77	0x3fa17081	1.2612458
78	0x3e4fc35c	0.20289367
79	0x3f3de5a9	0.7417856
80	0x3f6cd76b	0.925162
81	0x3ee3532d	0.44399396
82	0xbf977605	-1.1832892
83	0x3eab2bea	0.3343194
84	0x3e63c59e	0.22243354
85	0x3fa383b9	1.2774574
86	0xbcfe3142	-0.031029347
87	0x3f4bbb97	0.79583114
88	0xbe8ab311	-0.27089742
89	0x3f25c00b	0.6474616
90	0x3e974d58	0.29551196
91	0xbc06237b	-0.00818717
92	0x3f16c22c	0.5889003
93	0x3ee73089	0.45154217
94	0x3e94da76	0.29072922
95	0xbfc40ba2	-1.531605
96	0x3e89a9e0	0.26887417
97	0x3ea805c8	0.3281691
98	0x3f95a238	1.169013
99	0x3ea0b034	0.31384432
100	0x3f6494e5	0.89289695
101	0x3fb8f143	1.4448627
102	0x3ec77a13	0.38960323
103	0xbfc18dc5	-1.512139
104	0x3dee00f9	0.11621279
105	0x3e678b50	0.22611737
106	0xbe951485	-0.29117218
107	0x3ed7402e	0.42041153
108	0x3f3e6fef	0.7438955
109	0x3f2c1ea0	0.6723423
110	0xbd032532	-0.032017894
111	0x3e26b231	0.16278912
112	0x3f302be6	0.68816984
113	0x3f8ef8dc	1.1169696
114	0x3d123467	0.035694506
115	0xbe686d55	-0.22697957
116	0xbbe832c0	-0.007086128
117	0x3f5827f7	0.8443598
118	0x3f3b0c6f	0.7306585
119	0x3ea81936	0.32831734
120	0xbf2c4c28	-0.67303705
121	0x3f16d8a3	0.5892431
122	0x3f18b1cb	0.5964629
123	0xbf194140	-0.5986519
124	0x3ecc3050	0.3988061
125	0x3f9e934d	1.2388703
126	0x3f117e23	0.56833094
127	0x3f14e10f	0.5815591
128	0xbe1ebe2c	-0.15502232
129	0xbed32b4a	-0.41243964
130	0x3e669921	0.22519352
131	0xbe9c8015	-0.3056647
132	0x3d88d0d1	0.066804536
133	0x3fe82cf5	1.813872
134	0xbd88450c	-0.06653795
135	0x3f330d15	0.69941837
136	0xbfb9daf8	-1.4519949
137	0xbdac74ae	-0.084206924
138	0x3daec060	0.08532786
139	0xbe7382ac	-0.23780316
140	0x3e6db0a1	0.2321191
141	0xbf7d5b03	-0.98967
142	0xbd89d7a7	-0.067305855
143	0x3e4baf57	0.19891106
144	0x402894e7	2.6340883
145	0xbe79724c	-0.24360007
146	0xbf25340a	-0.6453253
147	0x3e6aae9c	0.2291817
148	0xbd8ffe66	-0.070309445
149	0x3f376bf2	0.71649086
150	0x3f11d168	0.56960154
151	0x3f3df1ee	0.7419728
152	0xbdbcabf0	-0.09212482
153	0x3e3cc70b	0.18435304
154	0x3e9cc659	0.30620077
155	0x3e2b26c3	0.16714005
156	0x3f82385c	1.017345
157	0xbf1b9d91	-0.607873
158	0xbdfe1c74	-0.12407771
159	0x3ec59e5b	0.38597378
160	0x3e9a07f1	0.30084184
161	0x3c9c4329	0.019074993
162	0x3ea8335f	0.32851693
163	0xbf6e6706	-0.9312595
164	0xbf43d388	-0.76494646
165	0x3ef9e17d	0.48804846
166	0x3e00eb29	0.12589706
167	0xc007fc58	-2.1247768
168	0xbe89ebe9	-0.26937798
169	0x3ecb6cdf	0.397315
170	0xbf398938	-0.72475004
171	0x3ee11294	0.43959486
172	0x3f0f6536	0.5601381
173	0xbcb32950	-0.021870285
174	0xbe9ba5f3	-0.30400047
175	0x3ce9d162	0.028542224
176	0x3f8b05b9	1.0861121
177	0xbed40cb5	-0.41415945
178	0x3f29b66b	0.6629397
179	0x3f904099	1.1269714
180	0xbd92ad56	-0.071619675
181	0x3fc708ef	1.5549601
182	0xbf538f13	-0.8264019
183	0x3d834097	0.06408804
184	0xbfbb7fb9	-1.4648353
185	0xbec55044	-0.385378
186	0x3e9198a8	0.2843678
187	0x3e8d9325	0.27651325
188	0x3dd822bd	0.10553501
189	0x4019c786	2.402803
190	0xbf1d37c3	-0.6141321
191	0x3e492f79	0.19647016
192	0x3fa36451	1.2764989
193	0x3e668119	0.22510184
194	0x3d00f153	0.031480145
195	0x3d118a0e	0.03553205
196	0xbf7a87b6	-0.9786333
197	0x3f879e9d	1.059528
198	0xbaf8373e	-0.0018937362
199	0x3f91bf2f	1.138647
200	0xbe320f04	-0.1738854
201	0xbf9ab48c	-1.2086349
202	0xbdc4010c	-0.09570512
203	0x3f07326b	0.52811307
204	0x3f606bd7	0.8766455
205	0x3e0c7091	0.13714816
206	0x3d9a4d53	0.0753428
207	0x3f254e76	0.64572847
208	0xbfe3a9c4	-1.7786183
209	0xbe216259	-0.15760173
210	0xbf9f516d	-1.2446724
211	0x3e6725e6	0.22573051
212	0x3d503fc8	0.050842077
213	0xbf8aac68	-1.0833864
214	0x3f9fcd83	1.2484592
215	0x3e8f912e	0.2804045
216	0x3e78c3f4	0.242935
217	0x3d6fda76	0.05855795
218	0xbd745f61	-0.059661273
219	0x3df36c76	0.11885922
220	0xbc64c094	-0.01396193
221	0x3e2bacb0	0.16765094
222	0x3eab86de	0.33501333
223	0x3f63b036	0.8894075
224	0xbde66b37	-0.11250918
225	0x3bfb5c1a	0.0076708915
226	0x3f10a3d0	0.5649996
227	0x3e814881	0.2525063
228	0xbe6c01ee	-0.23047611
229	0xbd2ba6e0	-0.04190719
230	0x3e920b6e	0.28524345
231	0x3fdb9390	1.7154408
232	0xbcefd4df	-0.02927631
233	0xbd86c3c3	-0.06580307
234	0x3e3133f9	0.17304982
235	0x3e7bc798	0.24587858
236	0x3f23c6df	0.6397533
237	0x3ec4cbb0	0.3843665
238	0xbecdfb02	-0.40230566
239	0x3dbbaeea	0.091642216
240	0x3f4415c9	0.7659574
241	0x3e1f5892	0.1556113
242	0x3f2675ed	0.6502369
243	0x3f03f769	0.5154939
244	0xbd8dc8ba	-0.06923051
245	0x3e88b14f	0.26697776
246	0x3ed9f953	0.42573032
247	0x3f00aa7c	0.5026014
248	0xbfdf7bdd	-1.7459675
249	0xbf21c628	-0.6319299
250	0x3e9848e9	0.29743126
251	0x40216c25	2.5222256
252	0x3e445869	0.19174351
253	0xbfe40906	-1.7815254
254	0xbf68fece	-0.910138
255	0x3eef4afd	0.467369

fc2.bias f4 [180]
0	0x3eb6c1da	0.35694772
1	0x3e8acbc6	0.27108592
2	0xbcc6c1ad	-0.024262274
3	0x3e70f423	0.23530631
4	0x3dbf082a	0.09327729
5	0x3f0e15ee	0.5550221
6	0xbcead494	-0.028665818
7	0xbdfcb0f2	-0.12338437
8	0xbe06b8cc	-0.13156432
9	0xbcd8c06b	-0.02645894
10	0x3d64e16f	0.055879053
11	0x3d13196a	0.03591291
12	0xbe02ba9c	-0.12766498
13	0xbc40eb5c	-0.011774864
14	0xbdec769a	-0.11546059
15	0xbe41fee7	-0.18944894
16	0xbe3d4de4	-0.18486744
17	0x3d10eabf	0.03538012
18	0x3c5f0ebe	0.013614355
19	0xbc8d5d1a	-0.017256308
20	0xbc987ee1	-0.018615188
21	0xbe252797	-0.16128384
22	0xbe1d97b6	-0.15389904
23	0x3eb6d359	0.3570812
24	0x3ea50cd5	0.32236353
25	0xbe08567c	-0.13314241
26	0xbe299a2c	-0.16562718
27	0xbcd775ef	-0.026301352
28	0x3c206e6d	0.009791953
29	0x3e8dd418	0.27700877
30	0xbd9cebd3	-0.076621674
31	0x3e689d88	0.22716343
32	0xbe40b78c	-0.18820018
33	0xbe566d38	-0.20940101
34	0x3e86bc23	0.26315412
35	0xbe4dfbf8	-0.2011565
36	0x3f21598f	0.6302728
37	0x3e25eec4	0.16204363
38	0x3e1a88c1	0.1509123
39	0x3e046a7a	0.12931243
40	0x3ec575bc	0.38566387
41	0x3e8b4803	0.27203378
42	0x3ecdddb6	0.40208215
43	0xbe20d2a1	-0.15705349
44	0xbd2c18cf	-0.042015847
45	0xbd09e1a7	-0.033662464
46	0xbca79c4c	-0.02046027
47	0x3d651820	0.05593121
48	0x3eda6ae6	0.42659682
49	0xbe5d0d62	-0.21587136
50	0xbdc57434	-0.096413046
51	0xbcde8fe1	-0.027168216
52	0xbd8680ca	-0.06567533
53	0xbc8054d5	-0.015665451
54	0x3e5ac869	0.21365513
55	0x3bca9415	0.0061822035
56	0xbdf4fda2	-0.11962439
57	0xbaa4c8d4	-0.0012572058
58	0xbe0a022a	-0.13477388
59	0x3e0310e4	0.12799412
60	0x3efdbb2c	0.49556863
61	0xbb90b2bd	-0.0044158385
62	0xbd297d98	-0.04137954
63	0xbd16e817	-0.036842432
64	0xbd773ccf	-0.060360726
65	0x3e5e76ff	0.21725081
66	0x3b8a1204	0.0042135734
67	0xbe49a4d8	-0.19691789
68	0xbd9ab9a7	-0.075549416
69	0xbdb65058	-0.08902043
70	0xbdfb0520	-0.12256837
71	0x3e85727b	0.26063904
72	0x3e56ed0b	0.20988862
73	0x3e7aa5ea	0.24477354
74	0xbb3827b7	-0.0028099844
75	0xbcf5614b	-0.02995362
76	0x3d243f11	0.040099207
77	0x3e1eb7c5	0.1549979
78	0x3eefe2a4	0.468526
79	0xbe7993c2	-0.24372771
80	0xbe4c0b50	-0.1992619
81	0xbd044222	-0.03228963
82	0x3f7f4804	0.9971926
83	0xbe12eac9	-0.14347376
84	0xbe594f84	-0.21221739
85	0x3aa30813	0.0012438319
86	0xbdca171e	-0.098676905
87	0xbd8b423e	-0.06799744
88	0xbe09991e	-0.13437316
89	0x3eae6293	0.3405958
90	0x3cd9afe5	0.02657313
91	0xbd3fb313	-0.046801638
92	0xbe688554	-0.2270711
93	0xbde0c56c	-0.10975155
94	0xbbfc48d3	-0.007699111
95	0x3ef5e4b2	0.48026043
96	0x3e3d2434	0.18470842
97	0xbe1af1bf	-0.15131281
98	0xbd0e9dd3	-0.03481848
99	0x3ea70eb8	0.32628417
100	0xbe20317a	-0.15643874
101	0x3e8370fe	0.25672144
102	0x3e78d5c5	0.24300297
103	0x3ec5eaae	0.3865561
104	0xbe0c9e0c	-0.13732165
105	0x3dccbeaf	0.099973075
106	0x3e9c27be	0.3049907
107	0x3e2e68ee	0.17032215
108	0xbe148cb8	-0.14506805
109	0x3e185754	0.14877063
110	0xbe2255d5	-0.15853055
111	0xbe18f6c5	-0.14937885
112	0x3e2913c4	0.16511446
113	0x3e052cde	0.13005397
114	0xbd42d7a2	-0.047568925
115	0xbc4d6b97	-0.012537858
116	0xbe31f425	-0.1737829
117	0x3c36375b	0.011121596
118	0x3eb524e9	0.35379723
119	0x3f2d5c52	0.67718995
120	0xbca33320	-0.01992184
121	0xbdc31691	-0.095257886
122	0xbe0b2f2e	-0.13592216
123	0xbe631a4d	-0.22178002
124	0xbe34074f	-0.17580913
125	0xbe9f4927	-0.31110498
126	0xbd0cc985	-0.03437187
127	0xbe03a944	-0.12857538
128	0xbd84af96	-0.06478803
129	0x3c0b6ad8	0.00850936
130	0xbe23d469	-0.15998997
131	0x3e54d6b4	0.20785028
132	0xbd3cf52a	-0.046132244
133	0xbd7942fd	-0.0608549
134	0xbe1deea1	-0.15423061
135	0xbe0df8cb	-0.13864438
136	0xbe0b2179	-0.13586988
137	0x3dc3c6fc	0.09559438
138	0xbd5ad488	-0.05342534
139	0x3e376c3d	0.17912383
140	0x3db3e5b1	0.087840445
141	0x3d10c7de	0.03534686
142	0x3f1dadd2	0.61593354
143	0x3ef9e856	0.4881007
144	0x3e74d9e0	0.23911238
145	0x3d8db2ce	0.0691887
146	0xbd11124f	-0.03541785
147	0xbe0cca9d	-0.13749166
148	0x3e424ca7	0.18974553
149	0xbd98cd3c	-0.0746102
150	0x3f02de9a	0.51120913
151	0xbe0709fe	-0.13187405
152	0x3c9ac2ef	0.01889178
153	0xbca48119	-0.02008109
154	0xbbd34a58	-0.0064480714
155	0xbdbf4c8a	-0.093407705
156	0x3e68ccc4	0.22734362
157	0xbecef7d9	-0.40423468
158	0x3b80bbcc	0.003928637
159	0xbe29c55e	-0.16579196
160	0xbd08612e	-0.033295803
161	0xbdf99549	-0.12186677
162	0x3e1aeca5	0.15129335
163	0xbe3230f1	-0.17401482
164	0xbdb48d84	-0.088160545
165	0xbe13d3f1	-0.14436318
166	0xba5f39a1	-0.0008515362
167	0xbe18b9fd	-0.14914699
168	0x3cc5d81b	0.024150899
169	0xbe253078	-0.1613177
170	0xbe50b517	-0.2038158
171	0xbdaa28e5	-0.08308581
172	0xbdf918b0	-0.12162912
173	0xbd44ea49	-0.048074994
174	0x3f33363e	0.7000464
175	0x3e1ad376	0.15119728
176	0x3e2224ea	0.15834394
177	0x3e60f91c	0.21970028
178	0xb9e2bda2	-0.00043247367
179	0x3e352767	0.17690812

conv.weight f4 [5, 1, 34, 34]
0	0xbe804bff	-0.2505798
1	0xbe83e406	-0.25759906
2	0xbe830df8	-0.25596595
3	0xbe89873f	-0.26860997
4	0xbe900e1e	-0.2813577
5	0xbe7fcfa6	-0.24981555
6	0xbe8a8ffe	-0.27062982
7	0xbe94bf2b	-0.290521
8	0xbe92fc12	-0.2870794
9	0xbeaa8598	-0.3330505
10	0xbebcf48c	-0.36905324
11	0xbee4fb0a	-0.44722778
12	0xbef0f54c	-0.47062147
13	0xbefd7c61	-0.49508956
14	0xbf04eda7	-0.5192513
15	0xbecd724a	-0.40126258
16	0xbed4776b	-0.4149736
17	0xbed01426	-0.40640372
18	0xbeda87fa	-0.42681867
19	0xbed6b52f	-0.41935107
20	0xbe8d2368	-0.27566075
21	0xbe92e99a	-0.2869385
22	0xbe801668	-0.25017095
23	0xbe3c3959	-0.18381251
24	0xbea1e038	-0.31616378
25	0xbe93823b	-0.28810295
26	0xbe93ae1b	-0.2884377
27	0xbea10fc7	-0.3145735
28	0xbe8fc09c	-0.28076637
29	0xbe875d1c	-0.26438224
30	0xbe717415	-0.23579438
31	0xbe8785c1	-0.26469234
32	0xbe871c14	-0.2638861
33	0xbe87d1f8	-0.2652738
34	0xbe787a2f	-0.2426536
35	0xbe8cb007	-0.27478048
36	0xbe80e54d	-0.25174943
37	0xbe738577	-0.23781382
38	0xbe9507ca	-0.29107505
39	0xbea91911	-0.33026937
40	0xbe9ff6a6	-0.31242865
41	0xbe905b10	-0.28194475
42	0xbebbb309	-0.3666003
43	0xbeb64840	-0.35601997
44	0xbecff4f0	-0.4061656
45	0xbf03ece5	-0.5153335
46	0xbf0e3fe8	-0.55566263
47	0xbf04a709	-0.51817375
48	0xbf0d624f	-0.5522813
49	0xbec6ff52	-0.3886667
50	0xbec2bc96	-0.38034505
51	0xbed1ff39	-0.41015032
52	0xbeed3723	-0.46331128
53	0xbee2927a	-0.44252378
54	0xbe75e4ee	-0.24013111
55	0xbe9393d8	-0.28823733
56	0xbe51ebf4	-0.20500165
57	0xbe6d481a	-0.23172036
58	0xbe959373	-0.29214057
59	0xbe89f897	-0.26947471
60	0xbe9d1f06	-0.30687732
61	0xbe973d5d	-0.29539004
62	0xbe80aa0b	-0.25129732
63	0xbe7c3244	-0.2462855
64	0xbe7db280	-0.24775124
65	0xbe90232a	-0.28151828
66	0xbe9865d2	-0.29765183
67	0xbe8a36f8	-0.26995063
68	0xbe619aad	-0.2203166
69	0xbe9c867d	-0.30571356
70	0xbe8a394e	-0.26996845
71	0xbe9080ba	-0.2822321
72	0xbeb9f2d1	-0.36318067
73	0xbebddd8d	-0.37083092
74	0xbebd8c72	-0.37021214
75	0xbea36521	-0.31913093
76	0xbedb305e	-0.4281034
77	0xbeda11c4	-0.4259168
78	0xbee3c1f0	-0.444839
79	0xbef1da33	-0.47236785
80	0xbefe1270	-0.49623442
81	0xbef7f12b	-0.48426184
82	0xbf1d0ab6	-0.6134447
83	0xbf131cdf	-0.5746593
84	0xbf1c7e52	-0.6113025
85	0xbefe9b81	-0.49728015
86	0xbee5ed67	-0.44907686
87	0xbecd95d1	-0.40153363
88	0xbe91d0e2	-0.28479677
89	0xbe964158	-0.29346728
90	0xbe9fe2b9	-0.31227663
91	0xbe9b52c7	-0.30336592
92	0xbe85f100	-0.2616043
93	0xbe78d4fb	-0.24299996
94	0xbe782b45	-0.24235256
95	0xbe80c82f	-0.25152728
96	0xbe803f26	-0.25048178
97	0xbe825fba	-0.2546366
98	0xbe81e499	-0.2536972
99	0xbe87e983	-0.26545343
100	0xbe7e3c93	-0.24827795
101	0xbe7ec258	-0.24878824
102	0xbe876f40	-0.26452065
103	0xbe619f5a	-0.22033444
104	0xbea603f9	-0.32424906
105	0xbe93b489	-0.28848675
106	0xbeb869ec	-0.36018312
107	0xbecc3d7e	-0.39890665
108	0xbec6b551	-0.38810208
109	0xbeb8ecf4	-0.3611828
110	0xbebc2f0b	-0.3675464
111	0xbecacdbf	-0.39610097
112	0xbebd9b87	-0.3703272
113	0xbed7f2ac	-0.4217733
114	0xbefbbfde	-0.4916982
115	0xbf1babf8	-0.6080928
116	0xbf0c1ccb	-0.54731435
117	0xbf0d4f22	-0.5519887
118	0xbf1647ad	-0.5870312
119	0xbeff3940	-0.49848366
120	0xbef877f2	-0.4852901
121	0xbecf5765	-0.40496364
122	0xbeaa84c8	-0.3330443
123	0xbea52091	-0.3225141
124	0xbea4559a	-0.3209656
125	0xbe820b19	-0.25399092
126	0xbe7a2562	-0.24428323
127	0xbe74a342	-0.23890403
128	0xbe6da3db	-0.23207037
129	0xbe68565c	-0.22689193
130	0xbe60d1c8	-0.21955025
131	0xbe593836	-0.21212849
132	0xbe665fe1	-0.22497512
133	0xbe715973	-0.23569278
134	0xbe7112b4	-0.23542291
135	0xbe80e8f1	-0.2517772
136	0xbe8e5a50	-0.27803278
137	0xbe8f6c1c	-0.28012168
138	0xbeacd39d	-0.33755198
139	0xbeb7b2aa	-0.35878497
140	0xbeb204ef	-0.3476939
141	0xbed29b57	-0.4113414
142	0xbee4b266	-0.44667357
143	0xbeb2d38e	-0.34927028
144	0xbeb81b2e	-0.35958236
145	0xbeb586b7	-0.35454342
146	0xbe9eb870	-0.3100009
147	0xbed8c9ad	-0.42341366
148	0xbf27bcd6	-0.65522516
149	0xbf22a929	-0.6353937
150	0xbef4a0c4	-0.47778904
151	0xbf000a56	-0.5001577
152	0xbf0a92b6	-0.54130113
153	0xbef90ebd	-0.48644057
154	0xbeee4748	-0.46538758
155	0xbef6e804	-0.4822389
156	0xbf00ddda	-0.5033852
157	0xbe84f4e8	-0.259681
158	0xbe776c62	-0.24162439
159	0xbe900f7c	-0.28136814
160	0xbe9299d6	-0.28632993
161	0xbe8713ee	-0.26382393
162	0xbe846357	-0.2585704
163	0xbe7d21a4	-0.24719864
164	0xbe542ea4	-0.20720917
165	0xbe53e6c0	-0.20693493
166	0xbe401c18	-0.18760717
167	0xbe6899d6	-0.22714934
168	0xbe630aaf	-0.22172044
169	0xbe5fa38f	-0.21839736
170	0xbe5100f9	-0.20410527
171	0xbe6c8bfb	-0.23100273
172	0xbea18bf9	-0.31552103
173	0xbee6301d	-0.44958583
174	0xbed26024	-0.41088974
175	0xbeb964ee	-0.36209816
176	0xbebd4437	-0.36966106
177	0xbeb8e863	-0.36114797
178	0xbeca49a5	-0.3950931
179	0xbefb3508	-0.49063897
180	0xbefa9055	-0.48938242
181	0xbf0d9f76	-0.55321443
182	0xbef84d3b	-0.48496422
183	0xbefad8d2	-0.48993546
184	0xbf10f6dc	-0.5662668
185	0xbf086883	-0.5328447
186	0xbf169194	-0.58815885
187	0xbf13855c	-0.57625365
188	0xbef77fab	-0.4833959
189	0xbebf87d6	-0.37408322
190	0xbe95655f	-0.29178903
191	0xbeb6aafe	-0.35677332
192	0xbe92bb0c	-0.2865833
193	0xbe9be8c2	-0.30451018
194	0xbe87b234	-0.26503146
195	0xbe8b3ffc	-0.27197254
196	0xbe56606e	-0.20935223
197	0xbe4d0b82	-0.20023921
198	0xbe4399a4	-0.19101578
199	0xbe35acda	-0.17741719
200	0xbe3e491a	-0.18582574
201	0xbe49a143	-0.19690423
202	0xbe426b79	-0.1898631
203	0xbe599b97	-0.21250759
204	0xbea05a6c	-0.31318986
205	0xbe9de40e	-0.30838054
206	0xbe9f725a	-0.3114193
207	0xbeb9dddc	-0.36302078
208	0xbeb8ddc3	-0.3610669
209	0xbecc18f3	-0.39862785
210	0xbecf26cd	-0.4045929
211	0xbeec90ce	-0.46204227
212	0xbeddc80b	-0.43316683
213	0xbefbf158	-0.49207568
214	0xbef07d7f	-0.46970746
215	0xbefb1d62	-0.49045855
216	0xbf081d5a	-0.53169787
217	0xbf029ebf	-0.5102348
218	0xbf0c5f66	-0.54833066
219	0xbf06c5a2	-0.52645314
220	0xbf0a9fa5	-0.5414985
221	0xbee4f497	-0.44717857
222	0xbed7ec02	-0.42172247
223	0xbedaa5fb	-0.42704758
224	0xbebc3535	-0.36759344
225	0xbe85e5af	-0.26151797
226	0xbe722bc3	-0.23649506
227	0xbe59e050	-0.21276975
228	0xbe680d7f	-0.22661398
229	0xbe845a90	-0.25850344
230	0xbe93b7dc	-0.2885121
231	0xbe86aaf7	-0.2630231
232	0xbe4927a4	-0.19644028
233	0xbe39827c	-0.18116182
234	0xbe30e293	-0.17273931
235	0xbe4599c0	-0.19296932
236	0xbe60d454	-0.21955997
237	0xbe51804a	-0.20459095
238	0xbe844a9c	-0.25838172
239	0xbe97b12e	-0.29627365
240	0xbeab6f01	-0.33483127
241	0xbeb3aae0	-0.35091305
242	0xbeb6640a	-0.356232
243	0xbeebb6f7	-0.4603803
244	0xbee504e9	-0.4473031
245	0xbed9fdf8	-0.42576575
246	0xbedec130	-0.43506765
247	0xbec6c5e7	-0.38822863
248	0xbedfcb40	-0.43709755
249	0xbf012ade	-0.50456035
250	0xbf123771	-0.57115847
251	0xbf126bbf	-0.5719566
252	0xbf0aa06f	-0.5415105
253	0xbee476d1	-0.446219
254	0xbed01501	-0.40641025
255	0xbed9a75e	-0.42510504

conv.weight f4 [5, 1, 10, 10]
0	0x3dc58e3d	0.096462704
1	0x3d1d70c2	0.038437612
2	0x3dc9063a	0.09815641
3	0xbb6839f0	-0.0035434924
4	0xbdbc14a1	-0.09183622
5	0xbd393de4	-0.04522504
6	0x3d74a2b6	0.059725486
7	0x3dfff77c	0.12498376
8	0x3e639f4d	0.22228737
9	0x3e3fb509	0.18721403
10	0x3c9673fc	0.018365853
11	0xbcecf3cd	-0.028924847
12	0xbe1fc3bb	-0.15602009
13	0xbe401c27	-0.1876074
14	0xbc387106	-0.011257416
15	0x3b90898b	0.0044109276
16	0x3d089248	0.03334263
17	0x3d96cfa0	0.0736382
18	0x3e04e332	0.12977293
19	0x3e092e95	0.13396676
20	0xbe0e1223	-0.13874106
21	0xbd8d5065	-0.069001
22	0xbe09cf1f	-0.13457917
23	0xbca0de80	-0.019637346
24	0xbe70a2e4	-0.23499638
25	0xbdc80bce	-0.097678766
26	0xbbc87b3b	-0.006118206
27	0x3e053b3e	0.1301088
28	0x3e81aa71	0.2532535
29	0x3deea769	0.11653025
30	0xbc3ee08d	-0.011650217
31	0x3ba13bcf	0.00492046
32	0xbd489d2f	-0.048978027
33	0xbdda3e8f	-0.10656463
34	0xbd50e7b0	-0.051002204
35	0xbe3f5bdc	-0.18687385
36	0xbe9132f5	-0.2835919
37	0x3da55170	0.080721736
38	0x3e825e65	0.25462642
39	0x3e5bb83d	0.21457
40	0xbe030510	-0.127949
41	0xbe041362	-0.12898019
42	0xbd894e6c	-0.06704411
43	0xbe301889	-0.1719686
44	0xbd663afe	-0.056208603
45	0xbe8f6299	-0.28004912
46	0x3c6d17f3	0.014471042
47	0x3d96b9b5	0.073596396
48	0x3e28c75b	0.16482298
49	0x3dc518c3	0.096238635
50	0x3cb41664	0.021983333
51	0xbe105bdc	-0.14097542
52	0xbe0d5b94	-0.13804466
53	0xbe28138a	-0.16413704
54	0xbe24585a	-0.16049328
55	0x3e00b3a8	0.12568533
56	0x3e0a14c5	0.13484485
57	0x3d2ff1a3	0.042955052
58	0x3dd27b75	0.10277454
59	0x3cf4eb67	0.029897405
60	0xbd3856b4	-0.04500456
61	0xbdd562c4	-0.10419229
62	0x3c053c35	0.00813203
63	0xbccd6f02	-0.025077347
64	0xbe33063a	-0.17482844
65	0x3dd56227	0.10419112
66	0xbd2176dd	-0.039419997
67	0x3cc549de	0.024083074
68	0x3e485497	0.19563518
69	0x3bb4484b	0.005501782
70	0xbdbdf2ff	-0.092748635
71	0xbd2593a1	-0.040423993
72	0xbdf862de	-0.121282324
73	0xbe284611	-0.16432978
74	0xbe80f345	-0.251856
75	0x3d61f375	0.05516382
76	0xbca6ec75	-0.020376423
77	0xbb95cb20	-0.0045713335
78	0xbcb4d2af	-0.022073118
79	0x3e17274f	0.14761089
80	0x3ba9b173	0.0051786243
81	0xbdab77b8	-0.08372444
82	0xbda46b73	-0.08028307
83	0xbda28040	-0.07934618
84	0xbe868eb8	-0.2628076
85	0xbb5354af	-0.003224652
86	0xbd94bc93	-0.0726253
87	0xbd1c8048	-0.038208276
88	0xb9c8b91d	-0.00038284893
89	0xbcee5e4f	-0.029097704
90	0xbd5953d8	-0.053058475
91	0x3c82f808	0.015987411
92	0xbdea0eb9	-0.114285894
93	0xbd27771c	-0.040885076
94	0x3d317203	0.04332162
95	0x3dc8cae6	0.09804325
96	0xbdaabd01	-0.08336831
97	0xbd1674ea	-0.03673259
98	0xbd34fa94	-0.044184282
99	0xbc9bd06f	-0.019020287
100	0x3e3bd61e	0.18343398
101	0x3e0d4fd0	0.13799977
102	0x3e85aabb	0.2610682
103	0x3e86f8e7	0.26361772
104	0x3e8667ed	0.26251164
105	0x3e901775	0.28142896
106	0x3e5fb065	0.21844633
107	0x3ea22b29	0.31673554
108	0x3e471109	0.19440092
109	0x3e72558b	0.23665445
110	0x3e813804	0.2523805
111	0x3e0c2937	0.13687597
112	0x3deb3027	0.11483794
113	0x3dc2127e	0.09476183
114	0x3e8e0127	0.27735254
115	0x3e9d8466	0.30765074
116	0x3e18cd8d	0.14922161
117	0x3e1af77b	0.15133469
118	0x3eae84fd	0.34085837
119	0x3e550306	0.20801935
120	0x3e7d199c	0.247168
121	0x3e0aa365	0.13538893
122	0x3e2a7bfd	0.1664886
123	0x3e6409d1	0.2226937
124	0x3e8265fd	0.25468436
125	0x3e8fcb8d	0.28084984
126	0x3e319cf9	0.17345037
127	0x3e86c4bc	0.2632197
128	0x3eb4cd3d	0.35312834
129	0x3ec2494c	0.37946546
130	0x3e3adfbc	0.1824941
131	0x3e0eb855	0.13937505
132	0x3e53fab1	0.207011
133	0x3e530689	0.20607962
134	0x3dec6636	0.11542933
135	0x3df2e017	0.11859148
136	0x3e823f5f	0.25438973
137	0x3ebaef9b	0.3651093
138	0x3e954c3c	0.29159725
139	0x3e841d13	0.25803432
140	0x3e8d6612	0.27616936
141	0x3e71b190	0.23602891
142	0x3e80f6c6	0.25188273
143	0x3e3fc303	0.18726735
144	0x3e36d004	0.17852789
145	0x3e4aec40	0.19816685
146	0x3e8458df	0.25849053
147	0x3e88a753	0.26690158
148	0x3ec1a3a5	0.37820163
149	0x3e99ca25	0.30037037
150	0x3e7994ef	0.2437322
151	0x3de88ebe	0.11355351
152	0x3e8aa3a1	0.27077964
153	0x3e2bc582	0.16774562
154	0x3e277920	0.163548
155	0x3e98c68b	0.29838976
156	0x3e738e27	0.23784696
157	0x3e806e5a	0.25084192
158	0x3e66598f	0.22495101
159	0x3e80892f	0.25104663
160	0x3e47715f	0.19476841
161	0x3e203d3b	0.15648358
162	0x3e877c63	0.26462087
163	0x3e101164	0.14069134
164	0x3e2ba6bb	0.16762821
165	0x3e80cd25	0.25156513
166	0x3ea29bb8	0.3175943
167	0x3e38c9f9	0.18045796
168	0x3e4333b3	0.1906269
169	0x3e956ce8	0.2918465
170	0x3db9ac9e	0.09066127
171	0x3e30c137	0.17261206
172	0x3e66761f	0.22505997
173	0x3e31fb92	0.17381123
174	0x3ddd4a7e	0.10805224
175	0x3e8bfefb	0.27342972
176	0x3e3a7783	0.18209653
177	0x3e58cd93	0.2117217
178	0x3e85e050	0.261477
179	0x3e88fe5d	0.26756564
180	0x3de70c86	0.112816855
181	0x3e748fed	0.23883028
182	0x3dae824d	0.08520947
183	0x3dba74a2	0.09104277
184	0x3db1263b	0.0864987
185	0x3e359620	0.1773305
186	0x3e1a9a99	0.15098037
187	0x3d4c9ea2	0.04995597
188	0x3e1aabcf	0.15104602
189	0x3deca9e2	0.1155584
190	0x3e241b1e	0.1602597
191	0x3e39232a	0.1807982
192	0x3e0bcb9e	0.13651893
193	0x3e0a45e9	0.13503231
194	0x3e774999	0.24149169
195	0x3e094b4f	0.13407634
196	0x3e02ec28	0.12785399
197	0x3e7903f0	0.24317908
198	0x3e7e6a1e	0.24845168
199	0xbbb9967a	-0.00566369
200	0xbe0aa301	-0.13538744
201	0xbe00e0db	-0.12585776
202	0xbc21a2f5	-0.009865512
203	0xbd940f3d	-0.07229469
204	0xbdccede8	-0.100063145
205	0xbd4c29cd	-0.04984455
206	0x3aa0d683	0.0012270961
207	0xbd518eaa	-0.051161446
208	0xbda03a03	-0.07823565
209	0xbe080532	-0.13283232
210	0xbdf2f5f4	-0.11863318
211	0x3d04787c	0.032341465
212	0xbc4d6dec	-0.012538414
213	0xbe07dec4	-0.13268572
214	0xbe0d307c	-0.13788027
215	0xbdbde918	-0.09272975
216	0xbd49bd7f	-0.049252983
217	0xbdfa28f6	-0.12214844
218	0x3c948358	0.018129036
219	0xbe1bee38	-0.15227592
220	0xbd8a9250	-0.06766188
221	0x3cd799e1	0.026318492
222	0x3cd6fbb7	0.026243074
223	0x3d4cd2e4	0.05000581
224	0xbdc250b2	-0.09488048
225	0x3d1a299e	0.037637345
226	0xbca62e74	-0.020285822
227	0x3cf8a902	0.030354027
228	0xbdbc761e	-0.092022166
229	0xbc70e477	-0.014702908
230	0xbe0d0589	-0.13771643
231	0xbe0e6c4f	-0.13908504
232	0xbdd200c1	-0.1025405
233	0xbc6b7355	-0.014370759
234	0x3d62c933	0.05536766
235	0xbdaee27c	-0.08539292
236	0xbdb0cb48	-0.08632523
237	0x3ceb7a14	0.028744735
238	0xbe21038d	-0.15724011
239	0xbbbe5214	-0.0058081243
240	0x3af0ee92	0.0018381646
241	0x3d00280a	0.031288184
242	0x3cfe057a	0.03100847
243	0xbd9a1163	-0.075228475
244	0xbca9e430	-0.020738691
245	0xbdc7b16a	-0.09750636
246	0xbddb6ea3	-0.10714462
247	0xbe038f2a	-0.12847582
248	0xbdd5ddf5	-0.104427256
249	0xbe0cf428	-0.13765013
250	0xbe3322ac	-0.17493695
251	0xbe288952	-0.16458634
252	0xbda440c3	-0.08020165
253	0x3cf7317f	0.030174969
254	0xbdeb965e	-0.1150329
255	0xbda91d90	-0.08257592

conv.bias f4 [5]
0	0xbc8535d4	-0.016261019
1	0x3c8b7755	0.017024675
2	0xbcd1bf7f	-0.025604008
3	0xbb7a48da	-0.0038190396
4	0xbcddf964	-0.027096458

fc1.weight f4 [64, 180]
0	0xbd2e5fe5	-0.04257192
1	0x3d0da096	0.034576975
2	0x3d5c1c9a	0.053738214
3	0xbc833cd8	-0.016020223
4	0x3d959289	0.0730334
5	0xbd3b8118	-0.04577741
6	0xbd5e95bb	-0.054342013
7	0x3d2163c2	0.039401777
8	0xbd227269	-0.03965989
9	0xbd9028ff	-0.070390694
10	0x3d420092	0.047363825
11	0xbd8a7286	-0.06760125
12	0x3d00df5a	0.031463005
13	0xbd310bf8	-0.043224305
14	0xbcfbff19	-0.030761288
15	0xbd0dce0d	-0.034620333
16	0xbdd05e1a	-0.101741984
17	0x3c5ea428	0.013588943
18	0x3d74328a	0.05961851
19	0xbd4a4698	-0.04938373
20	0xbdb3f932	-0.087877646
21	0xbc91ba48	-0.017789021
22	0xbd94d3a5	-0.072669305
23	0x3d489eda	0.048979618
24	0xbd6e15bc	-0.058126196
25	0xbc375e4e	-0.011191918
26	0x3b8f5137	0.0043736952
27	0xbd6377f2	-0.05553431
28	0xbb2f12a7	-0.0026713999
29	0x3d7ce97a	0.061746098
30	0xbd0e42cd	-0.034731675
31	0xbd7867d6	-0.0606459
32	0xbc9bdaaa	-0.019025166
33	0x3d3cd92c	0.04610555
34	0xbce448f2	-0.027866814
35	0x3d021760	0.031760573
36	0x3d17c600	0.037054062
37	0x3beaea70	0.0071690604
38	0xbcb207a2	-0.021732155
39	0xbccbf806	-0.02489854
40	0xbd1ff1eb	-0.03904907
41	0x3d21a06a	0.039459623
42	0xbc4c80a8	-0.012481846
43	0x3c32eab8	0.010920219
44	0x3b82d5d4	0.0039927755
45	0xbce91a45	-0.02845491
46	0x3c418140	0.011810601
47	0x3d3051e0	0.043046832
48	0x3cbf4f04	0.023353107
49	0xbdb2b920	-0.08726716
50	0x3c80abe5	0.015706966
51	0xbda439f5	-0.08018867
52	0xbdb3ca73	-0.087788485
53	0xbceaf9ca	-0.028683562
54	0x3d780d36	0.060559474
55	0xbdc8510f	-0.09781086
56	0xbd7a28ef	-0.061074194
57	0xbbabe63c	-0.005245952
58	0xbc320367	-0.010865069
59	0x3d6f312a	0.058396496
60	0x3d85c479	0.06531615
61	0x3b9c3358	0.004766863
62	0xbd958ed4	-0.07302633
63	0x3c341b46	0.010992831
64	0xbcadba50	-0.021207005
65	0xbd8f61df	-0.07001089
66	0xbd88cf09	-0.06680114
67	0xbd0e9413	-0.034809183
68	0xbd54d9b5	-0.051965434
69	0x3d26ae64	0.040693656
70	0xbc1f3430	-0.009717032
71	0xbd88b5bc	-0.06675288
72	0xbcc68d38	-0.02423726
73	0xbd3e64ac	-0.046482727
74	0xbc277880	-0.0102216005
75	0xbd508920	-0.050912023
76	0x3ce2a14c	0.027664803
77	0xbc1b82b0	-0.009491608
78	0x3ba8fb00	0.0051568747
79	0xbd882248	-0.06647164
80	0xbe009516	-0.12556872
81	0xbbdf672f	-0.0068177204
82	0x3d25d8e4	0.040490046
83	0x3d096c40	0.0335505
84	0xbd83b202	-0.06430437
85	0xbcc0c862	-0.02353305
86	0x3c19d3de	0.009388892
87	0xbdd6803f	-0.1047368
88	0xbd844cd7	-0.064599685
89	0xbcec364a	-0.02883448
90	0x3d5949f6	0.05304905
91	0xbdb1cf62	-0.08682133
92	0xbdea1657	-0.11430042
93	0x398b369d	0.00026552836
94	0x3c362351	0.0111168185
95	0xbd85679f	-0.06513905
96	0x3d48394e	0.048882775
97	0xbd6da4a3	-0.058018338
98	0xbce0d4b5	-0.027445177
99	0xbe00a3c1	-0.12562467
100	0x3c979ac7	0.01850642
101	0xbbaca600	-0.005268812
102	0xbd7618b4	-0.060082152
103	0x3d88dc21	0.06682611
104	0xbd84f515	-0.06492058
105	0x3d80b8c9	0.06285245
106	0xbcd28fbc	-0.025703304
107	0x3d36436a	0.044497885
108	0x3c4e7bc0	0.0126027465
109	0x3c5e8c90	0.013583317
110	0x3d3fec2a	0.046856083
111	0x3d0fd3ba	0.035114028
112	0x3cff518c	0.031166814
113	0x3d47c072	0.048767515
114	0xbd5d1faf	-0.053985294
115	0x3bf5a150	0.0074960366
116	0x3c2fa0d8	0.0107195005
117	0xbc056d28	-0.008143701
118	0x3d65c9ce	0.05610066
119	0xbd837aea	-0.06419928
120	0x3cc2f564	0.023798652
121	0x3d117888	0.03551534
122	0x3d619232	0.055071063
123	0x39d6c400	0.00040963292
124	0xbd410710	-0.047125876
125	0xbc9ff936	-0.019528013
126	0x3c057b28	0.0081470385
127	0xbdca81a1	-0.09888006
128	0xbdc70e03	-0.097194694
129	0x3b7eeb40	0.0038897544
130	0xbe029426	-0.12751827
131	0x3d133bd2	0.03594572
132	0x3d1361f2	0.03598208
133	0xbd2ed32a	-0.04268185
134	0x3c7db7bf	0.015485703
135	0xbdd8c47e	-0.10584353
136	0x3d8b4827	0.06800871
137	0xbd5e94ae	-0.05434101
138	0x3ccd472c	0.025058351
139	0x3d2abb38	0.041682452
140	0x3ce3fa50	0.02782932
141	0xbd731cfc	-0.059353814
142	0x3ccf2540	0.025286317
143	0x3ce70c44	0.02820409
144	0x3d84b09d	0.06478999
145	0xbd7d2a81	-0.061808113
146	0x3cfe63fc	0.031053536
147	0xbcf1c92e	-0.029514875
148	0xbd4f3d66	-0.050595663
149	0x3d7a2a52	0.061075516
150	0xbd95f44e	-0.07321988
151	0x3cc8fb00	0.024533749
152	0xbc50e488	-0.012749799
153	0xbd9c6acc	-0.076375574
154	0xbd52aa60	-0.051432014
155	0x3d2c6dc6	0.042096876
156	0x3d207a8e	0.039179377
157	0xbd634605	-0.055486698
158	0xbd5a06bd	-0.053229082
159	0x3c5fa0e2	0.013649197
160	0xbd3b3828	-0.04570785
161	0x3b1658c0	0.0022941083
162	0x3c950390	0.018190175
163	0xbdcd37a2	-0.10020377
164	0xbdf5832d	-0.119879104
165	0xbdded743	-0.10880902
166	0xbdcf1c90	-0.1011287
167	0xbd9264d5	-0.071481384
168	0x3c9c447c	0.019075625
169	0x3c7a7a9d	0.015288022
170	0xbc5752a5	-0.013142263
171	0xbd8375c2	-0.06418945
172	0xbd8ecee8	-0.06973058
173	0x3cc9107c	0.024543993
174	0x3d4c576e	0.049888067
175	0xbb0ff920	-0.0021968558
176	0xbb982930	-0.004643582
177	0xbd876d0d	-0.06612597
178	0x3d91af45	0.07113508
179	0x3d7e9042	0.062149294
180	0x3d10b614	0.035329893
181	0x3d9249bf	0.07142972
182	0xbd34bcde	-0.04412543
183	0xbce2f0bc	-0.027702682
184	0x3d4c55d6	0.049886547
185	0x3d94a491	0.07257951
186	0xbd741c00	-0.059597015
187	0xbccab3d0	-0.024743944
188	0x3d466b20	0.048442006
189	0xbd038a76	-0.03211447
190	0x3bee7600	0.0072772503
191	0x3d181232	0.037126727
192	0x3d12b2be	0.035814993
193	0xbc7a026c	-0.0152593665
194	0x3ddbcf21	0.10732866
195	0x3d0f7612	0.03502471
196	0x3dc05b8d	0.09392462
197	0x3d8e913f	0.06961297
198	0xbd7e1f5a	-0.062041618
199	0x3af1b1bd	0.0018439811
200	0x3cfff61b	0.031245282
201	0x3c32dbb9	0.010916644
202	0x3d89878f	0.06715309
203	0xbc4f7bc0	-0.012663782
204	0xbae52780	-0.0017483085
205	0xbd6a2e2b	-0.057172935
206	0xbcc9280a	-0.024555225
207	0x3cfa210e	0.03053334
208	0xbd5e29b9	-0.05423901
209	0xbd673fe2	-0.056457408
210	0x3c81a5cc	0.015826128
211	0xbd8bceb0	-0.06826532
212	0xbd6a66be	-0.05722689
213	0x3d2bec6a	0.04197351
214	0xbd717896	-0.05895289
215	0x3d7e78ae	0.062126808
216	0xbc87bcb8	-0.01656948
217	0xbd433962	-0.047662146
218	0x3d450c5f	0.0481075
219	0xbd497ab5	-0.04918929
220	0x3da4b19b	0.08041688
221	0x3d8c4b19	0.06850261
222	0xb9d96100	-0.00041461736
223	0xbd92cda2	-0.071681276
224	0xbdda894b	-0.10670718
225	0xbce6e38c	-0.028184675
226	0x3d84252d	0.06452403
227	0x3d2ead4e	0.042645745
228	0xbd2b1098	-0.041763872
229	0xbcbd3be9	-0.023099856
230	0xbdbb8029	-0.09155304
231	0x3bc91aff	0.0061372514
232	0x3b2cc281	0.002636105
233	0x3d9f5f52	0.07781853
234	0xbb885790	-0.004160829
235	0xbd115f4d	-0.035491277
236	0xbbe93ba4	-0.0071177054
237	0x3c4eccf2	0.012622105
238	0x3ba5b405	0.0050568604
239	0x3da6ea99	0.08150215
240	0x3d4bf56c	0.0497946
241	0xbba8a336	-0.0051464094
242	0x3d0dcbbe	0.03461813
243	0xbd971734	-0.073774725
244	0xbdc4e5b7	-0.09614127
245	0x3daf5b4a	0.08562334
246	0x3d8b208c	0.06793317
247	0x3d1df17f	0.038560387
248	0xbd0152ab	-0.03157298
249	0x3d2fbd26	0.042904995
250	0x3dd6ca9e	0.10487865
251	0xbb824704	-0.003975751
252	0xbc5d340c	-0.0135011785
253	0x3d92212b	0.071352325
254	0x3d05733c	0.0325806
255	0xbd8a727a	-0.06760116

fc1.bias f4 [64]
0	0xbde88891	-0.11354173
1	0xbd354be0	-0.044261813
2	0x3d85e8d3	0.06538548
3	0x3bb85bc3	0.005626173
4	0x3c1ba927	0.009500778
5	0x3e2b77ee	0.16744968
6	0xbd2223c3	-0.039584886
7	0x3d176626	0.03696265
8	0xbd8a86cf	-0.06763994
9	0xbc8b468a	-0.01700141
10	0xbd0d781d	-0.034538377
11	0x3d8b9445	0.068153895
12	0xbd161023	-0.036636483
13	0xbe899aee	-0.26876014
14	0x3b69de73	0.0035685569
15	0xbd6b0ec6	-0.057387136
16	0x3d06c618	0.03290376
17	0xbd159d9c	-0.03652726
18	0xbd1dd4df	-0.038533088
19	0xbd769d9c	-0.0602089
20	0x3ac99440	0.0015379265
21	0xbcb24977	-0.021763546
22	0x3c8a3920	0.016872942
23	0x3a9f9376	0.0012174684
24	0xbd078c16	-0.03309258
25	0xbdbd1634	-0.092327505
26	0xbd181473	-0.037128877
27	0xbd7d8b69	-0.06190053
28	0x3dddaa20	0.108234644
29	0xbe8368c5	-0.2566587
30	0x3d8afd2d	0.06786571
31	0x3dc28da6	0.094996735
32	0xbd4b4116	-0.049622618
33	0x3a6d3f4b	0.0009050264
34	0x3e8e3dd2	0.2778154
35	0x3d2fbc0e	0.042903952
36	0xbd3e7417	-0.04649743
37	0xbdacc9ee	-0.084369525
38	0x3d5fbed3	0.054625344
39	0x3c899e3c	0.016799085
40	0x3c330077	0.010925404
41	0x3dd3e21e	0.10345863
42	0x3cc7d6f0	0.024394482
43	0x3dc25022	0.0948794
44	0x3e62c13e	0.22144029
45	0xbdbb680d	-0.091507055
46	0x3c858cf3	0.016302561
47	0x3bf733f0	0.007544033
48	0x3ad359ef	0.0016124825
49	0x3d4b8290	0.04968506
50	0xbd2e8a9c	-0.042612657
51	0x3be92095	0.00711448
52	0xbdcd0e2d	-0.100124694
53	0x3ca48ee4	0.020087667
54	0xbd71cbc4	-0.059032217
55	0x3d67aea0	0.05656302
56	0xbd88b0f5	-0.06674377
57	0xbe06c772	-0.1316202
58	0xbd56b902	-0.05242253
59	0xbc0fbaf6	-0.008772602
60	0xbb1dd14e	-0.0024081054
61	0x3cf03c1c	0.029325537
62	0x3c07948f	0.008275165
63	0xbd93d50e	-0.07218371

fc2.weight f4 [4, 64]
0	0x3ddc72cd	0.10764084
1	0xbcd59d09	-0.026075857
2	0xbd2b91a0	-0.041886926
3	0xbd339ebb	-0.04385255
4	0x3dd173c2	0.10227157
5	0x3cce0eb8	0.025153503
6	0xbbd4a705	-0.006489637
7	0x3d604540	0.054753542
8	0x3d4c4630	0.049871624
9	0x3d8a6864	0.06758192
10	0x3c703780	0.01466167
11	0xbd3e82d8	-0.0465115
12	0x3dc0ee04	0.09420398
13	0xbe0e0b11	-0.13871409
14	0x3d90457c	0.07044503
15	0xbd3cc7bb	-0.046088915
16	0xbde1efce	-0.11032067
17	0xbd831e20	-0.0640223
18	0x3d9db7f2	0.077011004
19	0xbb917ace	-0.0044396883
20	0x3dd13af8	0.102163255
21	0x3da7e5f1	0.08198155
22	0x3e516764	0.20449597
23	0xbd4f95db	-0.050680023
24	0x3da096de	0.07841276
25	0x3d896a32	0.06709708
26	0x3ddc49f2	0.107562914
27	0xbd9c49de	-0.076312765
28	0x3cc28783	0.023746258
29	0xbe8a9511	-0.27066854
30	0xbd7cb8c8	-0.06169966
31	0x3c946420	0.01811415
32	0x3c5bede8	0.0134234205
33	0xbca20e1c	-0.019782118
34	0x3cf24352	0.029573116
35	0xbdb18bf4	-0.08669272
36	0x3d895ef2	0.067075625
37	0x3d47e6d1	0.048804108
38	0x3e46def6	0.1942099
39	0x3e03e4e3	0.12880282
40	0x3dffe4a2	0.1249478
41	0x3ccf94a6	0.025339436
42	0x3c5a9860	0.013341993
43	0x3ce33ced	0.027739013
44	0x3d024e1b	0.03181277
45	0x3c855e24	0.016280241
46	0x3e313c9e	0.1730828
47	0x3d100698	0.03516254
48	0x3dcdbdfc	0.10046002
49	0xbd298cd8	-0.041394085
50	0x3d2087de	0.039192073
51	0x3e224e5a	0.15850201
52	0xbd83bf0e	-0.06432925
53	0x3d52b260	0.051439643
54	0x3d8a524e	0.067539796
55	0x3cade14c	0.021225594
56	0x3d04792f	0.032342132
57	0xbd19c010	-0.03753668
58	0x3cf71f84	0.030166395
59	0xbd665783	-0.0562358
60	0x3dc8f133	0.0981163
61	0x3dc66414	0.09687057
62	0xbcce3dde	-0.025175985
63	0xbd74b3f8	-0.059741944
64	0xbc9607e1	-0.018314304
65	0xbe1da90a	-0.15396515
66	0xbd10c0b8	-0.03534004
67	0x3dd84a73	0.10561075
68	0x3d952998	0.07283324
69	0xbe3e77a7	-0.18600331
70	0x3d6986c5	0.057013292
71	0xbcfe09c0	-0.031010509
72	0x3ddc7586	0.10764603
73	0xbe0af9d8	-0.1357187
74	0xbd6aecf4	-0.057354882
75	0xbd433c88	-0.04766515
76	0x3d80d8e2	0.06291367
77	0x3ee5d9fb	0.44892868
78	0xbc5f6be0	-0.013636559
79	0x3d2258d6	0.0396355
80	0xbde80cf8	-0.113305986
81	0x3d9458c4	0.07243493
82	0xbb946774	-0.004528934
83	0x3d1c697a	0.038186528
84	0xbcd14060	-0.025543392
85	0xbdb7f967	-0.089831166
86	0xbdabeedd	-0.08395169
87	0x3d228031	0.039673034
88	0x3df0cea4	0.117581636
89	0xbc80cb44	-0.015721925
90	0xbdb3b90a	-0.08775528
91	0x3dc46e2e	0.095913276
92	0xbe33176f	-0.17489408
93	0x3e7fe359	0.2498907
94	0x3c7959e0	0.015219182
95	0xbe075e13	-0.1321948
96	0xbe03b70b	-0.12862794
97	0x3dba61cf	0.09100687
98	0xbe69fe46	-0.22850904
99	0x3d6a4ca8	0.05720201
100	0xbd8ad2ad	-0.067784645
101	0x3d933db6	0.07189505
102	0xbd595d77	-0.05306765
103	0x3d1722eb	0.036898535
104	0xbd156a16	-0.036478125
105	0xbe3f2021	-0.186646
106	0xbde9cace	-0.11415635
107	0xbe534e09	-0.20635237
108	0xbe6c19b2	-0.23056677
109	0xbdf284cd	-0.11841736
110	0xbd989fb2	-0.074523345
111	0xbb30fb80	-0.0027005374
112	0x3de5fab9	0.11229462
113	0xbdec33da	-0.115333274
114	0x3e0851c4	0.13312441
115	0x3d938899	0.07203788
116	0x3c0c4bca	0.008562991
117	0xbbb15560	-0.005411789
118	0x3b95cbc0	0.004571408
119	0xbe1fb851	-0.15597655
120	0x3e213cb6	0.15745816
121	0x3c2f9467	0.010716534
122	0xbc4d585a	-0.012533272
123	0xbc7b86bd	-0.015351948
124	0xbceb41a0	-0.028717816
125	0x3bfd3680	0.007727444
126	0x3ac17806	0.0014760501
127	0x3d8c4378	0.06848806
128	0xbd544f3f	-0.051833387
129	0x3d02e679	0.031958077
130	0x3d71c070	0.059021413
131	0xbd9e0fae	-0.077178344
132	0x3d58e2be	0.052950613
133	0x3ec81bd9	0.39083746
134	0xbca7e378	-0.020494208
135	0x3c856f28	0.016288355
136	0xbdea4b80	-0.11440182
137	0x3cdf4bd9	0.027257847
138	0x3c323be0	0.010878533
139	0x3d1bdf04	0.03805448
140	0x3d0514a8	0.032490402
141	0xbdd97e38	-0.106197774
142	0x3d1a585f	0.037681933
143	0x3c7defa8	0.015499033
144	0x3da738cc	0.0816513
145	0xbdb34668	-0.08753663
146	0x3ccbb24b	0.02486529
147	0xbb2f1d4d	-0.0026720345
148	0x3d74d528	0.059773594
149	0xbccaf44e	-0.024774697
150	0xbd1fdb0c	-0.03902726
151	0x3df98ce8	0.12185079
152	0x3df48dba	0.11941095
153	0x3d41546a	0.047199644
154	0xbca95208	-0.020668998
155	0xbd8e3db8	-0.06945366
156	0x3ebc48bf	0.3677425
157	0x3eab3968	0.33442235
158	0xbca1eb28	-0.019765452
159	0x3e8e4504	0.2778703
160	0x3e82ff18	0.25585246
161	0xbd460a2e	-0.04834955
162	0x3ef4f61e	0.47844023
163	0xbd5ac274	-0.0534081
164	0xbb81a44a	-0.0039563524
165	0x3d83858e	0.06421958
166	0xbcd38843	-0.02582181
167	0x3cbdb1ed	0.02315613
168	0x3bc4ad58	0.0060021095
169	0x3ec8f8ec	0.39252412
170	0x3d7ec608	0.062200576
171	0x3eddf4b6	0.43350762
172	0x3ef8fb13	0.48629054
173	0xbcaef41a	-0.021356631
174	0xbb59a7a8	-0.0033211503
175	0xbc1da4f0	-0.009621844
176	0x3d46a74a	0.048499383
177	0xbd2ce598	-0.042211145
178	0xbb95e14a	-0.0045739757
179	0xbca53757	-0.02016799
180	0x3d9fcdde	0.07802938
181	0x3ce3e0a8	0.027817085
182	0xbdd5c204	-0.10437396
183	0x3ea7ef5b	0.327998
184	0xbd1a5ac7	-0.03768423
185	0xbd0609ce	-0.032724194
186	0xbd05956c	-0.032613203
187	0xbcbb662c	-0.022875868
188	0xbd2cfd20	-0.042233586
189	0x3d6356dc	0.055502757
190	0xbd98bf7b	-0.07458397
191	0xbd25a130	-0.040436924
192	0x3a67228f	0.00088171003
193	0x3cd6e439	0.026231872
194	0x3de6030a	0.112310484
195	0x3d8d0ff4	0.068878084
196	0x3c92c2ac	0.017915092
197	0xbf1abdb7	-0.6044573
198	0xbe27bbc2	-0.16380218
199	0x3c7efb90	0.015562907
200	0xbd96cd2a	-0.07363351
201	0xbd1d1e2e	-0.03835886
202	0xbca55c80	-0.020185709
203	0xbda32016	-0.07965104
204	0x3e0d162a	0.13777986
205	0xbe8d83cd	-0.2763962
206	0xba8d1f9e	-0.0010766869
207	0x3d8f7f04	0.07006648
208	0xbd6f1d4c	-0.05837755
209	0x3b8e3a40	0.00434044
210	0xbd9075e5	-0.070537366
211	0xbe205e59	-0.15660991
212	0x3dadc0c4	0.08484033
213	0xbbefebf9	-0.0073218313
214	0xbc31c414	-0.010849971
215	0xbd36bea8	-0.044615418
216	0xbb8ac4c0	-0.00423488
217	0x3dacccc9	0.08437497
218	0x3dac65be	0.08417843
219	0x3c3a6780	0.011377215
220	0xbf11842d	-0.5684231
221	0x3e92816c	0.28614366
222	0xbddbe8d4	-0.10737768
223	0xbedbfe28	-0.42967343
224	0xbec9b8ca	-0.39398795
225	0x3d32798c	0.043572947
226	0xbf3e044b	-0.742253
227	0x3d8c3050	0.068451524
228	0xbd02a2e8	-0.03189364
229	0xbdea8cc3	-0.114526294
230	0xbd6757a6	-0.056480072
231	0xbd17903d	-0.03700279
232	0x3b8ee883	0.0043612137
233	0xbf1b516a	-0.60671103
234	0xbcc4df10	-0.024032146
235	0xbf2bb564	-0.67073655
236	0xbf401f7b	-0.75048035
237	0x3b4aa2e2	0.003091984
238	0xbdbb6098	-0.09149283
239	0xbc95daa0	-0.018292725
240	0xbe12df54	-0.14343005
241	0x3cd41940	0.025890946
242	0x3ce8f0e2	0.028435174
243	0xbe2de546	-0.16981992
244	0xbe34cb67	-0.17655717
245	0xbd604000	-0.054748535
246	0xbae0b100	-0.0017142594
247	0xbf01c5fd	-0.5069273
248	0xbdecf1d2	-0.11569561
249	0x3df75a27	0.12077742
250	0xbe211a24	-0.15732628
251	0xbdee5183	-0.11636641
252	0xbdf34153	-0.11877694
253	0xbd8169b0	-0.063189864
254	0xbd7b1d17	-0.06130704
255	0xbdd55ad6	-0.10417716

fc2.bias f4 [4]
0	0x3db04549	0.08606965
1	0xbdbbc7d3	-0.09168973
2	0x3e91f355	0.2850596
3	0xbe99ff16	-0.30077428
