src/flatland/flat_game/results/ourmethod_noreg10/rep_learner.pth (torch_old, 312926 bytes, 33 tensors)

representations f4 [6]
-0.50496525 0.30812016 0.6720688 0.10232228 0.738499 -0.09758873
00000000: 6745 01bf edc1 9d3e b30c 2c3f 588e d13d
00000010: 450e 3d3f 9adc c7bd

representations f4 [6]
0.83633816 -0.22678661 -0.03090063 -0.5404629 -0.8449317 0.48454675
00000000: 421a 563f c03a 68be 5123 fdbc c75b 0abf
00000010: 724d 58bf 8316 f83e

representations f4 [6]
-0.52891886 -0.7159948 -0.16188169 0.7480674 -0.121791914 -0.7557541
00000000: 3a67 07bf 6f4b 37bf 50c4 25be 5881 3f3f
00000010: 0a6e f9bd 1a79 41bf

representations f4 [6]
0.0011425944 0.7657618 -0.45780718 -0.3934622 0.39552224 0.5247308
00000000: 1bc3 953a f708 443f b465 eabe e173 c9be
00000010: e481 ca3e c254 063f

fc1.weight f4 [64, 4]
0.915302 0.43152356 -2.2765648 0.66628236 0.27713898 -0.09236005 0.006353335 -0.063593924
0.21758847 -1.3495944 0.46782282 -0.5610122 -0.9664924 -1.1330943 -1.068158 1.5643044
-0.42017865 1.444499 1.5426103 0.2008212 2.1899245 1.5376058 1.0442979 0.1312384
-0.30871195 0.5220374 1.8195615 -1.5897263 -0.035171676 -0.09775471 2.7270393 1.9505458
0.1410617 -1.1818796 -1.5643076 1.9892329 0.27033186 -0.07320051 -0.055204067 -0.024629788
-2.530383 0.62143874 -0.6599923 -1.365023 0.95500547 -1.9233835 -1.4136323 -0.11023917
-0.38190854 1.557639 0.49394688 -1.0668142 -0.5306096 1.109101 -1.1104373 -0.92933184
1.7365594 0.076089144 0.18799865 -0.10926109 0.65255183 1.2119596 0.10438711 0.7208067
0.5281295 -1.7537084 1.7204082 0.66145766 -0.68366015 -0.07519047 -1.2138568 1.3382624
-0.24291237 -0.058871116 0.534296 0.87652063 0.5266146 0.8729024 -1.1716611 -0.8092248
-2.3004875 -1.0708579 0.44500607 -1.7870954 2.3658562 -1.8240646 -1.7319603 -1.7251244
1.6660589 2.8089373 -0.67019975 0.28417346 0.6896391 0.6018254 0.6470707 0.2512111
-1.2063481 -1.5333879 -2.0741367 -2.0716245 -1.9588532 -0.6665017 0.27543294 -1.0713465
0.40052357 -0.9110016 -0.7255676 1.1141604 -0.37036708 -0.13132884 0.103533395 -0.17065665
-0.50736314 -0.85694605 1.0974318 0.46011335 1.4723685 2.5134454 -0.13045678 0.07808071
2.1292615 -0.33632714 0.64351654 2.324141 0.6794721 1.5626544 0.76670533 2.1167362
1.6520658 1.4099082 -1.9202477 0.6703712 -2.0322046 1.5138776 -0.79294765 0.3781497
2.0758734 -0.059113987 0.9414656 0.23456955 -0.64819014 1.2097703 -0.5272005 -1.5603935
-1.3434913 0.41087154 0.858913 2.0003705 0.7592359 -1.2183336 1.1560694 -0.62408286
2.4441502 -1.9956428 0.6087823 -1.2298815 2.5319552 -0.032510433 0.10871307 -1.4960068
0.19796532 1.6840569 -0.8142042 -2.2008338 0.25302184 -0.40618497 0.0036476078 -2.3681815
1.129934 0.3069456 0.5361441 -0.045465954 -0.80493057 -0.7712996 -2.6058831 -0.02137598
0.5299294 -2.8665795 0.28297058 -2.4436123 0.011851057 1.2586726 -1.929605 3.2651014
-0.14822794 -0.69275665 1.3978175 0.23535272 1.5684878 2.6524143 -0.65811604 0.2423877
-0.32444072 -0.07985747 -0.2184444 0.027356207 -0.74532264 -0.45895094 -0.25777537 0.020196598
-1.1289687 -0.33889008 -3.0882783 1.6219496 0.87638545 1.6287068 0.9668417 0.9384252
-0.28616202 -0.31836948 0.03698818 0.23072557 0.40998295 0.15056077 0.29852006 -0.9965366
1.085896 -0.95248955 0.7191074 -0.8979516 0.9300897 -1.0177958 -2.3376617 0.6729673
-0.9250465 0.5721715 1.3243077 -2.197983 -1.8258637 -1.3280538 0.49844006 1.258217
2.0059927 0.5372556 0.8646137 0.010968127 -0.4532257 -0.7117029 -0.50380033 -0.5432119
-0.8650853 1.6533585 0.4188477 2.1311102 0.37345448 -0.47862184 -1.1329985 0.105195105
-1.3047327 -0.8348717 0.17036775 0.55623484 -1.0118724 1.5458757 -2.0360339 0.434792
00000000: 3b51 6a3f a8f0 dc3e 3db3 11c0 7b91 2a3f
00000010: 29e5 8d3e 4427 bdbd a32f d03b 883d 82bd
00000020: 83cf 5e3e 82bf acbf 7986 ef3e 7f9e 0fbf
00000030: 0c6c 77bf 3c09 91bf 67b9 88bf 203b c83f
00000040: a821 d7be 58e5 b83f 4174 c53f 13a4 4d3e
00000050: b927 0c40 44d0 c43f 8eab 853f 5c63 063e
00000060: 7e0f 9ebe 3ea4 053f 64e7 e83f 277c cbbf
00000070: 2d10 10bd 9f33 c8bd d087 2e40 7cab f93f
00000080: 7a72 103e d547 97bf 3b3b c8bf 2f9f fe3f
00000090: f068 8a3e 26ea 95bd a91d 62bd 69c4 c9bc
000000a0: ccf1 21c0 9c16 1f3f 41f5 28bf 13b9 aebf
000000b0: 3d7b 743f 6e31 f6bf e7f1 b4bf 13c5 e1bd
000000c0: 8489 c3be b760 c73f 9be6 fc3e 5e8d 88bf
000000d0: 08d6 07bf 06f7 8d3f cf22 8ebf b1e8 6dbf
000000e0: 9447 de3f a0d4 9b3d b882 403e 47c4 dfbd
000000f0: a30d 273f 7e21 9b3f e9c8 d53d ca86 383f
00000100: 7f33 073f 8479 e0bf 5636 dc3f 4a55 293f
00000110: 5a04 2fbf 76fd 99bd a95f 9bbf 2f4c ab3f
00000120: 05be 78be d722 71bd 9fc7 083f a863 603f
00000130: 37d0 063f 8876 5f3f fef8 95bf 5b29 4fbf
00000140: 303b 13c0 df11 89bf d6d7 e33e 8bbf e4bf
00000150: 306a 1740 f37a e9bf e0b0 ddbf e0d0 dcbf
00000160: 6b41 d53f a1c5 3340 3692 2bbf 2f7f 913e
00000170: 308c 303f 3b11 1a3f 6da6 253f be9e 803e
00000180: 9d69 9abf 0e46 c4bf a8be 04c0 7f95 04c0
00000190: b4bb fabf db9f 2abf 8c05 8d3e e221 89bf
000001a0: 6d11 cd3e 6737 69bf ccbe 39bf cf9c 8e3f
000001b0: c1a0 bdbe 117b 06be 5109 d43d 9ec0 2ebe
000001c0: 8de2 01bf d160 5bbf a578 8c3f fa93 eb3e
000001d0: 9276 bc3f 4adc 2040 7696 05be c7e8 9f3d
000001e0: d245 0840 1233 acbe 80bd 243f babe 1440
000001f0: e2f1 2d3f 0f05 c83f cd46 443f 9b78 0740
00000200: e476 d33f df77 b43f adca f5bf 729d 2b3f
00000210: a40f 02c0 bec6 c13f 9efe 4abf d69c c13e
00000220: 1cdb 0440 8221 72bd e403 713f 0033 703e
00000230: caef 25bf c1d9 9a3f 9df6 06bf f9ba c7bf
00000240: 86f7 abbf c15d d23e b9e1 5b3f 1206 0040
00000250: 495d 423f 5bf2 9bbf 15fa 933f e5c3 1fbf
00000260: f56c 1c40 3971 ffbf 28d9 1b3f c26c 9dbf
00000270: 8e0b 2240 a929 05bd f5a4 de3d 277d bfbf
00000280: 6cb7 4a3e 2d8f d73f b06f 50bf 76da 0cc0
00000290: 148c 813e 7af7 cfbe b40c 6f3b 4990 17c0
000002a0: ada1 903f f927 9d3e bd40 093f 823a 3abd
000002b0: ee0f 4ebf e473 45bf cac6 26c0 ae1c afbc
000002c0: 74a9 073f 0a76 37c0 85e1 903e 2564 1cc0
000002d0: f02a 423c 2f1c a13f 4cfd f6bf 6cf7 5040
000002e0: 11c9 17be 8058 31bf afeb b23f 4e00 713e
000002f0: 35c4 c83f 28c1 2940 4b7a 28bf 7b34 783e
00000300: 181d a6be 508c a3bd e4af 5fbe 201a e03c
00000310: 77cd 3ebf 9efb eabe 22fb 83be 5673 a53c
00000320: 0c82 90bf 0083 adbe 5aa6 45c0 0b9c cf3f
00000330: cc5a 603f 7779 d03f f082 773f a23c 703f
00000340: d483 92be 5301 a3be eb80 173d 5343 6c3e
00000350: 49e9 d13e 9a2c 1a3e 9fd7 983e 061d 7fbf
00000360: a4fe 8a3f 5bd6 73bf 6c17 383f 28e0 65bf
00000370: 5c1a 6e3f 2247 82bf 409c 15c0 9647 2c3f
00000380: d9cf 6cbf d579 123f ea82 a93f c1ab 0cc0
00000390: e7b5 e9bf abfd a9bf 8933 ff3e 410d a13f
000003a0: 2f62 0040 9589 093f 5357 5d3f a9b3 333c
000003b0: 330d e8be 2932 36bf 0ff9 00bf ef0f 0bbf
000003c0: 3b76 5dbf 40a1 d33f 3573 d63e 1c64 0840
000003d0: 6d35 bf3e ec0d f5be 1806 91bf 8870 d73d
000003e0: 7b01 a7bf 27ba 55bf e274 2e3e 6865 0e3f
000003f0: 0985 81bf 41df c53f 614e 02c0 0f9d de3e

fc1.bias f4 [64]
0.041875873 -0.4175541 0.6824614 -0.16330715 0.6735043 -0.18486008 0.22398695 0.6064045
0.03518891 -0.3119392 -0.026755286 0.18985657 0.26973355 0.034363206 -0.052413274 0.58330685
0.6918591 0.23567437 0.58239764 0.12883058 0.3248113 -1.1183841 0.44157386 0.5859441
-0.3276926 0.41583928 0.38377815 -0.44954085 0.70364666 0.080079965 0.42075348 0.18407913
-0.46953186 0.35976502 -0.072068594 0.21915245 0.54546154 0.06051462 -0.064840436 -0.1757887
0.3069655 -0.077793635 0.26529375 -0.2037449 -0.80369323 -0.39094245 0.2579506 0.4103135
-0.42336076 0.34570786 -0.27761063 0.53117126 -0.5208196 0.2769987 0.16964993 -0.3554128
-0.1180172 1.0776683 0.5000274 0.29841167 0.6112924 0.023624077 0.43311918 -0.53588474
00000000: 0986 2b3d a7c9 d5be cab5 2e3f fd39 27be
00000010: c76a 2c3f f64b 3dbe d65c 653e 533d 1b3f
00000020: 3f22 103d 7fb6 9fbe e72d dbbc c369 423e
00000030: 841a 8a3e 6fc0 0c3d 4daf 56bd 9953 153f
00000040: ae1d 313f 9f54 713e 0318 153f 2aec 033e
00000050: ab4d a63e 3627 8fbf f815 e23e 6f00 163f
00000060: 53c7 a7be e3e8 d43e 927e c43e 382a e6be
00000070: 3022 343f f700 a43d 006d d73e 3d7f 3c3e
00000080: 7b66 f0be 1f33 b83e b398 93bd 8069 603e
00000090: 5ea3 0b3f 2ede 773d 10cb 84bd f401 34be
000000a0: 952a 9d3e 4552 9fbd 95d4 873e 81a2 50be
000000b0: d7be 4dbf 9c29 c8be 1a12 843e 9c14 d23e
000000c0: bec2 d8be 9f00 b13e fb22 8ebe d7fa 073f
000000d0: 6f54 05bf c6d2 8d3e b6b8 2d3e abf8 b5be
000000e0: 00b3 f1bd 09f1 893f cc01 003f 6ac9 983e
000000f0: a97d 1c3f 4887 c13c ccc1 dd3e be2f 09bf

fc2.weight f4 [180, 64]
-0.27405247 0.027421718 0.36558256 0.26076782 0.1158741 0.7477316 -0.026024446 0.559788
-0.551468 0.081464216 -0.18789798 -0.3142187 0.40466902 -0.14200133 0.50366014 0.30303037
0.4145363 -0.25640208 -0.022342691 0.06165963 1.1285123 -0.23377393 -0.17205162 0.25593245
0.78104484 0.12826219 0.16158654 0.09576853 0.5660304 -0.52933764 0.9641447 0.122763105
0.40153402 0.6155653 0.35763168 0.23176645 0.54085606 0.3151795 0.07184803 0.24282815
-0.030502468 0.19878829 0.013628226 0.2427091 0.0962196 1.0568539 0.5518824 -0.027225092
-0.07871118 0.2859667 1.1428388 0.25619718 0.06811853 0.36272696 0.46432513 -0.27133664
0.10449508 -0.8468353 0.18527079 0.3202025 -0.116212726 0.057929143 0.24263655 0.009871292
-0.38637286 0.11069761 -0.034037534 -0.22737528 -0.124043405 0.21668054 -0.064463295 -0.079634674
0.62703526 -0.0821161 0.10930521 -0.31129533 -0.31429613 -0.27385288 0.07239962 0.14551295
0.055641282 0.24100469 -0.14582975 0.3446508 1.2659374 -0.48316884 0.03449692 -0.12519912
-0.3001303 0.8546218 0.17457713 0.13117673 -0.092847876 -0.17588621 0.40455046 -0.2270209
0.618324 0.27117494 0.0938971 -0.40396053 -0.2520736 0.0824833 0.11738817 0.8633028
0.45937455 -0.043634687 -0.17962067 -0.043690458 -0.25715533 0.56257236 0.09369564 0.2773444
-0.04337181 0.5523114 0.060833212 0.051812958 -0.052136384 0.07125554 0.31457147 -0.20334832
0.39111114 -0.19728805 -0.42211327 0.017808 -0.25507152 -0.11587768 0.25997064 0.36610094
0.012570037 0.06529711 -0.21096864 -0.13479039 -0.18600523 -0.2002336 -0.2052023 -0.009781918
-0.20309515 -0.05629459 -0.15992878 -0.13754408 -0.082813926 -0.039659537 -0.20678355 -0.13564314
-0.12271285 -0.17319372 -0.14457415 -0.069519535 0.08970097 0.12292049 -0.10725234 -0.1714781
-0.09551755 0.06114717 0.032519147 -0.06431663 0.051610507 -0.15575907 0.008571222 0.014879644
-0.12737332 -0.014031456 0.00033615093 -0.14335574 -0.03150157 0.06528194 -0.12698883 -0.045480046
-0.24818152 -0.112298414 -0.08411281 -0.12444678 0.018963948 -0.06660612 -0.06772491 -0.1175753
-0.10231234 -0.098541714 -0.1218132 -0.18086036 0.091239095 -0.15729812 -0.2273919 -0.107505634
-0.11319453 0.070182905 -0.013999377 -0.037619825 -0.012866478 -0.065409735 -0.07303294 -0.14748722
0.044863008 0.07940061 0.02310652 0.12213254 -0.1983773 -0.093197316 -0.14608069 -0.20809403
-0.19880615 -0.08160084 -0.20824498 0.052121222 -0.13301978 -0.15721862 -0.12441907 -0.13384137
-0.06535413 0.004072693 -0.045640234 -0.16678245 -0.3243503 -0.04536464 -0.16353723 -0.15039091
-0.13022487 -0.033135872 0.002063911 0.10192488 -0.14159968 -0.17671517 -0.25604174 -0.08408342
0.02169521 -0.040478874 -0.1450236 -0.21492034 0.01958349 -0.14017296 -0.07965228 -0.04045188
-0.21478334 -0.04543598 -0.071786076 0.013727672 -0.06789542 0.01137582 -0.045324195 -0.035475347
0.032578558 0.036404964 0.014213664 -0.09261516 -0.049226325 -0.034455556 -0.15752558 -0.1516744
-0.10137849 0.19709915 -0.051810075 0.04235947 0.02993714 0.0018054564 -0.12376221 0.03232172
00000000: 9b50 8cbe 83a3 e03c a32d bb3e 5c83 853e
00000010: 664f ed3d 576b 3f3f 3831 d5bc 444e 0f3f
00000020: 022d 0dbf b6d6 a63d 5468 40be 46e1 a0be
00000030: c730 cf3e cc68 11be dfef 003f cc26 9b3e
00000040: 1a3e d43e 2247 83be 0508 b7bc cf8e 7c3d
00000050: 1773 903f 6f62 6fbe 4d2e 30be 9409 833e
00000060: 8ef2 473f 2a57 033e f176 253e 4b22 c43d
00000070: 5ee7 103f ac82 07bf 30d2 763f 396b fb3d
00000080: de95 cd3e b095 1d3f 801b b73e 2f54 6d3e
00000090: 8b75 0a3f 355f a13e 0f25 933d f1a7 783e
000000a0: 50e0 f9bc 288f 4b3e ec48 5f3c bc88 783e
000000b0: c80e c53d fd46 873f 2a48 0d3f 2807 dfbc
000000c0: 5433 a1bd 3a6a 923e 8b48 923f 472c 833e
000000d0: ba81 8b3d 59b7 b93e 06bc ed3e a3ec 8abe
000000e0: 8401 d63d 33ca 58bf a0b7 3d3e 95f1 a33e
000000f0: f000 eebd 1c47 6d3d b775 783e 33bb 213c
00000100: aad2 c5be 6eb5 e23d f16a 0bbd 11d5 68be
00000110: 780a febd 81e1 5d3e 5505 84bd 8117 a3bd
00000120: 6285 203f 7c2c a8bd 69db df3d 1a62 9fbe
00000130: 6ceb a0be 7236 8cbe 4146 943d 5901 153e
00000140: 1de8 633d efc9 763e 6554 15be 1276 b03e
00000150: 3d0a a23f e861 f7be a44c 0d3d 3334 00be
00000160: aeaa 99be 7fc8 5a3f 59c4 323e 3153 063e
00000170: 0727 bebd 841b 34be 3d21 cf3e 2b78 68be
00000180: 7b4a 1e3f 71d7 8a3e 1f4d c03d ead3 cebe
00000190: ca0f 81be 01ed a83d 3569 f03d 6a01 5d3f
000001a0: 2433 eb3e 49ba 32bd 7bee 37be c4f4 32bd
000001b0: dda9 83be be04 103f 80e3 bf3d 1600 8e3e
000001c0: a4a6 31bd 4864 0d3f 3f2c 793d d339 543d
000001d0: f68c 55bd 6dee 913d 830f a13e 8b3a 50be
000001e0: b83f c83e e105 4abe 3b1f d8be 15e2 913c
000001f0: bc98 82be 4751 edbd df1a 853e 9571 bb3e
00000200: 8ef2 4d3c 7eba 853d 2a08 58be 7e06 0abe
00000210: 2878 3ebe 090a 4dbe 8d20 52be 5644 20bc
00000220: 2df8 4fbe 2895 66bd 5fc4 23be 5bd8 0cbe
00000230: 599a a9bd 0a72 22bd 11bf 53be 09e6 0abe
00000240: e050 fbbd b259 31be 3f0b 14be 4260 8ebd
00000250: 24b5 b73d bdbd fb3d 1da7 dbbd f497 2fbe
00000260: b59e c3bd 7475 7a3d cc32 053d 70b8 83bd
00000270: 8a65 533d 4e7f 1fbe 506e 0c3c c0c9 733c
00000280: 276e 02be 31e4 65bc 6a3d b039 d9cb 12be
00000290: ca07 01bd 8ab2 853d 5c09 02be 4949 3abd
000002a0: 4c23 7ebe b6fc e5bd 5643 acbd f4dd febd
000002b0: 485a 9b3c ca68 88bd 5cb3 8abd 52cb f0bd
000002c0: 2289 d1bd 3dd0 c9bd 3379 f9bd 7533 39be
000002d0: 90db ba3d c212 21be 6cd9 68be ea2b dcbd
000002e0: 89d2 e7bd 0ebc 8f3d a55d 65bc 3f17 1abd
000002f0: eccd 52bc 8af5 85bd 4b92 95bd e406 17be
00000300: 46c2 373d c99c a23d e249 bd3c a020 fa3d
00000310: 6b23 4bbe 3cde bebd 2d96 15be 9a16 55be
00000320: d793 4bbe 571e a7bd 2c3e 55be 107d 553d
00000330: 5636 08be ebfd 20be 6dcf febd b60d 09be
00000340: 63d8 85bd 3a74 853b 41f1 3abd 05c9 2abe
00000350: 3e11 a6be 46d0 39bd 4e76 27be 1300 1abe
00000360: ab59 05be 7bb9 07bd ae42 073b febd d03d
00000370: 82ff 10be d2f4 34be e717 83be ee33 acbd
00000380: 27ba b13c 2dcd 25bd 1181 14be 1414 5cbe
00000390: 8e6d a03c 8089 0fbe bc20 a3bd dfb0 25bd
000003a0: 2af0 5bbe 141b 3abd 9404 93bd 08ea 603c
000003b0: c10c 8bbd a661 3a3c dda5 39bd 994e 11bd
000003c0: 1871 053d 5f1d 153d 6ee0 683c 04ad bdbd
000003d0: 8ba1 49bd 4521 0dbd 634e 21be 8950 1bbe
000003e0: 879f cfbd 5cd4 493e cd36 54bd 2081 2d3d
000003f0: bc3e f53c 10a5 ec3a 0b77 fdbd c863 043d

fc2.bias f4 [180]
0.18698037 -0.0820017 -0.06258182 0.04184596 -0.1090114 -0.14725676 0.40414077 -0.14482632
-0.10314329 -0.18129024 -0.091902584 0.2109186 0.29645258 -0.0026297083 -0.13819537 -0.12206517
0.010805127 0.1706434 0.35816154 -0.17326152 -0.090452105 -0.12522121 -0.084564544 0.08298894
0.2462464 -0.09491092 -0.19349715 -0.3471762 -0.0560678 0.20891067 0.34631485 0.07402658
0.14444958 -0.009684048 -0.08550388 0.3646044 0.28510407 0.07259681 0.13381456 0.36682943
0.2575334 0.6176371 0.12057743 -0.19770777 -0.06644154 -0.09476503 0.0757201 0.1614328
-0.0070606153 0.36868912 -0.14185525 -0.028325742 -0.17460564 0.2675556 -0.09186112 -0.07557579
-0.15566142 -0.060659267 -0.18707079 0.16736989 -0.039088376 -0.08504051 -0.15712121 -0.061577007
0.008074604 0.43460432 0.17657359 -0.033283457 -0.124443 -0.10446197 -0.16076753 0.080757126
0.11363874 -0.08607983 -0.0030545148 0.056148347 0.22026926 0.19987719 0.2513635 -0.001502442
-0.030461904 -0.027436854 -0.013971029 0.11704143 0.32728335 0.023973111 -0.094664894 -0.06881116
-0.08403308 0.35096955 0.2717773 -0.18151702 -0.052174166 -0.1489987 -0.11068546 -0.021291515
0.051595688 -0.01843054 -0.13482377 -0.10222443 -0.056146488 0.1513958 0.32152975 0.19587766
0.30101585 0.27753195 0.27368417 0.37939614 0.34536526 0.3847982 0.31755456 0.51682466
0.70900553 0.26133 0.041858498 -0.13250364 -0.031846706 -0.14401385 0.29342258 -0.06257669
-0.24534902 -0.094118856 0.0041017556 -0.2038612 -0.03909177 -0.024230557 0.2162501 -0.033857066
-0.06839235 -0.07820891 -0.18424946 -0.02100829 0.339075 -0.035216067 -0.0695555 -0.010130477
-0.08405943 -0.2647327 0.21587172 0.06541846 -0.024263343 0.16899787 -0.33670297 0.10317627
0.3099353 0.3434476 0.104521595 0.16537075 0.35943562 0.13231438 0.11325568 0.008913529
-0.108849436 -0.043824665 -0.14389199 0.6219244 0.103292316 0.017787784 -0.06493327 -0.06599742
-0.13848479 0.20742875 0.314046 -0.10389442 -0.021517001 -0.014619794 -0.12545152 0.5297033
0.264078 -0.21798271 -0.12054256 0.025622204 0.007544763 -0.052414376 0.26777428 -0.03429228
0.038139503 0.39447907 0.19047002 0.41221595
00000000: c877 3f3e 82f0 a7bd e62a 80bd ab66 2b3d
00000010: 5e41 dfbd 7aca 16be 8aeb ce3e 5a4d 14be
00000020: ca3c d3bd 26a4 39be 6c37 bcbd 0cfb 573e
00000030: a2c8 973e 2f57 2cbb 1683 0dbe 4efd f9bd
00000040: fd07 313c 25bd 2e3e f360 b73e 786b 31be
00000050: f43e b9bd fd39 00be 2d30 adbd 1bf6 a93d
00000060: 0428 7c3e a860 c2bd 1e24 46be 14c1 b1be
00000070: 59a7 65bd aeec 553e 2e50 b13e 3f9b 973d
00000080: 97ea 133e d7a9 1ebc a91c afbd 6ead ba3e
00000090: 29f9 913e a3ad 943d af06 093e 11d1 bb3e
000000a0: 6bdb 833e 771d 1e3f 4df1 f63d e873 4abe
000000b0: 8112 88bd 2b14 c2bd 2413 9b3d a44e 253e
000000c0: bc5c e7bb d2c4 bc3e 8142 11be 630b e8bc
000000d0: d2cb 32be 0cfd 883e af21 bcbd 7bc7 9abd
000000e0: b565 1fbe da75 78bd 7c8f 3fbe 0363 2b3e
000000f0: 221b 20bd b829 aebd 62e4 20be 2c38 7cbd
00000100: 584b 043c 7584 de3e b5cf 343e 3c54 08bd
00000110: f9db febd 28f0 d5bd 3ea0 24be fe63 a53d
00000120: 6dbb e83d 9f4a b0bd 412e 48bb cffb 653d
00000130: 448e 613e 9bac 4c3e b7b2 803e 97ed c4ba
00000140: 3e8b f9bc 41c3 e0bc bee6 64bc 6bb3 ef3d
00000150: af91 a73e 4263 c43c abdf c1bd deec 8cbd
00000160: 8919 acbd 48b2 b33e 6526 8b3e 99df 39be
00000170: 94b4 55bd 1d93 18be 0faf e2bd 8b6b aebc
00000180: 0056 533d a5fb 96bc 3e0f 0abe 0b5b d1bd
00000190: dcf9 65bd 8007 1b3e 8c9f a43e 2794 483e
000001a0: c01e 9a3e ab18 8e3e 5520 8c3e 3640 c23e
000001b0: b7d3 b03e 4504 c53e 8396 a23e 9f4e 043f
000001c0: 6381 353f 0ccd 853e d173 2b3d 09af 07be
000001d0: b171 02bd 5e78 13be 7c3b 963e 3528 80bd
000001e0: c63c 7bbe 63c1 c0bd 0568 863b fec0 50be
000001f0: b11e 20bd 297f c6bc ab70 5d3e b5ad 0abd
00000200: 4a11 8cbd fe2b a0bd e4ab 3cbe 9419 acbc
00000210: 3d9b ad3e b93e 10bd 1d73 8ebd 4dfa 25bc
00000220: 5a27 acbd 0b8b 87be 7a0d 5d3e 1dfa 853d
00000230: ebc3 c6bc c70d 2d3e 5564 acbe 154e d33d
00000240: d7af 9e3e 5dd8 af3e 6b0f d63d f356 293e
00000250: f207 b83e 6c7d 073e 98f2 e73d 0d0a 123c
00000260: 74ec debd 7e81 33bd 6c58 13be 7036 1f3f
00000270: ec8a d33d b0b7 913c bcfb 84bd a829 87bd
00000280: f5ce 0dbe 3468 543e a3ca a03e 99c6 d4bd
00000290: 6c44 b0bc dc87 6fbc 5d76 00be a39a 073f
000002a0: 3b35 873e dc36 5fbe 05df f6bd a8e5 d13c
000002b0: 0f3a f73b 75b0 56bd b619 893e 1076 0cbd
000002c0: 2b38 1c3d 29f9 c93e 930a 433e f80d d33e

conv.weight f4 [5, 1, 34, 34]
-0.11214603 -0.092527665 -0.071163975 -0.06524027 -0.033153787 -0.035106022 -0.04605989 0.059431914
0.0528343 -0.0416009 -0.19021994 0.2698043 0.22028853 0.30124334 0.25566208 0.32719448
0.15225096 0.18734756 0.42301434 0.521705 0.59620035 0.53370035 0.60357445 0.667128
0.55339515 0.58076483 0.40102163 0.5455194 0.56476116 0.68836296 0.60219634 0.5131138
0.3995052 0.44212452 -0.075471446 -0.10591538 -0.099312454 -0.064695485 -0.017807357 -0.0736247
-0.04154552 0.0074357353 -0.016246444 -0.00087048835 -0.009243494 0.29480156 0.20539741 0.25639123
0.1552834 0.15274349 0.211651 0.22051163 0.4383045 0.6097481 0.76379734 0.74211335
0.701461 0.59396493 0.3369744 0.55871403 0.6099223 0.7966726 0.63529307 0.5621487
0.571897 0.6840132 0.62371 0.6387223 -0.08688822 -0.122867204 -0.12056395 -0.11314595
-0.1180295 -0.06137412 -0.057266936 -0.022740917 -0.0082284985 0.0071047684 0.26752263 0.31851646
0.17683144 0.34998608 0.1806689 0.21468489 0.29186088 0.27494276 0.6733682 0.78582746
0.94240093 1.146699 1.0601012 1.0874472 0.47389403 0.68268645 0.82364833 0.7015874
0.9356458 0.9766373 1.0845249 1.0058885 0.7220553 0.7324966 -0.11690419 -0.10426548
-0.111339666 -0.116552286 -0.11765849 -0.06729755 -0.048884697 -0.057789464 -0.050637648 -0.029421201
0.25677764 0.18753566 0.15725863 0.19225752 0.12452613 0.19955008 0.28885034 0.46095577
0.64712024 0.65798724 0.8688007 0.78689927 1.044405 1.148822 0.9166004 0.83851314
0.9039107 0.8984079 0.9331689 0.91709864 1.0474248 0.994962 0.73141515 0.6033252
-0.16727251 -0.13171561 -0.13011637 -0.08800012 -0.11432975 -0.14762732 -0.083300754 -0.09379989
-0.10542427 -0.031732414 -0.3053022 0.12105849 0.2910809 0.35023138 0.20300367 0.111940995
0.23921002 0.16230442 0.30225995 0.58125675 0.6447576 0.5634572 1.0023484 1.0591744
0.5401223 0.5350654 0.8086061 1.1052003 0.95674694 1.0839097 0.8298883 0.8444101
0.8139492 0.7457326 -0.16450627 -0.15461835 -0.16750483 -0.10187326 -0.096737474 -0.08756372
-0.04999718 -0.053936888 -0.045788005 -0.03343101 -0.023081476 0.13235073 0.23467305 0.30012038
0.14852777 0.24372393 0.25985748 0.32493225 0.41203597 0.95729244 0.9243574 1.1442492
1.1376103 1.0018594 0.44749898 0.50984484 1.1194867 1.1571822 1.2544085 1.1827052
1.0678477 0.9793488 0.93516415 0.9967598 -0.19314766 -0.20431446 -0.16054453 -0.17159307
-0.11093328 -0.062789366 -0.058700442 -0.088595435 -0.024624031 -0.029796802 -0.15034012 0.036158197
0.2741761 0.45148286 0.19991033 0.30998647 0.30208692 0.47063366 0.74540454 1.1007797
1.0274286 1.4021009 1.4418508 1.3954943 0.8539694 1.3451462 1.3174433 1.2972972
1.3910481 1.2046102 0.92584664 1.1892099 1.2948899 1.2307044 -0.18344446 -0.17944135
-0.15792331 -0.17227934 -0.14683132 -0.15252991 -0.18282323 -0.08914138 -0.03009411 -0.03706693
-0.18423644 0.04567402 0.1584094 0.4416116 0.21722375 0.2464045 0.38731015 0.48082727
00000000: d1ac e5bd 257f bdbd 6bbe 91bd b19c 85bd
00000010: 44cc 07bd 55cb 0fbd 4ca9 3cbd e16e 733d
00000020: c768 583d b565 2abd 04c9 42be ca23 8a3e
00000030: 5193 613e 913c 9a3e 24e6 823e 0986 a73e
00000040: ade7 1b3e 0ad8 3f3e 5695 d83e 758e 053f
00000050: 96a0 183f 96a0 083f db83 1a3f e7c8 2a3f
00000060: 4eab 0d3f 01ad 143f b552 cd3e 29a7 0b3f
00000070: 3094 103f 8e38 303f 8a29 1a3f 6d5b 033f
00000080: f28b cc3e 255e e23e c690 9abd 2aea d8bd
00000090: 5464 cbbd 117f 84bd bce0 91bc 8cc8 96bd
000000a0: a32b 2abd 78a7 f33b 4317 85bc 7c31 64ba
000000b0: 0672 17bc 3bf0 963e b353 523e b645 833e
000000c0: 9d02 1f3e ca68 1c3e 0abb 583e cdcd 613e
000000d0: 7369 e03e 7418 1c3f 3988 433f 24fb 3d3f
000000e0: f392 333f 160e 183f e987 ac3e e207 0f3f
000000f0: de23 1c3f bcf2 4b3f 91a2 223f fae8 0f3f
00000100: d767 123f 7d1b 2f3f 75ab 1f3f 4e83 233f
00000110: 73f2 b1bd cda1 fbbd 3bea f6bd 10b9 e7bd
00000120: 73b9 f1bd 6e63 7bbd bc90 6abd 294b babc
00000130: d3d0 06bc 1ecf e83b baf8 883e 9714 a33e
00000140: 4d13 353e 6031 b33e 4501 393e 5bd6 5b3e
00000150: ca6e 953e 4cc5 8c3e dc61 2c3f fd2b 493f
00000160: 3041 713f 08c7 923f 65b1 873f 7831 8b3f
00000170: 3da2 f23e 8ac4 2e3f 9eda 523f 3b9b 333f
00000180: 7c86 6f3f e704 7a3f b6d1 8a3f f4c0 803f
00000190: 9ed8 383f e684 3b3f 776b efbd 2489 d5bd
000001a0: 0d06 e4bd f7b2 eebd eff6 f0bd 4cd3 89bd
000001b0: 523b 48bd a5b4 6cbd 6c69 4fbd bb04 f1bc
000001c0: 5c78 833e 5909 403e 6808 213e 28df 443e
000001d0: 8e07 ff3d db56 4c3e 31e4 933e 6502 ec3e
000001e0: aca9 253f da71 283f b969 5e3f 3b72 493f
000001f0: 10af 853f 990c 933f 53a6 6a3f cca8 563f
00000200: b166 673f 0ffe 653f 28e4 6e3f fac6 6a3f
00000210: 0412 863f d4b5 7e3f 063e 3b3f 8573 1a3f
00000220: 7c49 2bbe 75e0 06be 3a3d 05be 6839 b4bd
00000230: b725 eabd 9e2b 17be 9699 aabd 281a c0bd
00000240: aee8 d7bd d9f9 01bd 9250 9cbe 83ed f73d
00000250: 8e08 953e 8751 b33e 32e0 4f3e 5241 e53d
00000260: 79f3 743e 2133 263e d1c1 9a3e 3ecd 143f
00000270: d60e 253f bb3e 103f f44c 803f 0793 873f
00000280: 7445 0a3f 0cfa 083f cf00 4f3f 3477 8d3f
00000290: 5eed 743f 8ebd 8a3f 8f73 543f 432b 583f
000002a0: fa5e 503f 55e8 3e3f 5574 28be 4654 1ebe
000002b0: 6386 2bbe eea2 d0bd 4c1e c6bd 9c54 b3bd
000002c0: d8c9 4cbd edec 5cbd 348c 3bbd f4ee 08bd
000002d0: 5d15 bdbc f386 073e 224e 703e 61a9 993e
000002e0: aa17 183e c492 793e 0a0c 853e 855d a63e
000002f0: 61f6 d23e 1e11 753f b0a2 6c3f c276 923f
00000300: 379d 913f ee3c 803f 961e e53e 3185 023f
00000310: 574b 8f3f 8c1e 943f 7590 a03f e262 973f
00000320: 3caf 883f 9ab6 7a3f eb66 6f3f a62b 7f3f
00000330: 80c8 45be cf37 51be c965 24be 18b6 2fbe
00000340: fd30 e3bd b697 80bd e06f 70bd 8671 b5bd
00000350: 56b8 c9bc 6c18 f4bc c3f2 19be 9e1a 143d
00000360: cf60 8c3e c328 e73e 4bb5 4c3e 8cb6 9e3e
00000370: 23ab 9a3e e5f6 f03e d5d2 3e3f 59e6 8c3f
00000380: c882 833f 0b78 b33f 918e b83f 8f9f b23f
00000390: bd9d 5a3f c02d ac3f fba1 a83f d60d a63f
000003a0: dd0d b23f ab30 9a3f 4904 6d3f 0838 983f
000003b0: f4be a53f b987 9d3f ddd8 3bbe 79bf 37be
000003c0: a6b6 21be ff69 30be f35a 16be cd30 1cbe
000003d0: 0336 3bbe c18f b6bd ec87 f6bc 7ed3 17bd
000003e0: 7aa8 3cbe ae14 3b3d 1336 223e ea1a e23e
000003f0: e76f 5e3e 7651 7c3e 844d c63e fe2e f63e

conv.weight f4 [5, 1, 10, 10]
-0.077563755 -0.014418902 -0.15213703 -0.029825076 -0.10166075 0.011954963 0.055705223 0.008488507
0.03458655 0.07346859 -0.15454842 -0.24065058 0.0032468245 -0.077464744 0.003149619 0.036980756
-0.07577848 -0.13176802 0.19099326 0.17524771 -0.012161248 -0.22524855 -0.15727235 0.039593548
-0.102286324 0.038628407 -0.11684819 -0.0641787 -0.15639208 0.10553762 -0.09579939 -0.017604696
-0.12579517 0.002839039 -0.05797754 -0.14924723 0.019056069 -0.026766872 -0.098977685 -0.03434087
0.0285784 -0.068881534 -0.11288593 -0.07211471 -0.10119287 -0.10912881 -0.04087488 -0.10320618
-0.16504267 -0.17729633 -0.15642494 -0.027712736 -0.06899265 -0.06685729 -0.17728947 -0.16740283
-0.10961701 -0.12595229 -0.04166667 0.031505592 -0.21109724 -0.09307277 -0.09873815 -0.009377416
-0.11195223 0.10279944 0.021383172 0.030967757 -0.12987526 -0.030993598 -0.07239708 -0.063781016
-0.17172702 0.11042463 0.08469486 -0.014336059 0.018917155 0.049041655 0.026949795 -0.0044778152
-0.08154325 0.072545566 0.052188896 0.02302835 -0.06023178 -0.046806846 -0.053648345 -0.046777744
-0.15289271 0.03689369 -0.128537 -0.10425891 -0.08012172 -0.07016277 0.06019538 -0.06434481
0.016990308 -0.05678324 -0.07809965 -0.10414069 0.032709002 -0.063067235 -0.15260231 -0.101702124
0.03726002 -0.1553803 -0.17801869 -0.045021154 -0.16113146 -0.108983606 0.0038346439 -0.1013181
-0.022787267 -0.03827133 -0.15265013 0.02760166 -0.13088676 0.0077333646 -0.05121402 0.0005131142
-0.16433522 -0.13359545 0.03187669 -0.0813342 -0.14763471 -0.06948963 -0.03240725 -0.13831478
-0.069542 -0.007253513 0.0055869063 -0.06741986 -0.07054322 -0.048052676 -0.12759408 -0.015059493
-0.08526433 0.012298054 0.013164326 -0.108136155 0.0012967483 -0.0014536174 -0.049051326 0.025972068
0.021826679 -0.054644052 -0.080514655 -0.11332479 -0.04659791 -0.10652218 -0.049367983 -0.061907772
-0.074783795 -0.056898717 -0.11739501 -0.038742293 -0.03331978 -0.09577208 0.0016436448 -0.09040473
0.007589709 0.0066097165 0.0110388985 -0.17109191 -0.059469998 -0.046177085 -0.15204377 -0.085477345
-0.025397805 -0.03884009 0.0054930933 0.008355216 -0.1394983 -0.076640606 -0.11818464 -0.17441477
0.005710336 -0.09980796 -0.12854445 -0.0746899 -0.019252397 -0.027422726 -0.068075635 -0.08370577
-0.05808504 0.008703412 -0.042229388 -0.012251344 -0.082266726 -0.051937517 -0.050544273 -0.049528044
-0.098720714 -0.050989576 -0.13049363 -0.031197473 0.003498734 -0.059453063 -0.098056816 -0.13997297
-0.02284542 -0.047284238 -0.06430146 0.012062642 -0.043729052 -0.14135641 -0.08099011 0.01683492
-0.02169819 -0.12914973 0.0043345233 -0.014893212 -0.117702425 -0.103093885 0.0007407169 -0.07422122
-0.13967322 -0.04810687 -0.10683843 -0.15299422 -0.12051023 0.02996778 -0.07804139 0.015329966
-0.14959748 -0.04587629 -0.119730115 -0.121179074 -0.10934445 0.00929481 -0.12939976 0.017391559
-0.04246614 0.03343156 -0.08445447 -0.04097208 0.030606292 -0.062811695 0.023976337 -0.05090367
-0.008390985 -0.083605595 -0.060941424 -0.07718288 -0.13222438 -0.060701653 0.009019874 -0.024201632
-0.007040941 -0.10759669 0.06912155 -0.041467875 -0.04931164 -0.015299525 -0.08078712 -0.124592826
00000000: bfd9 9ebd 423d 6cbc cfc9 1bbe b853 f4bc
00000010: 8333 d0bd c0de 433c 292b 643d 6113 0b3c
00000020: a0aa 0d3d b376 963d f141 1ebe 1b6d 76be
00000030: adc8 543b d6a5 9ebd d769 4e3b 2279 173d
00000040: bf31 9bbd 32ee 06be bd93 433e 2374 333e
00000050: f93f 47bc 8ea7 66be 010c 21be d82c 223d
00000060: 7e7b d1bd d238 1e3d 1b4e efbd 1f70 83bd
00000070: 3f25 20be 1c24 d83d 7832 c4bd b937 90bc
00000080: 73d0 00be 2c0f 3a3b db79 6dbd 44d4 18be
00000090: 791b 9c3c 3346 dbbc d0b4 cabd 03a9 0cbd
000000a0: 401d ea3c c311 8dbd bd30 e7bd e1b0 93bd
000000b0: 353e cfbd ed7e dfbd 6b6c 27bd c35d d3bd
000000c0: f200 29be 2b8d 35be dc2d 20be d205 e3bc
000000d0: 054c 8dbd 7aec 88bd 5f8b 35be a66b 2bbe
000000e0: e27e e0bd a3f9 00be acaa 2abd 020c 013d
000000f0: e029 58be f09c bebd 3a37 cabd bca3 19bc
00000100: 3647 e5bd 8388 d23d c32b af3c 18b0 fd3c
00000110: 05fe 04be 49e6 fdbc ec44 94bd 9f9f 82bd
00000120: 35d9 2fbe 4f26 e23d 8074 ad3d cae1 6abc
00000130: 26f8 9a3c e7df 483d d1c5 dc3c a3ba 92bb
00000140: 2600 a7bd c592 943d 06c4 553d f3a5 bc3c
00000150: 99b5 76bd 89b8 3fbd 5ebe 5bbd 059a 3fbd
00000160: e88f 1cbe d61d 173d 349f 03be b285 d5bd
00000170: db16 a4bd 80b1 8fbd 6e8f 763d 36c7 83bd
00000180: 422f 8b3c 8b95 68bd b6f2 9fbd b747 d5bd
00000190: e0f9 053d 6529 81bd c843 1cbe 3449 d0bd
000001a0: f69d 183d 031c 1fbe 884a 36be 1a68 38bd
000001b0: a5ff 24be cc32 dfbd a64e 7b3b dd7f cfbd
000001c0: 5dac babc 66c2 1cbd 5150 1cbe e01c e23c
000001d0: 2e07 06be 2a68 fd3b cbc5 51bd 8382 063a
000001e0: 7e47 28be 3fcd 08be 2291 023d 8c92 a6bd
000001f0: 8e2d 17be 9450 8ebd 77bd 04bd 64a2 0dbe
00000200: 096c 8ebd e1ae edbb 5e12 b73b 6c13 8abd
00000210: f778 90bd e2d2 44bd 06a8 02be 17bc 76bc
00000220: 119f aebd c77d 493c 2faf 573c 7d76 ddbd
00000230: a7f7 a93a 4e87 beba 0bea 48bd 60c3 d43c
00000240: ddcd b23c 71d2 5fbd dee4 a4bd d416 e8bd
00000250: 73dd 3ebd 4d28 dabd 1536 4abd 0193 7dbd
00000260: 3f28 99bd a10e 69bd cc6c f0bd 3db0 1ebd
00000270: 527a 08bd 2724 c4bd 916f d73a 1d26 b9bd
00000280: 18b3 f83b 5296 d83b 7fdc 343c b832 2fbe
00000290: d096 73bd 2f24 3dbd 5db1 1bbe bf0e afbd
000002a0: 0f0f d0bc c916 1fbd 68ff b33b 51e4 083c
000002b0: a4d8 0ebe c0f5 9cbd ca0a f2bd c999 32be
000002c0: c51d bb3b 1e68 ccbd 28a1 03be 05f7 98bd
000002d0: 34b7 9dbc a0a5 e0bc 3d6b 8bbd ee6d abbd
000002e0: 94ea 6dbd c198 0e3c b9f8 2cbd dcb9 48bc
000002f0: 757b a8bd 6fbc 54bd 8307 4fbd ebdd 4abd
00000300: 162e cabd 72da 50bd 1fa0 05be d891 ffbc
00000310: 044b 653b 0e85 73bd 03d2 c8bd 1355 0fbe
00000320: 5126 bbbc 1ead 41bd 7cb0 83bd 63a2 453c
00000330: 3c1d 33bd bcbf 10be 25de a5bd 63e9 893c
00000340: 67c0 b1bc d43f 04be 9e08 8e3b a902 74bc
00000350: f80d f1bd e322 d3bd ab2c 423a 4c01 98bd
00000360: 7f06 0fbe b60b 45bd 1bce dabd 84aa 1cbe
00000370: 11ce f6bd fd7e f53c 2ad4 9fbd 8a2a 7b3c
00000380: 1530 19be c7e8 3bbd 1035 f5bd bc2c f8bd
00000390: fcef dfbd 4249 183c 5f81 04be be78 8e3c
000003a0: faf0 2dbd 88ef 083d 77f6 acbd 57d2 27bd
000003b0: 0cba fa3c 6ba3 80bd 066a c43c 5e80 50bd
000003c0: 587a 09bc 6939 abbd b79d 79bd 0f12 9ebd
000003d0: d465 07be 4ca2 78bd 18c8 133c 8042 c6bc
000003e0: b2b7 e6bb a75b dcbd 998f 8d3d 38da 29bd
000003f0: 01fb 49bd dcaa 7abc b873 a5bd 862a ffbd

conv.bias f4 [5]
0.15843943 -0.21082869 -0.15456846 -0.063279755 -0.02366007
00000000: f23d 223e 7ae3 57be 3247 1ebe d198 81bd
00000010: c3d2 c1bc

fc1.weight f4 [64, 180]
0.024855904 0.05070875 -0.05141202 -0.012969445 0.00328549 -0.0738677 0.044445097 0.03203336
0.006367065 0.049726464 0.01665873 -0.0027663484 0.0577678 -0.016136471 -0.066496536 -0.06862449
-0.016795266 0.027010188 -0.029533345 -0.005499132 0.03069257 -0.03548401 -0.067639925 -0.050945878
0.06805519 -0.015394218 -0.055753138 -0.026548628 0.053585984 -0.017552279 -0.029173207 -0.06778403
0.020432398 -0.0616224 0.067375235 -0.049868878 0.03545873 -0.016979087 0.046228334 0.036267392
0.05632145 0.0007135272 -0.028856106 -0.051307403 -0.0011950955 -0.057349823 -0.042793732 -0.05006352
0.054031365 0.027106315 0.012362815 0.0053380057 -0.0012403578 -0.012386594 0.029726774 0.025258906
-0.014602579 -0.035935834 -0.007403441 -0.0070321783 -0.042780414 0.07357008 0.04041408 -0.011793107
-0.061765898 0.043734707 -0.06428481 0.021408513 0.020145945 -0.0561214 0.070205815 0.0060357824
-0.027551118 0.012625851 0.028531164 0.066849716 0.054024525 -0.051012732 -0.055601574 0.03865546
-0.025836654 0.0051550865 -0.069252945 -0.04318954 -0.03691667 0.018205255 -0.038733803 -0.07377741
0.01832895 -0.029151987 0.04828149 -0.059426293 0.02818583 -0.022838797 -0.02670421 -0.017137911
-0.00048613548 0.046935283 0.048710965 -0.00071911514 0.05148823 0.03429216 -0.04406622 0.042626873
0.04451307 -0.06602797 -0.052092522 0.05866977 -0.07003593 0.060658537 -0.0026507005 0.0678679
-0.055308737 -0.049254954 0.015831515 -0.05115927 -0.016125623 0.01620996 0.036994435 0.055950932
-0.053365212 -0.030618824 -0.021193907 0.012129627 -0.05683371 -0.044762403 0.038054995 -0.065285474
0.027523711 0.056304283 0.056768514 -0.03699661 0.07089607 0.047696367 0.014302999 -0.020966541
0.037178345 -0.052591026 0.060890727 0.060739912 -0.03944025 0.056769304 0.0049866512 0.0405569
-0.014579345 -0.0071071684 -0.04925253 -0.050186917 -0.012846135 0.059104837 -0.01629446 0.014403999
0.046810716 0.012460075 0.0298431 0.06463488 0.07014429 -0.006360218 0.004235491 -0.062826
-0.0297805 -0.0718765 -0.01963519 0.05938118 0.02079983 -0.0034024268 -0.025361512 -0.0071026087
-0.039913587 0.016253151 0.048612587 -0.07121589 -0.018770654 -0.032668334 0.019162752 -0.04122406
0.028095335 0.029265426 0.049427874 0.059957214 0.013745072 0.006359616 -0.06535321 -0.02072168
-0.00948632 0.013375772 -0.02214367 -0.005553674 -0.0626075 -0.09230638 0.022749191 0.034168724
0.007838225 -0.0355505 -0.122673735 0.027261065 -0.04617888 -0.10820254 -0.0040276935 -0.033710234
0.03422879 0.06755575 0.04298549 0.025513178 -0.073482566 -0.057289224 -0.014970048 -0.061466675
0.014726263 -0.013341423 -0.07205957 -0.013605959 -0.028271899 -0.017167425 -0.052267205 -0.008886908
-0.037716076 0.04769644 -0.0012107566 0.07001432 0.06434419 0.044087082 -0.058123842 0.057899572
0.046557713 -0.016283635 0.0042737424 -0.037864387 0.004635766 -0.0004911442 0.010314289 0.04831331
0.08671496 -0.02061494 0.04995411 0.08622156 -0.009218342 0.0447977 -0.004192015 -0.0026989058
0.03173048 0.06350907 0.034035027 0.036510307 0.03377577 -0.013127968 0.013729364 -0.06940073
0.009729043 -0.018806774 0.0011866093 -0.05870067 -0.020772751 0.030871764 -0.033446033 0.023667201
00000000: 9c9e cb3c fab3 4f3d 6995 52bd cc7d 54bc
00000010: 6051 573b f347 97bd 100c 363d 6a35 033d
00000020: d0a2 d03b faad 4b3d e477 883c a04b 35bb
00000030: ee9d 6c3d a230 84bc 562f 88bd ff8a 8cbd
00000040: 3a96 89bc 7844 dd3c eaef f1bc 1032 b4bb
00000050: fc6e fb3c ae57 11bd cd86 8abd a0ac 50bd
00000060: 8560 8b3d 0838 7cbc 675d 64bd 827c d9bc
00000070: fa7c 5b3d ccc9 8fbc a6fc eebc 5bd2 8abd
00000080: d861 a73c c567 7cbd 07fc 893d 4f43 4cbd
00000090: 2c3d 113d ba17 8bbc ec59 3d3d 1e8d 143d
000000a0: 52b1 663d 000c 3b3a a463 ecbc b627 52bd
000000b0: c0a4 9cba a6e7 6abd 7b48 2fbd 680f 4dbd
000000c0: fe4f 5d3d 100e de3c 688d 4a3c 70ea ae3b
000000d0: 8093 a2ba 24f1 4abc 9085 f33c c4eb ce3c
000000e0: a83f 6fbc 7431 13bd 9098 f2bb 306e e6bb
000000f0: 843a 2fbd e9ab 963d 3c89 253d e037 41bc
00000100: 3dfe 7cbd 2a23 333d c1a7 83bd e860 af3c
00000110: 1c09 a53c 8edf 65bd 11c8 8f3d d0c7 c53b
00000120: e2b2 e1bc a8dc 4e3c 30ba e93c 81e8 883d
00000130: d248 5d3d baf2 50bd 7abe 63bd 3055 1e3d
00000140: 64a7 d3bc 00ec a83b 7dd4 8dbd 84e7 30bd
00000150: ef35 17bd 3023 953c 56a7 1ebd 9c18 97bd
00000160: 9826 963c 26d0 eebc d0c2 453d fc68 73bd
00000170: f8e5 e63c 6e18 bbbc cac2 dabc ce64 8cbc
00000180: 00e0 feb9 363f 403d 2685 473d 0083 3cba
00000190: 52e5 523d f075 0c3d c87e 34bd 8499 2e3d
000001a0: 5653 363d ac39 87bd f85e 55bd b64f 703d
000001b0: ff6e 8fbd 1675 783d 60b7 2dbb 53fe 8a3d
000001c0: 6a8b 62bd 90bf 49bd 18b1 813c 628c 51bd
000001d0: e219 84bc c0ca 843c 7a87 173d ce2c 653d
000001e0: 7b95 5abd 54d4 fabc d89e adbc 58bb 463c
000001f0: 77ca 68bd c858 37bd 8edf 1b3d 64b4 85bd
00000200: 6879 e13c 529f 663d 1a86 683d c289 17bd
00000210: f531 913d 445d 433d 2057 6a3c 06c2 abbc
00000220: 5248 183d b069 57bd 8e68 793d 6aca 783d
00000230: 198c 21bd ee86 683d 1067 a33b fe1e 263d
00000240: 34de 6ebc 40e3 e8bb 05bd 49bd cc90 4dbd
00000250: 9878 52bc ea17 723d f67b 85bc c0fe 6b3c
00000260: 98bc 3f3d 5825 4c3c 8479 f43c 4b5f 843d
00000270: cfa7 8f3d 6069 d0bb e0c9 8a3b ebaa 80bd
00000280: 3cf6 f3bc fd33 93bd fad9 a0bc ae39 733d
00000290: 6864 aa3c 40fb 5ebb f2c2 cfbc 00bd e8bb
000002a0: 6e7c 23bd 5425 853c fe1d 473d a3d9 91bd
000002b0: eac4 99bc 3bcf 05bd 34fb 9c3c 8fda 28bd
000002c0: 3028 e63c 0cbe ef3c e274 4a3d b295 753d
000002d0: 0333 613c 5364 d03b e7d7 85bd 83c0 a9bc
000002e0: 836c 1bbc 0e26 5b3c a466 b5bc 98fb b5bb
000002f0: 5c38 80bd 210b bdbd 835c ba3c 81f4 0b3d
00000300: e66b 003c 679d 11bd 5e3c fbbd 9952 df3c
00000310: 1126 3dbd 4b99 ddbd befa 83bb be13 0abd
00000320: 7d33 0c3d ab5a 8a3d 8e11 303d 0301 d13c
00000330: 077e 96bd 1ba8 6abd ef44 75bc 7bc4 7bbd
00000340: 6c46 713c fc95 5abc f893 93bd 87eb 5ebc
00000350: 789a e7bc b3a2 8cbc 2316 56bd 659a 11bc
00000360: 2c7c 1abd 585d 433d 40b2 9eba ab63 8f3d
00000370: e3c6 833d a894 343d 4413 6ebd 1a28 6d3d
00000380: 4db3 3e3d 4265 85bc c00a 8c3b b017 1bbd
00000390: a0e7 973b 21c0 00ba 43fd 283c 2de4 453d
000003a0: 9d97 b13d aae0 a8bc ae9c 4c3d ee94 b03d
000003b0: 8708 17bc cb7d 373d 2c5d 89bb 20e0 30bb
000003c0: d2f7 013d 0b11 823d 5068 0b3d d58b 153d
000003d0: 7658 0a3d b016 57bc 20f1 603c f821 8ebd
000003e0: 9066 1f3c aa10 9abc 0088 9b3a 1d70 70bd
000003f0: 9e2b aabc c8e6 fc3c b5fe 08bd b8e1 c13c

fc1.bias f4 [64]
-0.045470797 -0.008786062 -0.06262369 0.07426054 -0.1394214 -0.04461693 -0.033993997 -0.04537679
-0.07872882 -0.044380434 0.17475629 0.026855938 0.11224249 -0.07344063 -0.11173664 -0.0012523733
-0.069591515 0.00295055 -0.026376007 0.071503066 0.025729528 0.00519757 0.0232612 0.106246464
-0.0923529 0.038560167 0.0040047476 -0.04496862 -0.090679005 -0.10135645 -0.009373808 0.04929312
-0.003874713 -0.018411225 0.016176708 0.005304776 -0.0934034 -0.0888539 -0.06280742 -0.108370505
-0.07938639 0.02326134 -0.07064755 -0.009889581 -0.0807017 -0.13308741 0.020074986 0.04053427
-0.10240056 -0.09861846 -0.026036248 -0.022242572 -0.07694169 -0.008635631 0.018143216 0.017801262
-0.086175084 -0.08173007 -0.04438295 -0.03202732 0.27280656 0.06798241 0.010239638 0.0071347244
00000000: 963f 3abd 6af3 0fbc d940 80bd e915 983d
00000010: 7cc4 0ebe 3ec0 36bd 4a3d 0bbd 03dd 39bd
00000020: 933c a1bd 42c8 35bd 50f3 323e fc00 dc3c
00000030: 64df e53d 0b68 96bd 2ed6 e4bd ad26 a4ba
00000040: ff85 8ebd 045e 413b 7f12 d8bc 3370 923d
00000050: bbc6 d23c 6150 aa3b 468e be3c bf97 d93d
00000060: 8423 bdbd 44f1 1d3d 423a 833b 0431 38bd
00000070: eab5 b9bd f893 cfbd 9a94 19bc 95e7 493d
00000080: e6ee 7dbb 23d3 96bc 0485 843c b0d3 ad3b
00000090: 484a bfbd 09f9 b5bd 2da1 80bd 5bf1 ddbd
000000a0: 5595 a2bd 918e be3c aaaf 90bd e907 22bc
000000b0: ef46 a5bd 1148 08be 4c74 a43c 4307 263d
000000c0: 63b7 d1bd 7af8 c9bd f849 d5bc 0e36 b6bc
000000d0: 9b93 9dbd 767c 0dbc 15a1 943c f4d3 913c
000000e0: 907c b0bd 1862 a7bd e5ca 35bd 142f 03bd
000000f0: 4dad 8b3e 5d3a 8b3d 28c4 273c 68ca e93b

fc2.weight f4 [4, 64]
-0.074138284 -0.085703425 -0.020386264 -0.026826061 0.014165069 -0.030405536 0.11503264 -0.11941935
-0.0037530703 0.11740543 -0.02675013 -0.018756194 -0.024952367 0.018574094 -0.0083703445 -0.02173557
0.00012659909 0.16584696 -0.023863623 -0.02182879 -0.039689455 0.02170432 0.03717984 -0.020301508
-0.051441398 -0.03156255 0.14324005 0.007666316 0.027504304 0.117026255 0.15673628 -0.039147012
0.017652942 0.117656834 0.023173928 -0.043039992 -0.025840556 -0.010369545 0.12724575 0.01996675
-0.008660288 0.19416866 0.123589694 0.046283696 0.039389987 -0.046925124 0.024586692 0.06844215
0.02411769 -0.063060716 -0.023858415 0.063716754 -0.0030045768 0.013504768 -0.025490955 -0.020142674
-0.00878409 0.07111974 0.026461765 0.00065405795 -0.028914213 -0.012107327 0.04461712 0.005519295
0.023401678 0.11704558 0.093344286 -0.10157589 0.0113603 -0.045765862 0.03033478 -0.108820826
0.08472006 0.00094015896 -0.1006899 -0.07052611 -0.09432077 0.114353254 0.08059678 -0.035401378
0.011678171 0.021528397 0.04008861 -0.082879014 -0.012701551 0.073714904 0.116038166 -0.07707999
0.025602585 -0.02832196 0.088552974 0.09560574 0.1449936 -0.07295348 0.070775636 -0.030983742
0.023362895 -0.05728752 -0.109634474 0.08615117 0.10044145 -0.047032066 -0.005021409 0.019742226
-0.020953447 0.048757263 -0.096926466 0.025507651 -0.037496403 0.09102381 -0.120247275 0.08158373
0.13542257 0.17492792 0.031120677 0.15961468 0.056395244 0.09840046 0.036666177 0.04754293
-0.01599163 0.055868633 0.10073339 0.14815308 -0.111993834 0.0001535727 0.108139575 0.13367787
0.12410991 0.06459528 0.09711617 0.7686309 -0.02865998 0.110442325 -0.11214835 0.09017365
-0.02135273 0.11354673 0.7629204 0.53431165 0.7140021 -0.060727555 -0.024615726 -0.014418505
-0.14562884 -0.03684639 -0.039612196 0.6268861 0.26417327 -0.015621154 0.06553324 0.5830266
-0.027497258 0.22983289 0.051885083 0.02751531 0.10222879 0.12147592 0.042362474 0.31437308
-0.064226955 -0.07722928 0.076961875 0.029982924 -0.027595077 -0.10671901 0.05165437 -0.0656884
0.061786287 -0.019772127 -0.03914897 -0.037515923 -0.1380812 -0.026047785 0.05359006 0.08845272
-0.032838304 0.034951635 -0.08213531 0.0009657266 -0.007686011 -0.008461398 0.11395975 -0.0601601
-0.04412168 0.008189296 0.08824532 -0.015790218 0.84340584 0.21937591 0.08584546 0.035919614
0.031202838 -0.14099127 -0.06263617 0.4913822 -0.08716835 0.060473457 -0.0045223706 -0.091697544
0.04284822 0.1171609 0.4876252 0.34149897 0.45646244 0.12474876 -0.028698424 0.056379016
0.037331626 -0.04408449 -0.078007564 0.40082714 0.14300527 0.003574516 0.027929526 0.3727752
0.059485175 0.13723947 -0.049797747 0.030371305 -0.023263853 -0.0511559 -0.04257593 0.17484389
-0.052438445 -0.14379129 0.0740242 0.008928269 0.06856326 -0.10635467 -0.081048176 0.046996545
-0.14793839 0.023350775 -0.07071033 0.009147271 -0.1367365 -0.026982812 0.041747168 0.08782454
0.039830692 -0.059694517 0.0020432277 0.05031632 0.032243405 0.056309346 -0.040788583 0.028915599
-0.0031759227 -0.040694084 -0.0457171 -0.051566917 0.5395553 0.06821722 0.009595711 0.03652385
00000000: d0d5 97bd 4785 afbd 1801 a7bc 54c2 dbbc
00000010: 9b14 683c 0815 f9bc 3c96 eb3d 2292 f4bd
00000020: 12f6 75bb 4272 f03d 1723 dbbc 97a6 99bc
00000030: e868 ccbc b328 983c c523 09bc cb0e b2bc
00000040: afbf 0439 c9d3 293e a57d c3bc 4ad2 b2bc
00000050: 6991 22bd 42cd b13c e349 183d 594f a6bc
00000060: 37b4 52bd bc47 01bd 85ad 123e b835 fb3b
00000070: b550 e13c 76ab ef3d 7a7f 203e 9e58 20bd
00000080: e79c 903c 11f6 f03d 40d7 bd3c b44a 30bd
00000090: 93af d3bc 06e5 29bc b64c 023e 4f91 a33c
000000a0: e1e3 0dbc 26d4 463e 981c fd3d f993 3d3d
000000b0: 6557 213d 8f34 40bd 086a c93c 662b 8c3d
000000c0: 7692 c53c fa25 81bd b972 c3bc ee7d 823d
000000d0: 6fe8 44bb 1a43 5d3c 68d2 d0bc 4002 a5bc
000000e0: 25eb 0fbc 3aa7 913d 58c6 d83c 1675 2b3a
000000f0: 80dd ecbc cf5d 46bc 71c0 363d 34db b43b
00000100: e0b4 bf3c 98b5 ef3d 4a2b bf3d 0507 d0bd
00000110: 8d20 3a3c fc74 3bbd a580 f83c 74dd debd
00000120: b681 ad3d 0075 763a 8236 cebd fe6f 90bd
00000130: 3f2b c1bd 0a32 ea3d ed0f a53d 0901 11bd
00000140: cd55 3f3c 525c b03c f433 243d 79bc a9bd
00000150: 2b1a 50bc d7f7 963d 6ba5 ed3d 1ddc 9dbd
00000160: 83bc d13c 7403 e8bc 435b b53d f1cc c33d
00000170: 3479 143e a268 95bd d1f2 903d 9ed1 fdbc
00000180: 8b63 bf3c 52a6 6abd 0a88 e0bd 0670 b03d
00000190: 3fb4 cd3d b2a4 40bd a28a a4bb 73ba a13c
000001a0: 90a6 abbc b2b5 473d 6281 c6bd 6cf5 d03c
000001b0: d495 19bd b16a ba3d 3444 f6bd 5f15 a73d
000001c0: 37ac 0a3e 4e20 333e caf0 fe3c 0872 233e
000001d0: b3fe 663d 2e86 c93d 462f 163d 60bc 423d
000001e0: e100 83bc 82d6 643d 4f4d ce3d 71b5 173e
000001f0: 065d e5bd 5c08 2139 4878 dd3d dae2 083e
00000200: 562d fe3d 884a 843d d8e4 c63d ffc4 443f
00000210: 56c8 eabc 962f e23d 09ae e5bd f6ac b83d
00000220: eceb aebc 308b e83d c04e 433f a6c8 083f
00000230: d7c8 363f 75bd 78bd eba6 c9bc 983b 6cbc
00000240: ba1f 15be 3eec 16bd 6640 22bd 9c7b 203f
00000250: b841 873e deef 7fbc 4b36 863d 3b41 153f
00000260: ee41 e1bc 5059 6b3e 7485 543d ca67 e13c
00000270: 545d d13d 5ec8 f83d 4684 2d3d 82f5 a03e
00000280: 6c89 83bd 622a 9ebd 309e 9d3d c09e f53c
00000290: 120f e2bc 7f8f dabd 8893 533d a487 86bd
000002a0: 9e13 7d3d 28f9 a1bc ac5a 20bd 4caa 19bd
000002b0: 2865 0dbe 2a62 d5bc 4081 5b3d b326 b53d
000002c0: 7581 06bd 7229 0f3d 8f36 a8bd d128 7d3a
000002d0: efda fbbb ada1 0abc bb63 e93d 706a 76bd
000002e0: efb8 34bd 662c 063c f6b9 b43d 7d5a 81bc
000002f0: 72e9 573f 14a4 603e bfcf af3d 7220 133d
00000300: 189d ff3c 0460 10be 6447 80bd 7396 fb3e
00000310: 5285 b2bd 04b3 773d 6530 94bb eccb bbbd
00000320: 9d81 2f3d 0ef2 ef3d 03aa f93e f4d8 ae3e
00000330: 72b5 e93e 477c ff3d f518 ebbc afed 663d
00000340: 0ce9 183d f091 34bd 6ec2 9fbd 3739 cd3e
00000350: f96f 123e 6d42 6a3b 76cc e43c 64dc be3e
00000360: baa6 733d 8188 0c3e b9f8 4bbd 3ecd f83c
00000370: d693 bebc d988 51bd 1964 2ebd 470a 333e
00000380: b2c9 56bd 063e 13be 009a 973d e047 123c
00000390: e56a 8c3d 7ad0 d9bd 96fc a5bd 737f 403d
000003a0: 297d 17be 204a bf3c 94d0 90bd 6fde 153c
000003b0: a704 0cbe 0f0b ddbc 14ff 2a3d 5add b33d
000003c0: 8225 233d 3d82 74bd ace7 053b 7c18 4e3d
000003d0: a911 043d a1a4 663d ee11 27bd 68e0 ec3c
000003e0: 2423 50bb d7ae 26bd db41 3bbd d537 53bd
000003f0: 4c20 0a3f 78b5 8b3d 5437 1d3c 089a 153d

fc2.bias f4 [4]
-0.043956734 -0.03335844 0.472922 0.28073072
00000000: fa0b 34bd dca2 08bd d522 f23e f0bb 8f3e
