src/flatland/flat_game/results/ourmethod_noreg2/rep_learner.pth (torch_old, 312910 bytes, 33 tensors)

representations f4 [6]
0	0x3e84d27b	0.25941834
1	0xbe4e398e	-0.20139143
2	0x392e2fd0	0.00016611745
3	0x3f972945	1.180947
4	0xbe90f007	-0.28308126
5	0x3d22a498	0.03970775

representations f4 [6]
0	0xbe8e6fc3	-0.27819642
1	0xbe2ee581	-0.17079736
2	0x3d874d1c	0.06606504
3	0xbf96a447	-1.1768883
4	0x3d5807cc	0.05274181
5	0xbe872ba1	-0.26400474

representations f4 [6]
0	0xbebf098b	-0.37311968
1	0x3d87776c	0.06614575
2	0xbf97e2e2	-1.1866114
3	0x3d27b4aa	0.04094378
4	0x3e705841	0.23471166
5	0xbede9d1d	-0.43479243

representations f4 [6]
0	0x3ed918ec	0.42401826
1	0x3f35990a	0.70936644
2	0x3f83949c	1.0279727
3	0x3e2870af	0.16449235
4	0x3e829fda	0.25512582
5	0x3f57518f	0.84108824

fc1.weight f4 [64, 4]
0	0x3cbf101d	0.023323113
1	0x404cfc85	3.2029126
2	0xbefbf68c	-0.49211538
3	0x3ff24755	1.8928019
4	0x3d5779dd	0.052606452
5	0x3ec32570	0.381145
6	0xbf9ffe2d	-1.2499443
7	0xbfa78de1	-1.3090173
8	0x3e920054	0.28515875
9	0xbfe8dbe3	-1.8192104
10	0xbebd500a	-0.36975127
11	0xbf7339ec	-0.95010257
12	0x3f984315	1.1895472
13	0xbfb09460	-1.379528
14	0xbf8af9f6	-1.0857532
15	0xbe032080	-0.12805367
16	0x3f1ac032	0.60449517
17	0x3e713295	0.23554452
18	0xbd5999a7	-0.05312505
19	0x3e80b858	0.25140643
20	0xbf1ca0c8	-0.6118283
21	0x3f5a9b11	0.8539286
22	0xbe4aeb63	-0.19816355
23	0x3f7c6a3e	0.9859961
24	0x3e95ba77	0.29243824
25	0x3e5fcc88	0.21855366
26	0xbecd754c	-0.40128553
27	0xbd1b084f	-0.03784972
28	0x3e23fd15	0.16014512
29	0xbfc069c7	-1.5032281
30	0xbf09d3e7	-0.5383896
31	0x3ec530f8	0.38513923
32	0xbf317e9d	-0.6933382
33	0x3e2ffc37	0.17186056
34	0xbecd901c	-0.4014901
35	0xbfe2bc27	-1.771367
36	0x3de3e1d0	0.11127055
37	0xbe19b7d8	-0.15011537
38	0x3e04af08	0.12957394
39	0x3ea6e810	0.32598925
40	0x3f889007	1.0668954
41	0x400d4f65	2.2079709
42	0xbe30714e	-0.17230722
43	0xbfaf5ae3	-1.3699611
44	0x3eb84ba3	0.35995206
45	0x3ee8b67b	0.45451722
46	0xbf8aa934	-1.0832887
47	0x3e46e11c	0.1942181
48	0x3ce40bc0	0.027837634
49	0x3e838c9e	0.2569322
50	0xbe133730	-0.14376521
51	0xbdb84e28	-0.08999282
52	0x3eff6433	0.49881133
53	0x3f8a24eb	1.0792516
54	0x3fa10524	1.2579694
55	0x3e8d7e74	0.2763554
56	0xbf358a4e	-0.7091416
57	0x3f377e26	0.7167686
58	0x3eb1ed8a	0.3475154
59	0x4028e876	2.6391883
60	0x3e986f7b	0.29772553
61	0xbffd63c2	-1.9796069
62	0x3ff0c745	1.8810812
63	0x400db823	2.2143638
64	0x3ff333ef	1.9000224
65	0x3f5630da	0.8366829
66	0xbee9349d	-0.45547953
67	0xbf0a911e	-0.5412768
68	0xbe227968	-0.15866625
69	0xbfee966c	-1.8639655
70	0x3f2db963	0.67861
71	0x3e83f472	0.25772434
72	0x3f4517af	0.76989263
73	0x40678286	3.6173415
74	0x3fbc4d34	1.471106
75	0x3d57377c	0.05254315
76	0xc01dfefa	-2.4686875
77	0xbffe4907	-1.9866036
78	0xbfccba93	-1.5994438
79	0xbee53225	-0.4476482
80	0x3e833a41	0.25630382
81	0x4034be85	2.8241284
82	0x3f416dbf	0.75558084
83	0xbf666901	-0.90003973
84	0xbfc26f36	-1.5190189
85	0x3fa3ed7b	1.2806848
86	0x3f5d5bd0	0.8646822
87	0x3ec05979	0.37568262
88	0xbf5616be	-0.8362845
89	0xc000963d	-2.0091698
90	0x404ded22	3.2175984
91	0xbe5278ef	-0.20553945
92	0x3f1cabc7	0.6119961
93	0x3f30397a	0.688377
94	0x3f09a9c8	0.5377469
95	0x3fa92976	1.3215778
96	0xbfde0736	-1.7345951
97	0xbf8a5fff	-1.0810546
98	0xbff0d4e8	-1.8814974
99	0x40213854	2.519063
100	0x3fe18e2a	1.762151
101	0xbf8ab4c7	-1.0836419
102	0x3f19a586	0.60018194
103	0xbe8a75d2	-0.27043015
104	0x3f2c8931	0.6739684
105	0x3f019749	0.5062147
106	0xbf8c3b59	-1.0955611
107	0xbed7dd87	-0.421612
108	0x3fdfa975	1.7473589
109	0xbf310ac6	-0.69157064
110	0xbf9c136d	-1.2193428
111	0xbec1afa9	-0.3782933
112	0xbe3d333e	-0.18476579
113	0xbfad1e73	-1.3524917
114	0x3f151b57	0.5824484
115	0xbc299a3c	-0.010351714
116	0x3f23d7b4	0.6400101
117	0x3fc63bdb	1.5487016
118	0xbed4f32b	-0.41591772
119	0x3f51f0b3	0.820079
120	0x3f3d36ac	0.7391155
121	0xbfcf780b	-1.6208509
122	0x3ca8b675	0.020594815
123	0x40060e5b	2.0946262
124	0xbfad0346	-1.3516624
125	0x3f67ac3d	0.9049719
126	0xbfc6b5be	-1.5524213
127	0x3f8d953a	1.1061165
128	0x3eeb4691	0.45952275
129	0x3f85a5fe	1.0441282
130	0xbedd333b	-0.43203148
131	0xbff74268	-1.931714
132	0xbdf7f978	-0.12108129
133	0xbe048278	-0.12940395
134	0x3e8b8668	0.2725098
135	0x3d460d60	0.0483526
136	0xbde264eb	-0.11054405
137	0x3f04ad10	0.5182657
138	0xbe40d8fa	-0.1883277
139	0xbf221802	-0.63317883
140	0xc00af6d3	-2.171315
141	0xbfdf579d	-1.7448612
142	0x3f30f7b5	0.6912797
143	0x3fd41a0c	1.6570449
144	0x3e84a307	0.2590563
145	0x3ebce977	0.3689687
146	0x3ef12ce4	0.4710456
147	0x400fc510	2.2464027
148	0xbf2b4f62	-0.66918004
149	0x4016627b	2.3497608
150	0xbf1ed183	-0.6203844
151	0xbfcff89e	-1.6247747
152	0x3fc551f3	1.5415634
153	0x3fe27a74	1.769362
154	0xbec93b3a	-0.39303
155	0x3fd88c2e	1.691778
156	0xbd259a74	-0.0404305
157	0x3ea9e1a1	0.33179954
158	0xbed8ccf0	-0.42343855
159	0x3e3bec37	0.18351828
160	0xbf60b7ef	-0.8778066
161	0xbfdc5ef6	-1.721648
162	0x3f7c4a80	0.9855118
163	0xbf93ed44	-1.1556783
164	0x3fc5b21d	1.5444981
165	0x3daf5370	0.08560836
166	0xbf9d968a	-1.2311566
167	0x3fe12c6e	1.7591684
168	0xc01fe8b4	-2.498578
169	0x3f8b6e31	1.0893003
170	0xbe2b8553	-0.16750078
171	0x3fd31d7b	1.6493372
172	0x3f5c8b36	0.8614992
173	0xbfb59bdf	-1.4188193
174	0xbecae0d5	-0.39624658
175	0xbfd6e2ef	-1.6788005
176	0x3fe6d39a	1.8033326
177	0x3fbba837	1.466071
178	0x4005217e	2.0801692
179	0xbf0346b1	-0.5127974
180	0x3fee6e3f	1.8627394
181	0x3bce5e75	0.0062978812
182	0xbfab52f0	-1.3384686
183	0x3cfcd5e5	0.030863712
184	0x3f8150e6	1.0102813
185	0xbf73549c	-0.9505098
186	0x3cd02429	0.025407868
187	0x3cc26558	0.023729965
188	0x3f02f1b2	0.5115005
189	0xc00574ad	-2.0852463
190	0x3f6cdb90	0.92522526
191	0xbdaf1267	-0.08548432
192	0x3ecf19ef	0.40449473
193	0xbe9b23bb	-0.30300698
194	0x3cd4334c	0.025903367
195	0xbeb260f5	-0.34839597
196	0xc012dcb4	-2.2947206
197	0x3c7670ef	0.015041574
198	0xbe3289ef	-0.1743543
199	0x3e6c35fc	0.23067468
200	0xbffccd57	-1.9750165
201	0x3f60ed95	0.8786252
202	0xbf9f2f0b	-1.2436231
203	0xbf9913f3	-1.1959213
204	0xbff002d6	-1.8750865
205	0xbecc3351	-0.398829
206	0xbf785903	-0.9701082
207	0xc0164735	-2.3480961
208	0xbd9600f3	-0.073244
209	0x3f1c1793	0.6097347
210	0xbe9d3d78	-0.3071096
211	0xbfdf962e	-1.7467706
212	0x3fc92cc4	1.5716786
213	0x402cded0	2.7010994
214	0x3f0c239a	0.54741824
215	0xbf37b392	-0.7175838
216	0x3ec10441	0.37698558
217	0xc013ac4f	-2.307392
218	0xbf194245	-0.59866744
219	0xbf3e5844	-0.7435343
220	0xbdd769c4	-0.1051822
221	0xbf87e461	-1.0616571
222	0xbfa8439d	-1.3145634
223	0x3de92b46	0.11385207
224	0x3f3e7a0d	0.74404985
225	0x3f7607f3	0.9610588
226	0xbef3cd8b	-0.47617754
227	0xbe242f4e	-0.1603367
228	0xbfd06282	-1.6280062
229	0xbdfdbe7b	-0.12389847
230	0x404dddd2	3.2166638
231	0xbf907e0b	-1.1288465
232	0x400108af	2.016155
233	0x3fd33c15	1.650271
234	0xbe3f0647	-0.18654738
235	0xbef1aa4f	-0.47200248
236	0x3f03422b	0.5127284
237	0x3f8da532	1.1066039
238	0x3fe20097	1.765643
239	0xbfb88938	-1.4416876
240	0x3f976eff	1.1830748
241	0x3f2a7353	0.6658222
242	0xbfa4abee	-1.2864969
243	0x3fd24392	1.6426871
244	0xbea01dc5	-0.31272712
245	0xbfc5eb95	-1.5462519
246	0x401e2e44	2.4715738
247	0xbeb419c8	-0.3517592
248	0x3f31a5f5	0.69393855
249	0xbf1c4b96	-0.61052835
250	0xbe6727b7	-0.22573744
251	0xbf6d6cb2	-0.9274398
252	0x3ef306b3	0.4746605
253	0xbf82c46a	-1.0216191
254	0x3f823470	1.0172253
255	0x3f143e6e	0.5790776

fc1.bias f4 [64]
0	0x3cf63126	0.030052733
1	0x3e75c15d	0.23999543
2	0x3eea46c9	0.4575713
3	0x3f00ab04	0.5026095
4	0x3e735510	0.23762918
5	0x3e9b561b	0.3033913
6	0x3dd43ac4	0.10362771
7	0x3f380d21	0.71895033
8	0xbd0e10de	-0.034684055
9	0xbedc779c	-0.43060005
10	0x3e2282ff	0.15870284
11	0x3f0bddc3	0.54635257
12	0xbec77a28	-0.38960385
13	0x3e31b20c	0.17353076
14	0x3e71c26b	0.23609321
15	0xbf30293c	-0.6881292
16	0x3e557e87	0.20849048
17	0x3e9aa32d	0.30202618
18	0xbed6a1d0	-0.41920328
19	0xbcf9dd2c	-0.03050097
20	0x3e1435bf	0.14473628
21	0x3f277cfb	0.6542508
22	0xbf9d8452	-1.2306006
23	0x3f0b592b	0.54432935
24	0xbe9f0135	-0.31055608
25	0x3e5422f5	0.2071646
26	0x3eef3b11	0.46724752
27	0x3f0c9252	0.5491077
28	0x3e597ced	0.21239062
29	0x3eff6283	0.49879846
30	0x3f0a023e	0.5390967
31	0x3d60c0b1	0.054871265
32	0x3ec548ee	0.38532203
33	0xbed4f3fe	-0.415924
34	0x3eb93d30	0.36179495
35	0xbe707e96	-0.23485789
36	0x3f55fdf5	0.8359063
37	0x3dd56d18	0.104211986
38	0x3f72f089	0.9489828
39	0x3e7be4b0	0.24598956
40	0x3d838301	0.064214714
41	0x3e8f9edd	0.2805089
42	0xbeca1185	-0.3946649
43	0x3f1028f2	0.5631248
44	0x3ee60225	0.4492351
45	0x3e9c4c0a	0.30526763
46	0x3e961948	0.29316163
47	0xbe0e4241	-0.13892461
48	0x3e68ce55	0.2273496
49	0x3de3740e	0.1110612
50	0xbc8a478c	-0.01687982
51	0xbd42f4cb	-0.047596734
52	0x3d5d4c29	0.05402771
53	0xbeb98171	-0.36231568
54	0x3e6aa35f	0.22913884
55	0x3f0e7b27	0.55656666
56	0x3ea8c9cf	0.32966468
57	0xbd87e8e7	-0.066362195
58	0x3f0749d8	0.5284705
59	0x3eb5ffd4	0.35546744
60	0x3f17f749	0.593617
61	0xbf905e17	-1.1278714
62	0x3ecd03a1	0.4004183
63	0x3e9accb4	0.302343

fc2.weight f4 [180, 64]
0	0xbf649a0f	-0.89297575
1	0x3f13fb6e	0.57805526
2	0x3ea8de61	0.32982162
3	0x3e91a4fc	0.28446186
4	0x3e1d8d8c	0.15386027
5	0x3f8b72e7	1.089444
6	0x3ea01926	0.31269187
7	0x3ed43b03	0.41451272
8	0x3ef1d1a2	0.4723025
9	0xbd8d72d6	-0.06906669
10	0xbf02ac45	-0.5104411
11	0x3e9b9e82	0.3039437
12	0x3c1aff10	0.009460226
13	0x3dfe1f12	0.1240827
14	0x3e1b98bc	0.15194982
15	0x3e64966f	0.22323011
16	0x3e46093d	0.19339462
17	0x3e5d8d2e	0.21635887
18	0x3e86235d	0.26198855
19	0x3da8fabd	0.082509495
20	0x3d99fe06	0.07519154
21	0x3e48cb83	0.19608884
22	0xbdafa43d	-0.08576248
23	0x3f109cfd	0.56489545
24	0x3f0b3d2b	0.5439021
25	0x3d65aefb	0.056075078
26	0x3e74fc06	0.23924264
27	0xbd91a988	-0.07112414
28	0x3ec13c2d	0.37741223
29	0x3f4bd556	0.796224
30	0xbf475606	-0.77865636
31	0x3fa8d821	1.3190957
32	0x3f5c058c	0.85945964
33	0xbddd87f0	-0.10816944
34	0x3ebf9ce5	0.3742439
35	0xbed687df	-0.41900536
36	0x3f9d92b6	1.2310398
37	0xbe3260a3	-0.17419676
38	0x3ed45d2b	0.41477332
39	0x3ebb81ed	0.36622563
40	0x3e8ccf51	0.2750192
41	0xbec5fd05	-0.386696
42	0xbed4f15e	-0.415904
43	0x3e73ff99	0.23827972
44	0xbdaa731f	-0.08322739
45	0x3bbb057b	0.0057074404
46	0x3e571134	0.21002656
47	0x3f2cb6e7	0.67466587
48	0x3dfdaa35	0.1238598
49	0x3e429f87	0.19006167
50	0x3dd1a446	0.10236411
51	0x3ed1e617	0.40995857
52	0x3f1c5b8e	0.610772
53	0x3e238d12	0.15971783
54	0x3ea9be4d	0.33153
55	0x3ef4c51f	0.4780664
56	0x3ea3d97c	0.32001865
57	0x3f3ba2a9	0.73295075
58	0xbe82c919	-0.2554405
59	0x3f076984	0.5289538
60	0xbe85576c	-0.2604326
61	0x3f653719	0.895372
62	0x3d9050cf	0.07046663
63	0x3ddb9a27	0.107227616
64	0xbee2927c	-0.44252384
65	0x3fa2780e	1.2692888
66	0x3d4cfd3e	0.050046198
67	0x3f72ae36	0.94797075
68	0x3ea6fa3d	0.32612792
69	0x3f8c4818	1.0959501
70	0x3f03edb4	0.5153458
71	0x3e9443c1	0.28957942
72	0x3e3a42fd	0.18189617
73	0xbd917a14	-0.07103363
74	0x3e242efc	0.16033548
75	0x3f1313c9	0.57452065
76	0x3dad4e58	0.084622085
77	0x3fbe41cc	1.486383
78	0x3fca5000	1.5805664
79	0x40888db2	4.267297
80	0xba905f2d	-0.0011014693
81	0xbcbe5bda	-0.023237158
82	0x4015d5c9	2.3411734
83	0xbdffe81e	-0.12495445
84	0x3dbb7bb8	0.09154457
85	0x3e7dc828	0.24783385
86	0xbc46abb4	-0.012125898
87	0x3f6869a1	0.90786177
88	0x3ebb4201	0.36573794
89	0x3f3a66a7	0.72812885
90	0x3f0b2787	0.5435719
91	0x3f90e09b	1.1318544
92	0xbecae943	-0.3963109
93	0x3dcbd405	0.09952549
94	0x400b703a	2.1787248
95	0x3f9a6eae	1.2065027
96	0x3f118303	0.56840533
97	0xbddbe532	-0.10737075
98	0x3ef988c4	0.48737156
99	0xbe879ad4	-0.26485312
100	0x403588aa	2.8364663
101	0x40399066	2.8994384
102	0xbf20104a	-0.62524855
103	0x3f0b89a0	0.54506874
104	0xbedd4209	-0.43214443
105	0x3ea8383b	0.328554
106	0x3f408a8b	0.752114
107	0x3e7eb8e3	0.24875216
108	0x3eda0481	0.4258156
109	0x3f3d0b39	0.7384525
110	0x3e99d94c	0.30048597
111	0x3ecbdcc3	0.39816865
112	0x3eb08e75	0.34483686
113	0x3eacebfb	0.3377379
114	0x3f8fbe27	1.1229905
115	0x3e3e6a1f	0.1859517
116	0x3f5f159d	0.87142354
117	0xbf293a49	-0.6610456
118	0x3f2fc071	0.6865302
119	0x3f972595	1.1808344
120	0x3ecaf560	0.3964033
121	0xbd9514cc	-0.07279357
122	0xbe2fbf1e	-0.17162749
123	0x3f479556	0.77962244
124	0x3f0ec1e0	0.5576458
125	0x3ec44f60	0.38341808
126	0x3e938161	0.28809646
127	0x3e064cea	0.13115278
128	0x400f46bf	2.238693
129	0xbe34e41a	-0.17665139
130	0xbe8d6e1a	-0.27623063
131	0x3f35295c	0.70766234
132	0x3e95e506	0.29276294
133	0x3fdfad06	1.7474678
134	0x3e2172bf	0.15766428
135	0x3eb2c233	0.34913787
136	0xbe3bac80	-0.18327522
137	0xbd943f02	-0.0723858
138	0x3f225ba3	0.63421077
139	0x3f01e1d8	0.50735235
140	0xbbde33c0	-0.0067810714
141	0x3f0483b9	0.5176349
142	0x3fbc006f	1.4687632
143	0x3f06cbd5	0.52654773
144	0x3e6475bb	0.22310536
145	0x3e44ebb8	0.19230545
146	0x4098c34a	4.773839
147	0xbd9ae1bb	-0.07562586
148	0x401d9cbc	2.4626913
149	0x3fcd224d	1.6026093
150	0xbf8c462c	-1.0958915
151	0x3f0d03b3	0.5508377
152	0x3fdb268d	1.712114
153	0xbec56f78	-0.38561606
154	0x3f872587	1.0558327
155	0x3f9595f2	1.1686385
156	0x3d19d837	0.037559714
157	0x3f026a01	0.50943
158	0x3ff8c121	1.9433938
159	0x402e4006	2.7226577
160	0x3face996	1.3508785
161	0x3d0a6100	0.033783913
162	0x3e18927a	0.14899626
163	0x3ec453b2	0.38345104
164	0x3f966251	1.1748754
165	0x40480e3d	3.125869
166	0xbf5cf81c	-0.86316085
167	0xbc3efbfd	-0.011656758
168	0xbe9b6326	-0.30349082
169	0x3fc49c19	1.5360137
170	0x404d8d37	3.211744
171	0xbe589fbc	-0.21154684
172	0xbe5dcd62	-0.21660379
173	0x3fe91dc8	1.8212214
174	0x3d1d5171	0.038407747
175	0xbe6f1f94	-0.2335189
176	0x3e6922f7	0.22767244
177	0x3e355130	0.17706752
178	0xbf1cc6b7	-0.61240715
179	0xbf635c7e	-0.88813007
180	0x3f25fc34	0.64837956
181	0x4000d669	2.0130866
182	0xbe1b7346	-0.15180692
183	0x3f861067	1.0473756
184	0x3eb6caa9	0.35701492
185	0x3f2df953	0.67958564
186	0x3f781c3e	0.96918094
187	0x3e792855	0.24331792
188	0x3f009e86	0.5024189
189	0xbfc76b9e	-1.5579717
190	0x3dc6e00d	0.09710703
191	0x3f0c4e1e	0.548067
192	0x4082f48a	4.092351
193	0x3f5e66ec	0.86875796
194	0x3d31a440	0.04336953
195	0x3f48ad10	0.7838907
196	0x3eee4758	0.46538806
197	0x3e1bcc8e	0.1521475
198	0x3f2363ad	0.6382397
199	0x3f2b0a82	0.6681291
200	0x3f12e89a	0.5738617
201	0xbdd0dc38	-0.101982534
202	0x408ce234	4.4026127
203	0x3fb101dd	1.3828694
204	0xbc80b1c0	-0.015709758
205	0x3fbcb3fd	1.4742428
206	0x3e1988dd	0.14993615
207	0xbfad8043	-1.3554767
208	0x3ec6ab14	0.38802397
209	0xbee88012	-0.4541021
210	0x412b080d	10.6894655
211	0x4000b5b3	2.01109
212	0x401d21ff	2.4552
213	0x3f9fe181	1.2490693
214	0xbffe97e9	-1.9890109
215	0x3f41828b	0.7558982
216	0x4052e30f	3.2951086
217	0xbf7a2c44	-0.97723794
218	0x3fa34fcb	1.2758726
219	0x3f85d033	1.0454162
220	0xbef4f891	-0.4784589
221	0x3f9e3f44	1.2363057
222	0xbe8cd9ab	-0.27509817
223	0x40220c58	2.5320034
224	0x3f1144f7	0.56745857
225	0xbc876440	-0.016527295
226	0x3f703ce1	0.93842894
227	0x3f342e8b	0.7038352
228	0x3cc1ef00	0.023673534
229	0x4081d906	4.057742
230	0x3fc91723	1.5710186
231	0x3f840847	1.0315026
232	0xbf74fb5d	-0.9569605
233	0x3fe3da3d	1.7800976
234	0x3fe2d054	1.7719827
235	0xbd2a07b8	-0.041511267
236	0x3f95843e	1.1680982
237	0x3fd6e138	1.6787481
238	0x3e1e07c6	0.15432653
239	0xbf83071e	-1.0236547
240	0x3e2d4a7f	0.16922949
241	0x3f6c9354	0.92412305
242	0x404452f2	3.0675626
243	0x3fe6bb82	1.8025973
244	0x3f0e7e63	0.556616
245	0x4067445e	3.6135478
246	0x3eefd255	0.46840158
247	0x3fc86b72	1.565779
248	0x3f8484c9	1.0353023
249	0x3f6f0b68	0.9337678
250	0x3f4be1e9	0.79641587
251	0x3fc33b87	1.5252541
252	0x3ff5a929	1.9192249
253	0xc00f3ef4	-2.2382174
254	0xbde0da1c	-0.10979101
255	0xbd0213bd	-0.031757105

fc2.bias f4 [180]
0	0x3e5fb6a5	0.21847017
1	0x3eb1a86d	0.3469881
2	0x3ec7e751	0.39043668
3	0x3f0c3944	0.5477488
4	0x3eb29284	0.34877408
5	0xbd82c5ea	-0.06385405
6	0x3e4a2eb5	0.1974438
7	0xbe461863	-0.1934524
8	0x3bb6e66b	0.005581667
9	0xbc761457	-0.015019498
10	0x3d246cc6	0.040142797
11	0x3ed48842	0.41510206
12	0x3de5018e	0.11181937
13	0xbe55ab66	-0.20866165
14	0xbe0cc447	-0.13746749
15	0xbe390f59	-0.18072261
16	0xbe9af083	-0.3026162
17	0x3ed34498	0.4126327
18	0x3dea2193	0.11432185
19	0xbd54d34e	-0.05195933
20	0xbd41a573	-0.047276925
21	0xbe1aad49	-0.15105166
22	0xbcdb0643	-0.026736384
23	0xbdaa619e	-0.083194
24	0x3e6408ce	0.22268984
25	0xbcfed082	-0.031105284
26	0xbdfc7cd5	-0.12328497
27	0xbbd15ab0	-0.0063889846
28	0xbe53cec6	-0.20684347
29	0xbd8db86f	-0.069199435
30	0x3e1295fe	0.1431503
31	0x3dbe9bf6	0.09307091
32	0x3c6af896	0.014341494
33	0x3e40d61f	0.1883168
34	0x3eb037a0	0.34417439
35	0x3df5caed	0.12001596
36	0x3efa1fe4	0.48852456
37	0x3dff388b	0.124619566
38	0x3df8322f	0.12118947
39	0xbd95c638	-0.07313198
40	0x3df4bd8c	0.11950216
41	0xbe37b4f3	-0.1794012
42	0x3e5171a2	0.20453504
43	0x3df09e07	0.11748891
44	0xbde29ea6	-0.11065416
45	0xbe056187	-0.13025485
46	0xbd2ae430	-0.041721523
47	0xbe2cab0c	-0.16862124
48	0x3e1f23d9	0.15541019
49	0x3ccf68e8	0.025318578
50	0x3c3f9410	0.011693016
51	0xbe265dd2	-0.16246727
52	0xbdbb977c	-0.09159753
53	0x3d63c846	0.055610918
54	0x3e3511f6	0.17682633
55	0xbe041342	-0.12897971
56	0xbd88fb4e	-0.066885576
57	0x3c724f0f	0.014789357
58	0xbe193042	-0.14959815
59	0x3d96dbf1	0.07366169
60	0xbd8ca7fe	-0.068679795
61	0xbddd5fa5	-0.10809258
62	0xbe141680	-0.14461708
63	0xbd2c2324	-0.0420257
64	0xbe48f3f4	-0.1962431
65	0xbdd6201e	-0.104553446
66	0x3e838458	0.25686908
67	0x3db759ab	0.0895265
68	0xbe177608	-0.14791119
69	0x3f1d5340	0.61455154
70	0xbcec226a	-0.028825004
71	0x3e19db20	0.15024996
72	0x3d9ae38f	0.075629346
73	0x3c5019d9	0.012701475
74	0xbdcb3191	-0.099215634
75	0xbec99905	-0.39374557
76	0x3e9d01ee	0.30665535
77	0x3ee961c2	0.45582396
78	0x3ca1eb4f	0.019765524
79	0xbe223e3c	-0.15844053
80	0xbd3bde17	-0.0458661
81	0xbdeae7cc	-0.11469993
82	0x3e9cfd74	0.3066212
83	0x3e15a75b	0.14614622
84	0x3c855f58	0.016280815
85	0xbcbbccf9	-0.022924887
86	0xbe1a0f36	-0.15044865
87	0xbe551364	-0.20808178
88	0xbe2cb054	-0.16864139
89	0x3e8d0bf5	0.27548185
90	0xbdd68e54	-0.10476366
91	0xbd752d44	-0.05985762
92	0xbd050163	-0.032472026
93	0xbdf33780	-0.1187582
94	0x3c1aaf75	0.009441246
95	0xbdae22ee	-0.08502756
96	0xbd81b769	-0.06333811
97	0xbe03879d	-0.12844701
98	0xbca31451	-0.019907149
99	0xbe03dbbe	-0.12876794
100	0xbe04a6a3	-0.12954192
101	0x3ee42165	0.44556728
102	0xbe02f86e	-0.12790081
103	0xbdde7930	-0.108629584
104	0xbbd9cb6d	-0.0066465647
105	0x3e7adc89	0.2449819
106	0xbd82edf3	-0.063930415
107	0xbe1f769f	-0.15572594
108	0x3dc5c726	0.09657125
109	0x3e0c5e4a	0.13707843
110	0xbe3c1cdf	-0.18370388
111	0x3db98ec5	0.09060434
112	0x3eb00efe	0.34386438
113	0xbc7c7a91	-0.0154100815
114	0x3e9c87e0	0.30572414
115	0xbe277b48	-0.16355622
116	0x3f52d883	0.8236162
117	0xbdd55ad2	-0.10417713
118	0xbde573e3	-0.11203744
119	0x3e6f93cc	0.23396224
120	0x3c51ee17	0.012813113
121	0xbc1e1334	-0.009648133
122	0xbdacbeab	-0.084348045
123	0xbd9f8173	-0.07788362
124	0xbe21fe3e	-0.15819642
125	0xbe077a0e	-0.13230154
126	0x3e4f0293	0.20215826
127	0xbe506081	-0.20349313
128	0xbe3ed6e8	-0.18636668
129	0xbdaae418	-0.08344287
130	0xbb763b75	-0.003757206
131	0xbd09889f	-0.033577558
132	0xbdc73d24	-0.097284585
133	0x3c7a7340	0.015286267
134	0xbda1ecf5	-0.07906524
135	0xbc8a9046	-0.016914498
136	0xbd7e1d66	-0.062039755
137	0x3c919204	0.017769821
138	0x3e4d35e2	0.20040086
139	0x3e99c5f8	0.3003385
140	0x3e93ceac	0.28868616
141	0x3e530d5a	0.20610562
142	0xbdd42b82	-0.10359861
143	0x3eb84c44	0.35995686
144	0x3e190dae	0.14946625
145	0x3da8890d	0.08229265
146	0x3e4f7742	0.20260337
147	0x3e23268c	0.15932673
148	0x3ecf7f49	0.40526798
149	0x3ea91875	0.33026472
150	0xbbaccf6a	-0.005273749
151	0xbe1d033f	-0.1533327
152	0xbe2a1e92	-0.16613224
153	0xbdfe79e0	-0.124255896
154	0x3c8c74f7	0.017145617
155	0x3e81f71c	0.25383842
156	0xbe2e223b	-0.17005245
157	0xbe477488	-0.19478047
158	0xbd857f42	-0.06518413
159	0xbe29db8a	-0.16587654
160	0xbdd59923	-0.10429599
161	0x3ea1b1c0	0.31580925
162	0x3cfd4853	0.030918276
163	0xbd87c979	-0.06630225
164	0xbd4b58da	-0.049645282
165	0x39a43023	0.00031316382
166	0xbe5e8d88	-0.21733677
167	0x3e84a16c	0.25904405
168	0x3e02561d	0.12728162
169	0xbdc9ac57	-0.09847324
170	0xbe2b2eed	-0.1671712
171	0xbcaefc4f	-0.021360544
172	0xbe5805d9	-0.2109598
173	0x3e813a61	0.25239852
174	0x3eaf79c1	0.34272578
175	0x3e5c6ae6	0.21525154
176	0x3ea98c26	0.33114737
177	0xbde74e7f	-0.11294269
178	0x3ea60c84	0.32431424
179	0x3ef042d8	0.46925998

conv.weight f4 [5, 1, 34, 34]
0	0x3cdb34ca	0.02675857
1	0xbd0eec24	-0.03489317
2	0xbd3367e0	-0.043800235
3	0xbd895eec	-0.06707558
4	0xbd65b3e4	-0.05607976
5	0xbd9cb18e	-0.07651053
6	0xbda05d07	-0.078302436
7	0xbd6897db	-0.056785446
8	0xbd39f3a0	-0.045398355
9	0xbd89ad5a	-0.06722517
10	0xbe40745a	-0.18794385
11	0xbdf7930e	-0.12088595
12	0xbe1cfe35	-0.15331347
13	0xbe1c63ce	-0.15272447
14	0xbe606af3	-0.21915798
15	0xbe42040d	-0.18946858
16	0xbe5814b3	-0.21101646
17	0xbe6c18da	-0.23056355
18	0xbe8520e8	-0.26001668
19	0xbe77454f	-0.24147533
20	0xbdcab3a5	-0.09897546
21	0xbd7d90d7	-0.06190571
22	0x3bec558d	0.007212347
23	0x3d8347f0	0.06410205
24	0x3d23ffce	0.040038876
25	0x3d6c993a	0.057763316
26	0x3db890a5	0.09011964
27	0x3cc77133	0.02434597
28	0x3db92d95	0.09041897
29	0x3debcf36	0.11514132
30	0x3dc44575	0.095835604
31	0x3d34ed88	0.04417184
32	0xbab24215	-0.0013600016
33	0xbc127c3c	-0.008940753
34	0xbcdb80e8	-0.026794866
35	0xbd831cea	-0.06401999
36	0xbd515f05	-0.05111601
37	0xbdc68b6c	-0.09694561
38	0xbd6e7dcd	-0.05822544
39	0xbddddcd3	-0.108331345
40	0xbd75de69	-0.06002656
41	0xbd40442d	-0.046940017
42	0xbd00d947	-0.03145721
43	0xbd608b42	-0.054820307
44	0xbd2b8aa5	-0.04188027
45	0xbdeb6182	-0.114932075
46	0xbe20d507	-0.15706263
47	0xbd99b204	-0.07504657
48	0xbe53f8ef	-0.2070043
49	0xbdc01340	-0.09378672
50	0xbe4b3768	-0.19845355
51	0xbe736801	-0.23770143
52	0xbe93b84f	-0.28851554
53	0xbe838e8a	-0.25694686
54	0xbe4afbcb	-0.19822614
55	0xbd434908	-0.04767707
56	0x3d8470d2	0.06466831
57	0x3caa3380	0.02077651
58	0x3cf3d52b	0.029764732
59	0x3d15e59f	0.036595937
60	0x3d751b84	0.059840694
61	0x3cf84527	0.030306412
62	0x3de3314e	0.110933885
63	0x3dd4e106	0.10394482
64	0x3dbcba50	0.09215224
65	0x3d13cede	0.036085956
66	0x3c6f2cf9	0.014598125
67	0xbc99ffbc	-0.018798701
68	0xbd82c4dc	-0.06385204
69	0xbd7b0c0e	-0.061290793
70	0xbd8a12d0	-0.067418694
71	0xbd8c1d5f	-0.068415396
72	0xbcd81334	-0.026376344
73	0xbdc139ed	-0.094348766
74	0xbd936873	-0.071976565
75	0xbd509f31	-0.050933067
76	0xbd286a51	-0.041117016
77	0xbd7841fa	-0.060609795
78	0xbcb7009f	-0.022339163
79	0xbd0f73b9	-0.03502247
80	0xbd671ea1	-0.056425694
81	0xbd1760a6	-0.036957406
82	0xbe3919d6	-0.18076262
83	0xbe17e14f	-0.14832042
84	0xbe169290	-0.14704347
85	0xbe72470a	-0.23659912
86	0xbe87ed85	-0.265484
87	0xbe78ed06	-0.24309167
88	0xbdd5fed4	-0.10448995
89	0xbdbb4a18	-0.09144992
90	0xbbf71210	-0.007539995
91	0xbca06a3c	-0.019581906
92	0xbc4fa650	-0.012673929
93	0x3d80f747	0.062971644
94	0xbcdc815b	-0.02691715
95	0x3d564f08	0.052321464
96	0x3df333e1	0.118751295
97	0x3db90542	0.09034206
98	0x3d9cb5f5	0.07651893
99	0x3ce5ce5c	0.028052501
100	0xbc295564	-0.0103353
101	0xbc60593a	-0.013693148
102	0xbd98b3aa	-0.07456143
103	0xbdc479c5	-0.09593538
104	0xbdb81352	-0.0898806
105	0xbdc12ae2	-0.09432007
106	0xbd18abf2	-0.037273355
107	0xbd7b04b5	-0.061283786
108	0xbd2defd1	-0.042465035
109	0xbd1b543e	-0.037922136
110	0xbd585840	-0.052818537
111	0xbd26a515	-0.04068478
112	0x3d030546	0.03198745
113	0x3ca8d238	0.020608053
114	0xbcb3b620	-0.02193743
115	0xbbffe27c	-0.0078089815
116	0xbe34cfc4	-0.17657381
117	0xbe2f46b3	-0.17116813
118	0xbe20872f	-0.15676568
119	0xbe146616	-0.14492068
120	0xbe1770ba	-0.14789096
121	0xbe6b37ea	-0.22970548
122	0xbda5929b	-0.080846034
123	0x3c1f8173	0.009735453
124	0xbbbfc87a	-0.005852756
125	0x3d0aa6c6	0.033850454
126	0x3dae5e09	0.085140295
127	0x3d90f165	0.07077292
128	0xbc593e4c	-0.013259482
129	0x3d825871	0.06364525
130	0x3d77fb2e	0.060542278
131	0x3d989ade	0.074514136
132	0x3d6014e9	0.05470744
133	0x3d1e7605	0.03868677
134	0xbc8ff260	-0.017571628
135	0xbd3b461d	-0.045721162
136	0xbd6f57a8	-0.058433205
137	0xbd736035	-0.059417922
138	0xbdb680e9	-0.089113064
139	0xbd9f0115	-0.07763878
140	0xbd8b64d8	-0.06806344
141	0xbda372a4	-0.0798085
142	0xbd810bdd	-0.06301091
143	0xbd896d11	-0.06710256
144	0xbd8dce9f	-0.069241755
145	0xbd4d5310	-0.050128043
146	0x3d3c37fd	0.045951832
147	0x3b46f59f	0.0030358804
148	0xbb48c780	-0.003063649
149	0xbd12fab2	-0.035883613
150	0xbdccf87d	-0.10008333
151	0xbe079813	-0.13241605
152	0xbe24cb77	-0.1609324
153	0xbe0711f5	-0.13190444
154	0xbde68324	-0.11255482
155	0xbe2fd786	-0.1717206
156	0xbe28efd3	-0.16497736
157	0xbdc70745	-0.097181834
158	0xbda1f50f	-0.07908069
159	0xbc270a2a	-0.010195294
160	0x3ce4b630	0.027918905
161	0x3d82830d	0.06372652
162	0x3ce5df21	0.028060498
163	0x3d3b2e2e	0.045698337
164	0x3d106d73	0.03526063
165	0x3cf459d4	0.02982799
166	0x3dad2ecf	0.08456194
167	0x3d2bd2f7	0.04194924
168	0x3c31f508	0.010861643
169	0xbd590c70	-0.052990377
170	0xbd4ca364	-0.04996051
171	0xbd9ca96a	-0.07649501
172	0xbdb9441f	-0.09046196
173	0xbdb8b629	-0.09019119
174	0xbd931315	-0.07181374
175	0xbd9f94c5	-0.077920474
176	0xbdcab26b	-0.09897312
177	0xbdc5a05f	-0.09649729
178	0xbda07509	-0.07834823
179	0xbdc90588	-0.09815508
180	0xbca6d0a1	-0.020363154
181	0x3d139ba1	0.03603709
182	0xbbd47443	-0.006483586
183	0x3b8b3400	0.0042481422
184	0xbdee6aca	-0.11641462
185	0xbdeb077c	-0.11476037
186	0xbd86585b	-0.06559821
187	0xbdda7e06	-0.10668568
188	0xbdf5ef4a	-0.120085314
189	0xbd75950f	-0.059956606
190	0xbd943348	-0.072363436
191	0xbdd38346	-0.10327773
192	0x3cd9cd02	0.026587013
193	0xbc5baf50	-0.013408497
194	0x3d4a91e9	0.049455557
195	0x3d75697f	0.059915062
196	0x3d0ba059	0.034088466
197	0x3dcc4058	0.0997321
198	0x3d185561	0.0371908
199	0x3b0607b7	0.0020451376
200	0x3da3a7d4	0.07990995
201	0x3d1cf209	0.03831676
202	0x3c0713bb	0.00824445
203	0x3d54d077	0.05195662
204	0xbd0a46cf	-0.033758935
205	0xbdc2b8b4	-0.095078856
206	0xbe0ed846	-0.1394969
207	0xbe0c4735	-0.13699038
208	0xbdf0d931	-0.11760176
209	0xbdc4442b	-0.095833145
210	0xbdd25986	-0.102709815
211	0xbe0fa4b6	-0.14027676
212	0xbdfdc010	-0.12390149
213	0xbdc24798	-0.09486312
214	0x3cda0e99	0.026618289
215	0x3d7680ea	0.060181536
216	0xbc2de8f8	-0.010614626
217	0xbd6e4029	-0.058166657
218	0xbde64f42	-0.11245586
219	0xbd9cc08f	-0.07653915
220	0xbdcec729	-0.100965805
221	0xbc8dcd42	-0.017309789
222	0x3c3f6795	0.011682411
223	0xbd8ea24e	-0.06964551
224	0xbe3cf9b6	-0.18454632
225	0xbd9b9075	-0.07595912
226	0x3d2fb4c8	0.042897016
227	0x3dcf79b1	0.10130633
228	0x3e0dd24d	0.13849755
229	0x3deb3e8a	0.11486538
230	0x3d92bbbc	0.07164714
231	0x3dc929f2	0.098224536
232	0xbb81900c	-0.0039539393
233	0xbbb6b330	-0.00557556
234	0x3dd1a9f0	0.10237491
235	0x3dd8d37a	0.10587211
236	0x3dbb8c14	0.09157577
237	0x3d974a08	0.07387167
238	0xbd4b3f38	-0.049620837
239	0xbe029dd9	-0.12755527
240	0xbe061dda	-0.13097325
241	0xbe0f740e	-0.14009115
242	0xbde0c153	-0.10974374
243	0xbe11b7de	-0.14230296
244	0xbe09f48e	-0.13472196
245	0xbe0d118e	-0.13776228
246	0xbe08d336	-0.1336182
247	0xbe139a95	-0.14414437
248	0x3c924572	0.01785538
249	0x3d4f200b	0.050567668
250	0x3c1fbb69	0.009749272
251	0x3d4e48d3	0.05036242
252	0xbdce7551	-0.1008097
253	0xbc2dbd3d	-0.0106042
254	0x3cf6f0de	0.030144151
255	0x3d78813a	0.060670115

conv.weight f4 [5, 1, 10, 10]
0	0x3d9ad58a	0.075602606
1	0x3e450ce3	0.19243197
2	0x3e069b69	0.13145222
3	0x3d33b00d	0.043869067
4	0x3e302608	0.17202008
5	0x3dcf85fb	0.101329766
6	0x3dbfeedb	0.0937173
7	0x3dfd8c32	0.12380256
8	0x3e26c167	0.16284715
9	0x3d284e28	0.04109016
10	0x3e4654ae	0.1936824
11	0x3e3c5621	0.1839223
12	0x3e516901	0.20450212
13	0x3e3c7799	0.18404998
14	0x3e093e24	0.13402611
15	0x3e27b2b1	0.16376759
16	0x3e02e461	0.12782432
17	0x3caaf605	0.020869264
18	0x3e2843e0	0.16432142
19	0x3d847c28	0.064689934
20	0x3e0ada57	0.13559853
21	0x3e37cf21	0.17950107
22	0x3de9768d	0.11399565
23	0x3e7d2352	0.24720505
24	0x3d7ac78b	0.061225455
25	0x3da75099	0.0816967
26	0x3df2d32d	0.11856685
27	0x3dc3cbe9	0.09560377
28	0x3d12043d	0.035648573
29	0x3e031c28	0.1280371
30	0x3e67ea5e	0.22647998
31	0x3e63b459	0.22236766
32	0x3df75bbf	0.12078046
33	0x3e6ebc1e	0.23313949
34	0x3e28fff1	0.16503884
35	0x3c008ad9	0.007845604
36	0x3db29648	0.0872007
37	0x3d399843	0.045311224
38	0x3e381748	0.17977631
39	0x3e1346ce	0.14382479
40	0x3e4e0480	0.20118904
41	0x3e8c6f98	0.2742889
42	0x3e65b27a	0.22431365
43	0x3e2e9abc	0.17051214
44	0x3e88bc75	0.2670628
45	0x3ce6a458	0.028154537
46	0x3e4c1889	0.19931234
47	0x3ca0f648	0.019648686
48	0x3e42378a	0.18966499
49	0x3ddfb5c5	0.10923342
50	0x3e8bd85b	0.27313504
51	0x3df0bb83	0.11754515
52	0x3df685ca	0.12037237
53	0x3e1c9584	0.1529141
54	0x3e4b3cd2	0.1984742
55	0x3e37481b	0.178986
56	0x3de07590	0.10959923
57	0x3e34d0b1	0.17657734
58	0x3d79adf0	0.060956895
59	0x3dad172a	0.08451684
60	0x3e277d25	0.16356333
61	0x3e5df748	0.21676362
62	0x3e840900	0.25788116
63	0x3e834a0c	0.2564243
64	0x3e365184	0.17804533
65	0x3e539af3	0.20664577
66	0x3d911d61	0.07085682
67	0x3e02392b	0.1271712
68	0x3dd259b9	0.102710195
69	0xbce970dd	-0.0284962
70	0x3e3de6fb	0.18545143
71	0x3e6da8c7	0.23208915
72	0x3ea36c37	0.319185
73	0x3e674b8f	0.22587417
74	0x3e20dc33	0.15709
75	0x3e25e7a1	0.1620164
76	0x3e5bb4c4	0.21455675
77	0x3c903fcf	0.017608551
78	0xbca0255d	-0.019549066
79	0x3d04c5d6	0.032415234
80	0x3e838c3b	0.25692925
81	0x3e6adafc	0.22935098
82	0x3e8df292	0.2772413
83	0x3e394373	0.18092136
84	0x3e8ab27b	0.27089295
85	0x3e5f3bb0	0.21800113
86	0x3e5c391c	0.2150616
87	0x3d45d482	0.048298366
88	0x3de31559	0.11088056
89	0x3e1a76ef	0.15084432
90	0x3e8ad5e0	0.271163
91	0x3e80e3b6	0.2517373
92	0x3e1cd7ef	0.15316747
93	0x3e82d8f6	0.25556153
94	0x3e89c393	0.26907024
95	0x3e26d658	0.16292703
96	0x3e045151	0.12921645
97	0x3d03cd1b	0.032178026
98	0x3cbfaeb3	0.023398733
99	0x3cbeca24	0.023289748
100	0x3e032273	0.1280611
101	0x3ba76292	0.005108186
102	0xbbc1b8e4	-0.0059119333
103	0x3cb86d34	0.02251301
104	0x3dfed3b1	0.12442721
105	0xbd957eff	-0.07299613
106	0x3d72da5c	0.059290275
107	0xbddd1803	-0.107955955
108	0xbdffad94	-0.12484279
109	0x3d2626f3	0.04056449
110	0x3dd78ffa	0.10525508
111	0x3d135820	0.035972714
112	0xbd3862fb	-0.04501627
113	0xbcc6a953	-0.024250662
114	0xbd99d104	-0.0751057
115	0x3d272adf	0.04081237
116	0x3d00efb2	0.03147859
117	0x3d0010d8	0.031266063
118	0x3c38154d	0.011235547
119	0xbde6ef1f	-0.112760775
120	0x3dbe9541	0.09305812
121	0x3d895a07	0.067066245
122	0x3d22cfc7	0.039748933
123	0xbd682f90	-0.056685984
124	0xbd8001d2	-0.06250347
125	0x3da7afb9	0.08187813
126	0xbd0e9d75	-0.03481813
127	0xbc4a78f8	-0.012357943
128	0xbda5b8aa	-0.080918625
129	0xbd0ad918	-0.033898443
130	0x3bba571f	0.005686655
131	0x3c11ef42	0.008907141
132	0xbe0ee6fc	-0.13955301
133	0xbe099c0c	-0.13438433
134	0xbd18a8a5	-0.037270207
135	0x3de0e053	0.109802864
136	0xbd0379ed	-0.0320987
137	0x3b868601	0.00410533
138	0xbd0cf6a4	-0.034414902
139	0x3d4f5e28	0.050626904
140	0xbdabf644	-0.08396581
141	0x3d83b540	0.06431055
142	0xbd02721f	-0.031847116
143	0x3d1e28e4	0.038613215
144	0xbe0920c1	-0.13391401
145	0xbc587167	-0.013210631
146	0xbd877983	-0.066149734
147	0xbd86dbb9	-0.065848775
148	0xbcee3df5	-0.029082278
149	0xbd645566	-0.055745505
150	0xbd1ec64b	-0.038763326
151	0xbc7db565	-0.015485142
152	0xbdaa531a	-0.083166316
153	0xbdc2d9f0	-0.095142245
154	0xbe101116	-0.14069018
155	0xbe0d922d	-0.13825293
156	0xba61d7e9	-0.0008615242
157	0xbde4d8f5	-0.11174194
158	0xbe0412f7	-0.1289786
159	0xbde2ac8e	-0.110680684
160	0xbd9682fc	-0.07349202
161	0xbcf401c9	-0.029786007
162	0x3b89a06d	0.0042000324
163	0xbdba0b20	-0.09084153
164	0xbdda4b1f	-0.106588595
165	0xbe177597	-0.1479095
166	0xbe182436	-0.14857563
167	0x3d1a59c3	0.03768326
168	0xbe0d1890	-0.13778901
169	0xbd4d69b8	-0.05014965
170	0xbd8f4479	-0.06995482
171	0xbdf43f63	-0.119261526
172	0x3d845609	0.064617224
173	0xbd88a9ec	-0.06673035
174	0xbc6291d4	-0.013828713
175	0xbde27c2e	-0.11058842
176	0xbe3e4f0b	-0.1858484
177	0xbd39e99d	-0.045388807
178	0xbd525585	-0.05135109
179	0xbda1c88a	-0.07899578
180	0xbdcef313	-0.101049565
181	0x3d1a08ed	0.03760617
182	0x3da2b6cd	0.07945023
183	0xbe0bb0d9	-0.13641681
184	0xbe15e7fc	-0.14639276
185	0xbd9ea551	-0.07746375
186	0xbe020603	-0.12697606
187	0xbe13ffae	-0.14453003
188	0xbca033c7	-0.01955594
189	0xbcbfb346	-0.023400914
190	0x3d4a1a6f	0.049341615
191	0x3dbdba3c	0.09264037
192	0xbbe5cc14	-0.0070128534
193	0xbdec50b4	-0.115388304
194	0xbd29736f	-0.04136985
195	0xbbc7e293	-0.006100008
196	0xbe2a8572	-0.16652468
197	0xbcdad6a8	-0.026713684
198	0xbe030dc8	-0.12798226
199	0xbd242a79	-0.040079568
200	0xbd94ee66	-0.072720334
201	0xbd39f9e3	-0.045404326
202	0xbcbbe734	-0.022937395
203	0xbcf3ee78	-0.029776797
204	0xbd3ad79e	-0.045615785
205	0xbcd0000f	-0.025390653
206	0xbd279d07	-0.040921237
207	0xbdb29f65	-0.08721808
208	0xbd549982	-0.05190421
209	0xbd2a33d7	-0.041553345
210	0xbb121cc0	-0.0022294968
211	0x3da448e7	0.080217175
212	0xbdb5a780	-0.08869839
213	0x3c573450	0.013135031
214	0x3d107ea4	0.035277024
215	0xbd886934	-0.06660691
216	0xbdf70f0d	-0.120634176
217	0xbe1df92b	-0.15427081
218	0xbd45a832	-0.048256107
219	0xbd9c4405	-0.07630161
220	0x3db2ec11	0.08736432
221	0xbd2cd187	-0.04219201
222	0xbdbdcecf	-0.09267961
223	0xbcaa3bb4	-0.020780422
224	0xbb9242a0	-0.0044635087
225	0xbde6f919	-0.1127798
226	0x3c2d27e9	0.010568597
227	0xbdbf02fb	-0.0932674
228	0x3b00a7e5	0.0019631323
229	0xbe0e5313	-0.13898878
230	0xbd76e58a	-0.0602775
231	0xbd183d7c	-0.03716801
232	0xbcc769e2	-0.024342481
233	0xbdaaa0d4	-0.08331457
234	0xbbaecc61	-0.0053344225
235	0xbcdaab41	-0.026692988
236	0x3cb9bf68	0.022674277
237	0xbb03cd5d	-0.002011142
238	0xbd97b5b9	-0.07407708
239	0xbe21dc5a	-0.15806714
240	0xbdd38a70	-0.10329139
241	0xbd644e65	-0.055738825
242	0xbd8fcf9f	-0.070220225
243	0xbe1d62df	-0.15369748
244	0x3d15ed8c	0.036603495
245	0xbe0c0b8c	-0.1367628
246	0xbe1baa6b	-0.15201728
247	0x3c05693b	0.008142765
248	0xbc932e4b	-0.01796641
249	0xbc712019	-0.014717125
250	0xbd591670	-0.052999914
251	0xbbf42c4f	-0.007451571
252	0xbe021d75	-0.1270655
253	0x3c9181bf	0.017762063
254	0xbdb73f62	-0.08947636
255	0xbbc6ca60	-0.0060666054

conv.bias f4 [5]
0	0x3e9ec0c4	0.31006444
1	0xbd53f850	-0.05175048
2	0xbe1381c6	-0.14404973
3	0x3ea32951	0.3186746
4	0x3e0ef575	0.13960822

fc1.weight f4 [64, 180]
0	0x3d421242	0.047380693
1	0x3ca39b78	0.019971594
2	0xbcd904ea	-0.026491601
3	0xbd8c7635	-0.06858484
4	0x3d5180f6	0.051148377
5	0x3ce08da8	0.027411297
6	0xbd7ca9ee	-0.061685495
7	0x3afca9c0	0.0019276664
8	0xbb697580	-0.0035623014
9	0x3ccc8828	0.024967268
10	0x3d1159fe	0.035486214
11	0x3b96b510	0.004599221
12	0x3c00f2a0	0.007870346
13	0x3c0f5e28	0.008750476
14	0xbd25d29d	-0.04048406
15	0x3ce48644	0.027896054
16	0x3c15b368	0.009137012
17	0xbc9c72b2	-0.01909766
18	0x3d27e58a	0.04099039
19	0xbd8abc65	-0.06774215
20	0xbc8ae15a	-0.01695316
21	0x3d7b32d6	0.061327778
22	0x3a9f0000	0.0012130737
23	0x3d117806	0.035514854
24	0xbc14ef60	-0.009090275
25	0xbcb2bd98	-0.021818921
26	0xbcb0bbd2	-0.021573935
27	0xbc8205fa	-0.01587199
28	0xbd8b20e5	-0.067933835
29	0xbc8a6a1c	-0.0168963
30	0x3d62c5d2	0.055364437
31	0xbd88779e	-0.0666344
32	0x3d882d23	0.06649234
33	0xbd802944	-0.06257871
34	0xbcc19e3a	-0.023635019
35	0xbd83eeb3	-0.06442013
36	0x3be815e0	0.007082686
37	0xbd3e4a04	-0.046457306
38	0x3ca5a0a0	0.020218194
39	0x3d8a5baf	0.067557685
40	0x3d017f68	0.031615645
41	0xbd0fec4a	-0.035137452
42	0xbca51f9e	-0.020156678
43	0x3d88098f	0.06642448
44	0xbcb56a84	-0.022145517
45	0xbcd8c73e	-0.026462194
46	0x3d37d9f8	0.044885606
47	0xbd956209	-0.07294089
48	0x3b8fa180	0.004383266
49	0xbd46b66d	-0.04851382
50	0x3c4e0838	0.012575202
51	0xbc8a2658	-0.016863987
52	0x3d7e66da	0.062109806
53	0xbd251402	-0.040302284
54	0xbd4132b4	-0.047167495
55	0xbd770ffc	-0.06031798
56	0x3d705fba	0.058685042
57	0xbcfe94a0	-0.03107673
58	0xbca73d66	-0.02041502
59	0xbd82a563	-0.06379201
60	0x3d89db5f	0.06731295
61	0xbab6f180	-0.0013957471
62	0xbc794700	-0.015214682
63	0xbd62bf0a	-0.05535797
64	0x3cc972f0	0.02459094
65	0xbcf59b5c	-0.029981308
66	0x3cc85be4	0.02445788
67	0xbd7fabbc	-0.062419638
68	0xbd249f2a	-0.040190853
69	0x3c654068	0.013992406
70	0xbd5aea31	-0.053446
71	0xbc8a1284	-0.016854532
72	0xbd0b0783	-0.03394271
73	0xbbcee0c0	-0.0063134134
74	0x3ce7bfd8	0.02828972
75	0x3be42410	0.006962307
76	0xbd7012a0	-0.058611512
77	0x3cfa52cc	0.030557059
78	0x3d3c1872	0.04592175
79	0xbd2b8477	-0.041874375
80	0x3d82f619	0.06394596
81	0x3c713470	0.014721975
82	0x3d856a39	0.06514401
83	0x3d088dbc	0.033338293
84	0x3d7ed49e	0.062214486
85	0xbc318d40	-0.010836899
86	0xbc7c7c44	-0.015410487
87	0x3c2c5038	0.0105171725
88	0xbd14acaa	-0.036297478
89	0x3c092410	0.008370414
90	0xbd79942b	-0.06093232
91	0x3d04a750	0.032386124
92	0xbc26c1e8	-0.010178067
93	0xbd8fc240	-0.07019472
94	0x3d45ec06	0.048320793
95	0x3cbb8fd0	0.022895724
96	0x3c0ab660	0.008466333
97	0x3d613d1e	0.054989927
98	0xbc444e18	-0.01198151
99	0xbc000058	-0.007812582
100	0xbc347438	-0.011014037
101	0x3cc76d1c	0.02434402
102	0xbd857557	-0.065165214
103	0xbd55ce1e	-0.05219852
104	0xbd2b7f2f	-0.04186934
105	0xbd936ac4	-0.07198098
106	0x3cc7e6c0	0.024402022
107	0x3d91e07f	0.07122897
108	0x3d1d7322	0.038439877
109	0xbcc1b30c	-0.023644947
110	0x3d8ddbff	0.069267265
111	0x3d0b3312	0.03398425
112	0xbd610236	-0.05493375
113	0xbcf47ff2	-0.029846165
114	0x3d90be15	0.07067505
115	0x3cb5df7c	0.022201292
116	0xbd8c8206	-0.068607375
117	0x3d7706d6	0.060309254
118	0x3d7bc122	0.061463483
119	0x3d7b056a	0.06128446
120	0x3d8a3f87	0.06750398
121	0xbd979f3c	-0.074034184
122	0xbc496640	-0.012292445
123	0x3d8a5adf	0.067556135
124	0xbd5ca80c	-0.0538712
125	0xbd49ba1c	-0.049249753
126	0x3c2932a8	0.010327019
127	0x3d4c33e8	0.04985419
128	0xbbb53720	-0.005530253
129	0x3c807fdc	0.015685968
130	0x3d035354	0.03206189
131	0x3d97ead9	0.074178405
132	0xbcc78cac	-0.02435907
133	0xbc054728	-0.008134641
134	0xbd905533	-0.070475005
135	0x3d8527c1	0.06501723
136	0x3cd2c7c4	0.025730021
137	0x3cf28f64	0.02960939
138	0xba8dd180	-0.0010819882
139	0xbbd8fcc0	-0.006621927
140	0x3ae3b700	0.0017373264
141	0x3d97eb91	0.074179776
142	0x3d88176f	0.066450946
143	0x3c99e990	0.01878813
144	0x3d2f7dc0	0.042844534
145	0x3d151f2e	0.03640669
146	0xbd0ec89f	-0.034859296
147	0x3d1cc566	0.03827419
148	0xbd2be515	-0.041966517
149	0x3d958ceb	0.073022686
150	0x3d61dd6a	0.055142798
151	0xbd95b4e8	-0.07309896
152	0xbce8f7ec	-0.02843853
153	0xbd277aeb	-0.040888708
154	0x3c7b5f08	0.015342481
155	0x3d1082de	0.035281055
156	0xbd431266	-0.047624968
157	0xbccb9e32	-0.024855707
158	0xbd926906	-0.07148938
159	0x3adcb640	0.0016838983
160	0xbd83c4c2	-0.06434013
161	0x3d96a215	0.073551334
162	0x3cb12974	0.021626212
163	0xbd6ac741	-0.05731893
164	0x3beb2d30	0.0071770176
165	0xbc32d968	-0.0109160915
166	0xbd8295fc	-0.063762635
167	0xbc738344	-0.014862839
168	0xbd8de369	-0.06928141
169	0xbce64534	-0.02810917
170	0xbd982543	-0.07428982
171	0xbcab606c	-0.020920001
172	0x3b5d4f40	0.003376916
173	0x3d199078	0.03749129
174	0x3d41e8f8	0.047341317
175	0xbd3a51a9	-0.045488033
176	0xbd42d4ba	-0.047566153
177	0xbd220b03	-0.039561283
178	0xbd4455e4	-0.047933474
179	0x3d347344	0.04405524
180	0x3d846181	0.0646391
181	0x3d850c36	0.0649647
182	0xbc015888	-0.007894643
183	0x3d606668	0.054785162
184	0xbd1b9ded	-0.037992407
185	0x3d58eabf	0.052958246
186	0xbd601f47	-0.05471733
187	0x3d00499d	0.031320203
188	0xbcd7e243	-0.026353007
189	0xbdc38c62	-0.0954826
190	0x3c80f3a8	0.015741184
191	0xbd3d5b67	-0.046229746
192	0xbd8b8029	-0.06811554
193	0xbcd28dba	-0.025702346
194	0xbd5c81fa	-0.053834893
195	0xbd7cc843	-0.061714422
196	0xbd871220	-0.06595254
197	0xbc70e6f7	-0.014703504
198	0x3d664d38	0.056225985
199	0xbdd5a105	-0.10431103
200	0xbd8d9e30	-0.069149375
201	0xbdc2b405	-0.09506992
202	0xbde6dbec	-0.112724155
203	0xbd572f70	-0.052535474
204	0x3d321fbf	0.043487307
205	0x3d44aa4b	0.048013967
206	0xbdaead3b	-0.08529135
207	0xbd692e1d	-0.056928743
208	0xbcb7be4e	-0.022429612
209	0xbbc236ee	-0.0059269583
210	0xbd3fad41	-0.046796087
211	0xbd34729c	-0.044054613
212	0x3d605d0e	0.054776244
213	0x3d6f7331	0.058459464
214	0xbd8acc52	-0.06777252
215	0x3d909374	0.070593745
216	0xbca53c00	-0.020170212
217	0xbcedbff6	-0.029022198
218	0x3d7c1592	0.06154401
219	0x3d28f11a	0.041245557
220	0x3d0a23a2	0.03372539
221	0x3cc8473c	0.02444803
222	0xbd13ae38	-0.03605482
223	0xbd6aa0d7	-0.057282295
224	0xbde0c945	-0.10975889
225	0xbd859710	-0.065229535
226	0xbcb0c0b8	-0.02157627
227	0x3d34a38e	0.04410129
228	0xbb0cf540	-0.0021508485
229	0xbd6fddb3	-0.05856104
230	0x3cd3c09f	0.025848685
231	0xbd7756fb	-0.060385685
232	0xbd25bc47	-0.04046276
233	0xbd8bc9a9	-0.06825573
234	0x3cb72454	0.02235619
235	0xbc612940	-0.013742745
236	0x3c17ac63	0.009257409
237	0xbc8668a4	-0.016407318
238	0x3af15be9	0.0018414232
239	0xbd8a38fd	-0.06749151
240	0x3d50f686	0.051016353
241	0x3d4ea9a5	0.050454754
242	0x3d445f90	0.047942698
243	0x3dd25f2c	0.10272059
244	0x3c123791	0.008924381
245	0xbc8aee9e	-0.016959485
246	0x3cd367cc	0.02580633
247	0xbd14224f	-0.03616553
248	0x3d204bfa	0.039134957
249	0x3d0da00a	0.034576453
250	0xbd372012	-0.04470832
251	0x3c7c0e90	0.015384331
252	0x3b467580	0.0030282438
253	0x3d4607be	0.048347227
254	0x3bcb0770	0.006195955
255	0x3d4c4fe8	0.049880892

fc1.bias f4 [64]
0	0x3d816cc1	0.06319571
1	0x3c0873ad	0.0083283605
2	0x3e4a9c7f	0.19786261
3	0xbd9faa4e	-0.07796155
4	0xbb888b05	-0.004166963
5	0x3d2f7088	0.042831928
6	0x3cf623c8	0.030046359
7	0xbced4c1c	-0.028966956
8	0x3dcdb715	0.10044686
9	0x3d5ea3fe	0.054355614
10	0x3d24251c	0.040074453
11	0x3c498148	0.012298889
12	0xbdfcfeb6	-0.1235327
13	0xbe05f70f	-0.13082527
14	0xbc8005e4	-0.015627809
15	0x3d802b13	0.06258216
16	0xbdc0b751	-0.09409965
17	0x3d68108a	0.056656398
18	0xbd067883	-0.032829773
19	0xbdaab61b	-0.08335515
20	0xbd8eb320	-0.06967759
21	0x3df49f22	0.11944415
22	0xbd971d4d	-0.073786356
23	0x3d9d0704	0.07667354
24	0xbd96b892	-0.07359423
25	0xbd2c1207	-0.04200938
26	0xbc1b1e28	-0.009467639
27	0xbdaf9b13	-0.085745
28	0x3daf0932	0.08546676
29	0x3d328f7a	0.04359386
30	0xbde419f4	-0.11137763
31	0xbda85ad6	-0.082204506
32	0xbd8c8c88	-0.06862742
33	0x3bb1ed20	0.005429879
34	0xbd8654a0	-0.0655911
35	0x3cf86163	0.030319875
36	0x3d9867fb	0.07441708
37	0x3d28b814	0.041191176
38	0x3e49696e	0.19669124
39	0xbc013d22	-0.00788811
40	0x3de4302c	0.111420006
41	0xbd4fc0b6	-0.050720893
42	0xbdc2f4ae	-0.09519325
43	0xbd00665e	-0.031347625
44	0x3e0586f8	0.13039768
45	0xbab79d3a	-0.0014008649
46	0x3d2566a4	0.04038109
47	0xbdad5768	-0.08463937
48	0xbd7589b5	-0.05994578
49	0x3d9e0898	0.07716483
50	0xbddf4819	-0.109024234
51	0xbd9ae0db	-0.07562419
52	0xbd19527e	-0.037432186
53	0xbd5dd40d	-0.054157306
54	0xbd4768b3	-0.048683833
55	0xbe08939c	-0.13337559
56	0xbbc785e8	-0.006088961
57	0x3c8caa94	0.017171182
58	0x3b5f0c6d	0.0034034506
59	0xbd3124ae	-0.04324787
60	0xb982fb41	-0.0002498273
61	0x3e050442	0.12989905
62	0xbb92f7e0	-0.0044851154
63	0x3dbca96b	0.092120014

fc2.weight f4 [4, 64]
0	0x3cd75180	0.02628398
1	0x3dea7fc4	0.114501506
2	0x3f48dbdf	0.78460497
3	0x3cde775b	0.027156522
4	0x3d826fa7	0.06368952
5	0xbcdce0c8	-0.026962653
6	0xbce0a470	-0.02742216
7	0xbcc99b42	-0.024610166
8	0x3f29ba01	0.66299444
9	0xbde76f40	-0.11300516
10	0x3ddafda2	0.10692908
11	0xbc916088	-0.017746225
12	0xbd506fa5	-0.050887723
13	0xbd57a887	-0.052650955
14	0x3dc1b1c2	0.09457733
15	0x3dd0f2b4	0.10202542
16	0xbcb3c6ad	-0.021945322
17	0xbd96eea8	-0.07369739
18	0x3e0a6f79	0.13519086
19	0x3d87de82	0.06634237
20	0x3d6f6f21	0.05845559
21	0x3f18c07c	0.5966871
22	0x3e4151ef	0.18878911
23	0x3f146b6f	0.5797643
24	0xbc3f84a5	-0.01168934
25	0x3c81d9e9	0.015850978
26	0x3db6b05c	0.08920357
27	0x3cfec963	0.031101888
28	0x3f1c9d5b	0.61177605
29	0x3c26ac10	0.010172859
30	0xbc13a61e	-0.009011773
31	0x3d0e52f5	0.034747083
32	0xbceb9f70	-0.02876255
33	0x3d13600f	0.03598028
34	0xbd294463	-0.041324984
35	0x3d995d75	0.07488529
36	0xbd46055c	-0.048344955
37	0xbd690e9c	-0.0568987
38	0x3f30088c	0.6876304
39	0xbcd51cb2	-0.02601466
40	0x3f3ea29b	0.74466866
41	0x3dd18178	0.10229772
42	0x3d9ff0af	0.078095786
43	0x3cb96ca8	0.02263482
44	0x3f42eb15	0.76139957
45	0x3dacc406	0.08435826
46	0x3e184ff2	0.14874247
47	0x3d94a6c2	0.07258369
48	0x3d851fc0	0.065001965
49	0x3f491eb6	0.78562486
50	0xbd43366f	-0.047659334
51	0x3d875d6f	0.06609618
52	0xbd4bb999	-0.049737547
53	0x3d9915e0	0.074748755
54	0x3e00e0d3	0.12585764
55	0x3d2ad44e	0.041706376
56	0x3c07a510	0.0082791
57	0x3c9aa0f0	0.01887557
58	0xbc7ecbba	-0.015551502
59	0x3d3e2840	0.046425104
60	0x3e1e295c	0.15445465
61	0x3f3e5144	0.7434275
62	0x3de60dd8	0.11233109
63	0x3f22ccba	0.6359364
64	0x3ddcb118	0.107759655
65	0x3be82b4a	0.0070852386
66	0xbc71a9cb	-0.014749954
67	0x3ccbd541	0.02488196
68	0xbd8c225f	-0.06842493
69	0xbc8327e0	-0.016010225
70	0xbddaed54	-0.10689798
71	0xbca1693e	-0.019703504
72	0xbc4eb7b4	-0.01261704
73	0xbc3e5530	-0.01161699
74	0x3c0deaf0	0.0086619705
75	0xbd4cb2dc	-0.04997526
76	0xbe24a40c	-0.16078204
77	0xbe12eef0	-0.1434896
78	0xbd06474b	-0.032782834
79	0xbbc56f94	-0.006025264
80	0xbd38377f	-0.0449748
81	0xbc17f610	-0.009274974
82	0x3da881eb	0.08227905
83	0x3d298220	0.041383862
84	0x3cf7eda3	0.030264681
85	0xbc3adda9	-0.011405387
86	0x3c287c5a	0.010283554
87	0xbc35ec16	-0.011103651
88	0x3ba84ba7	0.0051359716
89	0xbe08d634	-0.13362962
90	0xbdafe0ee	-0.08587824
91	0xbc640732	-0.013917731
92	0xbc3f4070	-0.011673078
93	0xbda36f36	-0.07980196
94	0x3d69fb87	0.05712464
95	0x3da909b7	0.08253806
96	0xbcc1677b	-0.023608914
97	0xbc0907c7	-0.008363671
98	0x3c47cea7	0.012195266
99	0xbd086961	-0.033303622
100	0x3d856642	0.06513645
101	0x3d94aba2	0.07259299
102	0xbc548e0b	-0.012973319
103	0x3db88297	0.09009283
104	0xbc65b10e	-0.014019264
105	0x3dbdef12	0.09274115
106	0x3de91f05	0.1138287
107	0xbdc34ece	-0.09536515
108	0xbc6710cb	-0.014103125
109	0x3e0b6064	0.13610989
110	0x3cf3630a	0.029710311
111	0x3d876a32	0.06612052
112	0xbdde1652	-0.10844101
113	0xbc6fdf03	-0.0146405725
114	0x3e1c2152	0.15247086
115	0xbc6a9a55	-0.014319022
116	0xbcc6d9b1	-0.024273725
117	0xbd2acd3a	-0.041699626
118	0x3c096c12	0.008387582
119	0x3b9d26b8	0.0047958754
120	0xbdb23da3	-0.087031625
121	0xbd224908	-0.03962043
122	0xbddf65cb	-0.10908087
123	0x3deca380	0.11554623
124	0xbae70889	-0.0017626445
125	0xbc6650e4	-0.014057372
126	0xbcf8a140	-0.030350327
127	0xbc46caad	-0.012133283
128	0xbc012700	-0.0078828335
129	0xbd8a05a6	-0.067393586
130	0xbee48482	-0.44632345
131	0x3cb59aab	0.022168478
132	0x3ceb671e	0.028735694
133	0xbd838520	-0.06421876
134	0x3d5a1154	0.05323918
135	0x3d2ef5c9	0.042714868
136	0xbec134b7	-0.3773553
137	0x3ca3a738	0.019977197
138	0xbdbcae58	-0.09212941
139	0xbdd54494	-0.10413471
140	0x3cf1715b	0.029472997
141	0xbe156936	-0.14590916
142	0xbdaa2822	-0.08308436
143	0x3c3a4c48	0.011370726
144	0xbca0688f	-0.019581107
145	0x3cb68be8	0.02228351
146	0x3a58e3a0	0.0008273665
147	0x3b8c1a94	0.0042756293
148	0x3db8cb31	0.09023131
149	0xbeadf16b	-0.3397325
150	0x3c9107fc	0.017704003
151	0xbea905ad	-0.33012143
152	0x3c09c105	0.008407836
153	0x3bce1fe0	0.006290421
154	0x3c9b8310	0.018983394
155	0xbd41a640	-0.04727769
156	0xbeb25777	-0.34832355
157	0x3d83865d	0.06422112
158	0x3e059fcd	0.1304924
159	0x3c88fb24	0.016721316
160	0xbd74d329	-0.05977169
161	0xbd4a2cce	-0.049359135
162	0xbe1d743b	-0.1537637
163	0x3d1d1a9f	0.038355466
164	0xbbc031a0	-0.0058652908
165	0x3b39cd00	0.002835095
166	0xbec8628b	-0.39137682
167	0x3c93ad76	0.018027049
168	0xbed8ee7c	-0.4236945
169	0xbddef386	-0.10886292
170	0xbd69a03f	-0.05703759
171	0xbddee140	-0.10882807
172	0xbeddcbf7	-0.43319675
173	0xbc19ce24	-0.009387527
174	0xbd2f8b97	-0.042857733
175	0x3d2c81a8	0.042115837
176	0x3df2d76e	0.11857496
177	0xbee4d59f	-0.4469423
178	0x3d1c07fb	0.03809355
179	0xbb4ed212	-0.0031558317
180	0xbc8d1c43	-0.01722539
181	0xbc2b5cf3	-0.010459173
182	0xbdeca5bd	-0.115550496
183	0xbcd3767e	-0.025813337
184	0x3c5a5dc3	0.013328019
185	0xbd527cfc	-0.051388726
186	0xbdd1429b	-0.10217782
187	0x3bbdab00	0.005788207
188	0xbd44620e	-0.047945075
189	0xbed88ec3	-0.4229642
190	0xbd7aa8b8	-0.06119606
191	0xbeb963e9	-0.36209038
192	0xbdbfe152	-0.09369148
193	0xbdef958c	-0.11698446
194	0x3b8f1644	0.004366668
195	0xbd899c97	-0.0671932
196	0xbe2b797c	-0.16745561
197	0xbd16a9ec	-0.036783144
198	0xbdbd5a9c	-0.09245798
199	0x3b886fcb	0.0041637174
200	0x3b6e2fc6	0.0036344393
201	0x3d05de40	0.032682657
202	0xbdb9e38e	-0.09076606
203	0xbd45382c	-0.048149273
204	0x3b74bb01	0.0037342908
205	0x3d34321d	0.043993104
206	0xbc86613e	-0.01640379
207	0xbd8edb6a	-0.06975444
208	0x3e05e995	0.13077386
209	0x3d3c7298	0.046007723
210	0xbc8b2e3c	-0.01698982
211	0xbdb6c3ad	-0.08924041
212	0xbc06ac37	-0.00821977
213	0x3b5772b4	0.0032874765
214	0x3d2dc1b0	0.042421043
215	0x3b518ada	0.003197363
216	0xbdfb0fe8	-0.12258893
217	0x3e0f009d	0.13965078
218	0xbda831ac	-0.08212599
219	0x3d4a4c7c	0.049389347
220	0x3b5ebd39	0.0033987297
221	0xbdcc0201	-0.0996132
222	0x3c435ba0	0.011923701
223	0xbe1f5841	-0.1556101
224	0x3d63bbc5	0.055598993
225	0xbdd76b01	-0.10518456
226	0xbcb5f102	-0.022209648
227	0x3c760993	0.015016931
228	0x3d8d7a24	0.06908062
229	0x3d368734	0.044562533
230	0x3b77ba61	0.00378003
231	0x3ce81bfa	0.028333653
232	0x3b872679	0.0041244593
233	0x3d39a540	0.04532361
234	0x3cf2fb8a	0.029660959
235	0xbde76568	-0.112986386
236	0x3b8ae054	0.004238168
237	0xbb073263	-0.0020629398
238	0xbd758f36	-0.05995103
239	0xbd66930d	-0.056292582
240	0x3dc1a616	0.094555065
241	0x3b8ee870	0.004361205
242	0xbdc2d3dc	-0.09513065
243	0xbd9a11d4	-0.07522932
244	0xbe136247	-0.14392959
245	0xbe2fffad	-0.17187376
246	0x3b964d23	0.004586832
247	0xbd978316	-0.073980495
248	0x3abd267c	0.0014431025
249	0x3d983306	0.07431607
250	0xbd5baa09	-0.053628955
251	0xbdd7d772	-0.1053914
252	0xbd862c36	-0.06551401
253	0x3b870136	0.0041200174
254	0x3dc00af6	0.09377091
255	0x3b67dbc6	0.0035378798

fc2.bias f4 [4]
0	0x3eae6186	0.3405878
1	0xbd40ba7c	-0.047052845
2	0xbe399648	-0.18123734
3	0x3b4d784e	0.0031352225
