src/flatland/flat_game/results/ourmethod_noreg15/rep_learner.pth (torch_old, 312928 bytes, 33 tensors)

representations f4 [6]
000000 9a d6 1f 3f 0b 03 b6 bd cc bf 56 3c 3d e9 17 3f
       0.6243683 -0.08887299 0.013107251 0.5934027
000010 3b c2 7d bf 4c b5 51 be
       -0.991245 -0.20479316

representations f4 [6]
000000 a7 af bc be c0 9b 54 be 7c c6 fe 3e 08 da 35 bf
       -0.36852762 -0.20762539 0.49760807 -0.71035814
000010 09 f1 49 3f bc 57 01 bf
       0.78883415 -0.505245

representations f4 [6]
000000 f2 18 b3 bd cc 3a 88 3f 81 55 d4 3d 8f b8 c5 be
       -0.08744992 1.0642943 0.10367871 -0.3861737
000010 9f b4 50 3d df d0 35 3f
       0.050953504 0.71021837

representations f4 [6]
000000 7e 62 e5 be 68 9e 57 bf 3b 7f 22 bf da 1a 0d 3f
       -0.44801706 -0.84226084 -0.6347539 0.551191
000010 4d 05 47 3e d7 33 9f be
       0.19435616 -0.31094238

fc1.weight f4 [64, 4]
000000 16 12 c0 bf 08 65 44 c0 e9 13 29 3f 06 6d c5 bf
       -1.5005519 -3.0686665 0.66046005 -1.5423896
000010 7f 4a 7c 3f e8 99 78 3f ee b4 c1 3e 38 7c ae bd
       0.9855117 0.9710984 0.3783335 -0.085197866
000020 e0 aa f5 3f 9d 88 ca bf f5 ff ec 3e 1f 99 5b bf
       1.9192772 -1.5822941 0.4628903 -0.8578052
000030 23 f8 9e bd 05 f1 2c 3f aa f7 3e 3f 1c 52 2e 3f
       -0.07762172 0.67555267 0.74596655 0.6809404
000040 b2 0f bf 3e 35 23 9f 3f 3c b3 07 c0 1f 9b 9c bf
       0.37316662 1.2432619 -2.1203146 -1.2234839
000050 f1 97 57 bf c2 85 bd bd b7 37 15 c0 30 21 3c bf
       -0.8421622 -0.09254028 -2.3315256 -0.7348814
000060 24 92 a2 bf fe 79 01 40 62 9c aa 3f 8e b6 32 3f
       -1.2700849 2.0230708 1.3328974 0.69809806
000070 75 88 2a 3f 21 10 32 bf e0 1c 8b 3f cf 56 2f 40
       0.66614467 -0.6955586 1.0868187 2.7396734
000080 c0 a8 87 bf af b1 ff bf 1c 36 de 3f 01 9b 2c 3f
       -1.0598373 -1.99761 1.7360263 0.6742402
000090 f3 06 b1 3e 14 ff 61 3f f9 bd 56 3e ce 8c 1f 40
       0.34575614 0.88279843 0.20970906 2.492969
0000a0 28 8b ba bf de e2 99 bd 56 53 69 be 54 73 31 bf
       -1.4573717 -0.075139746 -0.22785696 -0.693166
0000b0 61 1d 85 bf 80 5a 8b 3f 82 e3 59 bf 92 fc 18 bf
       -1.0399591 1.0886993 -0.85112774 -0.5976039
0000c0 33 84 a0 be 1e b6 71 3f c4 bc 00 3f 9b 32 39 bd
       -0.3135086 0.94418514 0.50288033 -0.045214277
0000d0 04 9e d5 3f f6 69 a0 bd 51 65 8d bf 60 47 1c 40
       1.6688848 -0.078327104 -1.1046544 2.4418564
0000e0 48 b6 b1 3f c0 d0 90 3f 11 f4 d7 3f 11 8d b8 bf
       1.3883753 1.1313705 1.6871358 -1.441805
0000f0 f4 3b 82 be 68 91 1b 40 2b c4 b7 be e6 0a ca 3e
       -0.25436366 2.43075 -0.35891852 0.3946144
000100 4f 16 b0 bf ef 99 fd 3f 07 53 f1 3f d4 b3 af bc
       -1.3756808 1.9812602 1.8853463 -0.021448053
000110 7b 5a cf 3e 25 5d b6 3f 19 97 ff 3f 58 1d 30 bf
       0.4049872 1.4247175 1.9967986 -0.68794775
000120 8e 63 3b 40 c1 55 b1 be fa 3a 22 40 de b2 34 bf
       2.9279513 -0.34635738 2.5348496 -0.7058543
000130 c5 ee 2d 3d 31 87 1e 40 16 f9 3d 3e 6c 0a 8d be
       0.042464036 2.4770014 0.1855205 -0.27547014
000140 e8 d7 0e c0 d0 8b 62 3f a1 35 fa 3e b3 0e a7 bf
       -2.2319279 0.88494587 0.4886904 -1.3051361
000150 75 e7 9b 3e 3c 85 fb be 7b 12 b3 3e b1 91 86 bf
       0.30450025 -0.49125087 0.34975037 -1.0513211
000160 63 56 95 3e 52 4a 2f bf c4 e0 08 c0 04 d6 6a 3e
       0.2916747 -0.6847278 -2.1387186 0.22933203
000170 6a cb b6 be 40 3d 48 3c d0 a0 bb 3d 30 33 5b 3d
       -0.35702068 0.012221634 0.09161532 0.053515613
000180 2a eb 44 bf 5c 26 e0 be a0 7a d4 3f 34 3e 34 3f
       -0.7692133 -0.43779266 1.6599922 0.70407414
000190 ef 39 26 3e 19 0c 00 c0 f3 19 a6 3f 70 9f 33 3f
       0.16233037 -2.0007384 1.2976669 0.7016516
0001a0 e5 e3 b4 3f e8 1f ab 3f ed a5 06 3f 81 8c 6b 3f
       1.4132048 1.3369112 0.5259693 0.92011267
0001b0 52 16 4d be cd 20 b8 be 7f 60 8a 3f 86 42 a3 3f
       -0.20028046 -0.35962525 1.0810698 1.2754676
0001c0 83 5b ca bf ba 51 b7 bf 6e 02 d9 3e 9a 15 f2 be
       -1.5809177 -1.4321816 0.42384666 -0.47282106
0001d0 c0 9e 5c 3f 7a 74 bf 3f ae 75 1e 3e b5 f1 1f c0
       0.86179733 1.4957421 0.15474579 -2.4991276
0001e0 de de 0e bd a8 8c 28 be 87 05 b9 3e 00 4d 18 be
       -0.03488051 -0.16459906 0.3613703 -0.14873123
0001f0 ff a4 c9 bf c2 e9 fe bf 0b a0 9f bf df ea 1a 40
       -1.5753478 -1.9915087 -1.2470716 2.4205854
000200 0b a6 ac bd b5 35 a9 3f 27 00 bb bf 95 b8 35 40
       -0.08430108 1.3219515 -1.4609421 2.839391
000210 7f 6f b7 3f 79 f2 aa bf 4c fb 18 3f 32 63 bd bf
       1.4330901 -1.3355247 0.5975845 -1.4795897
000220 ab 96 e4 bf ca 60 71 bf a0 07 9e be 81 21 24 bf
       -1.785848 -0.94288313 -0.30865192 -0.6411362
000230 91 cc 3c be 1b e2 71 3c d7 18 9d bf b0 53 58 3f
       -0.18437411 0.01476338 -1.2273206 0.84502697
000240 1a fc 56 bf a7 82 3a bf 32 2d 27 be 64 af ad bf
       -0.83978426 -0.7285561 -0.16325834 -1.356915
000250 09 eb 10 bf 9d 21 5f 3f fd b8 00 bf cd 6e 2d 3f
       -0.56608635 0.87160665 -0.5028227 0.67747194
000260 3d 6e 9c be ca 3e 35 3f bb f6 72 3f ab 33 a7 bf
       -0.30552855 0.70798934 0.9490773 -1.3062643
000270 0f 69 29 bf 8f 77 0a c0 c3 0c c6 bf 79 6e b1 3e
       -0.6617593 -2.1635473 -1.5472645 0.34654596
000280 94 7c f7 3f f2 c7 67 3f d4 f2 81 bf dc c9 15 3e
       1.9334893 0.9053947 -1.015223 0.14627784
000290 75 26 37 be c8 a2 aa bf df e2 0c 40 f7 a4 87 be
       -0.17885764 -1.3330927 2.201347 -0.26493046
0002a0 a3 a4 16 3f a6 3b 91 3e 8b d6 c6 3e d5 98 d4 3f
       0.58844966 0.2836582 0.38835558 1.6609141
0002b0 9a a7 1c bf d0 af e2 bf be 6e 0a 3f 9c 36 71 bf
       -0.6119324 -1.7709904 0.5407523 -0.9422395
0002c0 cb 1d f5 3e d5 d9 d8 bf 46 51 bb bd c7 cf 17 40
       0.47874293 -1.6941477 -0.09146361 2.3720567
0002d0 29 3f 56 bf 57 51 eb bd c6 57 02 bf ea f0 c1 3e
       -0.83690125 -0.11490124 -0.5091518 0.37879115
0002e0 5b a9 e7 3f 5a af 6f 3f aa fc 74 bf 03 de 15 40
       1.8098558 0.9362694 -0.95698035 2.3416755
0002f0 3a 4c 64 3e bb 1e 11 3d c5 89 01 3f f7 af a1 bf
       0.22294703 0.035429697 0.50600845 -1.2631825
000300 3a 3c 2e bf 80 4c 2b 3f 90 f9 ed bf d4 a0 71 be
       -0.6806065 0.66913605 -1.8591785 -0.23596507
000310 88 d0 dd bf 03 84 6e 3f f6 df ad bf 76 22 15 bf
       -1.7329264 0.93170184 -1.3583972 -0.5825571
000320 d7 19 4b 3e ec 0b 8d be cb e3 d5 bf 7e 48 69 bf
       0.19834076 -0.27548158 -1.6710142 -0.9112624
000330 7b a9 7b bf 12 c6 79 3f 97 7c 1c bf 80 ff 0c bf
       -0.9830548 0.97567856 -0.6112761 -0.5507736
000340 46 40 35 3c 06 9d 52 3f 65 34 73 3f 45 ae 5e 3f
       0.011062687 0.8227085 0.9500182 0.86984664
000350 92 fc c8 bf 72 5f e2 3f 2a d0 8a 3f bd c4 a1 be
       -1.5702078 1.7685378 1.0844777 -0.31595412
000360 19 c1 ee bf c9 bd bf bf 30 de 5b 3e 7e 36 89 3e
       -1.8652679 -1.4979793 0.21471477 0.26799387
000370 8d 3c b6 3e f8 80 57 bd 24 1b 0d 3f a2 39 e4 3e
       0.35593072 -0.05261323 0.5511954 0.4457522
000380 65 d5 e8 3f ef c0 9e 3f 22 b1 a3 3f da 11 d0 3f
       1.8190123 1.2402629 1.2788432 1.6255448
000390 4f 55 0d 40 95 29 08 be ad f2 8a 3f e5 13 13 bf
       2.2083318 -0.13297112 1.0855309 -0.5745223
0003a0 fb ed 0e 40 c8 4c 02 bf fa 01 98 bf b5 86 01 c0
       2.2332752 -0.5089841 -1.1875603 -2.0238469
0003b0 63 4a 38 bf fa fd 4b bf 4f ed 2e c0 95 ff b6 bf
       -0.71988505 -0.7968441 -2.7332342 -1.4296747
0003c0 4e fa 8f bf 04 6c 12 40 9a cb 68 3f 7f 3c 43 be
       -1.1248262 2.2878428 0.9093567 -0.19066046
0003d0 87 5a 2b 40 94 7e 52 bf c7 f8 27 3f 82 15 af 3f
       2.6774004 -0.8222439 0.6561398 1.3678439
0003e0 b2 d0 1d 3e 89 cd c4 3f 3c b4 7f bf 70 87 c7 3f
       0.15411642 1.5375224 -0.9988439 1.5588207
0003f0 9a ad 89 be f1 52 10 bf ed 7a e8 3f 54 df 1d bf
       -0.2689026 -0.5637656 1.8162514 -0.61668897

fc1.bias f4 [64]
000000 dc de d3 3e cf 27 f6 3e 4c 17 8b bd 80 8a 0d 3f
       0.41380966 0.48077247 -0.06791553 0.5528946
000010 af e4 14 bd 68 b2 94 3e cb 2d b2 3e 7f 9f 5f be
       -0.036350902 0.29042363 0.34800562 -0.21838187
000020 10 40 75 3d a9 e6 b4 be e1 60 04 3f 10 08 ca 3e
       0.059875548 -0.3533223 0.51710325 0.39459276
000030 05 08 c8 3e 24 c9 a4 be 3d 71 8b be 4a 52 c1 3e
       0.39068618 -0.32184708 -0.2723483 0.37758094
000040 2a 3a 69 3e bd 49 f5 3e 39 23 b5 3e a5 63 02 3f
       0.22776094 0.4790782 0.35378435 0.50933295
000050 d4 e3 46 3f 1e b5 b2 3e 2a bc 79 be a8 a5 f9 be
       0.7769139 0.34903806 -0.24388185 -0.48759198
000060 07 88 0e 3f c2 b7 68 3e 4f 1a 73 3e 68 07 d2 3e
       0.5567631 0.22726348 0.23740505 0.41021276
000070 ba 48 03 3f 8a e6 de 3e 86 5a 0d bf ff 07 2e be
       0.51282847 0.43535262 -0.5521625 -0.16995238
000080 f4 ef 0b bf ad 22 b8 be 7e 0d 87 bd 03 6a c5 3e
       -0.54663014 -0.35963956 -0.0659437 0.38557443
000090 96 2b d7 bc 80 bf 2d 3f d3 7d c0 3e 8d 17 b7 3d
       -0.0262659 0.6787033 0.37595996 0.08940039
0000a0 c8 17 ec 3d 38 f9 e2 bd fd d4 4f 3e 47 d8 da 3d
       0.115279734 -0.11082691 0.20296092 0.10685783
0000b0 db 6d 84 3e 27 29 2a 3e 05 b8 ed 3e 1e 4d 14 3f
       0.25865063 0.16617261 0.46429458 0.5793017
0000c0 5b f0 08 3e 65 57 02 3e f1 d3 af be 47 37 af 3e
       0.13372938 0.12728651 -0.34341386 0.3422186
0000d0 2e df 1c 3f 84 c3 3b 3f 34 3f 14 be db 03 8e 3e
       0.61278045 0.7334521 -0.14477235 0.27737316
0000e0 69 6e 1e 3e b8 aa 25 3e 57 d2 a5 3e 72 6f a7 3e
       0.15471806 0.16178405 0.3238704 0.32702214
0000f0 a9 9b 35 3f b8 a5 70 bd c4 27 40 3e ef db f2 3e
       0.70940644 -0.05875179 0.1876517 0.4743342

fc2.weight f4 [180, 64]
000000 50 da 65 c0 f1 ab c1 be 3f 4d be 3e 0f 21 02 be
       -3.5914497 -0.37826493 0.3716831 -0.12707923
000010 e7 39 be bd 42 c4 2f 3f 30 8f 37 bf 35 8d b2 be
       -0.09288388 0.6865884 -0.7170286 -0.34873357
000020 99 61 a8 bf 9a e5 35 bf 11 f5 79 3e c7 23 95 3e
       -1.3154784 -0.7105347 0.24409892 0.29128858
000030 2f 9c 2e 3e 50 4a 47 3f 5a 52 56 be 44 1e 76 bf
       0.17051767 0.77847767 -0.20929852 -0.9613993
000040 36 16 c4 3e f3 65 ef be db ec 01 bf a1 71 51 bf
       0.38298196 -0.4675747 -0.5075204 -0.8181401
000050 03 ba f8 be a5 e8 2a 3e ca b7 a3 3f 02 67 e7 3d
       -0.48579416 0.1669031 1.2790463 0.11298944
000060 c1 14 93 bf 5c 34 a5 bf cd 0a f8 be a8 64 ba be
       -1.1490709 -1.2906604 -0.4844574 -0.3640492
000070 fc 1d 9e bf 03 f7 e1 be 3c 45 ee 3d b1 7c e3 3f
       -1.23529 -0.44133767 0.11634299 1.7772428
000080 3d 50 83 3f 57 ba f7 be dd 22 15 3e bb 61 1d 3f
       1.0258862 -0.48384354 0.1456408 0.6147725
000090 0d 7b 43 be 5e 0e 79 3e 15 e4 2c bd 44 0c 98 3f
       -0.19089909 0.24321887 -0.042209703 1.1878743
0000a0 82 16 fe 3e 7d 7c ce bd 8a 20 a1 be f5 71 ed be
       0.49626547 -0.10082338 -0.31470138 -0.46376005
0000b0 18 c2 3e 3f 48 af f4 3e b4 8f 9f 3e 93 dd 52 be
       0.74514914 0.4778998 0.31164324 -0.20592336
0000c0 58 c6 10 3f 55 0a f5 be 61 89 b4 3d 24 ab b0 3e
       0.5655265 -0.47859445 0.088152654 0.3450557
0000d0 0a 3a a9 be 5d b6 41 bf 6f 64 a1 bc 89 7e 73 bd
       -0.33052093 -0.7566889 -0.01970121 -0.059446845
0000e0 b5 a3 10 c0 ad 3e 6a 3e b8 48 36 3d 2e b7 85 3f
       -2.259992 0.22875471 0.044502944 1.0446527
0000f0 63 8d da be 0a bd 0a bf 5b 34 a9 3e e1 ac 28 be
       -0.42685995 -0.541947 0.33047757 -0.16472198
000100 50 08 6b c0 5a 1b 04 bf 51 a9 07 bf fc 41 b9 3e
       -3.6723824 -0.51604235 -0.5299273 0.36183155
000110 fd ac 0f be 83 a8 6b 3f 8c 33 22 bf 2d bb a6 3e
       -0.14030834 0.92054003 -0.63359904 0.3256468
000120 0a 38 93 3d de 6b 7b 3e 87 2e 9c bd aa 31 bb 3c
       0.07188423 0.24552867 -0.07626062 0.02285083
000130 ca 1e 12 bd 0e 71 b0 3e 4a dc c5 3d 59 a8 97 be
       -0.035673894 0.34461254 0.096611574 -0.29620627
000140 1c 19 13 3f 94 69 c6 bd 1e 33 0d bf 20 c3 8b bf
       0.5746019 -0.09688106 -0.55156124 -1.0918922
000150 fc f9 92 bf 7c ef 77 bd 2b e8 da 3e aa d0 ec bd
       -1.1482539 -0.060531124 0.42755255 -0.11563237
000160 6a 45 a7 3e 4e d2 2c be ae 6c e1 be 27 c0 f9 3e
       0.32670146 -0.168771 -0.4402823 0.48779413
000170 d3 42 83 bf 0b 9c 21 be 72 64 c5 3d 6d 49 e4 3f
       -1.0254768 -0.15782182 0.09638299 1.7834908
000180 1c 8c 82 3f 04 28 65 bf 7c 82 a2 be 47 aa 0a 3f
       1.0199008 -0.89514184 -0.31740177 0.5416607
000190 91 c6 26 bf f0 55 c2 3e 22 f1 95 bd 58 9f 70 3f
       -0.6514674 0.3795619 -0.07321383 0.9399314
0001a0 47 30 62 bd a3 28 2f bc 43 f4 40 3e 32 de 0e bf
       -0.055221822 -0.010690841 0.18843178 -0.55807793
0001b0 7b f2 aa 3f 4f a9 23 3f 4b cd ae 3e a6 5b 6e bd
       1.3355249 0.6393022 0.34141 -0.05819287
0001c0 d9 76 03 3f 6b bc 06 3e 35 ab 22 3e ec ac 59 3c
       0.5135322 0.13157813 0.15885623 0.013285857
0001d0 af 1b ad 3e 14 c4 18 bf f3 a6 bc 3e 5f 8b f1 3d
       0.33810183 -0.5967419 0.36846122 0.11794161
0001e0 cb b3 36 bf 71 04 5c bf 50 e9 82 bf 5a 9b 9e be
       -0.7136809 -0.8594428 -1.0227451 -0.309779
0001f0 12 a6 4b bf 70 e2 54 be 3d c7 be 3e 58 2b b3 bd
       -0.7955028 -0.20789504 0.37261382 -0.087485015
000200 ec 0d 5d c0 d2 ad f1 3d 93 9d a4 3f b5 de c0 3e
       -3.4539747 0.11800732 1.2860588 0.37669912
000210 cb 16 07 bf f5 ae 26 c0 4c 88 2c 3f 73 8c 37 3f
       -0.52769154 -2.6044285 0.6739547 0.71698684
000220 34 fc 10 3f f4 a6 28 3f a9 d3 d6 bc 4e c3 dd 3d
       0.5663483 0.6587975 -0.026223974 0.10828267
000230 b5 47 b1 3e 31 88 8d 3d ab 26 38 bf c2 fb c0 3d
       0.3462502 0.06910742 -0.71934 0.09423019
000240 72 37 c1 be 52 ea 93 bf 93 5b 0e 3f 90 e4 7a 3e
       -0.37737614 -1.1555884 0.5560848 0.24501252
000250 ca a3 af 3e e1 f8 89 3e 3e 04 31 be 2c ff b1 3d
       0.3430465 0.26947692 -0.17286775 0.08691248
000260 d5 da d5 3e 4e 85 8d 3f ff f2 b2 3e d4 0b 15 3f
       0.41768518 1.1056306 0.34951016 0.58221173
000270 d7 9c d0 bf 7c ea 80 bf 54 65 b6 bd 74 54 ea be
       -1.6297864 -1.0071559 -0.089060456 -0.45767558
000280 c5 fd 52 be 1a 94 66 3f c5 98 40 bf 9f 73 82 3e
       -0.20604618 0.90069735 -0.7523311 0.25478837
000290 44 58 d6 be fc 82 60 3e 77 c3 78 bf f5 2b 82 3e
       -0.41864216 0.21924967 -0.97173256 0.25424162
0002a0 3d 0e eb 3d 0a 1c 1a bf a9 aa 16 3f bd 55 c1 be
       0.11477325 -0.60199034 0.58854157 -0.37760726
0002b0 39 1f 3e 3f 8d bc 19 bd e4 16 45 3f 57 13 b0 be
       0.7426639 -0.03753333 0.76988053 -0.34389755
0002c0 40 b8 ca be 5b 4c 09 3e 4e 36 2c bf bc 65 da 3d
       -0.39593697 0.13408034 -0.6727036 0.106639355
0002d0 f0 8b d4 3e 40 36 43 be 70 ba 54 bf ed 99 de 3e
       0.41513014 -0.19063663 -0.8309698 0.4347681
0002e0 f4 94 99 3f b3 cc 83 3f 8d 79 05 3f 6c 75 11 c0
       1.1998582 1.0296844 0.52138597 -2.2727919
0002f0 b9 2d 16 3e 56 8e 6e 3f 8e fb 5d 3e cc 74 69 bf
       0.1466588 0.9318594 0.21677992 -0.9119384
000300 2e cd 3b c0 ed 5d 83 bd 73 00 d4 3f 72 c3 e4 bd
       -2.9343982 -0.06414399 1.6562637 -0.11170091
000310 58 7c f1 bf 4b e2 55 bf cb 5c 62 3e ae 6b 48 3f
       -1.8866072 -0.8354842 0.2210571 0.78289306
000320 37 cb 1c bf 43 42 20 3e 25 91 95 bd 9a 00 3b be
       -0.6124758 0.15650277 -0.07303075 -0.18261948
000330 13 2c 39 bd db c5 19 3f b4 9b e3 be 55 0f 64 3f
       -0.045208048 0.6006753 -0.4445473 0.89085895
000340 c3 e7 0d 3c 4e 50 d2 bf 1e 22 6c 3f 89 06 c8 3e
       0.008661213 -1.6430757 0.9223956 0.39067486
000350 c4 b1 45 be 64 bd 08 3f ad a9 5e 3f 18 b0 df 3c
       -0.19306093 0.5341399 0.86977655 0.027305648
000360 82 84 aa be bb c8 66 3f 98 fb 3a 3d 4f f0 04 3f
       -0.3330422 0.9015004 0.045650095 0.5192918
000370 82 07 25 bf 65 3a 89 bf be 07 b6 3d 61 22 72 bf
       -0.6446458 -1.0720946 0.088881955 -0.9458371
000380 8e c1 1e bf 6e 86 fb 3f a7 eb dd be 3c 3f 9e 3e
       -0.6201409 1.96504 -0.4334385 0.3090762
000390 97 56 ce be ce 94 a2 bd 62 03 83 be ba c4 e8 3e
       -0.40300438 -0.079385385 -0.25588518 0.4546259
0003a0 3a 26 00 3f d5 3f aa bf 01 21 f5 3e e0 69 f6 be
       0.5005833 -1.330073 0.47876742 -0.4812765
0003b0 02 d5 11 3f 49 0c f9 bd 45 6e 26 3f 11 59 c1 be
       0.5696565 -0.12160546 0.6501201 -0.37763265
0003c0 80 a0 65 bd 1a d1 8f 3f 98 cd 6e bf 76 9a 8d bd
       -0.056061268 1.1235688 -0.9328246 -0.06914227
0003d0 64 e3 49 be ae 78 da 3d 9f fb c5 be 0c 5d ac 3e
       -0.19715649 0.10667549 -0.38668534 0.3366474
0003e0 b5 41 6a 3f 47 4a 49 3f 49 0f a8 3d a9 d9 2e c0
       0.9150651 0.78628963 0.082060404 -2.732035
0003f0 80 8e cd bc 67 fe a9 3f 31 84 8d be da 86 35 bf
       -0.025092363 1.3280762 -0.27639917 -0.7090889

fc2.bias f4 [180]
000000 11 f8 25 3e 35 67 ef 3d eb 19 2e 3e 6c 21 6b 3e
       0.16207911 0.11689607 0.17002074 0.22961968
000010 cd 01 22 3e 12 05 26 bd 04 93 30 3c 58 11 e6 bd
       0.15821 -0.04053218 0.010777239 -0.11233777
000020 ad f3 d6 bc 7c a9 38 bd 6c ea 31 be 1a 4f 93 3e
       -0.02623924 -0.045083508 -0.17374581 0.28771287
000030 48 9b 1d 3e a0 56 c2 bd b4 e4 dc bd 57 7e a5 bc
       0.15391266 -0.09489179 -0.10785809 -0.020201845
000040 a0 46 d3 bd d3 9f 98 3c b9 c1 4f be 3f 5f 25 be
       -0.10316205 0.018630898 -0.20288743 -0.16149615
000050 1a 77 d2 bd bb eb 36 bb 74 9f 0f bd af 11 4e be
       -0.10276623 -0.0027911502 -0.035064176 -0.20123933
000060 0b a0 b4 3e 5a d3 d6 bd 0e 83 a9 bd ea bc e2 bc
       0.35278353 -0.10489531 -0.0827695 -0.027677972
000070 82 ae 8d be e0 3c 65 3d 94 28 3f be 28 15 94 3e
       -0.276722 0.055966258 -0.18667823 0.2892239
000080 a8 5e 18 be 2c 1b 31 3d f8 21 a0 3e e9 3a c9 3d
       -0.14879858 0.043238804 0.31275916 0.09825689
000090 3d 8a 88 3e ff 88 aa 3e 9d 14 d4 3d ab 7f 1c 3f
       0.26667967 0.33307645 0.10355494 0.61132306
0000a0 75 3b 0a 3e 43 ed 27 3e 9c 7e bb 3e cd bd 95 bd
       0.13499244 0.16399102 0.36620033 -0.07311592
0000b0 bf 33 ba bd 2d ac 76 3c 57 7f 13 be 31 fd 76 3e
       -0.09091901 0.015055698 -0.14404045 0.24120022
0000c0 ec 2e e6 3e 9e 74 26 3c 56 27 04 be 7e 7a a9 bd
       0.44957674 0.01015964 -0.1290563 -0.08275317
0000d0 b3 48 26 be c8 09 8f 3d 7c 5b 98 3e 0f c0 01 be
       -0.1623867 0.069842875 0.29757297 -0.12670921
0000e0 71 88 55 bc 33 30 a1 bd 37 63 06 be 5b f5 b6 3d
       -0.013033018 -0.078705214 -0.13123785 0.089335166
0000f0 5d fe 8b 3e 73 51 47 bd 1d 19 27 3d 10 9c 1c 3d
       0.273425 -0.04866166 0.040795434 0.03823477
000100 9f c3 b5 bd 62 43 3f 3e 42 14 83 3e 5f 3a b0 3e
       -0.088752024 0.18678048 0.25601393 0.34419534
000110 75 29 0f 3e a5 59 51 3d 64 ae fd 3e 84 67 ab 3e
       0.13980658 0.051110882 0.49547112 0.33477414
000120 89 c4 15 3e 15 51 90 3e d2 5c 29 3f 34 2b a1 3e
       0.14625753 0.2818686 0.6615726 0.31478274
000130 5e 0f 50 3e 24 f1 88 3e 8c 93 a0 3e 72 31 66 be
       0.20318362 0.26746476 0.3136257 -0.224798
000140 c5 ba 43 be cc 4b 6c be 83 bd e7 bd d9 f5 48 3e
       -0.19114216 -0.23075789 -0.11315443 0.19625033
000150 b8 81 3b 3d 3d 9d 30 be f3 3b 33 be 86 91 0d be
       0.045778006 -0.17247482 -0.17503338 -0.13825044
000160 15 0e a2 bc 4c 29 50 bd 9f 75 b8 3d e4 fb 0b be
       -0.019782105 -0.050820634 0.090068094 -0.13670307
000170 b7 ea 0e bd f8 7e 57 bd f1 ba 17 bd 29 5c a5 bd
       -0.03489181 -0.05261132 -0.037043516 -0.08074219
000180 aa 04 a8 3e fc 2a e4 bd ec 98 3d bd c3 29 5c bd
       0.32816058 -0.11141011 -0.046288416 -0.053750765
000190 66 c5 b2 bd a1 3e a2 3d d5 51 25 3e 4c 52 48 bd
       -0.08729057 0.07922102 0.16144498 -0.04890661
0001a0 03 0d 97 3c d8 1a af 3d e3 5b 87 bc 96 d9 c8 3d
       0.018438822 0.08550042 -0.016523307 0.09807126
0001b0 c4 dd 87 3e 48 0b 10 3e 0b 7d e7 3d 1e 14 0e 3f
       0.2653638 0.14066803 0.11303147 0.55499446
0001c0 0a 2f 3a 3e b9 b5 90 3e 68 c4 af 3d ff 0d fd bd
       0.18182006 0.28263643 0.085823834 -0.12356185
0001d0 87 c3 32 3f d3 89 a8 bd ed 2d 52 be 45 b0 c9 3c
       0.698296 -0.08229413 -0.20525332 0.024620185
0001e0 2c 8d 74 be 75 15 68 be 92 07 d6 bd 55 72 62 bd
       -0.23881978 -0.22664435 -0.10450663 -0.055284817
0001f0 6a 06 b6 3c 2f d0 28 3e b4 8d f5 bd 0c d4 5d be
       0.022219855 0.16485666 -0.11989918 -0.2166292
000200 18 c7 b8 be 55 bb ae 3e 7b d5 01 be ae 37 52 3e
       -0.36089396 0.34127298 -0.12679093 0.20529053
000210 c0 84 37 bb 71 b9 2b be a9 ad 2f 3c da 48 d4 bd
       -0.002800271 -0.16769959 0.010722556 -0.10365458
000220 d2 99 21 bd b4 2a 9d 3e 49 5b 03 bd e7 9d 21 be
       -0.039453335 0.30696642 -0.03206948 -0.15782891
000230 0e 5d 1e bd 1c 00 f8 be f3 9e 9b 3d fd f3 7f 3e
       -0.038662963 -0.48437583 0.075986765 0.24995418
000240 77 53 4f 3e 07 3a ac 3d 2f c1 31 be 7a 43 4a bd
       0.20246683 0.08409505 -0.1735885 -0.049380757
000250 6d 17 07 be 43 35 dd 3d b9 a2 3a 3d 2d 65 25 be
       -0.1319253 0.108011745 0.04556534 -0.16151877
000260 74 33 ac bd 7f 2a 34 be 6c c9 80 be 5a 6c 19 3d
       -0.084082514 -0.17594336 -0.25153673 0.037456848
000270 be e6 aa bc 17 86 c0 3e f6 0c 51 3f 4c fe ad bd
       -0.02086198 0.37602302 0.816604 -0.08495769
000280 35 2e fb bd 76 3d fe bc e2 df 0f be 5a e2 88 bd
       -0.12264673 -0.031035166 -0.14050248 -0.06683798
000290 f4 7b 9b bd ae 91 fe bd 6f ab 82 bd 83 80 20 3e
       -0.075920016 -0.1243013 -0.063803546 0.15674023
0002a0 e2 b5 9c bc e8 6b 2e be 72 a9 fa bc 6b 7a 01 be
       -0.019129697 -0.1703335 -0.030598376 -0.12644355
0002b0 71 1f af bd e0 21 1e 3e 9a 43 7f 3e 9d f8 9d 3d
       -0.08550919 0.1544261 0.24928132 0.07713435
0002c0 26 fa 68 3e e9 a7 8f 3e ba 6a 72 3e 92 31 4a 3e
       0.22751674 0.28057793 0.23673525 0.19745472

conv.weight f4 [5, 1, 34, 34]
000000 fd fb 8b bd a7 da 8a bd 3a fb fd bc d2 56 5b 3a
       -0.06835172 -0.06779986 -0.031003583 0.0008367124
000010 27 f6 20 3d 00 2e ad bd da c5 ce bc 4e 29 3f be
       0.03929725 -0.084560394 -0.025240827 -0.186681
000020 49 ff 9b bd 66 4b 82 bd ea 3d ac bc 57 c7 bd 3d
       -0.07617051 -0.06362037 -0.021025617 0.09266537
000030 74 9b de 3c 16 bf 19 be 83 70 11 be 06 d0 d1 3d
       0.027173735 -0.150143 -0.14203076 0.102447554
000040 35 db 9c bb 58 03 98 3a 7f 83 89 3d 38 13 8e bd
       -0.0047868737 0.0011597676 0.06714534 -0.069372594
000050 fd 6a c8 bd 0c 9b d7 3d e3 91 3c 3d d4 47 f8 3d
       -0.097860314 0.1052762 0.046037566 0.12123075
000060 59 6e bc 3e f1 c3 43 3e b0 1f 44 3e 8c 5f 52 3e
       0.3680294 0.19117714 0.19152713 0.2054426
000070 06 1a 5f 3e 66 1a 6a 3e 48 a5 85 3e 94 c4 06 3e
       0.21787271 0.22861633 0.26102662 0.13160926
000080 b1 2b 0a 3e c3 c7 e1 3d 93 70 53 bd 9c b7 4c bd
       0.1349323 0.1102443 -0.05162103 -0.04997979
000090 55 50 cb 3a b4 9e 36 bd 66 1b e4 bc 0d 36 d8 bc
       0.0015511612 -0.044584945 -0.027845096 -0.02639296
0000a0 e4 eb ad bc 42 65 bf bd 52 e2 a2 bd 6a b1 7c bd
       -0.021230645 -0.09345485 -0.079533234 -0.061692633
0000b0 6d 33 75 3d e6 b9 26 3d 45 c7 09 bd 0b 58 9b 3d
       0.059863497 0.04070463 -0.033637304 0.07585152
0000c0 15 73 2f 3d 9a 4b 36 bd 2b 1f cd bc 73 b4 bc 3d
       0.04283436 -0.044505693 -0.025039276 0.092141055
0000d0 76 93 68 bd 1e 87 94 bb 93 51 9d 3c 1c 6f 00 3e
       -0.056781255 -0.004532709 0.019203937 0.12542385
0000e0 ac f9 3d bd c5 40 c9 bd cd ac 5f 3e 2f 87 88 3e
       -0.046380684 -0.09826807 0.21843262 0.26665637
0000f0 37 72 57 3e 8f 10 0b 3e 50 2c 83 3e 2b 68 02 3e
       0.21039663 0.13580535 0.25619745 0.1273505
000100 12 ad 5b 3e 01 18 2b 3e 64 54 40 3e f5 8f 4f 3e
       0.2145274 0.16708376 0.18782192 0.20269759
000110 28 51 57 bd 0c 2c 83 bd 3e 7f 8e bd d0 60 e1 bd
       -0.05256763 -0.06404886 -0.06957863 -0.11004794
000120 14 1c 95 3b 75 3d 2d bb b0 d8 6d 3b 6a fa f8 bd
       0.0045504663 -0.0026434336 0.0036292486 -0.12157138
000130 ee eb c0 bd 35 ae bf bd b8 db 4f be fa 4c a8 3d
       -0.0942 -0.09359399 -0.2029866 0.08217807
000140 52 ba 06 3e 87 2e 25 3e f8 a9 94 bc 24 da aa 3d
       0.13157013 0.1613103 -0.018147454 0.08342388
000150 81 f4 a8 3d 3c 71 fb 3d 99 cb 9d 3c b8 c5 28 bc
       0.082497604 0.12277457 0.019262122 -0.010301046
000160 14 b5 46 3e 01 3b 7c 3d 5c 14 25 3e 27 88 12 3e
       0.19405013 0.061579708 0.16121048 0.1430975
000170 a4 52 b3 3e 23 cd 53 3e 7d 05 b8 3d a6 60 f8 3d
       0.35023987 0.20683722 0.08985422 0.12127809
000180 c2 40 b2 3e c8 fe 85 3e 9c 03 11 3e e2 66 5d 3e
       0.3481503 0.26170945 0.14161533 0.21621278
000190 53 8f cc 3d b2 07 d9 3d 95 32 95 bd 75 39 49 be
       0.099882744 0.10597171 -0.072850384 -0.19650824
0001a0 aa 94 01 bd 1d 4f 1a be 9a a0 56 bc 08 94 a4 bd
       -0.031635918 -0.15069242 -0.013099814 -0.08036047
0001b0 b0 a5 70 bd 83 cf 47 3c 8c 4f 9a 3c 8c 36 bf bb
       -0.058751762 0.012195471 0.018836759 -0.00583536
0001c0 6b 7e 2e bd da 13 10 3e 8a 25 b8 3d ba 26 35 3e
       -0.04260103 0.14070073 0.08991535 0.17690554
0001d0 35 9f 34 3d f1 9c e2 3d 3c 70 12 3e 00 7c 26 bd
       0.044097144 0.110650904 0.14300627 -0.0406456
0001e0 53 bf 54 bd 01 5b 66 3d e4 f7 61 3e bb 44 4d 3d
       -0.051940273 0.05623913 0.22067219 0.050114375
0001f0 df 04 44 3e 55 0d 00 3e b2 e9 ad 3e 03 06 91 3e
       0.19142483 0.12505086 0.33967358 0.283249
000200 76 ac 7f 3e 84 7c 85 3e 9a 12 70 3e 97 a0 37 3e
       0.24968132 0.2607156 0.23444596 0.17932354
000210 99 82 a8 3d 74 40 3d 3e e7 70 29 3e 9e bc 21 3e
       0.082280345 0.18481618 0.16546975 0.15794608
000220 1e 2e bf 3b 51 6a c0 bc f8 03 a8 bd 53 1d 05 bd
       0.005834355 -0.023488196 -0.08203882 -0.03249867
000230 c3 9a 1a bd 62 fd 08 bd a2 eb 21 3d 75 bf 4e 3d
       -0.03774525 -0.03344477 0.039531358 0.050475556
000240 7c ea a8 3d 54 a3 7b bd b7 07 23 bd 0a 8f 2f be
       0.08247849 -0.06143506 -0.03980228 -0.17144409
000250 1c 8e 41 3b 31 50 2c be 77 1a d3 bd 9f d4 21 bc
       0.0029534167 -0.16827466 -0.10307782 -0.009877353
000260 d2 3f 30 bd 16 2e 37 be 89 9f 9a be 94 15 e0 bb
       -0.043029614 -0.17888674 -0.3019984 -0.00683851
000270 46 f2 00 bd f9 e1 75 3e 1a 5e 9a 3e 58 8c aa 3e
       -0.03148105 0.24011983 0.3014992 0.333102
000280 e3 3f b7 3e cc cd 99 3e 2e 4e 9a 3e c9 f4 0a 3e
       0.3579093 0.30039823 0.3013777 0.1356994
000290 f2 62 46 3e 5f 25 0c 3e 15 bf 3a 3e 49 c2 16 3d
       0.19373682 0.13686131 0.18236955 0.03680638
0002a0 5d 95 84 bc 65 34 99 bd 38 ce 0c bc 2c c4 ea 3b
       -0.016184503 -0.074806966 -0.008594088 0.007164499
0002b0 cc 75 d5 bd fd 30 df bd b1 bd 03 bd 54 1e dd bd
       -0.104228586 -0.10898016 -0.032163326 -0.107968
0002c0 cd 6e 82 bb c4 a1 88 3d fc de e7 b9 ab d2 20 be
       -0.0039804936 0.06671479 -0.0004422589 -0.15705363
0002d0 c4 cc 77 be 8f fa b6 bd 4e c1 52 bd 72 f1 50 bc
       -0.24199206 -0.08934509 -0.05145388 -0.012752878
0002e0 c8 82 aa bd dc 89 95 be af b9 8d bc 4b ee 9c bd
       -0.08325726 -0.2920674 -0.017300455 -0.07662638
0002f0 de a8 15 be b3 fd 4e 3e 04 37 d6 3e 2e 74 11 3e
       -0.14615199 0.20213966 0.4183885 0.14204475
000300 32 39 74 3e 59 7a 8d 3e 6b b8 bb 3e 8f 59 4a 3e
       0.23849943 0.27632406 0.36664137 0.19760726
000310 8b e9 bd 3d 49 fd bd 3e 64 d4 52 3d 4e 0f 07 3d
       0.092730604 0.37107304 0.051472083 0.03297358
000320 c6 98 d4 bc d6 ee 0e 3e 64 82 16 be 7b f9 9e bd
       -0.025951754 0.13958296 -0.14698178 -0.077624284
000330 ae ad 01 bc 82 41 b2 bd 16 a8 25 be 2e 51 c1 bd
       -0.007914944 -0.08703901 -0.16177401 -0.09439312
000340 5c 51 cd bb c7 5c 81 3d 9a 82 35 bb d1 22 11 3d
       -0.0062658023 0.06316524 -0.0027696253 0.035433594
000350 67 05 96 be 2e ba 8e be e8 7b 83 be 8f 46 1c 3d
       -0.29300997 -0.2787642 -0.2568047 0.038153227
000360 e3 f9 b5 bd c4 51 bf bd 02 0d a2 bc 68 5a 10 bd
       -0.08885553 -0.093417674 -0.019781593 -0.035242468
000370 5a 72 06 3e e5 5d af 3d e5 61 c4 3e 2c c7 93 3e
       0.13129559 0.08562831 0.38355938 0.28862894
000380 45 c1 e7 3c 45 60 01 bd f3 e5 02 3f a7 01 9d 3e
       0.0282904 -0.03158595 0.51132125 0.30665323
000390 8b 9e cf 3e 8a 70 db 3e 94 d6 3a 3e c1 57 4f 3e
       0.40550646 0.42859298 0.18245918 0.20248319
0003a0 86 a7 05 be 60 5d 11 3e 93 bd 4b 3e 2f ec 34 3e
       -0.13052186 0.14195776 0.19896536 0.17668222
0003b0 a9 bd e4 bd 48 db 91 3c ae 05 ac bd 39 18 48 bd
       -0.11168987 0.017804757 -0.08399521 -0.048851226
0003c0 25 cd c1 bd 7a 76 96 bd 27 bc 0b 3d 37 32 bb bd
       -0.09462956 -0.07346816 0.034114983 -0.09140437
0003d0 24 97 7e bd 8e df 3d be ff f3 54 be 83 34 8f be
       -0.062155858 -0.1854231 -0.20796202 -0.2796975
0003e0 9c 56 03 be 2d f0 87 be 82 e7 31 be d0 60 81 bd
       -0.12826008 -0.26550427 -0.1737347 -0.06317294
0003f0 c4 3f 81 be 84 a8 b3 3d a4 2c 21 3e 1f 7e 97 3e
       -0.25243962 0.08772376 0.15739685 0.2958841

conv.weight f4 [5, 1, 10, 10]
000000 14 7c 4e 3e 39 98 81 3d 35 d2 ae 3d 1e 2b 98 3d
       0.2016452 0.06327862 0.085361876 0.07430099
000010 a9 83 28 3d ef 8d 7d 3d 92 22 03 3d db 65 30 3d
       0.041141186 0.061902937 0.03201539 0.043065887
000020 02 97 e0 3d 27 cb 93 3e 9b f7 2c 3e a3 f6 e8 3d
       0.109663025 0.2886593 0.16891329 0.11375167
000030 e0 b1 04 3e 4b f3 11 3d d8 de 13 3e 5b bc 16 3e
       0.12958479 0.035632413 0.14440477 0.1472029
000040 81 31 06 3e be ae 2f 3e 70 b2 45 3e 78 dc 99 3e
       0.13104822 0.17156503 0.1930635 0.30051017
000050 9b 14 ff 3c 32 0b e0 3d 59 df 36 3e e6 84 3b 3e
       0.031137755 0.10939635 0.17858638 0.18312415
000060 8b b2 b2 bc 43 5e 3d 3b 82 28 96 bb 56 1e 9b 3e
       -0.021813652 0.0028895296 -0.0045824656 0.30296582
000070 c0 78 86 3e f5 04 e0 3d 79 38 d6 3c 19 51 09 3e
       0.26264 0.109384455 0.026149975 0.13409843
000080 17 01 50 3e 93 fb 3c 3e 67 70 2f 3e a4 b0 9f 3d
       0.20312916 0.18455343 0.17132722 0.077973634
000090 f0 2c 91 3c 17 6c 82 3e ad 8a 82 3e ed d2 86 3e
       0.017721623 0.2547309 0.25496426 0.263328
0000a0 fb b4 11 3e 41 c1 14 3e b3 78 60 3e 9b df 53 3e
       0.14229195 0.14526846 0.21921043 0.20690767
0000b0 f1 12 79 3d c8 fb 05 3e b9 8a 84 3e 8b 1b 49 3e
       0.06080908 0.13084328 0.25887087 0.19639413
0000c0 57 bc 24 3e 7e 79 21 3e 2b 23 df 3c 98 fa 29 3e
       0.16087471 0.15769002 0.02723845 0.165995
0000d0 b5 e7 99 3d 8a 61 1d 3e ca ca 9e 3d 87 2f 2a 3e
       0.07514898 0.1536924 0.07753523 0.16619693
0000e0 f1 94 4a 3e 92 13 82 3e c6 8a 00 3e 87 3e 99 3e
       0.19783379 0.25405556 0.12552938 0.29930517
0000f0 92 f1 fa 3d 82 81 6f 3c a1 1e 57 3e 61 15 28 3d
       0.12253107 0.014618279 0.21007778 0.041036014
000100 ff a1 f2 3d 58 e0 08 3e f1 94 79 3e 95 fc 9e 3d
       0.118473046 0.1336683 0.24373223 0.0776302
000110 4f 95 86 3e cc f9 f3 3d 88 db 27 3e 88 5d 2e 3e
       0.26285788 0.11912879 0.16392338 0.17027867
000120 df 2a 06 3d 2a cf d1 3d 95 9f 9d 3d 7b 0c 03 3e
       0.03275573 0.102445915 0.076964535 0.1279773
000130 1d d7 3d 3e 42 e6 58 3e 38 22 ba 3d 7e 0c c2 3d
       0.1853909 0.21181586 0.09088558 0.09475039
000140 47 47 36 3e c5 1e 3a 3d 7e d0 6d 3e 1f 89 c0 3d
       0.17800628 0.0454395 0.23224065 0.09401154
000150 12 b9 2e 3e 6e e3 32 3e d0 bb ed 3d 83 4c 42 3e
       0.17062786 0.1746957 0.11608088 0.189745
000160 fa 11 09 3e 95 ef 4b 3e 74 25 76 3e 4a 45 24 3e
       0.13385764 0.19915612 0.24037725 0.16042057
000170 2a b4 8f 3d 93 fe e7 3c 52 c0 95 3d 08 35 f6 3d
       0.070167854 0.028319633 0.07312073 0.12021834
000180 3c 59 e4 3d 68 be 51 3e 21 32 49 3e f3 e9 15 3d
       0.111498326 0.2048279 0.19648029 0.036600064
000190 70 91 04 3b c8 9b 94 3d 90 f4 47 bd bd 00 e3 bc
       0.002022829 0.072562754 -0.048817217 -0.027710313
0001a0 3d 48 b9 3c 5a a0 ca bc fc 74 ea bb 3f 2c 8b bd
       0.022617454 -0.024734665 -0.007155059 -0.06795549
0001b0 e3 47 1c be 2a 7f 08 3b 40 17 58 bd 1e 9f 8c bd
       -0.15261798 0.0020827749 -0.052756548 -0.06866287
0001c0 87 11 96 bd 8c b6 c8 bd 68 3e 7f 3c 27 1e 6a bc
       -0.07327562 -0.09800443 0.015578844 -0.014289415
0001d0 4b e0 f2 bc a8 b1 1a be 73 b4 f8 bb b2 46 b4 bd
       -0.029647967 -0.15106833 -0.0075898706 -0.088025466
0001e0 16 85 6b 3d 80 1f 34 bc 80 c1 66 bd 97 77 c6 bd
       0.057499968 -0.010993838 -0.05633688 -0.09690779
0001f0 14 94 c5 bd 26 51 b8 bd e1 e6 f2 3c ab af f8 3c
       -0.09647384 -0.08999853 0.029651107 0.030357203
000200 e9 24 24 be 36 1d 27 bd 0a bb 22 3c c0 90 4e 3c
       -0.16029705 -0.040799342 0.009932289 0.012607753
000210 b0 06 10 bd 98 e3 84 bc 76 00 85 3a 68 c0 17 be
       -0.035162628 -0.016221806 0.0010147232 -0.14819491
000220 0a fb fc bd a0 fa 61 bd 07 ad 24 be a9 db ad 3b
       -0.123525694 -0.055170655 -0.1608163 0.0053057265
000230 07 1b b9 bd 2d 7d c2 bd 41 b9 a4 3d b7 40 83 3d
       -0.09038358 -0.09496532 0.08043147 0.06408828
000240 1d 1f 46 bd 8d 4f 8c bd 66 c7 a0 bd 3a 7b 11 be
       -0.048369516 -0.068511106 -0.07850532 -0.14207163
000250 88 7d 01 be d2 48 9f bd cc ae cb bc 52 25 2a 3d
       -0.12645543 -0.07777561 -0.024863623 0.041539498
000260 cd 3d b5 bd da 23 ab bd e0 0c be 3b 27 32 aa bd
       -0.08849678 -0.083564475 0.0057998747 -0.08310347
000270 e2 ac 17 be 0e e0 fd bd 3b 09 85 bd 24 d3 04 bd
       -0.14812043 -0.12396251 -0.06495901 -0.032427922
000280 5c c0 31 3d 00 29 2b bb e4 42 81 bd 1b f7 ba 3d
       0.04339634 -0.0026116967 -0.063115865 0.09129163
000290 d9 10 be 3d 10 8a 43 bb 9e 86 18 3d b7 37 29 3d
       0.09280557 -0.002983693 0.037237756 0.0413129
0002a0 3f 8d 15 be 19 4d 03 bd d8 3c 8d bd e8 26 de bc
       -0.14604662 -0.032055948 -0.06896371 -0.027118161
0002b0 00 de 92 b9 80 f7 e8 bb 12 cf 1a 3d a1 de ee bc
       -0.00028012693 -0.0071095824 0.037795134 -0.029158892
0002c0 78 04 06 bd 9a c0 04 3d a8 f4 ab bc 47 79 c4 bc
       -0.032719105 0.03241024 -0.020990685 -0.02398361
0002d0 24 46 e6 3c 41 31 a9 3d ec 4a ab 3c 97 49 52 bd
       0.028109618 0.082613476 0.020909749 -0.051339712
0002e0 a0 69 f7 bc b2 8e 0a 3d 29 47 02 be 96 62 13 3d
       -0.030201733 0.03382749 -0.12722458 0.03598269
0002f0 f7 ae 82 bd 8d 14 03 be 48 3e c0 bd ca c3 31 bd
       -0.06381028 -0.12800808 -0.09386879 -0.04339961
000300 62 01 a8 bd 03 24 6a bd 71 92 9f 3d 87 0b b3 bd
       -0.08203389 -0.05716325 0.07791603 -0.08742433
000310 d0 0f 5e bd fc 50 81 bd 21 c6 0a be 92 59 c2 bd
       -0.0542143 -0.06314275 -0.13552143 -0.094897404
000320 79 a0 87 3c 61 da 2b be 3f 3f 03 be a3 cd eb bd
       0.016556012 -0.16782524 -0.12817095 -0.115138315
000330 95 24 94 bd ca 74 ca bd 17 d6 09 be cb 5e 0b bc
       -0.0723354 -0.09885557 -0.13460575 -0.008506487
000340 d9 d3 11 bd 69 80 f8 bd e0 f4 93 bc a4 e1 bb bd
       -0.035602424 -0.12133867 -0.018061101 -0.09173897
000350 72 26 08 be 29 7f b3 bd ad b7 f6 3c c7 a6 13 be
       -0.13295916 -0.08764488 0.03011688 -0.1441909
000360 e5 ea 8e bd ae 49 1d be b6 b3 eb bc 22 78 ec bc
       -0.06978396 -0.15360138 -0.028772216 -0.028865878
000370 83 ed 20 bd 69 18 8c bd 30 ac 94 bd f8 e7 e2 3c
       -0.03928901 -0.06840593 -0.07259405 0.027698502
000380 fe 80 cb bc 64 cb 8b bd c4 68 de 3c 9a 37 c9 bd
       -0.024841782 -0.06825903 0.027149566 -0.09825058
000390 8e bb 0b bd 65 44 9f bc 93 0d 4f 3c 5b c4 e8 bd
       -0.034114413 -0.019441793 0.012637514 -0.11365577
0003a0 c9 39 18 be f6 d8 d6 bd 63 b6 b9 3c c6 d8 2f 3c
       -0.14865793 -0.10490601 0.022669977 0.010732835
0003b0 88 6a 0c be 22 88 b4 bc 17 b8 c6 bd c3 17 c0 bc
       -0.13712513 -0.02203757 -0.09703081 -0.02344883
0003c0 71 79 0f bd cf 06 34 bd eb db 01 bd df 32 88 bd
       -0.035027925 -0.043951806 -0.03170387 -0.06650328
0003d0 ef 48 40 bc 80 ed f6 3c 2c 3b 03 bd ac a6 db 3c
       -0.011736139 0.030142546 -0.032038853 0.026812874
0003e0 75 f2 e4 3c 69 a3 eb bd eb 28 4d bd 4a e9 8d bd
       0.027947644 -0.115057774 -0.05008785 -0.06929262
0003f0 6f c1 8c bd 06 bf 87 bc 3f c9 41 bc c7 a9 41 bd
       -0.06872832 -0.01657058 -0.011827766 -0.047281053

conv.bias f4 [5]
000000 eb d7 84 bb a0 1e 1c be 0a b5 85 bd 8c 39 04 be
       -0.0040540597 -0.15246058 -0.06528671 -0.12912577
000010 3a 46 fa bc
       -0.030551065

fc1.weight f4 [64, 180]
000000 97 ac 23 bd a8 65 d1 3c 04 1f d7 3c 40 81 1e 3d
       -0.039959516 0.025561169 0.026259907 0.03869748
000010 21 5d 25 bd 14 39 86 3c 7e 64 38 3d 6c 49 d6 bc
       -0.040372018 0.016384639 0.04501771 -0.026158057
000020 e4 9d 88 3c 00 19 39 bd 02 69 3a bd 80 22 b7 bb
       0.01667685 -0.045189857 -0.0455103 -0.0055888295
000030 96 84 a6 bc 18 5a b1 bc 4c 15 86 bd ee 41 b0 bd
       -0.020326894 -0.021649405 -0.06547031 -0.08606325
000040 7c aa ed bd 18 9e db 3c 21 24 82 3d f3 c6 56 bd
       -0.11604783 0.026808783 0.06354547 -0.052435827
000050 21 da f4 bd 0a 5a 56 3c 36 dd 76 bd 52 46 7b 3d
       -0.11955667 0.01308299 -0.060269557 0.06134636
000060 2d e2 90 3d 7d 58 fd bd f5 a8 48 bc c2 76 15 bd
       0.070743896 -0.123703934 -0.012247314 -0.03649021
000070 f7 04 e6 bd 6c 33 78 bd a9 a2 67 bd 2f cf 93 3d
       -0.11231416 -0.060595915 -0.05655161 0.072172515
000080 47 2b 84 bd 3c 55 f6 3c bc 38 7c bc 58 27 81 3c
       -0.06453567 0.03006994 -0.015394386 0.01576583
000090 20 13 07 3d da 32 14 3d fd 68 83 3d 78 53 9a 3c
       0.032977223 0.03618131 0.06416509 0.01883863
0000a0 44 22 44 bd e0 c8 8c bb 65 03 86 3d 78 24 20 3c
       -0.04788424 -0.004296407 0.06543616 0.00977432
0000b0 44 f3 db bc 40 ec 74 bd 38 ad 21 bd 4a 65 76 3d
       -0.026849397 -0.059795618 -0.039471835 0.06015519
0000c0 a0 c0 31 3d e0 4a 8e bb ee 5d 59 3d 46 40 4f 3d
       0.043396592 -0.004342422 0.053068094 0.050598405
0000d0 c2 c9 64 3d cc c9 97 bd 80 5d 50 3a 0e 7a 3f 3d
       0.055856474 -0.074115366 0.0007948503 0.04674726
0000e0 a9 81 85 3d 9e 76 63 3d cb 80 ef bd 08 54 ba 3c
       0.06518871 0.055533044 -0.11694487 0.022745147
0000f0 e3 79 0f bd e7 a0 8c 3d 6f 41 a0 ba b3 b3 c4 bd
       -0.03502835 0.06866627 -0.0012226532 -0.096045874
000100 3a a8 12 bd 60 f1 90 3b 66 73 32 bd 80 da bb bb
       -0.035804965 0.0044233054 -0.043567084 -0.0057328343
000110 70 d8 9d 3b 6c f8 ab 3c 60 cc a5 bc 3a 1a 8d bd
       0.004817061 0.02099248 -0.020239055 -0.06889768
000120 08 93 61 3c 23 1e 89 3d 1a eb 07 bd 64 d2 56 bd
       0.013767965 0.06695201 -0.033183195 -0.052446738
000130 c2 d5 63 3d cb 80 24 bd f2 1d 81 bd 83 64 89 3d
       0.055623777 -0.04016189 -0.0630454 0.06708624
000140 9f 10 dd bd 30 17 3f bd 22 9c 32 3d 3c 35 30 3d
       -0.10794186 -0.046652973 0.04360593 0.04301952
000150 4a 02 73 bd bb af 60 bd 3e c9 84 bc 83 60 2d 3c
       -0.059328355 -0.05485509 -0.016209241 0.010582092
000160 a4 a5 af bc b5 a6 2c bd 05 47 0b bd e3 68 01 bd
       -0.021441288 -0.04215117 -0.034003276 -0.03159417
000170 03 b0 1a bc aa 1d a4 b9 eb 6a 94 ba 00 5d 2d 3a
       -0.0094413785 -0.0003130262 -0.0011323368 0.00066132843
000180 ba 30 6f bd 7a d3 22 3c 35 05 74 bd d6 ba 8e bd
       -0.05839608 0.009938115 -0.05957528 -0.0696923
000190 c1 45 75 bc 10 35 17 3c ff 6e 8f bd 08 38 18 bd
       -0.014970244 0.00922896 -0.07003593 -0.03716281
0001a0 4d ca 32 bd d4 29 39 bd 34 ad de bc e8 f5 44 bd
       -0.04364996 -0.045205906 -0.027182199 -0.048086077
0001b0 8f 23 8a 3d 76 2b 5f bd 16 4a 7d 3d e0 21 bb bc
       0.067450635 -0.054484807 0.061838232 -0.022843301
0001c0 32 f5 6b bd a0 fb cb 3c 98 ae 71 bd c2 39 57 bd
       -0.057606883 0.024900258 -0.059004396 -0.052545317
0001d0 ec 9c 63 3b a4 ca b4 bc 00 52 fc 39 6a 5c 80 bd
       0.0034730984 -0.022069283 0.0004812628 -0.062676266
0001e0 28 bc 97 bc b0 c0 fc bd 4b 3a 0b bd e9 0c 5e 3c
       -0.018522337 -0.1234144 -0.03399114 0.013552883
0001f0 d4 b7 fd bc f6 24 0e 3d d5 02 2c bd 11 a5 02 bd
       -0.030971445 0.034703217 -0.04199489 -0.0318957
000200 45 e2 05 be 1c 9e 45 bc fc f5 c9 3b 4d d8 73 bd
       -0.13074596 -0.012061622 0.006163357 -0.059532452
000210 cb 7e 93 3d 89 6e f8 bc 15 e8 94 bb ae 76 19 bc
       0.07201918 -0.030326145 -0.004544268 -0.009366674
000220 05 dd 91 3d ba 2a 0e bd 10 7d 09 bc f9 0f 70 bd
       0.07122234 -0.034708716 -0.008391634 -0.058608983
000230 88 6c 5a bd c4 8d 0a 3d ef f5 89 3d 44 90 a7 3c
       -0.05332616 0.033826604 0.06736361 0.020454533
000240 db c1 8b 3d d6 c6 2e bd 04 a9 91 bd 30 35 c4 bb
       0.06824084 -0.042670093 -0.07112315 -0.0059877858
000250 b0 6f f2 3c ba c0 d4 bc 51 4a 8f 3d 70 7d 39 3c
       0.029594272 -0.025970805 0.069965966 0.011321411
000260 8e c0 34 bd 30 82 e8 bd 12 d3 34 bd d2 c9 97 bd
       -0.044128947 -0.11352956 -0.044146605 -0.07411541
000270 c0 e1 a6 3a f9 4a f7 bd 2e 06 56 3c ce 43 b7 bc
       0.0012732074 -0.12074847 0.013062997 -0.022371199
000280 71 bb 81 3c 80 26 fd 3a 00 cb 75 3b 88 7d e2 bd
       0.01583645 0.0019313842 0.003750503 -0.110590994
000290 9a d0 ef bd 0c 98 44 bd a2 30 5a bd 62 27 7f 3d
       -0.117097095 -0.047996566 -0.053269036 0.062293418
0002a0 ee 24 6b 3d 00 ab 04 3c ef 1a 00 be 2b 1d 0e 3c
       0.057408266 0.00809741 -0.12510274 0.008673946
0002b0 ee 1b c6 bd 3a a6 1e bd 84 6c 88 3c c8 d5 e1 3c
       -0.09673296 -0.038732745 0.016653307 0.02756776
0002c0 5c cc 05 3d 26 ca 22 3d 8a dc 18 3d 5e a9 5d 3d
       0.032665595 0.039743565 0.037319697 0.0541166
0002d0 20 ed 5e bd b8 8e a7 3d c3 29 dc 3c 47 c4 0b 3d
       -0.05442536 0.08181518 0.026875382 0.03412273
0002e0 49 0a 32 bd 83 35 9d bc 7e f0 f9 3c d0 8e 5d bd
       -0.04346684 -0.019190555 0.030510183 -0.054091275
0002f0 8c 44 39 3e 87 33 61 3e e6 d6 53 bd bb 09 5b bd
       0.18092555 0.21992312 -0.051718615 -0.053476077
000300 b3 69 4e 3d 59 1c 3f 3e f5 f1 63 3e 67 c0 76 3e
       0.05039377 0.18663158 0.22260268 0.24096833
000310 b4 80 6f 3e 4e d4 b9 3d 73 36 dd 3c 99 ee 60 3e
       0.2338894 0.09073697 0.027003502 0.21966018
000320 f0 15 75 3e 87 2e 1f 3e 13 fa 39 3e 4d 92 f5 bb
       0.2393415 0.15545093 0.18161802 -0.007494247
000330 a9 3f cd 3c 7f 13 63 3e 9e 42 28 3e 5c 17 6d 3e
       0.02505477 0.22175406 0.16431662 0.23153442
000340 b8 74 1b 3e 62 7b b3 3d b7 02 04 3d 92 82 d4 3c
       0.15181243 0.08763768 0.03222915 0.025941167
000350 4f 98 85 3d f7 84 65 3d 6f 18 05 3d 9d 30 0b 3d
       0.06523191 0.05603501 0.032494005 0.033981908
000360 4a 1a 12 bd 39 8e 3b bd 6c 81 17 3d a0 36 9a bb
       -0.035669602 -0.04578993 0.03698866 -0.004706219
000370 7a 6e 00 3d fa a6 88 bd f3 41 6b bd fb ca 46 bd
       0.03135536 -0.06672473 -0.05743594 -0.04853342
000380 25 61 76 bd c0 e4 96 3b bc 61 96 3c a5 96 95 3d
       -0.060151238 0.004604906 0.01835715 0.07304124
000390 8c cf a9 bc 36 f8 3e 3d 40 6a e8 3c ca 09 3c 3d
       -0.020728849 0.04662343 0.028370976 0.045907773
0003a0 b0 49 35 3d 00 bc f7 b8 1a b4 7f 3d 47 10 99 bc
       0.044259727 -0.000118128955 0.062427618 -0.01868452
0003b0 d3 d9 4c bd 5c 20 92 bd 84 bb 89 bb 34 5a c1 3c
       -0.05001242 -0.07135078 -0.004203262 0.023602583
0003c0 4f 12 86 bd 0c f3 f7 3c 7f 1f fd 3c fe 10 ce 3d
       -0.06546461 0.030267261 0.030898808 0.10061835
0003d0 a1 ff 27 bd 8e 41 c0 bc f0 c0 15 3d dc e5 8b 3c
       -0.04101527 -0.023468759 0.036560953 0.017077379
0003e0 a8 85 72 bd 8e 1d 4d 3d 70 ef 12 bc d8 7f 81 3c
       -0.059209496 0.050077014 -0.008968219 0.015808031
0003f0 44 9d 87 bd 32 38 80 bc c0 f6 5b 3b 48 cd 4d 3d
       -0.06621793 -0.015651796 0.0033563823 0.0502446

fc1.bias f4 [64]
000000 73 e1 df bd 5f 12 a2 3d 5c 90 d4 3c 9b b8 83 bd
       -0.10931673 0.0791366 0.025947742 -0.06431695
000010 65 49 bf bd 5d 15 8c bd f8 b7 87 bc 9f 43 7c bd
       -0.09340171 -0.06840012 -0.016567215 -0.061587926
000020 97 ac e3 bd 36 a1 0a 3d 51 37 28 bd 01 85 71 bd
       -0.11116903 0.03384515 -0.04106838 -0.058964733
000030 72 b4 a0 bd 17 74 b6 bc b7 5a ba bd 0c 1a f0 bd
       -0.07846917 -0.022272153 -0.09099334 -0.11723718
000040 1b ce 87 bd 10 87 cf bb 68 12 7a bd 9e 0f 50 bd
       -0.066311084 -0.0063332394 -0.06105271 -0.050796144
000050 27 63 d7 3c 20 94 9c 3c e4 b9 0f 3e 7b 59 6d 3d
       0.026292397 0.0191136 0.14035755 0.057946663
000060 1a 0e d3 bd 00 14 7e 3b fd 63 c1 bd d9 6d c2 bc
       -0.10305424 0.0038769245 -0.094428994 -0.02373402
000070 93 df 25 3a 86 bb e1 bd 3b f3 c0 bd 54 27 98 bd
       0.00063275656 -0.110220954 -0.094213925 -0.07429376
000080 ba a9 cf 3d 95 52 ce 3c 39 7b 31 3d 98 8e 24 3c
       0.10139795 0.025185863 0.043330405 0.010043763
000090 4b d7 a8 bd d9 11 cc bc f6 26 33 3c 65 77 ef 3d
       -0.08244189 -0.024910854 0.010934582 0.116926946
0000a0 2f 4d 8e 3d 81 ea 70 3e 13 d1 46 3b 1e 0b 3c bd
       0.06948315 0.23526956 0.003033702 -0.04590904
0000b0 34 c2 f1 3c 8e 47 0e bd ed c3 74 bb c2 38 fe bc
       0.029511549 -0.03473621 -0.0037348226 -0.031032924
0000c0 a5 9d aa 3d 9d e2 78 3b 18 e1 19 bd 13 16 88 3d
       0.083308496 0.003797687 -0.03756818 0.06644835
0000d0 62 cc 3a bd 99 39 a5 ba 19 f2 b5 3c e2 c9 66 bd
       -0.04560507 -0.0012605666 0.022210168 -0.056344874
0000e0 96 b4 a9 bc 82 8d 2e bd fa bc b7 bc 50 f2 e1 3b
       -0.020715993 -0.04261542 -0.022428978 0.006895341
0000f0 dc 63 06 3d 27 7a 3f 3e dc 7d f4 3c fc 08 f9 3c
       0.032810077 0.18698941 0.02984517 0.030399792
