src/flatland/flat_game/results/ourmethod_noreg12/rep_learner.pth (torch_old, 312910 bytes, 33 tensors)

representations f4 [6]
00000000: 68eb 70bf 27c4 01bf 14a2 0ebc 45ea acbe
00000010: 633b d8be 97de f0bd
-0.941092 -0.5068993 -0.008705635 -0.33772483 -0.42232808 -0.11761206

representations f4 [6]
00000000: a0b4 7a3f 2ede 71bd 5595 b0be 7cee 1f3f
00000010: c94f f53d cd72 803e
0.9793186 -0.059049778 -0.3448893 0.62473273 0.119781084 0.25087586

representations f4 [6]
00000000: c5d2 293e 3e77 8d3a 01df 263f 6ac5 a8be
00000010: 944e 9cbd 4bf9 853f
0.16584308 0.0010792983 0.65184027 -0.32963115 -0.07632175 1.0466703

representations f4 [6]
00000000: af9e 87be 8b16 153f 1a3e 7bbe a8a3 57bd
00000010: 6959 c63e 03e6 8dbf
-0.26488253 0.5823752 -0.24535409 -0.05264631 0.3874009 -1.1085819

fc1.weight f4 [64, 4]
00000000: 19bc 69bf 736b 983f cecf 15c0 f4ab 1d40
00000010: 5a4a fbbe 4edb 27bd 3ec5 2fbf b52a 2b3f
00000020: 4d8a ecbe 4568 41c0 23f6 c33f 9d6d f5bf
00000030: 508e edbf a6d3 13bf 0aac 143f d217 48bf
00000040: 8b25 b83e cc2f 48bf fd64 92be d87e db3e
00000050: 5d72 713f f7da 96bf 89f0 21c0 2975 773f
00000060: 5488 dc3e af17 6d3e a3c1 08c0 7a46 943f
00000070: c337 673e 63f1 323e 321d ed3d 9316 04bd
00000080: 787a 3740 345b 7abf 2ce8 ef3c fb58 ab3f
00000090: 54b7 02be 48c8 b2bd 085d e63d 8c39 143e
000000a0: 9c6c 01bf ea92 913f 575a 1840 a9bb 4a3f
000000b0: 74c8 5ebf 2247 5fbf d2d0 2cbe a8b3 973f
000000c0: e654 19bf 4251 39bf 38ca bf3e 0ab8 803f
000000d0: e06c 7b3e 845b 11c0 2e98 dc3e 2ead 81bf
000000e0: af68 913d 3850 283c e6c8 14be 7849 c4bd
000000f0: b80c 95bf a69d 733f adf9 5e3d a78b 53c0
00000100: 6c83 0340 ff01 17be ec30 a4bf 35a3 0bbf
00000110: f4c7 e93f 903e 0040 0eb9 59be 1854 1e40
00000120: 587d 07be 18fa 013e 3879 bbbd a8a9 933d
00000130: ce18 873f d0f4 db3f 3d77 b33f e412 aabf
00000140: cf4d a6bf 49ba 893f a64a 20c0 7cc5 4abd
00000150: 6290 1ac0 59cb 843f 7b55 2840 3347 133f
00000160: ce5b ba3f d391 a43f f775 03c0 64bf 8f3f
00000170: 89f8 e1bf dd45 8c3f 076d 253f 9204 c4bf
00000180: 3b58 65bf 08ca a5be 4423 3abe 9e1c 8b3f
00000190: f445 bebd 8c77 733f 4f42 eebf 7a0c b43f
000001a0: baec 263d 50db ff3e 2d42 673f e807 ae3f
000001b0: c87c e6bd 004c 643a 40ee ba3c 8874 35be
000001c0: 5bdd 9bbf f45b 4d3f 41e0 dabe 2559 20be
000001d0: 11ca d53d 8f53 5bbe 1b48 ce3d bc3e 9d3e
000001e0: 7974 133f 25ee 34c0 2898 43bd ca6f 2740
000001f0: 9e1f 16c0 e91a 4040 0e73 1040 cb9e eb3d
00000200: 64a6 3dbf d60a f13f 96dc 3640 fe7a 57bf
00000210: edac 873f a2d4 c0bf bb15 acbe 7225 39c0
00000220: 4f46 c03e a768 9dbf 524f 233e 2ecf 0f3f
00000230: 8e04 f53f 7b5d b2bf e1a7 123f 0454 c2bf
00000240: 6055 593e 0663 aabd c2c4 4abe 3bad 3d3e
00000250: c302 9bbe 593c 2a3f 22ad a23f 9660 e0bf
00000260: a98f ffbe 2b78 a5bf f4ad cdbf ce68 3fc0
00000270: 7390 06c0 d4dd dbbf bb0c b1bf 2add 09c0
00000280: 60c8 0b3f 5570 a0bf 35b3 cb3f c4ef cbbf
00000290: 8a5a a1bf 902c 84bf 8b5b 8b3f 7723 50c0
000002a0: 74ab 2140 2a9e 2f3f f450 c2bf 8699 753e
000002b0: 1c09 96be 8b29 51be c4e3 4dbf a1a4 c93e
000002c0: 6832 813e d8ed 62be cb85 dd3f 02dc 1740
000002d0: 3890 983d 901a 193d 20ed e03c 5a44 8e3e
000002e0: 2d20 2940 c1fd 04bf d9d5 2b3f 4734 0b3f
000002f0: 7b81 bb3f a438 33bd 80ef 37bf 8629 673e
00000300: e2eb 86bf fde8 35be e3da b4bf 393f 853f
00000310: 487b 31be 06c5 b03e f28a 89be e0ce e1bc
00000320: 76f0 5a3f 5ae0 bb3f 4a0a 1d3f a980 25c0
00000330: ec86 dbbf deb9 acbf 42aa 6440 b25a a5bf
00000340: 5e40 663f c8bb acbf 169c 253b 6b8c 6b3f
00000350: 39bc 0d3d aa57 0f40 0dbd d6bf 7f2b 0abf
00000360: a21f b8bf 7b37 8ebd f035 0640 43c6 123f
00000370: a33f 5c3f 3ef4 68bf 78d9 42c0 6e64 1fc0
00000380: 215d 5640 5842 793f 1cd5 94bf 7312 16bf
00000390: 1d70 4f3d dd26 22bf 9518 15bf 75f5 a43f
000003a0: c398 1b3f 28df acbf 8892 1f3f 89f0 403f
000003b0: 1470 663e 989f 81bc 049d e6bd f824 3c3f
000003c0: dac8 a9bf 1368 09bf 7e9c 223f d274 c2be
000003d0: 9473 73be 63d5 f6bf b6bf e43f 3443 8a3f
000003e0: f3b5 b93f b905 7abf 80c1 5cbe 13b4 2040
000003f0: c4c9 74be b0b6 f13d 10ba 22bd 4051 1fbd
-0.9130264 1.1907791 -2.3408084 2.4636202 -0.49080163 -0.04098063 -0.6866034 0.6686204
-0.46199265 -3.021989 1.530949 -1.9174076 -1.8559055 -0.57744825 0.5807501 -0.78161347
0.35966143 -0.7819793 -0.28592673 0.42870212 0.9431513 -1.1785573 -2.530306 0.9666315
0.4307276 0.23153566 -2.1368186 1.1584008 0.22579865 0.17474894 0.11577834 -0.03224809
2.86685 -0.97795415 0.029285513 1.338653 -0.12765247 -0.08729607 0.11248213 0.14475077
-0.5055635 1.137296 2.380514 0.79192597 -0.8702462 -0.87217915 -0.16876534 1.1851702
-0.5989517 -0.72389615 0.37458968 1.0056164 0.24553251 -2.2712107 0.43084854 -1.0130975
0.07100045 0.010273032 -0.14529762 -0.095843256 -1.1644506 0.9516243 0.054437328 -3.3053987
2.0548964 -0.14746855 -1.282743 -0.5454591 1.8264146 2.0038185 -0.21261999 2.4738827
-0.13231409 0.1269306 -0.0915398 0.07210094 1.0554445 1.7184086 1.4020764 -1.3287015
-1.2992495 1.0759975 -2.5045562 -0.049504742 -2.4150624 1.0374557 2.6302173 0.57530516
1.4559267 1.2857002 -2.054075 1.1230283 -1.7653972 1.095882 0.6461949 -1.5313895
-0.89587754 -0.323807 -0.18177515 1.0868108 -0.09290686 0.9510429 -1.8613986 1.4066308
0.040753104 0.4997201 0.9033535 1.3596163 -0.11254269 0.00087088346 0.022818685 -0.17720234
-1.2176927 0.80218434 -0.42749217 -0.15659006 0.10438932 -0.21418594 0.10072347 0.30711925
0.575996 -2.8270352 -0.04775253 2.616198 -2.3456798 3.0016425 2.2570224 0.11504897
-0.74082017 1.8831432 2.8572135 -0.84172046 1.0599648 -1.506489 -0.3361033 -2.8929105
0.3755364 -1.2297562 0.15948227 0.56175506 1.9142015 -1.3934778 0.5728741 -1.518189
0.21223974 -0.083196685 -0.1980162 0.18523113 -0.30275545 0.66498333 1.2709086 -1.7529476
-0.49914292 -1.2927297 -1.6068711 -2.9907718 -2.1025665 -1.7177072 -1.383201 -2.1541238
0.54602623 -1.2534281 1.5914065 -1.5932546 -1.2605755 -1.0326099 1.0887312 -3.2521646
2.5260897 0.68600714 -1.5180955 0.23984346 -0.29303825 -0.20426004 -0.8042567 0.39383414
0.2523377 -0.22161043 1.7306455 2.3728032 0.074493825 0.037378848 0.02745682 0.27786523
2.6425889 -0.519497 0.6712318 0.54376644 1.4648889 -0.04375519 -0.71849823 0.22574434
-1.0540736 -0.17764659 -1.4129299 1.0409919 -0.17332184 0.34525317 -0.2686382 -0.027564466
0.85523164 1.4677842 0.61343825 -2.5859778 -1.715055 -1.3494222 3.5728917 -1.2918303
0.89941967 -1.3494806 0.0025270036 0.92011136 0.03460333 2.2397256 -1.6776444 -0.5397262
-1.4384654 -0.06944176 2.097042 0.57333773 0.860346 -0.90997684 -3.0445232 -2.4905047
3.3494341 0.9736686 -1.1627536 -0.586219 0.05064403 -0.6334055 -0.58240634 1.2887408
0.6077997 -1.3505602 0.62332964 0.7536703 0.22503692 -0.01582317 -0.11260417 0.7349391
-1.326442 -0.5367443 0.6352004 -0.37979752 -0.23774558 -1.928387 1.7871006 1.0801759
1.4508651 -0.9766498 -0.2155819 2.5109909 -0.23905092 0.11802423 -0.039728224 -0.038895845

fc1.bias f4 [64]
00000000: aad7 933e ba80 b73e 4da1 0d3f 7a39 a83e
00000010: 44df c23e 83a6 383f b59b dabe 43f5 d7be
00000020: 842a 9d3f 4a29 ffbe 96e0 40be c924 2f3f
00000030: 1951 0c3f eb61 033f 9049 82be 16a6 a7bd
00000040: 533b 693f 8f3c 853f 947d adbe fbc7 283f
00000050: 609c 60bf 29f4 443e ccdd ce3e 4115 5c3e
00000060: 9cd2 9e3e f2ae 363e b910 ea3e 3a4e 97be
00000070: e24a abbd a17e fdbe 41bc 1d3f 0521 1bbf
00000080: 0cba ad3e c183 eebe 3f7e 8c3e e698 2d3f
00000090: fa65 d8be 0289 f43d 7937 36be 901e 4e3e
000000a0: 08cb 893f 7b53 343c c30b bc3e 9c09 453e
000000b0: 1a4a 423f bc0a e6be ad15 a33e 67ee 543e
000000c0: 0c6a b43d 125a ffbe b9ff 753c 59e1 373f
000000d0: 03e9 e53e 7bed a03e 5f68 7d3e 8006 38bf
000000e0: 06c0 723e ad1d bf3e 371d 023f dc0b d73e
000000f0: dd58 953e 9bc5 c93c 1361 983f 9a8a c3be
0.28875476 0.35840398 0.5532425 0.3285635 0.38060963 0.72129077 -0.4269692 -0.42179307
1.22786 -0.4983619 -0.18835673 0.68415505 0.54811245 0.51321286 -0.2544675 -0.08185975
0.91106147 1.0409106 -0.3388487 0.65930146 -0.8773861 0.19233765 0.40403593 0.21492483
0.31020057 0.17840174 0.45715883 -0.2955187 -0.08363892 -0.49510673 0.6161538 -0.6059726
0.33931005 -0.46584895 0.27440068 0.6781143 -0.42265302 0.11940195 -0.17794599 0.20128846
1.0765085 0.011006231 0.36727723 0.19241947 0.7589432 -0.44930065 0.31852475 0.20794068
0.08809289 -0.49873406 0.015014582 0.7182823 0.44904336 0.31431183 0.24746846 -0.7188492
0.23706064 0.37327328 0.5082583 0.42001235 0.2916936 0.024630358 1.1904625 -0.38191682

fc2.weight f4 [180, 64]
00000000: a72a f1be d897 b53e ff62 663e 4ec3 e73d
00000010: a345 0e3e 344c c9bc d7ab 0c3e f002 ca3d
00000020: ba47 fa3d f01b 403c 4120 703e be06 1a3e
00000030: 5ef9 b23e 1adc 933c 8fdf 433e e55e ec3c
00000040: 9f4b b53e 3479 0f3e f00c 1d3c 3264 9e3d
00000050: cf1a b13e f48a 803e 8359 9f3e 6825 613d
00000060: c9ee 2e3e cdc5 193e b5c0 d13e d658 c43d
00000070: 853f fb3d edfd 20bd 07d4 85bd 9bab a13e
00000080: dcc9 a63c 0635 f4bd a96d f0bd 895d a5be
00000090: 7923 3cbd 9115 433e 6925 283e 4e1f d2bd
000000a0: 9b9f 053e 92ac 273f d18f 943e ae8a db3e
000000b0: 5d31 50bd 50d8 563d 015d 18be 5b72 243e
000000c0: 0e10 7a3e 6cad a0bd 3995 92bd 0da6 84be
000000d0: da87 8f3e 516a 2c3e 00a0 5d3e e7ac 733d
000000e0: 68ce 30bd def4 8e3e 7a9b 5b3e f5ab cc3d
000000f0: 491a 503e 122f 973e f587 4a3e ce26 bf3d
00000100: 58d8 363f 810e 2f3f 2dbc 39bf 6f3e 7d3f
00000110: 5201 c53e 3878 ae3e 21ae ee3e 93d3 913d
00000120: fe30 923e 94c6 25bd 8530 713f 4de1 b83f
00000130: 8c9c 0a3f 1ce2 34be 7042 42bd 1aba e3bf
00000140: efe9 f1bd 6bfa babe da25 ec3d 4007 18be
00000150: 2345 87bf 524d e73f 2475 bb3d 402b a9ba
00000160: 385c 833f b097 cb3e 0caa 123f 94bc 153d
00000170: f748 043f 3a20 b53c 1c7d 5fbd 713e 253f
00000180: 042c 0040 0fa7 273f 2248 b13e a061 45bd
00000190: acb0 cebd 60bb 243f 43f0 0bbe afde fc3f
000001a0: 5dd9 b3bd c9dc b63f 8f9f 913d e793 0f3f
000001b0: be7b 993e 6c35 06bd b773 8bbe c551 a13d
000001c0: 24cf b93f 446c 3dbd 0f36 013f 2de6 86bf
000001d0: 7892 323f f451 17bf 83bd aa3f 7366 95bd
000001e0: dce4 03bf bd8f 8f3e c7b7 0f3f 1678 a43e
000001f0: 8323 233f 3ead 803d 667f c13e 001e d5bd
00000200: 98ff 303f 5138 893e 0861 b0bc 6ef4 3a3e
00000210: 6995 913e 12e8 053f a26a 893e 3100 9c3d
00000220: 29dc 263f 40f7 453b c9e4 e9bd fd28 4d3f
00000230: ac0a c03e 9867 a53e 76d6 903c 354f b23d
00000240: b3fc 103f 2e42 24bf 7834 b2bc e1eb 46be
00000250: 9598 45be d82a d53f 1fca eb3e aaa1 bc3e
00000260: 5280 203f 70cc fc3e 91ab 4ebe c0d9 313b
00000270: 8296 1c3e 7c76 42bc 5313 203f 5079 37be
00000280: a1bc de3e 566d 26be 2329 1c3f 4cbf 6c3e
00000290: 44af 1e3a 9d34 1b3f 8325 05bf c327 bdbe
000002a0: 9553 c53d c0a0 893d bc89 013f 44b1 7c3e
000002b0: 9975 13bf cc32 65bd 6c5f 023f 0715 0a3f
000002c0: 68a3 6b3f 7856 eb3d 1ecd c23d 4958 4fbe
000002d0: 43e2 f93e 2b63 26bd 71ba 1dbf 23d7 493e
000002e0: 3d06 8dbd b12e 2d3e 70e1 f33e 3ec9 203e
000002f0: 928d e13e 924e abbd 31dc f23e 581b 4d3d
00000300: 4059 3a3e 5f53 403d b0ec b63e 7bd9 843f
00000310: c5be ca3e bb23 b23f 7ec1 833d 7012 6ebc
00000320: 06d0 1a3f e281 f33d bfa7 cebe a7d3 8e3d
00000330: df7f 4d3f 8211 783f 5f16 fdbc a316 b43f
00000340: 14ec 31bd 1bca 07be d88e ae3c 033c 9cbf
00000350: d705 883f 638f aa3f 8146 2f3f b1c9 bd3f
00000360: 72b4 2abe ebeb 013f 1271 eebd 80d8 0bbb
00000370: 190e b13e a52b 523e 52f5 d63f 75de 2440
00000380: 3398 babf 2b2b 0dbf 672f 803f b622 053f
00000390: 8953 7ebd 1089 ba3e d195 18bf ba69 afbe
000003a0: 110d 6b3e 1559 0a3e b95e 673e dbe0 ee3d
000003b0: 7fe7 1c3f c000 e7bb 10a5 ec3e adee cc3e
000003c0: c5e2 a93d 06a2 a13d c614 c4bf 9978 c43f
000003d0: 2eff 843f 456e 093f 3d61 283f 5aa9 c2be
000003e0: 792f 47bf e1fd 3cbd a57b 3c3f f718 a13e
000003f0: 34dc a13e 42c8 cb3f b85f c43e 268d d93d
-0.47102854 0.3546741 0.22498702 0.11316548 0.13893752 -0.02457247 0.13737427 0.098638415
0.12220712 0.011725411 0.23449804 0.15041634 0.34955877 0.018049289 0.1912825 0.028853843
0.35409257 0.14011079 0.009585604 0.077339545 0.34590766 0.25106013 0.3112298 0.054967314
0.17083277 0.15016861 0.40967336 0.095872566 0.12267975 -0.039304662 -0.06534582 0.31576237
0.020359926 -0.11924176 -0.11739666 -0.32297924 -0.045932267 0.19051196 0.16420521 -0.10259877
0.13049166 0.65497696 0.29015973 0.42879242 -0.050828326 0.052452385 -0.14879228 0.16059248
0.24420187 -0.078455776 -0.07157368 -0.25907937 0.28033334 0.16837431 0.21643066 0.059491064
-0.043165594 0.27921194 0.21446028 0.09993736 0.20322527 0.295281 0.19778426 0.09333573
0.71423864 0.68381506 -0.7255276 0.9892339 0.3847757 0.34076095 0.46617225 0.07120433
0.28553003 -0.040472582 0.9421466 1.4443756 0.5414512 -0.17664379 -0.04742664 -1.7791169
-0.118121974 -0.3651918 0.11530657 -0.14846516 -1.0567974 1.8070471 0.09153202 -0.0012906566
1.0262518 0.39764166 0.5729072 0.036556795 0.51673836 0.022110093 -0.054562673 0.64548403
2.0026865 0.65489286 0.34625345 -0.048188806 -0.10092291 0.6434841 -0.13665871 1.9755458
-0.08781693 1.4286128 0.071105115 0.56085056 0.2997722 -0.03276579 -0.2723672 0.078769244
1.4516339 -0.04624583 0.5047311 -1.0538994 0.69754744 -0.59109426 1.3339084 -0.07294931
-0.51521087 0.2803935 0.56139797 0.32122868 0.6372606 0.06283043 0.3779251 -0.10406113
0.69140005 0.26800779 -0.021530643 0.18257305 0.28434303 0.52307236 0.26839167 0.07617224
0.6517969 0.0030207187 -0.114205904 0.8014067 0.37508142 0.32305598 0.017680388 0.08706514
0.5663559 -0.6416348 -0.021753535 -0.19425918 -0.19296487 1.66537 0.46052644 0.3684209
0.626958 0.49374723 -0.20182635 0.0027137846 0.15291789 -0.011869069 0.62529486 -0.17917371
0.43503287 -0.16252646 0.6100027 0.23119849 0.00060533383 0.60627156 -0.52010363 -0.36944398
0.09635083 0.06720114 0.5060079 0.24676996 -0.57601315 -0.055956647 0.5092685 0.53938335
0.92046213 0.11491102 0.09511779 -0.20248522 0.48805436 -0.040621918 -0.6161261 0.19710974
-0.068859555 0.16912343 0.47632933 0.15701768 0.44053322 -0.083645955 0.47433618 0.050074905
0.18198109 0.04695451 0.35727453 1.037887 0.3959867 1.3917154 0.0643339 -0.014530763
0.6047367 0.118900076 -0.40362355 0.06973963 0.8027324 0.96901715 -0.030894456 1.4069408
-0.043438032 -0.13260691 0.021308348 -1.2205814 1.0626782 1.3325008 0.68466955 1.4827176
-0.16670397 0.5075061 -0.1164266 -0.002133876 0.34581068 0.20524462 1.6793616 2.5760777
-1.4577698 -0.55143994 1.0014466 0.5200609 -0.062091384 0.36432695 -0.596036 -0.3426035
0.22954203 0.13510545 0.22594728 0.116639815 0.61290735 -0.00704965 0.46219683 0.40025845
0.08295206 0.07892232 -1.531884 1.5349303 1.0390375 0.5368388 0.65773374 -0.3801983
-0.7780681 -0.046140555 0.73626167 0.3146436 0.31613314 1.5920489 0.38354278 0.10622625

fc2.bias f4 [180]
00000000: 9683 063e cda6 773e 2188 663e 12a1 883e
00000010: 6435 29bd 6846 9b3e d081 6c3e 096d 08be
00000020: 615d 02be 88af b3bd 50bb 1bbe f306 aa3e
00000030: f02b 15bd 6055 f8bd be7f 15be e5c0 d8bd
00000040: e0df 47bd 5c08 3dbe 35d3 f3bd 3500 9cbd
00000050: 9ba8 fdbc ce22 9bbd 5b87 fcbc 94b4 cf3e
00000060: 0024 baba 3b55 4abe b949 a6b8 a3b1 a43b
00000070: d141 b8bd 1787 1d3e 6863 0e3f 387a 2d3d
00000080: 55d4 c4bd 10b6 4fbe ea26 9b3e e8cc cf3e
00000090: d716 b53e 4c0a b43c f081 37bd 3c0d e2bd
000000a0: 4577 903e 06ea 473e bd95 bc3e 2db7 e5bd
000000b0: e283 45be 8a8a c0bd 642a 883b 4a23 633e
000000c0: cbc9 243f 523b debb 4460 273d 6962 98bd
000000d0: b128 fc3c 4e26 47bc a0fe ba3e 26cb b73c
000000e0: 67f9 3fbd 3863 5bbb aedd 0fbd 0813 7dbd
000000f0: 8989 d43e b850 2cbc 414c 81bd 811f 40be
00000100: 7ce8 06be 51ae 92bb 6949 9c3e a1af 5c3d
00000110: 2f7a acbc aa06 253e 2f7e 803e 9121 413e
00000120: e19f 933e b316 1dbe 4684 aa3e fc5e 723d
00000130: ac53 4c3e 5a11 7dbe 3b0e 6abd 9328 13be
00000140: 0783 ffbb b519 8fbd 60a7 133d 8f46 bfbd
00000150: f88b 18be 59d3 58bd 5e49 36be 7328 62be
00000160: 19ed 82bd e262 28bd eef9 d1bd 1ddd e6bb
00000170: bd79 713b a1c5 53be 110a 083d 5625 48bd
00000180: dd99 5f3e 640d 23be 810b 4f3e 7db3 d9bd
00000190: 6d97 d2bd f0a2 84bd c370 b13d 6dd9 093f
000001a0: 373d 223c d17d 273c 1c20 90bd ac0f cdbd
000001b0: 7c97 febd bd5a e03e d44b 6a3d 98b5 1e3f
000001c0: c8f0 133e f27c da3e f9a4 793d 5433 913e
000001d0: 82b1 29be dc45 eabc eac7 82bc 383b 743e
000001e0: 0453 eebd 4089 293d 301c 56be bd19 0ebc
000001f0: 0300 803c af7a 983d 3e16 a2bd 5e3a f6bd
00000200: 610e b23b 17f3 ccbd 7327 3dbe 0296 f73d
00000210: 1428 09be 720b 3e3c 8c3d 9a3c 94b0 c7bd
00000220: 24b9 173d 55ed ce3e 2e35 9b3e deec d13d
00000230: 556f 2c3d da51 dabd de2e 293d 5ff1 1ebe
00000240: 15bd 063e 4122 1abe 6183 5abd 7d27 e8bc
00000250: 92e8 833e f8f2 bb3c 1fc0 ff3e ef8a 423d
00000260: 2a32 b03a 7152 45be 4c3d 653c 20ca a13d
00000270: 62a8 2abd fe4c 5fbd 977c 2dbd 0d07 97bc
00000280: 5a65 c83b b516 1c3e 0c45 813d 23f6 ab3b
00000290: d082 d1bd 3ff4 4bbe 641e 4fbe e9ab 1dbd
000002a0: 5da4 0a3e ac2e 79bc 23e8 f3bd 3b5e febd
000002b0: db2e 1e3d a0ca 1c3e cd40 023f a7fd 953e
000002c0: 5266 993e a862 b93d 0317 65be e50c fa3d
0.13136134 0.24184723 0.22512867 0.26685387 -0.041310683 0.30327153 0.23096395 -0.13322844
-0.12730934 -0.08773714 -0.15208173 0.33208427 -0.036418855 -0.12125659 -0.14599511 -0.10583667
-0.04879749 -0.1846022 -0.11905519 -0.07617227 -0.030964186 -0.07574998 -0.030826261 0.40567458
-0.0014201403 -0.19759075 -7.929229e-05 0.0050260588 -0.089969285 0.15383564 0.5562043 0.042352885
-0.096108116 -0.20284295 0.30303127 0.4058602 0.35368988 0.021977566 -0.044801652 -0.110376805
0.28215995 0.19522867 0.3683299 -0.11216579 -0.1928859 -0.09401424 0.004155444 0.2218143
0.6437041 -0.006781974 0.04086329 -0.07440645 0.030781122 -0.012155129 0.36522388 0.022435736
-0.046868708 -0.0033475887 -0.03512352 -0.061785728 0.4151118 -0.010517292 -0.063133724 -0.18762018
-0.13174623 -0.0044763465 0.30524758 0.05387843 -0.021054355 0.16115823 0.2509627 0.18860461
0.28832915 -0.1534069 0.33304042 0.059172615 0.19953793 -0.2471365 -0.057142477 -0.14370947
-0.007797602 -0.06987325 0.036048293 -0.0933963 -0.14897144 -0.05293593 -0.17801425 -0.22085743
-0.06392879 -0.041109927 -0.102527484 -0.0070454017 0.0036846243 -0.20680858 0.033212725 -0.04886373
0.21836038 -0.15923077 0.20219232 -0.10629938 -0.102827884 -0.0647639 0.08664086 0.5384739
0.00990229 0.010222868 -0.070373744 -0.10012755 -0.12431237 0.43819228 0.05720122 0.6199584
0.1444732 0.4267345 0.060948346 0.28359473 -0.1657162 -0.028597765 -0.015964467 0.23850715
-0.11636928 0.041390657 -0.2090919 -0.008673129 0.015625006 0.07445275 -0.079143986 -0.120228514
0.005433843 -0.10007303 -0.1847208 0.120891586 -0.13394195 0.011599408 0.018828176 -0.097504765
0.0370418 0.40415445 0.3031401 0.10250257 0.042098362 -0.10660143 0.04130446 -0.15521763
0.13158067 -0.1505213 -0.05334795 -0.028339142 0.25763375 0.022943005 0.49951264 0.04749578
0.0013442684 -0.1926973 0.013991665 0.078998804 -0.04166449 -0.054516785 -0.042355146 -0.01843598
0.0061155977 0.15243037 0.06311998 0.0052478476 -0.10230029 -0.19917391 -0.20226437 -0.038494024
0.13539262 -0.015208881 -0.11909511 -0.12420317 0.038618904 0.1531167 0.5088013 0.29295084
0.29960877 0.0905202 -0.2237206 0.12209491

conv.weight f4 [5, 1, 34, 34]
00000000: c9b6 e1bd 883e 893d 1302 b5bc 3f06 99bd
00000010: 31df 1dbe 3b14 b4bd f194 c4bd 4c8a 07be
00000020: 39de 30be fe7a 3dbe 3f2f 68be 7ff4 f0be
00000030: 0d12 01bf 9ace bfbe 2b9f 33bd cf54 02be
00000040: 754c 09be f2f7 7ebe f8cc 47be 6634 80be
00000050: 5015 3ebd 20ae f3bd 32bf 1fbd f408 0abd
00000060: 68be e93d 3219 d53d e886 4e3d f4fb df3d
00000070: 18ed b03d 5df4 313c 9711 d23c 2219 9f3c
00000080: 3602 b1bc d2be a83c 9d62 20bd bbf3 49bd
00000090: bf76 20be 6d2c cebd 2ce2 07be bd16 76be
000000a0: f93a 2abe c2b3 54be f9fd e9be 8ee0 bcbe
000000b0: 0262 73be 97d0 e1be a75f ebbe 4127 07bf
000000c0: 3da3 99bd 6d32 f2be 947e afbe 9f25 abbe
000000d0: 3bad cbbe 3924 d6be b5f9 6ebe eef8 a9bd
000000e0: d60c 04bd 9bc3 cfbd 56d8 073e cb3b c73d
000000f0: 11f5 d83d 739c fa3d 4ca5 d93c b033 97bd
00000100: 3ca2 da3c 8895 eabb 5c6c 66bc 9515 a5bc
00000110: 2f6c 62be 5099 753c 08c5 ccbd 7c1e bdbd
00000120: dcad c8bd 0991 bfbe 1363 e2be 77de a6be
00000130: b581 d5be b1d2 e8be 6d24 d7be d4e8 12bf
00000140: ba68 3fbf 0bd9 3bbf ace5 b6be c1f3 cfbe
00000150: 99e7 6dbe d067 d5be e5fe 28bf eefa 4fbf
00000160: 5515 9ebe 52a4 7ebe b54d aebd 9a3b b6bd
00000170: 6de0 2d3e 8627 033e 75a0 c33d 3d02 ee3d
00000180: ea46 c93d ce38 88bd 00e5 913c 93d6 1cbd
00000190: 0ac8 a93c 828e 993c c8d6 1bbe ed15 a9bd
000001a0: 3e9a 05be 606b efbd 4638 99be 5480 afbe
000001b0: 1037 d6be 64ec ebbe 0c9f a8be bfc9 d2be
000001c0: 857d 3fbf 15ab 60bf e32d 47bf 847d 45bf
000001d0: 55a2 39bf ac72 f5be c6cd d9be 7561 38bf
000001e0: b42b 2ebf 5463 1abf fb16 bebe 5710 a0be
000001f0: e562 58be 8cd8 21be 3817 223e 4181 253e
00000200: f38c 123e 291b a73d e39a 953d 3954 46bd
00000210: bae5 8b39 dcee 71bc b058 de3c a0ea 1e3c
00000220: 676d 863d dba7 da3c 087b 1e3c b53a 4dbd
00000230: 58f0 e5bd 268c 31be 220e 52be 4260 94be
00000240: ce3e 82be 9002 babe 5a1e b1be cf80 1bbf
00000250: d6c8 18bf 4115 0bbf d46f 31bf b079 efbe
00000260: 98b5 e3be 291b eebe 9f2b f1be fd83 60be
00000270: a896 dfbe dafb 85bd 8ce1 d6bd f0ff a03c
00000280: 78c7 613e 431b ad3d a320 133e 83f9 8e3d
00000290: d16e 1ebc 8dd8 aebd e9dd 29bd 1656 b2bc
000002a0: 5ad2 babc bfb9 47bd cc56 b8bc 3265 d93a
000002b0: 63a1 47be 576a 1ebe 56ca 16be ef5f d1be
000002c0: b73d fbbe 630c ecbe 64a7 f6be cd3e 1dbf
000002d0: 83b5 d1be 79ba 34bf c05e 78bf b79c 5cbf
000002e0: 75cb 56bf c114 48bf b3ac 63bf 401d 4cbf
000002f0: bce4 07bf 42cc 1abf f67f 9ebe 31ec aabd
00000300: ab97 23be cd97 80be 81c1 613e 6e4e 133e
00000310: afea 133e 9a9e d23d 99ab f6bc c9fe 58bd
00000320: 838a 233c faa1 ca3c b004 443c 34c3 c1bb
00000330: 0eaa 3ebd e280 5dbd 0126 9cbe 8ebe a5be
00000340: 47a2 f3be cd3f edbe ee2c 0dbf 72b7 f6be
00000350: 6711 34bf af6c 27bf b486 88bf 63cf 72bf
00000360: d25b 87bf 418e 98bf 4cf3 82bf 9960 6fbf
00000370: 7bf1 67bf ce2f 52bf 1cd2 d6be 1c43 2ebf
00000380: 79ef 2cbf a099 0dbf a61e 9ebe 6bc2 babe
00000390: 0c3a 483e a742 393e f46e df3d c88c 013e
000003a0: 10b9 063d 5e3f 533c 44ce 063d d8b7 06bd
000003b0: c3d7 1abd 3469 553b 6563 07be 1412 3abe
000003c0: 74ee adbe 6179 dfbe de27 06bf b23e 25bf
000003d0: eb96 37bf f8fe 3bbf f7fe 48bf 8461 64bf
000003e0: 4eb4 96bf 10ac 94bf ffce 9fbf 01ea aebf
000003f0: f382 8ebf 9281 93bf 6b3d a2bf 3dbb 83bf
-0.110211916 0.0670138 -0.022095716 -0.074718945 -0.15417172 -0.08792921 -0.09598721 -0.1323635
-0.17272271 -0.18503949 -0.22674273 -0.47061536 -0.5041817 -0.37462312 -0.043852966 -0.12727664
-0.13408072 -0.24899271 -0.19511783 -0.25039977 -0.046407044 -0.11898446 -0.039000697 -0.033699945
0.1141327 0.10405196 0.050421625 0.10936728 0.08638972 0.010861483 0.025643153 0.019421164
-0.0216075 0.020598803 -0.039156545 -0.049304705 -0.15670298 -0.10067067 -0.13269871 -0.24032111
-0.16624059 -0.20771697 -0.45701578 -0.36890072 -0.23767856 -0.44104454 -0.45971414 -0.5279427
-0.07501838 -0.47304097 -0.3427626 -0.3342714 -0.39780602 -0.4182451 -0.23337443 -0.08299433
-0.032238804 -0.10144731 0.1326612 0.097282015 0.10593618 0.122368716 0.026568078 -0.073829055
0.026688688 -0.007158939 -0.014063921 -0.020151893 -0.22111581 0.014990166 -0.09998518 -0.0923433
-0.09798786 -0.3741534 -0.44216213 -0.32591602 -0.4170052 -0.45473245 -0.42019978 -0.5738652
-0.74769175 -0.73378056 -0.357221 -0.40615657 -0.23232879 -0.41680765 -0.6601394 -0.81242263
-0.3087565 -0.2486737 -0.08510915 -0.08898087 0.16980143 0.12808046 0.09552089 0.11621521
0.09827979 -0.0665146 0.017809391 -0.03829057 0.020725269 0.01874471 -0.15218651 -0.08256135
-0.1304712 -0.11690402 -0.29925746 -0.34277594 -0.41838884 -0.4607879 -0.32933843 -0.41169545
-0.748009 -0.8776105 -0.7780439 -0.77144647 -0.72513324 -0.4793905 -0.42539805 -0.7202371
-0.68035436 -0.6030781 -0.37126908 -0.31262466 -0.21131475 -0.15805262 0.1582917 0.16162588
0.1431158 0.08159477 0.07304933 -0.048420165 0.00026683306 -0.014766421 0.027141899 0.009699494
0.065638356 0.026691368 0.009672888 -0.050104816 -0.112274826 -0.17338619 -0.20513204 -0.2897969
-0.2543854 -0.3633008 -0.3459347 -0.6074342 -0.5968145 -0.54329306 -0.6931126 -0.46772528
-0.44474483 -0.46505097 -0.47103593 -0.2192535 -0.4366963 -0.065421775 -0.104922384 0.01965329
0.22048748 0.084524654 0.14367919 0.06981184 -0.009669975 -0.085373975 -0.041471396 -0.021769565
-0.022805382 -0.048761126 -0.022502325 0.0016585945 -0.19495158 -0.15470253 -0.14725623 -0.40893504
-0.49070522 -0.461032 -0.48174584 -0.6142395 -0.40958795 -0.70597035 -0.9701958 -0.8617663
-0.839042 -0.7815667 -0.88935393 -0.7973213 -0.53083396 -0.6046792 -0.30957 -0.08345831
-0.15975825 -0.25115815 0.22046472 0.14385387 0.14444993 0.10284157 -0.030111121 -0.052977357
0.009981754 0.02473544 0.011964008 -0.0059131626 -0.046548896 -0.05407799 -0.30497745 -0.32371944
-0.47584745 -0.4633774 -0.5514668 -0.48186833 -0.70339054 -0.65400213 -1.0666108 -0.94847697
-1.0574896 -1.1918412 -1.0230498 -0.9350677 -0.90602845 -0.82104194 -0.41957176 -0.6807115
-0.67552906 -0.5531254 -0.30882758 -0.36476454 0.19553393 0.18091832 0.109098345 0.1265136
0.032891333 0.012893526 0.032911554 -0.03289017 -0.037803423 0.0032563927 -0.1322151 -0.18170959
-0.33970988 -0.43647292 -0.5240458 -0.6454879 -0.7171466 -0.73435926 -0.78514045 -0.892113
-1.1773775 -1.1615009 -1.2485045 -1.3665162 -1.1133713 -1.1523917 -1.2674993 -1.0291516

conv.weight f4 [5, 1, 10, 10]
00000000: 0372 fd3a 38e1 ce3c 04c8 3abc f71e 523c
00000010: cdf4 ae3b d42e a1bd f1f2 873c b4db 683d
00000020: ce79 333b 6aee e6bd ffd3 efbd 3407 243d
00000030: 9d1f 8e3a 4632 1fbd 7578 9ebc 4076 e7bc
00000040: 21b8 bfbd 1e6f 743d b116 303d 1339 83bb
00000050: ab12 25be 0418 ecbd f866 9ebc 744b 9fbb
00000060: d861 263c 84a4 3ebd 6bd2 54bd 22c2 993d
00000070: b373 733c 545d f2bd bddc 94bd 2869 01be
00000080: a93f 1abe 40d8 9bbd 247a 23bd e538 a2bd
00000090: 7621 74bd b525 883d d4a6 973d ba83 423d
000000a0: aeaa 2cbe 2804 ecbd 17f4 35bd c8f7 fbbb
000000b0: bec9 c1bd 9347 1fbe ca09 90bc 9ada 1ebd
000000c0: 620b 803d 8d59 d3bc d226 85bb 5380 f6bc
000000d0: d8a2 8a3b 7d6e dfbd d2c7 7ebd 064a c9bd
000000e0: 7f08 2cbe 68d5 14be a652 023d 1a65 0bbe
000000f0: d018 a3bd c69b 63bc f19a 2ebd 5378 02bd
00000100: 364d 4abd 1834 c5bb afef bbbd ef87 95bd
00000110: 20e3 0dbe 15d6 d83c f638 f1bd 65e1 09bd
00000120: 4dee 0cbe 5883 8dbc 2db5 05be 6d3b 01be
00000130: a580 9bbc edeb f4bd f7ba ab3c a107 d3bd
00000140: af2a c1bd c58c 7bbd 1006 88bd 571f 80bd
00000150: 4da6 e5bc cb7d 34be 031f deba d9af 11be
00000160: 8007 febd 390a aabd b5da b93c ff0b 0bbd
00000170: af7a 11be 4236 a03c b309 01be 0983 d5bd
00000180: 73d4 29be 2ad0 3bbd 9d7c c3bc 5ef7 96bc
00000190: d0da 19bc fa9f ac3c 8498 7c3d fec9 00bd
000001a0: a77f ef3c 2f1e cf3b 1ae0 ad3d 8872 513d
000001b0: f95b 173d a3ad 173d 1a43 ad3c fe35 68bd
000001c0: ba8c d5bd 8b8e c13d d6d6 bc3d 498c 4bbd
000001d0: e173 5b3d 4070 8d3c 3bc7 49bd 7b8d 8b3d
000001e0: 0afb 6e3c d004 2abd 2a07 fa3c 1a70 423d
000001f0: f04e 1f3e c946 2e3e 8b0c 053e aace 8b3d
00000200: 6c29 80bc 1d1b ee3d 9fb5 29bd 6816 36bd
00000210: 7acb 9d3c 32d1 a43b 7eb5 b0bb c5c9 f93c
00000220: 705f ba3d 7706 b33d b13b d43d 1a15 fe3c
00000230: c4f4 5e3d fa9f 883d 3466 b23d ca75 b9bc
00000240: 9594 b83d edd1 bb3c 6e9f b63d 87e6 b13d
00000250: 6301 fe3d 790b d5bb f063 96bd f491 b9bd
00000260: e792 e5bd 24b8 57bd cc53 2f3d b021 23bd
00000270: 2a36 fabc 1bbd 223e eac9 093e c23f b63d
00000280: 4e4b 7bbd 09a1 83bd edfa cbbd d3da 873c
00000290: 891a 37bd 1022 76bc 8d82 383d fd51 1d3e
000002a0: 6b06 be3d 6154 f0bc 9929 82bb 1ef4 7dbc
000002b0: d9da e13d a5b3 823d 93c6 3abd d191 f03d
000002c0: 9ebc 1f3d ed93 403d f8a3 f33d 0d24 b43d
000002d0: b113 d9bc 39e1 58bd 502a c63d 5663 243d
000002e0: aedd cebb 3791 e5bd 0caf 953d 1a4a 813d
000002f0: 7331 563d 5c68 e83c 04cf ef3d 7dc7 783d
00000300: 72f4 323d 073d 48bc fabf 0dbe 0c8d 8dbd
00000310: 336a a4bd a3cc ef3d a6b7 773d e969 113e
00000320: c004 66bd 33c6 6dbd f30e b6bd 2800 b73c
00000330: 600f 373b 94a8 823c c07d a6bd 02d8 5e3d
00000340: 7bfb c6bd 63d2 94bd 1299 673d a72e a13d
00000350: 64a2 e93c a3f2 b93d b03c a6bd 9a73 98bd
00000360: 94c5 913c a80f 83bc 2095 2cbd ac29 803c
00000370: a0a2 0bbd 3f52 bebd 4034 71bb 191e 843d
00000380: 9794 a73d 00d2 7abd 90ef 7b3c 3d54 98bd
00000390: 6710 923d 604b b4bd 7982 cebd 70a8 323c
000003a0: 0d1a 30bd 574b 56bd 5bf9 c0bd d2ee 5f3d
000003b0: 294b a13d 7d90 913d 807f aebd 1a21 43bd
000003c0: 73cc f63c 3877 cebc 4073 bdbc 8294 253d
000003d0: ec99 eb3c 9e61 353d c077 6dbd e8dc 263c
000003e0: 5293 6c3d 91bc 9f3d e070 c0bd 30b3 193c
000003f0: 0fd2 be3d 506c 5c3c a036 db3b adec a03d
0.0019336346 0.025253877 -0.0114002265 0.012824765 0.005339241 -0.0787026 0.016595336 0.05685015
0.0027385834 -0.112759426 -0.11710357 0.040045932 0.0010843162 -0.038866304 -0.019344548 -0.028254628
-0.09361292 0.059676282 0.04299039 -0.0040046065 -0.16120403 -0.11528018 -0.019336209 -0.0048612896
0.010155164 -0.046543613 -0.051958483 0.07507731 0.014859128 -0.11834207 -0.07268665 -0.1263777
-0.15063347 -0.07609606 -0.039911404 -0.07921008 -0.059602223 0.06647817 0.07404867 0.047488905
-0.16861984 -0.1152423 -0.044422235 -0.00768945 -0.094623074 -0.15554647 -0.017582793 -0.038782693
0.06252171 -0.025799537 -0.0040634656 -0.030090487 0.0042308383 -0.10909746 -0.062202282 -0.09828572
-0.16800116 -0.14534533 0.0318171 -0.13612786 -0.07963717 -0.01389212 -0.042628232 -0.03185303
-0.04939004 -0.006018173 -0.091765754 -0.07301318 -0.13856173 0.02646927 -0.117784426 -0.03366222
-0.1376278 -0.017274544 -0.13057394 -0.12620325 -0.01898224 -0.11959062 0.020963175 -0.103041895
-0.094319694 -0.061413545 -0.06641781 -0.062559776 -0.0280334 -0.17626111 -0.0016946498 -0.14227237
-0.12403774 -0.08302731 0.022687295 -0.033946987 -0.14206956 0.019557122 -0.12601356 -0.104253836
-0.16584949 -0.045852818 -0.023863131 -0.0184285 -0.009390548 0.021072377 0.061668888 -0.031442635
0.029235674 0.006320737 0.084900096 0.051134616 0.036952946 0.037030827 0.02115016 -0.056692116
-0.10427232 0.09451016 0.09220664 -0.049694333 0.053577308 0.017265439 -0.049262267 0.06814095
0.01458622 -0.041508496 0.030520994 0.04747019 0.15557456 0.1701919 0.12993066 0.068265274
-0.015644751 0.11626265 -0.041432973 -0.044454962 0.019262064 0.005029821 -0.0053927293 0.030491719
0.091002345 0.087414674 0.10362948 0.031015921 0.054432645 0.06671138 0.087109 -0.022639174
0.09012715 0.022927249 0.089171275 0.08686548 0.12402608 -0.006501612 -0.0734328 -0.090610415
-0.1120966 -0.052665845 0.042804524 -0.03982705 -0.030543406 0.1589245 0.1345593 0.088988796
-0.061351113 -0.064271994 -0.0995997 0.016583836 -0.04470304 -0.01502277 0.045046378 0.15363307
0.09278568 -0.02933711 -0.003972244 -0.015500097 0.1102807 0.06381921 -0.04559953 0.11746562
0.03899824 0.047016073 0.11896509 0.08795939 -0.026498647 -0.052949164 0.09676039 0.040133797
-0.0063130474 -0.11209338 0.07308778 0.06312962 0.052293252 0.028370075 0.11709407 0.06073712
0.043690152 -0.012221581 -0.13842764 -0.06911668 -0.080280684 0.11708953 0.060477875 0.14200558
-0.056156874 -0.058050346 -0.0888957 0.022338942 0.0027932748 0.015949525 -0.08129454 0.05440522
-0.09715935 -0.072666906 0.056542464 0.07870226 0.028519817 0.090794824 -0.08117044 -0.07443924
0.017794408 -0.015998676 -0.042134404 0.01564487 -0.03409064 -0.09293031 -0.0036804825 0.06451053
0.08182638 -0.061235428 0.01537694 -0.07437942 0.07132035 -0.08803439 -0.100834794 0.010904416
-0.042993594 -0.052317943 -0.09422561 0.054671116 0.07875664 0.07107637 -0.085204124 -0.04763899
0.030126786 -0.025203332 -0.023126245 0.04042483 0.02875992 0.044282548 -0.05797553 0.010184504
0.057757683 0.07799638 -0.09396529 0.009381101 0.09317409 0.013453558 0.0066898614 0.07857642

conv.bias f4 [5]
00000000: 6e92 13be 29c0 3fbe 331b 18be 0c65 41bd
00000010: f789 2e3e
-0.14411327 -0.18725647 -0.14854126 -0.047215506 0.17044817

fc1.weight f4 [64, 180]
00000000: ff43 7ebd 86ab 82bd f008 e43b f016 db3c
00000010: e04d 473d 749d e53c 7065 e53c 48d3 0abd
00000020: 4003 d7ba 8efb 81bd 7e5c 65bd 7531 88bd
00000030: 80a0 85bd f09b bebb 0256 58bd 5709 8cbd
00000040: 4daf 94bd d020 913c c0c2 27bd c489 0cbd
00000050: 062a 0e3d 473d 8b3d f247 80bd b76e 8d3d
00000060: b71f 963d 0020 e338 ab74 55bd 082c 5d3c
00000070: 8831 7d3c 20d3 5c3b 3d5b 53bd 7eb5 663d
00000080: 2794 14bd e062 03bc b86e 98bd d701 873d
00000090: 1ff8 0abd 4387 80bd 5c22 3e3d ced9 32bd
000000a0: f873 bcbc 185f 71bc 7e27 703d c066 74bd
000000b0: 9f6c 4bbe 875c 91bd 9b61 813d 1ac5 473d
000000c0: ac01 ba3c b7ed 2cbe c3ce 60be a488 fabd
000000d0: 276a b9bd 2a51 1b3d 41b3 30bd 1383 7dbe
000000e0: 3be3 5abe b984 85be 9d00 82be 78fc 143c
000000f0: a04d 4dbd db33 61be 69e6 86be e3ec 75be
00000100: 5829 94bc 2335 873d 1850 0bbc 4880 93bd
00000110: 0825 e63c 6225 7bbd 488b 353c f43d 06bd
00000120: 3643 453d c01d 59bd 9289 763d 6399 813d
00000130: fa95 563d 8a74 613d 606d 8d3b 28f5 e2bc
00000140: 7cc4 dabc 0890 be3c 4a02 5cbd be58 8bbd
00000150: cabe 4b3d f82c d8bc 8a9b d8bc 9c70 b33c
00000160: b81d 4a3d 1482 3abd 1a77 51bd d294 4cbd
00000170: f621 7ebd 40ba f93b 20b4 b3bb 42dd 3f3d
00000180: b748 90bd 53be 863d 2235 623d c224 6c3d
00000190: f5a3 08bd ec98 0f3d bc21 ff3c a474 293d
000001a0: 04b4 c03c c875 89bd 24ff f23c 9054 413d
000001b0: eedc d3bc f9b4 8f3d 80f6 143d 544a d03c
000001c0: 5a75 7e3d 178a 983d 4c83 e83c 00ca 50bc
000001d0: 5f4b 8abd 702a 40bd 505e e13b becb 7f3d
000001e0: 40d5 b8bc de51 503d c8ba 363c 8aa0 8abd
000001f0: f801 61bc c8c2 433c 0069 edbc d9e4 903d
00000200: 5a97 7cbd 2f67 8c3d 9443 0c3d 183e 523c
00000210: a3c5 8cbd e098 883b 3795 933d 80bc 76bb
00000220: 14a9 19bd 51a2 8e3d 0431 b93c 2e0a 9cbc
00000230: 0954 34bd 6fa7 08bd 34e0 50bd 5485 a4bc
00000240: 5a9d 42be af77 65be 54b6 83be 874f 15be
00000250: e148 f4bd a192 ecbd bfd7 0fbe 66a6 5ebe
00000260: 157c 89be dc39 89be d67a 21be 2d45 19be
00000270: 7123 35be daf8 32be 0da3 69be 6430 26be
00000280: 8128 81be 1263 4abe bb97 78be 8cba 09be
00000290: 1642 80be 5b29 3dbe 96c6 69be 24b6 11be
000002a0: 7192 fdbd 2a15 8dbe 1cd6 0bbe 9674 48be
000002b0: f752 2abe 4862 11be d754 e1bd 1fbc 63be
000002c0: 6358 36be 6a57 47be 9f86 5ebe eb7e 52be
000002d0: 5832 33bc c774 833d 005a 9839 ae86 98bd
000002e0: dcb8 50bc 4ecf e2bc 8e67 4a3d 12ae 1ebd
000002f0: 5008 0b3c b097 0cbd 567f 55bd 3758 7abd
00000300: beb7 683d f447 4a3d aab3 68bd 503a ee3c
00000310: f486 383d 2adc 4f3d 785b e43c 9cb3 09be
00000320: a124 8bbd 54dd 11bd 213e 853d 1823 463c
00000330: a0da 5c3b 16ad afbc 0a82 09bd 45b7 313d
00000340: a8d0 11bc 8c5d bb3c 6059 ed3b fc4c fa3c
00000350: c0e8 e63c 0060 7c39 3a22 2f3d 0e2a 80bd
00000360: dc82 4fbc 1470 2f3d bdfb 833d c2e6 0f3d
00000370: 22aa 53bd 35b3 8a3d 90ff 87bd a2bd 753d
00000380: e080 4bbd 8e1c bebd 806c cc3b 811f 893d
00000390: 1cce 8b3c 05ec ecbc 05e0 04bc 5ed5 04bd
000003a0: 78e5 d9bd 462c 93bc aea9 18bd 5cac 00bd
000003b0: 939d d7bd dce1 08be c641 e8bd 1d13 10bd
000003c0: 5ca2 483d 1585 b23b 1136 92bc 856a ffbd
000003d0: 6fdf e5bd f03c 863c 281f 403d 8a65 503d
000003e0: 6880 31bc 8535 8bbd fc9e 073d 2669 edbc
000003f0: 8d73 04bd 5136 7cbd 746b ffbc c8ee c23c
-0.062076565 -0.06380372 0.0069590732 0.026744336 0.04865825 0.028029181 0.02800247 -0.0338929
-0.0016404167 -0.063468084 -0.05599641 -0.06650058 -0.065247536 -0.005816929 -0.0528164 -0.06837719
-0.072599985 0.017715842 -0.040957212 -0.03431107 0.034708045 0.06798797 -0.062637225 0.06905883
0.07330268 0.00010830164 -0.052113216 0.013499267 0.015453704 0.0033695176 -0.051600683 0.05632543
-0.0362741 -0.008019179 -0.07442993 0.06592148 -0.033928033 -0.06275799 0.046419486 -0.043664746
-0.023004517 -0.014732145 0.058631413 -0.059668303 -0.19865654 -0.07097726 0.06317445 0.048771955
0.022705875 -0.16887556 -0.21953873 -0.122330934 -0.0905345 0.0379192 -0.0431397 -0.24757032
-0.21375744 -0.26077822 -0.25391093 0.009093396 -0.050122857 -0.21992438 -0.26347664 -0.24016146
-0.01808612 0.06601932 -0.008502983 -0.07202202 0.02809383 -0.061314948 0.0110805705 -0.032773927
0.0481598 -0.053006887 0.06018979 0.06328084 0.052389123 0.05504278 0.004316017 -0.02770479
-0.02670502 0.023262039 -0.05371312 -0.068040356 0.049742498 -0.02638863 -0.026441354 0.021904282
0.04934475 -0.04553421 -0.051138975 -0.049946614 -0.062044106 0.0076210797 -0.005484119 0.046841867
-0.07045119 0.0657927 0.055226453 0.057652242 -0.033359487 0.035057947 0.031144015 0.041371003
0.023523338 -0.06711918 0.029662676 0.047199786 -0.025862183 0.0701694 0.036367893 0.025426067
0.062123634 0.074482135 0.02838292 -0.012743473 -0.06752657 -0.04691547 0.006877698 0.062450163
-0.022562623 0.050859325 0.011152931 -0.06768902 -0.01373338 0.011948295 -0.028980732 0.07074899
-0.061667778 0.06855618 0.034244135 0.012832187 -0.06873634 0.0041686147 0.07206195 -0.0037648976
-0.03751476 0.06964553 0.02260638 -0.019047823 -0.044025455 -0.033362802 -0.050995067 -0.020083107
-0.19005337 -0.22408937 -0.25725043 -0.14581119 -0.11927963 -0.11551405 -0.14047144 -0.21743163
-0.2685248 -0.26801956 -0.15769514 -0.14967795 -0.17689301 -0.17477742 -0.22816105 -0.16229397
-0.25226215 -0.19764355 -0.2427663 -0.13450068 -0.2505042 -0.18472807 -0.22829661 -0.14229637
-0.12381447 -0.2755521 -0.13655895 -0.19575724 -0.16633211 -0.14197648 -0.1100251 -0.22239731
-0.17807154 -0.1946694 -0.21731041 -0.20556228 -0.010937296 0.06418758 0.00029058754 -0.07447563
-0.012739386 -0.027686741 0.049415164 -0.038740225 0.008485869 -0.034324348 -0.05212339 -0.061119284
0.056815855 0.049385026 -0.056811966 0.02908054 0.045050576 0.050747074 0.027875647 -0.13447422
-0.06794096 -0.035611466 0.06505991 0.012093328 0.0033699647 -0.021444838 -0.03357128 0.04338767
-0.008899845 0.022871755 0.0072433203 0.030554287 0.028187156 0.00024068356 0.04275725 -0.06258021
-0.012665477 0.042831495 0.064445 0.035132177 -0.051675923 0.06772462 -0.066405416 0.0599953
-0.04968345 -0.0928279 0.00623852 0.06695462 0.017066054 -0.028921137 -0.008110051 -0.032430045
-0.10639471 -0.017965447 -0.037271194 -0.031414375 -0.10528102 -0.13367409 -0.1134067 -0.035174478
0.048982963 0.0054479935 -0.017848046 -0.12471489 -0.11224257 0.01638648 0.046904713 0.050878085
-0.010833837 -0.067973174 0.033110604 -0.028980803 -0.03233676 -0.061575238 -0.031179167 0.0237955

fc1.bias f4 [64]
00000000: 8e5f 34be f461 08be 19d2 8d3d ec8c 8ebd
00000010: a15a 0cbc 1a8e cdbd 6ecd 66bc 9637 6abd
00000020: 3d25 b9bd 7d3c e6bd 0ca8 25bd fb32 0dbd
00000030: 232f 843d 6a70 5ebc e8a9 ec3a f0e2 c6bd
00000040: 15fc b4bd 9fae 4b3c 7c24 66bc 49bd 34bd
00000050: 25f0 bbbd 4319 31bd a2e0 35bd aacd 533e
00000060: 3003 143d 766f 2e3d f415 8abd 15a2 aa3c
00000070: a081 e0bd ea0e c23b 42b2 99bd 8d12 97bd
00000080: 6759 e8bd de33 5bbd ca9f 35bd 7f7a c2bb
00000090: 6bd0 0dbd 2dd8 32bd 844d dbbd 49df 123d
000000a0: cee5 f7bb 8502 4bbc 580c 2abc ad6f 77bc
000000b0: c91f e83b 4322 c1bd ca7c e83b 662c 343e
000000c0: 599f a43c 82eb 153d 0d6d 453e f7d0 a83b
000000d0: b4a4 b5bc ba75 4b3e 3503 48bd 84dc a2bb
000000e0: 0a93 40bd 0260 aabd 0697 be3d c47b 60bd
000000f0: 4a14 7a3d 3a54 b4bd 0dee 31be 1efd 68bd
-0.17614576 -0.13318616 0.069248386 -0.069604725 -0.0085665295 -0.10036869 -0.014087064 -0.057181917
-0.09040306 -0.11242006 -0.040443465 -0.034472447 0.06454303 -0.013576606 0.0018056007 -0.09711254
-0.08837143 0.01243177 -0.0140467845 -0.04412583 -0.09176663 -0.043236982 -0.04440368 0.20683923
0.036135852 0.042586766 -0.067424685 0.02082924 -0.10962224 0.005922188 -0.07504703 -0.07376585
-0.11345177 -0.05351626 -0.04434184 -0.005935013 -0.03462259 -0.043663193 -0.10708144 0.035857473
-0.0075652367 -0.012390737 -0.01037892 -0.015102309 0.007083867 -0.09430363 0.007094954 0.17595062
0.020095514 0.03660155 0.19279881 0.0051518637 -0.022173263 0.19869128 -0.048831183 -0.004970135
-0.047015227 -0.08319093 0.09306149 -0.054805532 0.061054505 -0.088051274 -0.17375965 -0.056882016

fc2.weight f4 [4, 64]
00000000: 5208 bbbd f5bb ea3b cc12 5b3d b03d eabd
00000010: af38 813c 6fa0 74bd 84f4 3c3e e069 1d3d
00000020: cf35 1a3c c097 ef3d 44a4 cc3d a7b4 8ebd
00000030: 04a0 16bd 495a 493e 9572 b23c c37f 123c
00000040: e0a6 ee3d f07b d4bc 3836 44bd 9071 e43c
00000050: 87f9 223d e25e 0d3e bc8e 723d 9cd4 903e
00000060: b286 2d3d 2adc f23d dfb6 afbc 6c09 373d
00000070: d51e babc 3abf 273e 6215 8fbb 1bc0 283c
00000080: bf2c b63c e05a 9fbd ecec 273e 600b 32bc
00000090: 0d2f 2c3d af7e a93d df93 18bd 1e8c 0c3e
000000a0: afa0 9b3d ff05 8f3c ba0f d4bd 33f6 333d
000000b0: 135c 7e3d af20 23bb 4e18 81bd f940 ea3d
000000c0: a300 9a3a 40ca eabd 5611 773e 8d70 b53c
000000d0: 2c73 9cbb 9b9a 8e3e 6fa3 89bc 9416 763d
000000e0: 3a18 06ba 385e 81bd b09e d03d b4dc cebd
000000f0: bc47 513d f1a1 0e3d b430 c93d 5a53 0bbd
00000100: b3c5 ccbe 443f adbc 98e7 de3d c097 d03c
00000110: e43a c9bd 5362 bbbc f95d 2e3d 742a 6e3d
00000120: d108 31be 40ce 0d3d 9142 78bd 30ee 03bd
00000130: 8075 f03c 18a6 e8be 0973 76bd 7d23 d5bd
00000140: 6713 4fbd 8daa 8739 f880 92bc f2ab a2bc
00000150: 573c ab3c 815c 0bbd b84b 3b3e 740e 27bf
00000160: 9aa9 8bbe 0011 893c 6321 73bd df54 0fbd
00000170: 7a8f 223c 25a7 a03b c8e3 c6bd fae6 c5bd
00000180: 1cba d4bd 60a2 333d d0d2 7d3d 1d97 41be
00000190: 6bf9 ecbc 57e9 0dbd 4603 f2bc 3055 a2be
000001a0: 216c d43c 7730 fcbd 383f 5ebd aa51 15be
000001b0: cabe 67be 264f 32be 2533 58bd 986f 52be
000001c0: 8b3a 81be 8452 643d 627d 0ebf ef04 c1bd
000001d0: 8408 49bc b283 24bf 74b2 febd df39 14bd
000001e0: af06 ad3b 7d05 d7bd bcb4 82be acab d33d
000001f0: 0ac4 e7bd f240 6f3c e39a 88bd dcae 823c
00000200: 6fc4 7ebe 9b46 37bd 561a b6bd 22fe b6bd
00000210: 57c8 4439 d3ba aa3d a9c7 3dbd 00a5 43bb
00000220: 9858 813d 4d84 013e 3d2f f03b 0343 0e3d
00000230: 009d c2ba 8ffc 3f3e 48b0 b939 d2d5 4fbe
00000240: 810e b3bc fa48 b03b 284d 5e3d 5f88 633d
00000250: 6960 5b3d 1e90 82bb 5f9b 3b3c d707 8a3e
00000260: c0df 5dbd 3496 8cbd aa2e 05bd 38ba 00be
00000270: f95c c23c fe70 dc3c 9dd2 47bd f537 493d
00000280: def7 b4bc 92d6 bb3d e4d3 6fbc 9054 79bc
00000290: a016 7f3d aacd d5bd d9f5 3dbd 1918 063e
000002a0: a8d4 99bc 49ce 4b3d e8f3 d8bd 7873 49bd
000002b0: d012 57bc 70c2 1d3d d86b 0c3d 3877 523d
000002c0: 4099 213c b03a 683d c605 6b3e 859b 1abc
000002d0: ad1c e43d 0602 883e 04e8 b8bd 5b51 aabc
000002e0: d96e ac3c 7758 d33d d9f8 683b c8c6 e9bc
000002f0: 2862 c63c 2a5d fe3c ee6f a7bd 8604 0dbd
00000300: 5d3b 1bbe 1c28 7dbc 20a0 87bb 3257 d93d
00000310: 516a e93d c173 c93d dedf 403d f670 803d
00000320: 03a0 9dbd 8cf2 033d d7b2 6fbc 2d65 173d
00000330: 9e52 c13d c92f 9f3e d04d 853d 91a5 a6bd
00000340: a720 c03c 17ef 933c 0469 08bd dc14 efbc
00000350: 0707 213e 1cc5 86bc 6d6f 06be 248c e43e
00000360: 58d2 e83d a074 a73c d8fe bf3d c0f5 823d
00000370: e7c0 2f3e a137 963d b26c 5f3d 3090 ef3b
00000380: eb45 873c 5c73 2b3d aa7a 243e b687 183d
00000390: 4289 593c 2c18 2cbd d9a3 c43d 0e32 5e3e
000003a0: 9291 e73d 68a7 e73b 8250 bbbd f4c1 dcbc
000003b0: 9ea9 0f3e 30d8 893b 8b78 58bd 2757 e13d
000003c0: c136 673d 584d 343d 68ff c23e 26c0 ee3d
000003d0: 68d6 2fbd e010 e13e b1ca 0d3d 6d13 6e3d
000003e0: 76a6 1e3e 1733 3dbd ce5e 2c3d a805 b13c
000003f0: 9e41 cb3d def7 78bc 8c35 5fbe 3459 3a3e
-0.09132446 0.0071635195 0.053484723 -0.11437547 0.0157741 -0.059723314 0.1845265 0.03843105
0.009412243 0.11698866 0.09992269 -0.069680505 -0.036773697 0.19663347 0.021783153 0.008941594
0.11652923 -0.025938004 -0.04790327 0.027886182 0.03978875 0.13805726 0.059218153 0.28287208
0.042364784 0.11858399 -0.021449504 0.04468672 -0.02271978 0.16381541 -0.0043665627 0.010299708
0.022238133 -0.07781005 0.16398972 -0.01086697 0.04203706 0.08276116 -0.037250396 0.13725325
0.07599007 0.017458914 -0.10354562 0.043935966 0.062099528 -0.0024891307 -0.06303464 0.11438174
0.0011749457 -0.114643574 0.24127707 0.022148395 -0.0047744717 0.2785233 -0.016801564 0.060080126
-0.00051153044 -0.06316799 0.10186517 -0.101006895 0.0510938 0.034822408 0.098237425 -0.034015037
-0.39994583 -0.021148331 0.10884017 0.025462985 -0.098256856 -0.022874033 0.042570088 0.058145955
-0.1728852 0.034620523 -0.060610358 -0.032209575 0.029352903 -0.4543922 -0.0601683 -0.104071595
-0.050555613 0.00025876277 -0.017883763 -0.01985738 0.020902796 -0.034023765 0.18290603 -0.6525643
-0.27277833 0.016731739 -0.059358012 -0.03499305 0.009921903 0.0049027377 -0.097114146 -0.09663196
-0.1038706 0.043856025 0.061968625 -0.18905301 -0.028927526 -0.03464636 -0.029542577 -0.31705618
0.025930466 -0.123139314 -0.05425951 -0.14581934 -0.22631374 -0.17413005 -0.05278315 -0.20550382
-0.25239977 0.055742756 -0.5566007 -0.09424769 -0.012270097 -0.6426345 -0.12436381 -0.036188003
0.0052803378 -0.10499094 -0.25528514 0.10335478 -0.11316688 0.0146028865 -0.06670167 0.01595252
-0.24879621 -0.04474507 -0.08891742 -0.08935191 0.00018766649 0.08336415 -0.04633299 -0.0029852986
0.06315726 0.12648125 0.00732985 0.034731876 -0.0014847815 0.18748687 0.0003541729 -0.2029641
-0.021857502 0.0053797932 0.0542728 0.055549975 0.05355874 -0.0039844653 0.011450618 0.26959106
-0.054168463 -0.068645865 -0.032515205 -0.12571037 0.023725973 0.026909348 -0.04878484 0.04912563
-0.022090849 0.091717854 -0.014637921 -0.015217915 0.062277436 -0.10439618 -0.046377037 0.1309513
-0.01877816 0.049757276 -0.105933964 -0.049182385 -0.013127044 0.03851551 0.034282535 0.051383227
0.009863198 0.056696594 0.22951421 -0.009436493 0.11138282 0.26564044 -0.090286285 -0.020790746
0.02104895 0.10319608 0.0035548715 -0.02853717 0.024216726 0.031050283 -0.08175646 -0.034428142
-0.15159364 -0.015451457 -0.0041389614 0.10612334 0.11397231 0.098365314 0.047088496 0.062715456
-0.076965354 0.032213733 -0.014630041 0.036961723 0.09439586 0.31091145 0.06508982 -0.08137048
0.02345307 0.018058343 -0.033303276 -0.029184751 0.15725337 -0.016451411 -0.13128443 0.4463817
0.11368245 0.020441353 0.093747795 0.06394529 0.1716343 0.07334829 0.05454702 0.0073108897
0.016512832 0.041858062 0.16062418 0.0372388 0.013277354 -0.04201524 0.09601564 0.21698782
0.11307062 0.007069517 -0.09146215 -0.026947953 0.14029548 0.0042066798 -0.052849334 0.11002951
0.0564487 0.044019073 0.38085485 0.11657743 -0.042929083 0.43958187 0.03461713 0.058123995
0.15493187 -0.0461913 0.0420826 0.021609142 0.09924625 -0.015195815 -0.2179777 0.18198091

fc2.bias f4 [4]
00000000: 2bca 5f3d 9417 92be 199f a73d d3be 7b3e
0.05463616 -0.28533614 0.08184642 0.24584512
