src/flatland/flat_game/results/ourmethod_reg7/rep_learner.pth (torch_old, 312908 bytes, 33 tensors)

representations f4 [6]
-0.0025644542 -0.0021837093 -0.0017853375 -0.0014666999 1.2783074 -0.0024015107
00000000: 6710 28bb 901c 0fbb fc01 eaba 483e c0ba
00000010: 949f a33f aa62 1dbb

representations f4 [6]
0.006821383 0.0110920295 0.0029325315 0.0025396054 -1.2718983 0.008740012
00000000: e885 df3b 58bb 353c b72f 403b 826f 263b
00000010: 90cd a2bf 4432 0f3c

representations f4 [6]
-0.004172719 1.2659932 0.012781193 -0.0012031072 -0.00029559468 -0.0021319285
00000000: 4ebb 88bb 110c a23f 3568 513c 94b1 9dba
00000010: 0cfa 9ab9 d3b7 0bbb

representations f4 [6]
0.006691639 -1.2614205 0.0026289127 -0.002116613 -0.0014147891 -0.003569511
00000000: 8945 db3b 3a76 a1bf d649 2c3b e0b6 0abb
00000010: 7270 b9ba 75ee 69bb

fc1.weight f4 [64, 4]
0.0070619145 -1.8914201 0.0019951575 -2.7406363 0.59940094 0.92997265 -0.6111566 -0.86331826
0.08468882 0.3957465 2.716993 -1.4161949 1.1253132 0.46529153 -0.61816865 -0.35659578
0.8078347 -0.46995673 0.6830767 0.034284487 1.3396801 -0.5779666 -0.48698926 -0.6102474
-0.3167348 -0.593821 -0.6507565 -0.71261376 0.06054327 -0.50575733 -0.10310577 2.442493
-0.60552585 1.0672917 -1.1238962 1.3547406 -1.3492844 -0.14084122 0.337009 0.95210123
-0.54259074 0.73574513 1.4618788 0.34130928 -2.0374596 1.317958 1.202763 -1.0853478
0.76943254 0.8615222 -0.28281355 -1.3645175 0.699431 -0.49934947 -0.6645782 2.9289534
1.0909775 0.57253534 1.3233124 -0.9949438 -0.90475625 0.37327468 -0.95137113 -1.7591075
-1.0826883 -1.5222299 -0.6039798 -1.0794133 -3.1146066 -0.84061486 1.4396366 -0.30785817
-1.7525069 1.6267879 -2.0625732 -2.0374513 -1.8767109 0.979094 0.6073993 1.4501247
0.5812397 -2.669474 -0.7420411 0.668739 -1.6006327 -0.27844065 -0.3231629 0.11285786
0.23982061 0.011956091 0.07397556 0.27382308 0.08227215 0.17132747 1.479675 -1.3471782
0.53726566 1.0750893 1.2459153 0.5845711 1.0860611 -0.19060951 -0.17488274 -0.43517184
-0.8094575 -1.9576682 1.6350977 0.7356835 -3.0178962 -0.5368353 -0.4541613 3.0990498
0.6174822 -0.48003677 -1.0104606 0.5112565 0.5856773 -0.8758919 0.55304587 0.79770166
0.76975137 0.50352615 0.19640926 1.2572315 -0.03376031 -0.18887043 0.26268035 0.17625833
1.0750092 -0.8853306 -0.6154101 -0.13416828 0.11545721 -0.47099996 0.08426599 -0.007333828
-0.6521923 0.5807047 -1.1955019 1.4779922 -2.7534974 0.004902302 0.060545154 -0.045767322
1.788102 -0.67482144 2.044892 2.8642814 0.011640332 1.5736687 -0.1102222 0.976274
0.7040068 -0.58676094 -1.3864547 1.3968531 -2.1003225 -0.32913306 1.9722341 0.8977297
1.2022301 -0.04418348 1.5251818 0.14180084 0.47769606 -2.052813 -2.026925 -0.8884511
0.11087748 0.5940675 -0.17599939 0.038769912 -2.75798 0.51735306 -0.5579818 0.25105155
0.8323809 1.4090912 -1.2505778 -0.14275117 1.5069083 1.721105 1.6004205 1.3220984
-1.2842511 -1.0989403 -1.2853705 0.48006165 0.020196203 -0.41110623 0.02052625 1.9587
-0.4805492 0.5642853 -0.8528563 -0.7602093 0.9812008 1.0193815 -1.0634906 1.4220952
-0.361325 -0.80153465 2.6794124 2.9563837 -0.06947276 -0.89752567 -0.22057387 -1.8547577
-0.0825596 0.056600586 -2.0101485 0.282287 -0.08773507 -0.6113969 0.49151182 -1.0005267
-0.9395891 -1.5647095 -0.106960945 -1.8612882 1.6292492 0.8454208 0.8752197 -0.86598724
0.030471662 -0.24183695 -0.17204829 1.4573416 -0.57550937 0.7636371 -0.41161028 -0.76136154
1.3520114 1.564381 -1.6215333 -1.4237784 1.857314 -0.39245877 1.523813 -0.6801795
2.0501926 -0.7333548 0.45848536 0.8402161 0.48303863 -3.316544 0.6804251 -1.251144
0.09932567 -0.38819224 -0.0035089417 -2.142019 -0.58985484 1.2928071 -0.6617443 1.5578799
00000000: a267 e73b 0e1a f2bf 30c1 023b 9666 2fc0
00000010: 5772 193f b012 6e3f c274 1cbf 6d02 5dbf
00000020: 5571 ad3d 499f ca3e 37e3 2d40 e045 b5bf
00000030: 430a 903f b13a ee3e 4d40 1ebf b993 b6be
00000040: 41ce 4e3f 2b9e f0be 1dde 2e3f e46d 0c3d
00000050: a37a ab3f 9ef5 13bf a856 f9be 2c39 1cbf
00000060: 102b a2be a704 18bf fa97 26bf db6d 36bf
00000070: 38fc 773d 5079 01bf 1e29 d3bd ce51 1c40
00000080: be03 1bbf 049d 883f d5db 8fbf 2468 ad3f
00000090: 5ab5 acbf ae38 10be 728c ac3e e8bc 733f
000000a0: 3ae7 0abf cb59 3c3f d81e bb3f 17c0 ae3e
000000b0: bd65 02c0 d9b2 a83f 23f4 993f adec 8abf
000000c0: 88f9 443f b88c 5c3f f0cc 90be 82a8 aebf
000000d0: e90d 333f bcaa ffbe cc21 2abf f973 3b40
000000e0: 27a5 8b3f ad91 123f 4d62 a93f a3b4 7ebf
000000f0: 1b9e 67bf dc1d bf3e 0f8d 73bf 6f2a e1bf
00000100: 8895 8abf 6ed8 c2bf 6c9e 1abf 372a 8abf
00000110: b755 47c0 8932 57bf 0346 b83f 969f 9dbe
00000120: 2552 e0bf 963a d03f 3301 04c0 9a65 02c0
00000130: 1038 f0bf e8a5 7a3f 857e 1b3f b09d b93f
00000140: 20cc 143f a9d8 2ac0 68f6 3dbf 7b32 2b3f
00000150: 88e1 ccbf c68f 8ebe 9c75 a5be 0622 e73d
00000160: 8993 753e 7be3 433c 8080 973d 8a32 8c3e
00000170: 4d7e a83d 7870 2f3e fe65 bd3f 5670 acbf
00000180: 3e8a 093f 879c 893f 277a 9f3f 74a6 153f
00000190: 0d04 8b3f 242f 43be 7614 33be d8ce debe
000001a0: 9b38 4fbf df94 fabf e24a d13f c155 3c3f
000001b0: 3625 41c0 0a6e 09bf d487 e8be d556 4640
000001c0: 5013 1e3f 61c7 f5be c656 81bf b5e1 023f
000001d0: f3ee 153f 743a 60bf 6a94 0d3f 2d36 4c3f
000001e0: 6d0e 453f 17e7 003f 821f 493e f6ec a03f
000001f0: 4048 0abd 4067 41be 0a7e 863e 107d 343e
00000200: e799 893f 07a5 62bf 848b 1dbf 6963 09be
00000210: d474 ec3d e826 f1be a693 ac3d 9c50 f0bb
00000220: 13f6 26bf 10a9 143f 3506 99bf d92e bd3f
00000230: 4d39 30c0 7da3 a03b 32fe 773d 8476 3bbd
00000240: 87e0 e43f 19c1 2cbf 83df 0240 6350 3740
00000250: 17b7 3e3c fa6d c93f 2dbc e1bd 18ed 793f
00000260: ca39 343f f735 16bf 5977 b1bf 15cc b23f
00000270: af6b 06c0 2184 a8be 2b72 fc3f 9dd1 653f
00000280: ade2 993f bdf9 34bd 2839 c33f 3d34 113e
00000290: 9494 f43e 4a61 03c0 24b9 01c0 8871 63bf
000002a0: bb13 e33d cf14 183f 2f39 34be 33cd 1e3d
000002b0: bf82 30c0 4071 043f e5d7 0ebf d489 803e
000002c0: ea16 553f 1a5d b43f ef12 a0bf 5d2d 12be
000002d0: 5fe2 c03f 2b4d dc3f 94da cc3f 853a a93f
000002e0: 5762 a4bf 13aa 8cbf 0587 a4bf a4ca f53e
000002f0: 8272 a53c 847c d2be ab26 a83c aeb6 fa3f
00000300: 8b0a f6be 0075 103f ca54 5abf 149d 42bf
00000310: fa2f 7b3f 187b 823f 7620 88bf 3707 b63f
00000320: 97ff b8be 6031 4dbf 7e7b 2b40 6435 3d40
00000330: bc47 8ebd 3ec4 65bf 1ede 61be b368 edbf
00000340: 0215 a9bd 04d6 673d 46a6 00c0 ec87 903e
00000350: 72ae b3bd 8284 1cbf 70a7 fb3e 4211 80bf
00000360: e988 70bf 6748 c8bf 570e dbbd b13e eebf
00000370: 3d8b d03f 7f6d 583f 660e 603f 57b1 5dbf
00000380: b59f f93c 1ba4 77be 6d2d 30be 2b8a ba3f
00000390: 9554 13bf b97d 433f 95be d2be 97e8 42bf
000003a0: b60e ad3f a33d c83f 678e cfbf 5f3e b6bf
000003b0: 77bc ed3f 5bf0 c8be 4e0c c33f 3e20 2ebf
000003c0: 5b36 0340 24bd 3bbf 98be ea3e 6718 573f
000003d0: d750 f73e 4242 54c0 5730 2e3f 7d25 a0bf
000003e0: 426b cb3d 22c1 c6be 46f6 65bb d716 09c0
000003f0: ba00 17bf b47a a53f 1368 29bf 9c68 c73f

fc1.bias f4 [64]
0.24915655 0.6358752 0.16368179 0.484664 0.38702938 0.34915254 0.35399362 0.3060065
0.7206804 0.23692267 0.05255225 0.0857242 0.61557525 -0.15765117 0.30085328 0.5186687
0.1374381 -0.25153977 -0.11002138 0.36964217 0.048616294 0.13654271 -0.37655604 0.34764668
0.17828023 0.44193003 0.3405316 -1.3285156 0.09351003 0.24347949 0.17901385 -0.45970565
0.415219 -0.5568836 0.28106254 -0.068027586 -1.2295513 0.40074182 0.23855095 0.11036869
0.24845985 -0.21946312 0.24997662 0.06992099 0.4254868 0.11449758 0.14689474 0.2891327
0.6142197 0.5841563 -0.6287237 0.46410382 0.4042114 0.38316092 0.19770941 0.09133552
0.12311973 0.47098523 -0.05170645 0.2641826 0.2913711 -0.40195352 0.7112547 0.45882258
00000000: e522 7f3e b8c8 223f 339c 273e e125 f83e
00000010: b728 c63e 1fc4 b23e a73e b53e e2ac 9c3e
00000020: 837e 383f db9b 723e 0741 573d 2b90 af3d
00000030: 5796 1d3f 4f6f 21be 7109 9a3e 79c7 043f
00000040: 93bc 0c3e d2c9 80be e452 e1bd bd41 bd3e
00000050: e121 473d dad1 0b3e f4cb c0be bffe b13e
00000060: 188f 363e a744 e23e 285a ae3e cd0c aabf
00000070: 3082 bf3d b052 793e 684f 373e 8a5e ebbe
00000080: 9697 d43e ec8f 0ebf 6ee7 8f3e 0c52 8bbd
00000090: f061 9dbf 082e cd3e b346 743e fb08 e23d
000000a0: 426c 7e3e f1ba 60be dff9 7f3e bc32 8f3d
000000b0: 68d9 d93e b57d ea3d 936b 163e 3409 943e
000000c0: 813d 1d3f 448b 153f 09f4 20bf 049f ed3e
000000d0: ccf4 ce3e ab2d c43e 5674 4a3e 1e0e bb3d
000000e0: 3226 fc3d fa24 f13e 24ca 53bd f142 873e
000000f0: 982e 953e dacc cdbe ca14 363f cbea ea3e

fc2.weight f4 [180, 64]
-0.29395646 -0.015822217 -0.038209856 -0.17181842 0.05181395 -0.1804626 0.2194574 0.22087812
-0.31381488 0.121210046 -0.052824218 -0.095878474 0.15865742 -0.091608234 -0.17424326 0.38182455
0.011659956 0.24522515 -0.28100705 -0.03474651 0.12400658 0.12891273 0.1473391 -0.015337246
0.041200265 -0.09025871 0.15583739 0.03231381 0.048300873 -0.032616153 0.23923813 -0.03862293
-0.007257466 -0.075200915 -0.06496659 0.1068637 0.47266573 -0.035088025 0.11879306 0.55673665
-0.02226065 -0.0941831 0.045038983 0.16300887 0.20874712 -0.47467604 0.24369997 0.16648903
0.13789287 0.44698566 -0.61806226 -0.2923831 0.031796798 -0.17656267 -0.22266461 0.2800517
-0.020417854 0.1670753 -0.10218981 -0.21892056 -0.020209085 -0.026026329 0.02072847 0.0052856887
-0.15689306 -0.20124818 -0.13738395 0.31794336 -0.4333147 0.09233976 -0.7531814 0.31381896
-0.049770277 0.18153447 0.12489093 0.050984226 -0.06418106 0.11780226 0.20486152 0.026453668
-0.062632315 0.012052072 0.22279 -0.069163084 0.18573849 0.7207957 0.19861837 -0.073712416
0.10237981 0.15382734 0.3762475 -0.44978973 0.029016273 -0.4488079 0.49334854 0.09384595
0.20700403 -0.2920491 0.27602816 0.24155214 -0.3602007 0.089119256 -0.119205356 -0.14794624
0.15968041 0.5023539 -0.09553539 -0.13245459 0.02694892 0.2250939 0.22627155 0.40730107
0.26194927 0.06548173 -0.011929411 -0.47259313 0.19050057 0.19167592 -0.06792126 0.47697034
0.27511492 0.2872177 -0.03792238 0.23543976 -0.6379481 0.49180692 0.16578896 -0.43608946
-0.18989867 -0.16447416 -0.17039162 -0.021120103 -0.04642267 0.0363896 -0.16532679 -0.18298198
-0.10306071 0.054323245 -0.15661334 -0.0999156 -0.20693779 -0.0013056628 -0.064690985 -0.16560526
0.0072443523 -0.08292582 -0.036910795 -0.14231071 -0.1286523 0.014648353 -0.09745923 -0.14794138
-0.0062542674 -0.14492325 0.04623741 0.021534268 0.0016250862 -0.13276185 -0.11670145 -0.025644675
-0.02320403 -0.053023554 -0.09592372 0.030291375 -0.11707906 -0.034689505 -0.0058559957 -0.0074075526
-0.060663566 -0.25167346 -0.075504035 -0.02478517 -0.06525331 -0.08346987 -0.07345372 0.0691643
-0.23374219 -0.0016657176 0.01060106 -0.19006483 -0.20708317 -0.14612423 -0.26232505 -0.21026973
-0.11738951 -0.079773225 -0.16278984 -0.141405 0.119760305 0.04801715 -0.023519918 0.020459455
-0.11392574 -0.16831881 -0.10972712 0.028508082 -0.034721278 -0.055574466 -0.0038533045 -0.024896488
-0.06031569 -0.055950403 -0.06164878 -0.15636846 -0.18886323 0.040159583 -0.2082336 -0.054166473
-0.083148934 -0.06836675 -0.11361679 -0.016880218 -0.033405013 0.048536625 0.042984862 -0.23238452
-0.043894336 -0.09454494 -0.020518953 -0.112419926 -0.15144184 -0.10381293 0.024403669 0.106067106
-0.122921795 -0.109644294 -0.07191753 -0.14379022 -0.091609396 -0.07095892 0.0010166534 0.009647942
-0.022295801 -0.090808995 -0.12577395 -0.2428613 -0.16723359 -0.15306951 0.019383475 0.06740821
-0.08171261 0.084378265 -0.11442959 -0.27400926 -0.010718928 0.0006180747 -0.19886076 0.005454042
-0.13242677 -0.13089631 -0.098362274 -0.14898288 -0.0504109 0.0369115 -0.07590416 -0.039847326
00000000: 7681 96be 989d 81bc f081 1cbd 2bf1 2fbe
00000010: dd3a 543d 30cb 38be 71b9 603e e02d 623e
00000020: 58ac a0be f93c f83d 355e 58bd ef5b c4bd
00000030: 1777 223e 199d bbbd d36c 32be 827e c33e
00000040: 6609 3f3c 4d1c 7b3e 28e0 8fbe 5b52 0ebd
00000050: 29f7 fd3d b301 043e 10e0 163e 1249 7bbc
00000060: 9cc1 283d 8fd9 b8bd d693 1f3e 7c5b 043d
00000070: 23d7 453d 8498 05bd d7fa 743e 1433 1ebd
00000080: 0ad0 edbb f002 9abd 340d 85bd 5bdb da3d
00000090: 3e01 f23e 76b8 0fbd c749 f33d 4b86 0e3f
000000a0: f75b b6bc 12e3 c0bd cc7a 383d cceb 263e
000000b0: cec1 553e bd08 f3be 7c8c 793e 1a7c 2a3e
000000c0: ca33 0d3e 4edb e43e 5439 1ebf 3db3 95be
000000d0: 5c3d 023d d8cc 34be 3102 64be f062 8f3e
000000e0: 5843 a7bc ca15 2b3e e448 d1bd b62c 60be
000000f0: 868d a5bc 2b35 d5bc c1ce a93c 9233 ad3b
00000100: 93a8 20be 0114 4ebe 61ae 0cbe 79c9 a23e
00000110: 6ddb ddbe a11c bd3d 7fd0 40bf e1ac a03e
00000120: ebdb 4bbd 2ce4 393e d1c6 ff3d d6d4 503d
00000130: 5c71 83bd 5042 f13d 38c7 513e 5db5 d83c
00000140: 5f45 80bd 0e76 453c 1023 643e 60a5 8dbd
00000150: 3b32 3e3e 1186 383f 9d62 4b3e 89f6 96bd
00000160: 81ac d13d ea84 1d3e 83a3 c03e d74a e6be
00000170: 89b3 ed3c 26ca e5be 2e98 fc3e 4e32 c03d
00000180: ddf8 533e 7687 95be 9053 8d3e 7259 773e
00000190: 3a6c b8be 2884 b63d f021 f4bd 387f 17be
000001a0: 4383 233e 449a 003f 0fa8 c3bd 2da2 07be
000001b0: fbc3 dc3c 047f 663e bbb3 673e c489 d03e
000001c0: 371e 863e 491b 863d 9473 43bc baf7 f1be
000001d0: 9512 433e b146 443e 4d1a 8bbd 7535 f43e
000001e0: dddb 8c3e 330e 933e 7f54 1bbd 1f17 713e
000001f0: 9150 23bf 1ece fb3e 95c4 293e 1e47 dfbe
00000200: cc74 42be ea6b 28be 247b 2ebe 1104 adbc
00000210: b325 3ebd 430d 153d 6d4b 29be a15f 3bbe
00000220: 7e11 d3bd 0d82 5e3d 3f5f 20be 8da0 ccbd
00000230: 80e7 53be c622 abba b57c 84bd 6d94 29be
00000240: 0862 ed3b 03d5 a9bd c62f 17bd e6b9 11be
00000250: 6ebd 03be a5ff 6f3c b498 c7bd f27d 17be
00000260: 99f0 ccbb c366 14be 7063 3d3d a268 b03c
00000270: d800 d53a b9f2 07be 2b01 efbd c814 d2bc
00000280: 6116 bebc 3a2f 59bd a873 c4bd 9e25 f83c
00000290: 25c7 efbd 9516 0ebd a7e3 bfbb 0ebb f2bb
000002a0: 5c7a 78bd 58db 80be dca1 9abd 450a cbbc
000002b0: 87a3 85bd 40f2 aabd e76e 96bd 03a6 8d3d
000002c0: 1d5a 6fbe 3554 daba 12b0 2d3c 5ba0 42be
000002d0: 9c0d 54be 97a1 15be 784f 86be f350 57be
000002e0: e969 f0bd 2560 a3bd 61b2 26be 79cc 10be
000002f0: e444 f53d a2ad 443d d8ac c0bc 969a a73c
00000300: e651 e9bd c45b 2cbe 9db8 e0bd c889 e93c
00000310: e637 0ebd 0da2 63bd b987 7cbb b8f3 cbbc
00000320: 960d 77bd 402c 65bd 6e83 7cbd 0e1f 20be
00000330: 5d65 41be 607e 243d 303b 55be aadd 5dbd
00000340: fd49 aabd de03 8cbd ebaf e8bd 6248 8abc
00000350: b2d3 08bd 57ce 463d e510 303d 35f6 6dbe
00000360: 8cca 33bd c7a0 c1bd 5d17 a8bc 6b3c e6bd
00000370: 9213 1bbe e09b d4bd 34ea c73c b639 d93d
00000380: 6cbe fbbd 308d e0bd 7f49 93bd be3d 13be
00000390: b59d bbbd e952 91bd 3a41 853a 6712 1e3c
000003a0: afa5 b6bc 11fa b9bd e3ca 00be a2b0 78be
000003b0: 483f 2bbe 41be 1cbe 18ca 9e3c 510d 8a3d
000003c0: f158 a7bd 83ce ac3d 105a eabd f14a 8cbe
000003d0: 719e 2fbc 4a06 223a 28a2 4bbe d2b7 b23b
000003e0: e29a 07be af09 06be 2972 c9bd f88e 18be
000003f0: a97b 4ebd 8330 173d a473 9bbd f336 23bd

fc2.bias f4 [180]
0.18603577 0.05128492 0.034935974 -0.11227964 -0.038848653 0.41169873 0.1418518 -0.09413619
-0.15839505 -0.1420426 -0.007078344 -0.28095686 0.041824467 -0.03314746 -0.03837595 -0.07729147
-0.07761841 0.36767986 -0.0038462793 -0.1351944 -0.1575633 -0.02449866 -0.011316652 0.4765066
-0.04127001 -0.048666675 -0.16802831 -0.03532836 -0.07946467 0.20969038 0.36733627 0.27705294
0.06750007 0.2603842 0.35048157 0.6597572 0.46100777 0.27941212 0.035890747 0.001728148
0.27715638 0.1939776 0.27641377 -0.16892587 0.00672806 -0.027251748 -0.04312694 0.08680919
-0.21331236 -0.013852053 -0.075508736 -0.07274779 -0.11118777 0.29030323 0.09122106 -0.08292285
-0.0876445 0.023142502 -0.19550984 0.10304875 0.33020738 0.012425067 -0.019263873 -0.0062698345
-0.11552105 0.031189665 0.43508455 0.39968634 0.050991174 -0.1185111 0.4586905 0.39939207
0.42199364 -0.043689642 -0.15153244 0.027481677 0.14603093 -0.07480395 0.3001603 -0.035335038
-0.13274245 -0.1665339 -0.07864346 0.16089542 -0.17715397 -0.21921562 -0.21885554 -0.003610019
-0.16463633 -0.1552708 0.16159794 -0.07769954 -0.085817814 -0.08555799 -0.042771116 -0.17013767
0.2031947 -0.09930226 -0.17357394 -0.11716551 -0.07039105 0.0552795 0.59532714 0.23607315
0.020036198 -0.04779191 0.3907322 0.14368999 -0.1073061 -0.14583807 -0.18806626 0.062198218
-0.046939764 -0.021507004 0.26454675 -0.10982996 -0.12369506 -0.08460634 -0.09847526 0.0080989245
0.084289186 -0.0048874756 -0.037825063 -0.07691239 0.12186113 0.44480607 -0.23707268 -0.13104591
-0.030121673 -0.13253802 -0.0071495418 0.42000955 -0.16268015 -0.059839666 -0.13922009 -0.15565892
-0.17596823 0.07588691 0.40388843 0.1050267 0.085127346 -0.077075 0.31393242 0.4864898
0.26909685 0.431908 0.11439021 0.16023068 0.31879947 0.4490838 0.40991533 -0.17242773
-0.10832394 -0.21881098 -0.06194666 0.060931146 0.32473084 -0.07980052 -0.17434448 0.20445006
-0.09691083 0.1617817 -0.029752273 0.010657194 -0.12317876 -0.001643656 -0.06380664 0.079867974
-0.10928883 -0.1807426 -0.036423035 -0.095526464 -0.025205193 0.106043406 0.4119397 0.3837947
-0.15157437 -0.016744457 0.22191972 0.358226
00000000: 2980 3e3e 2310 523d 0619 0f3d def2 e5bd
00000010: c41f 1fbd 2dca d23e 9941 113e 7aca c0bd
00000020: 5032 22be 9e73 11be 74f1 e7bb 94d9 8fbe
00000030: 2250 2b3d a2c5 07bd 1a30 1dbd fd4a 9ebd
00000040: 67f6 9ebd 8940 bc3e dc11 7cbb 6770 0abe
00000050: 4658 21be 6ab1 c8bc 7b69 39bc acf8 f33e
00000060: be0a 29bd b556 47bd 9d0f 2cbe 78b4 10bd
00000070: 5fbe a2bd 13b9 563e 8013 bc3e e2d9 8d3e
00000080: 7a3d 8a3d 1451 853e 5272 b33e d9e5 283f
00000090: 3609 ec3e 1b0f 8f3e 2d02 133d 0683 e23a
000000a0: 71e7 8d3e 10a2 463e 1b86 8d3e e7fa 2cbe
000000b0: 0f77 dc3b 0f3f dfbc e0a5 30bd 04c9 b13d
000000c0: 8e6e 5abe b9f3 62bc 53a4 9abd cbfc 94bd
000000d0: 6ab6 e3bd a0a2 943e 1bd2 ba3d 75d3 a9bd
000000e0: f67e b3bd 5895 bd3c bb33 48be 390b d33d
000000f0: f110 a93e 8292 4b3c 45cf 9dbc 2f73 cdbb
00000100: 4d96 ecbd 7881 ff3c 67c3 de3e b0a3 cc3e
00000110: 1fdc 503d f3b5 f2bd 7bd9 ea3e 1e7d cc3e
00000120: 8d0f d83e e9f3 32bd 522b 1bbe 4121 e13c
00000130: 2289 153e d032 99bd 9cae 993e 79bb 10bd
00000140: a3ed 07be dd87 2abe d30f a1bd c5c1 243e
00000150: da67 35be 0f7a 60be ab1b 60be 1296 6cbb
00000160: 6d96 28be 4fff 1ebe ee79 253e f020 9fbd
00000170: 40c1 afbd 0739 afbd c430 2fbd 9238 2ebe
00000180: 4512 503e fc5e cbbd 5ebd 31be 79f4 efbd
00000190: 2f29 90bd c26c 623d 5c67 183f 29bd 713e
000001a0: f422 a43c 73c1 43bd 0d0e c83e 7823 133e
000001b0: 4dc3 dbbd 9356 15be 7194 40be 8fc3 7e3d
000001c0: e943 40bd 752f b0bc ac72 873e 88ee e0bd
000001d0: d653 fdbd 1746 adbd 66ad c9bd 5ab1 043c
000001e0: cf9f ac3d 1e27 a0bb 74ee 1abd 3e84 9dbd
000001f0: 5492 f93d 9fbd e33e 2ec3 72be e630 06be
00000200: bac1 f6bc 0cb8 07be b446 eabb 7e0b d73e
00000210: a095 26be 701a 75bd b68f 0ebe 0d65 1fbe
00000220: 0431 34be 996a 9b3d 77ca ce3e 3d18 d73d
00000230: 3f57 ae3d 7fd9 9dbd c0bb a03e 3115 f93e
00000240: 10c7 893e 0c23 dd3e 6a45 ea3d 8313 243e
00000250: af39 a33e 50ee e53e 6ce0 d13e e590 30be
00000260: f1d8 ddbd fc0f 60be c8bb 7dbd f092 793d
00000270: 1f43 a63e 746e a3bd 5c87 32be 5b5b 513e
00000280: 2f79 c6bd 1aaa 253e 0abb f3bc 839b 2e3c
00000290: 2545 fcbd f26f d7ba 0ead 82bd d291 a33d
000002a0: d2d2 dfbd 9714 39be 5230 15bd 61a3 c3bd
000002b0: 1f7b cebc 492d d93d c3e9 d23e bd80 c43e
000002c0: 5036 1bbe ac2b 89bc ec3e 633e 6669 b73e

conv.weight f4 [5, 1, 34, 34]
0.32521614 0.45832714 0.35142124 0.41861218 0.5390768 0.52487946 0.6025775 0.38339335
0.29830906 0.37388673 0.3967333 0.34417963 0.113198675 -0.050682183 0.0939274 -0.036922157
-0.19917387 -0.1017065 -0.25010747 -0.59066385 -0.56535685 -0.7171497 -0.76108426 -0.71990347
-0.2544601 -0.33296847 -0.497565 -0.42763475 -0.45614618 -0.37878406 -0.3869196 -0.42791507
-0.35513002 -0.32538602 0.44775835 0.54644674 0.5920949 0.4734574 0.5310216 0.52400684
0.65519875 0.51781154 0.4113594 0.45048305 0.32077032 0.28627965 0.20849489 0.10356265
0.21350276 -0.082986966 -0.22782093 -0.13655718 -0.41244256 -0.6023527 -0.44754377 -0.8267615
-0.80888337 -0.8715517 -0.3402287 -0.35041508 -0.35546818 -0.3912883 -0.4054483 -0.4400325
-0.4200786 -0.4321409 -0.33645532 -0.3458696 0.3903017 0.71689105 0.96665007 0.93607664
0.783253 0.6306447 0.6610712 0.55375934 0.55749947 0.6490177 0.3608143 0.20534006
0.14519837 0.16618091 0.13191491 -0.11478117 -0.11736235 -0.08417111 -0.54336977 -0.72438896
-0.7424572 -0.8561893 -0.64669216 -0.63059515 -0.40104505 -0.50501895 -0.50458366 -0.51793826
-0.41963 -0.38315073 -0.44769752 -0.4915605 -0.4259543 -0.42440102 0.75268626 0.6294292
0.7384886 0.7460673 0.96441275 0.9241878 0.9365505 0.88668036 0.4976877 0.45312122
0.44775468 0.38973156 0.44914714 0.44367313 0.01599981 -0.24350594 -0.17036691 -0.3797714
-0.4450437 -0.44758874 -0.7642606 -0.7965038 -0.914633 -0.99798715 -0.48301208 -0.37570593
-0.45330447 -0.5341999 -0.51541936 -0.41108358 -0.5579399 -0.53705645 -0.46245527 -0.44691673
0.78245497 0.5650331 0.7702739 0.8203828 0.77709043 0.84760076 0.92404914 0.7974778
0.5291483 0.44093984 0.40116844 0.29065418 0.3101037 0.34471092 0.07469791 0.026133163
-0.09465863 -0.50705415 -0.41615987 -0.3721709 -0.7831052 -0.70630497 -0.9715419 -1.0403606
-0.5184512 -0.39998809 -0.44804835 -0.6946881 -0.6189706 -0.44635007 -0.6617463 -0.46030214
-0.4239953 -0.39286625 0.740724 0.8253705 1.0500407 0.971215 0.8933735 0.8762954
0.9760635 1.0236291 0.77948534 0.66510075 0.48607585 0.37959662 0.15155149 0.05145329
0.16259259 0.03733071 -0.14261577 -0.45872435 -0.45356402 -0.48900568 -0.5637307 -0.8476636
-0.8071697 -0.805014 -0.5018171 -0.45590544 -0.5005721 -0.56568694 -0.49734804 -0.29686323
-0.5155833 -0.45155844 -0.3870215 -0.43230727 0.8162404 1.2301147 1.2788985 1.3924813
1.4480066 1.2069502 1.0884289 1.0855409 0.9006612 0.7155216 0.86024934 0.6657109
0.36766088 0.19890131 -0.013581968 -0.14315301 -0.19118798 -0.3055991 -0.392289 -0.52525526
-0.61897457 -0.8398235 -1.0161526 -0.7548622 -0.41296172 -0.46803877 -0.5465916 -0.51783067
-0.41552085 -0.31290922 -0.36700132 -0.43168524 -0.4679959 -0.42731807 1.1964306 1.1792921
1.320476 1.2890702 1.2832525 1.4992328 1.5767072 1.323962 0.91006535 0.72027445
0.82322586 0.6477769 0.5353337 0.43543726 0.19749835 -0.109687746 -0.3244596 -0.38540745
00000000: bb82 a63e dba9 ea3e 7ced b33e 5654 d63e
00000010: f000 0a3f 805e 063f 8542 1a3f 224c c43e
00000020: f7bb 983e 156e bf3e a120 cb3e 5038 b03e
00000030: b5d4 e73d 1f98 4fbd 025d c03d b03b 17bd
00000040: 3cf4 4bbe 7f4b d0bd 160e 80be bf35 17bf
00000050: 3abb 10bf 1f97 37bf 6bd6 42bf 984b 38bf
00000060: 9848 82be d87a aabe d7c0 febe f1f2 dabe
00000070: fe8b e9be fcef c1be 531a c6be af17 dbbe
00000080: 9ad3 b5be ff98 a6be 9540 e53e efe3 0b3f
00000090: 8893 173f 0269 f23e 08f1 073f 5025 063f
000000a0: 1bbb 273f 4c8f 043f b39d d23e b7a5 e63e
000000b0: 023c a43e 3f93 923e af7f 553e a818 d43d
000000c0: 78a0 5a3e 12f5 a9bd e449 69be a5d5 0bbe
000000d0: ac2b d3be c933 1abf 7524 e5be a4a6 53bf
000000e0: fb12 4fbf 031e 5fbf 7532 aebe 9b69 b3be
000000f0: edff b5be f156 c8be eb96 cfbe f14b e1be
00000100: 8b14 d7be 9241 ddbe df43 acbe d215 b1be
00000110: a0d5 c73e 2c86 373f 6176 773f b8a2 6f3f
00000120: 4583 483f ee71 213f f63b 293f 2cc3 0d3f
00000130: 49b8 0e3f 0626 263f a7bc b83e aa44 523e
00000140: e2ae 143e 542b 2a3e b414 073e 6412 ebbd
00000150: ac5b f0bd e761 acbd 481a 0bbf 8e71 39bf
00000160: ad11 3ebf 392f 5bbf 9e8d 25bf af6e 21bf
00000170: c755 cdbe ec48 01bf 652c 01bf 9a97 04bf
00000180: bed9 d6be 552c c4be 9c38 e5be d1ad fbbe
00000190: af16 dabe 174b d9be 0cb0 403f 4622 213f
000001a0: 970d 3d3f 44fe 3e3f c1e3 763f 9297 6c3f
000001b0: c6c1 6f3f 7cfd 623f ecd0 fe3e 81ff e73e
000001c0: 1a40 e53e e58a c73e 9df6 e53e 2029 e33e
000001d0: 0912 833c 9f59 79be aa74 2ebe 6671 c2be
000001e0: c5dc e3be 5a2a e5be 95a6 43bf ace7 4bbf
000001f0: 6325 6abf 167c 7fbf 5c4d f7be 875c c0be
00000200: 8617 e8be 53c1 08bf 86f2 03bf 8c79 d2be
00000210: 26d5 0ebf 887c 09bf f0c6 ecbe 45d2 e4be
00000220: f84e 483f 02a6 103f ac30 453f 9b04 523f
00000230: 66ef 463f 5dfc 583f 7c8e 6c3f 8127 4c3f
00000240: 4376 073f dec2 e13e f365 cd3e a0d0 943e
00000250: eac5 9e3e f37d b03e 38fb 983d 3715 d63c
00000260: 62dc c1bd 4dce 01bf e812 d5be 2f8d bebe
00000270: 9579 48bf 67d0 34bf f8b6 78bf 892a 85bf
00000280: 38b9 04bf 3dcb ccbe 9866 e5be 14d7 31bf
00000290: db74 1ebf ff87 e4be 3568 29bf b9ac ebbe
000002a0: e915 d9be c425 c9be 17a0 3d3f 7b4b 533f
000002b0: bc67 863f 8ca1 783f 20b4 643f e554 603f
000002c0: 4cdf 793f 4706 833f 5a8c 473f 0b44 2a3f
000002d0: efde f83e 7d5a c23e 5030 1b3e afc0 523d
000002e0: ac7e 263e 16e8 183d de09 12be ebdd eabe
000002f0: 8b39 e8be f45e fabe a850 10bf 7b00 59bf
00000300: aca2 4ebf 6615 4ebf 1677 00bf 706c e9be
00000310: 7e25 00bf dcd0 10bf 67a4 febe 75fe 97be
00000320: 44fd 03bf ab32 e7be af27 c6be 6157 ddbe
00000330: 21f5 503f 6674 9d3f f2b2 a33f d43c b23f
00000340: 4858 b93f 587d 9a3f a351 8b3f 01f3 8a3f
00000350: bb91 663f 6c2c 373f 4d39 5c3f 086c 2a3f
00000360: 0c3e bc3e c9ac 4b3e e786 5ebc b496 12be
00000370: c8c6 43be 7c77 9cbe 1bda c8be 2177 06bf
00000380: 1e75 1ebf acfe 56bf 4a11 82bf a63e 41bf
00000390: b86f d3be c7a2 efbe 6ded 0bbf 8d90 04bf
000003a0: 26bf d4be a335 a0be 99e7 bbbe d905 ddbe
000003b0: 299d efbe 6fc9 dabe a324 993f 0bf3 963f
000003c0: 5c05 a93f 4100 a53f 9e41 a43f dce6 bf3f
000003d0: 8bd1 c93f 9677 a93f 0bfa 683f e863 383f
000003e0: eebe 523f b5d4 253f a10b 093f a2f1 de3e
000003f0: 023d 4a3e f8a3 e0bd 921f a6be 2054 c5be

conv.weight f4 [5, 1, 10, 10]
-0.08353256 -0.15023232 -0.048824273 -0.0704247 -0.09108976 -0.007918791 0.0053886496 -0.091618314
-0.098524936 0.022888757 -0.07041186 -0.09969637 -0.16142839 -0.06722788 -0.10801219 -0.11762461
-0.048319396 -0.106060706 -0.055766366 0.0039578727 -0.20256221 -0.17083177 -0.08086452 -0.01177722
-0.09450018 -0.15880927 -0.16102286 -0.09182324 -0.07050196 -0.12957703 -0.053374343 -0.12795536
-0.04133124 -0.051609717 -0.10624176 -0.13120565 0.024608511 -0.136334 0.014748567 -0.058023434
-0.20362407 -0.030864505 -0.06876298 -0.17869073 -0.118614554 -0.037669893 0.039111085 -0.0028824664
0.020078627 -0.007044502 -0.19376779 -0.04054861 -0.16602936 -0.0674158 -0.14178057 -0.08292594
0.018294202 -0.15376103 0.038919978 -0.11933046 -0.11164611 -0.0211459 -0.17198019 -0.009148512
-0.020992398 0.018701645 -0.09185556 -0.107536644 -0.01965226 -0.0040892935 0.022268334 -0.0758987
-0.04331508 -0.02268814 -0.012145218 -0.053728864 -0.0049351393 -0.031229295 -0.124115184 -0.029332457
-0.1260518 -0.0026498083 -0.12147582 0.0067554303 0.023076357 -0.0028969792 -0.033691574 -0.17559297
-0.065519 -0.052999184 -0.10694944 -0.06428849 -0.024608972 -0.16719477 -0.10017363 -0.13140176
-0.110633045 -0.17894974 -0.15742587 -0.035033487 -0.029316342 0.064051576 0.08354367 0.23995155
0.16576877 0.2986056 0.19620307 0.3702945 0.22603512 0.32351252 0.07431094 0.05659236
0.089432344 0.19118902 0.23091498 0.26042086 0.22221015 0.18309656 0.37331054 0.32952487
0.22876708 0.153148 0.20021921 0.09108353 0.17234409 0.12555133 0.29290664 0.23502845
0.27248502 0.30310163 0.19704898 0.06342898 0.100323826 0.13883682 0.119749434 0.08351867
0.3086493 0.32296914 0.37068835 0.25245517 0.10162505 0.14890765 0.08895702 0.11897663
0.08730308 0.21129389 0.30897495 0.18759124 0.2023801 0.2312819 0.073391914 0.20627345
0.15904722 0.07170835 0.120044954 0.081899025 0.1523216 0.29810712 0.19781823 0.29049295
0.17659536 0.23578797 0.182041 0.018648801 0.065403864 0.020083247 0.25785404 0.17726819
0.2882648 0.15873617 0.12056721 0.1546441 0.18295817 0.094698176 0.14864795 0.052523777
0.22536871 0.21880308 0.21803343 0.24268216 0.21304466 0.19812778 0.1882545 0.12843063
0.012824042 0.008218267 0.12525399 0.111518465 0.10183611 0.28122106 0.1677043 0.043739572
0.10984853 0.032011587 0.12286591 -0.0061222753 0.017218456 0.14706111 0.115192406 0.06939645
0.23301148 0.035655897 -0.08451813 -0.00016053075 -0.027571252 0.0024939724 -0.004777966 -0.13210182
-0.10729493 -0.0077228686 0.19439708 0.04176601 -0.019881347 0.05114244 -0.104676336 -0.09130905
-0.109370634 -0.05273345 -0.14429393 -0.0072031263 0.19655518 0.021451326 -0.08773968 -0.058505513
-0.03101632 -0.15847535 -0.1220267 -0.07136481 -0.16982284 -0.14893124 0.15605244 -0.0047844797
-0.054279532 -0.02925893 -0.15149774 -0.027689401 -0.16866273 -0.11934981 0.0077939145 -0.034489922
0.14674808 -0.08694601 -0.04618472 0.061384387 -0.15465704 -0.07430604 0.034443095 0.023287293
-0.1158997 -0.011604721 0.053152017 0.098602146 -0.110419214 0.029192429 -0.16204067 0.03931882
00000000: 1e13 abbd 80d6 19be f6fb 47bd d33a 90bd
00000010: 458d babd d1bd 01bc 4593 b03b 62a2 bbbd
00000020: 71c7 c9bd 3481 bb3c 1834 90bd 9c2d ccbd
00000030: 7c4d 25be c5ae 89bd 7f35 ddbd 2ce5 f0bd
00000040: 8fea 45bd 5b36 d9bd 466b 64bd 0bb1 813b
00000050: 786c 4fbe 86ee 2ebe 4c9c a5bd 3ef5 40bc
00000060: 4f89 c1bd e69e 22be 2de3 24be d30d bcbd
00000070: 5563 90bd d7af 04be 0e9f 5abd bb06 03be
00000080: f24a 29bd b664 53bd 4895 d9bd c65a 06be
00000090: ca97 c93c 249b 0bbe f9a3 713c fba9 6dbd
000000a0: d482 50be 8fd7 fcbc 9bd3 8cbd b4fa 36be
000000b0: 30ec f2bd bf4b 1abd f232 203d c3e7 3cbb
000000c0: ef7b a43c 91d5 e6bb 106b 46be 4d16 26bd
000000d0: 9a03 2abe 4c11 8abd ed2e 11be 13d5 a9bd
000000e0: b9dd 953c 8873 1dbe 8e6a 1f3d 8763 f4bd
000000f0: b7a6 e4bd 2b3a adbc 931b 30be a4e3 15bc
00000100: 40f8 abbc 3134 993c c51e bcbd 2c3c dcbd
00000110: c7fd a0bc 7bff 85bb 156c b63c c770 9bbd
00000120: 276b 31bd 7adc b9bc bdfc 46bc cc12 5cbd
00000130: f3b6 a1bb 94d4 ffbc 1a30 febd 9f4a f0bc
00000140: b913 01be 68a8 2dbb 51c8 f8bd a85c dd3b
00000150: a10a bd3c 3fdb 3dbb 2d00 0abd a5ce 33be
00000160: d32e 86bd ac15 59bd 4f08 dbbd afa9 83bd
00000170: c198 c9bc 1b35 2bbe d527 cdbd 2f8e 06be
00000180: 9493 e2bd 9a3e 37be 3f34 21be 467f 0fbd
00000190: d328 f0bc 792d 833d f218 ab3d dcb5 753e
000001a0: 4abf 293e d5e2 983e 75e9 483e 3e97 bd3e
000001b0: c075 673e 6fa3 a53e 5630 983d 64cd 673d
000001c0: 4e28 b73d 0ec7 433e fa74 6c3e e255 853e
000001d0: 0f8b 633e aa7d 3b3e 8f22 bf3e 7cb7 a83e
000001e0: eb41 6a3e d4d2 1c3e 4406 4d3e 008a ba3d
000001f0: f87a 303e 8790 003e dcf7 953e 4cab 703e
00000200: 2883 8b3e 2330 9b3e 35c7 493e 0ee7 813d
00000210: 9476 cd3d 3d2b 0e3e 313f f53d d60b ab3d
00000220: 4807 9e3e 365c a53e ddca bd3e ce41 813e
00000230: cb20 d03d 3f7b 183e 192f b63d 05aa f33d
00000240: f5cb b23d 6d5d 583e f731 9e3e eb17 403e
00000250: bb3c 4f3e 2ad5 6c3e 804e 963d 5939 533e
00000260: 46dd 223e d4db 923d 21da f53d adba a73d
00000270: 32fa 1b3e 7fa1 983e dd90 4a3e 7ebb 943e
00000280: 6ad5 343e 6772 713e f568 3a3e 5fc5 983c
00000290: 76f2 853d 9f85 a43c 7205 843e cb85 353e
000002a0: 7297 933e bc8b 223e f1eb f63d 065b 1e3e
000002b0: 6359 3b3e 1ef1 c13d 2b37 183e 2c23 573d
000002c0: 0ec7 663e ea0d 603e 2844 5f3e ac81 783e
000002d0: 6128 5a3e 02e2 4a3e cac5 403e 5283 033e
000002e0: ee1b 523c e9a5 063c 9542 003e cb63 e43d
000002f0: 738f d03d 35fc 8f3e adba 2b3e 4428 333d
00000300: 44f8 e03d 951e 033d 1fa1 fb3d 5e9d c8bb
00000310: b80d 8d3c 3097 163e ffe9 eb3d ba1f 8e3d
00000320: 909a 6e3e eb0b 123d d717 adbd 2554 28b9
00000330: 1bdd e1bc ea71 233b 7c90 9cbb b345 07be
00000340: 72bd dbbd 1e10 fdbb 0710 473e d612 2b3d
00000350: 35de a2bc bc7a 513d 8c60 d6bd 3d00 bbbd
00000360: b6fd dfbd 08ff 57bd cac1 13be 3408 ecbb
00000370: c345 493e b1ba af3c ddb0 b3bd 7aa3 6fbd
00000380: f015 febc 5d47 22be 22e9 f9bd b727 92bd
00000390: 0ae6 2dbe 6e81 18be 36cc 1f3e 20c7 9cbb
000003a0: 3754 5ebd 6cb0 efbc 3922 1bbe e2d4 e2bc
000003b0: ecb5 2cbe ac6d f4bd 1864 ff3b 4e45 0dbd
000003c0: 2145 163e c010 b2bd 302c 3dbd 326e 7b3d
000003d0: 6a5e 1ebe c42d 98bd 3414 0d3d fec4 be3c
000003e0: d25c edbd ba21 3ebc eeb5 593d ecef c93d
000003f0: 7823 e2bd f624 ef3c fded 25be c50c 213d

conv.bias f4 [5]
0.11513097 0.26894513 0.2289464 0.20445454 0.19262137
00000000: c9c9 eb3d 2db3 893e ed70 6a3e 885c 513e
00000010: 893e 453e

fc1.weight f4 [64, 180]
-0.04834529 -0.06651907 -0.13784182 -0.074719146 -0.1404747 -0.07796039 -0.123009 -0.051156875
-0.09806311 -0.10405118 -0.120336436 -0.07338877 -0.124385305 -0.08720363 -0.03491268 -0.0064004916
-0.0560894 -0.042139035 -0.13779965 -0.05327446 -0.047158673 -0.043464657 -0.09308992 -0.023339175
-0.0551049 -0.07879825 -0.13367212 -0.025966872 -0.012826053 -0.06921342 -0.13647111 -0.12117241
-0.12946011 -0.11979225 -0.006608826 -0.07698272 -0.0026505396 -0.06684971 -0.11592987 -0.11839774
-0.11589289 -0.12669085 -0.106278926 -0.061710387 -0.10022236 -0.09269284 -0.1303139 -0.022952627
-0.0040580784 0.004223214 -0.02728243 -0.05614073 -0.06942492 -0.06519371 -0.039530307 -0.093116716
-0.004805956 -0.02265327 -0.017946132 -0.112890236 -0.03026737 -0.1416158 -0.104447834 -0.09388864
-0.038717993 -0.11295409 -0.042722326 -0.1290547 -0.07071187 -0.059985038 -0.06782804 -0.04080665
-0.12771197 -0.08506165 -0.13074417 -0.15229818 -0.063666776 -0.14104463 -0.105391696 -0.12441183
-0.16192897 -0.15176497 -0.089633785 -0.1697041 -0.16503981 -0.12558466 -0.06682501 0.014967689
-0.01253266 -0.030812413 -0.13681102 -0.083631344 0.038043417 -0.052149076 -0.12951447 -0.08261745
-0.1360723 -0.121513166 -0.043588895 -0.10474496 -0.043653794 -0.045733374 -0.119782366 -0.053720612
-0.062600404 -0.04223175 -0.16291165 -0.1657157 -0.062010355 -0.031221244 -0.14078045 -0.129216
-0.024510195 -0.03897937 -0.058343217 -0.12809151 -0.023528948 -0.023749404 -0.120631546 -0.05513456
-0.12217602 -0.05274298 -0.013827629 -0.13543762 -0.01207663 -0.11447843 -0.103230685 -0.1313397
-0.020189257 -0.06658045 -0.06744294 -0.12716925 -0.055789873 -0.14172392 -0.07011007 -0.048311867
-0.03493151 -0.04504331 -0.09467292 -0.09121649 -0.0290011 -0.06988421 -0.046944104 -0.031897284
-0.08677955 -0.016623566 -0.13581711 -0.096772596 -0.039781522 -0.028159814 -0.09405704 -0.03599352
-0.06557756 -0.04800302 -0.060479373 -0.09777733 -0.0763093 -0.13321191 -0.13205731 -0.005636584
-0.026625497 -0.08024947 -0.089248836 -0.11949762 -0.0010922698 -0.060417876 -0.036864903 -0.064017326
-0.062823825 -0.13142824 -0.021764971 -0.07319379 -0.041950285 -0.12478479 -0.1269078 -0.14973806
-0.106643446 -0.051047817 -0.04448846 -0.06583584 -0.087864846 -0.004211672 -0.06976252 -0.059758164
-0.011983917 -0.094269454 0.018317394 -0.017156657 -0.013788688 -0.099161446 -0.03853678 0.0064780596
-0.08227455 -0.024868714 -0.009577972 -0.11412888 -0.01609028 -0.066221215 -0.010991195 -0.06800565
-0.035525404 -0.068808205 -0.12927197 0.011952074 -0.082943186 0.008794955 -0.09115794 -0.0434336
-0.11042665 -0.004996334 -0.02704481 -0.10020346 0.014491809 -0.033705078 -0.11754929 -0.020702204
-0.010865648 -0.031291194 -0.10258991 -0.07049417 -0.11820348 -0.09666936 -0.07771903 -0.015931511
-0.06971432 -0.12994523 -0.062161297 -0.11279515 -0.08390953 -0.116755 -0.030739263 -0.024967683
0.013516252 -0.0017582655 -0.10782581 -0.06715424 -0.064795636 -0.066028096 -0.13037595 -0.11796581
-0.03590536 -0.041348245 -0.016073834 -0.11005731 -0.07956555 -0.01867225 -0.12040544 -0.10276229
0.005741615 0.0008964061 -0.061645955 -0.05978448 -0.008191735 0.039842017 -0.02815111 -0.041880053
00000000: b605 46bd 263b 88bd 6826 0dbe 5a06 99bd
00000010: 9ad8 0fbe b2a9 9fbd 25ec fbbd df89 51bd
00000020: 50d5 c8bd c918 d5bd f372 f6bd da4c 96bd
00000030: b9bd febd d197 b2bd 9900 0fbd 37bb d1bb
00000040: 00be 65bd fb99 2cbd 5a1b 0dbe 5236 5abd
00000050: 7429 41bd ff07 32bd eea5 bebd cc31 bfbc
00000060: adb5 61bd fa60 a1bd 58e1 08be 7ab8 d4bc
00000070: 5e24 52bc c4bf 8dbd 15bf 0bbe 3e29 f8bd
00000080: 3191 04be a455 f5bd da8e d8bb 1ea9 9dbd
00000090: adb4 2dbb 80e8 88bd a46c edbd 847a f2bd
000000a0: 4059 edbd 3fbb 01be c4a8 d9bd 08c4 7cbd
000000b0: 6141 cdbd bed5 bdbd 0271 05be 2607 bcbc
000000c0: a1f9 84bb e362 8a3b 677f dfbc d2f3 65bd
000000d0: a72e 8ebd 4884 85bd 88ea 21bd fab3 bebd
000000e0: 487b 9dbb 5a93 b9bc c403 93bc ff32 e7bd
000000f0: 47f3 f7bc bb03 11be bfe8 d5bd b048 c0bd
00000100: c296 1ebd 7954 e7bd 9bfd 2ebd ea26 04be
00000110: 63d1 90bd dfb2 75bd 6de9 8abd e024 27bd
00000120: edc6 02be cd34 aebd cde1 05be 0ef4 1bbe
00000130: ba63 82bd 016e 10be 9ad7 d7bd a1cb febd
00000140: b5d0 25be 4768 1bbe eb91 b7bd e9c6 2dbe
00000150: 3200 29be 4499 00be 8ddb 88bd 0a3b 753c
00000160: c955 4dbc 506a fcbc 3018 0cbe e946 abbd
00000170: 6ad3 1b3d 459a 55bd 719f 04be 5633 a9bd
00000180: 8956 0bbe e5db f8bd 458a 32bd 8784 d6bd
00000190: 52ce 32bd eb52 3bbd 7550 f5bd 250a 5cbd
000001a0: a434 80bd 33fb 2cbd 50d2 26be 60b1 29be
000001b0: 92fe 7dbd b2c3 ffbc c028 10be 3351 04be
000001c0: 9bc9 c8bc d5a8 1fbd 4cf9 6ebd 6c2a 03be
000001d0: c8bf c0bc 1c8e c2bc ac0d f7bd c7d4 61bd
000001e0: 6c37 fabd 0609 58bd 488d 62bc 29b0 0abe
000001f0: 0fdd 45bc ab73 eabd 9c6a d3bd ea7d 06be
00000200: f163 a5bc 555b 88bd 861f 8abd a838 02be
00000210: ec83 64bd 1320 11be de95 8fbd aae2 45bd
00000220: 5814 0fbd 557f 38bd e0e3 c1bd b6cf babd
00000230: b793 edbc 741f 8fbd 7648 40bd baa6 02bd
00000240: 7ab9 b1bd 252e 88bc a413 0bbe b630 c6bd
00000250: f3f1 22bd 69af e6bc faa0 c0bd f16d 13bd
00000260: 874d 86bd d19e 44bd 38b9 77bd 7b3f c8bd
00000270: 0d48 9cbd b468 08be 083a 07be 18b3 b8bb
00000280: b71d dabc d659 a4bd 18c8 b6bd 2bbb f4bd
00000290: 7e2a 8fba bc78 77bd a7ff 16bd 841b 83bd
000002a0: c7a9 80bd 2095 06be 744c b2bc a0e6 95bd
000002b0: 10d4 2bbd 2b8f ffbd 1ef4 01be ef54 19be
000002c0: e167 dabd 8417 51bd 8839 36bd f1d4 86bd
000002d0: 7cf2 b3bd 1102 8abb a7df 8ebd fac4 74bd
000002e0: 3158 44bc 5810 c1bd 5c0e 963c 1e8c 8cbc
000002f0: f3e9 61bc 2815 cbbd bed8 1dbd e745 d43b
00000300: 8f7f a8bd 79b9 cbbc edec 1cbc 67bc e9bd
00000310: c3cf 83bc fd9e 87bd 6a14 34bc 8c46 8bbd
00000320: 1683 11bd 51eb 8cbd df5f 04be a2d2 433c
00000330: 1ede a9bd b718 103c 04b1 babd 6ee7 31bd
00000340: 5e27 e2bd 4ab8 a3bb 148d ddbc 7937 cdbd
00000350: 0d6f 6d3c 560e 0abd afbd f0bd ab97 a9bc
00000360: d505 32bc 322b 00bd a91a d2bd 3f5f 90bd
00000370: ab14 f2bd 96fa c5bd 282b 9fbd cd82 82bc
00000380: 62c6 8ebd 5d10 05be d89c 7ebd 2501 e7bd
00000390: c2d8 abbd 3f1d efbd e8d0 fbbc 0789 ccbc
000003a0: 4573 5d3c 9a75 e6ba c7d3 dcbd 2a88 89bd
000003b0: 93b3 84bd bd39 87bd 4681 05be 0f98 f1bd
000003c0: 8011 13bd c75c 29bd 46ad 83bc ba65 e1bd
000003d0: 43f3 a2bd 8cf6 98bc 2197 f6bd 0975 d2bd
000003e0: 2824 bc3b ccfc 6a3a 7880 7cbd 92e0 74bd
000003f0: a036 06bc 6231 233d 289d e6bc 6b8a 2bbd

fc1.bias f4 [64]
-0.09975819 0.007587987 -0.019185118 -0.0011957096 0.02142056 -0.07278561 -0.07800415 -0.14417216
0.062378414 0.035987735 -0.010245377 -0.004602511 -0.010525415 0.018284207 -0.008534548 -0.016980233
0.19927165 -0.05861754 0.052338183 -0.0661652 0.02489585 -0.02603922 -0.03034632 -0.09040212
-0.0006901731 -0.07268105 0.04169422 -0.078170575 0.2982628 -0.008383796 -0.08798596 0.010356882
0.06301154 -0.017246991 -0.08319866 -0.0035054921 0.10535913 0.1306216 0.03652707 -0.028500445
0.033639424 -0.024726706 -0.020060923 -0.037440337 -0.095081545 -0.01441186 -0.119113065 -0.07410841
-0.04363537 -0.06765623 -0.07106842 -0.048476662 -0.12682082 -0.074768506 -0.06794991 -0.07384519
0.092349105 -0.05711056 0.022119537 0.059906982 -0.1265317 -0.061860226 0.016729513 0.061434068
00000000: 064e ccbd a6a4 f83b 1c2a 9dbc 5bb9 9cba
00000010: 2c7a af3c 9f10 95bd a4c0 9fbd dea1 13be
00000020: 8280 7f3d e067 133d 3adc 27bc a9d0 96bb
00000030: ca72 2cbc c3c8 953c 7dd4 0bbc 211a 8bbc
00000040: de0d 4c3e f218 70bd 9060 563d 9f81 87bd
00000050: 62f2 cb3c 3450 d5bc d898 f8bc bf24 b9bd
00000060: bcec 34ba cdd9 94bd 8fc7 2a3d e517 a0bd
00000070: e7b5 983e 305c 09bc fc31 b4bd e9af 293c
00000080: 320c 813d 9049 8dbc 0f64 aabd 66bc 65bb
00000090: 87c6 d73d abc1 053e 699d 153d c479 e9bc
000000a0: 7ec9 093d a98f cabc ce56 a4bc 0a5b 19bd
000000b0: 1dba c2bd b91f 6cbc 8df1 f3bd 26c6 97bd
000000c0: 00bb 32bd 598f 8abd 528c 91bd 778f 46bd
000000d0: 51dd 01be 3b20 99bd 5329 8bbd 263c 97bd
000000e0: 8721 bd3d c3ec 69bd 0834 b53c 0661 753d
000000f0: 8791 01be 2661 7dbd 550c 893c 4aa2 7b3d

fc2.weight f4 [4, 64]
-0.10280192 0.05680559 -0.035797074 -0.14061823 0.03377247 -0.07058668 -0.12616053 -0.054453406
0.02929154 0.11352737 0.03693182 -0.00028894388 -0.013478153 -0.12613775 0.02529918 0.0031454829
0.32166982 0.04708299 0.23034585 0.0027153671 0.105234124 -0.14778395 0.003663674 -0.059364885
0.059805267 0.11288834 0.13824585 -0.12852384 0.3584709 0.11796984 0.019664127 -0.15022089
0.25154296 -0.029078044 -0.079596005 -0.14183867 0.21174148 0.2939859 -0.10424541 -0.05485505
-0.052785277 0.06425601 0.00079587003 -0.065507844 0.10594122 -0.014581445 -0.06194539 0.109357804
-0.069656454 0.037690744 0.10236369 -0.0053424095 0.05952355 0.06337971 0.12372351 0.054888066
0.28589138 0.107628435 -0.08019744 0.08891679 0.05822536 0.041991398 -0.064339295 -0.123337105
-0.114511415 -0.15002286 -0.058743022 -0.034573574 0.02248235 -0.07365696 -0.16876599 -0.046558704
0.023128584 0.071931064 -0.13750136 -0.1032909 -0.069720894 -0.006957172 0.020256655 0.014255804
0.5811541 0.08938335 0.41649297 -0.056567382 0.020188248 -0.15908521 -0.036494 -0.0102931615
-0.039719403 0.019556388 0.01773521 -0.10725823 0.64859927 0.011103243 -0.14033566 -0.0031692353
0.4545633 -0.012762879 0.01911837 0.04873774 0.38272706 0.5312378 -0.039197974 0.0031957477
-0.045885548 -0.09115006 -0.031836793 -0.006712054 0.086569116 -0.013365709 -0.00499514 0.094169416
0.05087134 0.11674863 -0.12095341 -0.14774294 0.05529084 -0.03734756 -0.052670494 0.027383203
0.51653254 0.022859827 -0.043730173 0.048099414 -0.08422818 0.07282385 0.036436316 -0.060524136
-0.11182207 0.111166105 -0.10027032 0.04527475 0.096275225 -0.04594803 -0.17489766 0.022012116
-0.026096076 0.06123154 0.06506491 0.033849366 0.17308219 -0.039043926 -0.10144432 0.013835865
-0.4852357 -0.0010855198 -0.34733868 -0.043450307 -0.15564358 -0.085811794 -0.06431107 0.02466957
-0.09002602 -0.03931495 -0.13299967 -0.0861151 -0.5406698 -0.06503312 0.16288248 -0.044083912
-0.37918386 0.05299845 0.12694032 0.060724773 -0.31908 -0.4433342 -0.19686782 0.020436198
0.05021985 0.16491474 -0.030395305 -0.091590405 -0.021294955 -0.010743082 0.06901484 0.07057495
0.10696235 -0.052979797 0.101693496 -0.18781589 0.14215136 0.10177649 -0.123979375 0.09526045
-0.43108365 -0.04900691 -0.07783632 -0.08684771 0.15596868 0.0681988 -0.107651874 0.0060174316
-0.048350904 0.0088632265 -0.054178014 -0.022721529 0.093443274 0.013834015 -0.009290281 -0.07906154
-0.03437105 0.08424543 -0.03251884 -0.039697092 -0.06305258 -0.027594883 -0.07558273 -0.13365117
-0.07684071 -0.067725375 -0.055271912 -0.08360325 -0.11717747 0.0014069207 -0.10135551 -0.031621836
-0.11984702 -0.055019397 -0.1319347 0.019640474 -0.08615855 0.002150759 0.034001973 -0.018822579
-0.060259942 0.15604857 0.00961601 0.06999087 -0.05063336 -0.07044847 -0.040320076 0.032946378
0.07220347 -0.009207334 -0.12646997 -0.12435744 -0.047224592 0.019815065 0.08143268 0.036138937
0.15091929 0.08275327 0.10455532 -0.030388681 -0.04466586 -0.05635897 0.051070824 -0.051319595
-0.06849151 -0.03592065 -0.026041914 -0.05959277 0.10256036 0.014866725 0.031184422 0.08958511
00000000: d089 d2bd faac 683d f49f 12bd 3afe 0fbe
00000010: 0055 0a3d c08f 90bd 3a30 01be 890a 5fbd
00000020: d0f4 ef3c 0a81 e83d d245 173d 647d 97b9
00000030: 79d3 5cbc 412a 01be 3a40 cf3c 7224 4e3b
00000040: e8b1 a43e 18da 403d c8df 6b3e 4df4 313b
00000050: fd84 d73d ad54 17be 401a 703b 9828 73bd
00000060: 5ef6 743d 0132 e73d 5290 0d3e c19b 03be
00000070: 7f89 b73e 2c9a f13d aa16 a13c 81d3 19be
00000080: 3dca 803e 1435 eebc 3b03 a3bd 283e 11be
00000090: c2d2 583e 5285 963e 9e7e d5bd b0af 60bd
000000a0: 6035 58bd a898 833d efa1 503a fa28 86bd
000000b0: b6f7 d83d 03e7 6ebc 73ba 7dbd fcf6 df3d
000000c0: 0ba8 8ebd 9c61 1a3d 0ea4 d13d 610f afbb
000000d0: f7ce 733d 39cd 813d c062 fd3d 4fd2 603d
000000e0: 5b60 923e 4c6c dc3d 8e3e a4bd 021a b63d
000000f0: b77d 6e3d 2cff 2b3d 52c4 83bd 2a98 fcbd
00000100: f684 eabd 989f 19be 869c 70bd 059d 0dbd
00000110: e82c b83c 76d9 96bd fed0 2cbe 57b4 3ebd
00000120: 2878 bd3c 9850 933d 28cd 0cbe 2e8a d3bd
00000130: d4c9 8ebd fdf8 e3bb 49f1 a53c 2d91 693c
00000140: 84c6 143f 9e0e b73d 913e d53e 33b3 67bd
00000150: d361 a53c 3ce7 22be bc7a 15bd a6a4 28bc
00000160: d0b0 22bd b834 a03c 6e49 913c 34aa dbbd
00000170: 9a0a 263f 60ea 353c 27b4 0fbe f2b2 4fbb
00000180: 85bc e83e 651b 51bc 219e 9c3c 39a1 473d
00000190: cdf4 c33e 33ff 073f 0e8e 20bd c06f 513b
000001a0: 7cf2 3bbd e2ac babd 4c67 02bd caf0 dbbb
000001b0: 264b b13d d9fb 5abc 45ae a3bb e5db c03d
000001c0: 775e 503d e819 ef3d 6cb6 f7bd ed49 17be
000001d0: a678 623d c1f9 18bd 04bd 57bd bd52 e03c
000001e0: 7a3b 043f 8844 bb3c 691e 33bd e403 453d
000001f0: d37f acbd ac24 953d 3f3e 153d 28e8 77bd
00000200: f802 e5bd 0eab e33d 875a cdbd 0472 393d
00000210: f22b c53d 0034 3cbd 5f18 33be c152 b43c
00000220: 70c7 d5bc eccd 7a3d c040 853d a2a5 0a3d
00000230: 753c 313e 86ec 1fbd 0ac2 cfbd d3af 623c
00000240: d070 f8be 0048 8eba 60d6 b1be f3f8 31bd
00000250: 0861 1fbe 18be afbd 86b5 83bd d717 ca3c
00000260: 905f b8bd b708 21bd 1131 08be 1d5d b0bd
00000270: 5669 0abf 1630 85bd aaca 263e 5591 34bd
00000280: 6324 c2be e714 593d a5fc 013e 8aba 783d
00000290: 745e a3be b3fc e2be b897 49be d069 a73c
000002a0: 54b3 4d3d 69df 283e 93ff f8bc c093 bbbd
000002b0: c272 aebc c003 30bc a757 8d3d 9989 903d
000002c0: 140f db3d 5801 59bd ae44 d03d cf52 40be
000002d0: 2090 113e 3170 d03d e6e8 fdbd e917 c33d
000002e0: ffb6 dcbe 78bb 48bd a668 9fbd 36dd b1bd
000002f0: 41b6 1f3e d0ab 8b3d 9678 dcbd e02d c53b
00000300: 990b 46bd 1137 113c c4e9 5dbd 8022 babc
00000310: 305f bf3d 10a8 623c 4336 18bc 04eb a1bd
00000320: a8c8 0cbd de88 ac3d 7a32 05bd 6b99 22bd
00000330: b621 81bd aa0e e2bc 1ecb 9abd dadb 08be
00000340: aa5e 9dbd 9ab3 8abd cd64 62bd 2e38 abbd
00000350: befa efbd 6d68 b83a 7a93 cfbd e685 01bd
00000360: 5b72 f5bd 055c 61bd e419 07be 0fe5 a03c
00000370: e573 b0bd c0f3 0c3b a745 0b3d cf31 9abc
00000380: 21d3 76bd 32cb 1f3e 788c 1d3c 6057 8f3d
00000390: ed64 4fbd 4a47 90bd aa26 25bd c8f2 063d
000003a0: 6adf 933d 5cda 16bc 5881 01be 1daf febd
000003b0: 936e 41bd 3453 a23c 2dc6 a63d 6c06 143d
000003c0: 968a 1a3e 8c7a a93d 1a21 d63d aff1 f8bc
000003d0: 8cf3 36bd aad8 66bd a42f 513d 7f34 52bd
000003e0: 4745 8cbd 8821 13bd da55 d5bc 8c17 74bd
000003f0: 2b0b d23d 9093 733c 7976 ff3c 6678 b73d

fc2.bias f4 [4]
0.268978 0.3904069 -0.34281722 -0.03688138
00000000: 7cb7 893e 6ae3 c73e bd85 afbe ee10 17bd
