src/flatland/flat_game/results/ourmethod_noreg7/rep_learner.pth (torch_old, 312918 bytes, 33 tensors)

representations f4 [6]
00000000: 4e9c 46bf b0f6 a43c f53a 113f e7eb 19bf
00000010: 3daf 45bf 9c4c 80be
-0.7758225 0.020137161 0.56730586 -0.60125583 -0.7722052 -0.25058448

representations f4 [6]
00000000: 79fb 693e d84f 3abf 34e0 18bf 890f 253f
00000010: 90ff 833d 383d 453f
0.22849835 -0.7277808 -0.59717107 0.6447683 0.06445229 0.7704654

representations f4 [6]
00000000: 523b 9d3c f47c 85bd 4f49 a23f 404f a2bf
00000010: 4497 7ebd 4e91 15bd
0.019193325 -0.065179735 1.2678622 -1.2680435 -0.062155977 -0.036515526

representations f4 [6]
00000000: 47d8 f3bb 2b4b 9c3d ed21 a1bf 079b a13f
00000010: c8b2 673d e0d1 e3bb
-0.0074415538 0.07631525 -1.2588478 1.2625436 0.056566983 -0.0069525093

fc1.weight f4 [64, 4]
00000000: bf00 e2bf f395 aabf 133a 783f 36c0 1fbf
00000010: d381 d33f ae5e 9b3e e44f 033f a4da 503f
00000020: ec38 8dbd 27d4 0dc0 8e73 72bf 1a96 24c0
00000030: dbec a0bf 295b 42be c676 edbf e38b d0bf
00000040: 81c3 65bd 4ddc 7f3f 0883 cd3f 9db6 163f
00000050: f8e2 11bd 08b8 193f 559a bd3f 0689 273f
00000060: 9bb3 96bf e31f c13f 648c ffbd 144b 7a3e
00000070: 239e 00c0 d171 0fbf f955 cbbd 618c 70bf
00000080: 1f65 a73e e93a 633f 13fe 35c0 9710 d7be
00000090: 3d05 3ebf 7404 38c0 4b5a 7c3f 9c14 22c0
000000a0: 8e27 19be 7c44 8f3f 77ef b73f 41fb b6bd
000000b0: 03ec 82bd 9d3e 22c0 4fc2 b23f 7ed8 093f
000000c0: c008 0340 3abc 993f dbba 0b3e 1c7e 22bf
000000d0: 4f81 b7be 235e 0d40 5e36 dc3f 77eb df3f
000000e0: 6917 aebe 1694 8c3e 7cc2 053f 24d9 38bf
000000f0: bc0c 4c3f 422b 283f 3df6 44bf 7b24 2040
00000100: ec55 183a 975f 113e c0d8 c43f 13b3 2cc0
00000110: 18e5 5fbe a85a 943d cc48 c53e 4083 6abd
00000120: 8099 36bf 981e dbbf 0946 18c0 9c9e 1fbf
00000130: bb00 eabf b3ad 5ebe 1eac 1fc0 aed8 993f
00000140: 0f77 323f d221 01be 97be 313f 681d 683e
00000150: 9311 cd3e 2420 21bf c701 983f 20cb 7ebf
00000160: 3cb3 79bd f3c8 78bc 5d6a d53e 6525 37c0
00000170: 1a0e 7cbe 5e4d 443f f147 33bf a6c6 96be
00000180: c3cd 763f 61ac cc3f a9d2 44be 1d24 e5bf
00000190: e254 92bd da9f 1440 ad0b 6e3e f74f 65be
000001a0: f8fd 24bd 2226 0140 b626 95bf ec50 d6be
000001b0: 131d c03f f7f7 11c0 4f39 97be 6b2b 94bf
000001c0: 39c3 8ebf da72 833f 7529 0fc0 bdd2 a1bf
000001d0: 26b0 17be 1a04 5ebe a352 babf 764b 623e
000001e0: 8e06 6f3e ae9e a93f 360b 3e40 693b f33f
000001f0: 3cf6 e63f a9c8 303e 04ce a03f d29e 983f
00000200: 7947 3c3e 7882 173f 79e5 3c3f 3442 33bf
00000210: 1c4c 7abf bfd4 adbf ecce 32bf 34ab 0a40
00000220: 58fe d5bf 09b4 ad3f ff0e b8bf 2593 92bd
00000230: cece 25c0 4390 59bf 3206 b1be b82d 14c0
00000240: c3c3 723f 7074 2c3e 9791 163f 19c0 2440
00000250: d48e 0a40 887f 74c0 4269 773f 1174 17bf
00000260: 6c1c 1c40 19da 75bf 5261 223e 6621 17c0
00000270: 2bd8 17c0 8b0b 773f 9862 f3be 560e ee3e
00000280: e840 043f e1cc 5bc0 7a2c 69bf 64c4 143f
00000290: 1929 ec3f 9516 24c0 c084 fb3f 452c 8c3e
000002a0: f8e9 afbe e039 ff3f 7216 b23f c3ab 05be
000002b0: 392d d3be b78a 73bf 6114 d63e 5384 8a3e
000002c0: 97ac d73f 8c3c 4b3f 6afb 62bf 4af0 57bf
000002d0: b05f 663f 3a29 363d b16f 333f 19e0 abbf
000002e0: 3285 2740 6011 973e fd71 163e b864 263f
000002f0: a8df 103f bdcf 3ec0 8ae1 eebf 1056 773e
00000300: 2fbc 8f3e 18bc 853f 6134 903e d1f4 bc3f
00000310: bcca cebf db21 c93f 31ae 9bbf 1f02 1a3f
00000320: 3eff cf3e d9af 9cbe 6fbc 543f 7bcc 1cbf
00000330: b5c0 093f c3b9 983f 1b0d 59c0 a7ab b7be
00000340: f53f febf 8487 53bc 8f75 13bf bbb2 9d3f
00000350: fd62 46be b813 15c0 8566 0f40 4ad8 f63e
00000360: b273 50bf 47ac 0940 e61b 8d3f f6d1 983f
00000370: 9849 0cbf 1367 903f 16ee eabf b238 f33f
00000380: 8e3a 49be 260e a3bf 9d39 32c0 e0eb cabf
00000390: 967b b63f 5fdc 7a3f 1895 fbbe 5aa3 b23e
000003a0: 4ca6 0640 d75a 98bf 1c45 0240 17c8 bb3f
000003b0: 4bfc 8bbe dd84 203f 0568 3440 a334 3f3e
000003c0: 4acf 663f 3ba2 5ebf 3fe6 1ac0 f76a de3f
000003d0: 4a96 c2be bea3 0c40 cae3 f43f 67cd 1bbe
000003e0: 73f1 b4be d68d 93bf 2ed3 22c0 cdf0 d8bf
000003f0: a958 8abf 7e8a 41c0 2c42 1c3f 74df b23d
-1.7656478 -1.3327011 0.96963614 -0.62402666 1.6523994 0.30345672 0.5129378 0.8158362
-0.068956226 -2.2160738 -0.9470757 -2.5716615 -1.2572283 -0.18980087 -1.8551872 -1.629269
-0.05609465 0.9994553 1.6055613 0.58872396 -0.035616845 0.60046434 1.4812723 0.65443456
-1.1773561 1.5087856 -0.12477949 0.24442703 -2.009652 -0.56033045 -0.09928507 -0.939642
0.32694337 0.88761765 -2.8436325 -0.42004845 -0.74226743 -2.8752718 0.98575276 -2.532508
-0.14956495 1.1192775 1.4369954 -0.08934642 -0.06392672 -2.5350716 1.3965548 0.53845966
2.047409 1.2010567 0.13645498 -0.6347368 -0.35840842 2.2088706 1.7204092 1.7493733
-0.34002236 0.2745673 0.52249885 -0.7220633 0.7970693 0.65691006 -0.7693823 2.5022266
0.0005811143 0.14196621 1.5378647 -2.6984298 -0.21864736 0.07243854 0.38532102 -0.057254076
-0.7132797 -1.7118711 -2.3792746 -0.62351394 -1.8281473 -0.21745948 -2.4948802 1.201925
0.6971292 -0.12610558 0.6943144 0.22667468 0.4005247 -0.6293967 1.1875542 -0.99528694
-0.060961947 -0.015184629 0.4168271 -2.8616574 -0.24614754 0.7668055 -0.7003165 -0.29448432
0.9640772 1.5990106 -0.19220985 -1.7901646 -0.07145096 2.3222566 0.23246641 -0.22393785
-0.040281266 2.0179524 -1.1652439 -0.41858613 1.5008873 -2.2807596 -0.2953591 -1.157575
-1.1153327 1.0269425 -2.2369053 -1.2642437 -0.14813289 -0.21681252 -1.4556469 0.22099099
0.23342344 1.325155 2.9694343 1.9002506 1.8043895 0.17264046 1.2562871 1.1923468
0.1838664 0.59183455 0.7378765 -0.7002289 -0.97772384 -1.358055 -0.6984699 2.1666994
-1.6718245 1.3570567 -1.4379576 -0.07156972 -2.5907474 -0.8498575 -0.3457504 -2.3152905
0.9482996 0.16841292 0.588159 2.5742247 2.1649675 -3.820284 0.96644986 -0.5916148
2.4392347 -0.96035916 0.15857437 -2.3614135 -2.3725688 0.9650199 -0.4753616 0.46495312
0.5166154 -3.4343798 -0.9108349 0.5811217 1.8450042 -2.5638783 1.9649887 0.27377525
-0.34358191 1.9939537 1.39131 -0.13053803 -0.4124544 -0.9513354 0.41812423 0.2705408
1.6849545 0.7938926 -0.8866488 -0.84351027 0.8998976 0.04447291 0.700923 -1.3427764
2.6175046 0.29505444 0.1469192 0.64997435 0.5659127 -2.9814293 -1.8662579 0.24153924
0.2807326 1.0448027 0.28164962 1.4762212 -1.615562 1.5713457 -1.2162534 0.60159487
0.40624422 -0.3060291 0.83100027 -0.6124951 0.5380967 1.193169 -3.391425 -0.35873148
-1.9863268 -0.012910727 -0.57601255 1.2320169 -0.19373699 -2.3293285 2.2406323 0.4821189
-0.8142654 2.15114 1.1024139 1.1939075 -0.54799795 1.1281456 -1.8353908 1.9001677
-0.19651243 -1.2738693 -2.7847664 -1.5853233 1.4256465 0.9799251 -0.49137187 0.34890252
2.1039 -1.1902722 2.035468 1.4670438 -0.27340922 0.62702733 2.8188488 0.18672423
0.9016005 -0.86966294 -2.420303 1.7376393 -0.38005286 2.197494 1.9132016 -0.15215074
-0.3534046 -1.152766 -2.5441394 -1.6948487 -1.0808307 -3.024078 0.6103847 0.087340266

fc1.bias f4 [64]
00000000: 1658 263f 722a f33e e90e 75bd b49a 43bf
00000010: fa22 d13e a8d1 ea3e 231b 593e cc26 ae3d
00000020: 8b83 93bd 7140 dd3e ba9d ffbd 29de 26be
00000030: d37e cf3d ed5d 54be d776 793e 1a61 8e3e
00000040: ec2f 4d3e 3067 f8be 5148 05bf ca62 87bf
00000050: 22fe 1d3e 6dad 603f 3f64 783e 792e 743e
00000060: 3c09 82be 0ee5 afbc c89e 3f3d 1df0 68be
00000070: 9f3e b23d 6bf3 243e 6823 283d 7cad 5e3e
00000080: 996d 173f 1b20 b13e b7e9 e93d cf9e 973e
00000090: 079c 583e 9125 54bc 6ac7 9bbe e45c 023e
000000a0: 2687 e8bd 1ee9 d7bb ebd1 c9bc 4f94 373e
000000b0: 0d94 36bc ee8e c53e eb09 333f 1181 6cbd
000000c0: be6c 693e c230 4c3d 28f0 df3e 978e f0bd
000000d0: 95d1 6f3e 4f5a 3dbe 304a 3a3c 2a24 ca3e
000000e0: 4908 373e 3bde 083f 0601 d2be 4fed c9bd
000000f0: 7da5 333d 64fe 04be bba2 8dbd cc41 253f
0.6497816 0.4749332 -0.059828673 -0.76407933 0.40846997 0.4586308 0.21201758 0.08503494
-0.07202824 0.43213227 -0.12481256 -0.16295685 0.10131612 -0.20738955 0.2436174 0.27808458
0.20037812 -0.48516226 -0.5206347 -1.0577023 0.15428975 0.87764627 0.24256991 0.23845853
-0.2539767 -0.021471526 0.046782285 -0.22747846 0.0870335 0.16108482 0.04104939 0.21745867
0.5915161 0.34594807 0.11421531 0.2961335 0.2115327 -0.01294841 -0.30425578 0.12730747
-0.113539025 -0.006589069 -0.02463623 0.17927669 -0.0111436965 0.3858561 0.6993701 -0.057740275
0.22795388 0.049851187 0.43737912 -0.11745947 0.23419793 -0.18491481 0.011370227 0.39480716
0.17874254 0.53464097 -0.41016406 -0.09859716 0.043858994 -0.12987667 -0.06915804 0.64553523

fc2.weight f4 [180, 64]
00000000: 0f14 313f 78c1 453e 2133 543e 2b1d 10bd
00000010: 6b61 b83d 94ad 07bd cfba 343e 320b 34be
00000020: 29f7 c23e 380d 5d3f 6b69 e1bd 0cc6 973c
00000030: 33c6 b53e 6b0c 06bf e842 c03d d94e cf3e
00000040: 68cb 853e b49b 143d ab3e a53b ccab 50be
00000050: e849 a4bd cb88 4f3e 754e f0bc 3672 5a3e
00000060: 83f0 a23e aeca ac3e 88c8 5dbc f849 0b3e
00000070: 3719 f8be 1fa4 543c 8227 273e c07e 933c
00000080: 3e75 a13e 730c 023d 9005 013e 7d75 a6be
00000090: bc01 913e f153 e13e dadc d5be ba3e e53d
000000a0: 8737 9c3e 62db 08bf c11e 763d b5a3 8e3d
000000b0: 6946 10bd 0e85 ab3e bc58 3f3e 4efb b2bd
000000c0: 7963 913e f3d0 403e dd81 183e ae91 643e
000000d0: 6d16 8cbc 0d65 d83e 1978 0e3d c80f 00bd
000000e0: 20f9 6d3e 1a12 8cbd 3153 b3be c846 50bb
000000f0: 9622 55be 9929 1a3e 0a1c c5bd 31cd 2f3f
00000100: b5f3 bd3e 745e 4c3d 00d0 75be a7a5 d2bd
00000110: 9cb0 8b3d f245 0f3d d2ee 1ebe 3c34 36be
00000120: 95cb fa3e d99c 473f 2254 95bd 6b7b 563f
00000130: 82dc 22bf 11e9 70bf c9bd 25bd 4f5b 50be
00000140: fe30 b53e 6471 4c3d d28c 183b 4a12 063e
00000150: 20ff 033e aa33 233e 2343 2a3e 42fd ecbd
00000160: c47d 26bf 658f 46be aebf 07be 46e0 783e
00000170: c6de 8cbf f594 133f 13ce 0dbf 3e01 61be
00000180: 3cb7 d73d f0ce a3be dfe5 aebe a901 0dbf
00000190: db38 5ebe 9ecd a93e 6c22 423e 45f6 22be
000001a0: 2345 293f 7584 f0bd a97c 983d 1d72 db3e
000001b0: 072b 553c a478 793e d3bb f8bc aec6 1e3f
000001c0: 962d e7be 2be6 86bd ea1d 503d f7cf 043f
000001d0: b1bb 85be fe0f 6f3f a2f7 80be 4e8a 3c3f
000001e0: 29c1 47bf 112b 84be 9320 a2bd e726 263f
000001f0: a949 0d3f 46bb 443d f215 2ebf 8f63 0d3f
00000200: e238 e4bd 3a18 e7bc c34e 413d 2ec9 533b
00000210: 35bc 11be 9a87 39be eb42 4bbe b7ca b33d
00000220: 528d 07be 894a aebd cc7c 5e3c 9094 b7bd
00000230: 81d4 bbbd 3b73 8abe 445d 463d dec0 35be
00000240: b5c4 efbd eabb 8f3d 41b0 873d 6a92 6e3d
00000250: 5333 27be 2fd2 98bd 7ebb 663d 032a 35bd
00000260: 4066 64be d6ad c3bd f045 03bc a246 8dbd
00000270: b2ec 55be 8205 9fbc 998a cfbd 4c81 02be
00000280: be93 55be 900a 40be 383e 20bd f13e 013d
00000290: 6c69 b1bd 719b 25be 359f 51be 8e8e 08be
000002a0: f010 1bbd 5eba e83c fe2d 0fbd 8959 243d
000002b0: d038 493d 74b9 303c 6c80 50be 42ab 94bd
000002c0: fd2e 06be 750e 2b3c aacc 26be e5e7 95bb
000002d0: dc96 18be a7d4 68be 4477 2abe 5006 65be
000002e0: 92e7 2cbe 4e5d 56be 699b c0bd 1aef 8dbd
000002f0: 2597 c3bd 4d8f 34be 8982 90bd fd5b 9dbd
00000300: bf6e d5bc f310 353d 02ca 1fbe 15d4 2bbe
00000310: 51ca 01be a76e f6bd db62 1cbe 4d91 bebc
00000320: f511 a43c 9455 49bd c5cc 5b3d 49ad 613d
00000330: 130e 2dbe 175e 943b acea 453d da60 343d
00000340: 772b 52bc 70a1 a33c 4fac 1a3c c9a4 edbd
00000350: 2f04 adbd 40f5 ae3b de72 e4bd e28b 06be
00000360: 6df2 c53c f875 b4bc 1ff1 a03b 7c6a b4bd
00000370: 2687 93bd edad 70bd aeba d4bd 0590 36be
00000380: 1316 3abe d38a 7f3d 2b8d 00be a457 bcbd
00000390: 2f48 22be 497a d0bd e3e9 2abe 3ce2 0cbe
000003a0: 031c 8dbd addd 05be 335a 8bbc d24f 8dbd
000003b0: db09 31be bcca d3bd 4c08 fcbc 512a 0f3c
000003c0: dcf9 c2bd 78c2 823c ce0c c83a 2ac6 86bd
000003d0: 64e6 bdbd 7bd3 573d 5a28 533d 7673 8d3d
000003e0: a9c0 363c d5db 373c b780 6f3d bebf 44bc
000003f0: 69a8 c83c c519 cc3d c671 bdba 6614 c0bd
0.6917123 0.19312084 0.20722629 -0.035184067 0.09002956 -0.03312452 0.17649387 -0.17582396
0.38079193 0.86348295 -0.11006435 0.018527053 0.35502777 -0.523627 0.09387761 0.40489843
0.2613175 0.036281303 0.005042871 -0.20378035 -0.08021909 0.20267026 -0.029334286 0.2133263
0.3182412 0.33748382 -0.01353658 0.13602436 -0.48456737 0.012978583 0.16323665 0.018004775
0.3153476 0.031750154 0.12599778 -0.3251151 0.28321636 0.44009355 -0.4177006 0.11193605
0.30511114 -0.5345975 0.060087923 0.069648184 -0.0352234 0.3349995 0.18686193 -0.08739339
0.28396204 0.18829708 0.14893289 0.22321197 -0.017100537 0.42264596 0.034782503 -0.03126505
0.23239565 -0.0683939 -0.35024408 -0.003178047 -0.20813975 0.15054931 -0.09624489 0.6867247
0.37099996 0.049894765 -0.24005127 -0.10285502 0.06820795 0.034978814 -0.1552079 -0.17793363
0.48983446 0.77973706 -0.07291438 0.8378207 -0.6361772 -0.9410563 -0.040464196 -0.20347331
0.3538894 0.049912825 0.0023277295 0.13092914 0.12890291 0.15937677 0.16627173 -0.115717426
-0.65035653 -0.19390638 -0.13256714 0.24304304 -1.1005485 0.57649165 -0.5539257 -0.2197313
0.10532996 -0.31993818 -0.34159753 -0.5508066 -0.21701376 0.33164686 0.18958443 -0.15914257
0.6612112 -0.11744014 0.07445652 0.428605 0.013010747 0.24362427 -0.030362999 0.6202191
-0.45151967 -0.0658687 0.05080978 0.5187983 -0.2611976 0.9338378 -0.2518893 0.73648536
-0.78029114 -0.25814107 -0.07916369 0.6490311 0.5519052 0.04803016 -0.68002236 0.5523004
-0.11143662 -0.028209794 0.047194254 0.0032315957 -0.14231952 -0.18118134 -0.19849746 0.08778899
-0.13237503 -0.0851031 0.013579559 -0.08963883 -0.09171391 -0.2704104 0.04842879 -0.17749354
-0.11707441 0.07018264 0.06625415 0.0582451 -0.16328172 -0.07461964 0.05633115 -0.04422952
-0.2230463 -0.09554641 -0.00801228 -0.06898238 -0.20891073 -0.019411806 -0.10133857 -0.12744635
-0.2085714 -0.1875403 -0.039121836 0.031554166 -0.08662686 -0.16172577 -0.20470889 -0.1333563
-0.03785795 0.02840918 -0.03495597 0.04012445 0.049126446 0.010786403 -0.20361489 -0.07259227
-0.13103862 0.010440459 -0.1628901 -0.004574763 -0.14901298 -0.2273737 -0.16647059 -0.2236569
-0.16885212 -0.2093403 -0.09404642 -0.06930371 -0.09550313 -0.1763279 -0.070561476 -0.07683561
-0.026053784 0.044205617 -0.15604404 -0.16780122 -0.12674834 -0.12032824 -0.15272085 -0.023262644
0.020028094 -0.04915388 0.05366208 0.0550969 -0.168999 0.004527818 0.048319504 0.044037677
-0.012827746 0.01997444 0.009440496 -0.11603696 -0.084480636 0.0053392947 -0.11154722 -0.13139299
0.02416345 -0.022028908 0.0049115564 -0.08809373 -0.07203512 -0.05875962 -0.10387169 -0.17828377
-0.18172483 0.062388252 -0.12553851 -0.091964036 -0.15847848 -0.10179574 -0.16690783 -0.13758177
-0.068901084 -0.13072844 -0.017010784 -0.0689999 -0.17288916 -0.10341403 -0.030765675 0.008738116
-0.09520313 0.01596187 0.0015262605 -0.065807655 -0.09272459 0.052691918 0.051552154 0.06906788
0.011154332 0.011221846 0.05847236 -0.0120086055 0.024494367 0.09965853 -0.0014453463 -0.09378891

fc2.bias f4 [180]
00000000: fe81 d83d 1caa 3b3c 59e4 153d 495d 6dba
00000010: af3b 893e 4523 0fbe 47dd 303e 15ec 49bd
00000020: b474 e6bd 432e 173c 53f1 183d 7bd6 5d3e
00000030: dec5 1f3e 9eb5 56be fbbd b2bd 74c0 0d3d
00000040: b127 9abd 85eb b93d defb 15be ac74 09bd
00000050: 9cbc 6abd 52cb 5ebe 94fe 46bd 4b38 463d
00000060: b4a5 10be 9e14 e4bd c9ab 32be 6533 31bc
00000070: b72f c2bd 236e 8d3e 49bf ff3c 7c53 e73c
00000080: ae54 debd ee2d 13be 58be 353e a0a1 df3e
00000090: 575f 173e 2f82 c33e 6027 80be d5f2 96bc
000000a0: cbd9 4b3c 6f7c 11be 273b b33d 4ab6 37be
000000b0: 3f83 e43c 599e 79bd 8bb9 ae3d 818f ca3d
000000c0: b4cc cfbd 18ef 12be 1c4a 89be bdab 793c
000000d0: 88a7 14be 53f8 963e eb94 3abe 1737 07bd
000000e0: f690 d3bd 0a50 e9bd f022 443d 7eb2 5c3e
000000f0: 2ffe 37be d0fe cabd cb0b 02bc 9b05 12be
00000100: c547 68bc 5eb2 ee3e 3f8e 133d 334d ae3e
00000110: d5ed c33c f310 0cbe e9ee b43e 5f03 32bd
00000120: 908b 343f 658b a73d 49b7 acbd e125 03be
00000130: d3c4 a23e 604a fb3d 7454 043f 9e31 e4bd
00000140: 5655 81bd 9fdf 90bc dc0c ebbd 903f 3cbc
00000150: d3d2 943e bfbc bcbd fee0 e3bd 2d20 d3bc
00000160: ccd4 16be 73b0 043e 2b5a 73bc e61c 00be
00000170: 2bfe 14bd 656b 2dbd adbd 3cbd 3e07 8fbc
00000180: 9de9 883d 478f 8abd 8e3a 9dbd 0edc 5ebe
00000190: e1b0 8c3c aa18 793e b194 ae3e c7f9 ad3e
000001a0: 6971 e6bd 5def 823e 4099 7f3e 67f2 873e
000001b0: 99b2 c13e cf53 0b3f b3e3 803e 827d da3e
000001c0: e731 ca3e 6c22 be3e 122a ba3e c43e d8bb
000001d0: a50d 2cbe 6fbb 3abc b6c2 1c3d c82f 5c3d
000001e0: ae9b b73e 6785 89b8 0f0e 1cbe ac7c 04be
000001f0: d9ed 40bc e65e bf3b d6bf d73e 60a1 ddbd
00000200: ea2d 4abe a9be 08be 1e13 b5bc 2582 553e
00000210: 80a6 f23d 6b00 3dbc 080d 13be 918c a5bd
00000220: b44b 8dbd 7136 723e 3218 323e 8c08 473e
00000230: efd6 1fbe a925 2dbe f80c 4d3e 0980 183e
00000240: f266 2e3e 5eb4 123e ba8d 223e 7db1 923e
00000250: a72a 613e 4cf4 ac3e 5c97 4e3e 2afe 16be
00000260: d26e 8a3c b463 3dbe 5f61 d4bc b8c2 b3bd
00000270: 4aee 6abd cde4 2cbe 7605 49be f51c 29be
00000280: 9828 0ebd 0f00 8ebe 59db 01be 7b86 8dbd
00000290: 4dea c7bd 6ad6 f9bd 9869 aebd 6f20 253e
000002a0: 1830 0fbe e9f1 19be 6996 8ebd 2a2a 22be
000002b0: 93b4 ccbd 0c2d cdbc c640 63bd 229e 83bd
000002c0: 3474 92bd 17ce 9fbd 9a2a 1fbe 88fc 803e
0.10571669 0.011454131 0.036594722 -0.0009054733 0.26803347 -0.13978298 0.1727191 -0.04929741
-0.11252728 0.009227338 0.03733952 0.21663849 0.15602824 -0.20967719 -0.08727642 0.034607366
-0.07527102 0.09078125 -0.14646861 -0.033558533 -0.05730878 -0.21757248 -0.04858263 0.04839353
-0.1412571 -0.11136745 -0.17448343 -0.010815476 -0.09481757 0.2762309 0.031219142 0.02823805
-0.10855995 -0.1437299 0.17748392 0.43677998 0.14782463 0.3818526 -0.2503004 -0.018426338
0.012442063 -0.14207624 0.08751517 -0.17940632 0.027894614 -0.060942028 0.08531483 0.098906524
-0.10146466 -0.1434902 -0.26814353 0.0152386995 -0.14517033 0.2948633 -0.1822087 -0.033011522
-0.103303835 -0.11392219 0.04788488 0.21552464 -0.17968057 -0.09911883 -0.007937382 -0.14259951
-0.014177267 0.46620458 0.03602433 0.34043273 0.023917118 -0.1367834 0.35338524 -0.043460246
0.70525455 0.08180884 -0.08433396 -0.12807418 0.3179079 0.12270045 0.51691365 -0.11142276
-0.06315105 -0.017684756 -0.11477062 -0.011489764 0.29067096 -0.09215688 -0.11126898 -0.025772179
-0.14729613 0.12957935 -0.014853041 -0.12511024 -0.036375206 -0.042338748 -0.046079326 -0.017459508
0.06685183 -0.06765609 -0.07677184 -0.21763632 0.017174186 0.24325815 0.34097818 0.33979627
-0.112521 0.25573245 0.24960804 0.26552126 0.37831572 0.54424757 0.2517372 0.4267388
0.39491197 0.37135637 0.36360222 -0.006599279 -0.1680208 -0.011397227 0.03827163 0.053756505
0.35860962 -6.557517e-05 -0.15239738 -0.12938184 -0.011775457 0.00584017 0.42138547 -0.108217955
-0.19744077 -0.13353981 -0.022103842 0.20850427 0.118481636 -0.011535744 -0.1436044 -0.080834515
-0.06899205 0.2365358 0.17392042 0.19436854 -0.15609334 -0.16908897 0.20024478 0.14892592
0.17031458 0.14326617 0.15874377 0.28651038 0.21988927 0.33780134 0.20174927 -0.14745393
0.016898546 -0.18495065 -0.025925336 -0.08777374 -0.057356156 -0.16884156 -0.1963099 -0.16514952
-0.034706682 -0.2773442 -0.1268133 -0.06910416 -0.09761486 -0.12199099 -0.08516234 0.16125654
-0.1398319 -0.15033688 -0.06962282 -0.15836397 -0.09995379 -0.025045894 -0.055481695 -0.06426646
-0.0715107 -0.078029804 -0.15543595 0.25192666

conv.weight f4 [5, 1, 34, 34]
00000000: f011 f73e b182 d13e c514 be3e b29b 023f
00000010: f059 263f 8511 353f 5381 673f 66bd 713f
00000020: 6c69 853f 0024 6a3f 3351 413f 01c7 483f
00000030: a107 333f ff97 fe3e a32d 0e3f 37f6 d53e
00000040: 4f4c a13e d32d 763e 5c16 c13c e556 77be
00000050: 4317 8b3d 94f9 cdbc 1a5e 43bd 16b6 b8bc
00000060: b648 00bd ea0c adbc 56b8 0cbe 9cbe 9ebd
00000070: 345e 29be 3f3b 2fbe 6f43 1cbe 93ce 0ebe
00000080: 2943 cabd 39bd 493d b917 823e 1597 fd3e
00000090: 2d0b 083f f795 d43e 1d70 073f 5344 5b3f
000000a0: 81c6 563f a38d 693f 1b3c 6e3f d3d0 763f
000000b0: cc86 913f 04c9 463f b54f 263f 8178 3c3f
000000c0: f189 373f 8f4c a73e 1053 873e 8f69 973e
000000d0: 7ded 453c b28f c9bd 4aed af3c 44a9 06bb
000000e0: ae77 e1bd d377 54be 65a1 19be 7557 e6bd
000000f0: 8185 a2bd d4f4 d2bd 99be 9ebe 8584 b8be
00000100: d588 8ebe 9071 bdbd ac83 a43c d71f edbd
00000110: 17da 953e 8e67 0a3f ec73 093f 57da 083f
00000120: 7e41 4f3f 8924 833f 3dda 743f 6402 803f
00000130: 25ac 923f 7754 773f 891d 963f e828 793f
00000140: 31a5 343f 417a 313f 8d06 2c3f 4383 133f
00000150: 271f 013f bc13 ca3e 12cb db3c fc92 74bc
00000160: 0af1 4cbd fa01 34bc 80f7 3f3c 3cdc 1b3b
00000170: 7405 abbd fddd acbe d5ac 99be 5c83 79be
00000180: 86b0 bdbe 7733 c7be 9b51 91be a7da b8bd
00000190: e714 2abe a58c 18be f621 e13e 354d c53e
000001a0: c36c 013f 64f4 0b3f 14d1 3f3f b691 643f
000001b0: b690 683f 676a 813f 47dc 6e3f 519b 7c3f
000001c0: 0f41 783f ab11 633f 5876 323f 9718 3b3f
000001d0: 3cea 1e3f b161 223f 80dd ff3e f4c7 293e
000001e0: 2cdb c33d 5d18 c23d 860a 673e 3efc 043e
000001f0: 6aef 8e3c 5f6e f83c 5d3b a7be 7e08 c0be
00000200: 8ff3 9bbe ad83 cdbe bdfc f7be d7b7 18bf
00000210: 2326 edbe cc16 a2be 4827 1cbe 5048 05be
00000220: 650a bf3e 97bd cd3e 1845 0d3f 2771 0e3f
00000230: c2d4 473f 167e 5a3f e1b7 653f 9cf9 773f
00000240: d84c 643f 712d 3d3f 4c26 403f 185d 173f
00000250: c49a 433f 9655 2d3f 7ce2 323f 34cc 363f
00000260: 9caf 063f 44f9 883d f244 b63d 4ad5 833e
00000270: cfea 1c3e 5e8e 083e 50c9 06bd a1ba 463b
00000280: cae0 a4be 8891 cebe ab82 90be 355d b3be
00000290: fb3d d8be 6458 06bf 3dcc b9be 2e74 21be
000002a0: dfe1 47be 40cb 57bd 32d8 963e 381a bc3e
000002b0: 1a89 143f a093 193f 598f 5f3f 7cb4 393f
000002c0: 9faa 4a3f b5d1 863f 3b79 5b3f a23c 703f
000002d0: 324c 7c3f 9612 3e3f 06ef 463f 9f72 523f
000002e0: 7675 473f d15e 023f b878 f63e 3759 0c3e
000002f0: ab5d 303e f0b8 e8b8 290f c13c ce1d ab3d
00000300: d2bb 91be e33d 9fbe 0be4 c6be 8171 bcbe
00000310: 404c ebbe c379 04bf 430c f6be 869e 06bf
00000320: 0816 cfbe 1a98 6dbe 0556 2abe 3273 96be
00000330: 961b d13e 7a82 ed3e ee32 123f 63c7 2c3f
00000340: c00e 1f3f caf2 373f 50e8 613f f599 7e3f
00000350: 36bd 833f 110a 823f 50b4 8b3f 0951 8d3f
00000360: 6307 833f 2700 3e3f ed52 363f 9d3e 253f
00000370: 5cec 0e3f b48c 4e3e 0a23 143e 8f53 a53d
00000380: 9a82 dbbd 4f6c 8cbe 66a4 05bf 6f51 eabe
00000390: ced2 0fbf 08c7 15bf 413a 04bf baea febe
000003a0: ba24 24bf 4661 1bbf 5d66 2ebf ef60 1cbf
000003b0: 86b1 b1be 790b 5ebe caad d73e ab2b e33e
000003c0: ba56 083f af76 383f 5a8b 063f 6a7d 3f3f
000003d0: a244 6b3f 6220 4f3f b6f0 a13f 40d4 a43f
000003e0: 2fe6 853f 4cad 843f 0438 873f 2826 843f
000003f0: b081 493f 4aae e73e a38d be3e 89ff c33e
0.48255873 0.40920022 0.3712522 0.5101882 0.64980984 0.7072986 0.9043171 0.94429624
1.0422797 0.9146118 0.75514525 0.78428656 0.69933516 0.4972534 0.55538386 0.4178941
0.3150353 0.24040918 0.023570232 -0.24154241 0.06791546 -0.025143422 -0.047697164 -0.022547763
-0.031319343 -0.021124322 -0.13742194 -0.077511996 -0.16539842 -0.17112444 -0.15260099 -0.1394599
-0.09876091 0.049252722 0.25408724 0.4952933 0.5314205 0.41520664 0.52905446 0.8565113
0.8389664 0.91231745 0.93060464 0.9641239 1.1369262 0.77650476 0.64965373 0.73621374
0.71694857 0.32675597 0.2643056 0.29572722 0.012080547 -0.09841861 0.021475453 -0.0020547668
-0.11009155 -0.20748834 -0.15002973 -0.1124715 -0.0793562 -0.103006035 -0.3100479 -0.36038604
-0.2783877 -0.09250176 0.020082317 -0.115783386 0.29267952 0.5406426 0.5369251 0.5345816
0.8095931 1.0245525 0.95645505 1.000073 1.1458784 0.9661326 1.1727763 0.97328043
0.7056456 0.6932717 0.67197496 0.57622164 0.5043816 0.3946818 0.02683023 -0.014927622
-0.05003456 -0.010986799 0.011716723 0.0023782393 -0.083506495 -0.33763114 -0.30014673 -0.24366516
-0.3704874 -0.38906452 -0.28382573 -0.090260796 -0.16609536 -0.14897402 0.43971223 0.38535467
0.5055658 0.54669785 0.749284 0.8928484 0.9084581 1.0110596 0.93304867 0.98674494
0.9697427 0.88698834 0.6971183 0.73084396 0.62076163 0.63430315 0.4997368 0.16580182
0.09563288 0.09477303 0.22562608 0.12986848 0.017448146 0.030326067 -0.32662478 -0.3750648
-0.30459258 -0.40139523 -0.48435012 -0.5965552 -0.46318159 -0.31658018 -0.1524936 -0.13015866
0.37312618 0.40183708 0.55183554 0.55641407 0.7805902 0.8534864 0.897337 0.9686525
0.89179754 0.73897463 0.75058436 0.59126425 0.7640803 0.6770872 0.6987684 0.7140534
0.5261171 0.06688169 0.08899869 0.25748664 0.15323947 0.13335559 -0.03290683 0.0030323642
-0.3220275 -0.40345407 -0.28224692 -0.3503205 -0.42234787 -0.52478623 -0.36288634 -0.15766975
-0.19519757 -0.05268407 0.2946182 0.36738753 0.580217 0.5999088 0.87328106 0.7254102
0.791666 1.0532748 0.8573186 0.9384252 0.98553765 0.7424711 0.7770847 0.8220615
0.77913606 0.5092593 0.48138976 0.13705908 0.17223231 -0.000110970694 0.0235668 0.08355294
-0.28463608 -0.31101903 -0.38845858 -0.36805347 -0.45956612 -0.51748294 -0.4805623 -0.5258564
-0.40446496 -0.23202553 -0.16634376 -0.29384762 0.4084136 0.46388608 0.5710896 0.6749174
0.6213188 0.7185484 0.88245106 0.9945367 1.0292118 1.0159322 1.0914402 1.1040355
1.0236629 0.7421898 0.71220285 0.64548665 0.55829406 0.20170861 0.14466491 0.08072578
-0.1071827 -0.27426383 -0.5220398 -0.45765254 -0.5618104 -0.5850682 -0.5165139 -0.49788457
-0.6411854 -0.606953 -0.68124944 -0.6108541 -0.34705752 -0.21684064 0.42124778 0.44369254
0.53257334 0.72056097 0.52556384 0.7480074 0.919016 0.8090879 1.2651584 1.2877274
1.0460871 1.0365386 1.056397 1.0324144 0.7871351 0.4525016 0.37217435 0.38280895

conv.weight f4 [5, 1, 10, 10]
00000000: 9999 c83d 6150 163e b3c4 433e e166 6c3d
00000010: 7475 a83d 1e25 3f3e 9d8a 1b3e 91d7 013e
00000020: bf74 4f3e 912e e83d 5f3d 133e 1d0b ac3d
00000030: 67ae 7e3d 1205 003a fbf2 443d 2fc7 513d
00000040: 3e4d 533e 2383 303e 7bcd 363e 9bc5 3e3e
00000050: 4127 253d 0d55 213e 9df9 1b3e b5bf 173e
00000060: 4a28 043e c0d2 483e 67c5 773d 59bd 673e
00000070: 74ea 253e 39c0 813e 7f45 3c3e b9a6 8d3d
00000080: 07f9 e13d 97b2 873d a8ac c33d 5604 483e
00000090: c588 183e 63bd 0d3e 25d2 583e cf3b 6f3e
000000a0: 0988 e13d 1f9b 9f3d 0199 223e 59c2 3f3e
000000b0: ee03 b53d fe2c e43c d126 073e 247f 743e
000000c0: 34c7 ad3d e337 653e a4e6 0f3d 9d51 293e
000000d0: 29da 373e 6aef 123e 7084 413e aec9 543e
000000e0: d307 223d 0c0e 013d 49cd 023e 9044 4c3e
000000f0: de7c 5d3d 464c 1c3e 05f5 383e 888a 2e3e
00000100: 505c 5b3d 8cec 263d 083b ea3d 9d36 2f3e
00000110: f1a5 753e 486f 263e 1090 183e 462d 013d
00000120: 3a10 4c3e 8d30 a43d 9d0e 0e3d ee16 b03d
00000130: 7ff0 263e 10f6 2f3e d3ad 483e 614a aa3c
00000140: bad1 093e c846 723c 90a1 853d e127 da3d
00000150: ea57 583d feed 9d3d 9c33 c63d 5afd 223e
00000160: a950 0d3e 1dc0 1d3e 1dbc 123e 050a c83d
00000170: ce18 fe3c 422a 4a3e df4a 773d d26d ed3d
00000180: ee5b 403e 798a ba3d 18ff ed3c a9af 413e
00000190: 0661 a43d 5cf6 eb3c 3ce1 123e 4417 b73d
000001a0: a30e 583c e4d8 9c3d eb01 a73d 28fb 803d
000001b0: 12f6 94bd 2654 9c3d bb2a f73c beeb fcbd
000001c0: 3081 30be f7b3 25be 3ddf 82bd e797 d73d
000001d0: 9426 09bc c144 973b 30c4 e13d 06f7 76bd
000001e0: 35a7 8bbd 1a8a f2bd 493b 1abe d5f6 1dbe
000001f0: d027 1e3d 8e10 c03c b6ad f4bd 4328 763a
00000200: 3469 9fbb fd9a 0fbe f1ed d9bd 7d4a d0bd
00000210: ffe6 9abb e0c6 343c 2011 9cbd f95f f9bd
00000220: 8465 d03c a48d 38be b18b 1cbd aa13 0dbe
00000230: 67dd 4b3c 3f66 0ebe 7c35 8ebd 90ce d0bd
00000240: 0e7f d5bd 76df 933c 6261 97bc 23f0 8abd
00000250: 1dda 33be 6466 c3bd 5dc5 21be 9ab5 a9bb
00000260: dcb7 d5bb b103 7d3c 58f2 05bd bdb0 d0bb
00000270: 0469 a0ba 67a6 23be aeca d2bd f931 f5bb
00000280: 6cd2 c9bd 223f ddbd 5b09 153d f6a5 21bd
00000290: 4f44 a2bd 7261 77bd 7690 053d b048 4ebd
000002a0: 4768 1bbe c6c2 b1bd a70f ce3b 80ea 57bc
000002b0: f673 96bd 7401 67bd 7a30 053b 1243 ccbc
000002c0: 8e6d 03be f023 2b3d c3cf b3bd 6440 81bb
000002d0: ef2d c2bd e8f6 dcbc a0d1 773c d395 1dbe
000002e0: 4050 95bd a959 a2bb 6c48 01be d528 b5bc
000002f0: 7698 4fbc db45 8bbd 2c9d 97bd 3eca 49bd
00000300: b7eb 78bd f412 a03c 448c 8c3c 9b58 f1bd
00000310: 5c1e 5dbc 3922 b7bd 2e0c 2abe 2259 29be
00000320: 9495 82bd 3b70 89bd c26c abbd aff9 11be
00000330: 480a 9dbd e215 4dbe 5aac fcbd 059a e9bd
00000340: f553 6d3d ad53 e43c dd3e bfbd 81fc 83bd
00000350: a208 0bbe 8beb 0f3d 3557 47be 302b 46bd
00000360: e3af f3bd d9c1 52be 33a6 233e 635b 3a3e
00000370: 91dd a6bd 4e9c b7bd 0841 cbbd 843b 08be
00000380: 156e 25bd 5e6b a9bd 801d cfbd ead3 82bd
00000390: 08da 703c 1d8e 633e 3f00 8cbd 6159 833c
000003a0: a06b 1bbe 16d0 f3bc 7e20 c8bd 432c e6bd
000003b0: 960c 76bd 2c99 08be b1d9 ef3b 0212 f1bc
000003c0: bb1f 833b e988 de3c 51a7 b63c 474c d5bc
000003d0: a2af 8abd 641d 1d3d a96a f5bd 1df3 6bbe
000003e0: 97bc 01be 373b 60bd 458f 94bd d0da 1c3d
000003f0: 4bb0 96bd 199e 90bd 8127 dfbd 2c8b 55bc
0.097949214 0.146791 0.19118004 0.0577153 0.082255274 0.18666503 0.15189596 0.12679888
0.20259379 0.11337007 0.1437888 0.08400557 0.06217804 0.0004883568 0.048083287 0.051215347
0.20634934 0.17237525 0.17851822 0.18630068 0.04032064 0.157551 0.15231939 0.14819224
0.12905994 0.19611645 0.060490992 0.22630824 0.16202718 0.25341967 0.18385886 0.069165654
0.11033826 0.0662586 0.09554416 0.19532904 0.14895923 0.13841777 0.21173914 0.23362659
0.11012275 0.07793259 0.15878679 0.18726481 0.0883864 0.027853485 0.13198401 0.23876625
0.084852606 0.223846 0.035132065 0.16535039 0.17954315 0.14349142 0.18898177 0.2078006
0.039558243 0.031507537 0.12773623 0.1994803 0.05407416 0.15263471 0.18062218 0.17045033
0.053554833 0.040752932 0.114370406 0.17110677 0.23989083 0.16253388 0.14898705 0.031537317
0.19928065 0.08017073 0.034681905 0.085981235 0.1630268 0.17183709 0.19597559 0.02078742
0.1345891 0.014787383 0.06524956 0.106521375 0.052818216 0.07711409 0.096778125 0.15916958
0.138003 0.15405317 0.14329572 0.09767536 0.031017687 0.19742683 0.060374137 0.11593212
0.18785068 0.09108443 0.029052302 0.18914665 0.08026318 0.028803997 0.14343733 0.089399844
0.013187083 0.07658556 0.08154663 0.06297904 -0.07273497 0.076332375 0.030171743 -0.12349652
-0.17236781 -0.16181932 -0.063902356 0.1052702 -0.008371014 0.0046163504 0.11023748 -0.060294174
-0.068190016 -0.11842747 -0.15061678 -0.1542619 0.038612187 0.023445394 -0.11947195 0.0009390155
-0.004864836 -0.14023967 -0.10641087 -0.101704575 -0.004727244 0.011033744 -0.07620454 -0.121765085
0.025439031 -0.18022782 -0.038219158 -0.13777032 0.012442923 -0.13906191 -0.06943795 -0.10195649
-0.104246244 0.01805089 -0.018479053 -0.06784084 -0.17563672 -0.09541014 -0.15797944 -0.0051791193
-0.006522162 0.015442775 -0.03270182 -0.006368725 -0.0012238328 -0.15981446 -0.10292564 -0.007482764
-0.09854588 -0.10803057 0.036385875 -0.039464913 -0.07923185 -0.060395665 0.03260847 -0.05036229
-0.15176497 -0.08679728 0.006288487 -0.013178468 -0.073463365 -0.05639787 0.0020323084 -0.024934325
-0.1283476 0.04178232 -0.08779862 -0.0039444435 -0.094814174 -0.026973203 0.015125662 -0.15389185
-0.07290697 -0.004954536 -0.12625283 -0.022114197 -0.012670627 -0.06800433 -0.07403025 -0.04926514
-0.06077167 0.019540288 0.017156728 -0.11784478 -0.013496008 -0.08942074 -0.16606209 -0.16537908
-0.06376186 -0.067108594 -0.08370353 -0.14255403 -0.076679766 -0.20027879 -0.12337561 -0.1140633
0.057941396 0.027871931 -0.09338162 -0.06444646 -0.13577512 0.03513674 -0.1946686 -0.04838103
-0.11898782 -0.2058176 0.15981369 0.18198924 -0.08147729 -0.0896536 -0.09924513 -0.13303953
-0.040388186 -0.08272432 -0.101130486 -0.06388076 0.01470042 0.2222218 -0.068359844 0.01603383
-0.15177774 -0.029762309 -0.097718224 -0.11238911 -0.060070597 -0.1333968 0.007319652 -0.029427532
0.0040015853 0.027164893 0.02229658 -0.026037348 -0.067717806 0.038358107 -0.119832344 -0.23041959
-0.12669598 -0.05474397 -0.07253889 0.038294613 -0.07357844 -0.07061405 -0.10896207 -0.013033669

conv.bias f4 [5]
00000000: 5e8b 313e f4d4 26bd fdda 02be 2c33 bd3b
00000010: f422 023e
0.1733832 -0.04073043 -0.1277885 0.0057739224 0.12708646

fc1.weight f4 [64, 180]
00000000: 5c77 d4bd 7f4e ad3c 6174 6dbd dd95 6dbd
00000010: eae3 9ebd 3105 90bd 79d8 efbc c4b6 e83c
00000020: 5345 9abd 6ab7 a5bd 78af 88bd fe5e 90bd
00000030: 18a3 9bbd 1598 b2bc 7629 84bd de28 c4bd
00000040: 6763 8ebb 23db 853c 3190 f4bc fc30 74bd
00000050: 5281 2b3c 0de9 5abd 1792 ccbd 70c1 d13a
00000060: 84dc bdbd 773d b5bc 1234 d6bd 9f61 23bc
00000070: 4c3b ffbd c2af c4bd 28b6 cabd 8732 b5bd
00000080: 2712 51bd bf55 efbc d069 c3bc 47bd 34bc
00000090: e0fa e43b 6660 723d 92cd 403d 4745 98bd
000000a0: 60e4 1ebb 3c3e e3bc c350 873d 8006 48bb
000000b0: 307a 53bd 705c 2dbc a853 3c3d f83a 7fbd
000000c0: 3c0a 893c 5a55 30bd b1d3 79bd 26ea 07bd
000000d0: 1d23 363c 6e64 39bd 8f15 54bd 1454 80bd
000000e0: 8e1d ffbd 969c debd 86d1 bf3a e258 7c3d
000000f0: e1fd 883d 0129 95bd c206 90bd 3ae7 b7bd
00000100: cc75 a8bd 406c 833b 8852 97bd 3038 cabb
00000110: 7acf 323d f0be 403c e8fc 193c 72a7 3bbd
00000120: 8ef2 5ebd fe7c 703d d6c3 463d 2871 47bd
00000130: 1abd 25bd dc21 f93c b6ee 4f3d a8f6 db3c
00000140: 8295 bfbc 2a91 31bd 96cb 473d ee12 033d
00000150: c0f8 4a3c a080 8cbd 613e abbd 6888 9ebb
00000160: c89d 88bd 14e0 5cbc 004e 693b 5f5f 033c
00000170: 0e7e 0bbd cb52 2dbc 6aa4 6a3d a096 bcbb
00000180: c057 91bd aa45 efbd 47fe b23b ca37 84bd
00000190: 5a5a 1fbd d0b0 ffbb 7852 383d 9003 223d
000001a0: 8377 823d c422 ca3c c015 cd3a 1d9c 73bd
000001b0: 3a94 97bc e489 18bd 2876 3abd 7343 063d
000001c0: 3baa 41bc d6b5 b73b 734b 87bd eacb 793c
000001d0: 3a1f 5a3d f8db 65bd 29cb ed3c ee3c 3dbc
000001e0: d40d 30bc ae8a 89bd 2ec3 c3bc 01a5 85bd
000001f0: 01bd d6bd 3852 8f3c 348d 23bd bc54 8b3d
00000200: 6ed3 55bd c220 b7ba 12fb 8cbd 2809 a23c
00000210: fb53 bb3b ea7c 0e3c 966a 403a e04a 4cbd
00000220: e6cb b3bc 6c8d 1bbd afb8 4e3d 5349 bfbb
00000230: adba 59bd 065d 6c3d f214 9abd 7e83 733d
00000240: ede2 d6bd b078 7fbc c58e e13c ac4b 40bd
00000250: 26c3 dcbd d02a e0bd d2dd 79bd 4321 d2bb
00000260: 1fa2 e5bd 547a 91bd 3b80 f2bc 9f8d ebbd
00000270: 0515 ee3c 6e25 d9bd bd01 20bd 1b50 cdbd
00000280: e384 cebc 2454 f83c cd16 9abd ad56 cfbd
00000290: 96ed 123d c84a 26bc 8e46 aebd 5477 7fbd
000002a0: bd9d 65bc 57cf a9bd 4dea e43c 74b5 dbbd
000002b0: 401e dd3b 7b7e d13b 099b 4abd 4a1e 08bd
000002c0: 49a5 95bc 9f73 563c bf4c 60bd 58e1 cebd
000002d0: f63e 2c3e 07a1 1f3e d521 1b3e 79eb 653e
000002e0: 1118 1a3e 3c67 813e 65fc 693e f8de 5d3e
000002f0: c400 9b3e c1f6 543e 7d45 2f3e 9819 1f3e
00000300: 4738 283e 8431 b53e 09d8 a73e d4d3 853e
00000310: 311d 813e 810a 8a3e 329b 833e a970 8a3e
00000320: 130c a03e 9b64 973e b2c3 8c3e 830e 853e
00000330: 2b98 703e 523c ad3e e498 ad3e 3d94 8e3e
00000340: facb 9e3e 67d4 933e 51c0 433e 3f14 913e
00000350: d05d 2f3e 791e 8a3e 6cab 763e 73b4 583e
00000360: 369c e2bc bd37 83bd ac4e 1e3d dd4f 2bbd
00000370: e0f3 2c3b b5ef 81bd 8caf 293d 0030 83b8
00000380: aaa6 f93c 8ed8 1d3e fcd3 abbc 676c 46bd
00000390: 0d21 2ebd 4270 e93d d40d cb3a 0840 e43d
000003a0: 5a11 ba3d fe6b 2f3d 8efb 423d e0a7 9a3c
000003b0: 9e97 34bb ad82 ac3d b1c6 3b3d f820 ccbc
000003c0: 8b63 78bd 2a9b 763d ff26 6e3e 10b8 4b3e
000003d0: ce33 1e3e 0066 a439 f8bc 393c 3aea 693d
000003e0: 29cb 39bd 1ca0 d53c 4f32 1bbd 15fd 883d
000003f0: c4cc b43c 8022 e33a c0af fd3c 4eed 61bd
-0.103743285 0.021155594 -0.057972316 -0.05800425 -0.07758315 -0.0703224 -0.029278027 0.028407462
-0.07532754 -0.08091624 -0.06674093 -0.07049368 -0.07599467 -0.021801034 -0.064532205 -0.09578107
-0.004345346 0.016339844 -0.029853912 -0.059617028 0.010467844 -0.05344491 -0.09988802 0.0016003083
-0.09270576 -0.022124035 -0.104591504 -0.009972005 -0.12462482 -0.09603836 -0.09898025 -0.08847528
-0.051042702 -0.029215692 -0.023854166 -0.011031455 0.0069879144 0.059173964 0.047071047 -0.074350886
-0.0024245009 -0.027739637 0.06607201 -0.0030521452 -0.0516302 -0.010581121 0.04597822 -0.062312096
0.016728513 -0.043050148 -0.0609929 -0.033182286 0.01111677 -0.045261793 -0.051778372 -0.06266037
-0.12456809 -0.1086971 0.0014634586 0.061608203 0.066890486 -0.072832115 -0.07032539 -0.0897965
-0.08225593 0.004010707 -0.073887885 -0.006171249 0.043654896 0.011764273 0.009398676 -0.045813985
-0.054430537 0.05871295 0.048526607 -0.0486919 -0.040463544 0.030411653 0.050764762 0.026851013
-0.02338672 -0.04335133 0.04877814 0.032000475 0.012388408 -0.06860471 -0.08361507 -0.0048380382
-0.066707194 -0.013481159 0.003559947 0.008018344 -0.034055762 -0.010578821 0.057285704 -0.0057552606
-0.07096815 -0.11683209 0.005462441 -0.064559534 -0.038904525 -0.00780306 0.045000523 0.03955418
0.06370451 0.02467478 0.0015646741 -0.059475053 -0.018503297 -0.037240878 -0.04552284 0.03277917
-0.011820371 0.0056063933 -0.06606188 0.015246371 0.053252436 -0.05611798 0.029027538 -0.011550171
-0.010745484 -0.06715904 -0.02389678 -0.065256126 -0.104852684 0.01749526 -0.039929584 0.06803271
-0.05220359 -0.0013971555 -0.06883825 0.019779757 0.0057167984 0.008696774 0.00073401013 -0.049876094
-0.021947812 -0.037976667 0.050469097 -0.0058375983 -0.053156544 0.0577059 -0.07523526 0.059451573
-0.104925014 -0.015592739 0.027533898 -0.046947166 -0.10779409 -0.10945666 -0.06100256 -0.0064126565
-0.11212563 -0.0710341 -0.02960216 -0.115016215 0.029062757 -0.10602842 -0.039064158 -0.100250445
-0.02520985 0.030313559 -0.0752388 -0.10123954 0.03587111 -0.010149665 -0.08509551 -0.06236966
-0.0140146585 -0.082915 0.027943755 -0.10727969 0.006747991 0.0063932515 -0.04946426 -0.03323201
-0.01826729 0.01308909 -0.05476069 -0.10101575 0.16820893 0.15588771 0.15149625 0.22453107
0.15048243 0.25274074 0.22850187 0.21667087 0.30274022 0.20797254 0.17116351 0.15537107
0.16427718 0.3538934 0.3278201 0.26138175 0.25217584 0.2696114 0.25704342 0.27039078
0.31259212 0.29568943 0.27493054 0.25987634 0.23495547 0.33835083 0.3390571 0.27847472
0.31014997 0.28872988 0.19116332 0.2833576 0.1712563 0.26976374 0.2408883 0.21162586
-0.027662378 -0.064071156 0.038649246 -0.04182421 0.0026390478 -0.063445486 0.04142718 -6.2555075e-05
0.03047498 0.1541464 -0.020975105 -0.048443224 -0.04251199 0.113983646 0.0015491792 0.111450255
0.09085341 0.0428276 0.047603182 0.018878877 -0.0027556191 0.08423362 0.045843784 -0.024918064
-0.060641807 0.06020657 0.23257063 0.19894433 0.1544945 0.00031356514 0.011336558 0.05710814
-0.045359764 0.026077323 -0.037889775 0.066888966 0.022070296 0.0017329007 0.030967593 -0.055157952

fc1.bias f4 [64]
00000000: 7e7d 1cbc 6da2 0c3e 78b8 1fbd d057 c53d
00000010: 4624 24bc 8042 cabc a1b5 c6bc a6fc ddbc
00000020: 26f4 92bd 313f 373b 0256 1cbb 56eb 12bd
00000030: 987f 17bd 358d d3bd 9fa9 de3c 3c2d dfbd
00000040: c419 bdbd 6ff6 f3bd a620 ccbd c060 843c
00000050: 5e99 d7bd 308f 06be b252 aabd e016 0f3d
00000060: 7f60 0ebd e042 d53c 044f 62bd e388 febb
00000070: 6a19 4fbd 5c1d 0f3e c006 81bb 6e9d 7b3d
00000080: ca4f 06be 961d 25bd 6524 abbd 0986 40bd
00000090: c693 40bd 40c3 ef3a 1867 3ebc 3b15 bc3b
000000a0: 40fe e03a df71 8f3d ac85 a0bc 263d ffbc
000000b0: 53dc c23d 2b0e acbc 36a3 d1bd 5782 19bd
000000c0: 2990 413d 0e4a c939 6f2e 87bc d3ba bebc
000000d0: 1656 86bd 1158 7e3e 80a2 1e39 ba5a 87bb
000000e0: 91d4 e4bd 0dd2 dbbc 352b 04bb 9275 e0bd
000000f0: e624 f3bd d4da 1c3d 1c1d 85bd 43c9 97bd
-0.009551404 0.13733836 -0.038994282 0.096358895 -0.010018414 -0.024689913 -0.02425653 -0.027098011
-0.07175474 0.002796125 -0.0023854976 -0.035868965 -0.036986917 -0.103296675 0.027180491 -0.108973
-0.0923343 -0.11912238 -0.09967165 0.016159415 -0.10527299 -0.13140559 -0.08316554 0.034933925
-0.034759995 0.026032865 -0.055251136 -0.007767783 -0.050561346 0.13976043 -0.0039375722 0.061429434
-0.13116375 -0.04031142 -0.08356551 -0.047002826 -0.047015928 0.0018292442 -0.011621259 0.0057398356
0.0017165616 0.07004141 -0.01959499 -0.031157088 0.0951468 -0.02100285 -0.10236208 -0.037477817
0.047256622 0.00038392883 -0.016501633 -0.023282444 -0.06559388 0.24838282 0.0001512859 -0.0041306885
-0.11173356 -0.026833558 -0.0020167355 -0.10959925 -0.11872272 0.03829463 -0.06499693 -0.074114345

fc2.weight f4 [4, 64]
00000000: d4ff e83c dd7d 153d ad5b 663d 534d 103d
00000010: cf55 8b3d 26bc ae3d 82b1 ea3c a894 7abd
00000020: a91d b7bd ae96 063d a6b3 213d ece3 793d
00000030: 5d5b 303d 5ebd 933c 5654 fcbb e76e ba3c
00000040: 0a2d e3bc cb45 dbbc e2be fc3c d43f 483d
00000050: 8e4b 313c 529b 07be ad12 db3d c0fc ecbd
00000060: 3076 493c 10b0 4fbd 84c3 42bd a6f5 ba3c
00000070: 749e e8bc a97e 1d3d 9499 0d3d e08c a73c
00000080: b194 103d 8437 9b3d aa5c 15bd 4fb8 8dbc
00000090: 8607 ce3d 3206 d1bd 3543 71bc 0ecd d83c
000000a0: 68dc 8c3d ac06 0e3d 2e19 d93d e971 25bd
000000b0: cb77 e03c 1b05 053d 19cf 623d a3bd 043d
000000c0: 2330 f03d 1c2f 6dbd 8372 d1bd b050 d43c
000000d0: 8cee 46bd 5144 1b3d 2cb2 8abd 2142 8e3c
000000e0: 04ca 46bd b5c5 593c a464 10bc 8df1 693d
000000f0: c58d b1bc 00d2 a939 d8e5 dd3c 107e 7c3c
00000100: 134f 2c3e d2cf c63e 3594 0b3e d5ac bf3e
00000110: 94d0 c23c e449 253d fbe4 973e 40db 173d
00000120: db8c 6bbb 67e6 7cbc 634d a03d c449 63bd
00000130: 5cd4 8c3d 73bb 743b e9c0 163d 661e f03d
00000140: 1ae7 1cbd 96c0 db3b d964 c4bc be67 d13d
00000150: 440b e7bc 3452 b83d 24d3 283e 820c a53d
00000160: 2cb5 323d 8a47 943d d859 8a3c f09f 873e
00000170: 4365 393e 592c d23e 1a31 f0bd ced7 d0bd
00000180: 2cfd 013e 028c aebd e07f 4cbb 175f 6cbc
00000190: a091 e23b 0007 90bc 8e99 393c 3492 7e3e
000001a0: 5846 e83c 0714 bd3e f0a1 72bd dc8d 9f3d
000001b0: 1eb8 8b3e 9406 af3e 74f9 43bd a101 30bc
000001c0: 49ea a13d 2ab0 afbc f06f 20bd 00e9 7b3e
000001d0: 50f1 3f3d e0ae ce3e 535b b03c 75a9 5c3e
000001e0: bef6 843d a5c9 513e 07a7 953d 1730 e53d
000001f0: b239 f1ba de0a e3bd 60ac 2cbc f8ce 363d
00000200: 4d7b 823d 4773 323f 1608 18bd a102 2c3f
00000210: a76a 253d 84cf a0bd 06f4 073f 1fab 46bc
00000220: 8fee 8f3d 5f26 c7bc 1378 03bb 603a b3bd
00000230: 7263 023d a39e 7fbc 0709 a13d fd9c 4bb9
00000240: a6c2 d6bd 0e68 cabc 2c3d aebd 62d1 bf3d
00000250: a043 7a3d 81aa 3dbd a710 10bc f82a dd3d
00000260: 4cc3 82bd d007 b3bd 6808 933c 6efc ef3e
00000270: e7d7 383d 96c4 3c3f 3e7f ac3d 4857 b83c
00000280: 0151 b13b 00a3 6d3d c185 0e3e 0945 073d
00000290: 1e11 8dbd a67e 8cbd 43cc c83d 58e0 df3e
000002a0: 7e3a a63d 7ccc 293f 20c6 d63b 8318 b03c
000002b0: 5711 f93e e3f9 1c3f 8502 2a3e 4f6c 703c
000002c0: e6a6 7a3d d65f 8f3d 1a02 56bd 8d93 dc3e
000002d0: 26a1 e03d d188 393f ffb7 00bd ff44 da3e
000002e0: 44c5 1e3e 4770 ea3e 74af 0dbd 1e48 1bbd
000002f0: f1df 5ebd 6cd7 0a3d 4813 41bd e0bf 90bd
00000300: d283 613c e512 613e a8f2 3d3d 98f9 583e
00000310: adec f3bd 5267 a9bd 1f4c 2b3e 527d 993c
00000320: d4d3 763c 7261 f63d 5403 49bb 20bd 6e3d
00000330: f2f9 4dbd 4aa5 91bb 2152 cbbc 7ac0 abbd
00000340: 2272 f93d dbce 8bbd 1925 c63b c044 c4bb
00000350: 5a1c 473d 17e6 cc3c a21a 2cbc 44b1 0d3d
00000360: a627 b2bd f875 a13c aa23 a9bd d059 133e
00000370: 4480 833d 89ff 6d3e 702b 1dbd 66b4 b93d
00000380: df01 57bc 0097 8ebd f6de b9bc 4bcb 91bd
00000390: 18d3 b7bd 3058 98bc 2939 19bd 1328 0c3e
000003a0: b47c c63d 0848 563e 4859 f5bc cdf8 063d
000003b0: bdcd 1c3e 44f1 453e 77d6 a63c 9437 b6bc
000003c0: 60d3 733c 24f9 e0bc 9f40 67bd b83e 093e
000003d0: 866a fbbd 84f3 693e cedc 623d 11dc 053e
000003e0: fb68 553c 03d8 103e d679 edbc 5100 f13c
000003f0: 2ea3 79bd a8a5 97bd f40a 8cbd ac33 7dbd
0.0284423 0.036496986 0.056239773 0.035229992 0.06803476 0.0853198 0.028649095 -0.061176926
-0.08941204 0.032858543 0.039477967 0.06100838 0.04305588 0.018034633 -0.0077004833 0.02275796
-0.027731437 -0.026766678 0.030852739 0.048888996 0.010821236 -0.13242844 0.106969215 -0.11571646
0.0122962445 -0.050705016 -0.04754974 0.022822212 -0.028395869 0.03845087 0.03457029 0.020452917
0.035298053 0.07578948 -0.036465324 -0.0172998 0.10060029 -0.1020626 -0.014725496 0.026464965
0.06877977 0.03467433 0.10600506 -0.040391836 0.027400872 0.032475572 0.055373285 0.032407414
0.11727931 -0.057906255 -0.102269195 0.025917381 -0.04856734 0.03790695 -0.06772265 0.017365517
-0.0485325 0.013291766 -0.008813057 0.057115126 -0.021674046 0.00032390654 0.027087137 0.015410915
0.1682704 0.3883043 0.13630755 0.37436548 0.023781098 0.04035367 0.29666886 0.037074327
-0.003594211 -0.015435792 0.0782726 -0.05549027 0.06876442 0.0037343174 0.036805067 0.11724548
-0.038306333 0.0067063076 -0.02397387 0.102248654 -0.028203614 0.09000054 0.16486794 0.08059026
0.04362981 0.072402075 0.016888544 0.2648921 0.18105035 0.4104946 -0.117281154 -0.101974115
0.12694234 -0.08522798 -0.003120415 -0.014426968 0.0069143325 -0.017581463 0.011328114 0.2486046
0.028353855 0.36929342 -0.059236467 0.077907294 0.27288908 0.34184706 -0.04784532 -0.010742576
0.079060145 -0.021446306 -0.039169252 0.24600601 0.046860993 0.40367794 0.021527922 0.21549018
0.06492375 0.20487078 0.073072486 0.11190813 -0.0018404035 -0.11086057 -0.010539144 0.044630975
0.06371174 0.6970715 -0.037117086 0.6719151 0.040384915 -0.078520805 0.53106725 -0.012125759
0.07027923 -0.024310289 -0.0020060583 -0.087513685 0.03183312 -0.015601787 0.0786305 -0.00019418071
-0.10486345 -0.02470782 -0.08507761 0.093661085 0.06109965 -0.046305183 -0.008793033 0.10799211
-0.06384906 -0.087417245 0.017948344 0.46872276 0.045127776 0.73737466 0.08422707 0.022502556
0.0054112677 0.058016777 0.1391821 0.03302482 -0.068880305 -0.06860094 0.09804585 0.43725848
0.08116625 0.66327643 0.00655438 0.021496063 0.48646042 0.61318797 0.16602524 0.01467426
0.061194323 0.07000701 -0.052248098 0.43081322 0.109682366 0.7247439 -0.031425472 0.42630765
0.15504938 0.45788786 -0.034591153 -0.037910573 -0.054412786 0.03389685 -0.04713753 -0.07067847
0.013764339 0.21979864 0.046373993 0.21188962 -0.11910377 -0.0827166 0.16728257 0.018736515
0.015065152 0.12030305 -0.003067215 0.058285832 -0.050287195 -0.004444753 -0.024819436 -0.08386321
0.12179972 -0.06826564 0.006046903 -0.005989641 0.048611023 0.02501206 -0.010504397 0.03459288
-0.086989686 0.019709572 -0.082587555 0.1438973 0.06420949 0.2324201 -0.038371503 0.090676114
-0.013123005 -0.06962395 -0.022689324 -0.07118853 -0.0897581 -0.018596739 -0.037408028 0.13687162
0.09691754 0.20925915 -0.0299498 0.03295212 0.15312858 0.19330317 0.020365937 -0.022243299
0.014881939 -0.02746255 -0.05645811 0.13402832 -0.12276177 0.228468 0.055386357 0.1307223
0.013025518 0.14144902 -0.02898876 0.029419096 -0.060946636 -0.07404643 -0.06838027 -0.061816856

fc2.bias f4 [4]
00000000: 436f 473d acc0 553e 578c 643e e2bc 783d
0.04869009 0.2087428 0.2231916 0.060727008
